models/client-10-1.pth (torch, 13424 bytes, 5 tensors)

fc1.weight f4 [64, 8]
00000000: 08d0 153e 00cf b6bc 73da 19be 3153 b13d
00000010: d013 c2bd e45a 9cbd 3a5d 82be b978 33be
00000020: 4bf5 623e b817 733d 2ce7 1fbe 1842 adbe
00000030: 1a59 4c3e f8db 873d 46bc 9d3e 5d6b b0be
00000040: b95e 7c3e 1a52 a8be b9a6 aa3e c31f aa3e
00000050: a808 9c3d bb28 34be f0fd 0a3d 7415 4fbe
00000060: 10c1 34bd 4747 9ebe 5c7d acbd db18 20be
00000070: 1efb 093e 5d07 e5bd 2529 163e 21b0 8fbe
00000080: c003 40bd 520e b13e da5d 9d3e 0061 1dbe
00000090: 38f5 243d 25ce b43e 0862 e4bd 581c 82be
000000a0: b065 06bd 9a66 6ebd cf6b a53e 1804 3cbd
000000b0: 2802 ae3e 70cd 82be 0acf 75be ff17 493b
000000c0: 43e6 9e3d 8f68 97bc d7ea acbe cb77 6ebe
000000d0: a209 9a3e ff8d f23a 2599 233e 6485 c33d
000000e0: 9ef0 34be 6c85 78be 92b6 7bbe 5aac 813e
000000f0: a7ba 1d3d fa48 1a3e 28a2 24be ee04 323e
00000100: 88fd 11be 0394 533e 7c24 923e 9e3c 0bbe
00000110: d95e da3d 273c ae3e f17f b43e 37ad 4abe
00000120: a21a a23e ea9c 0d3e fa06 b0be ee46 7e3e
00000130: c941 5a3e f8c6 60be cf1a b8bc d426 973d
00000140: cc62 82bd 78f8 ff3d 3f30 e43d 814c 4e3e
00000150: 599e b2be 3fc8 523e 0d8e 6fbe f658 983e
00000160: 486d 5ebd 1f34 733d db4d 95be 105e f7bd
00000170: 6c9a a4be a4bc 8ebe 4149 99bc 43e4 7a3e
00000180: 2e60 4ebe 9ae8 abbe 30c3 b9bd 20ad ccbd
00000190: b06c 413d 2d7c ebbd 4f85 adbd 30f9 5c3e
000001a0: 120d dcbc 47d7 8fbe 5221 fa3c b7fb 50be
000001b0: d8df 83be 52f8 1ebe f016 133e 5ead 8cbe
000001c0: d4a8 87be 4802 803e d2f4 7e3e 72fe 113e
000001d0: 1e56 b3be c9d8 31be 7886 0b3d 12b8 abbe
000001e0: 70b5 acbc 58f7 74bd e0fa 3f3c f0ff 8b3e
000001f0: c055 95bc 00ea 103c 8de7 983e 5eb4 72be
00000200: 5131 5e3e ce3e 783e 7ecc 083e 2f75 343e
00000210: 7ab7 b0be 535c 02be f1be 833e 2e8a 893e
00000220: a0e1 75bc 82b8 07be 7563 9fbe 7503 573e
00000230: 40a4 5c3e 4abf 163e 3b59 90be 6353 1b3e
00000240: f14a 3e3e 62a5 473e 481b b23d e425 90be
00000250: b88e 71be edf0 aebe 4d28 12be cec2 12be
00000260: 21b0 edbd 75ad 3ebe ffa2 b2be f33f 96be
00000270: c297 8d3e d202 49be 987f 913d 930a 2dbe
00000280: 7bbf 2ebe 3ad7 4a3e 4a86 51be 1829 06be
00000290: 0db7 983d 0414 94bd 7e77 dabd 2969 813e
000002a0: 9fa8 a6be 6091 cf3d 337f debd fc9a 95bd
000002b0: 4cc4 23be 20bb b93c 542d a43d 1687 1a3d
000002c0: befe a8be dbf4 553e aa06 55be 28be 6e3d
000002d0: d2e7 423e 8018 11bc 5bb7 89be 974b 0dbd
000002e0: 68ab 9b3d b068 8c3d 2445 38be 5d38 50be
000002f0: 40b3 0ebc 206d 5f3c 9006 4cbe 16cb 19be
00000300: 6130 9fbe 1061 e03d bc72 4e3c 7a0f 87be
00000310: e996 e73d 5aa0 403e 925e 56be 9f4d 3e3e
00000320: 9a0c 13bd 267a 433e 704e fe3c 6484 20be
00000330: b796 7abd e698 8bbe 7f35 c1bd 10c7 85bd
00000340: 1400 15be 4646 483e d917 983e 6649 7b3d
00000350: 007a d03b c8b1 ed3d eeb7 8dbe 8a57 8f3e
00000360: c213 023e 9631 083d 8fe3 c63c c537 98be
00000370: 838d f0bc f2b0 1abe 00ad 493d e88d 793d
00000380: fe4f 7cbe ad66 adbe 1022 153e 865b acbe
00000390: 1e63 cebd deec 6c3e 72e6 11bd 5668 a33e
000003a0: c845 78be 7f10 84be a1ac 62be 42e9 723c
000003b0: 605d 6ebd 6bdd a83e 2ac2 393e 45de 69be
000003c0: 27b5 693e bfb0 643c b6ed 65be 4398 1abe
000003d0: 6b0b e6bd 82fe 953e 470d 1c3d 813f b2bd
000003e0: 1050 083d 2e4f 483e e05c 45bc 7d74 b33e
000003f0: 962d c43d e451 93bd 76f1 82be 3898 1cbd
0.14630139 -0.022315502 -0.15024738 0.086584456 -0.09476435 -0.076345235 -0.2546175 -0.17526521
0.22163884 0.05934879 -0.15615529 -0.33839488 0.19955865 0.066337526 0.30807704 -0.34456912
0.24645509 -0.3287514 0.33330324 0.33227357 0.076188385 -0.17593662 0.03393358 -0.20223027
-0.04412943 -0.30913755 -0.08422348 -0.15634482 0.134747 -0.11183045 0.14664133 -0.28064063
-0.046878576 0.34581238 0.30735666 -0.15369034 0.04027292 0.35313526 -0.111515105 -0.2541225
-0.03281182 -0.058203317 0.32308814 -0.04590234 0.3398602 -0.2554736 -0.2400476 0.0030684469
0.07758763 -0.018482475 -0.3377292 -0.23287885 0.30085474 0.0018505453 0.15976389 0.095469266
-0.17669913 -0.24269646 -0.24581364 0.25326806 0.038508084 0.15066901 -0.16077483 0.17384693
-0.14256871 0.2066193 0.2854346 -0.13597342 0.10662622 0.34030268 0.35253862 -0.19792639
0.31660944 0.13829389 -0.34380323 0.24831745 0.21314158 -0.219509 -0.02247372 0.07380453
-0.063665 0.124985635 0.11142015 0.20146371 -0.34886435 0.205842 -0.23394032 0.29755372
-0.054303437 0.05937588 -0.29160962 -0.12078488 -0.32149065 -0.27878296 -0.018711688 0.24501137
-0.20153877 -0.33575898 -0.09070432 -0.099939585 0.047222793 -0.11498294 -0.08472692 0.21579432
-0.026861701 -0.2809393 0.030533466 -0.20408522 -0.25756717 -0.15524414 0.14364219 -0.2747602
-0.26495993 0.2500174 0.24898079 0.1425722 -0.3502664 -0.17367853 0.034063786 -0.33538872
-0.02108261 -0.059806198 0.011717528 0.27343702 -0.018229365 0.008844852 0.2986416 -0.23701617
0.216985 0.24242708 0.13359258 0.17622827 -0.34514982 -0.12730531 0.25731614 0.26863235
-0.0150074065 -0.13253978 -0.31130567 0.20997413 0.21547031 0.14721408 -0.28193077 0.15168528
0.18583275 0.19496682 0.0869661 -0.28153908 -0.23589599 -0.34168187 -0.14273186 -0.14332125
-0.116058595 -0.18620856 -0.3488998 -0.29345664 0.27654845 -0.19629982 0.07104415 -0.16898565
-0.17065232 0.19808665 -0.20461383 -0.13101614 0.07456789 -0.0723038 -0.106673226 0.25275543
-0.32550523 0.1013515 -0.10864105 -0.073049515 -0.1599285 0.022672236 0.08016458 0.037726484
-0.33006853 0.20894186 -0.20803323 0.058286816 0.19033745 -0.008855939 -0.26897702 -0.034495916
0.076010525 0.06855905 -0.17995125 -0.20334001 -0.008709729 0.013636857 -0.19924378 -0.15018877
-0.31091598 0.10956013 0.012600597 -0.26378995 0.11308081 0.1881117 -0.20934513 0.18584298
-0.03590069 0.19089565 0.031043261 -0.15675503 -0.06117889 -0.2726509 -0.09434032 -0.06532109
-0.14550811 0.19558057 0.29705694 0.061349295 0.0063622 0.11606175 -0.2767939 0.27996475
0.1270285 0.033250414 0.02427843 -0.2973005 -0.029364353 -0.15106562 0.04923725 0.060926348
-0.2463989 -0.33867398 0.14563775 -0.33663577 -0.10077499 0.23137233 -0.03562016 0.3191554
-0.2424537 -0.25793836 -0.22136165 0.014826121 -0.058194518 0.32981429 0.18140474 -0.22838695
0.2282301 0.013958155 -0.22453961 -0.15097146 -0.112326466 0.29295737 0.0380986 -0.08703519
0.03327948 0.19561455 -0.012046069 0.3504981 0.09579007 -0.07193354 -0.25574845 -0.038231105

fc1.bias f4 [64]
00000000: b007 5bbe 6233 e2bd 3ac9 ae3e 2f57 a3be
00000010: 233b 5bbe e092 bb3d 1cb1 f4bd 18d5 88bd
00000020: c7a5 0d3e 7406 c53d bfee c9bc 44a5 93bd
00000030: 50b0 963e 2913 283e 80ae 2f3c 67e1 a6be
00000040: 20b5 a0be def3 c33d 58bd 0abe d9e6 a9be
00000050: 1fee a33e 5a56 0abe dfa4 663c 38b1 79bd
00000060: bb91 933e b294 0e3e 1499 90be 889f d83d
00000070: 987c a33d 2a6d 523e ea19 34be 67c4 6ebe
00000080: 8772 553e 3786 df3d 378d a7be 3ea9 a23e
00000090: a7b2 a63e 05de 933d c3dc 23be c1ec 61be
000000a0: e45d 993e c191 d5bb 98b4 53bd 8aef 193e
000000b0: b0ab b5bd 9633 12bd 037b 40be 546e 623e
000000c0: af00 943d 2e51 58be d626 b1be d2a3 8bbe
000000d0: 38fb 46be f48a 98be 466e 153e 30cf d63c
000000e0: 48b1 4cbd e800 a5be af6d c13c dc41 a1bd
000000f0: 2f7e 14be c0a6 aebe 45c0 893e 85a2 83be
-0.21389651 -0.11044957 0.341379 -0.31902453 -0.21409278 0.091588736 -0.119478434 -0.066812694
0.1383277 0.096203715 -0.024649976 -0.07209256 0.2943139 0.16413559 0.010722756 -0.32593843
-0.31388187 0.09567998 -0.13548791 -0.33183935 0.3201761 -0.13509503 0.014077394 -0.060960025
0.2882212 0.1392391 -0.2824179 0.10577303 0.07982749 0.20549455 -0.1758801 -0.23317109
0.2084447 0.10914271 -0.32724926 0.31769747 0.32558176 0.07220081 -0.16002183 -0.2206297
0.29954445 -0.0065176194 -0.0516859 0.15032783 -0.088706374 -0.035693727 -0.18796925 0.221124
0.07226693 -0.21124718 -0.34599942 -0.27273422 -0.1943177 -0.29793513 0.14592847 0.026221842
-0.049973756 -0.32227254 0.023611872 -0.0787389 -0.1450126 -0.34111595 0.26904503 -0.2570993

fc2.weight f4 [32, 64]
00000000: fecf ab3d 563b 85bd 85e6 28bd 207c 6abd
00000010: 9280 e5bd 34a8 db3d cab6 f03d fca5 c13d
00000020: 486a 303d e8ba 353d 4c7b 72bd 64e3 08bd
00000030: 4206 7fbc dc09 cc3d c008 653b cc91 9ebd
00000040: 162c 243d 867d 92bd 0c95 2abd 60d4 72bc
00000050: 6311 ae3d 2c20 2b3d aec9 84bd c34b a8bd
00000060: c1b2 db3c 2c18 a03d 89bd 413d 4613 c0bd
00000070: 595e dabc 7849 f63c fe85 9e3d da96 f4bc
00000080: 00ea f0bc 8129 26bd 28f4 d93d b1bf cabd
00000090: 9744 a93d efa5 cd3d 45c8 a2bd 1ace a93d
000000a0: 2cb5 c2bd 4400 be3d de82 863d 7cce 873d
000000b0: 12ff d2bd 9462 0a3d 1875 c3bd 8ccd 373d
000000c0: 789a 923d 7120 50bc 9c85 ff3d 2fa6 f4bc
000000d0: b628 d0bd 3419 c23d 943a 55bd 6429 b7bd
000000e0: b427 ab3d a468 b3bd 440a 913d c0e1 203b
000000f0: 208f 883b 6c2f c5bd 5fc7 d73d c636 a5bd
00000100: 3c3e ba3d d6a4 c33d ff8f 98b9 22b6 66bd
00000110: 58a5 f9bc 783c 89bc ad0c a9bd b008 89bc
00000120: 8578 153d 99dc b63d bc27 0fbd 3f3c 57bc
00000130: e0bd a73d edde 5e3d 7cb4 ef3d 04ca 903d
00000140: 1081 9abd d8c0 7ebd e394 7bbd 3482 7d3d
00000150: fc6a 98bd 68ac 753d ba75 9ebd d857 723d
00000160: ef14 293c 102f cd3d 7a80 913d 7653 86bc
00000170: d8dd 003d affb b03c 980d fdbd c341 37bd
00000180: a261 febd 7604 a83d d4e2 afbd 9019 ee3c
00000190: 515c c4bd 2644 f4bc b872 913d afdd d1bd
000001a0: fa87 c43c e908 a23c 5719 aa3c fa0f 863d
000001b0: f451 403d 84a9 f93d b359 e8bd 4e73 883d
000001c0: 7e64 4f3d 727e fb3d 0646 d4bd eca9 ecbd
000001d0: 4070 4bbd a3ed cbbd cc50 33bd ba9f a93c
000001e0: 1813 bf3d ce03 f83c 9a33 b9bd bf94 b0bc
000001f0: 4097 f93b c7fe 683d d53f af3d 98a8 843c
00000200: ce73 d0bd 7463 eb3d 8352 d93d 96e9 a0bc
00000210: 4015 e5bc 05f2 febd d4a2 e8bd b7a9 68bd
00000220: b6ef 93bd 8276 cc3d 08bf 343d b783 ed3d
00000230: 9ed9 80bd 2958 e93d 87bb 893c fcce c73d
00000240: 7ebe f0bd 11f4 1dbc f931 a83d b04e f3bc
00000250: b04e c43d 23a0 9bbd f6d0 833d 4002 fabb
00000260: 949e 783d 6890 1abd 6cf9 3cbd 8189 eb3d
00000270: 7875 5c3d a0e8 263d c306 f4bd ff15 12bd
00000280: c9ae d7bd 4ae1 a9bd f21b db3d e037 4c3d
00000290: e0be 01bd f206 38bc d304 d4bd 20aa b13b
000002a0: 8644 bd3d bba0 9dbd 1a28 c5bd bfe1 b8bb
000002b0: 768a ddbd c411 dabd 5d53 9cbd 4c16 bdbd
000002c0: 96db f7bd 8869 c1bc 1a98 513d 9c6f b33d
000002d0: 1073 04bd 69b0 67bd 5a75 aabd 8cf3 863d
000002e0: a06e 2e3c d11d 92bd 0f19 ba3d 9cbf ac3d
000002f0: 3cfb 44bd 1808 fdbd 9a5c 8bbd 0680 a13c
00000300: 4352 dc3d f1de ebbd 092f cd3d 266d dd3d
00000310: 3a2a 823d beac d9bd e747 f33d fa56 fc3d
00000320: d021 003c 8018 1f3d 4248 743b 8fad a4bd
00000330: 78b9 50bd 38cc 1d3d 70f2 a33d ce4a cbbd
00000340: 46a5 fbbd 3b51 163d 584b 4ebd 2f49 cfbd
00000350: 76a1 903d d43b febd b6e6 e83d c04f ae3d
00000360: 00ff 7f3d c141 f0bc d403 b43d 0075 dd3c
00000370: 9984 9c3d 0c9d a83d 86f9 b73d 263f 9b3d
00000380: 94c6 9abd fa94 e13d aacc d6bd da18 f23d
00000390: 0053 f53c 76d3 48bd 2203 d0bd a956 9abd
000003a0: b6a1 b7bd 0d26 853d 3864 f4bc 6480 4fbd
000003b0: 50a3 18bd c0a0 6ebc bcbf 243d 8499 8a3d
000003c0: 7e54 e13d 0f64 bf3d a8cf 32bd 09b4 da3d
000003d0: 0f29 58bd 76c0 443d d128 dabd d7a6 31bd
000003e0: d5b0 7f3d c03c d4bb 7cf2 dabd 64bf 203d
000003f0: b70b f03c b04b 993d 2f4d ad3c a03a 2e3c
0.08389281 -0.06505458 -0.041235466 -0.05724728 -0.112061635 0.107254416 0.11753614 0.09455487
0.043070108 0.0443677 -0.059199616 -0.03341998 -0.015565457 0.09962818 0.0034947842 -0.07742652
0.040081106 -0.07152848 -0.04164605 -0.014821142 0.0849941 0.04177873 -0.0648378 -0.082175754
0.026818635 0.078171104 0.047299895 -0.09378676 -0.026656317 0.03006433 0.07740401 -0.029857088
-0.029408455 -0.040566925 0.10642272 -0.098998435 0.082650356 0.10041415 -0.07948355 0.08291264
-0.09507212 0.092773944 0.0656793 0.06631181 -0.10302557 0.033785418 -0.09543818 0.04487376
0.07158369 -0.012703047 0.12476656 -0.029864399 -0.10164015 0.09477463 -0.052057818 -0.089434415
0.08357182 -0.08760193 0.07082036 0.002454862 0.0041674525 -0.09628186 0.10536074 -0.08067088
0.090939015 0.09552924 -0.00029098985 -0.05632604 -0.03047435 -0.016752467 -0.08254371 -0.016727775
0.03649189 0.089287944 -0.034950003 -0.013136922 0.08190513 0.054411817 0.117043465 0.070697814
-0.07544148 -0.06219563 -0.061421286 0.06189175 -0.07442281 0.059978873 -0.07737298 0.059165806
0.010319932 0.10018742 0.07104583 -0.01639722 0.031461567 0.021604387 -0.123561084 -0.04474045
-0.12420966 0.08203976 -0.08588186 0.029064924 -0.095879205 -0.029817652 0.07101959 -0.10247361
0.02399062 0.01977964 0.020764036 0.06546016 0.046953157 0.12190536 -0.11345234 0.066626176
0.050632946 0.12279977 -0.103649184 -0.115558475 -0.049667597 -0.09957435 -0.043778226 0.020706046
0.09329814 0.030275252 -0.09043045 -0.021555303 0.0076169074 0.0568836 0.08557097 0.016193673
-0.10178338 0.114935786 0.10611441 -0.019642632 -0.027964234 -0.12448505 -0.11359182 -0.056802478
-0.072234556 0.09983541 0.044127494 0.11597388 -0.06291507 0.11393768 0.016813053 0.09756276
-0.117550835 -0.0096407095 0.082126565 -0.029700607 0.09585321 -0.07598903 0.064363405 -0.0076296628
0.060698107 -0.037735373 -0.046136305 0.11500836 0.053822964 0.040749192 -0.11915352 -0.03566551
-0.105313845 -0.082949236 0.106986895 0.049857974 -0.031676173 -0.011232125 -0.10352483 0.005421892
0.092415854 -0.076966725 -0.096267894 -0.0056421454 -0.10817425 -0.1064792 -0.07633088 -0.092327684
-0.121024296 -0.023609892 0.051170446 0.08761522 -0.032336295 -0.056564722 -0.08323164 0.06589422
0.010646492 -0.07134593 0.09086811 0.08434984 -0.04809116 -0.123550594 -0.06804772 0.019714367
0.10757878 -0.11517132 0.10018737 0.10811834 0.0635571 -0.10628651 0.11878949 0.12321277
0.0078205615 0.038841724 0.0037274514 -0.08040916 -0.050958127 0.038524836 0.08005226 -0.09926377
-0.12287383 0.03669856 -0.050364822 -0.101213805 0.07062046 -0.12413755 0.113721296 0.08511305
0.062499046 -0.029328229 0.08789793 0.027033329 0.076424785 0.08233079 0.0898314 0.07580404
-0.07557407 0.11014743 -0.10488255 0.11821146 0.029946804 -0.04902979 -0.101568475 -0.0753606
-0.08966391 0.06501398 -0.029832944 -0.050659552 -0.037265122 -0.014564693 0.040221915 0.06767562
0.11002444 0.093452565 -0.043655068 0.1067887 -0.05277353 0.048035108 -0.10652316 -0.043372
0.0624245 -0.0064769685 -0.106907815 0.039245024 0.029302461 0.07485139 0.021154968 0.0106340945

fc2.bias f4 [32]
00000000: 0a5d a13c 88ca 11bd c05e 303d f227 023d
00000010: d087 87bd 6555 1cbd 5806 b2bc 8482 3f3d
00000020: 03e6 a43d c4d7 483d 8067 ac3a 9709 963c
00000030: d173 e0bd 80d4 233c 7411 a3bd 46a3 9ebd
00000040: 6c6e 4fbd a4ca 39bd 7fcf dc3b dd5b bc3d
00000050: 8220 ca3d b6bb 9d3d 1874 e4bd 1f0c aebb
00000060: 9cab 723d 112e fd3c e4b3 21bd 2e0e e83d
00000070: 8066 a63a e0bc fdbb 0ee4 6d3d 8eff aebd
0.019697685 -0.03559354 0.04305911 0.031776376 -0.06617701 -0.038167376 -0.02173154 0.04675533
0.08051684 0.049033895 0.0013153404 0.01831512 -0.1095959 0.009999394 -0.07962313 -0.07745986
-0.050642416 -0.04535927 0.0067386026 0.09197209 0.098694816 0.07701819 -0.111549556 -0.0053115035
0.05924569 0.030905755 -0.039478198 0.113308296 0.0012695342 -0.007743463 0.058078818 -0.08544837

fc3.weight f4 [1, 32]
00000000: 8b60 183e 9920 6f3d 1a70 3b3d 49a2 163e
00000010: ecd1 63bd 579b 213e eeb1 053e 69af d53d
00000020: 90a5 a43d 824f 1f3b 4204 0dbe f081 90bc
00000030: 2805 743d fef8 d73c aca9 663d c090 103d
00000040: 6685 fa3d b85b f8bd c180 193d 6144 e9bb
00000050: 41fc a7bd bc4e 8fbd aaf4 d73c 0d9b 5b3d
00000060: 4cf1 01be 1ec7 7d3d 40dd 8dbd 62fb 3fbd
00000070: be51 2ebe a2e6 0a3e 80cd 2ebc 4d08 2ebd
0.14880578 0.058380697 0.045761205 0.14710344 -0.05562012 0.15781914 0.13056156 0.104338475
0.08039391 0.0024308865 -0.13771155 -0.017640084 0.05957523 0.026363846 0.056314155 0.035294294
0.12232475 -0.12126869 0.037476305 -0.007118747 -0.082024105 -0.06997439 0.026361782 0.053614665
-0.12689704 0.06195747 -0.06926966 -0.046870597 -0.1702337 0.13564542 -0.010669112 -0.042488385
