models/client-3-4.pth (torch, 239842 bytes, 12 tensors)

conv1.weight f4 [6, 1, 5, 5]
000000 94 f6 9d 3e b6 cd 99 3e a1 e8 f8 3b 25 5c a2 3d
       0.30852187 0.30039757 0.007596091 0.079277314
000010 63 b9 92 3d 16 68 7c 3e 26 2a ae bc e0 a4 88 bd
       0.07164266 0.2464908 -0.021260332 -0.066720724
000020 19 4e 18 be 25 b4 fa bd 5e 26 1a 3d a5 7c 08 3e
       -0.14873542 -0.12241391 0.037634246 0.13328798
000030 5d dc 5f be 91 33 54 be 10 f3 78 be 2f 41 14 3e
       -0.21861406 -0.20722796 -0.24311471 0.1447799
000040 f8 83 82 3e eb 13 ab 3c c5 b9 ab 3c f4 1e 1f be
       0.2549131 0.020883521 0.020962605 -0.15539151
000050 bf a3 24 bd 70 fe 2d 3e c6 76 ba 3e 3d c7 6c 3d
       -0.040195223 0.16991591 0.36418742 0.057807196
000060 e7 c4 8b 3e 87 a4 be be de b2 da be b8 6a 5e be
       0.27298662 -0.372349 -0.4271459 -0.21720397
000070 7e c8 b9 be 04 3e 77 be 5d 38 9f be e2 fc 8a be
       -0.36285776 -0.24144751 -0.3109769 -0.2714606
000080 ce 8e 3e be c6 43 78 be a3 2a 91 be bd f6 18 3e
       -0.18609163 -0.24244604 -0.28352842 0.14937873
000090 c7 d0 1f 3e cf c5 9d bd 25 ec 50 bc 91 0a 1a be
       0.15606986 -0.077037446 -0.012751614 -0.15043093
0000a0 14 db 85 3e a9 9d d7 3c 2e d3 2e 3c 09 13 5b 3d
       0.26143706 0.026320295 0.010670466 0.05348495
0000b0 ce 96 9b 3d 09 e9 82 3c ab 79 d0 3d 69 6f c2 3e
       0.07597123 0.01598026 0.10179456 0.37975624
0000c0 d8 28 bb 3d 35 54 8f 3e e1 3f 9b be 51 0c be be
       0.0913865 0.27993932 -0.30322173 -0.37118772
0000d0 89 23 aa be 00 c7 47 be 06 03 3e 3e 60 ff de bd
       -0.33230236 -0.19509506 0.18555841 -0.10888553
0000e0 98 46 ab be 73 66 93 be 95 a1 e8 bb 84 35 97 3e
       -0.33452296 -0.287891 -0.00709934 0.29533017
0000f0 68 8b 8b 3e 6c 8d 89 3d 26 44 23 bd ce 01 b3 3e
       0.27254796 0.06716427 -0.039859913 0.34962314
000100 c9 de df 3b 83 95 cf 3e 0f 43 0d 3e f0 8b 3d 3e
       0.006831978 0.40543756 0.13795112 0.18510413
000110 52 ab 3a 3e db 7b b5 3e e7 05 17 3e 4b 2b e0 3e
       0.18229416 0.35446057 0.14748345 0.4378303
000120 d2 cb 99 3e 42 0f 99 3e 57 57 00 3e 5a 9a 98 3c
       0.30038315 0.29894453 0.12533318 0.018628288
000130 4f 0f 43 3e 1c 20 fb 3d 61 40 c7 3c 5e 05 4b bd
       0.19048809 0.12261984 0.02432269 -0.049565665
000140 b6 be 0a 3e 8e f2 bb bd 32 18 54 3e c7 12 b7 3d
       0.13549313 -0.09177123 0.20712355 0.08939128
000150 8b e4 35 3e e9 13 f5 bd 95 4f 0a 3e 5a 76 a6 3e
       0.17762963 -0.11966688 0.1350692 0.3251217
000160 fe 22 5a 3e 79 36 8c 3e 89 08 44 bc 6e c2 dc 3d
       0.21302411 0.2738531 -0.011964926 0.10779272
000170 11 2f ee 3d ac 40 86 3e ca 6d c2 3e b7 84 49 be
       0.11630071 0.26221216 0.37974387 -0.19679533
000180 18 f0 67 be cf b4 1a 3d 82 d2 28 3e 11 7a a9 3e
       -0.22650182 0.03777009 0.16486552 0.33100942
000190 f0 24 6a 3d 45 46 49 be 68 7d 31 be 2e e1 0a be
       0.057164133 -0.19655712 -0.17332995 -0.13562462
0001a0 d9 20 62 3e c1 2f ad 3e 0a 9a 9e 3e 42 e9 6c bd
       0.22082843 0.33825496 0.30976897 -0.05783964
0001b0 a2 d1 9c 3e c3 3a 48 3e 00 76 0a 3e f3 d7 32 3e
       0.30628687 0.19553666 0.13521576 0.1746519
0001c0 16 40 a2 3e 04 98 9f 3e 2a 9c ce 3e 33 12 95 3e
       0.3168952 0.31170666 0.4035352 0.29115447
0001d0 67 3c 16 bb 17 91 59 3e fe 04 5e 3e d1 51 38 3e
       -0.0022924186 0.21246754 0.21681592 0.1799996
0001e0 a6 87 50 3e 53 46 8a 3d d6 c7 92 b8 f3 73 0d 3e
       0.20364246 0.067516945 -6.999045e-05 0.13813762
0001f0 9a 87 7d 3e 65 bb 1b be fb e9 04 3e 72 71 1e be
       0.24758759 -0.15208204 0.12979881 -0.15472963
000200 61 3a 00 3e f2 9b 8f 3d 89 54 f6 bd 28 36 b7 3c
       0.1252227 0.07012166 -0.120278426 0.02236469
000210 82 01 d7 3d 78 48 8a 3e ab 6c f5 bd b6 6a af bd
       0.104983345 0.27008414 -0.119836174 -0.08565275
000220 40 be 0f bd dd 3f ad 3e 23 18 e2 bc be 8b b0 bd
       -0.035093546 0.33837786 -0.0275994 -0.08620404
000230 f5 6f a9 3e 78 a8 68 3e a2 cd d1 3d 99 c4 3d 3e
       0.3309323 0.22720516 0.102442995 0.18532027
000240 f5 80 aa 3e 68 80 9f 3e 6d 8e aa bc cb 17 a2 3d
       0.3330151 0.31152654 -0.020819867 0.079146944
000250 bc e2 18 3e 99 76 bb 3e
       0.14930242 0.3661392

conv1.bias f4 [6]
000000 22 47 fa 3d 25 ba ca 3e 08 94 4f 3e 83 51 93 bb
       0.12220599 0.39595142 0.20271313 -0.004495801
000010 e3 2a 32 bb ee c5 55 bd
       -0.0027186207 -0.052190714

conv2.weight f4 [16, 6, 5, 5]
000000 3f b0 91 3d 12 40 23 3d 98 17 aa bd 05 9f 8c 3d
       0.071136944 0.039856024 -0.083052814 0.06866268
000010 20 3c 0e 3c 39 7c d2 3b a4 e9 ac 3c 36 3a 67 bd
       0.008681327 0.0064235 0.021107502 -0.056452
000020 84 0f 8e bd b6 ee f9 3d 0d b1 42 3d 76 d3 40 bd
       -0.06936553 0.122037336 0.04753213 -0.047076665
000030 36 3e 9a bd 93 68 08 3c e7 a5 3b 3d ff fe 05 3e
       -0.07531397 0.008325714 0.045812514 0.13085555
000040 11 04 08 3e 72 85 7b bc e0 35 8e bd 81 ba df bc
       0.13282801 -0.01535164 -0.069438696 -0.027310612
000050 20 f3 15 3d 78 26 02 3e 31 b6 0c 3e 70 14 90 3d
       0.036608815 0.12709987 0.13741376 0.07035148
000060 d9 0f 12 3d 4d a9 c4 bc 83 9c 98 3b 60 6e be 3d
       0.035659645 -0.02400651 0.0046573295 0.09298396
000070 76 94 68 3d 70 70 93 3d 1f 38 53 bd a5 98 53 3d
       0.05678221 0.0719918 -0.051567193 0.051659245
000080 b1 aa b1 3d b5 f3 bc bb b2 08 47 3d a4 76 4b bc
       0.08675135 -0.005766357 0.048592277 -0.012418423
000090 84 8f ae 3c 95 84 d5 3c 41 5c 05 3d c4 f2 2e 3d
       0.021308668 0.026064197 0.032558683 0.042711988
0000a0 e2 64 0c 3e f0 06 41 3e dd 73 5d 3d 73 d9 88 3d
       0.13710359 0.18850303 0.054065574 0.066821
0000b0 47 6c a2 bc 6e 7d bc 3c 33 c1 1e 3e 76 a8 47 3e
       -0.019827021 0.023009028 0.15503387 0.19497856
0000c0 3c 43 24 3e 73 9f 0d 3e cb 54 7e 3b 7f 99 9a 3c
       0.16041273 0.13830356 0.0038807865 0.01887202
0000d0 86 01 51 bd de 33 98 3d 83 37 b9 3c 2c 56 57 bd
       -0.051026843 0.07431768 0.022609478 -0.052572414
0000e0 94 52 96 bd cb ed 53 3d 12 14 87 bc ab 2e 9d 3d
       -0.07339969 0.05174045 -0.016489062 0.07674917
0000f0 d8 a7 82 3c 03 7d e2 bd 7b c7 02 be 90 fb bf bc
       0.015949175 -0.11059 -0.12771408 -0.023435384
000100 b7 22 08 be 7a e6 30 3d ff 72 fa 3c d0 7f 88 3d
       -0.13294493 0.04318855 0.030572413 0.06665003
000110 ff ea ac 3b 93 63 a3 bd 43 2c 0c 3d 72 b3 05 3e
       0.005277037 -0.07977977 0.0342219 0.13056734
000120 8d 8a bc 3d 04 43 2e 3e cd 3a 12 3d d7 19 78 3c
       0.09206114 0.17017752 0.035700608 0.015142879
000130 af c3 4b 3d 76 f4 33 bd 40 f6 78 3b 7f 52 36 bb
       0.049747165 -0.043934308 0.0037988573 -0.0027820168
000140 52 36 30 bc 26 77 63 3d 26 9b 8d bd d2 fd 56 bc
       -0.0107551385 0.05553355 -0.06914358 -0.013122039
000150 68 e4 03 bd 07 29 95 bd 17 78 a0 bd ff 30 2c 3d
       -0.032200247 -0.07283216 -0.07835405 0.042038914
000160 4e 7f a7 bd 70 aa dc 3c 79 84 ba 3d 1b 14 f8 3c
       -0.08178578 0.02693674 0.091072984 0.030283025
000170 b9 77 43 bc dd 4c a6 bd f0 38 e9 bd 7b 56 1b 3e
       -0.0119304 -0.08120129 -0.11387813 0.15169708
000180 f3 9a 1d 3e cc dc af 3d 53 3a 98 3c 5f 0b 35 bd
       0.1539114 0.085870355 0.018582499 -0.044200297
000190 b8 a7 ed bd 6d 1a a3 bd 62 71 c7 bc 11 81 14 3d
       -0.116042554 -0.07964025 -0.024346057 0.0362559
0001a0 5d dc 8d 3d 56 50 9f bd f9 c6 82 bd 57 00 59 3d
       0.069267966 -0.07778995 -0.06385607 0.05297884
0001b0 5c 3e b2 3d 0a 70 0a 3d 1e a5 4d bc 52 ea af bd
       0.087033 0.033798255 -0.012551574 -0.08589615
0001c0 0f 6f f2 bd 97 7b e0 bd f1 73 c9 bd a8 34 d4 3c
       -0.11837589 -0.10961073 -0.09836567 0.025904015
0001d0 f6 ea f1 3a 50 3e a1 bd 26 0f f5 bd 5a e9 9d bd
       0.0018456865 -0.07873213 -0.1196578 -0.07710524
0001e0 48 05 0b 3d 61 69 81 bc c9 b5 21 bc 69 89 71 3d
       0.033940583 -0.015797319 -0.009870001 0.058968935
0001f0 7f c5 af 3d b0 5d b8 bd 2b 76 ee bc 72 6d 47 bd
       0.08582591 -0.090022445 -0.029109081 -0.04868836
000200 73 46 3d bd 0a a8 15 bd 1b 0a 20 bd 0e 1e 07 be
       -0.046209764 -0.036537208 -0.039072137 -0.13195059
000210 af c0 d7 bc df a0 c7 bc 89 0a df bc b1 73 97 3b
       -0.026336996 -0.024368702 -0.027226703 0.004621946
000220 51 67 42 bd 2c a3 19 be dd 80 e7 bd 3f aa dc bd
       -0.04746181 -0.15003651 -0.113038756 -0.10774659
000230 f0 2a 19 3d 6b 82 4c bd 5f f1 5c bb ec c3 b2 bd
       0.037394464 -0.049929064 -0.0033713204 -0.087287754
000240 25 ec 1d bd 80 77 1d 3e 82 af b1 3c b5 94 1b 3e
       -0.038555283 0.15377617 0.021690134 0.15193446
000250 7c 44 1f 3d 2e 2b 0a 3e 2e 90 4f 3d 0e 0c 4b bd
       0.03888367 0.13493034 0.05067461 -0.049572043
000260 25 27 30 bd 5c 90 3f bd f2 47 84 bd 3f be 89 bd
       -0.04300608 -0.04676853 -0.06459035 -0.0672574
000270 49 52 f9 bb ee ba 53 bc d0 49 b1 bd c6 5d bd bc
       -0.007608686 -0.0129229855 -0.08656657 -0.023116004
000280 a1 ef b2 3c 17 6f d3 3d e2 84 f0 3c c7 9c 98 bc
       0.02184278 0.10323923 0.029360238 -0.018629445
000290 1b 66 c7 3d e8 97 15 bd 44 a1 d4 3c 47 52 c0 bd
       0.09736272 -0.036521822 0.025955804 -0.09390693
0002a0 ad f9 06 be 6b 91 a1 bc ba b7 af bd 1f 01 4a be
       -0.13181181 -0.019722661 -0.08579965 -0.1972699
0002b0 3f 4d 3c be 2c 0b 73 bd 54 ca d5 3d e1 a6 5a 3d
       -0.18388842 -0.059336826 0.10438982 0.053381804
0002c0 ac 4c d8 3c 2a 68 ed 3c c9 0a 03 3e 0f a3 ab 3d
       0.026403747 0.028980333 0.12797083 0.0838071
0002d0 f9 dd da 3c 02 42 d2 bc 09 31 fa bc 5a 3f 6a ba
       0.026717173 -0.02566624 -0.03054096 -0.0008935832
0002e0 31 df 1c 3d 15 ed da bd ed 6b 21 be 06 79 c9 bd
       0.03829879 -0.10689751 -0.15763827 -0.098375365
0002f0 9d c0 4c be 17 b2 77 bd 8b 94 cc 3c 53 8e a3 3d
       -0.19995351 -0.060472574 0.024973175 0.079861306
000300 6a 29 6a bc 44 31 2a be 51 7c 2a be 04 32 c3 3d
       -0.0142921 -0.16620356 -0.16648985 0.09531024
000310 41 50 99 3d 5a c3 2f bd c0 eb 1e be f2 3d 05 be
       0.0748601 -0.04291091 -0.15519619 -0.13011912
000320 51 2b 0e 3d 72 7a a4 3d dc 89 b2 3c bc 1b e8 3c
       0.03470928 0.08031167 0.021794252 0.028333537
000330 c6 57 38 3d 21 dd 48 3d d1 b0 98 3d 2f 14 bc 3c
       0.045005582 0.04903901 0.074556 0.022958843
000340 d1 f4 5a bb 28 a6 61 3d 62 ba fd bd 7b 91 f3 bd
       -0.0033410082 0.0550901 -0.12389065 -0.118929826
000350 31 59 c8 bd 29 56 61 3d a6 f7 59 3d 03 26 09 be
       -0.09782637 0.05501381 0.05321469 -0.13393407
000360 8d e9 7e bd bd df 88 3d f3 02 d5 3d 98 93 0f be
       -0.06223445 0.066833 0.10400953 -0.14021146
000370 79 97 88 bd 33 ff 91 3d c2 d4 02 3e 2f 91 c9 3d
       -0.06669516 0.071287535 0.12776473 0.09842145
000380 81 bb 59 be 29 82 d0 3c 88 00 08 bc a1 97 44 3c
       -0.21262933 0.02545269 -0.008300908 0.011999042
000390 5f 5a e1 3b 5c 84 37 bd 66 9b d7 3d 3f f5 bf bc
       0.006877228 -0.044803962 0.10527687 -0.023432372
0003a0 b3 39 58 bc c5 30 2c 3e f8 52 bd 3c 2c e7 1b bc
       -0.01319735 0.16815479 0.023110852 -0.009515565
0003b0 0d fd 8d bc 8d 04 96 3d 4a 89 00 3d b5 94 6a bd
       -0.017332578 0.07325087 0.03138093 -0.057270724
0003c0 c3 53 4c be 84 8e a9 bd 51 b9 56 3c d0 aa 1c 3d
       -0.19953828 -0.08279136 0.013105706 0.038248837
0003d0 61 a1 71 bd a5 46 db bc f5 9d 8a 3d 84 1c 69 3d
       -0.058991794 -0.026767084 0.06768409 0.05691196
0003e0 77 8c 2c 3d 62 49 ad bb 32 57 61 bb cc 38 f7 3c
       0.042126145 -0.005288289 -0.0034384248 0.03017845
0003f0 15 08 4d 3d af 88 a3 3d 25 03 90 3d 6b d8 ce 3c
       0.050056536 0.07985055 0.0703185 0.02524968

conv2.bias f4 [16]
000000 e7 01 8d 3d 3c 39 29 bb 42 fa c5 bc 6c ce 8b bd
       0.068851285 -0.0025821468 -0.024167184 -0.06826481
000010 34 ab 19 bd de ea 91 bd 02 44 15 bd 8f 3e 0a bd
       -0.037516788 -0.071248755 -0.03644181 -0.033751067
000020 d4 e2 12 bd 01 65 6c bd c1 d3 57 3b df 65 0a bb
       -0.03586085 -0.057713512 0.0032932612 -0.0021117849
000030 6c 5d c4 bd ef 48 57 bd 1b aa 2e bd ed 58 6a bc
       -0.09588131 -0.05255979 -0.042642694 -0.014303428

fc1.weight f4 [120, 256]
000000 ce af 99 3d 4e 23 5b ba 57 62 00 bc e4 68 b5 bc
       0.07504235 -0.0008359448 -0.007835946 -0.022144742
000010 11 4d 23 ba e0 cc 06 bd 50 f3 6c 3d 7d d3 2d 3d
       -0.00062294403 -0.032910228 0.05784923 0.04243802
000020 96 c7 39 3d be e7 37 bd 68 20 cf bc 92 5d 65 3d
       0.045356356 -0.04489874 -0.025284007 0.05599744
000030 f0 4a 20 3c a4 b8 6f 3c a3 e9 9e 3d 25 f6 8d 3d
       0.0097834915 0.014631424 0.077594064 0.06931714
000040 24 79 dc bc d3 d9 e6 bc 2d 12 52 3d dc e8 4b 3d
       -0.026913233 -0.028180039 0.051286865 0.04978262
000050 69 c4 02 bc 7c 76 f6 bc 55 8c 6a bd d2 e1 02 bc
       -0.007981398 -0.030085795 -0.057262737 -0.00798841
000060 77 1f 68 3c de 2d c4 3c 29 b5 54 bd 8a 17 ba 3c
       0.014167658 0.023947652 -0.05193058 0.022716302
000070 32 eb 07 3c 0b 17 e6 bc f2 d8 2b bd 53 3d 2a 3d
       0.008295821 -0.02808716 -0.041954942 0.04156239
000080 3f 22 6e 3d 9f c0 dd 3c bd 05 6a 3d 87 70 7c 3d
       0.05813813 0.027069388 0.05713438 0.061630752
000090 14 36 00 3d 64 4e 41 bd 0c ed 72 3c 62 0a 4e 3d
       0.031301573 -0.0471939 0.014827024 0.05030287
0000a0 1a 62 91 bd 58 29 55 bd 60 c7 50 3d a8 b2 9d bc
       -0.070987895 -0.05204138 0.05097139 -0.019250229
0000b0 3c 1a 52 3d cc 38 91 3c 4f a3 b5 3c b7 e3 cd bc
       0.05129455 0.017727278 0.022172598 -0.025132997
0000c0 c1 db 87 3c 5c 3a 65 bd 87 a7 0a 3d 9e e3 1f bd
       0.016584279 -0.05596386 0.033851173 -0.039035432
0000d0 9e 28 30 3d 7c 73 2f bd bc 01 00 3b a2 ad 61 bc
       0.043007486 -0.042834744 0.0019532284 -0.013774307
0000e0 ad cd c6 3c 20 c1 aa bd 32 5b 35 bd 00 7e cc 3c
       0.024267996 -0.08337617 -0.044276424 0.024962425
0000f0 c3 96 6f bd e7 a0 97 3b 11 0c 11 3c 02 25 17 bd
       -0.058493387 0.0046273354 0.0088529745 -0.036900528
000100 e3 58 16 3d 3b eb ee bc ce 1b 0c 3d ab 5e 08 3b
       0.036705863 -0.029164901 0.034206204 0.002080838
000110 09 ec 6e 3b 8a 1d 4a 3d fa bf 35 bc d2 04 e5 3b
       0.0036456606 0.049344577 -0.011093134 0.0069891
000120 37 04 af 3c 78 f5 bb bc f2 df 06 3d 4a e2 39 3d
       0.021364314 -0.022944197 0.032928415 0.04538182
000130 e8 02 1c 3d db 9e 83 bd 27 ab 21 bc 90 6b 04 3d
       0.03808871 -0.06426784 -0.009867466 0.032329142
000140 4d 6c 57 bd bd 11 2c bd 89 26 07 3d 2c 9f 65 3d
       -0.052593518 -0.042009104 0.032995734 0.05606
000150 9f ad 76 bc 27 1a 70 bc f7 5a bd 3c 77 ce b8 bb
       -0.015056043 -0.014654673 0.023114664 -0.005639847
000160 64 2c 79 3d 11 6a 31 bd bc 04 0d 3d 59 7e 38 bd
       0.06083335 -0.043314043 0.034428343 -0.04504237
000170 2f 75 26 3d 32 b7 e2 3c d3 8d 3e 3c ac f0 18 3d
       0.0406391 0.027675245 0.011630493 0.037338898
000180 0e 64 0d bc 24 fa f8 3a 4a ad 3e 3c a6 99 c8 bc
       -0.008629812 0.0018995446 0.011637995 -0.024487328
000190 68 b6 eb bc ca ed 07 bd 5b be 40 3d fa 5b 46 bc
       -0.028773502 -0.033185758 0.047056537 -0.01210689
0001a0 21 94 70 bc c1 d5 59 bd 2f f1 7a bd 62 12 86 bd
       -0.014683754 -0.053182367 -0.061265167 -0.06546475
0001b0 8a ea 1b bd 3e 25 8c 3d 6a 37 81 3d 43 35 01 3d
       -0.03806547 0.06843041 0.063093975 0.031544935
0001c0 c2 3c 3c bd 1a 14 11 3d 74 e1 d6 3c 92 94 6b 3d
       -0.04595638 0.03541956 0.026230551 0.057514735
0001d0 3a bc de 3c 5e 59 24 bd 56 ac 80 3c 59 8b ff bc
       0.027189363 -0.04012429 0.015707176 -0.031194376
0001e0 e8 29 8f 3d 73 1d 35 3d 13 43 5b 3d cf 96 31 3d
       0.06990415 0.044217538 0.053530764 0.043356713
0001f0 fc e2 84 bc 54 f8 03 3d cb af 28 3d 96 e9 73 bc
       -0.016221516 0.032219246 0.041183274 -0.014887234
000200 04 88 0c 3d 60 a8 a3 bd 43 dd ba bc f7 f0 e2 3d
       0.034309402 -0.07991099 -0.022810584 0.11081117
000210 54 cf 49 bd 3d 55 14 bd 5f be 65 3d 64 01 a7 bc
       -0.04926999 -0.036214102 0.056089755 -0.020386405
000220 2e cb 5a 3d 39 b8 80 3c cd 9c 6e 3c 8a 24 b4 bc
       0.053416423 0.015712844 0.014563751 -0.02199008
000230 39 a9 8c 3b 35 87 9e 3d b9 2e 6f bc 45 b2 e2 bc
       0.004292634 0.077406324 -0.014598542 -0.027672896
000240 24 e6 d5 bc 4d f9 47 bd 32 3f 97 3d b9 9c 47 3d
       -0.026110716 -0.048821736 0.073851004 0.048733447
000250 3c c0 ce bc ef c8 41 3c b4 b7 83 3d 07 d5 a1 ba
       -0.025238149 0.011827691 0.06431523 -0.0012346812
000260 76 f8 18 3d f9 61 1e bd 94 07 e4 bc a2 78 27 bc
       0.037346326 -0.038667653 -0.027835645 -0.010221632
000270 ae 46 08 bd 6d fc 39 bd 53 70 50 3d 70 c2 84 3d
       -0.03327053 -0.045406748 0.05088837 0.064823985
000280 c3 b2 1c bd 00 6f 87 bd 19 34 2b 3d f9 50 d7 bc
       -0.038256418 -0.066129684 0.04179773 -0.026283728
000290 c6 1d 87 3d 2e dd 32 3d a3 f9 ad bc 97 96 98 bc
       0.06597476 0.043667965 -0.0212372 -0.018626494
0002a0 9c 8e 51 bd 5f 81 54 bd b6 e0 50 bd b1 5c 9d bb
       -0.051161394 -0.05188119 -0.05099555 -0.0048023094
0002b0 37 cc 2a 3a 4d 5a 88 bd 64 72 1e 3d 8b b0 0f bb
       0.0006515416 -0.066578485 0.03868331 -0.0021925296
0002c0 1c b0 16 3d 58 e4 65 3c e5 4c 21 3d b7 62 a5 3c
       0.036789045 0.014031492 0.039379973 0.020188672
0002d0 c3 7b 1f 3c 0d 04 18 3d c8 14 2c bd ae 67 31 bc
       0.009734097 0.037113238 -0.042012006 -0.010827942
0002e0 34 d1 19 bd 2a 56 06 3d 09 2a 75 bd a8 5e c8 3c
       -0.037553027 0.032797016 -0.05985454 0.024459198
0002f0 03 24 9b bc 22 02 2c bc c5 24 85 3d 5a e2 87 3c
       -0.01893807 -0.010498555 0.06501154 0.016587425
000300 c4 3e 46 3d 4f 42 64 bd 77 6e 70 bc 20 e5 5b bd
       0.0483997 -0.0557273 -0.014674774 -0.053685308
000310 55 9d 4c 3d b2 c4 5f bd 42 22 6f 3d 35 5e 3d 3c
       0.04995473 -0.054630943 0.05838228 0.011558105
000320 50 30 94 bd f4 f7 9d bd 86 b0 71 bd 41 9f 4c 3d
       -0.072357774 -0.07713309 -0.059006236 0.049956564
000330 3e f5 26 bd 75 74 30 bc 6a a9 69 3d 96 8c c4 3c
       -0.040761225 -0.010769953 0.05704633 0.023992818
000340 a6 34 c4 3d 17 63 a8 3d 1b 88 76 3d da 94 9f 3c
       0.095803544 0.08222025 0.060188394 0.019480158
000350 03 c2 2d 3d a2 3e 75 3c 0a 0b 56 3c 59 1e 3a bc
       0.042421352 0.014968546 0.013064155 -0.0113597745
000360 36 41 c8 3d 38 3a 18 3c ff 65 c9 3b 73 4b d4 3c
       0.09778063 0.009291224 0.006146192 0.025914883
000370 c7 e5 ff bc d2 01 5a 3d f0 a8 83 3d a0 36 50 bd
       -0.031237496 0.053224392 0.06428707 -0.050833344
000380 a2 0c e3 3c e7 0b 0a 3d 81 71 4b bb 16 63 db 3c
       0.027715985 0.033702757 -0.0031042995 0.026780646
000390 d0 11 92 3c 21 3d 08 bd e1 69 ca bb 5d 9d 5d bd
       0.01783076 -0.033261422 -0.0061771725 -0.05410515
0003a0 61 7d 05 bd dd fc 12 3b 66 1b d6 bc df 57 85 bd
       -0.032590274 0.002242855 -0.026136111 -0.06510901
0003b0 88 aa a5 3c ef 77 19 bd 97 46 6a 3c 07 69 ea bc
       0.020222917 -0.037467893 0.0142990565 -0.028614534
0003c0 f3 6c 70 bd ea 7d 81 bc 70 41 04 3d f8 bb 32 3d
       -0.058697652 -0.01580711 0.03228897 0.043636292
0003d0 e6 a1 82 3c 3b 60 86 3c e6 b7 54 bd ef 12 c7 bc
       0.01594634 0.016403308 -0.05193319 -0.02430102
0003e0 9f cb 9c 3d ee ee 05 bd f4 a2 35 bd 49 94 3a bd
       0.07656025 -0.032698564 -0.044344857 -0.045551572
0003f0 3e ac d5 bc 57 5b 07 3d e4 82 3e bd fe 1d 8a bd
       -0.026083108 0.033046093 -0.046511546 -0.06744002

fc1.bias f4 [120]
000000 ba e1 61 3d 06 3c 57 bd e7 5f db 3c 75 06 65 3c
       0.05514691 -0.052547477 0.026779128 0.01397859
000010 77 7e 94 3d fa b0 01 3d 7f e3 0c 3c 66 74 e8 bc
       0.07250684 0.03166292 0.008599161 -0.028375816
000020 cd e4 46 bd e0 b3 75 3d 05 31 95 3d 98 5f 5e 3c
       -0.048558045 0.059985995 0.0728474 0.013572596
000030 e6 26 45 3c a5 8b 62 3d b6 c1 10 bd 3b 8d 18 bc
       0.0120332 0.055308957 -0.035340987 -0.009311016
000040 7c 1a 2c bd f0 1e 96 3d 23 ce 60 bd 2a bf 19 3d
       -0.042017445 0.073301196 -0.054884087 0.037535824
000050 91 17 86 3c 8b 25 4f 3d aa 1a 9a bc ce 56 51 3d
       0.01636866 0.050572913 -0.018811543 0.051108174
000060 c7 49 2e 3c b5 41 f4 bc 2d c4 51 3d 6e d0 76 bd
       0.010637707 -0.029816488 0.05121248 -0.060257368
000070 90 f5 15 3d 07 b3 97 bd 22 fa 00 bd 1d 00 e5 3c
       0.03661114 -0.07407194 -0.031488545 0.027954156
000080 66 b7 88 bd 86 59 09 3d 0c dc 6f 3d 64 71 5e 3d
       -0.066756055 0.03353264 0.058559462 0.054307356
000090 05 b8 20 bc 45 96 50 3d ee b0 46 3c 8f 14 1e 3d
       -0.009809499 0.05092456 0.012127144 0.038593825
0000a0 cf 43 84 bc 01 36 ad 3c 64 3e ec 3b cc 19 19 3d
       -0.016145615 0.021143915 0.007209586 0.037378117
0000b0 d9 0f 80 3d 1e 24 03 3c 8d 78 c1 3c 1c 81 39 bd
       0.06253023 0.0080042165 0.023617053 -0.045289144
0000c0 17 7c 10 3d 39 52 57 bd 4e 59 86 3c 35 e6 1c 3c
       0.03527459 -0.052568648 0.016400006 0.00957637
0000d0 f1 1c 70 3d 5f 70 3b 3d 92 e2 b2 b6 9a 25 05 3d
       0.05862135 0.045761462 -5.3311896e-06 0.032506563
0000e0 c7 bb bc 3d 44 a8 0f bd 6d b5 03 bd 80 7b 02 3d
       0.09215503 -0.03507258 -0.032155443 0.03185606
0000f0 a8 95 d1 b8 d3 0e f0 bc 40 13 7f 3d dc 60 89 3d
       -9.993772e-05 -0.029303944 0.062274218 0.067079276
000100 5c 18 0b 3a 49 92 aa bd d9 b4 51 ba 53 e1 08 3d
       0.0005306059 -0.08328683 -0.00079996657 0.03341801
000110 29 c6 1c 3d 8a 22 6a 3d b3 7b 66 bd b0 e8 03 3d
       0.038274918 0.057161845 -0.056270313 0.03220433
000120 bb 4d d5 bc 1d fc 8a bd ce a4 26 3c 8b dd 51 bd
       -0.026038041 -0.06786368 0.010171128 -0.05123667
000130 23 28 5b bb 72 63 36 3d cb 86 f8 bc 20 46 77 3d
       -0.0033440671 0.044528432 -0.030337712 0.06036961
000140 6e 40 3b 3c f0 89 d2 bb 98 b6 27 bd 04 b1 51 3c
       0.011428935 -0.006425135 -0.04094562 0.0127985515
000150 21 36 56 bd 17 7f 0b 3b ca 73 73 bd f5 6f 0a 3d
       -0.052297715 0.0021285468 -0.059436597 0.033798177
000160 8a 8b 2c 3c 4d 48 66 bd 53 1f 56 3d 06 46 6e 3d
       0.010531316 -0.056221295 0.052275967 0.05817225
000170 34 3d 83 3d 8e ae 23 bd 80 15 66 b9 a0 6c 54 bd
       0.06408158 -0.03996139 -0.00021942519 -0.051861405
000180 45 16 73 3d 79 d5 75 3c 50 7d 8c bb 6c 9e 96 bc
       0.05934741 0.015004509 -0.0042873994 -0.018386088
000190 4a 68 96 bc e2 6c 19 bd a3 36 c7 3b 0a 32 84 bd
       -0.018360276 -0.037457354 0.0060795113 -0.06454857
0001a0 2b 63 82 3d b1 c8 21 bd 07 d1 84 3d dd 22 51 bd
       0.06366571 -0.039498035 0.06485181 -0.05105864
0001b0 e5 c5 7a 3d fe 6a 01 3d 5c ca 90 bc 5d 54 52 bd
       0.061223883 0.031596176 -0.017674617 -0.051349986
0001c0 45 d1 8e bc d3 39 0b 3d 72 0d 1b 3d f2 c5 53 bd
       -0.017433772 0.033990692 0.03785462 -0.051702447
0001d0 cf 20 39 3d 04 0e 80 3b 47 6a 79 bd d0 fa 88 3d
       0.045197304 0.003907921 -0.06089237 0.06688464

fc0.weight f4 [120, 120]
000000 4a e0 cc 3d 60 33 f1 3c a0 f5 87 3d c8 e7 11 3e
       0.10003717 0.029443443 0.06638646 0.14248574
000010 ef 3a 8b bd a0 32 84 3d 5b 2c a7 bb 3c bd 0b 3c
       -0.0679835 0.064549685 -0.005101723 0.008529004
000020 8b d7 0f 3e 85 29 9b 3d 4c 28 6d 3d 5c ae 90 3d
       0.14047067 0.075762786 0.05789976 0.070645064
000030 49 41 93 3d 3c b8 53 3d c6 57 f8 3d 77 f4 6a bd
       0.071901865 0.05168937 0.121261165 -0.057362046
000040 d1 d4 36 3d c4 86 0f bc e0 f0 d9 bc 96 91 f4 bd
       0.04463655 -0.008760158 -0.026604116 -0.11941831
000050 15 5b d3 bd d6 88 9b bd 5f db 76 bd 81 c2 01 3d
       -0.10320107 -0.07594459 -0.060267802 0.031679634
000060 51 47 48 3d c7 da fa bb 45 53 bd bd f0 e3 b7 bd
       0.048896138 -0.007655475 -0.09244398 -0.089790225
000070 5a fb d5 bd 2b b9 11 bc 54 65 81 3d 03 45 38 bd
       -0.10448332 -0.008894245 0.06318155 -0.04498769
000080 49 ea 46 bb d2 07 db 3c fa c5 9a bb 65 73 1d 3d
       -0.0030352047 0.026737127 -0.0047233077 0.038440127
000090 49 3c a9 bc cc 91 ad bd 58 5f be bd be d5 f6 3c
       -0.020658629 -0.08475074 -0.09295529 0.030131217
0000a0 79 03 6e bd 49 85 a9 3c b7 e5 ca bc 5c c9 f8 3d
       -0.05810878 0.020693438 -0.02476774 0.12147781
0000b0 ca cd 05 3d 5f 92 39 bc dc 9f f3 bc 11 6e ee 3d
       0.03266696 -0.0113264015 -0.029739313 0.11642087
0000c0 d7 92 d2 bc d4 2b 9b 3d 62 a8 37 3d 99 28 bb bd
       -0.025704784 0.07576719 0.044838317 -0.09138603
0000d0 f7 10 28 3d b6 b6 17 3d 35 04 c4 3d 78 6c 10 3d
       0.041031804 0.03703948 0.09571115 0.035259694
0000e0 80 7a c9 3d 45 91 b2 bd 3a 7f 06 3d 67 a0 0e 3e
       0.09837818 -0.08719114 0.032836176 0.13928376
0000f0 d7 7f 8b bd 79 e8 89 bd c8 15 6b bd 2a 01 70 3d
       -0.06811493 -0.06733794 -0.05739382 0.05859486
000100 00 f9 8b bd aa e2 65 bd 16 8f 89 3c aa 7b ce 3d
       -0.06834602 -0.056124367 0.016791862 0.10082181
000110 84 13 55 bd bb 97 4d ba fa 56 53 3d b6 05 96 3d
       -0.052020565 -0.0007842739 0.05159662 0.07325308
000120 9c 38 b8 bc 7b d0 b4 3c 6c 11 bd 3b 24 5f 1d bd
       -0.022487931 0.022072067 0.005769899 -0.03842081
000130 72 0c 4b 3b 22 29 dc 3c 06 28 5a 3d 9c 1b 95 3d
       0.003098276 0.026875082 0.053260826 0.07280657
000140 06 d1 56 3d f8 09 0f 3e f6 26 95 3d 7a 15 f9 bc
       0.052445434 0.13968647 0.07282822 -0.030405749
000150 de 17 82 3d 6e ce da 3d d3 aa 4f 3b c9 83 f6 3b
       0.063522086 0.106839046 0.0031687513 0.0075230342
000160 9b c9 b4 3d 7a d7 63 bd 91 86 73 3c 3c 22 99 bd
       0.08827516 -0.055625416 0.014863626 -0.07477233
000170 14 e6 c6 bc 39 49 84 bd ac a4 f9 3c c6 6d 0a 3d
       -0.024279632 -0.064592786 0.03047403 0.033796094
000180 7f ff 3d 3d f0 1b b3 3c 7c 62 6e 3d 4d 58 84 3c
       0.04638624 0.021863908 0.05819939 0.016155386
000190 c4 95 bc bc a1 36 68 bd 9c 50 91 3d 7a 15 92 bd
       -0.023020633 -0.056692723 0.07095453 -0.071330026
0001a0 63 68 f7 3c e5 30 98 3d 15 cb 62 3d 5a cf 9e bd
       0.030201143 0.07431201 0.055369455 -0.07754393
0001b0 0e cb f2 3c d0 7c 23 3d f3 d8 c7 3d c9 5e 28 3d
       0.02963784 0.039913952 0.09758177 0.04110602
0001c0 fe 02 47 3c 1c 8e d6 3c 15 67 03 bd 75 1d 94 3c
       0.0121467095 0.02619081 -0.03208073 0.018080452
0001d0 96 09 10 be fb 47 de 3c 94 79 1c 3d a1 3b 70 bd
       -0.14066157 0.027133932 0.038201883 -0.058650617
0001e0 2d a6 1a 3d d8 b7 17 bd 6f e4 9f 3b 51 4c 39 3d
       0.037756134 -0.03704056 0.0048795263 0.045238797
0001f0 ed f6 5e bd 37 84 d3 bd 71 23 aa 3d 45 a9 70 3d
       -0.054434706 -0.10327952 0.08307541 0.058755178
000200 05 ea ac 3c ac e4 91 bd dc fe bc 3b d0 e4 39 3d
       0.021107683 -0.07123694 0.0057676863 0.04538423
000210 a1 59 9e 3d d6 82 2c bd 38 dd 0e be 76 25 5e bd
       0.07731939 -0.042116962 -0.13951576 -0.054234944
000220 74 ee ef bc bf 33 a8 3d c9 45 1c bd 2f 2d 4a bd
       -0.029288508 0.08212995 -0.03815249 -0.049359497
000230 86 26 64 3d b1 4c 42 bd a7 3f 0d bd 37 97 c4 bc
       0.0557008 -0.04743642 -0.03448453 -0.023997886
000240 e7 4f 47 bc 1d 29 34 bd 13 6e cc bc 0f e8 9a bc
       -0.012165046 -0.04398452 -0.024954831 -0.018909482
000250 14 0a 7b 3d 06 0c 8e 3d 2e a4 26 3d e9 07 c7 3d
       0.061288908 0.06935887 0.040683918 0.097183056
000260 63 98 00 bc a1 f1 8f bd 03 ee 55 3c 85 85 18 3e
       -0.007848832 -0.07028509 0.013057235 0.14894684
000270 6e 84 5d 3c 10 d8 7e 3c 44 a1 a5 3d 2e d5 97 bc
       0.013520343 0.015554443 0.080873996 -0.01853427
000280 03 3e 03 bd 44 61 06 3d 14 6f 66 bd f3 26 28 3d
       -0.03204156 0.032807603 -0.056258276 0.04105277
000290 3b 06 41 3d 9a 9b 95 3d 5b 49 5d bd 99 3c 96 3d
       0.047125082 0.07305069 -0.054025035 0.07335777
0002a0 0d c5 8a 3d 66 8e 8d 3d 33 6e 7a bd c4 f6 d2 bd
       0.06775866 0.06911926 -0.06114025 -0.10300973
0002b0 4f ae e6 3c ea a6 c5 3c 1b 41 93 bd bb 73 f1 3c
       0.028159289 0.024127442 -0.07190152 0.02947413
0002c0 33 39 84 bd 1f 79 d4 bc 05 83 01 bc fe 30 f2 bc
       -0.064562224 -0.025936661 -0.007904773 -0.029564377
0002d0 9f 02 85 bd 3a 21 63 bc ee c5 8f bc d5 8c b5 3d
       -0.064946406 -0.013862902 -0.017550435 0.08864752
0002e0 f1 8c cf 3d 16 32 9e bc ea cc 25 3d 22 2a ab 3d
       0.10134304 -0.019310992 0.040478624 0.083576456
0002f0 f8 18 5d bd b0 5c 1a bb 71 21 a7 3d d4 b8 ef bd
       -0.05397889 -0.0023553781 0.08160675 -0.11705175
000300 33 36 db 3d 09 73 50 bd 94 75 4a 3c ea 06 a1 3c
       0.10703697 -0.050890956 0.012357134 0.019656617
000310 85 04 9a bc 3f 82 85 3d 46 c8 53 3c 83 9f 81 3d
       -0.018800983 0.06518983 0.012926167 0.063292526
000320 28 69 1d 3d 9c e0 11 bc 7b 82 a4 3d ea 03 17 3d
       0.038430363 -0.008903649 0.080327 0.036868967
000330 e7 7b 38 bc ad 91 39 3d 39 f0 c5 bc bd 77 64 3d
       -0.011260009 0.045304943 -0.024162399 0.055778254
000340 ff c0 0b 3d 1d f5 87 bb 29 3e d8 bc 4b 62 f2 bc
       0.034119602 -0.004149093 -0.026396828 -0.029587885
000350 e2 e3 d0 bd d8 94 b8 bc a4 53 fe 3c c4 96 e9 bd
       -0.10199715 -0.022531912 0.031045742 -0.114057094
000360 40 46 83 bd 56 c5 54 3d 83 3d 89 3d 7e 5f 0f bd
       -0.064098835 0.051946007 0.067011856 -0.035003178
000370 d3 2d 3f 3d 94 28 80 3d ff f1 b1 bd 3c 5a c9 3d
       0.04667456 0.0625774 -0.08688735 0.09831664
000380 9a ea a2 3d be c8 b8 3d 4f 8c b4 bc 7f d8 13 3d
       0.07954903 0.090226635 -0.02203956 0.03609514
000390 50 02 e1 bd a6 45 62 bd 24 78 9f bd 29 fb 81 bc
       -0.10986769 -0.055242203 -0.07786587 -0.015866833
0003a0 b6 c3 aa bd b9 02 b1 bd 7a 63 47 3b d3 e4 97 bc
       -0.0833811 -0.086430974 0.0030424283 -0.01854173
0003b0 b8 72 17 3d f7 f6 b7 3c fd a2 d5 bb 6b ec 15 bc
       0.03697464 0.02245663 -0.006519674 -0.009150605
0003c0 37 9f 6c bd 26 61 eb 3d af e8 55 bd c8 28 f0 3b
       -0.057769027 0.11493139 -0.052223857 0.0073290803
0003d0 b9 10 71 bd ad 8c ed 3d c0 6f 5c bd b0 3a 7f 3c
       -0.05885384 0.115990974 -0.05381751 0.015577957
0003e0 b2 20 86 3d bb 22 b4 3d 08 a3 a5 bd f6 b3 b3 bd
       0.06549205 0.08795687 -0.08087736 -0.08774559
0003f0 03 76 5f 3c a0 91 4a 3d 6a 9b af 3d 50 f9 a1 3c
       0.013638976 0.049455285 0.08574565 0.019772202

fc0.bias f4 [120]
000000 b8 a7 dc 3d 69 a7 aa bc 74 79 79 3c 86 57 74 bd
       0.10774177 -0.02083178 0.015226711 -0.05965378
000010 e3 fa 71 ba dc 4c c1 3c a8 48 54 bd 3b 9a 5f 3d
       -0.00092308054 0.02359622 -0.051827103 0.054590445
000020 f4 6f 51 bd 0d 7b c2 3c 4d 51 83 3d 94 6c bd 3d
       -0.051132157 0.023740316 0.06411991 0.09249225
000030 69 fa 2b bc fd eb c0 bd d0 1c 7b bd a8 ae 0d bd
       -0.010496714 -0.09420011 -0.061306775 -0.034590393
000040 83 c2 f6 bb f5 f1 fb bc 4f cb b3 3b 23 50 a7 3d
       -0.007530512 -0.030755023 0.0054868828 0.08169582
000050 0f 83 af 3c 66 f0 c0 3d cf 8f dd 3d 98 31 eb 3c
       0.021424798 0.09420852 0.10818445 0.028710172
000060 1a ec c3 bd eb 33 07 3e 98 0e 2d bd 49 d1 34 3b
       -0.09566517 0.13203399 -0.042250246 0.0027590564
000070 9a a5 98 3c 1f de 90 bd 8e d9 a4 bd 9e ca 1b 3d
       0.018633652 -0.07073616 -0.08049308 0.038035028
000080 bf c3 ea 3d 96 95 9f 3c 10 af 0f bd 46 80 cf 3d
       0.11463117 0.019480508 -0.035079062 0.10131888
000090 90 ea d1 bc 58 21 e2 bd 11 b5 30 3c e0 5d ab 3d
       -0.025624543 -0.11041516 0.010785357 0.083675146
0000a0 6d e7 52 3d 78 38 bc bc a0 23 71 3d 42 a2 27 3d
       0.051490236 -0.022976145 0.058871865 0.040926225
0000b0 7c 4f 7d 3d 72 42 a0 3d 95 9e d9 bb 16 2d 62 3c
       0.06184338 0.078251734 -0.006641219 0.013804695
0000c0 ae 57 be 3d ed 5f 1f 3b b9 1c 05 3d 0b 2d 93 bd
       0.09294067 0.002431865 0.032498095 -0.07186326
0000d0 cb fd d4 3d b1 06 3a bd 83 49 69 bd 77 66 81 3d
       0.1039997 -0.045416538 -0.056954872 0.06318372
0000e0 44 a0 88 bc 8a 15 17 bc 68 ec fc bc 3e 95 b6 bd
       -0.016677983 -0.009221444 -0.030874446 -0.089151844
0000f0 b9 31 ba bd 7b 08 9f 3d d1 21 c5 3d 8d 63 83 3d
       -0.09091515 0.077652894 0.096255906 0.06415472
000100 78 b2 0b 3d b5 f8 68 bd 0f a1 e7 3c f9 55 3b 3c
       0.034105748 -0.05687781 0.02827504 0.011434072
000110 02 e1 9f 3d f7 57 fc bc 54 73 ac bb 71 c2 82 3d
       0.07806589 -0.030803664 -0.0052627716 0.06384743
000120 ad d1 5f 3d 62 30 bd bd 6d eb dc ba 25 8e 74 bd
       0.05464332 -0.09237744 -0.001685483 -0.059705872
000130 e1 bd 25 3d 72 a4 8d 3d ea 41 89 bd 40 21 0a bd
       0.040464286 0.06916131 -0.06702025 -0.033723116
000140 e4 62 b4 bc e7 93 a7 bd ab f2 b7 bb db 64 c2 3d
       -0.022019811 -0.08182507 -0.005613645 0.09491893
000150 02 9b c0 bc f1 49 5e bc 67 e7 ab 3c 7d 3e eb bc
       -0.023511413 -0.013567434 0.020984365 -0.02871632
000160 11 39 dd 3d 10 e9 50 bd 26 0a a5 3d f0 6f 4f 3d
       0.108019 -0.051003516 0.08058576 0.05064386
000170 7c 94 9b 3d 88 58 d1 3d 14 a3 76 3d a8 6c 9b bd
       0.075966805 0.10221964 0.060214117 -0.07589084
000180 e5 96 c6 3d 2b 41 a8 bd 9b 4f a4 bd 8d 55 1d 3d
       0.096967496 -0.08215555 -0.08022996 0.038411666
000190 83 7a bd bd 5b 0d e2 bc e4 5d 3e 3d a1 b0 98 3c
       -0.09251883 -0.027594259 0.04647626 0.01863891
0001a0 cc 17 c8 3d cf 19 41 3d cb 61 d7 bd 54 c0 60 bb
       0.09770164 0.047143754 -0.105166994 -0.0034294324
0001b0 87 3a ba bb a6 0f c7 bd 7e 0c 09 bd 24 0f 36 bd
       -0.0056832465 -0.097197816 -0.03345918 -0.044448033
0001c0 bd 17 bb 3c 10 01 97 3b e4 fc 2e bc 81 3a 2f 3d
       0.022838468 0.004608281 -0.010680411 0.042780403
0001d0 74 59 7f bd c1 2d eb 3d 63 a9 01 3e 41 cb 63 3d
       -0.06234117 0.11483336 0.12662272 0.05561376

fc2.weight f4 [84, 120]
000000 67 4f 85 3c 5a 04 30 3d 9e c7 af bc 89 a9 85 3d
       0.016273214 0.0429729 -0.02145749 0.06526477
000010 18 bc 76 bd 3d db 0c 3d c4 7a 29 3c a0 eb 9a 3d
       -0.060237974 0.03438877 0.010344211 0.07564473
000020 78 44 83 3d 21 e7 de bc 6a f1 ee 3c 87 0e 38 bb
       0.06409544 -0.02720982 0.02916785 -0.002808483
000030 8e 07 df ba 20 47 52 3d 5f 4a bd bd 8e 5b b0 bd
       -0.0017015801 0.05133736 -0.09242701 -0.08611213
000040 02 a7 83 3d a8 02 e6 3c 09 b6 ab 3d 37 cb f9 bc
       0.064283386 0.028077438 0.0838433 -0.030492408
000050 7c a8 fb 3d b3 07 d4 3d 4b d9 67 bd cf 90 e3 3d
       0.12287995 0.10353031 -0.05660371 0.111116044
000060 5a e9 3b bd ef f1 04 3d fc 11 81 bd e4 65 6f 3d
       -0.04587684 0.03245729 -0.06302258 0.05844678
000070 50 1b 22 bd ae 80 46 3d 5d 7d 3d bd e7 8b 64 bd
       -0.03957683 0.048462562 -0.046262134 -0.055797484
000080 28 f0 c9 bc 19 b5 22 bc 4f 1f e5 3d 3f ff ab bd
       -0.024650648 -0.009930872 0.11187612 -0.08398294
000090 fd 99 19 3d 28 cd ac 3d c3 99 aa 3d 55 fd 43 bd
       0.03750037 0.08437568 0.08330109 -0.047849018
0000a0 6d f2 81 bd f8 10 03 3c 36 b2 ce 3d e8 01 69 3d
       -0.06345067 0.007999651 0.10092585 0.056886584
0000b0 2f d7 7d bc ae 9a 02 3d 91 6d 7b bd 7f 84 d3 bc
       -0.015493198 0.031885795 -0.061383788 -0.025820015
0000c0 74 96 d2 bc 29 15 a9 3d 20 87 3e bd 78 83 8e 3d
       -0.025706507 0.08255989 -0.046515584 0.069586694
0000d0 4f 52 a2 bd 5d af 24 3d 05 c1 d5 3d a8 41 a5 3d
       -0.07925855 0.040206302 0.10437206 0.080691636
0000e0 d0 f0 75 bc cc 79 6e bd 4a b1 db 3d d0 19 3d 3c
       -0.015011027 -0.058221623 0.107271746 0.011541799
0000f0 5c fe be 3d ac 8e 95 3d d0 80 65 bd 0e 0b c6 bc
       0.09325859 0.07302603 -0.05603105 -0.024175193
000100 d6 52 04 bd ad 87 bc bc 1b 2b 82 3c 17 6f 16 bb
       -0.03230556 -0.023013914 0.015889695 -0.0022954398
000110 a1 05 3b 3d 01 4e a3 bc bb fb fe 3b 50 cb 03 3d
       0.045659665 -0.019934656 0.0077814735 0.032176316
000120 2c 28 83 bd 6e 9d e4 3d 1a 26 6d bc ee f8 96 bc
       -0.064041466 0.1116284 -0.014474416 -0.018429246
000130 3d 92 22 bb 66 ec 80 bd 7e d8 05 3e 45 e6 82 bd
       -0.0024806403 -0.062950894 0.13070866 -0.06391577
000140 8b 44 e2 3b 57 88 b8 3d e0 36 9a bd 4b 14 36 bb
       0.0069051436 0.0901038 -0.07529998 -0.0027783092
000150 4e 51 74 3d 95 2a c5 bc f1 d2 fc bc 0a 49 bc 3d
       0.05964785 -0.024068156 -0.030862303 0.091936186
000160 2f f8 d3 bd 74 8c 85 bd de 42 b1 bd 20 be 4b bd
       -0.10350072 -0.0652093 -0.08655332 -0.049741864
000170 93 0e ae 3d b8 b2 86 bd 84 6e c2 bd 9a 45 af 3b
       0.084988736 -0.06577057 -0.094937354 0.0053488733
000180 21 38 ea 3d da db f2 bb da 30 06 bc e9 73 34 bc
       0.11436487 -0.0074114623 -0.008190358 -0.011013963
000190 7c 9f 3f 3d 5c 35 d3 bd 0d 16 80 3d 94 5f 29 bd
       0.046782956 -0.10312912 0.06254206 -0.041350916
0001a0 0c 36 c3 3d 78 51 02 ba 7b 66 09 3d fe 01 63 3d
       0.09531793 -0.0004971246 0.033545 0.05542182
0001b0 0b f8 4e 3d 02 0a c3 3d 56 38 cf bc 5b 4c 8a bd
       0.05052952 0.09523393 -0.025295418 -0.06752845
0001c0 7b 99 e1 3d e5 a2 da 3d d2 e6 ed bc 31 42 f7 bc
       0.11015602 0.10675601 -0.029040728 -0.03018293
0001d0 05 83 9f 3d a3 c0 8c bd cd 57 05 3d 46 38 0a bd
       0.07788662 -0.0687268 0.032554436 -0.033745073
0001e0 17 33 57 3c dd c0 2e bc 59 65 2e bd 99 d1 20 be
       0.013134739 -0.010666099 -0.04257712 -0.15704955
0001f0 6b fe c5 3d 5b 6e 8f bd 99 60 8a 3b e1 be ea 3b
       0.09667667 -0.070034705 0.004222941 0.007163868
000200 f5 f7 4a 3d b8 8d 54 3d 00 32 28 bd cd b8 14 bd
       0.049552877 0.051892966 -0.04106331 -0.036309052
000210 54 ad e8 bd 95 f3 ff bd dd 1a 07 bc f6 77 55 3d
       -0.11361185 -0.124976315 -0.008246151 0.052116357
000220 ee 64 d9 bc b8 45 25 3d 4f 21 4a 3c d5 4c ea 3d
       -0.026537385 0.040349692 0.012337043 0.11440436
000230 32 f4 9a 3c 47 db af bd fe 00 36 bd 92 c2 82 3d
       0.01891527 -0.08586746 -0.04443454 0.063847676
000240 c3 5f 0f bc c7 73 c9 3b 5c 2d d1 bd 72 9b 01 3e
       -0.008750859 0.006147835 -0.1021373 0.12656954
000250 ee 29 36 3c 12 11 2f bd 58 11 53 bc f2 44 0b 3e
       0.011118395 -0.04274089 -0.012882553 0.1360052
000260 dd 68 e7 3d 31 37 91 bd 1c 83 40 bb a5 59 ab 3d
       0.11299298 -0.07090605 -0.0029375022 0.08366708
000270 7f de ef 3c 35 77 3e bc 8c 31 9f bd f8 09 dd 3d
       0.0292809 -0.011625101 -0.07773122 0.10792917
000280 b6 a7 f0 bd c1 f8 a4 3c b8 f3 0b be cf 10 bc 3d
       -0.11750738 0.020138146 -0.1366719 0.091828935
000290 b7 f0 8b bc 93 af ae 3d e0 88 13 3d 42 fe 9c bd
       -0.017082555 0.08529582 0.036019206 -0.07665683
0002a0 ce 69 e2 3a 09 fd d0 bc 29 7d a1 3d a5 0a 2f 3b
       0.0017273964 -0.025511282 0.078852005 0.0026709225
0002b0 9f 43 9a bd f5 95 78 38 c8 8f 4d bd 92 ce 25 3d
       -0.07532429 5.9267466e-05 -0.05018595 0.040480204
0002c0 ec 54 4d 3d 00 34 2f 3d 13 73 89 bc df 89 8c 3d
       0.050129816 0.0427742 -0.016778504 0.06862234
0002d0 db 68 78 bd fa 69 01 3c 7e 98 34 3e 7f a0 75 3d
       -0.060646873 0.007898802 0.17636296 0.059967514
0002e0 3c 3d f0 bc dd 57 d1 bd 62 39 13 bd 53 05 13 bd
       -0.029326074 -0.10221837 -0.035943396 -0.03589375
0002f0 dc 7f 53 3d b2 59 cd 3c 1d 40 a4 bd 68 87 4e 3c
       0.051635608 0.025067184 -0.08020041 0.012605526
000300 ca c8 44 bd 75 77 5a bd 4c 67 eb 3d a9 e7 29 3d
       -0.04804305 -0.05333658 0.11494312 0.041480694
000310 a6 83 95 3d 4d a7 e6 3c 6f a2 00 be 6e 1b c4 3d
       0.073005006 0.028155947 -0.12561963 0.09575544
000320 1d 49 11 bd 51 9b 6d bd 34 aa 15 bd 24 7d 9f bc
       -0.035470117 -0.05800945 -0.03653927 -0.019468851
000330 b2 40 c8 bd c4 c6 e1 3d 1e 14 97 3d 6e 74 ce 3d
       -0.09777965 0.1102424 0.07376884 0.10080801
000340 a3 f4 c3 3b 0f 27 80 3d ed 59 9a bd d5 4e b4 3a
       0.0059800907 0.0625745 -0.07536683 0.0013756404
000350 c4 df 9f 3d 45 fd d0 3d 3c 7f d0 3d d1 1d 61 bd
       0.07806352 0.10204557 0.10180518 -0.054960076
000360 90 12 60 bd d9 63 ef 3d 86 b2 2b bd eb df 0b bc
       -0.054705203 0.11688966 -0.0419183 -0.008537273
000370 87 1e 69 bd f8 f1 10 3d 6a 6c 8a 3d 20 ab a3 3d
       -0.05691388 0.03538701 0.067589596 0.07991624
000380 aa 3c 89 3d 89 67 21 3d 31 92 87 bc 3c 27 66 bc
       0.06701024 0.03940538 -0.016549202 -0.01404744
000390 e6 81 25 3c 20 23 f7 3c 86 24 3f bd 0a eb 2e bd
       0.010101771 0.030168116 -0.04666569 -0.04270462
0003a0 58 f9 38 3c f1 84 aa bd 55 af c8 bd 70 2c e8 3c
       0.011289917 -0.08326138 -0.09799067 0.028341502
0003b0 b1 f4 99 3c 95 4b c9 3d 88 41 c7 3c 95 16 46 bd
       0.018793436 0.09828869 0.02432324 -0.04836138
0003c0 19 c5 46 3b 90 b0 c3 3d 9d 1f 20 3d 67 5d e6 3c
       0.0030329882 0.09555161 0.03909265 0.02812071
0003d0 43 92 5b 3d 98 9d 48 3d 6b c0 26 bd d8 0e af 3d
       0.053606283 0.048978418 -0.040710848 0.08547753
0003e0 4d ce 3b bd 57 04 14 bb 1e ec 13 be ad 15 4b 3d
       -0.04585104 -0.0022585595 -0.1444554 0.04958122
0003f0 2a 36 b9 3d 2f 50 46 bc 64 4d 72 bd 43 3e e3 3b
       0.09043534 -0.012104078 -0.059155837 0.0069349124

fc2.bias f4 [84]
000000 b4 25 8e 3c 4f 38 0c 3c 4d dd 28 bd e5 15 64 bd
       0.017351963 0.008558347 -0.041226674 -0.055684943
000010 78 11 83 3d 59 44 6e bb 70 4a c2 3d 62 02 1b 3d
       0.06399816 -0.0036356656 0.09486854 0.03784407
000020 34 29 61 bd d7 ad 9a bc 99 dc 00 bb 7e 99 a2 3c
       -0.054970935 -0.018881721 -0.0019662736 0.019848581
000030 58 d4 ba 3d 12 a1 50 bb 59 2a 83 3c 92 24 66 bd
       0.091225326 -0.0031834287 0.016011404 -0.05618722
000040 0a e6 14 bd 27 75 68 bc 49 48 32 bd 20 ac 9c bd
       -0.036352195 -0.014188088 -0.043525968 -0.07650018
000050 29 8a 8b 3d 8a 1e a7 3d 73 23 0a bd da 7a 44 bd
       0.06813461 0.08160122 -0.033725213 -0.047968723
000060 50 43 0a 3d a5 0d f0 3d 84 c1 37 3c d7 42 5c 3d
       0.0337556 0.117213525 0.011215571 0.05377468
000070 3f 79 09 bd 16 ac 02 bd 90 f9 02 bc d0 f2 ae 3c
       -0.033562895 -0.031902395 -0.007994071 0.021356016
000080 2d e8 6b bd b2 40 be bc 96 24 f7 3c 9a 26 c9 3b
       -0.057594467 -0.023224209 0.030168813 0.006138635
000090 9b d5 8e 3d d5 c8 68 3d e7 45 9a bd 81 18 ec 3b
       0.06974336 0.056832153 -0.07532864 0.0072050695
0000a0 6f bd 9f bd cd b0 9c bc 26 15 2b bd 81 9b 4a 3c
       -0.077998035 -0.019127274 -0.041768216 0.012366177
0000b0 48 fb 90 bc 89 b1 38 ba 14 24 a3 bc 96 30 dd bc
       -0.017697945 -0.0007045498 -0.019914664 -0.027000707
0000c0 8d c0 25 bd 96 55 44 bd f5 e1 5b 3d 6a 0a 2b 3d
       -0.040466834 -0.047933184 0.053682286 0.04175798
0000d0 3e 43 b1 bc f9 af bb 3d 7e 24 8d bd ae 29 89 bc
       -0.021638509 0.091644235 -0.06891726 -0.016743507
0000e0 e2 ce 92 3d 97 80 a7 3d 5d e4 49 bc 0c c8 0c 3d
       0.07168366 0.081788234 -0.012322512 0.034370467
0000f0 eb d9 92 bd 69 1d d1 3d 0b da 91 3d 6e 6c a4 bd
       -0.07170471 0.10210688 0.071216665 -0.08028494
000100 fe f4 12 3e 5d 0b b5 bb 48 8e d2 3c aa 31 89 3d
       0.1435127 -0.0055250362 0.02570261 0.06698926
000110 f5 ad 06 3d fc 71 f9 3d db 35 6e bd 39 41 82 bd
       0.032880742 0.12179944 -0.05815683 -0.063600965
000120 85 01 76 3d 9e 63 9f 3c f2 d7 a1 3d e1 f5 97 bd
       0.060060043 0.01945668 0.079025164 -0.074199446
000130 a5 aa a2 bd c0 5a a2 3d f4 99 63 3d 30 d0 49 bd
       -0.07942704 0.079274654 0.055566743 -0.04927081
000140 b6 f0 03 3d 02 08 7b bd 02 47 8d 3d e8 bb 52 bd
       0.03221198 -0.061286934 0.06898309 -0.051448733

fc3.weight f4 [10, 84]
000000 42 3d 89 3d 34 6f 1f be 9f c7 a5 3d 23 5e 77 bd
       0.06701137 -0.15569764 0.08094715 -0.06039251
000010 ab d2 4b be 33 b5 7f bd 54 dd 94 3d 55 b4 f9 bd
       -0.19904582 -0.062428664 0.072687775 -0.12192599
000020 83 16 4e bd fe 19 2d be a3 40 a7 bd a7 5a f3 bd
       -0.050314438 -0.16904446 -0.08166625 -0.11882525
000030 38 c9 c3 3d 11 d9 9a bc 80 5c 78 bd 58 ba 38 bc
       0.09559864 -0.018902333 -0.06063509 -0.011274897
000040 81 cf a7 3d 08 b6 b5 bd 43 3c a9 3d f6 7b 0f be
       0.08193875 -0.0887261 0.08263447 -0.14012131
000050 18 0d f9 ba 9d 8e 31 3d e9 dc 35 3d bc df fe 3c
       -0.0019001095 0.043348897 0.04440013 0.031112544
000060 c1 df 63 3a b1 0e d0 bd 93 bd 9f bd 5d fc fe 3d
       0.0008692705 -0.10159052 -0.0779983 0.12450478
000070 a4 d5 32 be fe ca 75 3d 74 ab 2a bc 4e df b7 bd
       -0.1746431 0.06000804 -0.010416854 -0.08978139
000080 b1 b1 be bd 58 d9 66 3d 5d b9 59 bc f0 22 97 bc
       -0.09311236 0.05635962 -0.013288823 -0.018449277
000090 1d 7b 06 be 66 aa e7 3c 22 2d b3 bd d0 8c 16 be
       -0.13132901 0.028279494 -0.08748843 -0.14702153
0000a0 98 c4 34 3b 5b 6d 8a bd 8f 60 d1 bd 2a 47 c2 3d
       0.0027583 -0.06759139 -0.10223495 0.0948623
0000b0 28 3f 61 bd d0 f1 3e bc b2 ed b4 bd a4 81 16 3e
       -0.05499187 -0.011654332 -0.08834399 0.14697891
0000c0 01 1b 18 bd 76 db 99 bc d8 80 cc 3d aa c5 0e 3d
       -0.037135128 -0.018781405 0.099855125 0.034856476
0000d0 e1 8e 09 be 06 2c ce bd 75 16 74 bc be 40 f6 bd
       -0.1343341 -0.100669906 -0.014897932 -0.12024067
0000e0 a2 ff f5 bd 2d af 20 39 b6 00 07 3e 26 ee bb 3d
       -0.12011649 0.00015324047 0.13183865 0.091762826
0000f0 ce a7 71 3d 0e b0 a2 bd 41 ff 69 3d 17 2a e7 bd
       0.05899792 -0.07943736 0.057128195 -0.11287325
000100 dc 8e 18 be 7c 66 97 bd 51 d8 cb 3d 5c 74 94 3d
       -0.14898247 -0.07392594 0.099533685 0.07248756
000110 f7 02 6f bd 1b 66 25 bd b8 94 e2 bd bf c6 5d 3d
       -0.058352437 -0.04038058 -0.11063522 0.054144617
000120 9c 92 f6 3d 9b ac 11 3e 0d dd 06 3d a0 d0 96 bd
       0.12039682 0.14226 0.032925654 -0.07364011
000130 db a4 b9 3d 5b ce 9e 3d 43 03 ea 3c 18 e1 99 bc
       0.09064647 0.07754203 0.028566008 -0.01878409
000140 cf 68 b9 3d 56 81 bc 3d 09 3a ad bd 95 5d 91 bd
       0.09053194 0.09204356 -0.08458335 -0.070979275
000150 be 6d ff bc 13 df fe 3d de bc 44 be 5c 21 ef bd
       -0.031180259 0.12444892 -0.19212672 -0.11676285
000160 24 0a 21 3e b1 d9 ec 3d aa 7d 92 3d 97 f4 f5 3d
       0.15726525 0.11564959 0.07152875 0.120095424
000170 18 0b 4b 3d 12 42 fb 3d f9 73 ca 3c 61 40 0d 3e
       0.049571127 0.12268461 0.024713503 0.1379409
000180 5d 16 45 be cf 9a 4e 3d 69 48 cf 3d ec e0 65 3d
       -0.19246812 0.050440606 0.10121233 0.056122705
000190 0b e5 7d bd 35 99 b2 3d d0 86 fd bd bf 32 13 3b
       -0.06198601 0.08720628 -0.12379229 0.0022460667
0001a0 84 0a b0 bc bf 69 29 be bd 7f fd bd 44 d1 cc 3b
       -0.02148939 -0.16544245 -0.1237788 0.0062505323
0001b0 bb f1 04 be 6c 96 1e 3e 3a af c0 bd 19 6a 33 be
       -0.12982838 0.15487069 -0.09408422 -0.17520942
0001c0 07 a6 92 3d f9 cd 90 bc fa 90 3e be f6 98 37 be
       0.071605735 -0.01767634 -0.18609992 -0.17929444
0001d0 76 ae 8a bb 45 ea 3a 3c ce fb ba bc f4 9d ae bd
       -0.004232223 0.011408393 -0.022825148 -0.08526221
0001e0 57 18 03 3d 11 5f 28 3e 26 fe eb bd 48 ea 0f bd
       0.032005634 0.16442515 -0.11523084 -0.035135537
0001f0 c8 a9 01 3d 2e d7 d0 bd 91 f4 1c be 15 32 e4 bd
       0.031656057 -0.10197292 -0.1532767 -0.11142365
000200 b5 01 b0 3d 5b bb 56 bd a4 54 5e 3c ee ee 71 bd
       0.085940756 -0.05242477 0.013569985 -0.05906575
000210 ff 38 13 be cf 57 56 bd 12 62 7f 3d eb d0 15 be
       -0.14377211 -0.052329835 0.062349387 -0.14630477
000220 a0 34 20 3d 3c 70 25 3e 39 98 09 be f2 5d cd 3d
       0.039112687 0.16156095 -0.13436975 0.10027684
000230 77 af f7 3d ff 47 1d 3d 5e d8 13 be 7e 7e 6c bd
       0.12094014 0.03839874 -0.14438006 -0.05773782
000240 40 a1 c0 bd 54 d8 fb 3c 22 35 8b 3d af f7 7d bd
       -0.09405756 0.030742802 0.06797244 -0.062003788
000250 f5 5e 9b 3d eb 10 d4 bd 0d 9a 0f be 4e 03 1c bd
       0.07586471 -0.10354789 -0.1402361 -0.03808909
000260 1e bb a4 3c 7e a4 31 3d 11 81 32 be 34 de 68 be
       0.020108756 0.043369763 -0.17432047 -0.22741014
000270 18 b0 9d bd 5a 1e 08 be 59 47 25 bc 3d 27 04 be
       -0.07699603 -0.13292828 -0.010087811 -0.12905593
000280 ae 5a 0f bd e6 2c 0c 3c c9 e1 9b 3d 9a 7d 49 3d
       -0.03499859 0.0085556265 0.076114245 0.04919205
000290 7e 01 46 bc ec e7 a4 3b cb 96 58 3e 44 40 84 bd
       -0.012085317 0.00503253 0.21151273 -0.0645757
0002a0 69 a8 2d bd 26 a6 32 be 56 89 bc 3c a0 60 ef 3a
       -0.042396937 -0.17446193 0.023014706 0.001826305
0002b0 49 eb 05 be 80 e0 0f 3e db 9d 95 bd c5 5d df 3d
       -0.13078035 0.14050484 -0.07305499 0.10906557
0002c0 be d7 0d be ee 70 8a 3d 47 fb 12 3d 1d 1e f2 3d
       -0.1385183 0.06759821 0.035884168 0.1182215
0002d0 de a1 fb 3d 70 68 79 bd 2d 64 51 bd 58 57 6b bd
       0.12286733 -0.060890615 -0.051120926 -0.057456344
0002e0 aa d7 56 bd b1 b8 97 3d 47 20 20 bd 7b 24 0d bb
       -0.052451767 0.07408274 -0.039093282 -0.0021536637
0002f0 8b e9 c6 3d a2 c0 cd bd cc d6 01 be 7b 29 d4 bd
       0.097125135 -0.100465074 -0.12679595 -0.10359474
000300 ba 6d b1 bd 4f 13 6a bd a2 f3 ee 3d b0 d2 78 3d
       -0.08663507 -0.05714732 0.11667563 0.060747802
000310 c6 5e 33 bd a3 b2 76 bb ec 7a fa bd 13 cf 08 bd
       -0.043791555 -0.0037643097 -0.12230477 -0.033400606
000320 42 70 f4 3d 9a c6 94 3c 7c 80 e9 bc 47 21 0a bd
       0.11935474 0.018161107 -0.028503649 -0.033723142
000330 f2 2d fa bc a2 b8 b7 3d b9 a8 41 3d 7a e2 cc 3d
       -0.030539487 0.08970763 0.047280047 0.100041345
000340 31 ea 52 3d eb 6e f9 bc fa 85 b2 bd 2c 7b 09 be
       0.051492874 -0.030448398 -0.0871696 -0.13425893
000350 14 cb 37 bd e5 61 20 be 19 be 4c 3d fa 2e 5d 3d
       -0.044871405 -0.15662344 0.04998598 0.05399988
000360 c8 0c 35 bd ae b8 07 3c 7d 3d 34 bd cf af c8 3d
       -0.044201642 0.008283777 -0.044003952 0.09799158
000370 49 b4 2a be 0f 83 9a 3d c2 56 b3 bd b1 33 9f bd
       -0.16670336 0.07544529 -0.08756782 -0.07773531
000380 a0 c9 48 3c af bf bf 3d 3e b1 f0 3c 44 9e 03 be
       0.012255102 0.093627326 0.02938139 -0.12853342
000390 90 35 17 bd d6 e1 79 3d 6e 7b 1b bd 30 e9 67 3d
       -0.036916316 0.06100639 -0.03795951 0.05661887
0003a0 b8 ba 24 be 9c 9b 2c bd 56 68 a4 3d 94 97 18 bc
       -0.16086853 -0.04214059 0.08027713 -0.009313483
0003b0 46 20 49 be 9c 56 cb 3b ae 0b 8f 3d fb c8 c4 bd
       -0.19641218 0.006205393 0.069846496 -0.096086465
0003c0 a0 29 8a bd 12 73 a1 3d e9 dd 07 3e 6c 8d 3b bb
       -0.067462206 0.07883276 0.13268246 -0.002861823
0003d0 5b 67 82 bd 5b a1 c7 bd d1 b2 61 bd 61 ce 85 bc
       -0.0636737 -0.09747573 -0.055102173 -0.01633376
0003e0 d2 3a 30 3d 5d f4 01 3e 76 a0 db 3d 66 82 b6 bc
       0.043024845 0.12690873 0.10723965 -0.022278976
0003f0 ad 37 a2 bc 31 d6 a3 bc a0 f8 ae 3d c8 8e d1 3d
       -0.019801939 -0.019999595 0.08543515 0.102323115

fc3.bias f4 [10]
000000 f6 94 8c bc 5a 51 6d 3d d4 df bd bd 69 25 2f bd
       -0.017160874 0.05793891 -0.092712075 -0.042760286
000010 43 69 bd 3d 73 fc 8d bc 22 51 ce 3c f7 80 92 bd
       0.09248593 -0.017332291 0.025185172 -0.07153504
000020 a6 69 96 bd d5 20 6c 3b
       -0.073443696 0.0036030312
