models/client-2-2.pth (torch, 13414 bytes, 5 tensors)

fc1.weight f4 [64, 8]
0	0xbe136351	-0.14393355
1	0xbe5d7a38	-0.21628654
2	0xbe3dacf2	-0.18523005
3	0xbb98a600	-0.0046584606
4	0xbe0711f4	-0.13190442
5	0x3e2e3a76	0.17014489
6	0x3deb0010	0.11474621
7	0x3e6fa3ce	0.2340233
8	0xbe0c652a	-0.13710466
9	0xbe669cf9	-0.22520818
10	0xbe666348	-0.2249881
11	0xbd717480	-0.058948994
12	0xbe104c80	-0.14091682
13	0xbdfd06de	-0.123548254
14	0xbe3f9843	-0.18710427
15	0x3e398dae	0.18120453
16	0xbeb03823	-0.3441783
17	0x3ceef840	0.02917111
18	0x3e5bb876	0.21457085
19	0x3ea89746	0.32927912
20	0x3e214c5a	0.15751782
21	0x3d74fe20	0.059812665
22	0x3eb0b11f	0.34510133
23	0xbe7df3e1	-0.24800064
24	0xbea611f4	-0.32435572
25	0xbe928b72	-0.28622013
26	0xbe3fc916	-0.18729052
27	0x3d5e58af	0.054283794
28	0xbe7ea71d	-0.24868436
29	0x3ea9100d	0.33020058
30	0x3df11cbc	0.11773059
31	0x3d704868	0.058662802
32	0xbdad3cc4	-0.08458856
33	0x3e0e705e	0.13910052
34	0xbe45059f	-0.19240426
35	0x3df9d52b	0.12198862
36	0x3c8da620	0.017291129
37	0x3e47b439	0.19502343
38	0x3e372a36	0.17887196
39	0x3e4e70ba	0.2016019
40	0xbddd1c7e	-0.1079645
41	0xbe8f6bbe	-0.28011888
42	0x3e77c256	0.24195227
43	0xbe9cedaf	-0.30650088
44	0x3e69d553	0.22835283
45	0x3e890a15	0.26765504
46	0xbe868f8d	-0.26281396
47	0x3e9a1b49	0.30098942
48	0x3e9f485f	0.31109902
49	0x3eaf338b	0.34219012
50	0xbd87a85c	-0.06623909
51	0xbe190757	-0.14944206
52	0xbdedfe32	-0.116207495
53	0xbd61a7f7	-0.055091824
54	0xbddc2380	-0.107489586
55	0xbc7a0cc0	-0.015261829
56	0xbe638257	-0.2221769
57	0x3e418bfe	0.18901059
58	0x3e6dd85e	0.23227069
59	0x3e939fc0	0.28832817
60	0xbd0f3307	-0.034960773
61	0xbe18f141	-0.14935781
62	0x3e49c142	0.19702628
63	0x3e191cd6	0.14952406
64	0x3eb4c995	0.35310045
65	0xbe421695	-0.18953927
66	0x3e8cbaa5	0.27486148
67	0xbe804b80	-0.25057602
68	0x3e9413a4	0.28921235
69	0xbe8cf3d6	-0.27529782
70	0x3da4ee4c	0.08053264
71	0xbe25345b	-0.16133253
72	0xbe2f7a1e	-0.17136428
73	0xbe4f67d4	-0.20254451
74	0xbe83ce80	-0.25743484
75	0x3e3ef096	0.18646464
76	0xbeac572e	-0.33660263
77	0xbe47794e	-0.19479868
78	0xbe95eb3e	-0.29281038
79	0x3e8b226c	0.271747
80	0x3dd5a960	0.10432696
81	0xbe9c15ce	-0.30485386
82	0xbdfe7c3e	-0.12426041
83	0x3e1d2362	0.15345529
84	0x3e1cfea6	0.15331516
85	0x3c91d610	0.017802268
86	0x3e468407	0.19386302
87	0x3ca50040	0.02014172
88	0x3e2d9552	0.16951492
89	0x3e93a079	0.28833368
90	0x3e7f6a25	0.24942835
91	0xbea30d12	-0.3184591
92	0xbe86b00d	-0.2630619
93	0x3d23b278	0.039965123
94	0xbe993f9f	-0.29931352
95	0x3da60824	0.081070215
96	0xbd7ca5f0	-0.061681688
97	0x3d27e440	0.04098916
98	0x3c2bfac0	0.010496795
99	0x3e990d5f	0.29893014
100	0xbe40864c	-0.1880123
101	0xbe86376f	-0.26214167
102	0xbe8ed644	-0.27897847
103	0x3e9bc983	0.3042718
104	0x3c3c2620	0.011483699
105	0xbe781862	-0.24228051
106	0xbd8f1820	-0.06987023
107	0x3ea98ae7	0.33113787
108	0x3ddd994c	0.10820255
109	0x3e88a84f	0.2669091
110	0xbe9d2fa1	-0.307004
111	0xbe5af02b	-0.2138068
112	0xbe187336	-0.148877
113	0x3e475e8a	0.19469658
114	0x3e2f373e	0.17110917
115	0x3c4d5ae0	0.012533873
116	0xbe5069a2	-0.20352796
117	0xbe7a4360	-0.24439764
118	0x3e50bf06	0.2038537
119	0xbe182607	-0.14858256
120	0x3e368db9	0.178275
121	0xbdff87ee	-0.124770984
122	0x3c574440	0.013138831
123	0xbdae2e60	-0.08504939
124	0x3e0137de	0.12618968
125	0xbe854358	-0.26027942
126	0xbe26c92c	-0.16287678
127	0x3e092be2	0.13395646
128	0xbe8a0b02	-0.26961523
129	0x3e174886	0.14773759
130	0xbce2a4b0	-0.02766642
131	0xbe586abe	-0.21134469
132	0x3cf526c0	0.029925704
133	0x3e89c9a7	0.2691166
134	0x3e735c33	0.2376564
135	0x3e35878e	0.17727491
136	0x3be139c0	0.0068733394
137	0xbe524d62	-0.20537332
138	0x3eaad949	0.333689
139	0xbe879916	-0.26483983
140	0x3de6b988	0.11265856
141	0xbe80d051	-0.25158933
142	0xbe613d33	-0.21996002
143	0x3de72ee0	0.112882376
144	0x3e6fd1b7	0.23419844
145	0xbb8a5c80	-0.0042224526
146	0xbde45063	-0.11148145
147	0xbe64fdaf	-0.22362398
148	0xbde0fafe	-0.10985373
149	0x3da8dd0f	0.082452886
150	0x3e12f31e	0.14350554
151	0xbe2f4d84	-0.17119414
152	0x3e8113df	0.25210473
153	0xbe5e67aa	-0.21719232
154	0xbe4e464b	-0.20144002
155	0x3e9815ed	0.29704228
156	0xbe484e4e	-0.19561121
157	0xbe266568	-0.16249621
158	0x3c423680	0.011853814
159	0xbe5a28d7	-0.21304642
160	0xbe2a5259	-0.16632976
161	0xbe4b5b96	-0.19859156
162	0xbdcb675c	-0.099318236
163	0x3ea6e749	0.32598332
164	0xbd3c4ff0	-0.04597467
165	0xbd56d5c0	-0.05244994
166	0x3e97986f	0.29608485
167	0xbe0dffc9	-0.13867106
168	0x3e88c0f1	0.26709703
169	0xbe429f6e	-0.1900613
170	0x3d990610	0.074718595
171	0x3ea75e5f	0.32689187
172	0xbdce4108	-0.100709975
173	0x3e96e795	0.29473558
174	0x3e004f76	0.12530312
175	0xbda34e9c	-0.07973978
176	0x3e1694d6	0.14705214
177	0x3e3cf2b2	0.18451956
178	0x3e9f0eea	0.31066066
179	0xbea315c3	-0.3185254
180	0x3e67eb9e	0.22648475
181	0x3e1bab16	0.15201983
182	0xbde96734	-0.113966376
183	0x3e2de9dd	0.16983743
184	0xbeb14c6c	-0.34628618
185	0x3e82dc1f	0.25558564
186	0x3e356b0a	0.17716613
187	0x3e81f1e7	0.2537987
188	0x3e00f136	0.12592015
189	0xbe9a31f1	-0.30116227
190	0x3d3cb200	0.04606819
191	0x3da963c8	0.08270985
192	0x3e9768c5	0.2957212
193	0x3cc95520	0.024576724
194	0x3ce6fc80	0.028196573
195	0xbe86a187	-0.2629511
196	0x3e16856e	0.14699337
197	0xbeb3c351	-0.35109952
198	0x3e695c2a	0.22789064
199	0xbe7644a1	-0.24049617
200	0x3e93f5a5	0.2889835
201	0xbea9c646	-0.33159083
202	0xbe882490	-0.26590395
203	0xbe00ab5a	-0.12565365
204	0x3b83f280	0.004026711
205	0xbd5e6468	-0.054294974
206	0xbe0e0481	-0.13868906
207	0xbe352f3b	-0.17693798
208	0xbe5ad731	-0.21371152
209	0x3e8d4929	0.2759488
210	0x3eaaa929	0.33332184
211	0xbe4d20c4	-0.2003203
212	0xbe21a90c	-0.15787143
213	0x3dd83a6c	0.10558018
214	0xbea1dca6	-0.31613654
215	0xbe829532	-0.25504452
216	0x3d02d108	0.03193763
217	0xbe4d8fb7	-0.20074354
218	0x3c506740	0.012719929
219	0xbd38a600	-0.045080185
220	0x3c08ffa1	0.008361728
221	0x3e8d4a57	0.2759578
222	0x3e516cb6	0.20451626
223	0x3e94ffb5	0.2910134
224	0xbe5e6336	-0.21717533
225	0x3e3be5da	0.183494
226	0xbe973694	-0.29533827
227	0xbe96e3a4	-0.2947055
228	0xbdbced20	-0.092249155
229	0xbe801022	-0.25012308
230	0xbdc42690	-0.09577668
231	0x3e69941a	0.22810403
232	0x3e207c2e	0.15672371
233	0xbde0b6fc	-0.109724015
234	0x3c51d160	0.012806267
235	0xbe88657a	-0.2663992
236	0x3d1a4168	0.037660033
237	0x3ea6e809	0.32598904
238	0x3d278cb0	0.040905654
239	0xbe65a709	-0.22427
240	0xbd5d49c8	-0.05402544
241	0x3e031db8	0.12804306
242	0x3eab6b2d	0.33480206
243	0x3eb470b9	0.3524225
244	0xbe88e600	-0.26737976
245	0xbe0f404b	-0.1398937
246	0xbe63777b	-0.22213547
247	0x3ea58b33	0.32332763
248	0xbe6aeab4	-0.22941095
249	0x3a3e8000	0.0007266998
250	0xbc9d05e0	-0.01916784
251	0xbe4c24d6	-0.19935927
252	0x3d6326a8	0.055456787
253	0x3e5fa05a	0.21838513
254	0xbe82da3b	-0.25557122
255	0x3d8422c0	0.064519405

fc1.bias f4 [64]
0	0xbd468e78	-0.048475713
1	0xbe859e3f	-0.26097295
2	0xbe07794a	-0.13229862
3	0x3e1759be	0.14780328
4	0x3e6e5196	0.2327331
5	0xbe222714	-0.1583522
6	0xbe846153	-0.25855502
7	0x3ba9d7c0	0.00518319
8	0x3e89da8f	0.2692456
9	0xbe9cac5e	-0.30600256
10	0xbe87c05c	-0.26513946
11	0xbe73c819	-0.238068
12	0xbd692b88	-0.05692628
13	0xbe80b96a	-0.2514146
14	0xbe909a44	-0.28242695
15	0x3d521c80	0.05129671
16	0x3e0436ec	0.12911576
17	0x3e541b52	0.20713547
18	0x3d40f457	0.04710802
19	0x3e8f05ab	0.27934012
20	0x3e085040	0.13311863
21	0x3deccfb4	0.11563054
22	0xbc47ffe0	-0.012207001
23	0xbd635b78	-0.055507153
24	0x3e0d83be	0.13819787
25	0x3e3c1ca6	0.18370304
26	0xbe85a1cf	-0.26100013
27	0xbe779b84	-0.24180418
28	0x3dccc03c	0.09997603
29	0x3e8fdb31	0.28096917
30	0x3ddcfd09	0.1079045
31	0x3e9c70b7	0.30554745
32	0x3e62c74e	0.22146341
33	0xbe809be5	-0.25118938
34	0xbe78ffd2	-0.24316338
35	0x3dadaf00	0.08480644
36	0xbd1c2900	-0.03812504
37	0x3e5c074b	0.21487157
38	0x3cfba630	0.030718893
39	0x3e22eb6e	0.15910122
40	0x3e24484e	0.16043207
41	0xbeae0616	-0.33989018
42	0x3d55a580	0.052159786
43	0xbe2669cd	-0.16251297
44	0xbc1e9cc0	-0.009680927
45	0x3e58b882	0.21164134
46	0xbe916f88	-0.28405404
47	0xbe240213	-0.16016416
48	0x3e7f6b32	0.24943236
49	0xbe098bcb	-0.13432233
50	0xbd54dae0	-0.051966548
51	0x3e9a3a69	0.30122688
52	0xbe3c1eba	-0.18371096
53	0x3e0deede	0.13860652
54	0xbe43069c	-0.1904549
55	0xbde1c78b	-0.11024388
56	0x3e2ec092	0.17065647
57	0x3dc8c13c	0.098024815
58	0xbeb01ad7	-0.34395477
59	0x3d894ce8	0.06704122
60	0xbdb6c431	-0.08924139
61	0xbe056dda	-0.13030186
62	0xbe85dda7	-0.2614567
63	0x3d09df50	0.033660233

fc2.weight f4 [32, 64]
0	0x3b47b880	0.003047496
1	0x3d952c46	0.07283835
2	0x3d7549bc	0.05988477
3	0x3d9d11fc	0.07669446
4	0x3daa7172	0.08322419
5	0x3dae7d07	0.08519941
6	0x3d3fa350	0.046786606
7	0x3d9575e2	0.07297875
8	0xbde82528	-0.11335212
9	0xbd6c23bd	-0.05765127
10	0xbdc0893c	-0.094011754
11	0xbb193f00	-0.0023383498
12	0x3cb44350	0.022004753
13	0xbdc34134	-0.09533921
14	0x3c894d00	0.01676035
15	0x3dee3135	0.11630479
16	0x3d57c2d0	0.052676022
17	0x3c3352e1	0.010945053
18	0xbdc21b02	-0.094778076
19	0x3dad627f	0.08466052
20	0xbdae7bc7	-0.085197024
21	0xbdbe7492	-0.09299578
22	0xbde32d54	-0.1109263
23	0xbd7eb203	-0.062181484
24	0x3d27ae88	0.04093793
25	0x3dfb88a8	0.122819245
26	0xbdb17324	-0.086645395
27	0xbcba5e60	-0.02275008
28	0xbd6188ec	-0.05506222
29	0xbd2ff24c	-0.04295568
30	0xbddf1c70	-0.10894096
31	0x3dadfb63	0.08495214
32	0x3d957878	0.07298368
33	0x3bb70d80	0.005586326
34	0x3d6102e1	0.054934386
35	0xbddfafb0	-0.109221816
36	0xbc526990	-0.012842551
37	0x3cb2e158	0.021835968
38	0x3c789640	0.015172541
39	0x3bb72660	0.0055892915
40	0x3d88e450	0.06684172
41	0xbdb74744	-0.0894914
42	0x3deb8e05	0.115016975
43	0xbdcd93aa	-0.1003793
44	0x3d6f54cc	0.058430478
45	0x3c11ae30	0.008891627
46	0xbd5c733c	-0.053820834
47	0x3d16b2b0	0.036791503
48	0xbdc38d80	-0.09548473
49	0xbd410a47	-0.047128942
50	0xbdbdba83	-0.0926409
51	0xbdad2394	-0.084540516
52	0x3d143354	0.036181763
53	0xbd33666c	-0.04379885
54	0xbd36856c	-0.044560835
55	0x3da50b1c	0.080587596
56	0xbdaafc34	-0.08348885
57	0xbdb422d8	-0.087957084
58	0x3d2ea800	0.042640686
59	0xbd39db40	-0.04537511
60	0xbbc01e20	-0.005862966
61	0x3db43cdc	0.088006705
62	0xbc36c240	-0.011154711
63	0x3dc445aa	0.095836
64	0xbd5dff5d	-0.05419861
65	0x3da21902	0.07914926
66	0xbdd7d73c	-0.105390996
67	0xbdfd15e8	-0.12357694
68	0x3d5c5cb4	0.053799346
69	0x3cc64ba0	0.024205983
70	0x3cdc3a7f	0.026883362
71	0xbddb677a	-0.10713096
72	0x3dc587ff	0.0964508
73	0x3daf831a	0.085699275
74	0x3da4c3b3	0.08045139
75	0xbb4d5340	-0.0031330138
76	0xbddc276e	-0.10749708
77	0x3da50d7e	0.08059214
78	0xbda557c0	-0.080733776
79	0xbc56c7f0	-0.013109192
80	0xbde1d512	-0.11026968
81	0x3dc0bcdc	0.09411022
82	0xbc9eb630	-0.019373983
83	0x38b0c000	8.428097e-05
84	0xbded936e	-0.116003856
85	0xbd2bda24	-0.041956082
86	0x3d86e998	0.06587523
87	0xbdf47be8	-0.11937696
88	0xbdb72610	-0.08942807
89	0x3dafdce4	0.085870534
90	0x3c51ed11	0.012812869
91	0xbdb98dfa	-0.09060283
92	0xbca78f90	-0.020454198
93	0xbdeb16a0	-0.11478925
94	0x3d08ce30	0.03339976
95	0xbba2dc60	-0.0049701184
96	0xbd6ca128	-0.057770878
97	0xbd8f62b0	-0.07001245
98	0x3dd1500f	0.10220348
99	0xbd076640	-0.033056498
100	0x3dbe048e	0.092782125
101	0xbdf3e0fe	-0.11908148
102	0xbd4b28a5	-0.04959931
103	0xbd75f921	-0.06005204
104	0x3dcec189	0.10095508
105	0xbdb66580	-0.08906078
106	0x3d1162b0	0.035494506
107	0x3d138bbc	0.036021933
108	0x3d937dd8	0.07201737
109	0xbddd7006	-0.108123824
110	0xbd01dc48	-0.031704217
111	0xbcce44c8	-0.025179282
112	0x3d850cf4	0.06496611
113	0xbdf06420	-0.11737847
114	0x3dade45e	0.08490823
115	0x3c03e8c0	0.008051097
116	0xbc0aef40	-0.008479893
117	0x3dcb3a4a	0.09923227
118	0xbd267d44	-0.040646806
119	0xbcccd530	-0.025004
120	0xbda7f6ba	-0.08201356
121	0x3d890714	0.06690803
122	0x3d07a7b4	0.03311892
123	0x3df1d188	0.11807543
124	0x3da4c736	0.08045809
125	0xbdddc180	-0.10827923
126	0xbca4a108	-0.020096317
127	0x3db24c92	0.08706011
128	0x3da94a22	0.08266093
129	0x3d6b1eac	0.057402298
130	0xbda2220e	-0.07916652
131	0xbcd5e5c8	-0.026110545
132	0x3d8fb644	0.07017186
133	0x3b4cbf41	0.0031241926
134	0xbd3da0d0	-0.04629594
135	0xbda34f7c	-0.07974145
136	0xbdd4f041	-0.10397387
137	0xbd987766	-0.074446484
138	0xbdc7fd6e	-0.09765135
139	0x3dcf1e62	0.10113217
140	0x3d8fb94a	0.07017763
141	0xbdfccd28	-0.12343818
142	0xbdc90e78	-0.09817213
143	0xbcbdca00	-0.02316761
144	0xbdd5790c	-0.104234785
145	0x3d88666c	0.066601604
146	0x3ce33120	0.027733386
147	0x3d636c97	0.05552348
148	0xbd7905cc	-0.060796544
149	0xbc35d240	-0.011097491
150	0xbd62c3fc	-0.055362687
151	0xbcb210d8	-0.021736547
152	0x3d20673c	0.039160952
153	0x3df224ce	0.11823426
154	0xbb692b80	-0.0035578907
155	0x3df1ceb2	0.11807002
156	0x3dabf63a	0.08396573
157	0xbd91d214	-0.07120147
158	0xbc823de0	-0.015898645
159	0xbc8ad8a8	-0.016949013
160	0xbd835d06	-0.06414227
161	0xbd8e0ff8	-0.069366395
162	0x3c5a1550	0.013310745
163	0xbceb0480	-0.02868867
164	0x3debe062	0.11517407
165	0xbbc35760	-0.0059613436
166	0x3d070c58	0.032970756
167	0xbd2312bc	-0.03981279
168	0xbb0cff00	-0.0021514297
169	0xbdfc0667	-0.12305909
170	0x3df4ad94	0.1194717
171	0x3d9bfdd8	0.07616776
172	0x3dfe3296	0.12411992
173	0x3d5f62c0	0.054537535
174	0xbdbb0f84	-0.09133819
175	0xbdfce83e	-0.12348984
176	0x3b5a0e40	0.0033272654
177	0x3d9b1b72	0.07573594
178	0xbd86d3d6	-0.06583373
179	0xbd760020	-0.060058713
180	0x3d6cc1a0	0.057801843
181	0x3cca9687	0.02472998
182	0xbde4470a	-0.11146362
183	0x3dcdd6f0	0.10050762
184	0x3cc55f89	0.024093406
185	0x3d30f6d8	0.04320416
186	0x3d8ee894	0.069779545
187	0x3d2ed0fc	0.04267977
188	0x3dadb4de	0.08481763
189	0x3d4492c0	0.047991514
190	0xbd22e620	-0.039770246
191	0x3dc3cb40	0.09560251
192	0x3d403113	0.0469218
193	0xbd84f582	-0.064921394
194	0x3d9ee330	0.07758176
195	0xbd8bdb20	-0.06828904
196	0x3d4e26b8	0.050329894
197	0xbdd0b2d7	-0.10190361
198	0x3db1c218	0.086795986
199	0xbdbe5eab	-0.092954
200	0xbd5ba260	-0.05362165
201	0xbdb7edf4	-0.08980933
202	0x3c627860	0.013822645
203	0x3cafa0d8	0.021439001
204	0xbcfe85f8	-0.03106974
205	0xbd95c3b8	-0.07312721
206	0x3dc06e50	0.093960404
207	0xbded06fc	-0.11573598
208	0x3d595adc	0.053065166
209	0x3d232110	0.039826453
210	0xbd9b19a6	-0.075732514
211	0xbd6928d8	-0.056923717
212	0xbcc76dd8	-0.02434437
213	0xbd0e1c68	-0.03469506
214	0xbdba3ff1	-0.09094227
215	0x3d407e29	0.046995316
216	0xbdb2d15c	-0.087313384
217	0x3d39bd40	0.0453465
218	0x3dd615d4	0.10453382
219	0x3d5dd8b0	0.054161727
220	0xbc15a0e0	-0.009132594
221	0xbda1d97a	-0.079028085
222	0x3cb16c60	0.021658123
223	0x3dfbfc1c	0.123039454
224	0x3da1eb2e	0.07906185
225	0x3c31b290	0.010845795
226	0x3d75d710	0.060019553
227	0xbdd64210	-0.10461819
228	0xbddab058	-0.10678166
229	0xbda6f750	-0.0815264
230	0x3d2bc6d0	0.04193765
231	0x3d704e18	0.058668226
232	0xbda8b387	-0.08237367
233	0xb935b000	-0.0001732707
234	0xbce7add1	-0.028281124
235	0xbdac33cc	-0.08408317
236	0xbce35100	-0.027748585
237	0xbcc66307	-0.024217142
238	0xbd35d344	-0.04439093
239	0x3d0b43cc	0.034000203
240	0xbdbc678e	-0.09199439
241	0xbde4c2d2	-0.111699715
242	0xbd2d4467	-0.04230156
243	0xbc3fe9e0	-0.011713475
244	0xbd5e43dc	-0.054263934
245	0xbdf0c6af	-0.11756646
246	0xbdcfaa24	-0.101398736
247	0x3dbad3e0	0.09122443
248	0xbd8987d6	-0.06715362
249	0xbd0e93d8	-0.034808964
250	0xbdbe819b	-0.09302064
251	0x3df87679	0.12131972
252	0x3db14ef6	0.08657639
253	0xbd1f78ac	-0.03893344
254	0x3d74d601	0.059774403
255	0x3cf6c291	0.030122073

fc2.bias f4 [32]
0	0x3dc7dcf8	0.09758943
1	0xbd620344	-0.055178896
2	0x3d050f94	0.03248556
3	0xbde8d944	-0.11369565
4	0xbd9e8bba	-0.077414945
5	0xbdc407a4	-0.0957177
6	0xbddbc234	-0.10730401
7	0xbd9ffb02	-0.07811548
8	0x3dadc25a	0.08484335
9	0x3dff9cf0	0.12481105
10	0x3d3c48ec	0.04596798
11	0xbd91448e	-0.07093154
12	0xbda6b822	-0.08140589
13	0xbc4a84c0	-0.012360752
14	0xbd9a4e50	-0.07534468
15	0x3bd0d741	0.0063733165
16	0x3dffd015	0.124908604
17	0x3dcfbfe4	0.10144022
18	0x3d1a7728	0.037711293
19	0xbd387148	-0.04502991
20	0x3dd15dd8	0.102229774
21	0xbdaaa0ac	-0.08331427
22	0xbb754f80	-0.003743142
23	0x3d3ee46b	0.046604555
24	0x3d456e50	0.048200905
25	0x3d18d2d8	0.03731045
26	0x3da6c3ca	0.081428126
27	0xbd4e58c8	-0.050377637
28	0x3ce97660	0.028498828
29	0xbdd77bad	-0.10521636
30	0xbcb8d360	-0.022561729
31	0xbdd28d8b	-0.102809034

fc3.weight f4 [1, 32]
0	0xbe287054	-0.164491
1	0xbe2ba721	-0.16762973
2	0x3e1102c9	0.14161219
3	0x3da68a72	0.08131875
4	0x3dc1b386	0.094580695
5	0xbd450cc8	-0.048107892
6	0xbc0e9c30	-0.00870423
7	0xbd68cfe8	-0.0568389
8	0xbcb11550	-0.021616608
9	0x3e123221	0.14276935
10	0x3d6362ac	0.055514023
11	0x3e2e24b4	0.17006189
12	0x3d0a4524	0.033757344
13	0x3db7015e	0.08935808
14	0x3e1e4aa1	0.15458156
15	0xbdd46cd2	-0.10372318
16	0xbe3302c8	-0.1748153
17	0xbd8a8a52	-0.06764664
18	0x3d793f98	0.060851663
19	0x3bd5a740	0.006520182
20	0x3df12e0a	0.117763594
21	0x3d04ce84	0.03242351
22	0x3df6e38a	0.120551184
23	0xbce7c508	-0.028292194
24	0x3dd0e201	0.10199357
25	0xbe34beac	-0.1765086
26	0xbce1d010	-0.027565032
27	0xbc24b9a0	-0.010054022
28	0xbd5a7c65	-0.053341288
29	0x3d9c713e	0.07638787
30	0xbe259070	-0.1616838
31	0xbcbb2dd8	-0.022849008
