models/client-5-0.pth (torch, 181282 bytes, 10 tensors)

conv1.weight f4 [6, 1, 5, 5]
-0.09757675 0.19352838 0.09090693 -0.04838755 -0.094848186 -0.08798866 0.2589317 0.23335925
0.24172272 -0.16393861 -0.016046407 0.12840368 -0.06999274 0.24028629 -0.03605577 -0.16273285
-0.009048418 -0.02179758 0.16459417 0.09397467 0.022127945 -0.018536797 0.15769346 -0.08967249
0.18318275 0.1726834 0.14888798 0.016905783 0.05437176 0.016886264 0.03054175 0.1902034
-0.015081763 -0.058682933 0.18320696 0.0480547 0.12588073 0.3471975 -0.0060767834 0.09668279
0.23418012 0.26877204 0.19646801 -0.050877053 -0.012675046 0.06289841 -0.0031980132 -0.09669077
0.0021746752 -0.09042826 0.05207987 -0.022435373 0.06426153 0.15005666 0.25804576 -0.13278766
-0.12862812 -0.09021643 0.08178678 0.23760138 -0.22482875 -0.01594566 0.30790287 0.37910435
0.25959843 0.027335726 0.25269902 0.15382056 0.25536877 0.28983104 0.104951784 -0.10111057
0.032686535 -0.04747705 0.2675921 -0.18173051 -0.25245747 -0.09464378 -0.2747688 -0.36412588
0.11368862 -0.30600223 -0.31840658 -0.2854888 -0.25121155 0.08145262 0.20889424 -0.04501743
0.25756648 0.10840025 0.15461099 0.114247724 0.26547801 0.26831588 0.059603848 -0.03314627
0.18608962 0.11480041 -0.016262596 0.22774139 0.13957416 0.22114621 0.08110036 -0.008416627
-0.014565265 -0.06885674 0.17902999 -0.06544688 0.1356175 0.19595087 0.047905855 0.18128076
0.28193554 0.19578099 0.27343175 0.27820694 0.26353213 -0.029008536 0.09543007 0.028366042
0.010899573 0.25002432 -0.06628139 0.0718145 -0.117313504 -0.072654285 -0.25459954 -0.17817439
-0.02068458 0.24772614 -0.20910531 -0.26577327 -0.14664432 0.29312468 0.17223741 -0.05759661
-0.2930208 -0.09779456 0.24650456 0.038315658 -0.19229826 0.0125752855 0.1054504 0.21826418
0.17775068 -0.0067886086 0.039591867 0.037379578 0.18152796 0.21587962
00000000: 52d6 c7bd 4e2c 463e 6a2d ba3d 0632 46bd
00000010: c43f c2bd 6633 b4bd b292 843e baf5 6e3e
00000020: 2986 773e 86df 27be c173 83bc 417c 033e
00000030: 5b58 8fbd 9c0d 763e 37af 13bd 71a3 26be
00000040: d13f 14bc d790 b2bc 608b 283e cb75 c03d
00000050: aa45 b53c 7bda 97bc 657a 213e 36a6 b7bd
00000060: 4294 3b3e ebd3 303e 1776 183e ff7d 8a3c
00000070: ecb4 5e3d 1055 8a3c b132 fa3c aec4 423e
00000080: 8019 77bc 845d 70bd 9b9a 3b3e 01d5 443d
00000090: e1e6 003e dfc3 b13e c11f c7bb a001 c63d
000000a0: eacc 6f3e 7d9c 893e e92e 493e 7564 50bd
000000b0: ffaa 4fbc e2d0 803d c295 51bb cf05 c6bd
000000c0: ff84 0e3b 7432 b9bd b451 553d 63ca b7bc
000000d0: 8d9b 833d 74a8 193e 931e 843e 7df9 07be
000000e0: 17b7 03be 64c3 b8bd d47f a73d c74d 733e
000000f0: 8239 66be 79a0 82bc 72a5 9d3e f719 c23e
00000100: 16ea 843e 2cef df3c c461 813e 2383 1d3e
00000110: b2bf 823e bc64 943e f6f0 d63d 0f13 cfbd
00000120: 51e2 053d 4c77 42bd d501 893e 9017 3abe
00000130: 1b42 81be 99d4 c1bd 7fae 8cbe b56e babe
00000140: 94d5 e83d 53ac 9cbe 3006 a3be 972b 92be
00000150: cd9e 80be a2d0 a63d 5fe8 553e 3264 38bd
00000160: c1df 833e f300 de3d 5852 1e3e b6fa e93d
00000170: bcec 873e b360 893e 2a23 743d 62c4 07bd
00000180: 478e 3e3e 7a1c eb3d 2339 85bc 0a35 693e
00000190: 87ec 0e3e 2774 623e f217 a63d e4e5 09bc
000001a0: 26a3 6ebc c304 8dbd a353 373e 0409 86bd
000001b0: 50df 0a3e 58a7 483e ee38 443d aaa1 393e
000001c0: db59 903e d07a 483e 3fff 8b3e 2471 8e3e
000001d0: afed 863e 4fa3 edbc d770 c33d e75f e83c
000001e0: 1f94 323c 3003 803e 8abe 87bd 7b13 933d
000001f0: 1042 f0bd c5cb 94bd df5a 82be 5973 36be
00000200: b572 a9bc ecab 7d3e b41f 56be 6f13 88be
00000210: ee29 16be 7014 963e 015f 303e 6cea 6bbd
00000220: d306 96be 8448 c8bd b16b 7c3e e1f0 1c3d
00000230: d6e9 44be 9208 4e3c 61f6 d73d a580 5f3e
00000240: 4604 363e fa72 debb 152b 223d 541b 193d
00000250: 77e2 393e 8c0f 5d3e

conv1.bias f4 [6]
0.092321254 -0.026370823 0.098400004 0.20784877 0.031904213 0.10521176
00000000: ed12 bd3d a007 d8bc f185 c93d 4fd6 543e
00000010: fead 023d 4379 d73d

conv2.weight f4 [16, 6, 5, 5]
-0.014804322 -0.02579712 -0.08129713 -0.024393238 -0.014398635 0.008341856 0.0032095225 -0.03182065
0.041816294 -0.013689379 0.018674683 0.06778692 0.094728954 -0.0039313757 0.0887946 -0.04521283
0.02705136 0.13092618 0.023870587 0.069528945 -0.13391805 0.0014108929 0.095593184 -0.036657955
0.022327386 0.023896176 -0.055625487 -0.11989292 -0.14773878 -0.14707989 0.036981046 0.00287173
0.0018376776 0.010417063 -0.12204717 -0.048864607 0.07958569 0.18265931 0.029834814 0.042152744
0.024739766 0.0054828385 0.04408652 -0.017847963 0.11834418 -0.013609728 -0.08377882 0.01705173
0.03948289 0.18317525 0.004504476 -0.05546998 -0.10475466 -0.14437906 -0.01813732 -0.061110727
-0.0028369958 0.00096279185 -0.0185588 -0.065316975 0.07351119 0.13529396 0.059994116 -0.033509374
-0.045986433 0.032067373 0.11088362 -0.05515829 0.064036146 0.02359913 -0.11902085 -0.0072794547
0.09005853 0.10374204 0.085783735 0.14600185 0.116948985 -0.04267912 -0.12430889 -0.020562114
0.013002906 0.11637437 0.02599288 0.107426874 0.042982295 0.11161593 0.07159528 0.0021269012
0.15758173 0.07381358 -0.11395974 -0.12674053 -0.074952245 0.0827462 0.03683503 -0.14963701
-0.08312427 0.03425352 -0.013958552 -0.01590965 -0.00050315197 -0.0968653 -0.050222546 0.003353787
-0.025814613 -0.0013507281 -0.008530775 -0.01630589 -0.037204273 -0.07953214 0.06892826 0.098174796
0.07423329 0.0035732104 -0.09493646 0.015294649 0.0010794827 0.121934146 0.05738089 0.035578534
-0.03374463 -0.106487624 0.0033034666 0.028502231 0.040580563 -0.07662395 -0.06811218 -0.11093551
-0.064641975 -0.12863432 -0.06314292 -0.07144992 -0.0150977485 -0.12892465 -0.08495909 0.10809837
0.00014669284 -0.015682423 -0.051058598 -0.14314505 -0.023619633 -0.0062607024 -0.048491772 -0.05092878
-0.13016559 -0.0338549 -0.04145845 -0.115053825 -0.07801427 -0.15920182 0.06630517 0.029711004
-0.033396736 -0.03231027 -0.023889843 0.05634102 0.08802007 0.05626159 -0.11818971 0.015574619
0.015707374 -0.020791288 0.093118966 -0.062103078 -0.091128856 -0.033647712 0.038670994 0.05567804
-0.013313474 -0.08931891 -0.023590047 0.06549136 0.07912133 0.030633822 -0.009119982 0.09805428
0.06832154 0.01677685 -0.10481769 -0.15122193 0.039072644 0.056350783 -0.033411283 0.023022583
-0.14425267 -0.082907654 0.035147417 0.05671081 0.0066861133 -0.09211549 -0.024839822 0.030896718
-0.010822633 0.059272688 -0.05091991 -0.03780934 -0.11044642 -0.00076624413 0.04813592 0.06966531
0.0924861 0.07377032 -0.08301054 -0.15879408 -0.13193315 -0.026902873 0.07686004 0.014426633
-0.13759698 -0.12214783 0.050652027 0.098021865 0.011497386 -0.129032 -0.080173574 -0.0043828352
0.10611239 0.01574426 -0.09961275 0.026152547 0.022895144 -0.02593895 0.115934774 -0.009108451
-0.02749465 0.16747071 -0.00094531884 0.0091085285 -0.05694373 0.03942187 0.0075361324 -0.017295064
0.10881678 0.043959748 -0.072269656 0.06650028 -0.039429605 -0.012258458 0.085777596 -0.024336997
-0.057986792 -0.13231882 -0.019487686 -0.015358829 0.12344525 -0.0038429233 -0.04314483 -0.07462666
-0.048895907 -0.0027607307 0.05625078 0.088344835 0.07526837 0.013489872 -0.1149094 -0.004309191
00000000: d48d 72bc 7b54 d3bc 1c7f a6bd 54d4 c7bc
00000010: 41e8 6bbc 48ac 083c da56 523b 5f56 02bd
00000020: 9047 2b3d 6b49 60bc a6fb 983c ded3 8a3d
00000030: 4101 c23d c5d2 80bb f1d9 b53d 1731 39bd
00000040: d09a dd3c 8311 063e 408c c33c 3165 8e3d
00000050: d021 09be b6ed b83a 5cc6 c33d a726 16bd
00000060: ece7 b63c eac1 c33c 8dd7 63bd 6b8a f5bd
00000070: d648 17be 1c9c 16be 7079 173d a233 3c3b
00000080: 3ade f03a 54ac 2a3c def3 f9bd 4126 48bd
00000090: d2fd a23d 0b0b 3b3e 2468 f43c 5ba8 2c3d
000000a0: 0dab ca3c 62a9 b33b 1194 343d e435 92bc
000000b0: 6f5e f23d 56fb 5ebc 3b94 abbd 12b0 8b3c
000000c0: d0b8 213d 4b92 3b3e 499a 933b 7d34 63bd
000000d0: 9c89 d6bd 1bd8 13be b894 94bc 3e4f 7abd
000000e0: e4ec 39bb de63 7c3a a008 98bc e8c4 85bd
000000f0: 098d 963d 808a 0a3e 64bc 753d 2041 09bd
00000100: 455c 3cbd 1459 033d f416 e33d a9ed 61bd
00000110: 6225 833d f652 c13c 34c1 f3bd 7e88 eebb
00000120: 9b70 b83d b576 d43d 62af af3d 8281 153e
00000130: f382 ef3d 4dd0 2ebd a995 febd e171 a8bc
00000140: 240a 553c b055 ee3d 05ef d43c 9f02 dc3d
00000150: 340e 303d e596 e43d 8ca0 923d 7b63 0b3b
00000160: 1b5d 213e 932b 973d b963 e9bd 45c8 01be
00000170: 9080 99bd d776 a93d 54e0 163d 723a 19be
00000180: 0f3d aabd 6b4d 0c3d 69b2 64bc f454 82bc
00000190: f5e5 03ba 5061 c6bd 28b6 4dbd 35cb 5b3b
000001a0: 2b79 d3bc ea0a b1ba aac4 0bbc ee93 85bc
000001b0: 8263 18bd bfe1 a2bd 422a 8d3d de0f c93d
000001c0: a007 983d 862c 6a3b 0c6e c2bd 6896 7a3c
000001d0: 6e7d 8d3a 9cb8 f93d 3908 6b3d ccba 113d
000001e0: cf37 0abd 2f16 dabd f97e 583b 837d e93c
000001f0: ce37 263d 04ed 9cbd 667e 8bbd 2832 e3bd
00000200: 0363 84bd b7b8 03be 1351 81bd 5654 92bd
00000210: 8c5c 77bc d304 04be 08ff adbd ae62 dd3d
00000220: 8fd1 1939 6d78 80bc d222 51bd 9e94 12be
00000230: f67d c1bc 9426 cdbb 4f9f 46bd b29a 50bd
00000240: 214a 05be 70ab 0abd 56d0 29bd 57a1 ebbd
00000250: f2c5 9fbd cd05 23be 01cb 873d 7e64 f33c
00000260: 04cb 08bd c657 04bd a2b4 c3bc d7c5 663d
00000270: de43 b43d 8e72 663d 720d f2bd b02c 7f3c
00000280: c0ac 803c 7e52 aabc 28b5 be3d cc5f 7ebd
00000290: c4a1 babd 2fd2 09bd 7a65 1e3d a80e 643d
000002a0: c220 5abc d5ec b6bd ea3f c1bc 5620 863d
000002b0: 5d0a a23d c8f3 fa3c fa6b 15bc afd0 c83d
000002c0: 2aec 8b3d 9b6f 893c a8aa d6bd ecd9 1abe
000002d0: a30a 203d 14d0 663d 45da 08bd db99 bc3c
000002e0: f9b6 13be 7dcb a9bd bdf6 0f3d 9849 683d
000002f0: 2f17 db3b 0ca7 bcbd e27c cbbc 1d1b fd3c
00000300: 6a51 31bc ebc7 723d 6591 50bd f7dd 1abd
00000310: bc31 e2bd c6dd 48ba 2c2a 453d b0ac 8e3d
00000320: 5a69 bd3d e514 973d 6e01 aabd ea9a 22be
00000330: 7c19 07be 6a63 dcbc cc68 9d3d af5d 6c3c
00000340: 39e6 0cbe a428 fabd 8078 4f3d b0bf c83d
00000350: 885f 3c3c f720 04be 0b32 a4bd e39d 8fbb
00000360: 7451 d93d 1bfa 803c c501 ccbd de3d d63c
00000370: 998e bb3c ec7d d4bc 366f ed3d 9d3b 15bc
00000380: 763c e1bc 717d 2b3e 46cf 77ba f03b 153c
00000390: d43d 69bd d478 213d a9f1 f63b 61ae 8dbc
000003a0: 55db de3d 230f 343d 1d02 94bd 4c31 883d
000003b0: f080 21bd b3d7 48bc 2aac af3d 625e c7bc
000003c0: 8f83 6dbd 967e 07be a4a4 9fbc 99a3 7bbc
000003d0: ddd0 fc3d 8ed9 7bbb a2b8 30bd ddd5 98bd
000003e0: 1347 48bd 60ed 34bb 3867 663d 23ee b43d
000003f0: 4e26 9a3d a004 5d3c 9f55 ebbd 1d34 8dbb

conv2.bias f4 [16]
0.015429261 0.022125673 0.054522052 -0.02422993 -0.018570675 0.016970009 0.0337037 -0.06641591
-0.092993595 -0.016967317 0.052932337 0.034304008 0.08150325 0.054853376 -0.01517813 0.040420964
00000000: 03cb 7c3c e640 b53c 8452 5f3d d97d c6bc
00000010: 8721 98bc b004 8b3c e40c 0a3d 1105 88bd
00000020: 6d73 bebd 0bff 8abc 94cf 583d 5c82 0c3d
00000030: 2deb a63d efad 603d b1ad 78bc 7490 253d

fc1.weight f4 [120, 256]
0.05270718 -0.015167969 0.04337154 -0.04385465 0.058191102 0.055518717 -0.01110137 -0.01612522
0.03812025 -0.026641902 0.06882847 0.009793699 0.09606728 0.032997336 -0.00628076 0.0886833
0.073181584 -0.07177749 0.04830062 -0.040813804 0.023814406 -0.05125737 0.08911691 0.011003225
0.00023073943 0.028998658 0.06496251 0.048380286 -0.055597767 -0.019954674 0.040557247 0.026029112
0.079363376 0.028291918 0.039118547 -0.04571491 -0.06601113 0.08903194 -0.023200087 0.056562845
-0.0509542 -0.016375655 0.08004289 0.030198159 -0.016087493 -0.000914169 0.029100647 0.069768004
0.050999578 0.048779704 -0.07378756 0.059901778 0.06072351 0.01645811 -0.040548354 0.07003985
0.040609125 0.04420663 0.06687464 0.005480726 0.1341286 0.027221274 0.029943272 -0.03203139
0.056284156 0.089388974 0.045960903 0.0273482 0.0394662 0.07356526 0.025128696 0.020663684
0.022069125 0.015919536 0.057489377 -0.05620161 0.07472693 0.039828543 -0.042120803 -0.023201667
0.023417132 -0.015314646 0.08190996 0.04453817 -0.075491846 -0.014744779 0.08916878 0.025777465
-0.015651781 -0.042360153 0.00037789732 -0.057596605 -0.001608836 0.082616694 0.05739938 0.044055756
0.0942945 0.01094672 -0.0042555807 -0.048863534 -0.01333241 0.0057403254 -0.00013238018 -0.0041345446
0.07862396 0.011332822 0.075974345 -0.015175967 -0.02382571 -0.058254417 -0.0058171 -0.032087773
0.0669796 0.049571287 0.036684576 -0.016204687 0.048500337 0.005416141 -0.008851072 0.08030881
-0.026158787 -0.0067039784 0.009625705 -0.025763063 -0.037108164 0.03085635 -0.029876897 0.0067086117
0.03014381 0.004846518 -0.041896105 0.057031013 0.012836892 0.07734077 -0.026024455 0.022982934
0.015134121 0.046461802 -0.0018757524 0.009463265 -0.033606812 0.072435535 0.06521627 0.060935806
0.0081895385 -0.07871962 -0.081928775 0.03763458 0.022297356 -0.04132958 0.027562883 0.077045575
0.038967535 -0.021668576 0.05638534 0.10924698 0.0017352655 0.07844482 0.06634108 0.0070643555
-0.0025462818 -0.010250939 0.030059848 0.055674333 0.020628396 0.0016179398 -0.008392384 0.036549922
0.013106777 -0.028877456 0.041923955 0.06849334 -0.06111614 0.0046284813 0.060575824 0.050430175
0.032505546 0.008049904 0.055382326 0.08409322 -0.0066711856 0.045155615 0.09671402 -0.014069467
0.060225137 0.06447463 -0.033040654 0.07201147 0.012740101 -0.010836193 0.07092563 0.05117725
0.07160298 0.033947412 0.012573782 0.028599659 -0.046132945 0.046565272 0.038707342 0.006515959
-0.07015427 0.06376688 0.030166976 0.021367716 -0.03705832 0.026600514 0.0976341 0.0108499555
0.08005012 0.07520148 0.0066514257 -0.024765853 -0.006521535 0.030638546 0.014790358 -0.055707462
0.046149448 -0.011157958 0.058136746 0.012925736 -0.037776057 -0.06807108 0.07040288 0.07991088
-0.025221847 0.054639716 -0.09067089 -0.009964725 0.055302992 0.077181034 -0.0037367465 0.016436385
-0.050032407 0.012552584 0.09911938 0.0899711 0.0022757526 0.00920644 0.069130115 0.025665952
0.004441819 0.08012821 0.04738627 0.022805834 0.03537736 0.026307452 0.026477292 -0.1475922
-0.06708347 -0.02648908 -0.026831273 0.04409523 0.027165271 0.049361296 0.041242633 -0.019897604
00000000: 7ce3 573d 1383 78bc 5ba6 313d efa0 33bd
00000010: cb59 6e3d 9867 633d 85e2 35bc 0a19 84bc
00000020: fb23 1c3d 1e40 dabc f1f5 8c3d c075 203c
00000030: ecbe c43d 3728 073d d5ce cdbb 979f b53d
00000040: 3ae0 953d 1400 93bd dfd6 453d 602c 27bd
00000050: 6e16 c33c 3ff3 51bd ed82 b63d df46 343c
00000060: a5f2 7139 988e ed3c 100b 853d 682a 463d
00000070: 7cba 63bd fc77 a3bc 5b1f 263d 013b d53c
00000080: 4489 a23d 74c4 e73c c53a 203d 8f3f 3bbd
00000090: d830 87bd 6156 b63d 1c0e bebc 71ae 673d
000000a0: 5ab5 50bd 3d26 86bc 87ed a33d 2162 f73c
000000b0: ebc9 83bc d8a4 6fba 7b64 ee3c 87e2 8e3d
000000c0: efe4 503d 3acd 473d ef1d 97bd 915b 753d
000000d0: 37b9 783d 29d3 863c 0816 26bd 0e71 8f3d
000000e0: c155 263d 0312 353d 92f5 883d a997 b33b
000000f0: 0259 093e 26ff de3c 984b f53c 5933 03bd
00000100: 378a 663d 9111 b73d 8041 3c3d 5509 e03c
00000110: 4fa7 213d 62a9 963d b2da cd3c e346 a93c
00000120: 4fca b43c b069 823c fb79 6b3d a933 66bd
00000130: 6f0a 993d 4123 233d dd86 2cbd 6c11 bebc
00000140: 49d5 bf3c 48ea 7abc 69c0 a73d a86d 363d
00000150: 789b 9abd 1694 71bc 1f9e b63d 432b d33c
00000160: 2a38 80bc d781 2dbd 8520 c639 6bea 6bbd
00000170: 94df d2ba f132 a93d 9d1b 6b3d cf73 343d
00000180: 7a1d c13d df59 333c 6672 8bbb 2125 48bd
00000190: 2e70 5abc 5719 bc3b 89cf 0ab9 137b 87bb
000001a0: 9905 a13d 4dad 393c 7098 9b3d 9ea4 78bc
000001b0: 232e c3bc 2f9c 6ebd 5f9d bebb 786e 03bd
000001c0: 9a2c 893d 430b 4b3d 9142 163d b1bf 84bc
000001d0: 4aa8 463d e279 b13b 1604 11bc f278 a43d
000001e0: f44a d6bc 0cad dbbb 22b5 1d3c 0f0d d3bc
000001f0: bbfe 17bd 75c6 fc3c 65c0 f4bc ead3 db3b
00000200: 27f0 f63c 8acf 9e3b 409b 2bbd 5a99 693d
00000210: d451 523c d664 9e3d 3d31 d5bc b546 bc3c
00000220: 1bf5 773c bb4e 3e3d cedb f5ba cf0b 1b3c
00000230: 4ca7 09bd 1559 943d 1c90 853d d397 793d
00000240: 6a2d 063c c137 a1bd 46ca a7bd b826 1a3d
00000250: f2a8 b63c 3549 29bd 8ecb e13c 12ca 9d3d
00000260: 6c9c 1f3d 4c82 b1bc 50f4 663d e1bc df3d
00000270: d971 e33a aea7 a03d d5dd 873d 1c7c e73b
00000280: 85df 26bb 8ef3 27bc 1240 f63c c50a 643d
00000290: e2fc a83c 0d11 d43a 3680 09bc 5fb5 153d
000002a0: cfbd 563c 6a90 ecbc 74b8 2b3d 3c46 8c3d
000002b0: eb54 7abd 84aa 973b 5b1e 783d df8f 4e3d
000002c0: 8924 053d bfe3 033c 94d8 623d 1139 ac3d
000002d0: f699 dabb 18f5 383d 0012 c63d 9f83 66bc
000002e0: a2ae 763d 460b 843d a355 07bd c07a 933d
000002f0: dbbb 503c 4a8a 31bc 7541 913d 3c9f 513d
00000300: 95a4 923d 710c 0b3d 4402 4e3c d549 ea3c
00000310: e6f5 3cbd 3abb 3e3d 978b 1e3d d383 d53b
00000320: 0bad 8fbd 3698 823d bc20 f73c 590b af3c
00000330: 77ca 17bd 52e9 d93c 63f4 c73d 03c4 313c
00000340: 51f1 a33d 3c03 9a3d 34f4 d93b c2e1 cabc
00000350: 9ab2 d5bb b0fd fa3c 4253 723c 822d 64bd
00000360: 3407 3d3d decf 36bc cc20 6e3d 77c6 533c
00000370: 11bb 1abd da68 8bbd 632f 903d 51a8 a33d
00000380: 0c9e cebc e5cd 5f3d a9b1 b9bd 1643 23bc
00000390: 6485 623d 1711 9e3d 34e4 74bb 99a5 863c
000003a0: c8ee 4cbd 5aa9 4d3c 1aff ca3d c542 b83d
000003b0: cb24 153b 9cd6 163c 1794 8d3d 6741 d23c
000003c0: ae8c 913b 421a a43d 1b18 423d 4dd3 ba3c
000003d0: dae7 103d ba82 d73c e8e6 d83c 6922 17be
000003e0: 0f63 89bd a1ff d8bc 42cd dbbc 339d 343d
000003f0: b489 de3c 122f 4a3d 09ee 283d 4d00 a3bc

fc1.bias f4 [120]
0.09295043 0.037179608 -0.0055608614 -0.031730223 -0.057178214 0.011215299 0.025179515 0.0077060596
0.03641738 0.04083685 -0.038783476 0.014774312 -0.04189302 -0.016091729 0.04236862 -0.0036575166
0.007681598 -0.0015625713 0.062299088 0.035304397 -0.06962127 -0.034317393 -0.0040569706 0.041622527
0.06401548 0.07240358 -0.04131437 0.018367302 0.02591596 -0.022810182 0.06355377 0.047366224
-0.021629516 0.0037071547 -0.013674451 -0.006505567 -0.039328523 0.015694784 0.027418062 0.02778988
0.022863025 0.038340546 0.056276254 0.08205457 0.006942965 -0.046608154 0.088516094 0.049211875
-0.027880965 -0.0012849831 0.039787278 -0.04800083 -0.05644605 -0.031828932 -0.05359251 0.00580977
0.031942494 -0.045793463 0.048697956 -0.010945211 0.01727973 0.051846284 -0.028460585 0.06608933
0.037042085 -0.03440153 -0.04872011 -0.03892494 0.069591485 -4.598997e-06 -0.05145622 0.0015274113
0.016060561 -0.044307105 -0.02406172 0.035132486 -0.011040749 0.005347534 0.062409893 0.033759285
0.0596021 -0.012067046 -0.058636084 0.042071227 0.06214902 0.042632528 -0.0059894808 -0.034245044
-0.009482768 0.067864425 0.021843385 0.056045666 0.011278459 0.057338033 -0.033906084 0.011784512
-0.046254985 0.067667186 0.06189439 -0.025440637 -0.0077697695 -0.028653976 0.029154956 0.08993747
-0.047509827 0.06790833 -0.03388847 -0.006878255 0.012294856 -0.037562758 0.009120795 0.08086498
0.02321302 0.050079413 -0.0106987385 -0.06573419 -0.017247407 0.014817935 -0.06676766 -0.00101544
00000000: cc5c be3d a549 183d e337 b6bb 8df7 01bd
00000010: b433 6abd 60c0 373c 4545 ce3c 1d83 fc3b
00000020: 642a 153d 8a44 273d 6cdb 1ebd f50f 723c
00000030: 0498 2bbd cdd2 83bc b88a 2d3d f2b2 6fbb
00000040: eab5 fb3b 31cf ccba 542d 7f3d 589b 103d
00000050: 9995 8ebd 6590 0cbd 56f0 84bb 627c 2a3d
00000060: 8c1a 833d 5448 943d 4239 29bd 0677 963c
00000070: b54d d43c 6bdc babc 7b28 823d 1603 423d
00000080: 6230 b1bc bcf3 723b ce0a 60bc a72c d5bb
00000090: f216 21bd 5992 803c d89b e03c 9aa7 e33c
000000a0: 3d4b bb3c fa0a 1d3d ee81 663d 3a0c a83d
000000b0: d081 e33b 31e8 3ebd ed47 b53d 6492 493d
000000c0: 9f66 e4bc e16c a8ba fcf7 223d 859c 44bd
000000d0: f933 67bd 0e5f 02bd d283 5bbd e25f be3b
000000e0: 22d6 023d ed91 3bbd 8277 473d 8b53 33bc
000000f0: 388e 8d3c c55c 543d 2c26 e9bc d859 873d
00000100: 71b9 173d 9ee8 0cbd bd8e 47bd c26f 1fbd
00000110: fb85 8e3d 1551 9ab6 c2c3 52bd 6b33 c83a
00000120: 7091 833c 5e7b 35bd 161d c5bc 15e7 0f3d
00000130: 42e4 34bc 5e3a af3b 84a1 7f3d 2d47 0a3d
00000140: 5521 743d dcb4 45bc 642c 70bd e152 2c3d
00000150: f98f 7e3d 729f 2e3d 6843 c4bb 8844 0cbd
00000160: 9d5d 1bbc 81fc 8a3d e6f0 b23c 2490 653d
00000170: 49c9 383c 49db 6a3d 1be1 0abd d313 413c
00000180: de75 3dbd 1895 8a3d f984 7d3d e268 d0bc
00000190: 8d99 febb bebb eabc 60d6 ee3c 2331 b83d
000001a0: aa99 42bd 8613 8b3d a3ce 0abd fc62 e1bb
000001b0: 5d70 493c 68db 19bd 636f 153c 8a9c a53d
000001c0: 3b29 be3c 1220 4d3d c349 2fbc a69f 86bd
000001d0: 6f4a 8dbc edc6 723c 7cbd 88bd 8318 85ba

fc2.weight f4 [84, 120]
0.03761441 0.03215879 -0.09453474 -0.0026323763 0.009882048 0.047224395 0.02285617 -0.011452875
0.084278084 0.02853564 0.08322718 0.013820311 0.015509922 0.010559623 0.0824417 -0.072572336
-0.027906355 0.07842969 0.011402728 -0.0946537 -0.019131258 -0.04242774 -0.11394718 0.07223769
-0.0459504 -0.03501765 -0.05460643 -0.09169902 -0.06056011 -0.08241256 0.03878999 -0.0015289302
-0.09290083 -0.05046088 0.0026616089 -0.09115168 0.11175145 -0.0674624 0.08939049 0.038467612
-0.015876817 0.028950779 0.0008356983 0.021576472 0.007928866 -0.09446767 -0.057112105 0.08341898
0.07058345 0.0004829359 0.11448456 0.11525277 -0.000301839 0.08216155 -0.030574806 0.056222707
-0.04650033 -0.08305503 -0.015309157 0.040233575 0.0042800475 0.07987673 -0.07917771 -0.048875615
0.07583046 -0.01734785 0.019179288 0.06472048 -0.064997666 0.006696236 -0.08095789 -0.06953215
0.035227224 -0.02459233 -0.0658114 0.0062970156 -0.0029796772 -0.008835236 0.051221393 -0.04764727
0.061401885 0.091980055 -0.022383215 0.103140056 0.04441733 -0.021536939 -0.0057651345 -0.016451845
-0.08135309 0.06272163 -0.05399667 -0.077817425 0.06302318 -0.07557682 -0.04211189 -0.00015952461
-0.006371133 -0.03541474 0.08808968 -0.013314803 -0.11271889 0.010885129 -0.08339821 0.070265606
0.024509449 0.071749605 0.015386601 -0.11637273 0.066442356 -1.535404e-05 -0.03624119 0.011417926
0.1006239 -0.10162537 -0.013784029 0.037686076 0.04651469 0.11047283 -0.08797512 -0.07168289
-0.06481413 -0.07776869 -0.08776724 -0.035891596 0.028471721 0.00014486932 0.09090316 -0.0043057106
0.043673094 -0.08784142 -0.021373095 0.009879617 -0.04561252 0.0027624194 -0.016786998 -0.092842534
0.08750484 0.06662446 -0.048458856 -0.069691315 -0.00033408217 0.0705882 -0.032631196 0.06005231
-0.029948577 0.02537275 -0.027587045 -0.06409802 -0.009567158 -0.022221021 0.052968975 0.09032248
0.08121915 -0.03737191 -0.012230859 0.007785453 -0.0009815418 0.08143403 -0.033159826 0.11273051
0.08445654 0.05255339 -0.04449062 -0.02449354 0.006587961 0.019442122 0.069205016 0.019300168
0.0437574 0.057847675 -0.036744 -0.021081487 0.028299361 0.08842632 0.03637103 0.08607857
0.012006831 0.03746736 -0.057333842 -0.07570175 -0.072313115 -0.08732006 0.0577038 0.047062665
0.03703311 0.011637028 -0.039998 -0.068259865 -0.04381325 0.008347844 0.049176082 0.046670873
0.06849723 -0.019468559 0.080456965 -0.01319413 -0.044167656 -0.019989511 0.0385128 0.067648485
-0.094938956 0.075762644 -0.007817869 -0.00031488523 0.08008963 0.039783172 0.09324501 0.050663125
-0.07836811 0.03945959 -0.09392933 -0.065743454 -0.0031976202 -0.07319404 0.09674014 0.06721528
-0.027647493 0.022964315 -0.08119976 0.06654884 -0.044522434 -0.015014016 0.056326658 0.046915054
0.10094836 0.011370937 0.003210896 0.05856233 -0.034427468 0.047192756 -0.033185314 -0.029860916
0.011659491 0.03640891 -0.06632205 0.089346394 0.09963442 -0.07008398 -0.033144686 -0.04506407
0.05135638 0.029188637 0.036735985 -0.0149317095 0.061420422 -0.07736679 -0.020693345 -0.02343244
0.043469295 0.018518455 -0.01589335 0.12595294 0.07118831 0.023173416 -0.023772618 0.01279447
00000000: 9111 1a3d efb8 033d 6e9b c1bd f283 2cbb
00000010: 50e8 213c 5e6e 413d dd3c bb3c d7a4 3bbc
00000020: fd99 ac3d 93c3 e93c 0373 aa3d 966e 623c
00000030: 541d 7e3c 4502 2d3c 32d7 a83d cea0 94bd
00000040: de9b e4bc bf9f a03d 82d2 3a3c cdd9 c1bd
00000050: 28b9 9cbc b6c8 2dbd 245d e9bd 5bf1 933d
00000060: 7d36 3cbd ab6e 0fbd feaa 5fbd b2cc bbbd
00000070: e10d 78bd ebc7 a8bd 41e2 1e3d 6266 c8ba
00000080: ca42 bebd 11b0 4ebd 636e 2e3b bbad babd
00000090: f2dd e43d ba29 8abd 5c12 b73d 3790 1d3d
000000a0: 1910 82bc 2f2a ed3c c312 5b3a 24c1 b03c
000000b0: 13e8 013c 4478 c1bd 62ee 69bd 92d7 aa3d
000000c0: 0e8e 903d 8f32 fd39 e276 ea3d a509 ec3d
000000d0: 2540 9eb9 5144 a83d 0478 fabc c849 663d
000000e0: 2177 3ebd c118 aabd 42d3 7abc f6cb 243d
000000f0: a43f 8c3b 6996 a33d ec27 a2bd cc31 48bd
00000100: 004d 9b3d 141d 8ebc e21d 9d3c 2c8c 843d
00000110: 7f1d 85bd 196c db3b 40cd a5bd df66 8ebd
00000120: 6c4a 103d db75 c9bc 21c8 86bd 3257 ce3b
00000130: b046 43bb aac1 10bc 86cd 513d c929 43bd
00000140: 8b80 7b3d 0a60 bc3d 015d b7bc 183b d33d
00000150: f2ee 353d 3c6e b0bc 74e9 bcbb 05c6 86bc
00000160: 739c a6bd 3374 803d 9d2b 5dbd be5e 9fbd
00000170: 4c12 813d 05c8 9abd 847d 2cbd 1046 27b9
00000180: f0c4 d0bb 0c0f 11bd 5d68 b43d 5526 5abc
00000190: 29d9 e6bd 8a57 323c aecc aabd 6ae7 8f3d
000001a0: 0ac8 c83c 75f1 923d 1518 7c3c d354 eebd
000001b0: ee12 883d 8dcc 80b7 a471 14bd 4112 3b3c
000001c0: e713 ce3d f620 d0bd 68d6 61bc b75c 1a3d
000001d0: 3086 3e3d 943f e23d 4d2c b4bd 7bce 92bd
000001e0: 45bd 84bd 3145 9fbd 50bf b3bd 1103 13bd
000001f0: 873d e93c 10e8 1739 702b ba3d eb16 8dbb
00000200: 8fe2 323d 34e6 b3bd a116 afbc 1ede 213c
00000210: 32d4 3abd b509 353b e384 89bc 3a24 bebd
00000220: bd35 b33d 6872 883d cb7c 46bd 52ba 8ebd
00000230: c027 afb9 8c90 903d 4aa8 05bd 69f9 753d
00000240: b856 f5bc 83da cf3c 3afe e1bc d345 83bd
00000250: 92bf 1cbc dc08 b6bc fff5 583d fefa b83d
00000260: 3a56 a63d 4a13 19bd f163 48bc 1d1d ff3b
00000270: 14a7 80ba e2c6 a63d 99d2 07bd 41df e63d
00000280: 8df7 ac3d 3942 573d cc3b 36bd ada6 c8bc
00000290: d3df d73b 1645 9f3c 5cbb 8d3d 631b 9e3c
000002a0: f63a 333d aff1 6c3d e080 16bd 15b3 acbc
000002b0: 10d4 e73c dc18 b53d caf9 143d f649 b03d
000002c0: 4db8 443c 6077 193d e4d6 6abd 8509 9bbd
000002d0: e618 94bd dcd4 b2bd d25a 6c3d c8c4 403d
000002e0: 08b0 173d 3ca9 3e3c f1d4 23bd d4cb 8bbd
000002f0: 8675 33bd 65c5 083c dc6c 493d f529 3f3d
00000300: 4748 8c3d 877c 9fbc 9fc6 a43d 312c 58bc
00000310: 25e9 34bd 0bc1 a3bc 99bf 1d3d 4a8b 8a3d
00000320: 5b6f c2bd 7229 9b3d 8516 00bc 2e17 a5b9
00000330: 0806 a43d aef3 223d 3df7 be3d 2384 4f3d
00000340: 767f a0bd 61a0 213d 055e c0bd 81a4 86bd
00000350: 2a8f 51bb c2e6 95bd b21f c63d 2aa8 893d
00000360: ff7c e2bc a91f bc3c 0f4c a6bd c24a 883d
00000370: 285d 36bd 59fd 75bc c8b6 663d 002a 403d
00000380: 04be ce3d 2b4d 3a3c e56d 523b 0edf 6f3d
00000390: d103 0dbd 314d 413d 53ed 07bd e19e f4bc
000003a0: 7307 3f3c 8221 153d dbd3 87bd 3efb b63d
000003b0: 210d cc3d 3188 8fbd b9c2 07bd 1a95 38bd
000003c0: 115b 523d 021d ef3c 7978 163d 21a4 74bc
000003d0: fb93 7b3d 7b72 9ebd 1785 a9bc 63f5 bfbc
000003e0: dc0c 323d 04b4 973c c532 82bc cff9 003e
000003f0: 2dcb 913d 2dd6 bd3c cbbe c2bc e69f 513c

fc2.bias f4 [84]
0.029609324 -0.064523466 0.071545735 0.043496445 -0.019592067 0.024700612 -0.04680248 0.06204956
0.0071224985 0.0360827 -0.022107836 -0.062832475 0.08939074 0.0016128196 -0.01920549 -0.0801499
0.10191635 -0.049587846 0.07870187 -0.029679185 -0.080993555 -0.035281673 0.038699057 0.100024946
0.03480205 0.07159465 0.04440054 -0.08213839 -0.03901775 -0.032229237 0.054476194 -0.005828895
-0.00035787025 0.04559517 -0.057301912 0.020535091 -0.04094287 0.11570728 -0.010377692 -0.0013370116
0.049493056 -0.049776074 0.0010260006 -3.4616925e-05 -0.047242783 0.08957356 0.029067433 -0.025304278
0.03990891 -0.011547939 0.016843662 0.05058821 -0.0718188 0.03582896 -0.0245414 0.098782696
-0.07769412 0.0057806433 0.04229034 0.06178276 0.056180622 -0.073102124 0.047567505 0.08732657
0.04889544 0.06739943 -0.033562366 0.08157987 -0.04196321 -0.0028400675 0.05216944 -0.057776995
0.10202163 0.00025673956 0.03051162 -0.05046761 0.047401458 -0.027144797 -0.006586731 0.094535545
-0.06722036 -0.060030114 -0.076511726 -0.009267335
00000000: 418f f23c e124 84bd 9286 923d 5429 323d
00000010: 8b7f a0bc f058 ca3c f5b3 3fbd ae27 7e3d
00000020: d963 e93b 74cb 133d 7e1b b5bc 50ae 80bd
00000030: 7e12 b73d 3f65 d33a d554 9dbc a125 a4bd
00000040: 85b9 d03d a01c 4bbd 722e a13d c321 f3bc
00000050: f3df a5bd 8483 10bd e782 1e3d e1d9 cc3d
00000060: 988c 0e3d 37a0 923d 57dd 353d 2c38 a8bd
00000070: 14d1 1fbd ce02 04bd 6e22 5f3d 5100 bfbb
00000080: 88a0 bbb9 00c2 3a3d 69b5 6abd 3539 a83c
00000090: b6b3 27bd f0f7 ec3d 3207 2abc aa3e afba
000000a0: 3bb9 4a3d ffe1 4bbd de7a 863a a431 11b8
000000b0: a681 41bd 5872 b73d d31e ee3c eb4a cfbc
000000c0: 8677 233d 9133 3dbc b8fb 893c 9535 4f3d
000000d0: bc15 93bd 63c1 123d 0c0b c9bc 954e ca3d
000000e0: 181e 9fbd 8d6b bd3b a338 2d3d eb0f 7d3d
000000f0: a71d 663d 91b6 95bd 25d6 423d 46d8 b23d
00000100: 9646 483d b608 8a3d b178 09bd 5913 a73d
00000110: 9de1 2bbd 6d20 3abb 9faf 553d 92a7 6cbd
00000120: b7f0 d03d 009b 8639 81f3 f93c 20b7 4ebd
00000130: 0828 423d c45e debc 81d5 d7bb da9b c13d
00000140: d4aa 89bd 23e2 75bd 2eb2 9cbd 05d6 17bc

fc3.weight f4 [10, 84]
0.097673774 -0.06669776 -0.082101665 0.05209397 0.03100576 -0.10989569 0.08573702 0.008011659
-0.081166364 -0.021999054 -0.1176938 -0.009915905 0.048111368 -0.06019364 0.04063814 -0.12445926
-0.06458519 0.041411273 -0.13896342 0.014545328 0.055388063 -0.085858725 0.0802827 -0.08957569
-0.09655852 -0.09514448 -0.08047772 -0.31352305 0.08392714 -0.1407689 -0.012340454 -0.14173184
-0.14658698 0.031337194 0.09445067 0.015898172 0.025757518 -0.08396902 -0.08823241 -0.0454445
-0.026856149 -0.083888814 -0.12497678 -0.02112986 -0.03553857 -0.05337907 -0.11723046 -0.0046544927
-0.12319746 -0.07626241 -0.009108668 -0.06444935 -0.055087 -0.0025298814 -0.10844228 -0.13195506
-0.10006164 -0.17985721 0.036560025 -0.08802457 0.01709737 -0.09111138 -0.019303491 -0.009157777
-0.008609159 -0.15183486 -0.0060575306 -0.024971511 0.08502743 0.026786491 -0.012084686 0.06864819
0.04654323 -0.07027095 -0.04352117 0.07466934 -0.06245915 -0.03093962 -0.09911981 0.087687604
-0.012051367 0.0664232 -0.022348128 0.005006541 -0.013394106 0.050221626 -0.061491936 -0.1568603
-0.051516548 -0.092609674 -0.114744045 -0.06618061 7.896624e-05 0.021733861 -0.020916209 -0.089142576
-0.054572765 -0.05312213 -0.1194899 -0.117495075 0.05477365 -0.016641218 -0.13082474 -0.1514781
-0.068787664 -0.055683356 0.062335696 -0.041310992 0.056816656 0.06638777 0.018816978 -0.12354876
0.05084756 -0.21662854 -0.12992471 -0.068482414 -0.043474052 -0.106194995 0.015643997 -0.11614697
-0.13648914 -0.1549061 0.015921738 -0.1403788 -0.07659886 -0.05544639 -0.10419544 -0.020616746
-0.0049481965 -0.07810279 -0.10988585 -0.09381924 -0.0495127 -0.14560935 0.040870465 -0.047224432
-0.056192636 0.021270968 -0.08222056 0.009500611 -0.09292634 -0.14042768 -0.077712774 0.0019311197
-0.06490683 0.07485002 -0.043779213 -0.18863425 -0.104543395 0.07773791 -0.03228508 -0.10437013
-0.03216206 -0.012809414 -0.11424341 -0.12532717 -0.14136367 -0.22237237 -0.07264524 -0.08761276
-0.05527552 0.023176013 0.016832348 -0.14740542 -0.14029914 0.010860957 0.08767164 -0.13519268
0.055960715 0.01501066 0.03987385 -0.14136535 -0.12794127 -0.10961183 0.03905434 -0.13141327
-0.14800937 -0.08230858 -0.085974105 -0.06274513 -0.07728 -0.14732362 -0.15855654 -0.07547876
0.02321491 0.041846715 -0.015691755 -0.100779295 -0.042509038 -0.22710332 0.008709811 0.020040233
-0.008058867 -0.109011106 -0.079526566 -0.33401504 -0.042658344 -0.042160213 0.032125387 -0.16057478
0.013527222 0.059189726 -0.041916944 -0.031132048 -0.11538213 0.06069349 0.047999576 -0.009092219
-0.12868908 0.05439278 0.04205431 0.07176443 0.06972107 -0.06375743 -0.037604522 -0.15925537
-0.014759922 -0.07385327 0.01849053 -0.22861698 -0.0916037 -0.07131328 -0.0034716763 -0.11103836
-0.007490594 -0.04784766 -0.12920146 -0.021345025 -0.032207463 0.06467861 -0.15949236 -0.09308682
0.04103741 0.05491209 0.0037973374 -0.14605632 -0.0032596 -0.044123836 -0.10332636 0.0028318646
-0.11950102 -0.1871119 0.011768424 -0.09095477 0.014919174 -0.0009684519 -0.008505462 -0.0051233554
-0.06788676 0.02748003 -0.08746874 -0.047104713 -0.104766645 0.021894569 0.05757927 -0.08966239
00000000: 3009 c83d d698 88bd eb24 a8bd 7d60 553d
00000010: cbff fd3c fe10 e1bd e496 af3d 5543 033c
00000020: 8d3a a6bd 5c37 b4bc 7209 f1bd 5276 22bc
00000030: 6d10 453d 9b8d 76bd 2e74 263d 7fe4 febd
00000040: 3d45 84bd de9e 293d 6d4c 0ebe 874f 6e3c
00000050: 98de 623d b3d6 afbd 426b a43d 7673 b7bd
00000060: 79c0 c5bd 1cdb c2bd 81d1 a4bd 1886 a0be
00000070: fee1 ab3d b925 10be 9e2f 4abc 2722 11be
00000080: e61a 16be 6e5b 003d 5a6f c13d e23c 823c
00000090: 6e01 d33c f3f7 abbd 32b3 b4bd 0324 3abd
000000a0: 6d01 dcbc e6cd abbd d3f3 ffbd 8718 adbc
000000b0: e490 11bd 03a4 5abd 8616 f0bd b784 98bb
000000c0: f34e fcbd 772f 9cbd 863c 15bc 05fe 83bd
000000d0: e8a2 61bd 5ecc 25bb fc16 debd 3a1f 07be
000000e0: 1eed ccbd 7d2c 38be f7bf 153d 3a46 b4bd
000000f0: c90f 8c3c 9a98 babd 5b22 9ebc 800a 16bc
00000100: 6e0d 0dbc 997a 1bbe 407e c6bb 0e91 ccbc
00000110: dc22 ae3d 586f db3c d9fe 45bc 6c97 8c3d
00000120: 1da4 3e3d 37ea 8fbd 4143 32bd 3dec 983d
00000130: 2ad5 7fbd 1675 fdbc 54ff cabd 8f95 b33d
00000140: 1973 45bc e308 883d 6c13 b7bc e90d a43b
00000150: f472 5bbc 31b5 4d3d f8de 7bbd fd9f 20be
00000160: 0403 53bd 24aa bdbd edfe eabd b389 87bd
00000170: ad9a a538 360b b23c 7858 abbc 6290 b6bd
00000180: b187 5fbd 9796 59bd 1fb7 f4bd 42a1 f0bd
00000190: 565a 603d 2a53 88bc ecf6 05be 131d 1bbe
000001a0: 8ce0 8cbd 3b14 64bd b753 7f3d b735 29bd
000001b0: 95b8 683d 50f6 873d 1026 9a3c 2207 fdbd
000001c0: 8845 503d dfd3 5dbe fc0a 05be 8240 8cbd
000001d0: d911 32bd c37c d9bd d727 803c 76de edbd
000001e0: cfc3 0bbe b49f 1ebe 4e6e 823c 76bf 0fbe
000001f0: dddf 9cbd c11b 63bd 6b64 d5bd 73e4 a8bc
00000200: 7b24 a2bb 5bf4 9fbd d50b e1bd 4d24 c0bd
00000210: d4cd 4abd 9e1a 15be ca67 273d 686e 41bd
00000220: 402a 66bd 7440 ae3c 4163 a8bd 73a8 1b3c
00000230: 2a50 bebd 46cc 0fbe e027 9fbd a01d fd3a
00000240: dfed 84bd f84a 993d d551 33bd 5629 41be
00000250: d91a d6bd 0e35 9f3d 5c3d 04bd 02c0 d5bd
00000260: 5dbc 03bd 94de 51bc 73f8 e9bd c455 00be
00000270: a3c1 10be 95b5 63be 07c7 94bd 526e b3bd
00000280: 9568 62bd 9fdb bd3c fee3 893c 72f1 16be
00000290: 94aa 0fbe 28f2 313c 308d b33d f36f 0abe
000002a0: 1037 653d 45ef 753c c352 233d 14c2 10be
000002b0: 0903 03be 2b7c e0bd 72f7 1f3d 3391 06be
000002c0: c58f 17be 6791 a8bd 3113 b0bd 8580 80bd
000002d0: fa44 9ebd 01dc 16be a55c 22be 9c94 9abd
000002e0: 322d be3c 7667 2b3d ff8b 80bc 6065 cebd
000002f0: f51d 2ebd c68d 68be 98b3 0e3c 6a2b a43c
00000300: 5709 04bc 3741 dfbd d3de a2bd 0504 abbe
00000310: 84ba 2ebd 30b0 2cbd e995 033d b76d 24be
00000320: 48a1 5d3c ed70 723d 1ab1 2bbd a308 ffbc
00000330: 774d ecbd bd99 783d 349b 443d 88f7 14bc
00000340: 12c7 03be f7ca 5e3d 2441 2c3d 3bf9 923d
00000350: ecc9 8e3d 4193 82bd 3307 1abd d713 23be
00000360: 9ad3 71bc 6240 97bd 7479 973c 921a 6abe
00000370: b89a bbbd b20c 92bd 1085 63bb 1468 e3bd
00000380: a873 f5bb e8fb 43bd 634d 04be c3db aebc
00000390: f9eb 03bd 3876 843d f751 23be 4da4 bebd
000003a0: d816 283d 80eb 603d c0dc 783b ca8f 15be
000003b0: 039f 55bb 32bb 34bd c59c d3bd ce96 393b
000003c0: f3bc f4bd 439a 3fbe 59d0 403c 7f46 babd
000003d0: 8d6f 743c b5df 7dba 7e5a 0bbc d2e1 a7bb
000003e0: 3708 8bbd cd1d e13c d022 b3bd dff0 40bd
000003f0: e58f d6bd 3d5c b33c 3ed8 6b3d eaa0 b7bd

fc3.bias f4 [10]
-0.1143336 0.06535272 -0.12561111 -0.07030634 0.0038494242 -0.049284864 0.044130746 0.056686923
-0.089845225 -0.04069851
00000000: bc27 eabd a6d7 853d 33a0 00be c5fc 8fbd
00000010: 9f46 7c3b edde 49bd 71c2 343d 8c30 683d
00000020: c600 b8bd 7bb3 26bd
