models/client-4-3.pth (torch, 239842 bytes, 12 tensors)

conv1.weight f4 [6, 1, 5, 5]
00000000: c5fc aabe 01ed 0dbe d7bc b93d 2ed5 503e
00000010: 91d0 973e 133b 9ebe 1f3e 8dbe e4ed 08bd
00000020: 08c6 8c3e 19f9 a53e d348 48be 02b6 b2bd
00000030: 49b0 8e3e 3648 8f3e dfd7 953e 35af 3cbe
00000040: b621 853d 8543 993b 76e4 0d3e d050 9e3d
00000050: c06d 22bd d49d 263e d60f 323e 1e31 463b
00000060: b116 2f3e 7355 a63e b239 543c eaa9 983e
00000070: 425a 263e 9552 193e b944 263d b9a6 be3e
00000080: 88ee 1a3e 8d15 883e 5b5c 8c3e b595 d23d
00000090: 7776 ba3d c48e 2b3e bf91 77bd 384a 2d3d
000000a0: 5070 a9be 3bd6 06be 05ee 66be f799 fa3c
000000b0: a1a9 a93d 6e08 e4be ca96 fabe 7ece b8be
000000c0: 764b b1be 236c 45be c6b5 3abe e2de 4cbe
000000d0: c398 5fbe 34d4 623e 6399 3f3d 9cc0 963d
000000e0: 6405 f8bd acb6 2a3e 9fcd 803d e23e f93c
000000f0: 44ef ce3d aee1 443e 4e9b dc3e 9408 d83e
00000100: 4bb6 2f3e f5f8 b0bc 0cf0 a53e 90d4 d23e
00000110: 497a 243e 96b5 2ebd b863 033e 0270 5ebd
00000120: aaa5 e4bd f7bc c23d 3ea8 2bbe 1f6a 5abe
00000130: 246d 9fbe 42b3 aabd 3667 c83d c5a6 aabd
00000140: 482e 7dbe 30ed 6abe 5778 013d f000 353e
00000150: 38a6 01be be9f ed3d fc71 0c3e c722 843e
00000160: d55b 7f3e 7a88 45be 761c 9a3e 8d58 5a3d
00000170: 9789 243e d3e9 b43e 35b7 843e 704d a73e
00000180: e59c 873e 7301 443e bf7c 9f3e 2f14 933e
00000190: b581 863e fd72 613d 4b14 37be d352 87be
000001a0: 367b d1bd 9665 8d3e 2000 893c 453b 873d
000001b0: 0cb8 a4bc 53b6 173d e81f 613e fd24 3a3e
000001c0: 7ff1 aa3e d769 a03d 6876 553e 410d 833c
000001d0: 17cc 1abd fb9f af3e 0252 c039 a41e 95bd
000001e0: fd2a 64be 21b6 573e b8e2 823e 4a0f 453e
000001f0: bb9c 7fbd 9b30 893d 28f4 febc d307 9cbd
00000200: 1c7e c93c 9162 993b d33c 163e c9d2 4f3e
00000210: 4c8e 5f3d eb14 6c3d fa3c a3be 5243 fc3d
00000220: 52f1 de3d 8185 043e 90dd d7bd 184e aebe
00000230: bf8d 5bbd b04e 9d3e 1ed2 7abb e3eb bfbc
00000240: 350b 02bd 77bb 563d 7c20 883e 4db2 ce3b
00000250: 26ce e43d 7868 023e
-0.33395973 -0.13859941 0.090692215 0.20393822 0.2965131 -0.30904445 -0.27586457 -0.033429995
0.27494836 0.3241661 -0.1955903 -0.087261215 0.2786887 0.2798478 0.2926626 -0.18426211
0.065005705 0.0046772384 0.13856682 0.077302575 -0.039655447 0.16271144 0.17388853 0.0030241678
0.170985 0.32487068 0.012953209 0.29817134 0.16245368 0.14972909 0.040592883 0.37236574
0.15130055 0.26578942 0.27414212 0.102824606 0.091046266 0.1675368 -0.06044173 0.04230711
-0.330935 -0.1316766 -0.22551735 0.030590994 0.08284307 -0.4453768 -0.48943168 -0.3609504
-0.34627885 -0.19279532 -0.18233404 -0.20006898 -0.21835618 0.22151262 0.04677714 0.07360956
-0.12110403 0.16671246 0.06289219 0.030425493 0.1010423 0.19226715 0.43087238 0.42194045
0.17159383 -0.021603087 0.32409704 0.41177797 0.16062273 -0.042653643 0.12831008 -0.054306038
-0.111644104 0.095086984 -0.16763398 -0.21329544 -0.31137955 -0.08334972 0.09785311 -0.0833259
-0.24724686 -0.22942042 0.031608906 0.17676139 -0.12661064 0.11602734 0.13715357 0.25807783
0.24937375 -0.19290343 0.3009984 0.053307105 0.16068111 0.35334644 0.25921026 0.32676268
0.2648689 0.19141178 0.3114986 0.28726336 0.26270834 0.055041302 -0.17878835 -0.26430377
-0.10228579 0.27616566 0.016723692 0.06603102 -0.020107292 0.037039112 0.21984828 0.18178172
0.33387372 0.07832687 0.2084595 0.01599753 -0.03779229 0.34301743 0.00036682194 -0.07281235
-0.22282024 0.2106557 0.25563598 0.19244114 -0.06240533 0.06698724 -0.031122282 -0.0761868
0.024596266 0.0046809395 0.1467164 0.20295252 0.054579064 0.057637136 -0.3188246 0.12317528
0.10885872 0.12941553 -0.105403066 -0.34043956 -0.053601976 0.30724096 -0.0038272212 -0.02342791
-0.03174897 0.052424874 0.26587284 0.006307876 0.11172132 0.12735164

conv1.bias f4 [6]
00000000: 5a4a 16be 3aff c23d 9a52 c9bb f13e 853b
00000010: db6b 1ebd 7545 07bc
-0.146768 0.09521337 -0.00614388 0.004066341 -0.038677078 -0.008256306

conv2.weight f4 [16, 6, 5, 5]
00000000: ea4a b0bb 7522 873d 50b0 bdbc dc2b 88bd
00000010: 72ed 76bc 4d97 37bd 2512 9a3c 5921 b83d
00000020: c7ee 593d a4b4 02be 2333 f4bd 97ef 2dbd
00000030: bea3 45bd 204d 9bbb 3ce5 20bd 5d16 14bd
00000040: 46f0 e2bd b004 aa3c 9c31 cd3d cbc4 e73d
00000050: 04f7 513d 726e dc3d a888 18bd eb3e 893d
00000060: 0b7d 8fbd a83d 83bc 2a47 ab3d ba54 9dbd
00000070: 69be d03c 1913 fcbd 8fce c0bc b3ad d53d
00000080: 940e 223e f3d5 013e 8345 143e 2d4a b63c
00000090: 6af9 103e da94 c63d d998 553d 0775 ae3b
000000a0: beb3 b5bc a384 d3bd 7d5e 7abe 9af7 00be
000000b0: c4c2 b0bd 3ba2 17be 2e00 09bd cea8 06be
000000c0: f880 7abc f2f0 803b cc33 48bd 4447 18bd
000000d0: 162f bebc 8169 023c 4aff 4d3d 8136 98bd
000000e0: ab13 89bd 72d0 903d 1306 41bd 0a13 f9bc
000000f0: 8ef8 44be 8c06 1cbe dadf cebd ca6c 75bd
00000100: ea41 aebd 2b4b eb3a 4a14 87bd a516 54bd
00000110: 75c4 f93c 8b75 103b ba60 8abc c160 fe3d
00000120: 88c6 b93d c9f5 113d 8383 ddbc 0a01 06bd
00000130: 3d15 67bd 01ac 093e 5ba6 073e 527f c5ba
00000140: 9920 84bd a985 f7bd 9ef5 213d 1a70 48bd
00000150: 00ef f53c 1298 38be 1423 0dbe 8389 44be
00000160: 7e3d f8bd cf81 8bbd b443 593d 82ff cfbc
00000170: f811 a03b 6c40 dd3d 3929 a73d c317 d63d
00000180: 64d7 503d 1d52 ef3d 875b e53c d52c f3bc
00000190: d9d9 0cbe a0c1 173d 00a0 733d 72e9 723d
000001a0: 0a94 033e e557 ebbd cabc a7bb b7e5 813c
000001b0: 3801 be3c 6cc1 f13d 8aed 32be 97e4 70be
000001c0: 9c7a 62bd 5b22 db3c 3442 b0ba 74bf b8bd
000001d0: 6bd8 ffbd 83c3 a1bb c6d4 80bd 7924 8f3c
000001e0: 1803 1c3d d25c 6b3d ed54 703d 7f0b 03bd
000001f0: 186e c8bd b9be 0cbe ef0c 52bc 5448 b53d
00000200: 3803 f93d ab7a 513c c016 b0bd 4a11 18be
00000210: 58d8 a4bd b879 d9bc 231a 8c3d 403d 68be
00000220: f62e ccbd a18a 0cbe 9e85 1cbe 0e21 b23a
00000230: b202 02be dbf3 a6bd bffe efbd 7dca 56bd
00000240: 4b32 163d bde0 a23c 0d7d bbbc 0db9 63bd
00000250: f709 00bd dd37 053d 298e dbbc ccb7 05bd
00000260: 486c bdbd e0b3 e3bd c01e d0bd e29e a8bc
00000270: 38b7 b4bd cbc3 133d 7fd9 46bd 209b a5bd
00000280: 028f cbbc 445f 39bd dce7 84bd c97c b9bd
00000290: e4da e03b a1d5 b0bd 34cc 25be 8e1c cfbb
000002a0: d1c2 e13b 6a5b 833d e564 27bd 32ce b33a
000002b0: 5167 80bd 2af7 b43b a274 713d 2699 a53d
000002c0: e9e2 44bc dd97 92bd 6a91 c1bd b811 35be
000002d0: e905 6f3d ef2b 0f3e 6cfb ad3d e65b 263e
000002e0: d3a1 d63c a9cf 333e 6b2b 993e 0f3e 923e
000002f0: e336 8a3e 7ed3 4a3e deb9 26be fe23 843d
00000300: 9eeb 1dbd 0b70 703d 76da 3d3c b413 bcbd
00000310: fa72 3cbe 15e5 42be 7669 9bbd d995 debd
00000320: 4726 ef3b 7b09 81bd 7f89 973b aa24 bebd
00000330: 7d85 cbbd 1275 bbbc c6ef eb3d 1b5d be3d
00000340: 5977 c93d 21c2 133e 81ab 94bc 7300 21bd
00000350: 873b 79bd b745 a1bb 7f6f 98ba f538 b2bd
00000360: 2d07 22be 8d3a 20be 110a bb3c 79f4 20bb
00000370: 2190 0c3e b3f5 b33d 4416 323d 3598 6fbc
00000380: c19e 09bd f7a8 03bd c74b 903d 06c2 c93d
00000390: cbc9 633d 1fad e5bc 7559 8fbd 2e67 ac3d
000003a0: 070d 2b3c 9581 123e 428d 013e e542 eabd
000003b0: f191 89bd b300 f3bd 1fbc bdbd f36d 8f3d
000003c0: df96 b03d 5788 653d e4c9 c8bd d0fd a4bd
000003d0: 6b20 9ebd 1b6f 843d 3803 f53d 43c5 fb3c
000003e0: 39bd 033d 3723 c63c 88f2 00bc c12d 27bd
000003f0: b712 153b 64e6 c93c 2f1e 0a3c 7075 5a3d
-0.005380024 0.06598369 -0.023155361 -0.066489905 -0.01507126 -0.044822026 0.01880748 0.089907356
0.05320623 -0.12764221 -0.11923816 -0.04246482 -0.04825186 -0.0047394186 -0.039281115 -0.03615414
-0.11080985 0.020754188 0.10019228 0.11316832 0.051260963 0.10763253 -0.0372397 0.06701454
-0.07006272 -0.01602061 0.08363183 -0.07682176 0.02548142 -0.1230833 -0.023535995 0.10433521
0.15825874 0.12679271 0.14479642 0.022252167 0.14157644 0.0969636 0.05214772 0.0053240093
-0.022180434 -0.10328033 -0.24450107 -0.12594453 -0.086308986 -0.1480798 -0.033447437 -0.13150331
-0.015289538 0.003934973 -0.048877522 -0.03717734 -0.023215812 0.007959724 0.05029229 -0.07432271
-0.066932045 0.07071008 -0.047124933 -0.030404586 -0.19235441 -0.15236872 -0.1010129 -0.059918202
-0.08508666 0.0017951479 -0.06595667 -0.051779408 0.030489186 0.0022042717 -0.016891826 0.12420798
0.0907107 0.03563479 -0.027040249 -0.032715835 -0.05641674 0.1344452 0.13247053 -0.0015067852
-0.0645153 -0.120860405 0.03954088 -0.048935033 0.03002119 -0.1802676 -0.13782912 -0.19193082
-0.12121104 -0.068118684 0.053043082 -0.02539039 0.0048849545 0.10803303 0.081621595 0.10453751
0.050986663 0.11685584 0.027997745 -0.029684464 -0.13754977 0.03704989 0.05947876 0.059304662
0.12849441 -0.11491374 -0.005118941 0.015856607 0.02319394 0.118044704 -0.17473426 -0.235247
-0.05529271 0.02674978 -0.0013447464 -0.09020892 -0.1249245 -0.004936637 -0.06290583 0.017473446
0.038088888 0.057461567 0.05867474 -0.031993385 -0.09786624 -0.1374463 -0.012820466 0.08851686
0.12158817 0.012785594 -0.08598089 -0.14850345 -0.08049077 -0.026547298 0.06840923 -0.22679615
-0.099698946 -0.13724758 -0.15285346 0.0013590173 -0.1269634 -0.081519805 -0.11718511 -0.0524392
0.036669057 0.019882554 -0.022886777 -0.0555964 -0.031259503 0.03252398 -0.026801186 -0.032645985
-0.09249169 -0.11118293 -0.10162115 -0.020583574 -0.08824009 0.036075395 -0.048547264 -0.08086228
-0.024848465 -0.045256868 -0.06489536 -0.09057004 0.0068620313 -0.086344965 -0.16191179 -0.0063205427
0.006889679 0.0641392 -0.040867705 0.0013718067 -0.06269706 0.0055226283 0.05894912 0.08085851
-0.01201699 -0.07157872 -0.09451564 -0.1768254 0.058355246 0.13981603 0.084952205 0.16245994
0.02620021 0.17559685 0.29915938 0.28562972 0.26995 0.1980724 -0.1628184 0.064521775
-0.03855478 0.058700603 0.01158773 -0.091834456 -0.18403235 -0.190327 -0.075884745 -0.10868425
0.007298264 -0.063006364 0.004624545 -0.09284337 -0.0993757 -0.022882972 0.115203425 0.09295102
0.09837217 0.14429523 -0.018148186 -0.03930707 -0.060847785 -0.0049216407 -0.0011629908 -0.0870227
-0.1582305 -0.15647335 0.022831948 -0.002455978 0.13726856 0.08787098 0.043478265 -0.014623691
-0.033598665 -0.03214356 0.070457034 0.0985146 0.055612367 -0.028036652 -0.069994844 0.084181175
0.010440118 0.14307244 0.12651542 -0.1143854 -0.06717289 -0.11865368 -0.09264397 0.07003393
0.086225264 0.056038227 -0.098041326 -0.080562234 -0.07721027 0.06466504 0.119635046 0.03073371
0.03216288 0.024186714 -0.007870324 -0.04081512 0.002274675 0.024645992 0.008430048 0.053334653

conv2.bias f4 [16]
00000000: de55 4ebd 9e20 b1bd 646e 31bd 06c7 fd3c
00000010: 231f d8bd 3f66 b63d 14ed 753c d6b1 ddbd
00000020: be33 273a d789 3fbd 390b 22bd 7a57 89bd
00000030: bbf1 903d 5f78 52bd a81c 15bd 2a55 debd
-0.050374858 -0.08648799 -0.043318167 0.03097869 -0.10552814 0.08906221 0.015010137 -0.10824935
0.00063782546 -0.046762314 -0.039561484 -0.06706138 0.070773564 -0.051384326 -0.03640428 -0.108560875

fc1.weight f4 [120, 256]
00000000: 8e0c 9a3c 44c3 243d 1880 063d 5360 f5bc
00000010: f0e2 f9bc 9f4a 0bbc 290e 7d3d c176 cfbd
00000020: 0f29 13bd 49e7 cd3b 8ace 893c bb4d a9bd
00000030: 62f4 a63d f311 c73c a747 70bb 857e cfbc
00000040: c3dd c23d 2818 0cbd c423 6c3d 9343 03be
00000050: f1e7 b73c 3246 07bd 8873 f63c 364d 40bd
00000060: 8026 a6bc f540 f83c fa0a 25bd 58aa 8e3c
00000070: 0c61 9b3c 50e0 5fbd 8ef3 8bbc 5200 29bd
00000080: 20f1 963d 150f 0f3c 9223 cf3c 032c b4bd
00000090: 0ad3 d5bb 444c 40bc 6303 d43d 2fab 1f3a
000000a0: c4b4 a03c 4b17 273c e5a8 643d f407 c13d
000000b0: 8369 69bc fe21 bbbd a770 ccbc 65fe 1dbd
000000c0: 00b7 5ebb 74d5 d0bd 20aa 10bb 4c55 eabc
000000d0: 67ef b43d 5e01 e1bc 76ac 5fbc a347 293d
000000e0: 10e3 db3d 693b 1cbc 70d0 513c fcf2 b03d
000000f0: 10dc 30bd 5d3c 43bc 12fc a03c 7dbe 713d
00000100: 2249 d4bc ac64 05bd 4467 453d d355 3bbd
00000110: c4a6 c53d 88ba 743c 96d7 db3b cc2e ffbc
00000120: eb1d 4f3d 2479 283b 1e6b 443d 8bb4 8b3c
00000130: 9f7e e7bc 57f7 a2bd a494 173c 2b01 e5bd
00000140: ea01 70bc 936f 033c 7c7a 0b3e 7b78 d23d
00000150: 4875 cdbb 5b39 a13c e874 8fba 998e a63c
00000160: f1be 893d 6c70 c9bc 9b3b 933d c754 a43d
00000170: 1972 973d 378a 113e 7ed9 323d fd3b 59bd
00000180: 02dd 9abd 75b1 59bc 3f45 c13d a153 b1bc
00000190: 97f4 d2bd c3d8 5b3d 9815 983d 5811 133d
000001a0: 5148 0bbc d4bb 86bd bdab f7bb e912 8bba
000001b0: f4e7 563c ee4e ae3d 86d5 093e 242a 7c3c
000001c0: 36bd 903d 9ca1 313d 2971 39bd 5c68 2a3d
000001d0: 4736 e5bb 2bde e53c 674d ca3d c8e4 0cbd
000001e0: de49 023d ec9a f83c f2de e93c dcaa 0ebd
000001f0: a053 c9bc 2c8c 80bb 1bc6 1fbd fda2 7abc
00000200: 047d 1a3d d904 013e a486 da3c 6039 f93b
00000210: 0a82 073d f854 9cbc fd2f e7bc 1273 763d
00000220: bb74 80bd bcdb ebbb eb1f c3bc 693a 5a3c
00000230: ae83 a43d 801a 59bc 8efa 79bd c434 d3bd
00000240: 08bc 6d3d f9d1 953c 922d 403d d1a7 fbbc
00000250: eeca 05be e230 1cbd 2274 88bc c51e 983d
00000260: b206 82bd 45ab 04bc aa92 853d d7c5 bbbc
00000270: 383b 90bd 5cda 0ebd 111f eebc 3d37 99bc
00000280: 0131 123d edf2 743b fc44 1d3d 3f28 153d
00000290: 244d 883c f55b 1b3d 4900 9cbc 6efb da3c
000002a0: c748 edbc 6c6c 7bbd 0b84 4b3d 43b1 97bc
000002b0: fd42 06be 107e 00be 29dd d8bd 4108 bdbb
000002c0: ed0b 393d 96cf 8a3d 6854 ab3c 1546 8bbd
000002d0: 9493 8cbd 38bc acbc 02bc a93d 6833 bd3c
000002e0: 7625 66bd 9575 82bd d5d8 ef3c c9d3 9dbc
000002f0: e324 60bd f532 00be 8fe0 7cbd 3283 b6bd
00000300: b6de ca3b cdc4 853d 3a1b 8c3d 0b81 8a3d
00000310: fe27 c63c 9dc5 bf3d bcab e53a b038 14bd
00000320: ac24 c33c 9bac 073d ee6d 463c e9e5 2cbd
00000330: 53e1 ee3c d66d e33c 26a0 753d e075 9bbb
00000340: 338b aebc 6be6 d7bc 03ef 873c dd80 aa3c
00000350: 55cd b43c ab45 e6bb 4dff 463c 4c91 8dbc
00000360: 3bc0 673d 9205 1ebd 6041 6d3d 0b2d b93c
00000370: b932 7abd 8dae 0b3c e9ab b43d 10e8 a5bc
00000380: 0e80 16bd 3783 633b 7d47 373d 364f a43c
00000390: d146 cbbc 3d4b 783c d92f 403d ce47 273d
000003a0: f26e 74bd 037c 4e3c 5909 de3b aab1 0a3d
000003b0: b6eb 30bc fdd3 8f3d 2e08 4b3d cca5 8abd
000003c0: f399 483d dde6 9b3c babb 2f3d d282 76bd
000003d0: 326b 25bd 367c 483c a8c3 253c c43f 2fbd
000003e0: e8e6 c8bb 14b1 2cbd 2609 963c 5b45 083d
000003f0: e7a1 25bb 6971 f63c 3fdd 3abd 0546 6fbc
0.018804815 0.040225282 0.032837003 -0.029953158 -0.03050372 -0.008501678 0.061781082 -0.101300724
-0.03592783 0.006283675 0.016822118 -0.08266779 0.08152081 0.024300551 -0.0036663802 -0.025328884
0.09514954 -0.034202725 0.057651296 -0.12818746 0.022449465 -0.033025928 0.030084386 -0.046948634
-0.02028203 0.030304411 -0.04029367 0.01741521 0.018967174 -0.05465728 -0.01708391 -0.04126007
0.0737021 0.008731623 0.025285516 -0.08797457 -0.006525402 -0.011736933 0.103522085 0.0006090877
0.019617446 0.010198425 0.055825133 0.09425345 -0.014246347 -0.09137343 -0.02495606 -0.038572688
-0.0033983588 -0.10196963 -0.0022074059 -0.028605126 0.08834725 -0.027466472 -0.013651958 0.041328084
0.10736668 -0.009535649 0.012806043 0.086400956 -0.043178618 -0.011916247 0.019651446 0.059019554
-0.025913779 -0.03256671 0.048194185 -0.045736145 0.09650949 0.014937051 0.0067090495 -0.031150244
0.05056564 0.002570697 0.047953717 0.017053863 -0.02825862 -0.079573326 0.009251747 -0.111818634
-0.014648894 0.008022207 0.13620943 0.10276886 -0.0062700845 0.01968067 -0.0010944875 0.020331668
0.06725872 -0.02458974 0.07189103 0.080239825 0.07394809 0.14212881 0.043664448 -0.053035725
-0.07561685 -0.013286938 0.09437036 -0.021646323 -0.10300558 0.053673517 0.07425994 0.035905212
-0.008501128 -0.06578794 -0.0075583146 -0.0010610494 0.013116825 0.085111484 0.13460359 0.0153909065
0.07067339 0.043367013 -0.045273934 0.04160343 -0.0069949958 0.02806004 0.098780446 -0.03439787
0.031808726 0.03034731 0.028548691 -0.034830913 -0.024576008 -0.00392296 -0.039007287 -0.0152976485
0.03771688 0.12599505 0.02667553 0.0076057166 0.033083 -0.019083485 -0.028221125 0.060168333
-0.062722646 -0.0071978252 -0.02381893 0.01331959 0.080329284 -0.013250947 -0.061029963 -0.103127986
0.05804065 0.0182886 0.04691846 -0.03071967 -0.13065693 -0.038132556 -0.016656939 0.07427744
-0.06348933 -0.008097474 0.065221146 -0.022921486 -0.07042545 -0.034876212 -0.029067548 -0.018703097
0.035691265 0.003737624 0.038395867 0.036415335 0.016638346 0.037929494 -0.019043105 0.02673122
-0.028965367 -0.061382696 0.049686473 -0.018517142 -0.13111492 -0.12548089 -0.10589058 -0.005768806
0.04517739 0.06777875 0.020914271 -0.068004765 -0.06864086 -0.021085843 0.08287813 0.023095801
-0.05618807 -0.06370083 0.029278198 -0.019266026 -0.054722678 -0.12519439 -0.061737593 -0.08911742
0.0061911 0.065316774 0.068411306 0.06762894 0.024188992 0.093638636 0.0017522494 -0.036186874
0.023821197 0.033123594 0.01211117 -0.042211447 0.029160177 0.027762335 0.059967183 -0.0047442764
-0.02130661 -0.026354989 0.016593462 0.0208134 0.022070566 -0.007027348 0.012145829 -0.017281197
0.05657981 -0.03857953 0.057923675 0.022604486 -0.06108353 0.008525503 0.08821852 -0.020252258
-0.036743216 0.0034715661 0.04474591 0.020057302 -0.024814041 0.015154657 0.04692063 0.040839963
-0.05967612 0.012602809 0.0067760167 0.03386084 -0.010798385 0.070228554 0.049568348 -0.067699045
0.048974942 0.019030983 0.04290364 -0.060183354 -0.040385433 0.012236645 0.010117449 -0.04278542
-0.006131042 -0.042161062 0.01831491 0.033269268 -0.0025273503 0.030083375 -0.045621153 -0.014604096

fc1.bias f4 [120]
00000000: 5b13 bdbc 1a09 ea3c c944 043d bf26 233c
00000010: 5343 7c3b e5cd 773d b8f5 1e3d c12a 6abd
00000020: a9c0 493d 39ed e4bb 6292 763d f320 b03d
00000030: 6408 eb3c 6d82 98bb 3111 7f3d ba62 18bd
00000040: deb9 2a3c 01cb f93c 70c6 843d 69e4 2a3d
00000050: 891f 79bd 3ef5 e43c de73 a3bc 0509 89bd
00000060: 4da6 e03c 4c42 89bd 2518 1f3c d792 50bb
00000070: a095 c6bc 05bc 313d d4db 91bc 90fb 1fbd
00000080: 4788 f23c 28a7 7e3d 77d9 17bd d5e7 e1bc
00000090: f384 3d3c 04d2 893d 0536 5e3d f0e9 88bc
000000a0: bc2a 6d3c df42 44bb 3b4c 4abd d0dd 45bd
000000b0: b4a5 db3c 0dbb 95bb 87a8 85bd 830f 2dbd
000000c0: 2bbd 393d 3143 873d cf4d 90bd b00e 37bd
000000d0: 9e03 b2bd f272 133d c204 343d 901a b03d
000000e0: 0ed3 77bd 4f7b 6f3d a44a 6cbc 0857 e0ba
000000f0: 0862 513d 069f 0fbc a8ab 5ebd a681 6e3c
00000100: 9c30 37bc 166f f63c 169f 43bd b7b1 4cbd
00000110: 57f1 07bc 5c1c 623d aa28 1c3d 9c57 d7bc
00000120: 642f a23c 6164 3f3c 249d abbb 7e02 7b3c
00000130: 8895 683d 3916 b53c 805c 79bd fe39 5cbc
00000140: 121c 923d c63c 0b3d 3b68 1abc 0225 debc
00000150: ac6b 15bd d6d7 2bbd 1d25 39bb 1e59 a13d
00000160: e150 3fbd 3cf8 c53c 4b72 973c b012 28bd
00000170: 1e4c 113d c037 243d 6909 833d b009 9f3c
00000180: 2e59 543c 0a05 b03d 5268 d93c 4828 6c3d
00000190: 73a8 b2bc f52d f5bc 5002 94bc a069 a23d
000001a0: f99e 97bd d75f 56bd ced0 33bd 7227 41bd
000001b0: bcca 853c 2cb9 363d 729d 0abd 9328 bdbc
000001c0: a900 b53c 82ce 4a3d 739e 073d 8aac 0fbd
000001d0: ff14 993d c090 7ebd d5f7 663d 205d 8d3d
-0.023080518 0.028568793 0.03229216 0.009957968 0.0038492277 0.06049909 0.038808554 -0.05716968
0.049256 -0.006986287 0.060198195 0.086000346 0.028690524 -0.00465422 0.062272254 -0.037203528
0.010420291 0.030492308 0.064831614 0.041721735 -0.06082109 0.027948972 -0.01995271 -0.066911735
0.027423048 -0.06702098 0.009710346 -0.0031825805 -0.024241269 0.0433922 -0.017805018 -0.039058268
0.029605998 0.06217113 -0.037072625 -0.027576366 0.011567342 0.067295104 0.054250736 -0.016713113
0.014475521 -0.0029947085 -0.049389105 -0.04830724 0.026812412 -0.0045694173 -0.06526285 -0.04225112
0.04534642 0.066046126 -0.07046091 -0.04469174 -0.08692096 0.035998292 0.04394985 0.085988164
-0.06050401 0.058467206 -0.014422093 -0.0017115781 0.05111888 -0.0087659415 -0.054362923 0.014557278
-0.011181023 0.030082267 -0.047759138 -0.04997417 -0.008297286 0.055202827 0.038124718 -0.026286893
0.019797988 0.011681647 -0.0052372385 0.015320418 0.05678323 0.022105323 -0.06087923 -0.013441561
0.0713426 0.033993505 -0.009424265 -0.027117256 -0.036479637 -0.041953884 -0.002825088 0.07878326
-0.04670799 0.024166219 0.018487116 -0.041033447 0.03547298 0.04009223 0.06398279 0.019413799
0.012960715 0.08594711 0.026539002 0.057655603 -0.021808838 -0.02992914 -0.018067509 0.079303026
-0.074033685 -0.052337494 -0.043900304 -0.04715676 0.016332023 0.044610187 -0.033841558 -0.023090636
0.022095041 0.049513347 0.033110093 -0.035076655 0.07474708 -0.062149763 0.056388695 0.06902528

fc0.weight f4 [120, 120]
00000000: 0d8a b03d b517 f5bd 8a6d 233c 0fbe bcbd
00000010: d23c 04bc b74d 043e 35ba 3f3d 599d 76bd
00000020: 476e 97bd 765d f63c 5c7b d8bc 3556 883d
00000030: 007a 543c 788f 93bd 1107 19bd c972 273e
00000040: 4ced acbd c77a c7bd 8a0d c93d d960 e23d
00000050: 5a3c ecbd 041f 993d ee67 78bd daf0 25bd
00000060: 0134 d03d 60e6 9a3d 103a 903d 8195 ed3d
00000070: a750 6fbd 7faa 6e3d c0f4 653c cb4a 9d3d
00000080: 16ce f0b9 b2b3 8abb a43e d63c 7e06 a93d
00000090: df9e d7bb 9c2c b9bd d419 843d aea1 023e
000000a0: e670 f8bd 8058 9abd d4fe 85bd f256 b4bd
000000b0: 768c c7bc 06e9 d03d 98cb a7bd 4e1c 073e
000000c0: d7ea 863d 50ec 88ba b4b1 65bd 948c 863d
000000d0: db64 a83d 06e4 89bd df1e afbd 00ae 883b
000000e0: 1c5d 893c 322b 3dba 6ed9 2e3c 4bc1 d9bc
000000f0: b9c2 cfbc 577f 203e b356 28bd 3ac3 003e
00000100: 6339 a13d eca1 d9bb f56c 6abc 4a34 02be
00000110: 2f95 87bd bd82 9c3d 7d20 41bd 1843 2b3d
00000120: fbca a23c 0143 803d 6aff 91bc 0eb9 23bb
00000130: ce4b e63d af2e c8bd 9500 83bd e840 0cbb
00000140: 0ae2 15bd f441 33bd 693b b73d 7533 083c
00000150: 93d2 aebc 9704 c83c 9ac9 86bc 2c21 c4bd
00000160: a066 7ebc b689 523d fa8b 8b3b 2144 443d
00000170: a3e5 0ebd 26b7 813c 78f9 ccbc 3189 2dbd
00000180: 0b83 a73d d0b4 6d3b 946c 09bd 3d54 c83d
00000190: 190c 4cbd 269b 4f3d 7d51 f03d 8d6f edbc
000001a0: 6bd0 af3d 8918 ccbc 2e7e de3a ea39 aa3d
000001b0: a463 57bc 5fe4 01bd 0cc5 cebd 8d7e 26bd
000001c0: e651 1ebe f176 f9bd cc5b eb3d 5414 d4bc
000001d0: 828a 993d 36a6 6ebd ce5f b83d 2861 79bd
000001e0: ad0f b43d e797 c43c 9a7f bf3d f5ab 213d
000001f0: 8bdc 903d 5ff1 093e 1a25 40bc 2690 be3d
00000200: 0f0f a9bc 4daf e03c b8b2 23bd f9d7 da3d
00000210: bf78 be3c 0560 ae3d ac81 8ebd d72e 0f3b
00000220: dc5d e2bd 099b 863d 4bef 813c 667f 89bd
00000230: 1ae2 4fbd e473 b93c 3ed5 c33d ce0a 83bc
00000240: 1027 9bbb e14e 04be bfed 7fbc 677e 473c
00000250: 190e b6bd ff6c 013d 362c 9e3d 0492 d7bb
00000260: 0c36 cebd 70c8 a1bd d4cf 6c3d 3fd8 26bd
00000270: a5cb 96bc fd60 afbd 6694 a13d 3659 8c3d
00000280: a57d edbd 8f17 a13d a3c4 9a3d 514e 2bbd
00000290: 0b96 ccbd 1ae9 893d 7be5 2bbc b92c a63c
000002a0: 003d 673d fc43 973c 75f1 a03c e929 f03d
000002b0: 98f5 4d3d 2062 e2bd a2c0 68bd 810f b73d
000002c0: 4b77 83bb b0aa f9bd e981 8a3d 3ee2 5d3d
000002d0: af8c 83bd cf3b 28bd 7309 3c3d 41bf 013b
000002e0: f417 053e a2b8 82bd 0d57 9b3d 0e53 c8bd
000002f0: 898c 823c 645f 1cbd 7bcd de3c 24e5 53bc
00000300: d0ef 8a3d 706a a23d 732e 84bb ee47 2f3d
00000310: 3704 a93d a3c2 373d 942f c5bc 2647 753d
00000320: efd2 2dbd 3fbf cdbc c99a 95bd 0607 61bc
00000330: 949b b83c 7542 82bd 4093 ca3d 7100 43ba
00000340: d362 f7bb 796b babb c551 dd3c 0099 35bd
00000350: 21b5 973c 3823 8bbd 5205 60bc 19d4 e93d
00000360: aed5 713d 888a ca3d f4f5 973d 9a03 2e3d
00000370: 7b98 11be 3ea0 52bc 424a d5bd 99f9 59bc
00000380: fff9 84bc 9ac9 92bd d0fc 243d bdc4 97bd
00000390: 50e4 0f3e 2d5e fdbc 7dcf 38bd b64d d03d
000003a0: e953 10be f84f 9ebd b927 2cbd befa 0e3d
000003b0: 2896 dd3d 64fb c5bc b011 363e 679b 04bd
000003c0: a70e ae3d 2d34 d63d f069 893d 86b0 8c3b
000003d0: 342a 0e3d bc0b 56bc b3f8 aabc 29f5 35bd
000003e0: 91d9 b53d 8488 84bd aa2b 21be 5382 babc
000003f0: 3035 703d 7d6d 313d cfb9 cebd edea 78bd
0.08620081 -0.119674124 0.009974847 -0.09215938 -0.008071141 0.12920271 0.04680844 -0.060208652
-0.073940806 0.030073863 -0.02642601 0.06657068 0.01296854 -0.07205099 -0.037360255 0.16352381
-0.08443698 -0.09740215 0.098170355 0.110536285 -0.11534949 0.07476619 -0.06064599 -0.040512897
0.10166169 0.07563472 0.070423245 0.11600781 -0.058426525 0.058268066 0.014035404 0.07680281
-0.00045929913 -0.004232847 0.026152916 0.082531914 -0.006580218 -0.09041712 0.06450239 0.12756988
-0.12130909 -0.07536411 -0.06542745 -0.08805646 -0.02435897 0.10200696 -0.08193129 0.13194391
0.06587761 -0.0010446403 -0.056077674 0.06569782 0.08222362 -0.06732945 -0.0855081 0.004171133
0.01676803 -0.00072162144 0.010671956 -0.026581427 -0.025361406 0.15673576 -0.041098308 0.12574473
0.07872274 -0.006641617 -0.014308204 -0.12715259 -0.066202514 0.07642124 -0.047150124 0.041812032
0.01987218 0.0626278 -0.017821986 -0.0024982127 0.11244927 -0.09774529 -0.063965954 -0.0021400992
-0.03659252 -0.04376407 0.089468785 0.00831305 -0.021340644 0.024416251 -0.016453553 -0.095766395
-0.015527397 0.051400863 0.00425863 0.047916535 -0.034886967 0.015834402 -0.0250213 -0.042367164
0.08179291 0.0036271103 -0.033550814 0.09781692 -0.049816225 0.05068507 0.11734293 -0.028983856
0.085846744 -0.024914043 0.001697486 0.083118275 -0.013146315 -0.031711932 -0.100961775 -0.040648032
-0.1546093 -0.121808894 0.11492118 -0.0258886 0.074971214 -0.05826398 0.09002648 -0.06088367
0.087920524 0.023998214 0.0935051 0.03947063 0.07073315 0.13470982 -0.011727596 0.09304838
-0.020637063 0.02742734 -0.03996536 0.10685725 0.023250936 0.08514408 -0.06958327 0.0021847987
-0.110530585 0.06572539 0.015861174 -0.067137524 -0.050752737 0.022638269 0.09562157 -0.015996363
-0.004734881 -0.12920715 -0.015620648 0.012176133 -0.08889408 0.031598087 0.07723276 -0.0065786857
-0.100689024 -0.078995585 0.057815388 -0.040733572 -0.018407652 -0.08563421 0.07889633 0.06852953
-0.115962304 0.078658216 0.07557037 -0.041822735 -0.09989556 0.06733914 -0.010491724 0.020284997
0.05645466 0.018465035 0.019646386 0.11726744 0.050283045 -0.11053872 -0.056824334 0.08938504
-0.0040120236 -0.12190759 0.0676306 0.05417084 -0.06423318 -0.041072663 0.04590745 0.0019797834
0.12997419 -0.06382872 0.07584963 -0.097814664 0.015936153 -0.03817691 0.02719759 -0.012933049
0.06784022 0.079304576 -0.0040338575 0.042793207 0.08252757 0.044863354 -0.024070539 0.059882306
-0.04243749 -0.025115607 -0.073049136 -0.013734585 0.022535123 -0.06360332 0.09891367 -0.00074387254
-0.0075496226 -0.0056890813 0.02701653 -0.044335365 0.018518986 -0.06793827 -0.013673143 0.114174075
0.05904167 0.09889704 0.07419959 0.042483903 -0.14218323 -0.0128555875 -0.10414554 -0.013304138
-0.016232489 -0.07167359 0.040280163 -0.07410572 0.14051938 -0.030928696 -0.04511975 0.10171072
-0.14094509 -0.077300966 -0.04203007 0.034907095 0.10819656 -0.024167724 0.17780185 -0.032374766
0.084988885 0.104591705 0.06709659 0.004293504 0.034708217 -0.013064321 -0.020870542 -0.044423256
0.08879388 -0.06471351 -0.15739313 -0.022767222 0.058644474 0.043317307 -0.10094034 -0.060770918

fc0.bias f4 [120]
00000000: f9d6 f93c cece 5e3d e654 1b3d ff8d ec3b
00000010: 4dd2 efbc 9e31 7a3c c84f 34bc d66e a03d
00000020: 4205 56bd d6ea 1f3d b381 973d 98f6 cfbc
00000030: 4581 1cbd 33ac 87bd 7974 e13c f3a4 bebb
00000040: 851c f83d 4fb6 433d a5d7 a4bc 3782 8e3d
00000050: 2711 9d3d bec4 723c 9c29 1abd 7caa a93d
00000060: b5bf da3c 815f 66bd 904f cb3d 555e 7cbd
00000070: c8d2 b03d 1c17 613c dc45 3d3d 155f 783c
00000080: ed4b e8bc c1f6 a03c 3b11 90bd e9b4 253d
00000090: e054 fd3d b615 973d 4871 f1bc f742 093d
000000a0: 1ef7 b43d 7ca7 44bd 7617 be3c 8251 c43d
000000b0: 52fe 4f3d dbfb 023d 1d63 f2bc 68fc 6fbd
000000c0: 817f 8abd 9c77 103e 4656 66bd 19e9 f9bc
000000d0: 6092 33bd b965 593d 5c9f b83c e636 56bd
000000e0: 21bf cf3a 0406 703d 15ad d5bc 2d88 62bc
000000f0: a506 193d b675 723d 7ee8 98bd ddb3 a53d
00000100: 112a dbbc 8016 513d 6ecf d5bc 2fdc ed3a
00000110: 9f31 92bd 672a 5ebd 80d2 d23d 7c7c 2e3c
00000120: 208a ecbc 2146 c4bd c33b 0f3d 8328 823c
00000130: 1870 d33c cab8 babb e79e 0fbd 1cc1 5fbd
00000140: c3bf 333d 0078 4abc 1a30 763b 12a3 d03d
00000150: 2f67 103e b837 dc3d 0a4e 823c 31d0 bb3c
00000160: fc0e a1bd 73c5 c23c 2ab0 2cbd fa25 8e3d
00000170: b407 a4bd 19b8 043c 0cd9 01bd 4245 6b3c
00000180: f4a5 e3bd d8e6 843d 5392 9c3c ea50 7dbc
00000190: 93cf 06bc a565 873d 550a 32bd a3e7 08bd
000001a0: 5d2d 493d 4380 913d 510c dc3b 44cb 0b3d
000001b0: 7902 f7bd c949 133d 7ee8 803d 27ed bdbd
000001c0: f5ec d03d 30d2 78bd 0a2d bdbc 052c b7bc
000001d0: c825 c5bc d614 37bd 6eea bf3c ed73 f53d
0.030498015 0.054396443 0.037922762 0.0072190757 -0.029275084 0.015270619 -0.011005349 0.0783364
-0.052251108 0.039042316 0.07397785 -0.02538614 -0.03820922 -0.06624641 0.027521359 -0.0058180033
0.12114815 0.047781285 -0.020122359 0.0695843 0.07669287 0.014817415 -0.037637338 0.082844704
0.026702741 -0.056243423 0.09927285 -0.0616134 0.08633953 0.01373842 0.0462092 0.015159388
-0.028356517 0.019648911 -0.070345365 0.040455732 0.12369704 0.07377188 -0.029472962 0.03351113
0.08836196 -0.048011288 0.023204546 0.09585859 0.050779648 0.03197847 -0.029588277 -0.058590323
-0.06762601 0.14108127 -0.05623462 -0.030506657 -0.043840766 0.053075526 0.022536926 -0.05229845
0.0015849808 0.058599487 -0.026083509 -0.013826412 0.037359852 0.05919429 -0.07466219 0.08090947
-0.026753457 0.05104685 -0.026099887 0.0018147285 -0.07138371 -0.054239657 0.10294056 0.010649797
-0.028874457 -0.095836885 0.034969103 0.015888458 0.025810286 -0.005698298 -0.03506365 -0.054627523
0.04388405 -0.012357712 0.0037565292 0.10187353 0.14101861 0.10752815 0.015906353 0.022926422
-0.07864186 0.023775792 -0.04216019 0.06940837 -0.08009282 0.008100533 -0.031701133 0.014359774
-0.111156374 0.064893425 0.019112742 -0.015461186 -0.0082282005 0.06611184 -0.043466885 -0.03342403
0.049115527 0.07104542 0.0067153354 0.034129396 -0.120610185 0.03595904 0.06294344 -0.09273749
0.10201446 -0.060747325 -0.023092765 -0.022359857 -0.024065867 -0.044697605 0.023427214 0.11985002

fc2.weight f4 [84, 120]
00000000: 8787 333b b248 b3bc 8944 8d3d 4ef9 89bd
00000010: 2290 c8bd 5591 313d 51b8 913d 5719 1fbc
00000020: c5df 0ebd a13d cc3c 652a 393d d27a dcbd
00000030: cc04 05bd e8f8 01be be9c ab3d d0ea 033e
00000040: 6d96 433d dd6f e6bd 50b2 6bbd a225 0c3d
00000050: fe0a 7fbd 9d9d 073c 3056 153b bcb5 ddbc
00000060: e7d7 8ebc 3658 5f3d ecd7 a53d 42fe 44bd
00000070: 6cef e93c 837d 803c bc09 c6ba 9fca cbbc
00000080: aee7 d33c b23f 903d 708a 353d 3128 be3d
00000090: 3c88 81bc 6a30 d43c f9ea d5bd ef30 e2bc
000000a0: d100 523d fc5b 36bd 9e0a 11bc 1735 8fbd
000000b0: 49da d63c 5d97 b6bd adad 1c3e 65e8 aa3c
000000c0: f9f2 f3bd 1a50 a63d 2b09 ae3d af18 8e3b
000000d0: aef6 5d3d 5e82 353c e3af 203d cdf7 533d
000000e0: ec6f e13c e08b fe3c 3500 473d 02ac e4bc
000000f0: 9f15 78bd f3e5 acbd 2bac c83c 512a 363d
00000100: a505 f23d c35a 283d c057 2f3c 6d52 0ebe
00000110: 2525 ba3d f133 e53c 1570 40bd 3e97 92bd
00000120: 2a3d 123c 5a6b 47bd eac9 32bd 9500 f13c
00000130: f725 91bd e118 083d ad17 a9bd 14b8 dbbd
00000140: 1f25 aa3d 152b 70bd 6e66 85bd 6eb4 cf3c
00000150: b214 a43d 16ef 67bd 50fc adbd 3b94 adbd
00000160: 9510 a03d 30d9 87bc ab66 fc3b a20a f53d
00000170: a639 ff3c 8648 dbba a03a 7e3d f249 903d
00000180: f23a af3d a192 f53b fa56 45bd 4eeb e5bd
00000190: 678a 62bd 7a73 0a3d 1a91 a6bc d7cd babc
000001a0: 9eee 9bbd 1029 75bd ccce 1d3e fdf3 c6bd
000001b0: b98b 773d 1134 1c3d 681a 2abd fdb4 733d
000001c0: c29f bc3d 890f e73b 90d9 02bb ffdc 8bbc
000001d0: 0361 b4bc 6cd5 1b3c 953b d8bd e41e 84bc
000001e0: b5fd 753c 858f cc3c e0b6 99bc 4b2b 69bc
000001f0: 211f 4ebd 9700 a7bd ff67 3ebb 45c3 2bbd
00000200: 30b5 a3bc 1b45 283d 5145 343e 51b7 0f3e
00000210: 557c c53d 586a ea3d 96f4 c03d 2dc8 b83d
00000220: 966f 103e 9c63 a33d d3f5 1a3e cedd 8cbd
00000230: fea9 76bd bd3c 3a3d 348b 923d 1622 b33c
00000240: ec69 b0bd 35cb 893c 04fd e63d 6e36 8abc
00000250: 9450 aabd 25d7 d53d c2b8 133d af05 d03c
00000260: 5689 a13b 84ae 7dbd b77b 17bc 85b7 a63d
00000270: 751d 95bd ea4e 1cbd ae7d 39bc 282a 03bd
00000280: ea5a babd 1ae4 1fbd bb6c adbd f677 33be
00000290: 75ca 68bc 7f28 09be 21cb acbc a327 21bd
000002a0: a107 27bd 056d dd3d ac86 343d f618 bf3d
000002b0: 87bf 023e 390e fcbd 42c3 dbba e97c 193d
000002c0: 14bb fabc 2bff 05be d343 223e 5c18 6d3d
000002d0: 2d77 6a3d e8bf 853d 16e2 ecbc 5170 64bc
000002e0: 349f 7bbd 8a89 043d cd5b 363c a7e9 3b3e
000002f0: 933c aa3d 586d 033d 72dd b43d 1c8c 983c
00000300: 963b bebc 2c25 6c3d bc71 803d b041 4b3d
00000310: 1a53 ab3c 4afb 49bd 51c4 283d af6e 7f3c
00000320: f554 27bd f94b f23d d4a7 fe3d 6c1f 203d
00000330: a040 f6bd e2d2 92bd 5b8b 453d ae5b 79bd
00000340: 70e7 883c 0e67 233e cc2b 013e e5ab c23d
00000350: 2fbd 563d f6bc 0f3d 11dd 5d3d 038a c4bd
00000360: 34bf 913c 6f07 e7bc 2202 c13d 7282 c23d
00000370: 1194 d43d 0c8e 913c b280 aa3c ddea d33d
00000380: 9523 ccbd 2f4f 64bc a69f 56bd 2a3d 773d
00000390: a633 23bd 3667 babb 5a99 ebbd 203e d8bc
000003a0: 16a1 10bd 4620 e03d c784 3f3d ed84 66bd
000003b0: 367d 083d ed74 823c 748f 013d 8c7f dbbd
000003c0: b4a4 863c 5e00 f73c 7c43 c43d 874f 253b
000003d0: 38bc efbd c3a4 f03b 4cc3 f4bc 78cb e9bc
000003e0: ccea 9abb d589 793c 1638 b53d fb47 7c3d
000003f0: a69e 773d 77a2 e23d e1be 193d b52a 243d
0.0027394013 -0.02188525 0.06897838 -0.06737004 -0.09793116 0.04335149 0.07115234 -0.009710631
-0.034881372 0.02493173 0.045206446 -0.107656136 -0.032475278 -0.12692606 0.083795056 0.12882543
0.04775088 -0.11251805 -0.0575431 0.034215577 -0.062266342 0.008277324 0.0022786967 -0.027064197
-0.017436935 0.054527484 0.080978245 -0.04809404 0.028556548 0.015684849 -0.0015109102 -0.02487689
0.02586731 0.07043399 0.044321477 0.0928501 -0.015812032 0.025901992 -0.10445208 -0.027611224
0.05127031 -0.044521317 -0.008852629 -0.06992548 0.026227133 -0.08915589 0.15300627 0.020862767
-0.11911578 0.08120747 0.084978424 0.0043364386 0.05419033 0.011078445 0.03923024 0.051749993
0.027519189 0.031072557 0.04858418 -0.027914051 -0.060567494 -0.08442297 0.024496159 0.04447395
0.11817483 0.041102182 0.010702074 -0.1389863 0.09089116 0.02797887 -0.04698189 -0.071577534
0.008925715 -0.048686363 -0.04364959 0.029419223 -0.07087319 0.03322685 -0.08256469 -0.107284695
0.083078615 -0.058634836 -0.065136775 0.02535459 0.0801176 -0.056624494 -0.084953904 -0.08475538
0.07815663 -0.016583055 0.0077026687 0.11964919 0.031155419 -0.0016729988 0.062067628 0.07045354
0.08556165 0.007494286 -0.04817865 -0.112265214 -0.055307772 0.033801533 -0.020332862 -0.02280323
-0.07613872 -0.059853613 0.15410918 -0.09714506 0.060435984 0.038135592 -0.04152909 0.059498776
0.09210159 0.0070514125 -0.0019966103 -0.017073153 -0.022018915 0.009511333 -0.10558239 -0.016128011
0.015014102 0.02497078 -0.01876396 -0.014231513 -0.050322656 -0.081544094 -0.0029053686 -0.04193427
-0.019983858 0.04108153 0.17604567 0.14034773 0.09642855 0.11446065 0.09421651 0.090225555
0.14105067 0.07977983 0.15132837 -0.068782434 -0.06022071 0.04546808 0.07155457 0.02186684
-0.08613953 0.01682053 0.11278728 -0.016871657 -0.0831615 0.10441426 0.03606487 0.025393335
0.004929702 -0.06193401 -0.0092458045 0.08140472 -0.07281009 -0.038161196 -0.011321468 -0.032022625
-0.09099372 -0.039035894 -0.08468004 -0.1752623 -0.014208426 -0.13394354 -0.021092953 -0.03934444
-0.04077876 0.108118095 0.044073746 0.09330933 0.12768374 -0.123074 -0.0016766565 0.03747264
-0.030606784 -0.1308562 0.15846185 0.05788456 0.05724256 0.06530744 -0.0289164 -0.013942794
-0.061431125 0.03235773 0.011130285 0.1835085 0.08312335 0.0320867 0.088313 0.018621497
-0.023221772 0.057652637 0.06271693 0.04962319 0.02091365 -0.049311914 0.041202847 0.015590354
-0.040852506 0.11830897 0.124343544 0.039092466 -0.12024045 -0.07169129 0.048228603 -0.06087845
0.01671192 0.15957281 0.12614363 0.095054425 0.052426513 0.035092317 0.054165903 -0.09596636
0.017791368 -0.028201787 0.09424235 0.09497537 0.10379804 0.017767929 0.02081332 0.10347531
-0.09967724 -0.013934894 -0.052398346 0.060361065 -0.039844178 -0.0056885732 -0.11503859 -0.026396811
-0.035309874 0.10943656 0.046757486 -0.05627911 0.033322535 0.015924895 0.03163095 -0.10717687
0.016435958 0.030151542 0.09583184 0.0025224404 -0.11705822 0.00734386 -0.029878281 -0.028539404
-0.004727697 0.015230616 0.08848588 0.061592083 0.060454033 0.11066144 0.037535552 0.04007979

fc2.bias f4 [84]
00000000: 0067 58bc 60fc 8e3d 0d41 c0bc e0f2 ce3d
00000010: 409d cf3d deaf db3d 2a35 44bc ebba 46bd
00000020: 48a8 a1bd a6df f6bc 927e 863d 4042 a53d
00000030: b949 e23c 56c0 973d d871 b63c 3dae 96bd
00000040: a510 82bd 48c1 c43d ee97 0bbd 218e 0abd
00000050: 8124 63bc cc3b 0dbd 903d 993d 6081 813d
00000060: 7de6 123c ef43 f43c d84d ea3d f587 f8bc
00000070: 36b6 12bd aa82 613c 0674 6d3d 6cf6 513b
00000080: 1c0e 9f3d 1fff a03c a343 a13d 94de 8dbd
00000090: 48f6 55bd 6719 f43d 1567 30bd 0e59 78bd
000000a0: 9d01 543d 90ce 173d f833 073e 26a3 803d
000000b0: caff ba3d 01aa 8a3d 99f6 853d 98be a9bd
000000c0: 1c33 c73d e50f b1bc b1f9 db3d ef8b ce3b
000000d0: b0d9 b13d f960 7fbd 8c19 ec3c 5910 bcbd
000000e0: 19ee 7a3d e66b 4bbd 0c55 f63d 24e0 3b3d
000000f0: 84a9 9cbc 622b f6bc 4a7a 053d f6eb 6ebb
00000100: dd05 ca3d d3c3 65ba ac00 f63b 7d34 943d
00000110: 45db ba3d 1abe 083e adec c63c 46cb 603d
00000120: 0b1f c9bd 9964 df39 e456 bb3d 5a33 04bd
00000130: 6763 0ebd 01b5 7abd 509d 80bd 8773 e43d
00000140: c0b9 18bb ae93 53bd 9924 f5bc a958 3ebd
-0.013208151 0.069817305 -0.023468519 0.101049185 0.10137415 0.107269034 -0.011975566 -0.048518103
-0.07893425 -0.03013594 0.0656711 0.08069277 0.027623044 0.07409732 0.022271082 -0.07357452
-0.06350831 0.09607178 -0.03408044 -0.03382695 -0.013863684 -0.034480855 0.07482445 0.063235044
0.0089660855 0.02981755 0.11440629 -0.030338267 -0.0358183 0.013764063 0.057971977 0.0032037748
0.07766363 0.019652901 0.07874229 -0.06927219 -0.052236825 0.119189076 -0.043067057 -0.060631804
0.05175935 0.037062228 0.13203418 0.06281118 0.09130819 0.06770707 0.065411754 -0.08288306
0.09726545 -0.021614024 0.10740984 0.0063033025 0.08684099 -0.06234834 0.028820775 -0.091828056
0.061262224 -0.049663447 0.1202794 0.045868054 -0.0191238 -0.030049983 0.032587327 -0.0036456562
0.098643996 -0.0008764837 0.0075074043 0.07236574 0.091238536 0.13353768 0.024282778 0.054881357
-0.09820374 0.00042608826 0.091474324 -0.032275535 -0.034762766 -0.061207775 -0.06280005 0.111548476
-0.0023304075 -0.05165451 -0.029924678 -0.04647127

fc3.weight f4 [10, 84]
00000000: c704 06be 8c72 153d 6691 a1bd 3611 a0bd
00000010: da38 b13d 5688 efbd 4ab4 463d 5c4d 623c
00000020: fe04 06bc 0cf2 bd3b 3b60 c5bd 7f17 123d
00000030: 9b7d 1a3e bedb 043e 0daa 39be 82e7 473d
00000040: 19a9 e7bc 2479 09bd 4013 97bd 4585 cbb9
00000050: 4eed dd3d 8959 52bd 2df3 823c 81ba 41bd
00000060: 889e a73d 4569 27be 785b 24be 113f 1ebe
00000070: e742 0dbe dd41 63be 30fa 073e 590e 983d
00000080: 02e5 ffbd 8871 053e 52e8 9d3d 394b 11be
00000090: 6a02 91bd 40a0 69be 37c6 56be 5000 4cbe
000000a0: 8b42 1bbd 6d23 2ebd 6309 5abe c53b 02be
000000b0: 5f82 02be 3876 67bd 923e eb3c c19f 423d
000000c0: 1af4 d93c a725 fd3d 3f56 5ebe 26bf 513c
000000d0: ad4f 16be bf69 35bd fb3e 8cbd 53e9 a3bd
000000e0: 6e6a 36be 71e6 063e 16ae ff3d 1f75 b7bd
000000f0: 0253 c13d 7aca 95bd 970a 0c3d b3bd 003c
00000100: 1dda dabd ad8e 1fbe abc2 cbbc e31c e03c
00000110: 5fd0 19be 1296 07be 1f04 f0bd 767b db3d
00000120: 9b33 ee3b 2d19 07bd c561 e03d 2ec6 6bbc
00000130: 79e7 21be 7669 f13c 664f 34bd ed92 a43d
00000140: fa9b 133e d9a5 cdbd c789 b0bd 1fb1 02be
00000150: 408c f73d 06b4 d9bd 0a26 96bd 6f89 52be
00000160: c9a1 6bbe 0338 ddbd 4769 003e c7fc ae3d
00000170: b0a1 e63c 642c 373e abcc b1bd da4a 28bc
00000180: cc31 013e 9d1b 2bbe 573a a23d 47ef 46be
00000190: 6c95 35be cd75 f33b 1d21 46be 2fb9 0bbe
000001a0: f393 89bd 8656 9abd 9c98 2cbe ea9e 4a3d
000001b0: 3b06 5dbb 3ba2 623c cafd ca3b 71e4 37bd
000001c0: f76a d2bd db9e 2ebe 4df2 33be f92d 92bd
000001d0: 7519 7abe 6482 34be 1ff1 683a 13b2 083d
000001e0: 1489 e1bd 77f7 d13d d278 14be 58a2 2cbe
000001f0: 5bf0 0a3e 4339 ca3d 350e c33d d619 8cbd
00000200: 584f bbbd bdde 09be 63c8 023d a608 11be
00000210: ed43 353e 213e 27be 426c 073e 0888 6cbd
00000220: f71f 6a3c edd8 debd af6c 833d d5fc 35be
00000230: 3199 f93d 14e3 a4bd 8365 5a3d 5ece 46be
00000240: 59a8 d33d 6a82 14be 05be dabc ddbb 15be
00000250: 3f4f 1d3e 68dd 823d 8a96 33be 3440 103e
00000260: 7e28 1b3e b290 1fbd 1b07 063e 8006 8a3c
00000270: efc6 1f3d db40 de3d 6026 1dbd 4f57 bfbd
00000280: 1922 cf3d 6a0b 253d 4144 0abe 3283 08be
00000290: 1447 bcbc e163 803d 4710 5dbe f8fd 3f3d
000002a0: 78c0 6fbc b9d2 a73d 00d1 bd3c b343 083e
000002b0: 59ef a3bd e8cd 65bc 9e6f 9e3c 9af3 893d
000002c0: adc5 0bbd 0d83 8a3d 0360 0abe cb7c 22be
000002d0: eecd b43d 62ba 2e3c f66c 6ebd b357 34bd
000002e0: 57f5 ffbd 1fa6 36bd b860 173d 03ef 39be
000002f0: 8d26 38be baed 1e3d 72d4 89bd adc8 443d
00000300: 27ea ff3c 5a02 d6bd ed5b dfbd 355e 5a3b
00000310: 65be b83d 084e 35be d207 773d 7a6a 08bd
00000320: 162f 6dbd 7aed 0e3d 1589 b5bd bcf4 e53d
00000330: 3625 933d d016 5c3c 374f 77bd 91fc e5bd
00000340: 593c d43d 0a09 e1bc 7224 62bd a0c3 2a3e
00000350: ca84 18be 4da9 a4bc fc6c e93c e70c 84bd
00000360: 8d87 71be dbb5 ee3d 3909 cf3b bcf6 fe3d
00000370: 2e56 83bd 380a f3bd c643 c7bd 40dc 4cbd
00000380: b001 efbd df10 4f3d 0d8e 08be 4013 b73c
00000390: 22f2 18bd 3f09 58be e1b6 0d3e 5f0d 263d
000003a0: 2883 5b3d fe9e c73d d9f2 343d 22ce 903c
000003b0: 89fc f83d 3cdd 3dbe 0bf0 493b fa75 b3bd
000003c0: 10ce 5bbd f0f5 bfbd 1b33 febd 172e 7b3d
000003d0: 128d f9bc 4533 40be b0b4 ed3b c954 a6bc
000003e0: 8846 a2bd 5bc7 84be c1d6 eabd 2120 e03d
000003f0: 07de 8cbd 9c4c 97bd 5e2d b23d a95a 80bd
-0.1308776 0.036486194 -0.07889061 -0.07815783 0.08653422 -0.11695926 0.04851178 0.013812389
-0.008179901 0.0057966765 -0.09637495 0.03566694 0.15086977 0.1297445 -0.18131275 0.048804767
-0.028278874 -0.033562794 -0.073767185 -0.0003881847 0.10836278 -0.05135492 0.015985096 -0.047297005
0.08184534 -0.16348751 -0.16050518 -0.15453745 -0.13795052 -0.22193094 0.13279033 0.074246116
-0.12494852 0.1303159 0.07710327 -0.14188851 -0.070805386 -0.22815037 -0.2097405 -0.19921994
-0.037905257 -0.042514253 -0.21292643 -0.12718113 -0.12745045 -0.056509227 0.02871636 0.047515634
0.026605655 0.12360697 -0.21712588 0.012801921 -0.14678831 -0.0442903 -0.0684795 -0.080034874
-0.17814037 0.13173844 0.12484376 -0.08957886 0.094396606 -0.0731401 0.034189787 0.007857728
-0.10686133 -0.1558177 -0.024873098 0.027357524 -0.15020894 -0.13240841 -0.11719536 0.10716908
0.0072693354 -0.032982994 0.10956148 -0.014390511 -0.15810956 0.029469233 -0.044021033 0.08035836
0.14414969 -0.100413986 -0.08620029 -0.12762879 0.120872974 -0.1063004 -0.07331474 -0.2056024
-0.23010935 -0.10801699 0.1254016 0.08544307 0.02815327 0.17888027 -0.086816154 -0.010271752
0.12616652 -0.16709752 0.07921284 -0.19427215 -0.17732781 0.0074298144 -0.19348569 -0.1364486
-0.06717672 -0.07536034 -0.16855091 0.04946796 -0.0033725637 0.013832624 0.006194805 -0.044895593
-0.10274308 -0.17052786 -0.17572899 -0.07137675 -0.24423774 -0.17627865 0.00088860275 0.03337295
-0.11012474 0.10252278 -0.14499214 -0.16858804 0.13568251 0.09874203 0.09524194 -0.06840865
-0.09145993 -0.13463874 0.031929385 -0.14163455 0.17701693 -0.16332294 0.13224891 -0.057746917
0.014289848 -0.10881219 0.06417214 -0.17772229 0.12187422 -0.08051124 0.053319465 -0.1941466
0.10334844 -0.14502874 -0.026701936 -0.14622445 0.15362261 0.06389886 -0.17537895 0.14086992
0.15152165 -0.03895635 0.13088648 0.016848803 0.039008077 0.10852214 -0.038366675 -0.09342825
0.101139255 0.04029409 -0.135026 -0.13331297 -0.022983111 0.062690504 -0.2158824 0.046873063
-0.0146332905 0.08194489 0.023170948 0.13307075 -0.08004636 -0.014026143 0.019340333 0.067359164
-0.034124065 0.06763277 -0.13513188 -0.15867917 0.088283405 0.010664554 -0.058209382 -0.04402895
-0.12497967 -0.04459202 0.036957473 -0.18157582 -0.17983456 0.038800932 -0.06729974 0.04804294
0.031239582 -0.10449667 -0.10906205 0.0033320312 0.0902069 -0.17705548 0.060310192 -0.03330467
-0.057906233 0.034894444 -0.08864037 0.1122832 0.07184832 0.013433173 -0.06037828 -0.11229814
0.10363073 -0.02747013 -0.05521054 0.16676188 -0.14894405 -0.02010026 0.02849435 -0.064477734
-0.23586865 0.1165578 0.006318238 0.124494046 -0.06412922 -0.118671834 -0.09729724 -0.050014734
-0.11670244 0.0505532 -0.13335438 0.022348046 -0.03734029 -0.21097277 0.13839294 0.040540095
0.053591877 0.09747122 0.04417691 0.017676417 0.12157542 -0.18541425 0.0030813243 -0.087627366
-0.053663313 -0.09373081 -0.12412091 0.06132325 -0.030462775 -0.18769558 0.0072542056 -0.0203041
-0.07923609 -0.25933346 -0.11466742 0.10943628 -0.06878286 -0.07387659 0.08700059 -0.06267292

fc3.bias f4 [10]
00000000: 8929 273d 701a 24bd e7ed 0ebe 8c39 d83a
00000010: bc61 abbd f37d 83bd f760 cdbd 15cb f73c
00000020: 54c8 79bd 2971 283c
0.040811095 -0.040064275 -0.1395794 0.0016496642 -0.08368251 -0.06420507 -0.1002826 0.030248204
-0.060982063 0.010280886
