models/client-4-2.pth (torch, 239842 bytes, 12 tensors)

conv1.weight f4 [6, 1, 5, 5]
000000 38 c0 7c be c9 0e c5 bd 85 b6 cd 3d 69 f1 50 3e
       -0.246827 -0.09621961 0.100445785 0.2040459
000010 d8 5c 99 3e 96 85 82 be f2 5a 96 be 5f 8f 6c bd
       0.29953647 -0.25492543 -0.2936626 -0.057753917
000020 5a 80 8a 3e 24 86 ad 3e 62 3b 34 be 58 8d de bd
       0.2705105 0.33891404 -0.17600778 -0.10866803
000030 be 65 81 3e 2f 12 8e 3e 16 10 a5 3e 75 7c 38 be
       0.25272936 0.27748248 0.32238835 -0.18016227
000040 aa 30 46 3d 52 af 09 bc 9c 29 1a 3e db 27 00 3e
       0.048386253 -0.008403616 0.15054935 0.12515204
000050 b4 be 30 bd 41 e6 1d 3e d6 21 35 3e 95 97 00 3d
       -0.04315062 0.15419866 0.17688689 0.03139456
000060 8b 8f 58 3e e8 73 93 3e 1e d5 86 bc 6b dd 92 3e
       0.21148507 0.28799367 -0.016459044 0.28684554
000070 f2 38 1d 3e ce 24 14 3e 58 47 c8 3c 85 31 b9 3e
       0.15353754 0.14467165 0.024448082 0.36170593
000080 6f da 17 3e 79 d5 8a 3e 05 f2 8d 3e 57 9b fb 3d
       0.1482942 0.27115992 0.2772371 0.12285488
000090 52 d9 e2 3d 18 97 3b 3e c7 c8 24 bd ae 33 5e 3d
       0.11076607 0.18319356 -0.04023054 0.054248504
0000a0 ea 19 8c be f9 27 a1 bd ee 71 4c be 09 b0 3a 3d
       -0.2736352 -0.07868952 -0.19965336 0.045578036
0000b0 2a 4c bc 3d 56 91 ce be 4f 51 f4 be 67 73 c3 be
       0.09194215 -0.40345258 -0.47718284 -0.38173983
0000c0 92 67 c3 be 18 44 64 be 81 7e 0c be ff b6 5c be
       -0.38164955 -0.222916 -0.13720132 -0.21554182
0000d0 c8 2c 8a be 8f 1c 39 3e 93 cf b5 3c bb a9 6f 3d
       -0.2698729 0.180773 0.022193706 0.058511477
0000e0 16 0f 4c be 8b 01 aa 3d 82 f2 c4 3c 79 6a b1 3c
       -0.1992763 0.083010755 0.024041418 0.021657215
0000f0 5c a6 43 3d 9a e3 b4 3d 42 89 b7 3e 0c 66 d5 3e
       0.047766075 0.08832474 0.35846907 0.41679418
000100 63 87 5c 3e 94 11 a4 bd 7a b2 8f 3e 95 6a d9 3e
       0.21536021 -0.08011165 0.28065854 0.42464128
000110 30 85 83 3e 35 55 a0 3d b9 d3 d5 3d 4e 0b f9 bc
       0.25687551 0.07828752 0.104407735 -0.030400898
000120 3d 15 26 bd 50 ee 5e 3e 4d 0e 6f bd be ff 1b be
       -0.0405476 0.21770597 -0.058363248 -0.15234277
000130 1c c5 98 be cd 7d ae bd 3c c1 b2 3d fb d3 c3 bd
       -0.29837883 -0.08520088 0.08728263 -0.095619164
000140 60 1a 7b be 99 b3 86 be 43 08 f2 bb 48 64 17 3e
       -0.2452178 -0.26308897 -0.007386239 0.14784348
000150 dc 13 0b be 69 b1 98 3d b9 ec ab 3d 30 de 52 3e
       -0.13581795 0.07455713 0.08394761 0.2059257
000160 ef 95 64 3e 32 04 3e be 02 03 6d 3e 0a 3c 99 ba
       0.2232282 -0.18556288 0.23145679 -0.0011690867
000170 42 5a 11 3e 81 42 bd 3e 28 70 a2 3e 6e ed 8a 3e
       0.14194587 0.369648 0.31726193 0.2713427
000180 6a ee 80 3e 6c d0 81 3e e1 d5 d7 3e eb 9d ce 3e
       0.25181895 0.25354326 0.42155364 0.40354857
000190 a1 ac 8c 3e ac 86 88 3d 1f fb 31 be dd a8 8b be
       0.27475455 0.066663116 -0.17380951 -0.2727727
0001a0 6c e3 04 be 21 12 84 3e d1 a7 ad bb fa aa 29 3d
       -0.1297738 0.2579508 -0.0052995463 0.04142282
0001b0 1a 32 21 bd 62 d2 37 bb 8e ff 4b 3e 11 28 26 3e
       -0.03935442 -0.0028048982 0.19921705 0.16226222
0001c0 79 62 a4 3e a3 9d 86 3d d0 ec 49 3e 92 48 18 3c
       0.3210638 0.065730356 0.19719243 0.009294646
0001d0 c0 b8 47 bd 0c 87 b5 3e 3c 6d 13 3d 16 c9 88 bc
       -0.048760176 0.35454595 0.035992846 -0.016697448
0001e0 a7 52 57 be 74 fa 69 3e a1 50 97 3e fd 72 85 3e
       -0.21027623 0.22849447 0.29553702 0.26064292
0001f0 9c fc bd 3c fe 3f 32 3d 81 56 84 bd 3d 9c e9 bd
       0.023191743 0.04351806 -0.06461812 -0.11406753
000200 cd 2f 2b bc 4b 53 b7 bc d5 f5 ca 3d 5b 1c 2c 3e
       -0.010448408 -0.022378584 0.0991017 0.16807692
000210 68 08 00 3d 7e 64 13 3d de b0 ae be c4 4e 81 3d
       0.031258017 0.03598451 -0.34119314 0.063138515
000220 ab da ac 3d 0b 1c f6 3d 28 67 f3 bd d9 d8 bc be
       0.08440145 0.120170675 -0.1188491 -0.36884192
000230 63 c2 b0 bd ee 3e a1 3e ba c5 ce 3c a4 05 49 3a
       -0.08630826 0.31493324 0.025240768 0.0007668382
000240 ec e7 a3 bc 3d f3 43 3d 8a 68 99 3e 21 4c 66 3d
       -0.02000805 0.047839392 0.2996257 0.056224946
000250 b8 ad 27 3e 0e 95 22 3e
       0.16374862 0.15877172

conv1.bias f4 [6]
000000 e0 04 fd bd cd c0 b8 3d 98 72 01 bc 2a 9a 84 ba
       -0.123544455 0.09021149 -0.007900856 -0.0010116745
000010 bc 9e 43 bd 6f 7f 41 bc
       -0.047758803 -0.011810168

conv2.weight f4 [16, 6, 5, 5]
000000 7f 46 45 bc 6a 46 77 3d 6a be 66 bc 7b 91 4c bd
       -0.012040733 0.060369886 -0.014083484 -0.04994343
000010 9a 12 c3 bc 74 c5 29 bd 6b ee cf 3a dc bd d5 3d
       -0.02381258 -0.04144807 0.0015863901 0.104366034
000020 80 0d 9f 3d e6 69 13 be 73 31 d9 bd 17 fb 20 bd
       0.07766247 -0.14395866 -0.10605135 -0.039301958
000030 10 c4 05 bd 14 da 2f bc 3f 62 8c bd 59 06 05 bd
       -0.032657683 -0.010733146 -0.068546765 -0.032476757
000040 b5 88 f0 bd d2 95 8a 3c 73 4b ad 3d 9f 38 d5 3d
       -0.11744825 0.016917143 0.084616564 0.1041119
000050 12 b2 40 3d 6d 3e e4 3d c3 d6 33 bd b0 bc 7a 3d
       0.04704482 0.11144719 -0.043905985 0.061215103
000060 76 75 31 bd 75 72 10 ba d4 ca c8 3d 11 af 6d bd
       -0.04332491 -0.00055102195 0.098043114 -0.058028284
000070 12 18 e7 3c 28 e8 17 be e8 67 08 bd b3 42 ab 3d
       0.02820972 -0.14834654 -0.033302218 0.08362331
000080 59 28 0f 3e 73 9f e4 3d fb 48 11 3e 05 ea 86 3c
       0.13980235 0.11163225 0.14187996 0.016469011
000090 a1 03 08 3e b1 a4 dd 3d 1e d5 a3 3d c0 97 21 3d
       0.13282634 0.10822428 0.07999633 0.03945136
0000a0 10 65 01 3b 08 a9 a5 bd ac d4 48 be 1d 5f bc bd
       0.0019744076 -0.08088881 -0.19612378 -0.09197829
0000b0 75 b1 a3 bd f2 c8 01 be 29 09 1d bd 9f e4 1e be
       -0.079928316 -0.12674311 -0.038338814 -0.155169
0000c0 ee 5b ff bc 18 06 17 3b aa 83 43 bd 8d 35 27 bd
       -0.031171765 0.0023044404 -0.047732987 -0.040822554
0000d0 04 5b df bc 21 5d 29 3c e3 f5 5e 3d d3 9a 84 bd
       -0.02726508 0.010337145 0.054433715 -0.06474843
0000e0 37 94 91 bd eb f7 a5 3d 7a 10 04 bd 72 ab 04 bd
       -0.07108348 0.08103927 -0.032242276 -0.032390065
0000f0 d2 7e 2f be 59 67 0e be 2e 58 a3 bd ee 6d 89 bd
       -0.17138222 -0.13906612 -0.07975803 -0.067104205
000100 02 30 e0 bd 1d a4 ac 3b 5b 98 93 bd be 61 80 bd
       -0.10946657 0.0052685873 -0.07206794 -0.06268643
000110 1d d7 10 3c 2f 0e 11 bc ff 52 0d bc b9 64 06 3e
       0.0088403495 -0.008853479 -0.008625745 0.1312436
000120 b5 01 b4 3d 30 b9 fd 3c ee d4 71 bc a8 09 f6 bc
       0.08789388 0.030972093 -0.014760239 -0.030033901
000130 21 09 85 bd a2 a9 0e 3e f6 5d 0c 3e 8e 7e 43 ba
       -0.06495882 0.13931897 0.13707718 -0.0007457518
000140 9a aa 63 bd 95 3b e0 bd 3f 92 83 3d 8a f0 06 bd
       -0.05558262 -0.10948864 0.064243786 -0.03294424
000150 b1 1d ca 3c ed 3f 18 be d3 c0 03 be c8 5e 4b be
       0.024672361 -0.14868136 -0.12866525 -0.19860375
000160 b0 fb 05 be 19 df a4 bd b6 01 63 3d a3 ac ca bc
       -0.13084292 -0.08050365 0.055421554 -0.024740523
000170 ef d2 06 ba 8e 47 cc 3d 7b 65 a2 3d 83 bd f5 3d
       -0.0005143126 0.099745855 0.07929512 0.11999037
000180 6c e6 70 3d ed 18 01 3e 92 06 1a 3d d0 5c 1f bc
       0.058813497 0.12607165 0.037603922 -0.009726718
000190 55 b5 03 be 0d dd 02 3d 59 44 49 3d 58 d0 85 3d
       -0.12862141 0.03194909 0.049137447 0.06533879
0001a0 a1 cc 10 3e 78 5f e5 bd eb 50 a5 bb cf 60 17 3c
       0.1414056 -0.1119985 -0.0050450466 0.00923939
0001b0 d5 e0 d9 3c 51 1f ea 3d 54 0d 17 be 6b c7 60 be
       0.026596466 0.114317544 -0.14751178 -0.21951072
0001c0 08 aa 3e bd 99 84 98 3c 96 87 79 3a 23 7a 95 bd
       -0.046548873 0.018617915 0.00095188 -0.07298686
0001d0 01 46 fd bd 17 b5 fc bb e1 02 8f bd 5c c2 e1 3c
       -0.12366868 -0.0077120173 -0.06982971 0.027558498
0001e0 6a f1 5b 3d 97 9c 89 3d 15 4d 7d 3d 0e c3 c4 bc
       0.053697027 0.0671932 0.06184109 -0.02401879
0001f0 9a 80 b7 bd b8 d2 15 be 82 0f ad bc d0 6a 8b 3d
       -0.08960076 -0.14631164 -0.021125559 0.06807482
000200 c3 42 fe 3d 53 3d f3 3c bd 02 7d bd 86 2e dd bd
       0.124150775 0.029692328 -0.06177019 -0.10799889
000210 28 48 8b bd cb cc 5c bc e8 ea a4 3d a2 ea 44 be
       -0.06800872 -0.013476561 0.08052617 -0.1923013
000220 63 82 b7 bd 96 62 10 be a6 55 11 be 3b 94 83 3b
       -0.08960416 -0.14100108 -0.14192829 0.004015473
000230 b0 26 e1 bd ff 30 88 bd 48 ca d1 bd c5 d1 57 bd
       -0.10993707 -0.0664997 -0.1024366 -0.052690286
000240 94 8f b4 3c 56 f8 2d 3d 1a fa 16 bc 4f da 19 bd
       0.02204112 0.04247316 -0.009214902 -0.03756171
000250 75 4d 1d bd 00 8f a7 3c 41 50 04 bc 4b 81 10 bc
       -0.038403947 0.02045393 -0.008075775 -0.008819888
000260 c1 bd b8 bd 7c f4 d3 bd e4 95 94 bd 66 f8 b8 bc
       -0.09020568 -0.10349366 -0.07255152 -0.022579383
000270 76 f7 c4 bd 5a cc f0 3c 04 91 f7 bc 2c b2 7f bd
       -0.09617512 0.029394317 -0.030220516 -0.062425777
000280 21 1d 00 bd e4 f2 8a bd 84 79 84 bd 0b 31 a2 bd
       -0.03127778 -0.06784609 -0.0646849 -0.079195105
000290 49 34 8e 3a 70 ca b7 bd e7 05 49 be 51 6b b2 bc
       0.0010849322 -0.08974159 -0.19631158 -0.021779688
0002a0 55 6d 3d bc fc 09 a4 3c b5 06 7b bd 90 19 0a bd
       -0.011561711 0.020024292 -0.061285693 -0.033715785
0002b0 b3 9b b4 bd 7c c5 cc bc 47 6d 90 3c df 0b be 3d
       -0.0881876 -0.024996512 0.017630232 0.09279608
0002c0 07 af 94 3c 3c 9a a8 bc 25 f7 34 bd 5d 93 1c be
       0.018149866 -0.020581357 -0.044181008 -0.1529059
0002d0 5f df 17 3d d1 4c e1 3d 6d bf 76 3d 86 00 16 3e
       0.037078258 0.1100098 0.06024115 0.14648637
0002e0 5d a6 02 3c 36 e1 13 3e 0b 16 82 3e b1 fb 84 3e
       0.007974234 0.1444138 0.25407442 0.25973275
0002f0 5d a3 8d 3e 89 f8 6e 3e db f9 0f be 12 11 6a 3d
       0.276637 0.23336996 -0.14060156 0.057145186
000300 94 fb a4 bc 3b 5a df 3d a6 15 92 3d 69 aa 65 bd
       -0.020139493 0.10905882 0.07133035 -0.05607072
000310 ff d9 2c be 53 ea 51 be a7 ea b4 bd 58 4f ea bd
       -0.16880034 -0.20499544 -0.08833819 -0.11440915
000320 82 53 c2 3c 7d 84 75 bd 85 2c 5e 3a 6f d8 d4 bd
       0.02372146 -0.059940804 0.0008475262 -0.10392844
000330 42 da c2 bd d3 8d 1b bd 9f 74 b7 3d 01 77 80 3d
       -0.095142856 -0.03797705 0.089577906 0.06272698
000340 59 b9 b8 3d 7a f7 17 3e 52 6e 90 bc 70 20 5b bd
       0.09019727 0.14840499 -0.01763073 -0.05349773
000350 2b 71 88 bd 29 5f 81 3b bf 9f 9b 3b 37 16 9d bd
       -0.0666221 0.0039481116 0.004749268 -0.07670253
000360 02 a0 2f be fa 9e 3a be 18 a3 99 bb 83 1a 3f bd
       -0.17150882 -0.18224707 -0.0046886317 -0.046656143
000370 ef f8 fc 3d 7d 36 99 3d 6f 15 fd 3c 0a df 16 bd
       0.12352168 0.07481096 0.03089401 -0.0368338
000380 51 9a 89 bd 93 31 23 bd 40 e4 4c 3d 66 6c 98 3d
       -0.06718887 -0.0398422 0.050022364 0.0744255
000390 65 d0 19 3d 1a 77 11 bd 4e 38 a5 bd 37 59 6a 3d
       0.037552256 -0.035513975 -0.0806738 0.05721399
0003a0 6a b3 50 bc c5 ce 10 3e df 66 06 3e 33 0c cf bd
       -0.012738088 0.14141376 0.1312518 -0.10109749
0003b0 55 e2 93 bd 13 b4 08 be 0e 04 c1 bd d3 b6 80 3d
       -0.07220904 -0.13349943 -0.094246015 0.06284871
0003c0 60 79 bb 3d 5f 04 22 3d 7a ed f4 bd d0 ba df bd
       0.0915401 0.03955495 -0.119593576 -0.109243035
0003d0 54 f2 08 be 67 fe 74 3d 59 47 f4 3d 4f ae 1a 3d
       -0.13373691 0.05981293 0.11927671 0.03776389
0003e0 ed a8 0f 3d bb 96 30 3c ca f5 22 bc b4 50 5a bd
       0.03507321 0.010778124 -0.009946296 -0.05329962
0003f0 23 2c 25 ba eb 6e d9 3c da 64 71 3c 43 11 29 3d
       -0.00063008274 0.026542148 0.014733518 0.041276228

conv2.bias f4 [16]
000000 81 fe 28 bd 1e 41 ac bd c1 37 12 bd fa 56 0d 3d
       -0.04125834 -0.084108576 -0.035697702 0.034506775
000010 23 e2 ed bd 26 dd a6 3d 46 8f d6 3c f0 2b 08 be
       -0.11615398 0.081476495 0.026191365 -0.13298011
000020 8c fe bf ba ea 2b 1c bd ff 7c 22 bd 33 e3 8a bd
       -0.0014648004 -0.038127817 -0.039669987 -0.06781616
000030 e5 d0 74 3d 28 dd 85 bd 29 ea e1 bc 7b ea ca bd
       0.05976953 -0.06536323 -0.027577477 -0.09908005

fc1.weight f4 [120, 256]
000000 2a 3a 98 ba 31 9d 43 3c cb 81 38 3d 7c dc d8 bc
       -0.0011614014 0.011939333 0.045045655 -0.026472323
000010 ad 2c 1b bc 12 b2 89 3c 98 17 9e 3d 17 cc 79 bd
       -0.009471101 0.016808543 0.07719344 -0.06098565
000020 4f ce 1b bd b5 85 a9 bb 68 90 7c 3c a2 1b 2c bd
       -0.038038548 -0.00517341 0.0154152885 -0.04201854
000030 8d 75 8f 3d 10 b9 16 3d 9a ee d1 3c 7e 6c e2 bb
       0.07004843 0.036797583 0.02562647 -0.006909906
000040 8f 37 00 3e b8 da 29 3c 78 de ad 3d 81 06 ef bd
       0.12521194 0.010367088 0.08489698 -0.116711624
000050 0f 96 48 3d 92 86 bd bc 18 43 0b 3d bf 9c 6e bd
       0.048971232 -0.023135457 0.033999532 -0.058254953
000060 e8 0e aa bc 1b f9 b5 3c d3 4f 51 bd c5 7d 15 3b
       -0.020759061 0.02221351 -0.051101517 0.002281056
000070 44 48 8a 3d 8d 0f 81 bc b0 28 9b bc df 0b 80 bd
       0.06752065 -0.015754486 -0.0189403 -0.06252264
000080 9a 3f 94 3d cd 2c f9 3c 16 5d 23 3d ff 41 02 be
       0.072386935 0.03041687 0.039883696 -0.12720488
000090 09 01 d5 3b bd 06 08 bc 1d 59 f2 3d de ed 08 3d
       0.0065003675 -0.008302388 0.11833403 0.033429973
0000a0 24 a7 78 3d c2 5c 20 3d 73 44 5a 3d 77 07 15 3d
       0.060706273 0.03915096 0.053287935 0.036384072
0000b0 a8 eb 9e 3d dd 30 19 bd 8f 0c 84 bb 3b 3c df 3c
       0.077597916 -0.037400115 -0.0040298174 0.0272504
0000c0 fc f4 0c 3d 2e da 08 be e5 8a 7d bc f9 87 b0 bd
       0.034413323 -0.13364479 -0.01547501 -0.08619685
0000d0 eb f3 7b 3d 64 8b ef bc 74 1c dc bc 87 0d b3 3c
       0.061511915 -0.029241271 -0.026869036 0.021857036
0000e0 14 30 fc 3d fc da bb 3a 77 09 b8 3c 2d d6 8b 3d
       0.12313858 0.001433223 0.02246545 0.0682796
0000f0 34 de aa bc ed de c3 bc 85 70 c8 3b 97 1f 42 3d
       -0.020857908 -0.02391001 0.006116929 0.047393408
000100 54 ca 1c bd e7 92 9b bd ad 6b c3 bc 55 cf 91 bd
       -0.038278893 -0.07596379 -0.023855055 -0.071196236
000110 2c 1d b2 3d 34 60 e7 3c 77 c2 23 3d 67 9d ad bb
       0.0869697 0.028244115 0.039980378 -0.005298305
000120 4e 91 89 3d d3 81 33 3c 08 9c a7 3c 77 6d 15 bd
       0.06717168 0.0109562455 0.020460144 -0.036481347
000130 00 dc 04 bd 7e 79 3b bd 67 84 0b 3d 57 75 95 bd
       -0.03243637 -0.04577016 0.034061816 -0.072977714
000140 3b 16 26 3c a6 ab 6c 3a f2 fd 8e 3d 94 b0 e5 3d
       0.010137136 0.0009028263 0.0698203 0.1121532
000150 4f 4c 49 bd 5b aa 80 bc d8 5b 70 bc 12 91 48 3d
       -0.04914504 -0.015706232 -0.014670335 0.048966475
000160 60 8d 90 3d 61 dd 43 bd fc bf 8b 3d 23 f7 98 3d
       0.07058215 -0.047818545 0.068237275 0.074690126
000170 bd f3 93 bb 33 57 d6 3d 9e dd 8c 3d b0 db 17 bd
       -0.00451514 0.10465851 0.068782076 -0.037074745
000180 02 2f 80 bd 12 ac 13 bd a2 a4 a1 3d cc 52 b7 bb
       -0.06258966 -0.03605277 0.07892729 -0.005594587
000190 0d 1e f4 bd d4 d1 d9 3c 92 ff 77 3d 70 b0 de 3c
       -0.11919794 0.026589312 0.060546465 0.027183741
0001a0 db 4b 87 bc 3f 46 a6 bd 6b ef 89 3b db 4a 00 3b
       -0.016515663 -0.08118867 0.004209449 0.0019575867
0001b0 5d bd e1 bc 46 bd 32 3d 4c 01 ee 3d c2 42 f1 3c
       -0.027556116 0.043637536 0.11621341 0.029450778
0001c0 79 dc 8e 3d 11 8b 6c 3d 76 2e 79 bd 23 d8 25 bc
       0.069756456 0.05774981 -0.060835324 -0.010122332
0001d0 81 7f f8 bb fc 23 42 bb d8 94 a0 3d 5d d7 b2 bc
       -0.007583559 -0.00296235 0.0784089 -0.021831209
0001e0 86 5f d0 3c 9c 95 2c 3c cf 83 09 3d f0 32 16 bd
       0.025436174 0.0105337165 0.033572968 -0.03666967
0001f0 14 7b 94 bc d4 e7 14 bd 11 d5 01 bb 13 d8 dd bb
       -0.018125094 -0.0363539 -0.0019810835 -0.006770143
000200 9b d7 20 3d 8c ae ea 3d f1 84 e1 3b a6 21 25 3b
       0.039268117 0.114590734 0.006882303 0.0025197058
000210 89 17 be 3c 00 ee 11 bc 0c 9e f1 bc 71 66 0d 3d
       0.023204582 -0.008906841 -0.029494308 0.034521524
000220 7b 1e 6b bd 77 7c a3 bb b0 f4 61 bd b6 32 70 3c
       -0.057402115 -0.0049892026 -0.055164993 0.014660528
000230 3c 46 9d 3d 99 d5 52 3b 58 de 73 bd bb 59 26 be
       0.07679412 0.003217077 -0.059538215 -0.16245167
000240 fd af 03 3d cf 66 21 3d ff 43 56 3d fa 84 6d bd
       0.032150257 0.039404687 0.05231094 -0.057988144
000250 79 98 98 bd 80 2b 94 bc 1f 67 4b bd 58 5f 40 3d
       -0.07450957 -0.018087149 -0.04965889 0.046965927
000260 7c ec 55 bd 4b 25 13 bd cf 74 46 3d 2f 9f 9e bc
       -0.052227482 -0.035924237 0.04845124 -0.019363014
000270 f9 bc 32 bd b0 93 84 bd 72 8d 30 bd aa 16 a6 bc
       -0.04363725 -0.06473482 -0.043103643 -0.020274479
000280 b7 10 4b 3d 3a f7 a1 3c ee 6f 29 3d 94 93 95 3c
       0.049576487 0.019771207 0.04136651 0.018258847
000290 1e 6e cf 3c 4c 00 f9 3c fd f6 e8 bc 7a cb 2d 3d
       0.025321063 0.03039565 -0.028438086 0.04243038
0002a0 5a 06 c7 bc 05 66 96 bd 97 dc 6b 3c 92 e2 47 bd
       -0.02429502 -0.073436774 0.014395854 -0.04880006
0002b0 01 10 fd bd 27 30 0a be c2 52 b4 bd ac 3a 8e bb
       -0.12356568 -0.13494931 -0.08804847 -0.0043404903
0002c0 71 6b 58 3d 7a c1 7d 3d e8 2c ab 3c 52 aa 62 bd
       0.05283684 0.06195209 0.020895436 -0.05533821
0002d0 88 a9 5b bd 5e 22 00 bd d2 a1 60 3d 01 95 10 3d
       -0.053628474 -0.031282775 0.054841824 0.03529835
0002e0 88 a6 55 bd 66 89 7e bd 1a fb 12 3c cb b2 fc bc
       -0.05216077 -0.062142752 0.008971 -0.030846974
0002f0 d9 24 6a bc cc d4 d7 bd ae 47 b7 bc d7 71 65 bd
       -0.014291012 -0.10538635 -0.022373047 -0.05601677
000300 fe cc c5 bb 26 e6 00 3d ba a6 b9 3d ea 22 b6 3d
       -0.0060364 0.031469487 0.09065004 0.08893378
000310 ca 19 75 3c 2e d7 b6 3d a5 52 5f 3c 5d 56 33 bd
       0.014959762 0.08927761 0.013630544 -0.043783534
000320 57 84 2e 3c fa 6e e1 3c 25 74 0e 3d 5f 6f da bc
       0.010651669 0.027518738 0.034778733 -0.026664434
000330 65 50 34 bc 39 be 4d 3d 4f 92 a5 3d 6e 28 a1 bc
       -0.011005496 0.05023024 0.08084547 -0.019672599
000340 24 30 f9 bc 88 95 10 bd c7 f8 28 3d 83 42 ea bc
       -0.030418463 -0.035298854 0.041252878 -0.028596168
000350 95 d5 c4 3c c2 6d 02 3b e0 31 c8 3c 62 c5 f5 bc
       0.024027625 0.0019901847 0.024437845 -0.030001346
000360 7b 01 2e 3d 0b 28 8e bc 92 0c 78 3d 4d e1 67 3b
       0.04248188 -0.017353078 0.060558863 0.0035382092
000370 35 15 05 bd f7 1b 0c 3d 7a b7 91 3d aa fa c5 bc
       -0.032490928 0.034206357 0.071150735 -0.024167378
000380 24 90 1b bd 6c fa cf bc 54 01 4a 3d 59 53 f7 3c
       -0.03797926 -0.025387965 0.049317673 0.03019111
000390 a1 38 19 bd 04 9a aa 3a 4c 9c b9 3c c2 54 33 3d
       -0.03740752 0.0013015871 0.022657536 0.043782003
0003a0 55 83 aa bd ad 09 ad b9 46 ab 22 3c e9 2d 7c 3d
       -0.08325831 -0.0003300434 0.00992853 0.06156722
0003b0 87 8f 1b bd 01 03 16 3d a5 45 1f 3d b1 75 3d bd
       -0.037978675 0.03662396 0.038884778 -0.046254817
0003c0 eb 5b a1 3c 88 0c 10 3d b9 62 33 3d eb fc 85 bd
       0.01969715 0.0351682 0.04379532 -0.06542381
0003d0 86 0a 35 bc c9 73 2e 3d 74 d9 f3 3c 66 b3 3d bd
       -0.011049872 0.04259089 0.029766776 -0.046313666
0003e0 98 65 47 3c e0 3e 8e bd b8 02 30 3c 70 33 21 3d
       0.012170218 -0.06945586 0.010742836 0.039355695
0003f0 ab 09 8d ba 91 f8 16 3d 56 2d 85 bd bd c2 5b bd
       -0.0010760328 0.036858145 -0.06502788 -0.053652514

fc1.bias f4 [120]
000000 23 73 04 bd 8a 83 ef 3c 8c 87 99 3b 9b 3b 8b 3b
       -0.032336365 0.029237527 0.004685348 0.004249049
000010 d9 da 72 3c 7d 44 85 3d 85 9b cc 3c c5 0b ee bc
       0.014822685 0.06507204 0.024976501 -0.029058347
000020 9f 60 18 3d 43 f8 21 bc f8 f0 83 3d b1 1b 7e 3d
       0.03720152 -0.00988585 0.064424455 0.062038127
000030 77 94 c2 3c c9 9c d3 bb de 92 4e 3d 7e 8c e9 bc
       0.023752434 -0.006457899 0.050433032 -0.028509375
000040 64 aa 06 3c 85 fd f8 3c 6e 2b 88 3d dd a5 32 3d
       0.008219335 0.030394325 0.066489086 0.04361521
000050 a3 3f 44 bd 29 89 d8 3c 76 29 96 bc 2b 41 90 bd
       -0.04791225 0.02643259 -0.018330317 -0.0704368
000060 1d 53 b8 3c 4b cd 85 bd 64 23 95 3b ce d5 0f bb
       0.022500569 -0.06533297 0.004551338 -0.0021947506
000070 a0 95 c6 bc 59 5e 56 3d a5 a2 1b bc 90 fb 1f bd
       -0.024241269 0.05233607 -0.009499227 -0.039058268
000080 f1 9f 28 3d 97 2e 80 3d 77 d9 17 bd f5 62 8b bc
       0.041168157 0.06258886 -0.037072625 -0.01701496
000090 2f c7 6c 3c 43 dc 77 3d 91 e9 8e 3d 80 a9 83 bb
       0.014451786 0.060512792 0.06978143 -0.0040180087
0000a0 5f e6 80 3c 29 14 be ba a5 1f 2e bd 2f 22 64 bd
       0.01573485 -0.0014501858 -0.042510647 -0.055696663
0000b0 4e cb 04 3d f1 b1 b6 bc 4c a7 2c bd 59 97 3e bd
       0.03242045 -0.022301646 -0.042151734 -0.046531055
0000c0 fc 65 c8 3c d8 71 8a 3d cf 4d 90 bd 57 36 3a bd
       0.024462692 0.06759995 -0.07046091 -0.04546198
0000d0 93 3f af bd d2 c8 c8 3c e1 85 20 3d 54 cb b3 3d
       -0.08557048 0.024509821 0.039190177 0.08779016
0000e0 4b b9 59 bd 8a 87 81 3d a4 4a 6c bc 1e 2d 1c bc
       -0.053155225 0.0632468 -0.014422093 -0.009532241
0000f0 e1 b5 50 3d 71 8c ab bc a8 ab 5e bd 53 c8 ef 3c
       0.050954703 -0.020940991 -0.054362923 0.029270327
000100 8c 8c ee bc 16 6f f6 3c 43 cd 8c bd 41 32 81 bd
       -0.029119752 0.030082267 -0.06875088 -0.06308413
000110 45 e9 ad ba 40 ba 38 3d e7 96 23 3d 9c 57 d7 bc
       -0.0013268372 0.045099497 0.039938834 -0.026286893
000120 0b d5 85 3c c0 92 5a bb 21 c3 b0 3a e3 8f 25 3c
       0.016336938 -0.003335163 0.0013485887 0.010105106
000130 70 28 7a 3d 61 3a e8 3c 80 5c 79 bd cd 53 a9 bc
       0.06107372 0.02834815 -0.06087923 -0.020669842
000140 bd bd 9b 3d f2 96 e7 3c eb 26 8e bb 0f 7d e6 bc
       0.07604549 0.028270219 -0.0043381355 -0.028135804
000150 ac 6b 15 bd 3c 85 6f bd 18 00 72 3a b3 bf ab 3d
       -0.036479637 -0.05847667 0.00092315814 0.08386173
000160 24 46 2d bd a1 82 cc 3c 95 3a 8d 3c 24 94 1d bd
       -0.04230322 0.024964632 0.017239848 -0.038471356
000170 7f 7a 1c 3d 88 de 15 3d ef 36 55 3d 86 6d dc 3c
       0.03820276 0.036589175 0.052054342 0.026907694
000180 7e 24 68 3c d5 1e b9 3d 71 33 01 3d 09 3a 8f 3d
       0.014168857 0.09039084 0.0315432 0.06993491
000190 ed 21 8f bc 8a 17 2d bd 3e f2 72 bc e6 74 c0 3d
       -0.017472232 -0.042258777 -0.014828263 0.093972966
0001a0 16 dd a1 bd 08 49 7b bd ce d0 33 bd 97 82 1f bd
       -0.07903497 -0.061348945 -0.043900304 -0.0389429
0001b0 5f 03 d8 3c 41 10 35 3d cb b8 80 bd b9 32 4b bd
       0.026368795 0.044204954 -0.062852465 -0.04960892
0001c0 30 f8 4f 3c 2b 07 2b 3d 5c a3 fe 3c 8a ac 0f bd
       0.01269345 0.041754883 0.031083755 -0.035076655
0001d0 c7 79 c2 3d c0 90 7e bd 54 1a 74 3d ce 96 8d 3d
       0.094958834 -0.062149763 0.05959542 0.06913529

fc0.weight f4 [120, 120]
000000 c9 cd 97 3d 4a d6 10 be e6 ca 01 bd 44 28 09 be
       0.07412297 -0.14144245 -0.03168764 -0.13394266
000010 22 f4 ea 3b 06 fc eb 3d a9 67 11 3d 29 19 84 bd
       0.007170216 0.11522679 0.03549925 -0.064501114
000020 dd 51 95 bd 48 53 57 3c 13 2e 90 39 43 42 74 3d
       -0.07291005 0.013142414 0.00027500148 0.059633505
000030 72 9f 26 3d 18 00 9c bd 95 2c 8c bc 8e fb 20 3e
       0.040679403 -0.076172054 -0.017111102 0.1572096
000040 a8 19 9a bd a0 8e a3 bd a5 f0 cb 3d f0 6d fc 3d
       -0.07524425 -0.07986188 0.09958009 0.123256564
000050 c7 88 f9 bd 1c 95 ab 3d a5 f1 23 bc ee e0 00 bd
       -0.12184291 0.0837805 -0.010006343 -0.03146451
000060 33 78 c1 3d c9 70 98 3d 34 db 72 3d 32 ef e3 3d
       0.09446754 0.07443387 0.05929108 0.11129607
000070 a7 50 6f bd a8 74 4a 3d da 59 a9 3c cb 4a 9d 3d
       -0.058426525 0.04942766 0.020672727 0.07680281
000080 53 cd 4c 3c 0f 50 ae bc a4 3e d6 3c a4 c6 56 3d
       0.012500125 -0.02127841 0.026152916 0.052435532
000090 ba 8f 13 3b e9 e3 b2 bd b9 4a 52 3d 3e 59 02 3e
       0.0022516088 -0.08734877 0.051340792 0.12729356
0000a0 49 20 e8 bd c7 e6 a2 bd 9d b0 90 bd 57 9d b8 bd
       -0.11334283 -0.079541735 -0.07064936 -0.09014385
0000b0 d7 47 1c bd 06 e9 d0 3d f7 97 f3 bd 80 3e ea 3d
       -0.03815445 0.10200696 -0.11894219 0.11437702
0000c0 0d 16 41 3d 11 53 1d bb b4 b1 65 bd 55 67 53 3d
       0.04714017 -0.002400581 -0.056077674 0.051612217
0000d0 30 d7 bf 3d 17 2f f3 bc 55 ac 7b bd 61 03 c2 bb
       0.09367216 -0.02968554 -0.061443646 -0.005920813
0000e0 c5 57 27 bc e6 81 44 bc 6e d9 2e 3c 8c 78 cd bc
       -0.010213797 -0.011993861 0.010671956 -0.025081895
0000f0 90 e4 ba 3b 83 76 29 3e b3 56 28 bd 75 7a a8 3d
       0.0057035163 0.16549115 -0.041098308 0.08226482
000100 59 1a ae 3d ec a1 d9 bb aa 72 32 bc a6 9a 27 be
       0.08501119 -0.006641617 -0.010891596 -0.16367587
000110 eb 9b b4 bd b6 2a 9f 3d e5 c4 66 bd 18 43 2b 3d
       -0.088188015 0.07771818 -0.056340117 0.041812032
000120 1d 53 c8 3c 56 7b 3d 3d 73 5b 3d bc df a7 3f bc
       0.024453694 0.0462602 -0.011557448 -0.011697738
000130 26 a9 ea 3d 55 3b eb bd 95 00 83 bd a2 6f 9d bc
       0.11458044 -0.11485926 -0.063965954 -0.01921827
000140 27 26 ba bc 42 b9 2d bc 68 75 8e 3d e7 28 d3 3c
       -0.02272327 -0.010603251 0.06955987 0.02577634
000150 93 d2 ae bc c6 ae b2 bb c2 32 06 bc 59 f6 08 be
       -0.021340644 -0.0054529635 -0.008190813 -0.13375224
000160 8c 19 e0 bb 6f 39 92 3d 8b 9d c6 3a c9 9d 05 3d
       -0.006838983 0.07139861 0.0015153153 0.03262118
000170 0b 5c 0f bd 51 e7 5b 3a bd 00 70 bd 6a a7 1f bd
       -0.03499989 0.0008388656 -0.058594454 -0.038978018
000180 36 f4 85 3d 2a 6d 9f bc fb d5 be bc 4e e7 a1 3d
       0.0654072 -0.019461233 -0.023295393 0.07905446
000190 d2 c3 30 bd a4 ba 03 3d c6 cd 9b 3d da 30 8f 3a
       -0.0431555 0.032160416 0.076076075 0.0010924593
0001a0 d7 18 c1 3d 40 af 8b bc 2e 7e de 3a 59 b8 d3 3d
       0.09428566 -0.01705134 0.001697486 0.10337896
0001b0 a1 79 c8 bc ca 48 ec bc 16 d5 ca bd 7c 46 43 bd
       -0.02447206 -0.028843302 -0.09903924 -0.04767464
0001c0 5b 73 22 be 19 2a a9 bd 16 89 e4 3d 54 14 d4 bc
       -0.15864317 -0.082599826 0.111589596 -0.0258886
0001d0 03 a7 be 3d 36 a6 6e bd 08 27 ae 3d 71 07 97 bd
       0.09309199 -0.05826398 0.08503538 -0.07374466
0001e0 70 e2 b1 3d ab c2 c0 3c e0 ed 87 3d b6 ed 15 3d
       0.08685768 0.023530325 0.06637168 0.036603652
0001f0 1e 65 91 3d 07 10 0f 3e 26 a1 0f bb 40 aa ca 3d
       0.07099365 0.13970958 -0.002191612 0.09895754
000200 7b ec b8 bc 71 2a 37 3c c1 43 27 bd 3e 21 e2 3d
       -0.0225737 0.011179552 -0.0408361 0.11041497
000210 32 e3 b2 3c 24 f4 91 3d 6e 3d a5 bd 19 87 16 3c
       0.02183685 0.07126644 -0.080683574 0.009187483
000220 19 8c 9d bd de 34 9c 3d 9f 84 88 3c 35 7b 79 bd
       -0.07692737 0.07627271 0.016664801 -0.060908515
000230 b1 44 96 bd 97 d1 31 bc 25 67 e2 3d be c2 01 bd
       -0.073373206 -0.010853193 0.110548295 -0.03167986
000240 ef eb 32 bd 8f 62 e3 bd d7 e1 4a bc 3e 9e 6f bb
       -0.043682035 -0.11102783 -0.012382946 -0.0036562826
000250 19 0e b6 bd c3 0b b0 3c 99 f9 84 3d 04 92 d7 bb
       -0.08889408 0.021489983 0.064929195 -0.0065786857
000260 06 ea bd bd 3a f1 ac bd d4 cf 6c 3d 85 8b 77 bd
       -0.09273152 -0.08444448 0.057815388 -0.06043579
000270 a5 f3 5d bc 69 b0 5a bd aa 11 72 3d 55 9f ad 3d
       -0.013546859 -0.053390894 0.059098877 0.08477656
000280 85 a7 00 be 98 57 b9 3d 74 56 84 3d 31 d3 12 bd
       -0.12563904 0.0904991 0.06461802 -0.03584594
000290 8c 31 cc bd 1a e9 89 3d d6 57 ad bc 30 96 ef 3c
       -0.09970388 0.06733914 -0.021160048 0.02924642
0002a0 10 76 48 3d c6 95 f3 bb 75 f1 a0 3c d1 df c3 3d
       0.04894072 -0.007433626 0.019646386 0.09564174
0002b0 ba f7 9c 3d 79 80 ab bd d6 cd 96 bd 31 75 73 3d
       0.076644376 -0.083741136 -0.07363479 0.059437934
0002c0 4c ec 3f 3c 7b 15 01 be e9 81 8a 3d de c3 76 3d
       0.011714052 -0.1260585 0.0676306 0.060245387
0002d0 ca eb 40 bd d7 83 4e bd 73 09 3c 3d 12 08 09 bd
       -0.047099866 -0.0504187 0.04590745 -0.033454962
0002e0 42 58 78 3d a2 b8 82 bd 3d 71 3c 3d eb ea cc bd
       0.060631044 -0.06382872 0.04600643 -0.100057445
0002f0 b5 03 b3 3b 10 0a 12 bd b8 42 05 3d 24 e5 53 bc
       0.0054630884 -0.035654128 0.03253433 -0.012933049
000300 bb 44 80 3d 1b fc 74 3d c8 31 30 bb bc 13 98 3c
       0.06263109 0.05981074 -0.002688514 0.018564098
000310 6c ca a1 3d 2f 64 30 3c 94 2f c5 bc e1 ca 2b 3d
       0.07899937 0.010766073 -0.024070539 0.041941527
000320 c9 97 0e bd 83 71 bf 3b 81 16 b2 bd c6 51 c6 bc
       -0.034812722 0.005842389 -0.086956985 -0.024208914
000330 94 9b b8 3c c8 38 8c bd 54 99 b9 3d 8c 1a 4a bc
       0.022535123 -0.06846768 0.09062448 -0.012335431
000340 a8 ef bd bb c3 0b 93 bb db 8a 0e 3d aa 38 85 bd
       -0.0057963915 -0.004487486 0.03480039 -0.065049484
000350 ef a5 e1 3c 1f 11 bc bd d8 1c 65 bd 40 4c 14 3e
       0.027544944 -0.09182953 -0.05593571 0.14482212
000360 d3 77 2b 3d e8 58 c3 3d 73 23 a5 3d 01 73 4e 3d
       0.04186232 0.09538442 0.08063402 0.050402645
000370 8e fa 1d be df d5 a9 bd 4b 32 b6 bd 45 3a c4 bb
       -0.1542761 -0.08292746 -0.08896311 -0.0059883916
000380 85 18 42 bb 91 ea ba bd d0 fc 24 3d e1 c5 a0 bd
       -0.0029616666 -0.09126771 0.040280163 -0.078502424
000390 8c a5 17 3e f8 62 9f bb ac 00 4a bd d9 89 bb 3d
       0.14809245 -0.004864093 -0.049317047 0.09157152
0003a0 64 d2 aa bd 15 c6 67 bd 66 26 f5 bc be fa 0e 3d
       -0.0834091 -0.05658539 -0.029925536 0.034907095
0003b0 99 66 ec 3d 64 fb c5 bc 81 a7 28 3e d7 73 2a bd
       0.115430064 -0.024167724 0.16470148 -0.04161438
0003c0 6d c8 b8 3d 79 f4 a5 3d 23 cd ce 3d 70 a5 91 bc
       0.09022603 0.0810327 0.100977205 -0.017779082
0003d0 46 34 93 3d 75 bf 86 bb 9a ea a0 bc 3d c3 a0 bc
       0.07187705 -0.004112179 -0.019643117 -0.019624347
0003e0 e0 6e c0 3d f3 1a 66 bd 20 c1 20 be 8c 35 6a 3c
       0.09396148 -0.056178045 -0.15698671 0.014294993
0003f0 1c 75 6f 3d 77 18 68 3d d5 00 eb bd 60 a2 9f bd
       0.058461294 0.056663956 -0.11474768 -0.077946424

fc0.bias f4 [120]
000000 d3 6d f1 3c 83 17 62 3d ab ba b3 3c 55 9f b6 bb
       0.029471314 0.055198204 0.021939596 -0.005573193
000010 44 9e 0b bd b7 70 90 3c 8e 29 8e ba 1c 5d a4 3d
       -0.03408648 0.017631872 -0.0010846124 0.08025572
000020 f5 4d 89 bd 46 8a 28 3d a5 5e 8d 3d e9 f0 af bc
       -0.06704322 0.041147493 0.06902818 -0.02147718
000030 63 e6 73 bd 7a f6 8b bd 52 75 10 3d 41 38 a4 bb
       -0.059545886 -0.06834121 0.035268135 -0.005011589
000040 ee c7 01 3e 42 64 3f 3d 02 5f 9e bc 04 f4 7e 3d
       0.12673923 0.046726473 -0.019332413 0.06224443
000050 b4 fe ab 3d 3a 55 9c 3c d3 41 f9 bc bb f4 95 3d
       0.0839819 0.019083608 -0.030426895 0.07322069
000060 97 cc 23 3d e7 05 80 bd 81 85 e6 3d 89 d0 43 bd
       0.039990034 -0.06251126 0.112559326 -0.047806296
000070 84 32 b1 3d 24 5e 3a 3c 4e b3 2d 3d 68 6e 8b 3c
       0.08652213 0.011374984 0.042407326 0.01702042
000080 c4 37 d6 bc 85 63 a1 3c b5 1b 8d bd 15 bf 06 3d
       -0.026149638 0.019700775 -0.0689005 0.032897074
000090 bb 27 fc 3d 34 c3 ae 3d 5e 14 f9 bc 86 97 f8 3c
       0.123122655 0.08533326 -0.03040522 0.03034569
0000a0 08 41 97 3d 6e 55 43 bd 17 41 f7 3c b8 d4 d2 3d
       0.073854506 -0.047688894 0.030182404 0.10294479
0000b0 ae b7 41 3d 9d e8 ec 3c be cd 0c bd 86 d2 53 bd
       0.04729431 0.028919512 -0.0343759 -0.051714443
0000c0 cd 82 86 bd c7 f6 0c 3e 6d c2 46 bd ee 22 d7 bc
       -0.06567917 0.13766013 -0.048525263 -0.026261773
0000d0 e7 96 1b bd 68 1f 62 3d 37 b6 b1 3c a3 27 16 bd
       -0.03798571 0.055205733 0.021693332 -0.036658894
0000e0 6d ec b9 3b 48 dc 3f 3d ca ce a9 bc 78 bf cc bc
       0.005673936 0.046840936 -0.020728488 -0.024993643
0000f0 db 75 ec 3c 4f 97 89 3d df 7b a8 bd eb a6 be 3d
       0.028864792 0.06718313 -0.082267515 0.09309181
000100 0f 9f e0 bc 40 cb 40 3d 65 7e e5 bc bf 54 d8 3b
       -0.027419595 0.047068834 -0.028014371 0.0066018994
000110 aa 1e 91 bd f6 da aa bd 68 f7 be 3d 68 7d 55 bb
       -0.07085927 -0.08342545 0.09324533 -0.0032575969
000120 a8 20 0c bd 21 46 c4 bd b4 bc 0d 3d 10 54 a3 3c
       -0.03421083 -0.095836885 0.03460379 0.019937545
000130 12 a4 40 3d 5c 81 71 bc 6e ef 2b bd da 02 1f bd
       0.04703147 -0.014740314 -0.041976385 -0.03882108
000140 f0 36 cd 3c dd c4 c1 bc 8d 69 50 3b 70 db e2 3d
       0.02505061 -0.023653442 0.0031801194 0.11077011
000150 c1 2c 0f 3e ce 5a e2 3d ae 02 f4 3b 85 1b a1 3c
       0.13981916 0.11052476 0.0074466085 0.019666443
000160 51 a3 83 bd f7 92 9e 3c f0 08 4f bd c9 6e 5b 3d
       -0.064276345 0.019357188 -0.050545633 0.05357245
000170 41 13 a0 bd a5 66 81 ba ed fe 03 bd f2 06 61 3c
       -0.078161724 -0.0009872509 -0.032225538 0.013734566
000180 d1 de 06 be 97 0a 6d 3d 44 ba ae ba 37 54 76 bc
       -0.13170935 0.057871427 -0.0013330658 -0.015034727
000190 27 39 10 bc c3 53 6d 3d a6 85 56 bd 15 ac 95 bd
       -0.008802689 0.05794121 -0.05237355 -0.07308213
0001a0 87 3f 3e 3d e4 08 93 3d a0 95 ab 3c 9d 7c 2d 3d
       0.046447303 0.0717943 0.02094537 0.04235517
0001b0 0c c8 d7 bd 65 0c 32 3d d1 5b 81 3d 27 ed bd bd
       -0.10536203 0.04346885 0.06316341 -0.09273749
0001c0 b1 e6 e8 3d ec fe 5a bd 33 1f f9 bc dc b8 c1 bc
       0.11372126 -0.05346577 -0.030410385 -0.023647718
0001d0 28 a7 e5 bc 57 93 3f bd 5f 4e e6 3c 5b 0d fc 3d
       -0.028033808 -0.046771374 0.028113542 0.12307235

fc2.weight f4 [84, 120]
000000 f4 60 3f 3c 8b bf d2 bc f2 30 86 3d 9e 38 4f bd
       0.01168083 -0.0257261 0.06552304 -0.050591104
000010 1d da 95 bd b0 e6 8c 3d b9 fb 7c 3d c6 c1 56 3c
       -0.073169924 0.06879938 0.0617635 0.013107723
000020 cb 99 f7 bc bf 2e 4f 3d 31 68 64 3d 18 2e eb bd
       -0.030224701 0.05058169 0.055763427 -0.11483401
000030 76 e7 52 bb 32 c6 01 be f1 db cd 3d 17 0b 0f 3e
       -0.0032181419 -0.12673262 0.10051716 0.13969074
000040 40 0a 5a 3d e0 b4 a8 bd 5d 1d 8b bd 38 c0 c0 3c
       0.05323243 -0.08237624 -0.0679271 0.023529157
000050 b9 33 48 bd 7e bb 17 3d 80 7b 32 3c 0d 09 a0 bc
       -0.04887745 0.03704404 0.0108937025 -0.019535566
000060 a9 b7 20 3c 80 1a 55 3d 89 c3 d2 3d 31 2c e1 bc
       0.009809413 0.052027225 0.102912016 -0.027486892
000070 cc b2 2f 3d 9d 70 ed 3c 7a c0 3a 3d 5f 87 11 bd
       0.042895123 0.028984362 0.045593716 -0.03552949
000080 c5 bf 48 3c 51 05 f0 3d ff fa 1c 3d 19 64 d8 3d
       0.012252753 0.11719764 0.038325306 0.10565967
000090 da 97 61 bc 0e 2f 12 3d 89 3a c0 bd 64 da 36 bc
       -0.013769114 0.035689406 -0.09386165 -0.011160467
0000a0 a1 2a 60 3d a9 e6 86 bc a9 ea b5 3a a3 8c 28 bd
       0.054728154 -0.01646741 0.0013879138 -0.041149747
0000b0 77 9c 26 3c fb 78 2b bd 32 a6 f5 3d 09 d7 d5 3c
       0.01016914 -0.041863423 0.1199459 0.026103513
0000c0 0a e0 f7 bd 5d b2 d3 3d c3 4d f7 3d b0 6a 3b 3d
       -0.12103279 0.103367545 0.12075379 0.045756042
0000d0 3d b0 6a 3d 37 f2 4f 3d a2 7f 9d 3c 81 f1 cb 3d
       0.05729698 0.050768103 0.0192259 0.099581726
0000e0 01 33 13 3d 2c 5d 03 3d f8 c5 85 3d 1a 8e ce 3b
       0.035937313 0.032071277 0.065319 0.006303561
0000f0 3c c4 7a bd eb 5c 6f bd c5 5c b4 3c 10 3e 91 3d
       -0.0612223 -0.058438223 0.022016892 0.070919156
000100 ef b9 f9 3d 4c cf 50 3d 91 49 8f bc aa 85 04 be
       0.12193667 0.050978944 -0.017491134 -0.12941614
000110 4a 37 ee 3d e3 1b 18 3d 1d cc a2 bc cd 7b b8 bd
       0.11631639 0.03713597 -0.01987272 -0.09007988
000120 24 d7 69 3b 5a 6b 47 bd 55 7b 7c bc 8a ba 71 3d
       0.0035681212 -0.048686363 -0.015410264 0.05901579
000130 bb 04 62 bd 78 41 f2 3c 80 be 96 bd d1 14 de bd
       -0.055180293 0.029572234 -0.07360554 -0.10843814
000140 7a 6a c4 3d 19 12 9f bd 6f d6 5f bd ca 6a e5 3c
       0.09590621 -0.07767124 -0.05464786 0.028005023
000150 b3 3a 92 3d be 7d 58 bd 42 78 b4 bd 16 0d 98 bd
       0.07140102 -0.052854292 -0.08812 -0.07424371
000160 25 22 f0 3d a6 4b 43 bd 35 8d 0d bb b0 c7 fa 3d
       0.117252626 -0.047679566 -0.0021599059 0.122451186
000170 57 1a 0d 3d 00 8e 0d 3d e1 b3 be 3d 06 97 92 3d
       0.034448948 0.03455925 0.09311653 0.07157712
000180 84 da a4 3d a5 a2 01 bb 27 67 83 bd 37 20 bf bd
       0.08049491 -0.0019780782 -0.06416159 -0.09332316
000190 44 f3 f1 bc 26 ae 4c 3d 2b d9 80 b9 a0 6e 4a bd
       -0.029534943 0.04997077 -0.00024575865 -0.049421906
0001a0 cd 0d 12 bd e2 40 18 bd 89 c9 24 3e b6 a0 69 bd
       -0.035657693 -0.037171252 0.16092505 -0.05703803
0001b0 b9 8b 77 3d 64 1d 7e 3d 71 c9 1b bd fd b4 73 3d
       0.060435984 0.062039748 -0.038033906 0.059498776
0001c0 65 90 a3 3d 04 29 a7 bc be ff a4 bc ec df 83 3c
       0.079865254 -0.0204053 -0.020141479 0.016097985
0001d0 3e d8 89 bc 22 ab 23 3d df 79 b5 bd 0b 96 c0 3b
       -0.016826745 0.039958127 -0.08861136 0.0058772615
0001e0 24 07 f1 bb 71 71 ac 3c 31 f6 70 bc aa 55 e5 bb
       -0.0073555876 0.021050187 -0.014707134 -0.0069987373
0001f0 4b 24 52 bd 09 36 8f bd dc 0d 45 bc 6b 09 1b bd
       -0.051304143 -0.06992728 -0.01202723 -0.03785078
000200 7a 07 ee bb 5e 6c db 3c c0 67 2e 3e 4b a0 09 3e
       -0.007264075 0.026785072 0.17031765 0.13440053
000210 7f ee dd 3d dc 98 d7 3d fa b5 d9 3d d9 cc ee 3d
       0.10836505 0.105272025 0.106304124 0.11660165
000220 f4 22 0f 3e 76 f0 b0 3d 89 52 2f 3e 96 d7 8f bd
       0.13978177 0.08639614 0.17121328 -0.07023542
000230 16 48 76 bd a0 c5 83 3d 96 3f a4 3d f6 00 ef 3c
       -0.06012734 0.06434178 0.080199406 0.029175263
000240 2a 78 90 bd eb 00 74 3d d2 62 ec 3d 6c 14 b2 39
       -0.070541695 0.059571188 0.11542286 0.0003396602
000250 fc 09 9d bd e1 3e f0 3d 79 57 42 3d bc 15 c2 3c
       -0.0766792 0.11730743 0.0474467 0.023692004
000260 51 75 5b 3c 88 ec 01 bd 5d 29 b2 bc 37 9d 78 3d
       0.01339467 -0.031719714 -0.02174824 0.060696807
000270 b0 49 a4 bd c4 e7 48 bd 35 39 f9 3b 57 64 ab bb
       -0.08021867 -0.049049154 0.0076056966 -0.0052304673
000280 9b ff b0 bd 12 41 44 bc c0 9a ad bd 98 81 28 be
       -0.08642503 -0.011978405 -0.08476782 -0.16455686
000290 f6 67 2f bc 1f 53 d1 bd 1e cb 2d bd 7d fb e5 bd
       -0.010705939 -0.10220932 -0.042430036 -0.11229608
0002a0 a7 7e 8e bd 84 da f7 3d 9c d9 88 3d a4 ef fc 3d
       -0.06957751 0.121022254 0.06682131 0.12350395
0002b0 39 52 10 3e fe 89 dc bd fd 24 13 3c cd e4 8c 3c
       0.14093865 -0.107685074 0.008980987 0.017198944
0002c0 04 52 a7 bc 40 60 c4 bd bc f5 28 3e cd 1e 92 3d
       -0.02042485 -0.09588671 0.1649999 0.07134781
0002d0 9e 8a 3d 3d 95 4e 74 3d 5c 26 b0 bc a9 1a 8a 3a
       0.046274774 0.059645254 -0.021502666 0.001053651
0002e0 7f cc 52 bd 8d 3f 17 3d 2d b9 1a 3d 88 7b 42 3e
       -0.051464554 0.03692584 0.037774254 0.18992436
0002f0 e8 cf ac 3d ac 26 e5 3c 17 5c b5 3d 90 a4 28 3d
       0.084380925 0.027972542 0.08855455 0.041172564
000300 1d 25 ea bc 2c 25 6c 3d 4d 3a a2 3d 82 5b 53 3d
       -0.02858215 0.057652637 0.07921276 0.05160094
000310 f1 d9 f1 3b 85 ba 6f bd 54 bd 77 3d e3 c3 ba 3d
       0.007380717 -0.05852749 0.06048329 0.09119394
000320 3e bb f7 bc 58 1d db 3d d2 b7 ee 3d a7 fd 1e 3d
       -0.030240651 0.10698956 0.11656155 0.03881612
000330 37 5c f3 bd 30 58 89 bd eb 68 51 3d 1f 48 44 bd
       -0.11882823 -0.067062736 0.05112545 -0.047920343
000340 1f a3 0b 3d 49 95 1c 3e 57 03 14 3e 3b d7 9f 3d
       0.03409111 0.15291323 0.14454399 0.07804724
000350 4e 58 44 3d 3a 8a 8c 3d cd 68 89 3d 31 6a a6 bd
       0.047935776 0.06862302 0.06709442 -0.08125723
000360 2d 41 91 3c 26 26 90 bb d7 46 72 3d 97 57 f0 3d
       0.017731274 -0.004399079 0.05914959 0.117354564
000370 9d 92 f0 3d 2c e9 03 3d 2e de c3 bc d8 fe c6 3d
       0.11746714 0.032204792 -0.023909654 0.09716576
000380 da f0 a4 bd 11 b4 2e 3b 99 91 9a bd 1f c5 3e 3d
       -0.08053751 0.002665762 -0.07547302 0.046574708
000390 a6 33 23 bd d6 b6 98 3b e1 91 d1 bd 20 3e d8 bc
       -0.039844178 0.0046604676 -0.10232902 -0.026396811
0003a0 ae 8d 1f bd 84 82 e6 3d aa af 6c 3d 35 22 36 bd
       -0.038953476 0.11255363 0.057784714 -0.044466216
0003b0 02 3a 6d 3d 76 11 06 3d 76 2d 82 3c d0 e6 c9 bd
       0.05791665 0.032731496 0.015890818 -0.09858477
0003c0 02 36 dd 39 0b 29 17 3d 49 4e 9e 3d 82 ff 86 bb
       0.00042192644 0.036904376 0.077297755 -0.0041198144
0003d0 ff 07 bc bd 7c 06 00 3d 5b dc 22 bd 06 6c b9 bc
       -0.09181213 0.031256184 -0.03976093 -0.022634517
0003e0 01 10 56 bd 11 3b 50 bc 33 e6 91 3d 7e 71 78 3d
       -0.052261356 -0.012709395 0.07123985 0.06065511
0003f0 da 25 52 3d 3c df d6 3d 91 6c 31 3d 8b 41 48 3d
       0.05130563 0.10491797 0.043316428 0.04889063

fc2.bias f4 [84]
000000 b7 2f 9c 3b aa 20 a2 3d 92 26 ca bc cc 16 d0 3d
       0.0047664302 0.079163864 -0.024676595 0.10160598
000010 74 b8 ca 3d 4e ae db 3d e5 b7 a5 bc e9 fc 34 bd
       0.09898463 0.10726605 -0.02022929 -0.044186506
000020 48 a8 a1 bd 8e f0 fa bc d3 01 8f 3d 5b 0a aa 3d
       -0.07893425 -0.030632284 0.0698277 0.083027564
000030 da e6 d5 3c b8 85 a8 3d 52 13 b3 3c 7c a5 7a bd
       0.026111055 0.0822863 0.021859799 -0.061192974
000040 fd de 88 bd fc 95 b8 3d f7 15 fb bc ed 3d 34 bd
       -0.06683157 0.09012982 -0.030650122 -0.04400437
000050 7c b5 89 bc ed 46 13 bd 3c ef 79 3d 1c 25 6a 3d
       -0.016810171 -0.035956312 0.061019167 0.057164297
000060 0d 75 54 3a b4 3c fd 3c 5b 37 e0 3d e4 a8 e5 bc
       0.00081046 0.030912735 0.10948058 -0.028034635
000070 d2 83 0f bd 24 99 00 3c 19 37 5b 3d 6c f6 51 3b
       -0.035037823 0.007849012 0.053519342 0.0032037748
000080 bd 2b bf 3d 40 29 88 3c 68 3d aa 3d 26 4d 99 bd
       0.09334514 0.016621232 0.083124936 -0.07485418
000090 48 f6 55 bd 39 0f fb 3d 44 5e 58 bd 69 a4 9b bd
       -0.052236825 0.12258763 -0.052824274 -0.07599718
0000a0 56 72 6e 3d 92 ad 26 3d 4d 2e fd 3d 34 77 81 3d
       0.058214508 0.040692873 0.12362347 0.06321564
0000b0 ac 4c cc 3d f0 fd 8c 3d 81 65 60 3d b1 05 b3 bd
       0.099755615 0.06884372 0.0547843 -0.0874132
0000c0 65 57 cb 3d 7e e0 0b bd 32 02 c2 3d f0 57 d0 3b
       0.099287786 -0.03414964 0.09473075 0.006358139
0000d0 90 bf c9 3d 6e 34 75 bd 43 4f 63 3d 89 07 bd bd
       0.09850991 -0.059864454 0.05549551 -0.09229953
0000e0 47 46 70 3d 74 e5 3e bd ac 13 ee 3d 88 2b 45 3d
       0.05866077 -0.046605542 0.11624846 0.048137218
0000f0 e3 0e d3 bc 41 ac 06 bd 73 f3 16 3d 4d 17 88 3a
       -0.025763934 -0.032879118 0.036853265 0.0010382921
000100 a1 ba ba 3d 22 ee 62 bb 59 4c 6e 3c b4 53 8b 3d
       0.09117628 -0.0034626801 0.01454457 0.068030745
000110 e8 df b6 3d 9d 44 0a 3e 99 3f f1 3b 9d b0 78 3d
       0.089294255 0.13502736 0.0073623178 0.060715307
000120 23 82 b8 bd eb 98 0a bc 0e 3d b9 3d df a6 1c bd
       -0.090091966 -0.00845931 0.090448484 -0.03824508
000130 d1 b5 3b bd 3e dc 7d bd 50 9d 80 bd 53 b4 ff 3d
       -0.04582769 -0.061977617 -0.06280005 0.12485566
000140 01 44 a4 bb cf 1c 7e bd 5f d5 2a bd 31 10 56 bd
       -0.0050129895 -0.062039193 -0.041707393 -0.052261535

fc3.weight f4 [10, 84]
000000 5e 2f 13 be 40 26 a9 3c 16 44 e0 bd 0a 68 ab bd
       -0.14373538 0.020648122 -0.10950486 -0.08369453
000010 fa 8c c0 3d a3 e5 1a be e5 60 3b 3d 34 7c f0 3b
       0.09401889 -0.15126662 0.045746703 0.007339025
000020 fe 04 06 bc 2a 87 04 bc 2e 53 9c bd 3a fe 64 3c
       -0.008179901 -0.008088866 -0.07633053 0.013976628
000030 50 9e 19 3e fa 47 07 3e f7 92 1c be c6 9e 4a bc
       0.15001798 0.1321105 -0.15290438 -0.012366956
000040 7c 41 55 bd 72 48 e0 bc eb d6 d8 bd 3a 1a 08 3b
       -0.052064404 -0.027378295 -0.10587867 0.0020767585
000050 48 ae cd 3d 4e d3 b8 bd 93 61 26 3a 3d 07 62 bd
       0.10043007 -0.09024678 0.0006346937 -0.055182684
000060 21 18 c5 3d 58 b7 0e be a7 55 17 be c5 37 28 be
       0.09623743 -0.13937128 -0.14778768 -0.16427524
000070 eb 73 34 be cc b0 4e be e9 01 01 3e 59 0e 98 3d
       -0.17622344 -0.2018463 0.12598385 0.074246116
000080 7d 20 1c be 1b 95 0b 3e a9 35 a5 3d 1b a6 e3 bd
       -0.15246768 0.13631098 0.080668755 -0.111156665
000090 6a 02 91 bd 46 c0 60 be 3d 83 35 be 8f 3b 2e be
       -0.070805386 -0.21948346 -0.17725845 -0.17014907
0000a0 5d ba 64 bd 49 9f 19 bc cb 0f 5f be 71 f3 fb bd
       -0.055841792 -0.009376355 -0.21783368 -0.12302292
0000b0 09 34 12 be 92 9f a1 bd 45 ea 21 3d ee ef 43 3d
       -0.14277662 -0.07891764 0.039530057 0.047836237
0000c0 01 10 0e 3d 58 f7 f1 3d d6 ad 48 be 83 72 04 bc
       0.03468323 0.11814755 -0.19597563 -0.008083942
0000d0 66 77 13 be 08 16 0f be 25 0e cd bd bf be ab bd
       -0.14401016 -0.13973248 -0.100124635 -0.08385991
0000e0 bc e6 31 be 0c 0e 08 3e 46 e1 09 3e 78 0d f0 bd
       -0.17373174 0.13286608 0.13464841 -0.11721319
0000f0 83 30 ad 3d 3f 99 55 bd 7b 24 42 3d 67 8d b3 3b
       0.084565185 -0.0521481 0.04739807 0.005479503
000100 e2 72 03 be 22 09 2b be 0a 1a 4d bd df a4 09 3d
       -0.12836793 -0.16702703 -0.05007366 0.0336045
000110 50 f0 f2 bd a8 f5 13 be 1b 94 c3 bd c8 1b b9 3d
       -0.11862242 -0.14449179 -0.09549733 0.09038502
000120 68 d9 e7 bc f2 ac 9e bc cd 3b f2 3d e4 e8 cd bc
       -0.02830191 -0.019369576 0.11827812 -0.025135465
000130 53 65 18 be e7 01 28 3d 66 4f 34 bd ae 94 9a 3d
       -0.14882402 0.04101744 -0.044021033 0.0754789
000140 7c c0 14 3e 3d 11 1b be 7a 0f e9 bd 63 6b 05 be
       0.14526552 -0.15143295 -0.11379905 -0.13029246
000150 67 83 fa 3d d1 a6 eb bd cd 43 91 bd 4f 9a 59 be
       0.12232094 -0.11506427 -0.0709301 -0.2125027
000160 61 3a 67 be 21 12 ee bd 7a 05 f1 3d b7 9b 90 3d
       -0.22580864 -0.116245516 0.11768623 0.0706095
000170 b0 a1 e6 3c 60 aa 2a 3e 25 12 ac bd 3e 92 15 3c
       0.02815327 0.16666555 -0.08401898 0.009129105
000180 6c 13 ea 3d cc 2e 2f be d7 2f 98 3d eb 9a 58 be
       0.11429486 -0.17107695 0.07431 -0.21152847
000190 8c 6e 0d be 1e fd 5c 3c a2 31 41 be 5c fc 0c be
       -0.13811702 0.013488082 -0.1886659 -0.13768142
0001a0 34 0f 53 bd 2f 26 99 bd 4e a6 36 be 9b 78 19 3d
       -0.05152817 -0.07477986 -0.17836878 0.037468534
0001b0 b5 7c 81 bc fb 45 ec 3c 1d 29 3a bc 7e 94 5b bd
       -0.015806535 0.028841963 -0.011362341 -0.05360841
0001c0 ea 1e c0 bd ae 83 1c be c6 14 33 be f9 2d 92 bd
       -0.093808964 -0.15284607 -0.17488393 -0.07137675
0001d0 ad de 67 be c1 39 39 be 7b 45 1c bc f6 bb 11 3d
       -0.22643538 -0.18088438 -0.00953805 0.035579644
0001e0 14 89 e1 bd 58 d9 d2 3d b1 ae e6 bd 2e d8 1e be
       -0.11012474 0.10295361 -0.112637885 -0.15512154
0001f0 44 88 03 3e c5 99 b7 3d b1 aa c5 3d 1b 54 a9 bd
       0.1284495 0.08964876 0.096516974 -0.08267995
000200 e1 c2 94 bd c0 a1 fa bd dd 93 c1 3c c1 a4 f7 bd
       -0.07263733 -0.122378826 0.023630077 -0.12091971
000210 c6 24 42 3e 31 18 28 be a4 7c 04 3e ba 32 84 bd
       0.1895934 -0.16415478 0.12938172 -0.06454988
000220 52 b5 1a 3c 2f f1 07 be ef 7f 54 3d b7 de 2f be
       0.009442644 -0.13275598 0.05187982 -0.17174803
000230 09 a1 f0 3d 46 80 b4 bd 80 dd 7a 3d 0c 6d 44 be
       0.11749465 -0.08813529 0.061246395 -0.19182223
000240 b9 86 d6 3d ab 74 ae bd bf 87 23 bd cb f3 2e be
       0.10474915 -0.085183464 -0.03992438 -0.17085187
000250 c0 a1 10 3e 22 ba 5a 3d 6f 77 33 be 58 1a 06 3e
       0.14124203 0.053400166 -0.17526029 0.13095987
000260 b2 3a 10 3e f5 62 23 bd f0 56 f2 3d 29 12 cc 3c
       0.1408489 -0.039889295 0.11832988 0.024911003
000270 9a 13 4c 3d 2e c4 df 3d 37 ee 24 bd 17 fe b9 bd
       0.04982338 0.1092609 -0.040266242 -0.09081667
000280 7b 4b cd 3d eb 10 36 3d 41 44 0a be 20 fe 0d be
       0.100241624 0.044449728 -0.135026 -0.13866472
000290 1d 2f 2f bd 7c 50 bf 3d 1e 68 47 be 60 23 0f 3d
       -0.04276954 0.09341523 -0.19473311 0.034945846
0002a0 76 09 81 bc f7 39 8b 3d 76 77 a1 3c 92 0f 06 3e
       -0.015751582 0.06798165 0.019710284 0.13091877
0002b0 8e 60 90 bd b6 cb be bb 45 32 9b 3c 00 cb 7d 3d
       -0.07049666 -0.005822624 0.018944869 0.061961174
0002c0 ad c5 0b bd d3 2d 57 3d d1 12 ef bd 37 c2 0f be
       -0.034124065 0.052533936 -0.11673511 -0.14038931
0002d0 ce dd 9b 3d bd 5c 27 3c f2 96 9a bd b9 12 c5 39
       0.07610665 0.010214982 -0.07548322 0.00037588718
0002e0 0d c1 f0 bd e5 10 2e bd 0e 6c be 3c b5 5d 28 be
       -0.117555715 -0.04249658 0.023244884 -0.16441996
0002f0 23 98 44 be 0a e1 20 3d 52 23 84 bd 35 46 1e 3d
       -0.1919866 0.039277114 -0.06452049 0.038641173
000300 ee a3 d9 3c c0 e5 e4 bd 7b d7 dc bd 78 36 90 3c
       0.026567426 -0.11176634 -0.10783287 0.017604098
000310 be d4 b9 3d 6a 8c 3b be 59 61 6e 3d 7a 6a 08 bd
       0.090737805 -0.18315282 0.058198307 -0.03330467
000320 c1 a9 7b bd 07 2c 21 3d cd 3a bd bd c6 8d ed 3d
       -0.061441187 0.03934863 -0.09239731 0.11599307
000330 36 25 93 3d 6c 35 36 3c 2a ab 2c bd b4 16 c3 bd
       0.07184832 0.011121135 -0.042155422 -0.09525815
000340 ea ca ba 3d 60 0b a1 bc 17 84 62 bd fa 7c 23 3e
       0.09120734 -0.019658744 -0.055301752 0.15965644
000350 da 1f 02 be e4 7f a2 bc d8 51 00 3d 65 31 8b bd
       -0.12707463 -0.019836374 0.031328052 -0.06796531
000360 d3 0c 80 be 43 e1 f5 3d e3 0e 1f 3c 26 a7 f6 3d
       -0.25009784 0.12005856 0.009708139 0.120436
000370 f1 a5 82 bd fb b4 e9 bd 05 1b 10 be a4 e4 38 bd
       -0.06379307 -0.114114724 -0.14072807 -0.045139924
000380 67 30 e6 bd 89 b3 3d 3d ae 99 e5 bd fa 3c 08 3d
       -0.11239701 0.046313796 -0.11210953 0.033261277
000390 4a 91 3f bd 1e 03 3d be 54 fa 10 3e 49 cf 16 3d
       -0.046769418 -0.1845822 0.14157993 0.036818776
0003a0 fb 09 50 3d c0 c6 be 3d 48 dd 39 3d 40 67 ed 3c
       0.050790768 0.09315252 0.045377046 0.028979897
0003b0 a2 e5 e5 3d 01 39 36 be ea e2 c7 3b a8 8a 8a bd
       0.112254396 -0.17795183 0.0061000483 -0.06764728
0003c0 b7 70 18 bd 9b bf b3 bd f7 74 f9 bd fd 58 67 3d
       -0.03721687 -0.0877678 -0.121805124 0.05648135
0003d0 0a 94 08 bd fe 8b 16 be b0 b4 ed 3b cf 77 7b 3b
       -0.033344306 -0.1470184 0.0072542056 0.0038370972
0003e0 31 47 8d bd 09 7f 90 be c9 c1 0f be 8d e3 c7 3d
       -0.06898344 -0.2822192 -0.14038767 0.09760199
0003f0 7e 14 8a bd bf df 98 bd 68 b5 a7 3d cc 8d 6f bd
       -0.0674219 -0.07464551 0.08188897 -0.058484837

fc3.bias f4 [10]
000000 c5 2a 08 3d 27 9d 3c bd 1f 45 0f be da e4 d3 b9
       0.033243913 -0.04604831 -0.13991211 -0.00040415564
000010 46 36 9d bd b4 82 7d bd 0d dd bf bd 19 3f cd 3c
       -0.076763675 -0.061892226 -0.09368334 0.025054501
000020 f9 7b 77 bd 70 cb 3d 3c
       -0.060420964 0.011584148
