models/client-3-3.pth (torch, 239842 bytes, 12 tensors)

conv1.weight f4 [6, 1, 5, 5]
0.30656242 0.29287693 -0.023042431 0.044052463 0.043107793 0.24724768 -0.023972379 -0.08622787
-0.17645693 -0.14356418 0.05283207 0.14131686 -0.22200356 -0.21346273 -0.25359643 0.1662916
0.27403277 0.0361515 0.029522542 -0.15301238 -0.022664463 0.19108608 0.38123864 0.06726435
0.2734794 -0.3468395 -0.4160837 -0.20219211 -0.3377449 -0.24040437 -0.29605436 -0.26883337
-0.16953869 -0.22984463 -0.29881102 0.14730094 0.15610014 -0.076850675 -0.03170414 -0.17251086
0.24416667 0.012578892 -0.001457776 0.033611305 0.061526537 0.00019633591 0.08594556 0.36462384
0.07762308 0.27103427 -0.29322863 -0.37875646 -0.32110083 -0.15276566 0.22663705 -0.11658061
-0.35850647 -0.29466963 0.012002465 0.3014396 0.2521581 0.030350627 -0.063977465 0.35384664
0.0205117 0.379907 0.11551533 0.18117139 0.20901127 0.38572574 0.14742339 0.44223648
0.31732678 0.32839152 0.15170678 0.03199945 0.22111487 0.15249386 0.049270317 -0.04156096
0.11745236 -0.105603755 0.197975 0.08580552 0.17069764 -0.13187608 0.11559227 0.30419856
0.20743263 0.27540243 -0.012813101 0.10050119 0.102387555 0.27435055 0.40404364 -0.16597283
-0.20793927 0.057782456 0.1940914 0.3561533 0.06856364 -0.18750362 -0.15684193 -0.12093269
0.23157614 0.31084785 0.2865226 -0.076386996 0.3047303 0.19475625 0.11560735 0.15788381
0.30069798 0.3131823 0.41600773 0.28597665 -0.0036491726 0.2192072 0.24026403 0.20828845
0.21397634 0.0810586 0.018475562 0.15727137 0.26650366 -0.1353446 0.15997618 -0.13367403
0.13769597 0.0759046 -0.1294178 0.027918512 0.11051843 0.27206004 -0.12618478 -0.10898941
-0.043346133 0.34033427 -0.016444078 -0.07389895 0.32892272 0.24183767 0.12515077 0.21652697
0.3680247 0.33794704 0.010266071 0.09859094 0.15946896 0.3781318
00000000: c0f5 9c3e f7f3 953e 7bc3 bcbc 5b70 343d
00000010: cc91 303d 7f2e 7d3e b961 c4bc 3d98 b0bd
00000020: 20b1 34be 7d02 13be 7166 583d 5eb5 103e
00000030: e754 63be f995 5abe 64d7 81be 5848 2a3e
00000040: 064e 8c3e 9813 143d 42d9 f13c 47af 1cbe
00000050: d3aa b9bc 12ac 433e b631 c33e e4c1 893d
00000060: 7e05 8c3e f294 b1be ec08 d5be 730b 4fbe
00000070: e6ec acbe 902c 76be 7094 97be 87a4 89be
00000080: 8d9b 2dbe 645c 6bbe c2fd 98be 0fd6 163e
00000090: b7d8 1f3e e363 9dbd 33dc 01bd b0a6 30be
000000a0: d406 7a3e b217 4e3c d812 bfba 02ac 093d
000000b0: 4003 7c3d 85df 4d39 3a04 b03d faaf ba3e
000000c0: d9f8 9e3d 01c5 8a3e 1022 96be 5eec c1be
000000d0: 5467 a4be 9a6e 1cbe 8b13 683e d1c1 eebd
000000e0: 298e b7be f0de 96be fda5 443c 4b56 9a3e
000000f0: de1a 813e e1a1 f83c 9e06 83bd 632b b53e
00000100: 2708 a83c 2c83 c23e 4d93 ec3d fe84 393e
00000110: 0d07 563e d87d c53e 28f6 163e d26c e23e
00000120: a878 a23e ef22 a83e 0659 1b3e db11 033d
00000130: f06b 623e 5a27 1c3e accf 493d d33b 2abd
00000140: dd8a f03d c846 d8bd f5b9 4a3e ceba af3d
00000150: 5dcb 2e3e 860a 07be a4bb ec3d eabf 9b3e
00000160: 3869 543e 8c01 8d3e 0aee 51bc 91d3 cd3d
00000170: 91b0 d13d ad77 8c3e cfde ce3e c8f4 29be
00000180: 08ee 54be 4cad 6c3d e5bf 463e ba59 b63e
00000190: 186b 8c3d f300 40be 2c9b 20be 8fab f7bd
000001a0: 4c22 6d3e 7327 9f3e 17b3 923e c970 9cbd
000001b0: 9c05 9c3e 2f6e 473e 8cc3 ec3d 4bac 213e
000001c0: 16f5 993e 6e59 a03e f7fe d43e 886b 923e
000001d0: f526 6fbb da77 603e c607 763e 9149 553e
000001e0: 9d1c 5b3e 0d02 a63d 105a 973c bf0b 213e
000001f0: 2b73 883e c697 0abe ccd0 233e d8e1 08be
00000200: 2c00 0d3e df73 9b3d 1a86 04be 5db5 e43c
00000210: 7d57 e23d 744b 8b3e 9536 01be d735 dfbd
00000220: b78b 31bd 4b40 ae3e bbb5 86bc 5558 97bd
00000230: 8f68 a83e 4ba4 773e 8627 003e 3fb9 5d3e
00000240: bc6d bc3e 6507 ad3e 0633 283c 0cea c93d
00000250: d54b 233e 7e9a c13e

conv1.bias f4 [6]
0.11780617 0.39814234 0.19227119 -0.003195669 -0.002381026 -0.055240605
00000000: 5c44 f13d 50d9 cb3e bde2 443e 6e6e 51bb
00000010: fd0a 1cbb f943 62bd

conv2.weight f4 [16, 6, 5, 5]
0.07110877 0.04293575 -0.07338661 0.06884701 0.01839475 0.024403019 0.045106493 -0.032184847
-0.06856167 0.124815136 0.06762574 -0.024913466 -0.07420095 -0.026433308 0.014233637 0.13421822
0.15554745 -0.0031366912 -0.08262412 -0.039672893 0.037459396 0.1528491 0.15580705 0.07005204
0.03183461 -0.0010083796 0.0018848103 0.07398406 0.03844305 0.0678935 -0.05487241 0.032140534
0.06403686 -0.033423986 0.028746484 -0.009489517 0.015818505 0.01699563 0.020468393 0.023422193
0.12465814 0.20002991 0.07744501 0.08290191 -0.020154482 0.030068234 0.18637 0.23792827
0.19727373 0.1631358 0.02683358 0.039379437 -0.04583972 0.075736426 0.040270876 -0.036735803
-0.07782056 0.03114243 -0.021173062 0.08695591 0.03465359 -0.12079964 -0.1532857 -0.054814033
-0.1622043 0.031379122 0.012616314 0.06203646 -0.0018796707 -0.09050473 0.032519255 0.14100187
0.116685055 0.18838012 0.042376246 0.038721614 0.06325741 -0.03086318 0.022596925 0.028481914
0.004393109 0.051889665 -0.07664229 -0.009177075 -0.01318529 -0.058541287 -0.095067285 0.009759705
-0.10335279 0.02057349 0.10264936 0.01878401 -0.05620106 -0.122791514 -0.14413677 0.1605851
0.17132036 0.0902426 0.0129165165 -0.05883996 -0.090111576 -0.057000123 -0.008777241 0.05471258
0.098980024 -0.06114442 -0.062789634 0.04594382 0.086085126 0.045041535 0.00078612805 -0.09654145
-0.14104992 -0.1391557 -0.11559907 0.025406443 -0.012338301 -0.10596442 -0.16034307 -0.1109703
0.027210984 -0.012548548 0.0022639716 0.060141027 0.07931063 -0.076427825 -0.020816324 -0.04190534
-0.040457025 -0.01945097 -0.02682919 -0.13024564 -0.0395849 -0.032894727 -0.018508527 0.01953119
-0.051651906 -0.18696362 -0.15511379 -0.13115549 0.03560742 -0.0664314 -0.030089172 -0.113429286
-0.059668746 0.15800428 0.035336975 0.16771263 0.05343265 0.1361891 0.029486071 -0.07853717
-0.085249014 -0.058153454 -0.06224587 -0.05743942 -0.00020133072 -0.009554636 -0.077686675 -0.006315026
0.01222973 0.09649007 0.016432187 -0.03258866 0.1253132 -0.031266645 0.034541033 -0.089648284
-0.12818177 0.016579868 -0.084041074 -0.20733373 -0.2070699 -0.050519325 0.13913022 0.04852631
0.01206121 0.0020844946 0.11028091 0.07821208 0.06171273 -0.028556231 -0.04733956 -0.01719535
0.017068543 -0.06845487 -0.115562536 -0.058054753 -0.17488463 -0.07608671 0.0036088123 0.081494525
-0.0143633755 -0.16903223 -0.16473348 0.11621475 0.110789716 -0.017983824 -0.15730527 -0.13708408
0.009361923 0.05929031 -0.0004899972 0.023735309 0.055932324 0.048804358 0.07525768 0.022889894
0.008317994 0.06882662 -0.08781144 -0.09482674 -0.06509764 0.09521837 0.077974804 -0.15319246
-0.07968224 0.083695725 0.13170443 -0.14675233 -0.092021175 0.073106274 0.15128991 0.115718566
-0.25113815 -0.00039103985 -0.029771116 0.00850866 0.026211133 -0.027608337 0.07920483 -0.052718744
-0.015817288 0.18908809 0.026924092 -0.007021508 -0.018087612 0.09519822 0.063812286 -0.05295889
-0.19242197 -0.07463102 0.04476879 0.07912361 -0.054235604 -0.047996428 0.066553034 0.08146955
0.06818577 -0.024466809 -0.029110413 0.014637738 0.041333746 0.08577158 0.084981054 0.005074781
00000000: 7aa1 913d 66dd 2f3d b84b 96bd a9ff 8c3d
00000010: 96b0 963c d7e8 c73c 96c1 383d 42d4 03bd
00000020: 106a 8cbd 149f ff3d 5d7f 8a3d 5317 ccbc
00000030: abf6 97bd aa8a d8bc 3334 693c 8070 093e
00000040: d547 1f3e f290 4dbb d636 a9bd 0b80 22bd
00000050: 066f 193d 7984 1c3e e28b 1f3e 7277 8f3d
00000060: 0265 023d 9b2b 84ba bd0b f73a f484 973d
00000070: 7676 1d3d bf0b 8b3d e4c1 60bd cba5 033d
00000080: c225 833d 97e7 08bd bf7d eb3c eb79 1bbc
00000090: cf95 813c 6b3a 8b3c 55ad a73c e6df bf3c
000000a0: c44c ff3d a4d4 4c3e 7d9b 9e3d 7ac8 a93d
000000b0: 031b a5bc a851 f63c c7d7 3e3e 78a3 733e
000000c0: 2002 4a3e 120d 273e 19d2 db3c 554c 213d
000000d0: 6ec2 3bbd b31b 9b3d 13f3 243d 4878 16bd
000000e0: 6360 9fbd 691e ff3c 2173 adbc f115 b23d
000000f0: ecf0 0d3d cd65 f7bd edf6 1cbe ae84 60bd
00000100: e218 26be 6587 003d a8b4 4e3c f119 7e3d
00000110: 485f f6ba 8b5a b9bd e932 053d cb62 103e
00000120: 93f8 ee3d b8e6 403e b792 2d3d 8e9a 1e3d
00000130: 1a8d 813d c8d4 fcbc 301d b93c e752 e93c
00000140: 12f4 8f3b 428a 543d a2f6 9cbd 715b 16bc
00000150: 1d07 58bc fdc8 6fbd a3b2 c2bd 2be7 1f3c
00000160: a1aa d3bd bc89 a83c d439 d23d ede0 993c
00000170: 1533 66bd 1e7a fbbd 9798 13be 6c70 243e
00000180: 9b6e 2f3e 1dd1 b83d cc9f 533c 2b02 71bd
00000190: 6b8c b8bd f678 69bd 6bce 0fbc 4c1a 603d
000001a0: 0ab6 ca3d 9272 7abd da97 80bd 962f 3c3d
000001b0: 664d b03d 797d 383d 2914 4e3a 86b7 c5bd
000001c0: 646f 10be d57e 0ebe 35bf ecbd 2c21 d03c
000001d0: 9626 4abc e003 d9bd f930 24be 6644 e3bd
000001e0: 92e9 de3c 6d98 4dbc 245f 143b 7056 763d
000001f0: 9d6d a23d 3186 9cbd ff86 aabc efa4 2bbd
00000200: 44b6 25bd a457 9fbc e4c8 dbbc 1d5f 05be
00000210: c723 22bd 9fbc 06bd 329f 97bc e0ff 9f3c
00000220: f390 53bd 6473 3fbe 26d6 1ebe a04d 06be
00000230: 16d9 113d 300d 88bd 917d f6bc 9d4d e8bd
00000240: 3767 74bd e0cb 213e 81bd 103d dcbc 2b3e
00000250: 32dc 5a3d 2875 0b3e c68c f13c 19d8 a0bd
00000260: 0997 aebd 5132 6ebd 86f5 7ebd 9945 6bbd
00000270: 4e1c 53b9 0c8b 1cbc 311a 9fbd 47ee cebb
00000280: 355f 483c 969c c53d cb9c 863c b07b 05bd
00000290: 1a52 003e 7411 00bd e67a 0d3d 8599 b7bd
000002a0: 1542 03be 81d2 873c ba1d acbd 4b4f 54be
000002b0: 220a 54be 5aed 4ebd 2778 0e3e 86c3 463d
000002c0: 629c 453c 049c 083b f5da e13d a82d a03d
000002d0: 7dc6 7c3d c2ee e9bc 20e7 41bd 43dd 8cbc
000002e0: 54d3 8b3c 1132 8cbd 0dac ecbd d2ca 6dbd
000002f0: f514 33be 59d3 9bbd d381 6c3b 9ae6 a63d
00000300: 5d54 6bbc c916 2dbe e5af 28be 0002 ee3d
00000310: b8e5 e23d d052 93bc a214 21be c55f 0cbe
00000320: c062 193c 65da 723d 2873 00ba 8d70 c23c
00000330: 4b19 653d 14e7 473d b320 9a3d 9683 bb3c
00000340: 3248 083c f9f4 8c3d 7cd6 b3bd 8634 c2bd
00000350: e951 85bd d901 c33d 41b1 9f3d 7cde 1cbe
00000360: 7130 a3bd aa68 ab3d 87dd 063e 3e46 16be
00000370: 9975 bcbd beb8 953d beeb 1a3e dbfd ec3d
00000380: 2e95 80be 7b04 cdb9 8ee2 f3bc e867 0b3c
00000390: bbb8 d63c e12a e2bc 2436 a23d 9cef 57bd
000003a0: 4293 81bc 4fa0 413e ea8f dc3c ae14 e6bb
000003b0: 792c 94bc 49f7 c23d 04b0 823d 6ceb 58bd
000003c0: 440a 45be 26d8 98bd 7b5f 373d 8f0b a23d
000003d0: 2726 5ebd e797 44bd f54c 883d 82d9 a63d
000003e0: fba4 8b3d 9e6e c8bc f678 eebc 1fd3 6f3c
000003f0: 934d 293d 03a9 af3d 8c0a ae3d 594a a63b

conv2.bias f4 [16]
0.07222631 0.024050076 -0.04216672 -0.08036769 -0.03822872 -0.07948924 -0.02890444 -0.025535429
-0.047126073 -0.06930775 0.0064169616 0.008033061 -0.098980345 -0.042582728 -0.037549302 0.010868112
00000000: 63eb 933d aa04 c53c 03b7 2cbd d197 a4bd
00000010: b895 1cbd 41cb a2bd 01c9 ecbc ad2f d1bc
00000020: 4507 41bd 39f1 8dbd 6045 d23b 1a9d 033c
00000030: 35b6 cabd 3a6b 2ebd 4ccd 19bd 2a10 323c

fc1.weight f4 [120, 256]
0.05490794 -0.026394313 -0.014338531 0.0057884576 0.02973518 -0.01961004 0.056066185 -0.016359065
0.074919276 -0.037664406 0.020032203 0.027717466 0.08259216 -0.013403237 0.035287056 0.0063259923
0.026861673 0.06672745 0.003780995 0.10455761 -0.007532715 0.029371643 0.044815596 -0.013272561
-0.058168065 0.008701447 0.028353412 -0.020757992 0.012454193 0.02896393 0.0625086 0.016842712
0.011203539 0.010001589 -0.05696593 -0.018252483 -0.024617465 0.029812476 -0.030419907 0.018035784
-0.04372168 0.0010615224 0.07671981 0.046903692 0.053119212 0.044733603 0.018256463 -0.04422849
0.03780757 -0.05711364 -0.045336176 0.020275317 -0.044769417 0.06924229 0.012968113 -0.044948243
0.06144597 0.0068445816 0.021910124 -0.015845729 -0.0418376 -0.04988287 -0.0256863 0.024637176
-0.060490362 -0.028396497 -0.052366573 0.02982157 0.021738756 -0.039153818 0.059116974 0.037374467
0.058820497 0.018909456 0.008140336 0.023233235 -0.006181887 0.033850707 0.065475695 -0.023951385
-0.019480037 -0.034575723 -0.043515045 0.017353697 0.039602105 0.065470226 0.04843935 -0.10046269
-0.018889463 -0.06310114 -0.042071596 -0.034310646 -0.056968972 0.05750505 0.041964345 -0.049534015
0.030985728 0.0057803863 -0.021781385 -0.021004 0.040877078 0.030040162 0.07560258 0.0044710566
0.033214126 -0.029837206 0.05151844 -0.018755903 -0.07113902 -0.003028223 -0.03047492 -0.051237803
0.018855093 0.030319333 -0.07695151 0.008842434 0.028893603 -0.043713138 -0.05369064 -0.09161253
-0.053311095 0.035539173 0.07680555 -0.004792696 0.08545592 -0.01896959 -0.018646948 -0.036192436
-0.012565182 -0.027823078 0.012154667 0.08129107 -0.031526435 -0.0003649182 -0.016152179 0.0124875475
0.04484848 0.056453213 -0.029147383 0.04317276 0.015041219 0.06327256 -0.038684577 -0.02618462
-0.05373374 0.00031000364 -0.040798977 -0.039981924 -0.038943235 0.0326992 0.018683594 -0.052575804
0.051397733 0.05703389 -0.03853036 0.034354348 0.043108746 0.032568917 -0.03648228 -0.028186025
-0.028669558 -0.035803508 -0.047309987 -0.005771296 0.06085766 -0.02634657 0.028270332 0.06610649
-0.04908955 0.03708561 0.050517295 0.024975058 -0.020952145 0.06542576 0.0027393396 -0.016000861
0.012345757 -0.0018289016 -0.034431286 0.01971373 -0.024015278 0.048436638 0.010986533 0.045806874
0.057612766 0.03855671 0.038182188 0.03942364 0.05040163 0.013732796 0.05238641 0.01712117
0.06538815 -0.060508706 -0.05406276 -0.038574986 -0.03205366 -0.051923368 0.06949489 0.01244615
0.06527495 0.022022754 0.028910534 -0.043169267 0.0021431844 -0.04239354 0.018095832 0.03724501
0.06301953 0.04827887 0.1274256 0.052153897 -0.0024575905 0.009188104 0.025022496 0.03131388
0.055833377 0.10668246 0.045146357 0.037232418 0.08952766 0.08124546 0.08555784 0.05468171
0.014373461 0.035135586 -0.03574178 -0.02816074 -0.061918106 -0.061203778 0.052735813 0.04322025
0.05295652 -0.056365266 0.041599218 0.037711807 -0.053415734 0.047100052 -0.001238801 -0.06840972
-0.0026097465 -0.021205707 0.020080667 0.008972462 0.01860326 -0.05391754 0.032568216 0.06753018
0.028764786 -0.020929879 0.01291458 -0.01257498 0.008844155 -0.018419288 -0.03499194 0.002073318
00000000: 26e7 603d e338 d8bc 28ec 6abc 1aad bd3b
00000010: 3197 f33c 3ca5 a0bc a8a5 653d 7203 86bc
00000020: 476f 993d fe45 1abd 931a a43c bd0f e33c
00000030: 1426 a93d 4099 5bbc 2989 103d 454a cf3b
00000040: 030d dc3c 67a8 883d 92ca 773b 4d22 d63d
00000050: fed4 f6bb cd9c f03c 8f90 373d 2875 59bc
00000060: a341 6ebd 8490 0e3c 6a45 e83c aa0c aabc
00000070: ac0c 4c3c c445 ed3c 8204 803d baf9 893c
00000080: 0c8f 373c b4dd 233c 1b55 69bd 3b86 95bc
00000090: 91aa c9bc 4b39 f43c 2b33 f9bc c8bf 933c
000000a0: 8115 33bd c822 8b3a 471f 9d3d 161e 403d
000000b0: 8893 593d 953a 373d 948e 953c ef28 35bd
000000c0: 1cdc 1a3d feef 69bd 6db2 39bd 6c18 a63c
000000d0: 2360 37bd e7ce 8d3d 3578 543c a61b 38bd
000000e0: c5ae 7b3d 8348 e03b dc7c b33c e7ce 81bc
000000f0: e75d 2bbd fb51 4cbd 136c d2bc e7d3 c93c
00000100: bec4 77bd c59f e8bc 557e 56bd 5d4c f43c
00000110: 7a15 b23c c15f 20bd a424 723d f815 193d
00000120: c3ed 703d 01e8 9a3c 0b5f 053c a053 be3c
00000130: 6d91 cabb 0aa7 0a3d 1f18 863d b235 c4bc
00000140: 9994 9fbc 469f 0dbd d53c 32bd 5729 8e3c
00000150: d135 223d 4115 863d 5768 463d 62bf cdbd
00000160: 13be 9abc 2c3b 81bd 4453 2cbd 5289 0cbd
00000170: 4c58 69bd 6a8a 6b3d cee2 2b3d 2ee4 4abd
00000180: c8d5 fd3c 6569 bd3b e06e b2bc 9510 acbc
00000190: b96e 273d c916 f63c 87d5 9a3d f181 923b
000001a0: 890b 083d 286d f4bc 0005 533d fba5 99bc
000001b0: 56b1 91bd 2775 46bb 8aa6 f9bc bbde 51bd
000001c0: ff75 9a3c 4060 f83c c198 9dbd dbdf 103c
000001d0: 47b2 ec3c 8c0c 33bd b7ea 5bbd 5a9f bbbd
000001e0: bc5c 5abd 8691 113d 3a4c 9d3d 0c0c 9dbb
000001f0: 8303 af3d 1d66 9bbc 7cc1 98bc 853e 14bd
00000200: 31de 4dbc 39ed e3bc 5e24 473c ef7b a63d
00000210: dd21 01bd 7e52 bfb9 9351 84bc 9298 4c3c
00000220: 0ab3 373d 7c3b 673d 7ec6 eebc ecd5 303d
00000230: 726f 763c 0b95 813d b873 1ebd 2181 d6bc
00000240: e917 5cbd fc87 a239 d41c 27bd 16c4 23bd
00000250: f182 1fbd 99ef 053d 560e 993c ba59 57bd
00000260: 6e86 523d 5e9c 693d 03d2 1dbd 25b7 0c3d
00000270: cc92 303d fc66 053d 716e 15bd 61e6 e6bc
00000280: 6cdc eabc b3a6 12bd 1ec8 41bd 241d bdbb
00000290: e245 793d c3d4 d7bc 2f97 e73c d762 873d
000002a0: 2012 49bd 15e7 173d 39eb 4e3d 7e98 cc3c
000002b0: d5a3 abbc f1fd 853d 7e86 333b 3d14 83bc
000002c0: dc45 4a3c c1b7 efba d207 0dbd b07e a13c
000002d0: b0bb c4bc 7f65 463d dc00 343c fd9f 3b3d
000002e0: 5dfb 6b3d a4ed 1d3d ed64 1c3d af7a 213d
000002f0: f171 4e3d 85ff 603c 2293 563d b241 8c3c
00000300: 39ea 853d fad7 77bd ea70 5dbd ce00 1ebd
00000310: b34a 03bd 99ad 54bd 5653 8e3d f0ea 4b3c
00000320: dfae 853d 1069 b43c c9d5 ec3c 42d2 30bd
00000330: ab74 0c3b d9a4 2dbd b63d 943c 398e 183d
00000340: 6210 813d 10c0 453d db7b 023e 539f 553d
00000350: 870f 21bb b489 163c fafb cc3c fc42 003d
00000360: 8ab1 643d 557c da3d 63eb 383d 0581 183d
00000370: 475a b73d 0564 a63d f338 af3d eef9 5f3d
00000380: aa7e 6b3c 55ea 0f3d f965 12bd 5ab1 e6bc
00000390: d79d 7dbd d0b0 7abd 8201 583d b807 313d
000003a0: f0e8 583d 44df 66bd f163 2a3d b277 1a3d
000003b0: 75ca 5abd fceb 403d 445f a2ba 651a 8cbd
000003c0: 4808 2bbb 97b7 adbc 3680 a43c 3c01 133c
000003d0: dd65 983c a3d8 5cbd 4066 053d 434d 8a3d
000003e0: 21a4 eb3c 2375 abbc ad97 533c 4a07 4ebc
000003f0: 13e7 103c 0ce4 96bc b553 0fbd 81e0 073b

fc1.bias f4 [120]
0.07120426 -0.056756888 0.030878723 0.014213474 0.057089306 0.049714938 0.029228244 -0.041340254
-0.030126018 0.05713323 0.05970477 0.018098922 0.008137323 0.058525905 -0.050997533 -0.02486334
-0.048626445 0.071364164 -0.034679543 0.046042923 0.034017924 0.05547827 -0.02193035 0.054226995
-0.008067998 -0.02658329 0.041743886 -0.04372664 0.0214603 -0.05263823 -0.023687588 0.025831494
-0.061100543 0.029269574 0.058866736 0.0467577 -0.023099966 0.044383373 0.011317193 0.037678983
-0.014438741 0.010247017 0.0014195788 0.03932925 0.056593318 -0.002643208 0.018737724 -0.03941815
0.032478876 -0.05549075 0.027223034 0.0021209046 0.055993322 0.03850908 0.0037155913 0.024220351
0.09518049 -0.033763554 -0.033412468 0.03221213 -0.0035876487 -0.034193955 0.057760973 0.06368773
-0.008473556 -0.08004914 0.003994301 0.035965875 0.030190906 0.06934759 -0.06179958 0.041220196
-0.0396065 -0.06798098 0.016479855 -0.039102312 -0.009432617 0.04405873 -0.044075347 0.07144751
0.015506702 -0.020014364 -0.03130242 0.007828581 -0.048235722 0.002356144 -0.064703785 0.027448934
0.0073537463 -0.057679564 0.047903314 0.056237057 0.04890184 -0.03225776 -0.0048805927 -0.047004066
0.06914311 0.020088617 0.0018156623 -0.015286147 -0.015986364 -0.050889894 0.00851325 -0.0720269
0.05979615 -0.037304036 0.06347286 -0.05719913 0.06206711 0.037811663 -0.020337464 -0.05171416
-0.017921453 0.06304519 0.047994334 -0.058921274 0.046366528 -0.008050026 -0.054906655 0.06501047
00000000: 8ad3 913d e979 68bd 60f5 fc3c a1df 683c
00000010: 7ad6 693d e4a1 4b3d 1270 ef3c 6654 29bd
00000020: d7ca f6bc 8904 6a3d fd8c 743d 3144 943c
00000030: 6852 053c dcb8 6f3d cae2 50bd 34ae cbbc
00000040: 862c 47bd 6027 923d 230c 0ebd 8197 3c3d
00000050: 6156 0b3d 2f3d 633d 47a7 b3bc 201d 5e3d
00000060: a32f 04bc 33c5 d9bc a3fb 2a3d b51a 33bd
00000070: 83cd af3c 2f9b 57bd 790c c2bc 929c d33c
00000080: 9044 7abd bfc6 ef3c 3f1e 713d 0185 3f3d
00000090: 243c bdbc 57cb 353d bf6b 393c 4755 1a3d
000000a0: 7890 6cbc 1be3 273c 2911 ba3a b517 213d
000000b0: 65ce 673d ac39 2dbb db7f 993c ed74 21bd
000000c0: 9208 053d 454a 63bd d702 df3c e0fe 0a3b
000000d0: 4159 653d b2bb 1d3d 4781 733b c269 c63c
000000e0: fded c23d a74b 0abd 83db 08bd def0 033d
000000f0: c21e 6bbb f60e 0cbd c596 6c3d b66e 823d
00000100: abd4 0abc cef0 a3bd a0e2 823b f450 133d
00000110: eb52 f73c 1c06 8e3d 8e21 7dbd 82d6 283d
00000120: 6d3a 22bd 9d39 8bbd c300 873c bf29 20bd
00000130: 438b 1abc ed76 343d 5a88 34bd 1253 923d
00000140: d20f 7e3c 2af5 a3bc f736 00bd 7343 003c
00000150: d292 45bd 8969 1a3b 6b83 84bd 96dc e03c
00000160: b2f7 f03b 6841 6cbd 4436 443d d458 663d
00000170: 4c4d 483d b720 04bd 61ed 9fbb 5687 40bd
00000180: e79a 8d3d e290 a43c 84fb ed3a bf72 7abc
00000190: d6f5 82bc ec71 50bd 297b 0b3c d782 93bd
000001a0: cfec 743d 1ecc 18bd 0ffe 813d a349 6abd
000001b0: 153a 7e3d 67e0 1a3d c19a a6bc 3ad2 53bd
000001c0: 03d0 92bc d61d 813d b595 443d 6f57 71bd
000001d0: d4ea 3d3d 42e4 03bc cde5 60bd 3624 853d

fc0.weight f4 [120, 120]
0.08245653 0.047664307 0.06660046 0.1219223 -0.06839497 0.05688814 0.0043493183 0.004138908
0.10850207 0.07252099 0.080831006 0.055972245 0.045236025 0.028946662 0.10843936 -0.063391924
0.023736773 -0.039909445 -0.03810768 -0.13582924 -0.07861942 -0.059231203 -0.04630885 0.017466744
0.06393564 -0.00046222846 -0.08252922 -0.10296756 -0.102797754 -0.015584025 0.08503606 -0.07180569
-0.01625746 0.01805808 -0.012315126 0.061513245 -0.050652366 -0.06860196 -0.044977214 0.030336045
-0.07534645 0.018605847 -0.041507125 0.13198444 0.030345755 -0.0017704716 0.009326946 0.116277404
-0.038982656 0.06342731 0.014836608 -0.10758871 0.054438546 0.028381376 0.10239796 0.036780544
0.1088425 -0.06955023 0.007404731 0.13615754 -0.06849052 -0.08731139 -0.048742495 0.06465414
-0.07174825 -0.06963234 0.0049888915 0.11388497 -0.034790326 -0.0014642935 0.03658786 0.07072241
-0.0022158925 0.007895417 -0.0055593606 -0.034488063 -0.01889181 0.050169233 0.06731056 0.102437004
0.032440785 0.11132718 0.070100866 -0.015448977 0.053990643 0.12710562 -0.011391491 0.018764216
0.08137891 -0.07069477 0.01245794 -0.085509814 -0.01779816 -0.06910729 0.011616511 0.024049986
0.072242275 0.014515192 0.09795673 0.0007172003 -0.041314747 -0.05805554 0.08844084 -0.04794308
0.029536648 0.082356945 0.028515214 -0.10505524 0.02185923 0.02905467 0.09173246 0.028815936
0.015016017 0.029377898 -0.0043366686 -0.00067543355 -0.118824035 -0.0067453366 0.024667442 -0.034072854
0.010956135 -0.037869915 0.020185394 0.0633262 -0.039246466 -0.095644385 0.08699678 0.06795907
0.07515602 -0.059275795 -0.0047569363 0.059004415 0.09931914 -0.06519754 -0.12173515 -0.061484393
-0.005740504 0.08640518 -0.06150257 -0.04068095 0.075662844 -0.055385936 -0.02377255 -0.018049013
-0.021642849 -0.015715841 -0.029460303 -0.0027859767 0.046537574 0.045305934 0.022327727 0.10132993
0.0004488378 -0.04717478 0.038996 0.14794096 0.023130154 0.018566716 0.05669525 -0.03491327
-0.013829993 0.0499639 -0.043915696 0.055867787 0.05318326 0.09184058 -0.04734217 0.09423513
0.091382645 0.09473757 -0.025041064 -0.07528384 0.007324068 0.035216436 -0.038209926 0.031638216
-0.07423882 -0.037786536 -0.013193791 -0.015766067 -0.05020091 0.008652464 -0.009414347 0.06386773
0.11682817 -0.015966812 0.044402808 0.09886162 -0.06323844 -0.025562214 0.07254426 -0.10793901
0.09531581 -0.043472107 0.0063884095 0.020176964 -0.017095605 0.06204939 8.695369e-05 0.07271251
0.027892997 -0.015535668 0.07683126 0.045409873 0.0050985855 0.028173123 -0.022153957 0.033895917
0.05024356 -0.0057987557 -0.025641143 -0.023003172 -0.08207676 -0.003907667 0.05417819 -0.11409806
-0.07615407 0.065568775 0.074958645 -0.018829932 0.06366142 0.07582596 -0.0956668 0.07413369
0.080085345 0.100708105 -0.01751305 0.051813114 -0.09267913 -0.06374063 -0.062211916 -0.0055891103
-0.07824541 -0.10717126 -0.0059628347 0.023806468 0.009015989 0.0441282 -0.009121829 -0.008954238
-0.05417609 0.12522018 -0.087930724 0.021556893 -0.033623192 0.084944196 -0.05913861 0.053390775
0.065242834 0.103503406 -0.07914169 -0.106472775 -0.002897906 0.040289275 0.108952396 0.0420883
00000000: f8de a83d a63b 433d d265 883d 66b2 f93d
00000010: a912 8cbd 8a03 693d ba84 8e3b ad9f 873b
00000020: 5536 de3d e385 943d ba8a a53d 2743 653d
00000030: 6949 393d 8d21 ed3c 7515 de3d a0d3 81bd
00000040: 9f73 c23c 1678 23bd cc16 1cbd d216 0bbe
00000050: 3803 a1bd 6b9c 72bd 59ae 3dbd 6b16 8f3c
00000060: b0f0 823d 4157 f2b9 1405 a9bd a8e0 d2bd
00000070: a187 d2bd 2354 7fbc 6327 ae3d dd0e 93bd
00000080: 5d2e 85bc 8aee 933c 62c5 49bc 50f5 7b3d
00000090: db78 4fbd 2f7f 8cbd 073a 38bd 4c83 f83c
000000a0: 3d4f 9abd 4a6b 983c 6003 2abd ee26 073e
000000b0: a997 f83c 2b0f e8ba 0cd0 183c d922 ee3d
000000c0: 47ac 1fbd 2de6 813d 3f15 733c 7857 dcbd
000000d0: f4fa 5e3d 0f80 e83c 06b6 d13d 32a7 163d
000000e0: d1e8 de3d 5a70 8ebd 63a3 f23b e26c 0b3e
000000f0: c244 8cbd 50d0 b2bd 36a6 47bd 6469 843d
00000100: bff0 92bd 669b 8ebd db79 a33b 863c e93d
00000110: 4d80 0ebd 89ed bfba 27dd 153d e9d6 903d
00000120: 8238 11bb c75b 013c 4c2b b6bb 5b43 0dbd
00000130: ffc2 9abc 417e 4d3d 1eda 893d 7eca d13d
00000140: a1e0 043d 81ff e33d 0b91 8f3d b51d 7dbc
00000150: 4b25 5d3d fa27 023e 60a3 3abc 6ab7 993c
00000160: fca9 a63d 6bc8 90bd 631c 4c3c c51f afbd
00000170: 72cd 91bc 1f88 8dbd 2e53 3e3c 7a04 c53c
00000180: c2f3 933d 21d1 6d3c 8a9d c83d 7f02 3c3a
00000190: a739 29bd a5cb 6dbd 7920 b53d f75f 44bd
000001a0: d7f6 f13c c2aa a83d bd98 e93c 3427 d7bd
000001b0: 2112 b33c 0f04 ee3c 3ade bb3d 660f ec3c
000001c0: bd05 763c eba9 f03c 9d1a 8ebb 940f 31ba
000001d0: 045a f3bd fc07 ddbb 6013 ca3c fa8f 0bbd
000001e0: 5c81 333c 7c1d 1bbd d75b a53c 2bb1 813d
000001f0: e7c0 20bd 34e1 c3bd 5e2b b23d 202e 8b3d
00000200: 66eb 993d 2dcb 72bd 13e0 9bbb 9dae 713d
00000210: d567 cb3d 4a86 85bd 4750 f9bd 0fd7 7bbd
00000220: d61a bcbb 33f5 b03d 1eea 7bbd 11a1 26bd
00000230: 1ff5 9a3d 5ddc 62bd a7be c2bc 86db 93bc
00000240: 584c b1bc 82be 80bc bc56 f1bc ef94 36bb
00000250: 2f9e 3e3d b792 393d a3e8 b63c 1186 cf3d
00000260: fd51 eb39 583a 41bd 45ba 1f3d d67d 173e
00000270: 737b bd3c 3a19 983c 4739 683d 3801 0fbd
00000280: 3297 62bc f2a6 4c3d f2e0 33bd 9fd5 643d
00000290: b1d6 593d ea16 bc3d dde9 41bd 59fe c03d
000002a0: d326 bb3d c505 c23d eb22 cdbc 6a2e 9abd
000002b0: bcfe ef3b 1c3f 103d 0382 1cbd 1397 013d
000002c0: 860a 98bd 0ec6 1abd c52a 58bc d727 81bc
000002d0: 789f 4dbd 10c3 0d3c a23e 1abc 16cd 823d
000002e0: 9c43 ef3d d5cc 82bc b8df 353d f677 ca3d
000002f0: 2883 81bd d967 d1bc 1692 943d 210f ddbd
00000300: ef34 c33d cf0f 32bd dd55 d13b 294a a53c
00000310: 150c 8cbc 8027 7e3d e85a b638 4cea 943d
00000320: db7f e43c 5089 7ebc b559 9d3d b4ff 393d
00000330: 0912 a73b 52cb e63c 377c b5bc 72d6 0a3d
00000340: 31cc 4d3d 7d03 bebb 600d d2bc 2671 bcbc
00000350: dc17 a8bd e30b 80bb f3e9 5d3d 3eac e9bd
00000360: aaf6 9bbd ec48 863d eb83 993d 3b41 9abc
00000370: eb60 823d a44a 9b3d f5ec c3bd 67d3 973d
00000380: c903 a43d 0d40 ce3d 8777 8fbc fd39 543d
00000390: 8ece bdbd 738a 82bd ecd1 7ebd db24 b7bb
000003a0: 213f a0bd 9b7c dbbd e263 c3bb c805 c33c
000003b0: ccb7 133c c5bf 343d b973 15bc ccb4 12bc
000003c0: bfe7 5dbd b839 003e 0615 b4bd 1598 b03c
000003d0: 79b8 09bd 39f7 ad3d 543b 72bd 49b0 5a3d
000003e0: 099e 853d 98f9 d33d 0a15 a2bd 660e dabd
000003f0: cbea 3dbb 5e06 253d 6f22 df3d c864 2c3d

fc0.bias f4 [120]
0.1135585 -0.023451574 0.007233209 -0.059285004 -0.0063180933 0.019803217 -0.04525778 0.03935257
-0.037263844 0.023502879 0.068628676 0.09202669 -0.016406858 -0.08926804 -0.03279105 -0.050988518
0.0077651627 -0.045528136 0.0077782176 0.08680418 0.028543081 0.10091702 0.10958807 0.030593455
-0.09313604 0.14569166 -0.050100926 0.0099871345 0.013119077 -0.070607625 -0.08985477 0.039185792
0.10896701 0.023808297 -0.038375646 0.09583559 -0.029132599 -0.116614535 0.002117299 0.09164308
0.053849697 -0.027536642 0.06385252 0.03975336 0.05493778 0.076242 -0.013598986 0.014578835
0.10061735 -0.028474752 0.034393515 -0.08987973 0.1069809 -0.06092169 -0.06690794 0.069516465
-0.020965695 -0.013001214 -0.029844029 -0.08430789 -0.069546334 0.07965596 0.08739929 0.07178292
0.05034334 -0.059002563 0.02744576 0.014797005 0.067623466 -0.023808207 0.0053024245 0.063620806
0.054650784 -0.09457088 -0.0025193803 -0.06414917 0.04236197 0.06857362 -0.06079489 -0.041179467
-0.014417989 -0.07949782 -0.010641921 0.09953539 -0.02259811 -0.013680555 0.015472601 -0.030825362
0.11331536 -0.043797705 0.087488554 0.044904917 0.080796234 0.10357874 0.061219037 -0.085182436
0.087865144 -0.08538121 -0.083198756 0.041387938 -0.084435254 -0.015676286 0.037002746 0.021248274
0.08347489 0.039824583 -0.09186982 -0.008908831 -0.0029806048 -0.09115056 -0.03345918 -0.03419211
0.023610616 0.0060689948 -0.016476126 0.04394697 -0.067886055 0.10234501 0.13987148 0.06699724
00000000: 5c91 e83d 841d c0bc 8e04 ed3b d5d4 72bd
00000010: 0208 cfbb 5b3a a23c 3960 39bd 2930 213d
00000020: f9a1 18bd 1c89 c03c 318d 8c3d 7d78 bc3d
00000030: ad67 86bc 2ad2 b6bd e84f 06bd 56d9 50bd
00000040: e872 fe3b b67b 3abd 6be0 fe3b 64c6 b13d
00000050: 2ed3 e93c 95ad ce3d b66f e03d 209f fa3c
00000060: 1cbe bebd 3230 153e a136 4dbd 14a1 233c
00000070: 66f1 563c bb9a 90bd c705 b8bd 4881 203d
00000080: 192a df3d 9e09 c33c c82f 1dbd 7345 c43d
00000090: 7da7 eebc 9ad3 eebd 62c2 0a3b 5eaf bb3d
000000a0: 8091 5c3d 8694 e1bc 1cc5 823d 6bd4 223d
000000b0: 7006 613d c424 9c3d 48ce 5ebc 11dc 6e3c
000000c0: 7810 ce3d e243 e9bc 37e0 0c3d dd12 b8bd
000000d0: cd18 db3d 0689 79bd 0807 89bd a65e 8e3d
000000e0: 40c0 abbc 0b03 55bc 777b f4bc 9da9 acbd
000000f0: 4f6e 8ebd aa22 a33d 66fe b23d ec02 933d
00000100: d134 4e3d acac 71bd eed5 e03c 236f 723c
00000110: 2c7e 8a3d 6e09 c3bc f6bf ad3b a04b 823d
00000120: 80d9 5f3d 61ae c1bd 301c 25bb a460 83bd
00000130: bf83 2d3d 5370 8c3d 1004 79bd cdab 28bd
00000140: 6e39 6cbc c1cf a2bd 745b 2ebc 36d9 cb3d
00000150: ac1f b9bc 6824 60bc cb80 7d3c 7885 fcbc
00000160: e211 e83d 3965 33bd 332d b33d 38ee 373d
00000170: 7f78 a53d 1721 d43d d0c0 7a3d 2174 aebd
00000180: a4f2 b33d 58dc aebd 1c64 aabd 6686 293d
00000190: 64ec acbd 8e6b 80bc 3190 173d dc10 ae3c
000001a0: e2f4 aa3d 1a1f 233d 3f26 bcbd 58f6 11bc
000001b0: 4056 43bb 25ad babd 7e0c 09bd 070d 0cbd
000001c0: 0d6b c13c 6bde c63b f1f8 86bc bd01 343d
000001d0: d807 8bbd 439a d13d 783a 0f3e d935 893d

fc2.weight f4 [84, 120]
0.01923021 0.04635837 -0.027147071 0.0619701 -0.048527706 0.034370188 0.019364111 0.077144444
0.05795444 0.008619205 0.033090573 -0.006577754 -0.0071749124 0.037234288 -0.11804852 -0.08284271
0.064693496 0.036368564 0.07464221 -0.010661219 0.10863065 0.105508015 -0.038249552 0.108006954
-0.064578 0.032394916 -0.09614283 0.06392983 -0.054580465 0.027497143 -0.041494455 -0.062953174
-0.030337809 -0.027491713 0.10544003 -0.06654222 0.04815925 0.060178783 0.11577874 -0.056638055
-0.037383772 0.0010440623 0.07403315 0.06355306 -0.013097277 0.010945768 -0.07261241 -0.031043492
-0.016699197 0.08923526 -0.04247203 0.071768366 -0.08380981 0.06558776 0.10925038 0.07945776
-0.020546151 -0.041346006 0.11866346 0.004362476 0.13321894 0.06256929 -0.031025639 -0.021654183
-0.055788282 -0.018026749 0.014617734 -0.0063992357 0.038380932 -0.041815087 -0.003381715 0.0386119
-0.0654431 0.12476281 0.013462106 -0.011060801 -0.0033927243 -0.059998173 0.13125436 -0.058521327
0.017425798 0.09947042 -0.08015314 0.01647498 0.060735866 -0.04086277 -0.029797152 0.088521555
-0.10286827 -0.05728678 -0.105458155 -0.052575536 0.08340769 -0.060958188 -0.09745967 -0.013193718
0.1210843 -0.03341017 0.010379093 -0.0033976536 0.055570673 -0.13079868 0.06895719 -0.04679353
0.09091077 -0.028904635 0.048225056 0.058756705 0.05871303 0.09910537 -0.025295418 -0.108709104
0.084649146 0.1159138 -0.027707541 -0.048166938 0.06966663 -0.061536796 0.03891497 -0.04873716
0.008673542 0.003903004 -0.047473796 -0.14500159 0.096067704 -0.08208322 0.006168436 0.001188437
0.053253353 0.09114741 -0.048546273 -0.036046166 -0.103237174 -0.10351992 0.0042548035 0.08265239
-0.010457959 0.018723976 0.0121853715 0.11870697 0.034358222 -0.089071944 -0.048831042 0.06816498
-0.017064912 0.0055307033 -0.0796138 0.122044325 0.016186634 -0.04262887 -0.0130873555 0.13526414
0.12331183 -0.08246852 -0.005691184 0.07944942 0.03028482 0.008019911 -0.08435625 0.11205942
-0.11874912 0.012837568 -0.14982265 0.09008455 -0.011116556 0.09516474 0.038829125 -0.08428188
-0.012451977 -0.040901612 0.08952759 -0.0041174777 -0.07128175 -0.0013392102 -0.050021894 0.04533717
0.046727967 0.03485473 -0.02965031 0.010459135 -0.06960567 0.006737455 0.16759716 0.06470748
-0.04374057 -0.10251491 -0.025070542 -0.031115357 0.050556567 0.023209773 -0.08429821 0.0059977756
-0.05944242 -0.0694871 0.106373884 0.057126578 0.068571 0.044342246 -0.13085522 0.09059467
-0.041027464 -0.06268102 -0.03739222 -0.033027504 -0.09457313 0.11471076 0.06934439 0.09061409
0.010598139 0.05690189 -0.08223586 -0.01100307 0.083315946 0.10098806 0.10640674 -0.04364107
-0.049505245 0.09029642 -0.07611879 -0.01700131 -0.07637126 0.03364017 0.064915545 0.07269505
0.08159059 0.03970348 -0.02599468 -0.018470438 0.01640872 0.023547057 -0.04666569 -0.030350022
0.021864465 -0.08119135 -0.11439005 0.030121908 -0.06509714 0.09222539 0.013319133 -0.06530944
0.014683612 0.1103026 0.035243556 0.02831107 0.052721478 0.056738455 -0.015487412 0.09843278
-0.034632217 -0.0022856817 -0.12901752 0.06622621 0.08761554 0.028360268 -0.08108325 -0.02602986
00000000: ac88 9d3c 46e2 3d3d 8963 debc 5cd4 7d3d
00000010: fdc4 46bd c1c7 0c3d 7ca1 9e3c e8fd 9d3d
00000020: a361 6d3d 9137 0d3c fb89 073d 338a d7bb
00000030: 871b ebbb fb82 183d 6cc3 f1bd 70a9 a9bd
00000040: 067e 843d 34f7 143d 04de 983d 65ac 2ebc
00000050: bf79 de3d 9614 d83d 90ab 1cbd c032 dd3d
00000060: 7841 84bd 88b0 043d 88e6 c4bd a5ed 823d
00000070: c48f 5fbd b041 e13c 17f6 29bd 98ed 80bd
00000080: ff86 f8bc 4d36 e1bc f1f0 d73d 4a47 88bd
00000090: a242 453d 077e 763d 671d ed3d 4efd 67bd
000000a0: ba1f 19bd ebd8 883a b19e 973d 1b28 823d
000000b0: f695 56bc e155 333c d1b5 94bd ec4e febc
000000c0: c1cc 88bc fac0 b63d 27f7 2dbd 4bfb 923d
000000d0: 7aa4 abbd e052 863d aabe df3d c0ba a23d
000000e0: 6750 a8bc 6e5a 29bd d405 f33d 1af3 8e3b
000000f0: 8c6a 083e 5424 803d 7b29 febc 1d64 b1bc
00000100: 4182 64bd d5ac 93bc 387f 6f3c aeb0 d1bb
00000110: 5335 1d3d 4c46 2bbd c39f 5dbb 8327 1e3d
00000120: 0807 86bd a583 ff3d 2a90 5c3c 5d38 35bc
00000130: 7858 5ebb a5c0 75bd 8b67 063e 0fb4 6fbd
00000140: 8cc0 8e3c 26b7 cb3d 5427 a4bd 8af6 863c
00000150: 2cc6 783d b85f 27bd 2819 f4bc ca4a b53d
00000160: 99ac d2bd 8ba5 6abd 72fa d7bd 7259 57bd
00000170: a7d1 aa3d 4baf 79bd ef98 c7bd 772a 58bc
00000180: 0cfb f73d 1ad9 08bd 120d 2a3c 2bab 5ebb
00000190: 139e 633d 17f0 05be 6d39 8d3d 93aa 3fbd
000001a0: 6d2f ba3d 6ac9 ecbc a387 453d dfaa 703d
000001b0: 137d 703d c2f7 ca3d 5638 cfbc e1a2 debd
000001c0: 885c ad3d 3764 ed3d edfa e2bc b24a 45bd
000001d0: 61ad 8e3d 020e 7cbd 4e65 1f3d 9ea0 47bd
000001e0: 791b 0e3c 8bc9 7f3b e273 42bd 4c7b 14be
000001f0: 25bf c43d 3f1b a8bd 9720 ca3b 54c5 9b3a
00000200: 3020 5a3d 7eab ba3d 75d8 46bd 25a5 13bd
00000210: 036e d3bd 4002 d4bd e16b 8b3b a845 a93d
00000220: dc57 2bbc 0663 993c 27a5 473c a41c f33d
00000230: 35bb 0c3d 5a6b b6bd 0f03 48bd 159a 8b3d
00000240: b7cb 8bbc e73a b53b 8f0c a3bd 60f2 f93d
00000250: d599 843c 9c9b 2ebd 596c 56bc af82 0a3e
00000260: ea8a fc3d 41e5 a8bd 1d7d babb 61b6 a23d
00000270: df17 f83c f265 033c f8c2 acbd 697f e53d
00000280: bd32 f3bd aa54 523c 1c6b 19be 407e b83d
00000290: 3722 36bc bbe5 c23d 4a0b 1f3d fa9b acbd
000002a0: 6003 4cbc 7388 27bd 3e5a b73d e8eb 86bb
000002b0: 2bfc 91bd 7088 afba c2e3 4cbd 78b3 393d
000002c0: d365 3f3d d5c3 0e3d 35e5 f2bc cb5c 2b3c
000002d0: 6b8d 8ebd dec5 dc3b 979e 2b3e 5b85 843d
000002e0: 5029 33bd 56f3 d1bd bd60 cdbc a2e5 febc
000002f0: 6714 4f3d 6c22 be3c 8aa4 acbd fd88 c43b
00000300: e579 73bd 414f 8ebd 8dda d93d 8ffd 693d
00000310: f46e 8c3d 37a0 353d e9fe 05be b389 b93d
00000320: 6a0c 28bd e85e 80bd 9628 19bd d947 07bd
00000330: 8faf c1bd 7aed ea3d 6e04 8e3d e193 b93d
00000340: d1a3 2d3c f511 693d 466b a8bd 3846 34bc
00000350: 8da1 aa3d d4d2 ce3d c7eb d93d fbc0 32bd
00000360: 03c6 4abd 54ed b83d 2be4 9bbd 5546 8bbc
00000370: 8968 9cbd 46ca 093d 71f2 843d 24e1 943d
00000380: f818 a73d 1ea0 223d ccf2 d4bc 514f 97bc
00000390: 946b 863c c2e5 c03c 8624 3fbd 9ca0 f8bc
000003a0: 1b1d b33c a747 a6bd 5545 eabd 38c2 f63c
000003b0: a651 85bd aae0 bc3d 7e38 5a3c f5c0 85bd
000003c0: 8893 703c 54e6 e13d 8c5b 103d 9eec e73c
000003d0: 7af2 573d 9566 683d eabe 7dbc 2097 c93d
000003e0: 83da 0dbd 60cb 15bb 2b1d 04be 9ba1 873d
000003f0: c76f b33d cb53 e83c fa0e a6bd 933c d5bc

fc2.bias f4 [84]
0.016097756 0.011107295 -0.03672419 -0.060971808 0.056823034 -0.0047228425 0.101769924 0.039392404
-0.06040094 -0.02173016 -0.005261333 0.018550986 0.092285804 -0.0007898155 0.019410899 -0.05618722
-0.02726301 -0.008520145 -0.037623882 -0.081055865 0.07189195 0.07947517 -0.028816678 -0.06326961
0.037676316 0.1161041 0.014490063 0.060897473 -0.033507716 -0.041840766 -0.002061661 0.024747351
-0.06155873 -0.023539377 0.007042414 0.006138635 0.0670494 0.066580914 -0.07421051 0.002841717
-0.073294245 -0.02832496 -0.0572378 0.004355168 -0.012830603 0.0066967863 -0.019914664 -0.031149684
-0.04048951 -0.047933184 0.0554642 0.04773493 -0.0141189825 0.09133577 -0.060607366 -0.017606432
0.07071654 0.075077474 -0.010794786 0.038097333 -0.07170471 0.101634994 0.064641185 -0.08120776
0.14323217 -0.009259388 0.024722438 0.06020897 0.04210899 0.11546079 -0.06704704 -0.05768404
0.0578294 0.020888034 0.07472979 -0.07323959 -0.06468783 0.07763356 0.055425543 -0.04927081
0.025866736 -0.06437655 0.06631807 -0.051448733
00000000: 71df 833c 5ffb 353c 1b6c 16bd 93bd 79bd
00000010: 45bf 683d 13c2 9abb c06c d03d ee59 213d
00000020: fa66 77bd 7303 b2bc 4367 acbb 3df8 973c
00000030: 5700 bd3d 9f0b 4fba 9b03 9f3c 9224 66bd
00000040: ad56 dfbc 1498 0bbc 801b 1abd 9e00 a6bd
00000050: 163c 933d e1c3 a23d f410 ecbc 7f93 81bd
00000060: 7b52 1a3d fdc7 ed3d bb67 6d3c a16f 793d
00000070: 633f 09bd 3961 2bbd ef1c 07bb f5ba ca3c
00000080: 0225 7cbd a7d5 c0bc 0dc4 e63b 9a26 c93b
00000090: 3251 893d 935b 883d aefb 97bd 1a3c 3a3b
000000a0: 4b1b 96bd bf09 e8bc 2f72 6abd ccb5 8e3b
000000b0: 7337 52bc b770 db3b 1424 a3bc 9f2d ffbc
000000c0: 54d8 25bd 9655 44bd 6e2e 633d b485 433d
000000d0: 4e53 67bc 400e bb3d 6e3f 78bd 5d3b 90bc
000000e0: d5d3 903d 38c2 993d 9ddc 30bc f30b 1c3d
000000f0: ebd9 92bd 0226 d03d 9962 843d 4150 a6bd
00000100: 74ab 123e b0b4 17bc b686 ca3c ae9d 763d
00000110: 7a7a 2c3d b576 ec3d f54f 89bd 1a46 6cbd
00000120: 85de 6c3d 621d ab3c ef0b 993d a3fe 95bd
00000130: 0e7b 84bd 58fe 9e3d e505 633d 30d0 49bd
00000140: 7ae6 d33c dad7 83bd c5d1 873d e8bb 52bd

fc3.weight f4 [10, 84]
0.06848297 -0.15636551 0.08342679 -0.040683802 -0.21436372 -0.04701805 0.07683026 -0.15672396
-0.062147092 -0.1735278 -0.0681799 -0.107354075 0.09039222 -0.0069022207 -0.076349385 -0.011274897
0.08793748 -0.10255135 0.077744074 -0.091163374 -0.0011744439 0.043633223 0.052288327 0.011188835
0.00065862585 -0.09797351 -0.084745504 0.14097849 -0.17224494 0.07012089 -0.008562362 -0.092826866
-0.08856237 0.06899068 0.025367491 -0.018449277 -0.12556146 0.03977154 -0.093026936 -0.15177284
0.008529136 -0.08014026 -0.115446776 0.10128099 -0.05976297 -0.011478606 -0.08834399 0.14426453
-0.05979669 -0.018781405 0.11592265 0.029009216 -0.12479878 -0.10141379 -0.015221971 -0.13509178
-0.12546834 0.0049164225 0.14045042 0.085752845 0.05899792 -0.08641567 0.056475624 -0.12777263
-0.15164511 -0.06549645 0.0939651 0.06927106 -0.030186709 -0.0694917 -0.11795421 0.057539497
0.115939036 0.1499003 0.024146488 -0.09404933 0.106395826 0.08109437 0.03559724 -0.01878409
0.09452771 0.10750877 -0.09367966 -0.070979275 -0.024498295 0.12124408 -0.19893532 -0.11933579
0.15180582 0.11156488 0.068914436 0.11387425 0.0389547 0.11963339 0.04012811 0.133476
-0.18747994 0.06334364 0.0891984 0.056122705 -0.07221355 0.0720194 -0.10919263 -0.00450828
-0.01777094 -0.1561527 -0.12917817 0.020818485 -0.13118027 0.1503949 -0.10523325 -0.16865942
0.06522823 -0.0042091818 -0.18219057 -0.19371662 -0.009103916 0.007724112 -0.036678866 -0.08526221
0.02500998 0.15866219 -0.115734465 -0.037503954 0.022472918 -0.09604819 -0.14371671 -0.1119097
0.07643893 -0.052660152 0.013569985 -0.03681854 -0.13757055 -0.052329835 0.059878804 -0.1430655
0.036847457 0.15461674 -0.14401868 0.09384538 0.12061517 0.029492192 -0.13735932 -0.03221
-0.09405756 0.026692513 0.06855115 -0.052061174 0.07054017 -0.09550016 -0.13216422 -0.03227831
0.013111559 0.03957365 -0.17340489 -0.22445829 -0.08408777 -0.12927382 -0.016514722 -0.13908003
-0.08233723 0.010552549 0.075084925 0.04919205 -0.007889932 0.005677505 0.2067445 -0.0645757
-0.03261912 -0.17715518 0.029982192 0.012092335 -0.13550597 0.13263614 -0.08505045 0.10501553
-0.12908444 0.065079615 0.021719024 0.11238368 0.12561716 -0.09272784 -0.054229148 -0.057456344
-0.046250533 0.08161478 -0.06481776 0.007845567 0.08910863 -0.09275852 -0.1300713 -0.10519098
-0.08284336 -0.05855607 0.1223517 0.043960407 -0.039752632 -0.009027612 -0.115879886 -0.028524362
0.11838851 0.018569687 -0.046368096 -0.033723142 -0.023314418 0.08006397 0.05823676 0.10275978
0.051239133 -0.034652665 -0.08216029 -0.13139823 -0.04130549 -0.15542091 0.04998598 0.057948027
-0.04818314 0.008283777 -0.04414958 0.104292355 -0.17152484 0.07586501 -0.09416802 -0.082210764
-0.0022725342 0.095480435 0.029263204 -0.14085889 -0.036916316 0.06385103 -0.04283118 0.05334544
-0.15862736 -0.056696624 0.082671866 -0.017274179 -0.18945028 -0.00081130135 0.07318468 -0.09337757
-0.062186867 0.081960335 0.13602452 0.00096645986 -0.08766513 -0.10364939 -0.058965176 -0.01633376
0.039422143 0.122566156 0.100101754 -0.022278976 -0.017537618 -0.015179784 0.089432724 0.103931084
00000000: cd40 8c3d 481e 20be aadb aa3d 0fa4 26bd
00000010: 2a82 5bbe 0096 40bd 2f59 9d3d 3f7c 20be
00000020: f38d 7ebd 46b1 31be e7a1 8bbd 74dc dbbd
00000030: 8e1f b93d 062c e2bb 115d 9cbd 58ba 38bc
00000040: 9118 b43d 7106 d2bd 4938 9f3d ddb3 babd
00000050: ccef 99ba c0b8 323d 492c 563d 6051 373c
00000060: a2a7 2c3a 56a6 c8bd 0d8f adbd aa5c 103e
00000070: fa60 30be 8b9b 8f3d 2649 0cbc 031c bebd
00000080: 3060 b5bd fc4a 8d3d 7ccf cf3c f022 97bc
00000090: 2f93 00be 7be7 223d e884 bebd 576a 1bbe
000000a0: cabd 0b3c 9420 a4bd 5c6f ecbd 686c cf3d
000000b0: 04ca 74bd c310 3cbc b2ed b4bd 15ba 133e
000000c0: 60ed 74bd 76db 99bc db68 ed3d bca4 ed3c
000000d0: 8196 ffbd 08b2 cfbd 9365 79bc 8055 0abe
000000e0: c67a 00be f119 a13b 3cd2 0f3e 309f af3d
000000f0: cea7 713d b3fa b0bd fc52 673d d4d6 02be
00000100: db48 1bbe 0123 86bd c670 c03d fcdd 8d3d
00000110: 1e4a f7bc aa51 8ebd fa91 f1bd 89ae 6b3d
00000120: 7271 ed3d 777f 193e dbce c53c ef9c c0bd
00000130: 0ee6 d93d ce14 a63d 69ce 113d 18e1 99bc
00000140: be97 c13d 8f2d dc3d 1fdb bfbd 955d 91bd
00000150: a6b0 c8bc d14e f83d b3b5 4bbe 5366 f4bd
00000160: fc72 1b3e 217c e43d 0323 8d3d e736 e93d
00000170: f78e 1f3d 5a02 f53d 605d 243d efad 083e
00000180: befa 3fbe 4fba 813d a7ad b63d ece0 653d
00000190: b3e4 93bd e87e 933d 63a0 dfbd 32ba 93bb
000001a0: 5d94 91bc 7ee6 1fbe 4847 04be 878b aa3c
000001b0: 1f54 06be 1f01 1a3e 8884 d7bd 0eb5 2cbe
000001c0: 6196 853d 2ded 89bb 2a90 3abe a65d 46be
000001d0: 9728 15bc 8c1a fd3b 943c 16bd f49d aebd
000001e0: bbe1 cc3c 5778 223e 3106 edbd bf9d 19bd
000001f0: 2019 b83c eab4 c4bd 792a 13be ea30 e5bd
00000200: 048c 9c3d 2cb2 57bd a454 5e3c 0acf 16bd
00000210: 4bdf 0cbe cf57 56bd 7a43 753d c37f 12be
00000220: 5ced 163d da53 1e3e a279 13be 0232 c03d
00000230: 1605 f73d 9c99 f13c eca7 0cbe a2ee 03bd
00000240: 40a1 c0bd 42aa da3c 8c64 8c3d 193e 55bd
00000250: 5d77 903d 9695 c3bd 0f56 07be 4336 04bd
00000260: ddd1 563c fb17 223d 0d91 31be 65d8 65be
00000270: 3536 acbd 5b60 04be e249 87bc ff6a 0ebe
00000280: 6ca0 a8bd 99e4 2c3c 20c6 993d 9a7d 493d
00000290: c644 01bc 5d0a ba3b d5b4 533e 4440 84bd
000002a0: a09b 05bd 2b68 35be 379d f53c ee1e 463c
000002b0: 14c2 0abe c5d1 073e ee2e aebd 6212 d73d
000002c0: b62e 04be 7648 853d 18ec b13c 6a29 e63d
000002d0: c9a1 003e 18e8 bdbd 621f 5ebd 5857 6bbd
000002e0: 3371 3dbd a625 a73d 2cbf 84bd b18a 003c
000002f0: 967e b63d 2ef8 bdbd 6931 05be 5e6e d7bd
00000300: c8a9 a9bd 7dd8 6fbd 8793 fa3d d40f 343d
00000310: a8d3 22bd 8de8 13bc 6f52 edbd ecab e9bc
00000320: ad75 f23d 751f 983c 79ec 3dbd 4721 0abd
00000330: e1fd bebc 94f8 a33d ab89 6e3d b873 d23d
00000340: 20e0 513d f4ef 0dbd a743 a8bd 428d 06be
00000350: f22f 29bd a926 1fbe 19be 4c3d e95a 6d3d
00000360: af5b 45bd aeb8 073c 31d6 34bd 3b97 d53d
00000370: 35a4 2fbe 1d5f 9b3d 2adb c0bd 1e5e a8bd
00000380: ccee 14bb 3f8b c33d 63b9 ef3c 503d 10be
00000390: 9035 17bd 54c4 823d bf6f 2fbd c080 5a3d
000003a0: 366f 22be b83a 68bd de4f a93d 9482 8dbc
000003b0: 41ff 41be 83ad 54ba d9e1 953d bd3c bfbd
000003c0: a8b7 7ebd d2da a73d 034a 0b3e 065a 7d3a
000003d0: c789 b3bd 2246 d4bd 7885 71bd 61ce 85bc
000003e0: 1d79 213d f703 fb3d 2602 cd3d 6682 b6bc
000003f0: 0dab 8fbc a1b4 78bc 8128 b73d d2d9 d43d

fc3.bias f4 [10]
-0.0113474885 0.055616885 -0.0981656 -0.040211655 0.1012015 -0.022804206 0.022600075 -0.08425784
-0.07562707 0.008855853
00000000: d1ea 39bc 88ce 633d 0c0b c9bd fab4 24bd
00000010: bb42 cf3d e3cf babc cb23 b93c 608f acbd
00000020: 5ee2 9abd 2418 113c
