models/client-3-2.pth (torch, 239842 bytes, 12 tensors)

conv1.weight f4 [6, 1, 5, 5]
0	0x3e987129	0.29773834
1	0x3e92ce86	0.2867319
2	0xbc9fa5fd	-0.019488329
3	0x3d5924b8	0.053013533
4	0x3d64f9db	0.055902343
5	0x3e718e15	0.23589356
6	0xbd2783ca	-0.04089717
7	0xbdc6af6b	-0.09701427
8	0xbe397552	-0.1811116
9	0xbe124102	-0.14282611
10	0x3d2cba4b	0.04216985
11	0x3e01af55	0.1266454
12	0xbe76668e	-0.24062559
13	0xbe67ef3f	-0.22649859
14	0xbe8628fb	-0.2620314
15	0x3e27a5f1	0.16371895
16	0x3e882354	0.26589453
17	0x3ce5204f	0.027969508
18	0x3d02a851	0.0318988
19	0xbe244970	-0.16043639
20	0xbc6eb7be	-0.014570175
21	0x3e412696	0.18862376
22	0x3ec25428	0.3795483
23	0x3d7d66ae	0.0618655
24	0x3e873cfb	0.26413712
25	0xbeb55bb4	-0.35421526
26	0xbed3f868	-0.41400456
27	0xbe540ecd	-0.20708771
28	0xbeb3591c	-0.35028923
29	0xbe6b8e2b	-0.23003452
30	0xbe99653c	-0.29960048
31	0xbe8bc043	-0.27295122
32	0xbe2fa1c7	-0.17151557
33	0xbe641b71	-0.22276093
34	0xbe95afa0	-0.29235554
35	0x3e09b0f7	0.13446413
36	0x3e118d36	0.14214024
37	0xbdb1ba1d	-0.086780764
38	0xbd4ba3db	-0.04971681
39	0xbe3ec10c	-0.18628329
40	0x3e6b4133	0.2297409
41	0xb8ba8208	-8.893391e-05
42	0xbbff898e	-0.00779838
43	0x3cc43612	0.023951564
44	0x3d5ffa21	0.0546819
45	0xbc8888d5	-0.01666681
46	0x3d9ed13b	0.07754751
47	0x3eb9b8af	0.36273715
48	0x3d9afce8	0.07567769
49	0x3e8b5afc	0.27217853
50	0xbea9bbd3	-0.3315111
51	0xbec38b7c	-0.38192356
52	0xbea8c331	-0.3296142
53	0xbe272ffd	-0.163269
54	0x3e679665	0.22615965
55	0xbe12e71d	-0.14345975
56	0xbeb38444	-0.35061848
57	0xbe918db1	-0.28428414
58	0x3cf596ce	0.029979136
59	0x3ea400d9	0.32031897
60	0x3e6cd1ba	0.2312688
61	0x3d211472	0.03932614
62	0xbd2460ef	-0.040131506
63	0x3ec0f1ce	0.37684482
64	0x3d1d790a	0.03844551
65	0x3ec2bf11	0.38036397
66	0x3e0484ea	0.12941328
67	0x3e4c4895	0.19949563
68	0x3e5b0f4f	0.21392559
69	0x3ec752ad	0.38930264
70	0x3e0f9a5f	0.14023732
71	0x3ee12229	0.43971375
72	0x3ea1b93e	0.3158664
73	0x3ea17301	0.31533054
74	0x3e13d9c7	0.14438544
75	0x3c004e7c	0.007831212
76	0x3e496b5d	0.19669862
77	0x3e06f240	0.13178349
78	0x3d32a7dd	0.04361712
79	0xbcf896b5	-0.0303453
80	0x3dcad51d	0.099039294
81	0xbdeab8eb	-0.114610516
82	0x3e4b6d1e	0.19865844
83	0x3db20e3f	0.086941235
84	0x3e356364	0.17713696
85	0xbe0e9257	-0.13923012
86	0x3df6b611	0.12046445
87	0x3e9f8822	0.3115855
88	0x3e57a593	0.21059255
89	0x3e8e913a	0.27845174
90	0xbbee1a12	-0.0072662914
91	0x3df05fba	0.117370084
92	0x3dfda986	0.1238585
93	0x3e8e4499	0.2778671
94	0x3eca2609	0.39482144
95	0xbe26d067	-0.16290437
96	0xbe3a7c6a	-0.18211523
97	0x3da72356	0.08161037
98	0x3e4f2f96	0.20232996
99	0x3eb4ae46	0.3528921
100	0x3d44c373	0.048037957
101	0xbe4c7c53	-0.19969301
102	0xbe25ec6b	-0.16203468
103	0xbde9c222	-0.11413981
104	0x3e7e96fe	0.24862286
105	0x3e9bb62a	0.30412418
106	0x3e8b04ad	0.27152005
107	0xbda6e479	-0.081490465
108	0x3e9ecd0b	0.3101581
109	0x3e543635	0.20723803
110	0x3ddca8e8	0.10774404
111	0x3e194e7c	0.14971346
112	0x3e9a4bb3	0.3013588
113	0x3ea07376	0.3133809
114	0x3ed876c7	0.4227812
115	0x3e95f597	0.29288933
116	0x3b6b5566	0.0035909056
117	0x3e64a8ec	0.22330064
118	0x3e7280e8	0.23681986
119	0x3e52907d	0.2056293
120	0x3e6f5c8f	0.23375152
121	0x3dc1e38d	0.0946723
122	0x3d047b56	0.032344185
123	0x3e2562d5	0.16150983
124	0x3e868156	0.2627055
125	0xbe2c904c	-0.1685192
126	0x3e0b9286	0.13630113
127	0xbe056e21	-0.13030292
128	0x3e194dc7	0.14971076
129	0x3dbee42f	0.09320866
130	0xbe1f4079	-0.15551938
131	0x3c5fb21f	0.013653307
132	0x3ddf127d	0.10892198
133	0x3e8ca2d8	0.2746799
134	0xbdee1e26	-0.11626844
135	0xbdd8d167	-0.10586815
136	0xbd25f976	-0.040521108
137	0x3eb1b9c7	0.3471205
138	0xbc55a4b6	-0.013039758
139	0xbd7594b3	-0.059956264
140	0x3eac406f	0.3364291
141	0x3e7952f2	0.24348047
142	0x3dfdb1b9	0.123874135
143	0x3e5e16ac	0.21688336
144	0x3ec14208	0.3774569
145	0x3ead9286	0.3390085
146	0x3aad8bb9	0.0013240493
147	0x3db6339b	0.08896562
148	0x3e1cd94a	0.15317264
149	0x3ec00ab8	0.37508178

conv1.bias f4 [6]
0	0x3ded30da	0.11581583
1	0x3ecf560a	0.4049533
2	0x3e54978d	0.20760937
3	0xbb2d696d	-0.0026460544
4	0x3a30a3e3	0.0006738288
5	0xbd62f53c	-0.055409655

conv2.weight f4 [16, 6, 5, 5]
0	0x3d99631f	0.07489609
1	0x3d81dcd7	0.0634095
2	0xbd87dd00	-0.06633949
3	0x3d915cf9	0.07097811
4	0xba201816	-0.0006107105
5	0x3c40c698	0.011766098
6	0x3d565608	0.05232814
7	0xbd06ce62	-0.032911666
8	0xbd7b61ff	-0.061372753
9	0x3df5d501	0.12003518
10	0x3d2d69c9	0.042337213
11	0xbd14c669	-0.03632203
12	0xbd9993e9	-0.07498915
13	0xbc207d37	-0.009795479
14	0x3cec5849	0.028850691
15	0x3e0d9be0	0.13828993
16	0x3e19dbaa	0.15025201
17	0xbc9496d9	-0.018138336
18	0xbda93c9f	-0.08263516
19	0xbcd489ff	-0.025944708
20	0x3d4955ee	0.049154215
21	0x3e1d3718	0.15353048
22	0x3e1ab1c4	0.15106875
23	0x3d9b21ad	0.075747825
24	0x3d53db7c	0.05172299
25	0xbcd59976	-0.026074152
26	0xbc08aa65	-0.0083414065
27	0x3d82df5d	0.063902594
28	0x3cba9e5a	0.022780586
29	0x3d35d0dc	0.044388637
30	0xbda8bd5f	-0.08239245
31	0x3ca4b8bb	0.020107618
32	0x3d82cecc	0.063870996
33	0xbd11f429	-0.03563324
34	0x3c8ca303	0.017167574
35	0xbd5e7629	-0.054311905
36	0xbcff6549	-0.031176226
37	0xbc2eef03	-0.010677102
38	0x3bd10cf6	0.006379719
39	0x3b7ed6d2	0.0038885367
40	0x3de7c106	0.11316113
41	0x3e31e778	0.17373455
42	0x3d349dc5	0.044095773
43	0x3d54c9a5	0.051950116
44	0xbd26ece7	-0.04075327
45	0x3d16123f	0.036638495
46	0x3e40b483	0.1881886
47	0x3e6b1aaa	0.2295939
48	0x3e3cde6c	0.18444222
49	0x3e1ef4d0	0.15523076
50	0x3ccc06d8	0.024905607
51	0x3d10fb57	0.035395946
52	0xbd602409	-0.054721866
53	0x3d762840	0.06009698
54	0x3c5c4bdc	0.013445821
55	0xbd28824f	-0.041139897
56	0xbd95722b	-0.072971664
57	0x3d25d2b9	0.040484164
58	0xbca13ff6	-0.01968382
59	0x3d9ebeda	0.07751246
60	0x3ce90add	0.028447563
61	0xbe002bf2	-0.12516764
62	0xbe16d517	-0.14729725
63	0xbd01a4ab	-0.03165118
64	0xbe147bb8	-0.1450032
65	0x3d17e2a6	0.037081383
66	0x3c301c93	0.010749
67	0x3d5d38dc	0.054009303
68	0xbbd671d0	-0.006544329
69	0xbdd19a52	-0.102345124
70	0x3cda08f1	0.026615592
71	0x3e0fbeea	0.14037672
72	0x3dee75df	0.11643576
73	0x3e3cd506	0.18440637
74	0x3d14e152	0.036347695
75	0x3d4d6363	0.05014361
76	0x3d8a8120	0.0676291
77	0xbd334730	-0.04376906
78	0x3c1639cc	0.009169053
79	0x3c1bd98f	0.009512319
80	0x3c768dc2	0.015048446
81	0x3d7ad5ae	0.061238937
82	0xbd995d44	-0.07488492
83	0xbc6f5062	-0.014606567
84	0xbce220e1	-0.027603569
85	0xbd74c49e	-0.05975782
86	0xbdad9baf	-0.0847696
87	0x3cf9a4cd	0.030474091
88	0xbdb09151	-0.08621467
89	0x3c9d49b5	0.019200185
90	0x3db109c6	0.08644442
91	0x3c154f74	0.009113181
92	0xbd0d6e7c	-0.034529194
93	0xbdc6bf51	-0.097044595
94	0xbe0c17a1	-0.13680889
95	0x3e1df804	0.15426642
96	0x3e21aea1	0.15789272
97	0x3dadae8e	0.08480559
98	0x3c74d05c	0.014942255
99	0xbd637504	-0.055531517
100	0xbdb42c22	-0.0879748
101	0xbd5b372a	-0.053519405
102	0xbc63e6f7	-0.013910047
103	0x3d209261	0.039202098
104	0x3d9bd090	0.076081395
105	0xbd7dd656	-0.061971985
106	0xbd5c7969	-0.053826723
107	0x3d4e7d91	0.05041272
108	0x3da83f91	0.08215249
109	0x3cfd1a75	0.030896405
110	0xbb84c6cf	-0.00405202
111	0xbdae18b6	-0.08500807
112	0xbdff5383	-0.124671005
113	0xbdef0a88	-0.116719306
114	0xbdd851ca	-0.10562475
115	0x3ca01a4f	0.019543795
116	0xbc47fe6d	-0.012206656
117	0xbdc346e3	-0.09535005
118	0xbe0b12b7	-0.13581358
119	0xbdc8b3b4	-0.09799901
120	0x3cefadf0	0.029257745
121	0xbc89e386	-0.016832124
122	0xbbd3c443	-0.006462605
123	0x3d718645	0.05896594
124	0x3da3cdef	0.07998263
125	0xbd919632	-0.071087256
126	0xbc66728b	-0.014065395
127	0xbd433c60	-0.047665
128	0xbd656e37	-0.056013312
129	0xbd2a3fe6	-0.041564845
130	0xbcc1f305	-0.023675451
131	0xbdf49fe6	-0.11944561
132	0xbcf30e51	-0.029669913
133	0xbcec7bae	-0.028867569
134	0xbcc0cb66	-0.023534488
135	0x3c84d4da	0.016214777
136	0xbd2eff84	-0.042724147
137	0xbe275616	-0.16341433
138	0xbe01a318	-0.12659872
139	0xbdf6314c	-0.120211214
140	0x3d297e8e	0.041380458
141	0xbd888fca	-0.066680506
142	0xbcd3e99a	-0.025868226
143	0xbdd2e83d	-0.10298202
144	0xbd57103c	-0.052505717
145	0x3e24dd42	0.16100028
146	0x3ccfb1e8	0.025353387
147	0x3e2b07ca	0.1670219
148	0x3d63daba	0.055628516
149	0x3e0e8378	0.13917339
150	0x3cbff0db	0.023430279
151	0xbdb3f5f2	-0.08787145
152	0xbdab11b4	-0.08352986
153	0xbd84309a	-0.064545825
154	0xbd678881	-0.056526665
155	0xbda5c17c	-0.08093545
156	0xbc48030e	-0.01220776
157	0xbba8e9c0	-0.0051548183
158	0xbdaf1f49	-0.08550889
159	0xbc417675	-0.0118080275
160	0x3c9945aa	0.018709976
161	0x3db4e898	0.08833426
162	0x3cedf7fc	0.029048912
163	0xbc5fd3ad	-0.013661307
164	0x3ddf0b98	0.10890883
165	0xbcb13cf3	-0.021635508
166	0x3b1c8f52	0.0023889137
167	0xbdea59b7	-0.11442893
168	0xbdead5e2	-0.11466576
169	0xbb9ad9ea	-0.0047256844
170	0xbd7f01dc	-0.062257633
171	0xbe580607	-0.21096049
172	0xbe3c5840	-0.1839304
173	0xbcc40705	-0.023929128
174	0x3e06be10	0.1315844
175	0x3d26d3af	0.04072922
176	0x3bc4abde	0.0060019335
177	0xbbe700b2	-0.0070496434
178	0x3dbd0733	0.09229889
179	0x3d8d84c8	0.06910092
180	0x3d08f12a	0.033433117
181	0xbd1aa7ad	-0.037757564
182	0xbd223b8e	-0.039607577
183	0xbc468cd5	-0.012118538
184	0x3cee58c1	0.029095056
185	0xbd86fdd1	-0.065913804
186	0xbdd6c4c8	-0.10486752
187	0xbd001849	-0.03127316
188	0xbe18be80	-0.1491642
189	0xbd4e0385	-0.050296325
190	0x3c4ae88a	0.012384543
191	0x3d9da1bf	0.07696866
192	0xbc93a680	-0.01802373
193	0xbe1ec0dc	-0.15503258
194	0xbe0f6a42	-0.14005378
195	0x3dd75f82	0.105162635
196	0x3db88dc2	0.09011413
197	0xbd076cb1	-0.03306264
198	0xbe1222fd	-0.1427116
199	0xbde5fb85	-0.11229614
200	0x3b67b7e5	0.0035357412
201	0x3d72577a	0.059165455
202	0xbbb1e72c	-0.005429169
203	0x3c241ad0	0.010016158
204	0x3d0aaadf	0.03385436
205	0x3d3dccb9	0.046337817
206	0x3d7728e9	0.06034175
207	0x3c81b095	0.015831271
208	0x3b38eb20	0.0028216317
209	0x3d644ea2	0.055739053
210	0xbdbdfcde	-0.09276746
211	0xbdc5c023	-0.09655788
212	0xbd69576f	-0.05696815
213	0x3dbdbdbe	0.09264706
214	0x3d99c88c	0.075089544
215	0xbe196939	-0.14981546
216	0xbd72abe3	-0.059245955
217	0x3d9848b1	0.0743574
218	0x3deb7bba	0.11498208
219	0xbe050b8e	-0.12992689
220	0xbdaad7a8	-0.083419144
221	0x3d9ae7e1	0.07563759
222	0x3e10947b	0.14119141
223	0x3dd244f5	0.10267059
224	0xbe614878	-0.22000301
225	0xbb7727c7	-0.0037712918
226	0xbd07d57a	-0.03316257
227	0x3b0b65ab	0.0021270316
228	0x3c932248	0.017960683
229	0xbd18b216	-0.03727921
230	0x3d8a4eb9	0.067532964
231	0xbd5d46e9	-0.054022703
232	0xbcd1ff51	-0.02563444
233	0x3e2b3868	0.16720736
234	0x3cb5a4fb	0.022173395
235	0xbcd2caeb	-0.025731524
236	0xbbc84527	-0.006111759
237	0x3dc4110c	0.09573564
238	0x3d2b0833	0.041755866
239	0xbd795fbe	-0.060882322
240	0xbe558ccd	-0.20854492
241	0xbd765d13	-0.060147356
242	0x3d4a15ec	0.049337313
243	0x3d729fb0	0.05923432
244	0xbd70659d	-0.058690656
245	0xbd491760	-0.049094558
246	0x3d9984cd	0.07496033
247	0x3db7a36e	0.089667186
248	0x3d80da64	0.06291655
249	0xbc8352ce	-0.016030695
250	0xbd08e432	-0.03342075
251	0x3bffa81a	0.0078020217
252	0x3d09b708	0.033621818
253	0x3d9fedc9	0.07809026
254	0x3d94259d	0.07233737
255	0xb8eb15f0	-0.000112097594

conv2.bias f4 [16]
0	0x3d732be0	0.059368014
1	0x3c979cbf	0.01850736
2	0xbd1514c7	-0.036396768
3	0xbdac4ca8	-0.084130585
4	0xbd2b8b02	-0.041880615
5	0xbda5b5d4	-0.080913216
6	0xbcfc5945	-0.030804286
7	0xbce934f2	-0.02846763
8	0xbd2aecca	-0.041729726
9	0xbd82486a	-0.06361468
10	0x3c66e85b	0.014093484
11	0xbc1a1216	-0.009403726
12	0xbdc80043	-0.09765675
13	0xbd201619	-0.039083574
14	0xbd13bab2	-0.03606672
15	0x3cac7d21	0.02105576

fc1.weight f4 [120, 256]
0	0xbbf3282f	-0.0074205617
1	0xbcde122c	-0.027108274
2	0xbd733597	-0.05937728
3	0xbd779469	-0.06044427
4	0x3cf845c9	0.030306714
5	0x3ac2c942	0.0014861005
6	0x3d8c23c4	0.06842759
7	0xbc34cd56	-0.011035284
8	0x3cca00bf	0.024658559
9	0x3bc5ab4c	0.006032383
10	0xbce0099d	-0.027348334
11	0x3d5b5929	0.053551827
12	0xbcade865	-0.021228978
13	0xbb072fa5	-0.0020627764
14	0x3ca60e32	0.02027044
15	0xbd443d2d	-0.047909904
16	0x3cb5ac3b	0.022176852
17	0x3d75b460	0.059986472
18	0x3cc36740	0.023852944
19	0x3d80a00f	0.06280529
20	0xbb1dc94d	-0.0024076283
21	0x3d147f19	0.036254022
22	0xbceb0f93	-0.02869395
23	0xbccf1d5d	-0.025282556
24	0x3bf2f654	0.0074146185
25	0x3d27af55	0.040938694
26	0x3c850205	0.016236315
27	0x3c3effd0	0.01165767
28	0x3d1bde4e	0.038053803
29	0xba85f2aa	-0.0010219414
30	0x3d6d5ca6	0.057949685
31	0x3b556f0d	0.0032567412
32	0xbc1a5a19	-0.009420895
33	0x3b193e0a	0.0023382925
34	0x3d588b4b	0.052867215
35	0xbc0cd9fc	-0.008596893
36	0xbb78784b	-0.0037913497
37	0x3a3c6fe8	0.0007188306
38	0x3bcb9571	0.006212883
39	0x3b7bb8b8	0.0038409662
40	0x3d2e1722	0.04250253
41	0xbd564526	-0.05231204
42	0x3d4b119a	0.049577333
43	0xbc8948b8	-0.016758308
44	0xbcf7fe98	-0.030272767
45	0xbca235e8	-0.019801095
46	0x3d0f8472	0.03503842
47	0x3d6bb15e	0.057542197
48	0xbd1a0d59	-0.037610386
49	0x3d22e1b7	0.03976604
50	0xbd19dca7	-0.037563946
51	0xbc50bc0b	-0.012740145
52	0xbd2ecc1e	-0.04267513
53	0x3cd40e3a	0.02588569
54	0x3d7798bc	0.060448393
55	0xbd9ba122	-0.07599093
56	0xbd0d62df	-0.03451812
57	0xbd508f88	-0.050918132
58	0x3d65c361	0.05609453
59	0xbd87b588	-0.06626421
60	0xbc4bada8	-0.01243154
61	0x3c3563e9	0.011071184
62	0xbb226a96	-0.0024782768
63	0x3ce7acb0	0.028280586
64	0x3c7600d7	0.015014849
65	0xbcf847e8	-0.030307725
66	0xbcac33a1	-0.021020712
67	0xbc9766ef	-0.0184817
68	0x3d3c4864	0.045967475
69	0x3cb8b0c0	0.022545218
70	0xbc194330	-0.009354398
71	0x3d1facc1	0.03898311
72	0x3c9b4f68	0.018958762
73	0xbcf2ca6b	-0.029637536
74	0x3979b470	0.00023813709
75	0xbcd038fe	-0.025417801
76	0xbd5e5937	-0.0542843
77	0xbd048ee5	-0.032362837
78	0xbd53f08b	-0.05174307
79	0xbcd5b199	-0.026085662
80	0xbd63e72b	-0.05564038
81	0xbd18862d	-0.037237335
82	0x3d9aac26	0.07552366
83	0x3a09ad0b	0.00052519207
84	0x3ce7c889	0.028293865
85	0xb9bbb238	-0.00035800203
86	0xbdaa84f6	-0.083261415
87	0x3d41a92d	0.04728048
88	0x3bd6c5f1	0.006554358
89	0x3c0f28a4	0.008737717
90	0xbd4ca6c9	-0.049963746
91	0x3c0f1afa	0.008734459
92	0xbc9a72f1	-0.018853636
93	0x3d147054	0.036239937
94	0xbcba4d90	-0.022742063
95	0xbc3251f0	-0.010883793
96	0x3d22ba8a	0.03972868
97	0xbb817808	-0.0039510764
98	0xbcb2a288	-0.021806017
99	0x3c7cb194	0.015423197
100	0xbcc5a62f	-0.024127094
101	0xbcc18086	-0.023620855
102	0xbbaeb713	-0.0053318827
103	0x3c0ecfa3	0.008716497
104	0x3c26ec34	0.010188151
105	0xbcc32304	-0.023820408
106	0xbd20b9b2	-0.039239593
107	0x3c31877a	0.010835523
108	0xbbcb69f2	-0.006207698
109	0x3ce8ae23	0.028403347
110	0x3cdad0ea	0.026710946
111	0xbd04a260	-0.032381415
112	0xbd208c3b	-0.039196234
113	0xbc623cb7	-0.013808421
114	0x3c10c8f5	0.008836974
115	0x3da02298	0.07819098
116	0x3cc2307b	0.023704758
117	0x3d30daea	0.043177523
118	0xbd753ae4	-0.059870616
119	0xbd1b9216	-0.037981115
120	0xbda38808	-0.0798493
121	0xbc56ac63	-0.013102624
122	0x3aa7ea6e	0.0012810954
123	0xbd11d3a1	-0.035602216
124	0x3d2af620	0.04173863
125	0x3d81d75d	0.063399054
126	0x3d7490d0	0.059708416
127	0x3d1f5cb1	0.038906757
128	0x3d0b0623	0.0339414
129	0xbca2fbc5	-0.019895444
130	0x3d85580c	0.06510934
131	0x3c79ced3	0.015247065
132	0x3c6cbe12	0.014449613
133	0xbced2473	-0.028948044
134	0xbd48cc84	-0.049023166
135	0xbd6d9414	-0.058002546
136	0x3cc32a8e	0.023824003
137	0xbc05e47f	-0.0081721535
138	0xbcfe7cf1	-0.031065436
139	0xbd799baa	-0.06093947
140	0x3d5d8ed7	0.0540913
141	0x3d5270c7	0.051377084
142	0xbcb05414	-0.021524467
143	0xb9fffca6	-0.00048825628
144	0xbd2e8140	-0.04260373
145	0xbcba568a	-0.022746343
146	0x3d01b8ca	0.03167037
147	0xbc884a5a	-0.016637016
148	0xbd54b9ad	-0.051934887
149	0x39d9c383	0.00041535133
150	0x3af5b664	0.0018746373
151	0x3ac83082	0.0015273246
152	0xbcfd3fd7	-0.03091423
153	0xbc63c575	-0.013902058
154	0xbad9b2f2	-0.0016609116
155	0x3d299c55	0.041408855
156	0xbd65b89b	-0.056084257
157	0x3c66bf58	0.014083706
158	0x3d65868d	0.05603652
159	0xbc83b1ce	-0.016075995
160	0x3cf9cd3e	0.030493375
161	0x3c9c9c6c	0.019117557
162	0x3da30d80	0.07961559
163	0x3c9a99bb	0.018872133
164	0xbd9dea89	-0.0771075
165	0x3c60c73a	0.013719374
166	0x3d22ee43	0.039778005
167	0x3da3e40d	0.080024816
168	0x3cbec82b	0.023288807
169	0x3d47494f	0.048653897
170	0x3d8298bc	0.06376788
171	0x3c8abe7c	0.016936533
172	0x3d9533ed	0.07285295
173	0x3d866311	0.06561864
174	0x3d24c675	0.040228326
175	0xbc135ebb	-0.0089947535
176	0xbce2872b	-0.027652344
177	0xbd4fca02	-0.05072976
178	0xbd88e6ad	-0.06684623
179	0x3d36f8c8	0.04467085
180	0x3bbf3d3c	0.005836157
181	0xbaf04eae	-0.0018333995
182	0x3cfc908d	0.030830646
183	0x3db04278	0.08606428
184	0x3c0d2d9e	0.008616833
185	0x3d5beb02	0.053690918
186	0xbd073526	-0.03300967
187	0xbd0e3041	-0.034713987
188	0x3d39f883	0.045403015
189	0x3d612d51	0.054974858
190	0xbd1f875b	-0.038947444
191	0xbbb2993d	-0.0054503963
192	0xbce70f68	-0.028205588
193	0x3d35652b	0.044285934
194	0xbba4aa54	-0.0050251875
195	0xbc44296f	-0.011972769
196	0xbd57cdce	-0.052686505
197	0x3c9ee921	0.019398274
198	0xbd114f5c	-0.035476074
199	0xbd81793f	-0.06321954
200	0x3b29f1af	0.0025931408
201	0x3d029794	0.031882837
202	0xbc53c167	-0.012924529
203	0xbc9a4afd	-0.018834585
204	0x3d189a9c	0.037256822
205	0xbd118137	-0.03552362
206	0x3d025517	0.03181943
207	0x3cb24cf3	0.021765208
208	0x3d738491	0.059452597
209	0xbc4b9552	-0.012425737
210	0x3c998160	0.018738449
211	0x3c3359eb	0.010946731
212	0xbd19194b	-0.037377637
213	0x3d6ee67e	0.058325283
214	0x3d9f14a7	0.07767611
215	0xbc9ed66a	-0.01938935
216	0xbcc8186a	-0.024425704
217	0xbc77cc1f	-0.01512435
218	0xbd43b1b5	-0.047776897
219	0xbd82bfa7	-0.06384211
220	0x3dd73a9c	0.10509226
221	0x3cd2b426	0.025720667
222	0x3d3cc1c4	0.046083227
223	0x3d8a3136	0.067476675
224	0x3d345805	0.044029254
225	0xbcf3374a	-0.02968945
226	0xbd5a1ae4	-0.0532483
227	0xbd1fde24	-0.03903021
228	0xbd496d23	-0.049176347
229	0xbb4ed4a8	-0.0031559858
230	0x3d8e389f	0.06944393
231	0x3cb68509	0.022280233
232	0xbc6d8090	-0.014495984
233	0x3d323fb6	0.04351779
234	0xbd1f2c2d	-0.03886049
235	0x3cfaa642	0.030596856
236	0xbd4de481	-0.050266746
237	0x3cd88300	0.026429653
238	0x3cd4508c	0.025917314
239	0xbceafcc5	-0.028684983
240	0x3d2f1238	0.042741984
241	0x3d3093e8	0.043109804
242	0x3d60916b	0.05482618
243	0x3d3417ce	0.043968014
244	0x3d09ef21	0.033675317
245	0xbd1a2b44	-0.037638918
246	0xbce411ea	-0.027840573
247	0x3d436481	0.04770327
248	0xbc8734d6	-0.016504686
249	0x3b495494	0.0030720579
250	0xbb06afc5	-0.0020551544
251	0xbd06dfca	-0.032928266
252	0x3dab668b	0.08369168
253	0x3c8e4997	0.017369075
254	0xbce4ac28	-0.027914122
255	0x3caa2954	0.02077166

fc1.bias f4 [120]
0	0x3d6ad3d7	0.057330932
1	0xbd775d4d	-0.060391713
2	0x3cd123f9	0.025529848
3	0x3c43be6e	0.011947257
4	0x3d88e6f0	0.06684673
5	0x3d179edd	0.03701674
6	0x3d013cc8	0.031552106
7	0xbcfdf8e9	-0.031002479
8	0xbd21ce94	-0.03950365
9	0x3d537358	0.051623672
10	0x3d5de485	0.05417301
11	0x3caf1777	0.021373494
12	0x3c276cfa	0.010218853
13	0x3d4aafa7	0.04948392
14	0xbd4d1f4f	-0.050078686
15	0xbcfbaeac	-0.030722938
16	0xbd32dad7	-0.043665733
17	0x3d919275	0.071080126
18	0xbd133980	-0.03594351
19	0x3d2553fa	0.04036329
20	0x3d1c9905	0.03823187
21	0x3d820c30	0.06349981
22	0xbcc76c14	-0.024343528
23	0x3d54021f	0.051759835
24	0x3c172a6f	0.009226426
25	0xbcb2c296	-0.021821301
26	0x3d1b1921	0.03786576
27	0xbd600ba9	-0.05469862
28	0x3cc2578a	0.023723383
29	0xbd778535	-0.06042977
30	0xbd0ed2ef	-0.03486913
31	0x3c8c113e	0.017098065
32	0xbd91bf7f	-0.07116603
33	0x3d1b9d63	0.037991893
34	0x3d2d73dc	0.04234682
35	0x3d389515	0.04506405
36	0xbb58a3d1	-0.0033056627
37	0x3d33c043	0.043884527
38	0x3bd0a6c6	0.006367537
39	0x3d13335b	0.03593765
40	0xbce157f1	-0.027507754
41	0x3c500a09	0.012697705
42	0x3b5f9be9	0.003412003
43	0x3d1b3f34	0.037902072
44	0x3d33fb19	0.043940637
45	0x3a0c83a1	0.00053601904
46	0x3ca3eef7	0.020011408
47	0xbd42fed9	-0.047606323
48	0x3c9a456f	0.018831937
49	0xbd6d03cc	-0.05786495
50	0x3c97a767	0.01851244
51	0x3c22ddf2	0.009940611
52	0x3d89138d	0.06693182
53	0x3d0b27fb	0.033973675
54	0xbbc63eb6	-0.006049956
55	0x3d144a53	0.036203694
56	0x3db01b57	0.08598965
57	0xbd264fde	-0.04060351
58	0xbcf8df7e	-0.030380007
59	0x3d07bf63	0.033141505
60	0xbbb4266d	-0.005497745
61	0xbcec7d79	-0.028868424
62	0x3d850947	0.0649591
63	0x3d8c7121	0.06857515
64	0xbb980421	-0.004639164
65	0xbd9f8f9d	-0.07791064
66	0x3baafa96	0.0052178605
67	0x3d235fa0	0.039886117
68	0x3d154720	0.036444783
69	0x3d937061	0.07199169
70	0xbd7a8af3	-0.06116767
71	0x3d2f5452	0.042805023
72	0xbceac050	-0.028656155
73	0xbd8b7638	-0.06809658
74	0x3c8c2aa8	0.017110184
75	0xbd0aaa1d	-0.03385364
76	0xbbfdc4b5	-0.0077443966
77	0x3d2caae9	0.04215518
78	0xbd00f088	-0.03147939
79	0x3d9f708e	0.0778514
80	0x3c9dfa79	0.019284474
81	0x3b4e3cf0	0.0031469427
82	0xbd0a0ee8	-0.033705622
83	0x3ca4e364	0.02012796
84	0xbd583898	-0.052788347
85	0xbc7c2a2f	-0.015390917
86	0xbd6cbfeb	-0.057800215
87	0x3ce2dd88	0.027693525
88	0x3c6dae6a	0.014506916
89	0xbd4b202d	-0.049591232
90	0x3d6a5af5	0.05721565
91	0x3d417724	0.047232762
92	0x3d659c1d	0.056057084
93	0xbcc45d93	-0.0239704
94	0x3b3f2480	0.0029166043
95	0xbd351281	-0.0442071
96	0x3d84c15e	0.06482194
97	0x3c7a4d95	0.015277286
98	0xbc675e1d	-0.014121559
99	0xbc989363	-0.018624967
100	0xbc85fe30	-0.016356558
101	0xbd2471fd	-0.04014777
102	0x3ae39ae9	0.0017364892
103	0xbd86b5b7	-0.06577628
104	0x3d782a6f	0.060587343
105	0xbd3893d1	-0.045062844
106	0x3d8b85a0	0.06812596
107	0xbd60f97b	-0.054925423
108	0x3d817589	0.06321246
109	0x3d09a6a6	0.033606194
110	0xbd0f3b6e	-0.034968786
111	0xbd6e4caa	-0.05817858
112	0xbce712d7	-0.028207226
113	0x3d59b30a	0.05314926
114	0x3d48f5a6	0.049062394
115	0xbd49c2e5	-0.04925813
116	0x3d29f265	0.04149093
117	0x3a06d742	0.000514377
118	0xbd7c3244	-0.061571375
119	0x3d5adc65	0.05343284

fc0.weight f4 [120, 120]
0	0x3dc3f77c	0.09568688
1	0x3d6252e9	0.05525485
2	0x3d30d98f	0.04317623
3	0x3e081041	0.1328745
4	0xbd946853	-0.07246461
5	0x3d1b4177	0.03790423
6	0x3cd8d603	0.026469236
7	0x3b902bde	0.0043997606
8	0x3e003e91	0.12523867
9	0x3d275ec4	0.04086186
10	0x3d3ce912	0.04612071
11	0x3dba6a83	0.09102347
12	0x3d9788da	0.07399149
13	0x3d930343	0.071783565
14	0x3db03282	0.086033836
15	0xbd6847fc	-0.056709275
16	0x3d4d92ba	0.050188757
17	0xbc824737	-0.015903099
18	0xbd7204bf	-0.059086557
19	0xbdaecdba	-0.08535333
20	0xbde019ea	-0.10942443
21	0xbdc0ef92	-0.094206944
22	0xbd6a18ec	-0.057152674
23	0x3c8a1217	0.016854329
24	0x3d91299e	0.07088016
25	0x3c49b635	0.012311508
26	0xbdb1d730	-0.08683622
27	0xbdc34639	-0.09534878
28	0xbdb4707a	-0.08810516
29	0xbc632a6c	-0.013865095
30	0x3da21f60	0.079161406
31	0xbd7ddee9	-0.06198016
32	0xbba107ec	-0.0049142744
33	0x3d357204	0.044298187
34	0xbc892942	-0.016743306
35	0x3d6a5f94	0.057220057
36	0xbd10f14b	-0.035386365
37	0xbd9a5057	-0.07534855
38	0xbd4abc0f	-0.049495753
39	0x3c92817b	0.017884007
40	0xbd7665d9	-0.060155723
41	0x3d004780	0.031318188
42	0xbd287896	-0.041130625
43	0x3da4ef80	0.080534935
44	0x3cb28b5b	0.021794965
45	0xbc7305f9	-0.014832967
46	0xbc0b87c6	-0.008516258
47	0x3e060204	0.13086706
48	0xbce68557	-0.028139753
49	0x3d814e1b	0.063137256
50	0x3ba5fa42	0.0050652334
51	0xbd816ab0	-0.06319177
52	0x3d157ff9	0.036498997
53	0x3c99c3e2	0.018770162
54	0x3d9e196b	0.07719692
55	0x3d648bd6	0.05579742
56	0x3dace06c	0.084412426
57	0xbd96b309	-0.07358367
58	0x3cd347e6	0.02579112
59	0x3dfed0a0	0.12442136
60	0xbdb0c43c	-0.08631179
61	0xbd869618	-0.06571597
62	0xbd93cdcc	-0.07216987
63	0x3d776e04	0.060407653
64	0xbd8175b5	-0.06321279
65	0xbd83e22a	-0.06439622
66	0x3ce55945	0.027996669
67	0x3db4fecf	0.088376634
68	0xbc8ae4fd	-0.016954893
69	0xbbc67e20	-0.0060575157
70	0x3d5f75a0	0.054555535
71	0x3db69eb4	0.08916989
72	0x3c5f6235	0.013634254
73	0x3bfc9503	0.0077081933
74	0x3c035a4c	0.008017134
75	0xbcf30dc8	-0.029669657
76	0xbccc9e10	-0.024977714
77	0x3d7e6e89	0.062117133
78	0x3d015c3b	0.0315821
79	0x3daf238a	0.085517004
80	0x3d6e82ab	0.058230083
81	0x3df51ff8	0.11968988
82	0x3d700af5	0.0586042
83	0xbd12ff4d	-0.035888005
84	0x3d103843	0.035209905
85	0x3deab6f6	0.11460678
86	0xbccaa168	-0.024735168
87	0xba8b5004	-0.0010628705
88	0x3d720460	0.059086204
89	0xbd91d64e	-0.071209535
90	0x3c238d12	0.009982364
91	0xbde34f0b	-0.110990606
92	0xbccf52fd	-0.025308127
93	0xbd8a8816	-0.067642376
94	0x3d327070	0.04356426
95	0xbbfb3d69	-0.007667233
96	0x3d9d14b1	0.07669962
97	0x3cc323d2	0.023820791
98	0x3d6d280f	0.05789953
99	0x3b9f9942	0.0048705647
100	0xbcd1a35f	-0.025590597
101	0xbcfcd4af	-0.030863134
102	0x3d636a10	0.05552107
103	0xbd84c53d	-0.06482933
104	0x3d72650a	0.05917839
105	0x3dc04090	0.09387314
106	0x3d443ee2	0.047911532
107	0xbd985bf3	-0.07439413
108	0xba709c19	-0.0009178534
109	0x3d019706	0.031638168
110	0x3dab0187	0.08349901
111	0x3cf09adb	0.029370716
112	0x3c99b7e2	0.01876444
113	0x3cfca300	0.030839443
114	0xbcdda60a	-0.027056713
115	0x3ace2067	0.0015726209
116	0xbde8f705	-0.1137524
117	0x3d059ee8	0.032622248
118	0x3d43a43d	0.04776405
119	0xbdaa24fc	-0.083078355
120	0x3d0abfc7	0.0338743
121	0xbcc57a25	-0.024106095
122	0x3cfd5475	0.030924061
123	0x3d7847b4	0.060615256
124	0xbd2a3545	-0.041554708
125	0xbdaf3f8d	-0.08557043
126	0x3d9f2fdd	0.07772801
127	0x3d785561	0.0606283
128	0x3d8725e7	0.06599026
129	0xbd68be60	-0.05682218
130	0x3b028d38	0.0019920599
131	0x3d4e2b61	0.050334338
132	0x3d976296	0.07391851
133	0xbd8c5cc2	-0.0685363
134	0xbdd85fa7	-0.10565119
135	0xbda6b24f	-0.081394784
136	0xbca19196	-0.019722741
137	0x3db13c3e	0.086540684
138	0xbd5a9869	-0.053368006
139	0xbd352d80	-0.044232845
140	0x3d6b0972	0.057382055
141	0xbd888a43	-0.06666996
142	0xbd145843	-0.036216985
143	0xbcc29c68	-0.023756221
144	0xbd10774b	-0.035270017
145	0xbd0b82bb	-0.03406022
146	0xbc9fc1f6	-0.019501667
147	0xbc5abe1e	-0.0133509915
148	0x3d4a491b	0.049386125
149	0x3d9e99b9	0.07744164
150	0x3d0e8a7f	0.03480005
151	0x3dba1fc1	0.09088088
152	0xbcbeda4e	-0.023297455
153	0xbd893fb1	-0.06701601
154	0x3c7d514f	0.01546128
155	0x3e1d415a	0.15356961
156	0x3c931e5b	0.01795881
157	0x3b89e4b7	0.004208173
158	0x3d797f4c	0.060912415
159	0xbd1a4cda	-0.037670948
160	0xbc89d469	-0.016824918
161	0x3d2ab17d	0.041673172
162	0xbd0f624e	-0.03500586
163	0x3d24b656	0.04021295
164	0x3d593ae8	0.053034693
165	0x3dc05bd2	0.09392513
166	0xbd5704fb	-0.052494984
167	0x3db719c1	0.08940459
168	0x3d18bb06	0.037287734
169	0x3dc9cc7b	0.09853455
170	0xbcdecca6	-0.027197193
171	0xbdb9a968	-0.09065515
172	0x3d18a0af	0.037262615
173	0x3d2b902d	0.041885544
174	0xbd190928	-0.037362248
175	0x3cca201e	0.024673518
176	0xbdb71404	-0.089393646
177	0xbd1b39e1	-0.037896995
178	0x3c3767d9	0.011194193
179	0xbcf1f8e9	-0.029537635
180	0xbd6a80eb	-0.057251852
181	0x399876ae	0.00029080122
182	0xbc2c06b9	-0.01049965
183	0x3d8cc010	0.068725705
184	0x3de82e7c	0.11336991
185	0xbbfa2299	-0.007633519
186	0x3cdccd95	0.026953498
187	0x3d96dce0	0.07366347
188	0xbd731f67	-0.05935612
189	0xbc71c994	-0.014757533
190	0x3d812439	0.06305737
191	0xbdeaf96b	-0.11473354
192	0x3ddccae3	0.10780885
193	0xbd07c26d	-0.033144403
194	0x3ad5a394	0.001629936
195	0x3c1fff05	0.009765391
196	0x3bd98526	0.006638187
197	0x3d769d83	0.06020881
198	0x3d496d94	0.049176767
199	0x3d7c88ab	0.061653774
200	0x3d3dfc19	0.046382997
201	0xbc9a1be0	-0.01881212
202	0x3d851805	0.06498722
203	0x3d63124c	0.05543737
204	0x3d173bfc	0.03692244
205	0x3d7f507a	0.062332608
206	0x3b5d9698	0.0033811685
207	0x3d800d8e	0.06252585
208	0x3da01319	0.078161426
209	0xbaa119d7	-0.0012291026
210	0xbbb3694c	-0.005475199
211	0xbca5796c	-0.0201995
212	0xbdbc1af3	-0.09184828
213	0xbc675e0c	-0.014121544
214	0x3d4a1a81	0.049341682
215	0xbdc6d046	-0.09707694
216	0xbdbc3a0a	-0.091907576
217	0x3d88f94c	0.066881746
218	0x3d8826c1	0.06648017
219	0xbb73b5f4	-0.003718731
220	0x3d853547	0.065043025
221	0x3d475a12	0.048669882
222	0xbda65e34	-0.081234366
223	0x3d8ef9b3	0.0698122
224	0x3d887cd1	0.06664432
225	0x3d948e47	0.072537
226	0xbbfc0898	-0.007691454
227	0x3d1057de	0.035240047
228	0xbde20215	-0.11035553
229	0xbd70c712	-0.0587836
230	0xbd5739fc	-0.052545533
231	0x398ef9be	0.00027270423
232	0xbda61190	-0.081088185
233	0xbdca972c	-0.09892115
234	0x3c7caa76	0.0154215
235	0x3ca82b05	0.020528326
236	0x3c5c2b74	0.013438094
237	0x3d1f6b25	0.03892054
238	0x3c26de2b	0.010184805
239	0x3bb7b5cd	0.005606389
240	0xbcf35f92	-0.029708657
241	0x3d94f6b2	0.07273616
242	0xbd7652ad	-0.06013744
243	0x3cae43d8	0.021272585
244	0xbd7fecde	-0.062481754
245	0x3da86f66	0.082243726
246	0xbd4b46fc	-0.049628243
247	0x3b1b4932	0.002369475
248	0x3dc8becf	0.09802019
249	0x3db9631c	0.09052107
250	0xbda31566	-0.07963066
251	0xbdcd552f	-0.10026013
252	0x3c0ac339	0.008469396
253	0x3d81ee22	0.06344248
254	0x3dcd68ce	0.100297555
255	0x3c93cebd	0.018042916

fc0.bias f4 [120]
0	0x3ddd0d0f	0.10793506
1	0xbcb9820d	-0.02264502
2	0x3ca9d3bb	0.020730844
3	0xbd6625f4	-0.05618854
4	0xbc094044	-0.0083771385
5	0x3d0c9abd	0.034327257
6	0xbd43a85a	-0.047767974
7	0x3d40006e	0.04687541
8	0xbd3a2313	-0.045443606
9	0x3ce4ee9c	0.027945809
10	0x3d867158	0.06564587
11	0x3db948ba	0.090470746
12	0xbc265101	-0.010151149
13	0xbdc9d26b	-0.09854587
14	0xbd46fa80	-0.04857874
15	0xbd4b9989	-0.04970697
16	0x3b2acd01	0.0026062133
17	0xbce31169	-0.027718263
18	0x3ba5e934	0.0050632004
19	0x3da91a22	0.082569376
20	0x3d37e25d	0.04489361
21	0x3dccbb4f	0.09996664
22	0x3de2afc9	0.110686846
23	0x3ca75051	0.02042404
24	0xbdb05047	-0.08609062
25	0x3e0c3642	0.13692573
26	0xbd56c090	-0.052429736
27	0x3b0e07e4	0.0021672184
28	0x3c8f1e9f	0.017470656
29	0xbd71668a	-0.05893568
30	0xbd936b25	-0.071981706
31	0x3d3a7c75	0.045528848
32	0x3de16872	0.110062495
33	0x3cdd7c25	0.027036736
34	0xbcfff303	-0.031243807
35	0x3dc23243	0.09482243
36	0xbcea5166	-0.028603267
37	0xbdd1062d	-0.10206256
38	0x3bb155cb	0.0054118386
39	0x3da4fdcb	0.0805622
40	0x3d719f98	0.05899009
41	0xbd062a8e	-0.032755427
42	0x3d886bbd	0.066611744
43	0x3d228811	0.039680544
44	0x3d822446	0.06354575
45	0x3da1ceaa	0.07900746
46	0xbc177012	-0.009243028
47	0x3cbb9650	0.022898823
48	0x3dc8d55d	0.09806321
49	0xbc33a2d3	-0.010964113
50	0x3cf4c505	0.029879102
51	0xbdbafe3d	-0.09130523
52	0x3de5c2f6	0.112188265
53	0xbd3bce82	-0.045851238
54	0xbd7abd74	-0.061215833
55	0x3d83a090	0.06427109
56	0xbcd2a897	-0.025715156
57	0xbbb84ca5	-0.005624371
58	0xbcf67472	-0.030084822
59	0xbdb343a5	-0.087531365
60	0xbd90d93d	-0.07072685
61	0x3da551c7	0.080722384
62	0x3dbf0766	0.09327583
63	0x3d8761c4	0.06610444
64	0x3d517a7c	0.0511422
65	0xbd6332f8	-0.05546853
66	0x3d179d4f	0.037015256
67	0x3c79dad9	0.015249931
68	0x3d9cdda6	0.076594636
69	0xbcf7aeae	-0.030234661
70	0xbb89fdeb	-0.0042111776
71	0x3d8448aa	0.06459172
72	0x3d59ffc5	0.053222436
73	0xbdc13082	-0.0943308
74	0x3ba8477c	0.0051354747
75	0xbd8eeb13	-0.069784306
76	0x3d18601e	0.03720104
77	0x3d8cdd80	0.06878185
78	0xbd76bb61	-0.060237292
79	0xbceb7f5b	-0.028747251
80	0xbc6e3252	-0.0145383645
81	0xbda5ba6f	-0.080922
82	0xbacba490	-0.0015536714
83	0x3dc387a4	0.09547356
84	0xbcae8acc	-0.021306418
85	0xbc049f0c	-0.00809456
86	0x3ca00f4f	0.01953855
87	0xbd270a16	-0.040781103
88	0x3dc68b40	0.096945286
89	0xbd3ac950	-0.045602143
90	0x3dae432f	0.08508908
91	0x3d598105	0.05310156
92	0x3d90a44e	0.07062589
93	0x3dc9e8f8	0.098588884
94	0x3d6a9f91	0.05728108
95	0xbdb53c5d	-0.08849404
96	0x3dd200ff	0.10254096
97	0xbd9d5803	-0.076828025
98	0xbdaf07fe	-0.08546446
99	0x3d36a0d9	0.04458699
100	0xbd9f77e9	-0.07786543
101	0xbcdae777	-0.0267217
102	0x3d181c99	0.037136648
103	0x3caf7408	0.021417633
104	0x3dcd4fb4	0.10024968
105	0x3d1ecaa9	0.03876749
106	0xbdc67fa1	-0.09692312
107	0xbc011dc1	-0.007880629
108	0x3c51d903	0.012808087
109	0xbdadad1d	-0.08480284
110	0xbd090c7e	-0.03345918
111	0xbd0adc70	-0.03390163
112	0x3cdd02e5	0.02697892
113	0x3bf39b92	0.007434317
114	0xbc733edf	-0.014846533
115	0x3d215dfc	0.03939627
116	0xbd826f13	-0.06368842
117	0x3de72e3a	0.11288114
118	0x3e0177c0	0.12643337
119	0x3d9ced13	0.07662406

fc2.weight f4 [84, 120]
0	0x3c878003	0.016540533
1	0x3d0c9a74	0.034326985
2	0xbd1ae3d2	-0.037814923
3	0x3d836216	0.06415193
4	0xbd5ef014	-0.054428175
5	0x3d1eb89f	0.038750287
6	0x3d1ab744	0.037772432
7	0x3d925449	0.07144982
8	0x3d391d9a	0.045194246
9	0xbcf3c9cc	-0.02975931
10	0x3d24439d	0.040103544
11	0xbc322d4b	-0.0108750565
12	0xbc764dd2	-0.015033202
13	0x3ca6a747	0.020343436
14	0xbde89725	-0.113569535
15	0xbdae678b	-0.08515843
16	0x3cfad836	0.030620676
17	0x3d90e67f	0.07075214
18	0x3dacbe55	0.084347405
19	0xbcf7c1e0	-0.030243814
20	0x3d9c43a8	0.07630092
21	0x3dd70350	0.10498679
22	0xbd3c7697	-0.046011534
23	0x3de47a92	0.11156191
24	0xbd85a8c0	-0.06526327
25	0x3d0978cf	0.033562478
26	0xbdab18c3	-0.08354332
27	0x3d99e016	0.07513444
28	0xbd86c86a	-0.06581195
29	0x3d74b3a1	0.05974162
30	0xbda38761	-0.07984806
31	0xbd989a58	-0.07451314
32	0xbd09fbda	-0.03368745
33	0xbc739ba6	-0.014868652
34	0x3dc2ef5e	0.09518312
35	0xbd8abb94	-0.06774059
36	0x3d2cb2c0	0.042162657
37	0x3d671fff	0.056427
38	0x3ddeb895	0.1087505
39	0xbd5d990f	-0.054101046
40	0xbd84b2b7	-0.064794
41	0x3c8d120f	0.017220525
42	0x3dc3bbd6	0.09557311
43	0x3d4975a1	0.049184445
44	0xbca0d80a	-0.019634265
45	0x3c9194b7	0.017771108
46	0xbda7bd11	-0.081903584
47	0xbcae5644	-0.021281369
48	0xbb8cfbaf	-0.004302464
49	0x3db492ca	0.0881706
50	0xbd02fb28	-0.031977803
51	0x3d9126fc	0.07087514
52	0xbdd8503c	-0.105621785
53	0x3d9baf69	0.07601816
54	0x3dcecf4b	0.10098132
55	0x3d9848c6	0.074357554
56	0xbc4b90b9	-0.012424641
57	0xbd5c4611	-0.053777758
58	0x3e008803	0.12551884
59	0x3b71417b	0.003681271
60	0x3dde51b2	0.10855426
61	0x3d9ce8b8	0.07661575
62	0xbd344f15	-0.04402073
63	0xbcdaf0f0	-0.026726216
64	0xbd0e5cca	-0.03475646
65	0xbcdfd749	-0.027324336
66	0x3c0ac88c	0.008470666
67	0xbb1d107e	-0.002396613
68	0x3d092e27	0.03349128
69	0xbc7d03d5	-0.015442808
70	0xbb0cab4a	-0.00214644
71	0x3ca542b0	0.0201734
72	0xbd8b9472	-0.06815423
73	0x3deb9a43	0.115040325
74	0x3cba1d27	0.022718979
75	0xbc6a51e6	-0.014301753
76	0xbc14ba6e	-0.009077651
77	0xbd8c5467	-0.06852036
78	0x3def3f83	0.11682036
79	0xbd8aff0d	-0.06786928
80	0x3bf5c6ec	0.00750052
81	0x3d93612f	0.07196271
82	0xbd938300	-0.07202721
83	0xbbebac17	-0.0071921456
84	0x3d8e7c2e	0.06957279
85	0xbced6110	-0.028976947
86	0xbd0e32fd	-0.034716595
87	0x3db6e12a	0.089296654
88	0xbdce9e42	-0.10088779
89	0xbd77cda4	-0.06049885
90	0xbdbe621c	-0.09296057
91	0xbd81321e	-0.06308387
92	0x3d942d54	0.07235208
93	0xbd8bd75e	-0.068281874
94	0xbdcb52a9	-0.099278755
95	0xbc684a6a	-0.014177898
96	0x3e01a783	0.12661557
97	0xbd07f7c8	-0.033195287
98	0xbd3cb5a0	-0.04607165
99	0xbc1fc2c9	-0.00975103
100	0x3d3f59fd	0.04671668
101	0xbdc0ffc2	-0.09423782
102	0x3d88788c	0.066636175
103	0xbd36ff49	-0.044677053
104	0x3d9310f0	0.07180965
105	0xbd070aa6	-0.03296914
106	0x3ce30c51	0.027715834
107	0x3d34b938	0.04412195
108	0x3bf011e6	0.0073263524
109	0x3db77468	0.089577496
110	0xbccf3856	-0.025295418
111	0xbde74c47	-0.112938456
112	0x3dbaa779	0.09113974
113	0x3df26fe7	0.1183775
114	0xbcb60627	-0.02221973
115	0xbd2755a1	-0.040853146
116	0x3ccc02ad	0.02490362
117	0xbdb848e5	-0.089982785
118	0x3d4410ad	0.047867466
119	0xbd23cde5	-0.03999128
120	0x3c340cd4	0.010989387
121	0xba3c4d85	-0.0007183182
122	0xbd5447bf	-0.051826235
123	0xbe1c3def	-0.15258001
124	0x3db3a35d	0.087713934
125	0xbda61964	-0.081103116
126	0xbc8fdd0b	-0.017561456
127	0x3c43f575	0.011960377
128	0x3d4e5707	0.050375964
129	0x3d46804f	0.04846221
130	0xbd404791	-0.04694325
131	0xbd12fabd	-0.035883654
132	0xbdcff2e7	-0.10153752
133	0xbdcd9b20	-0.10039353
134	0xbca87088	-0.020561472
135	0x3d8c0db6	0.06838553
136	0xbd1f1d6d	-0.038846422
137	0x3d0ac34e	0.033877663
138	0x3bcebf67	0.006309438
139	0x3ddc1d84	0.10747817
140	0x3ce68d88	0.02814366
141	0xbdb55f35	-0.0885605
142	0xbd7439b5	-0.059625346
143	0x3d583a8d	0.052790213
144	0x3dac83e7	0.08423596
145	0x3b832916	0.0040027006
146	0xbddb526c	-0.1070908
147	0x3dfbc519	0.12293453
148	0x3baab9bb	0.005210129
149	0xbd1f98fd	-0.03896426
150	0xbd18a5c2	-0.037267454
151	0x3e05defd	0.13073345
152	0x3df51e1b	0.11968633
153	0xbd8549df	-0.065082304
154	0xbc02dc80	-0.007987142
155	0x3d92347a	0.07138915
156	0x3ce74dd1	0.028235348
157	0xbcb83b75	-0.022489289
158	0xbdb512f5	-0.088415064
159	0x3ddfef0d	0.10934267
160	0xbdf33184	-0.11874679
161	0x3bfa5201	0.00763917
162	0xbe1cf8c2	-0.15329269
163	0x3dbd3a33	0.09239616
164	0xbc8358aa	-0.01603349
165	0x3dac2eff	0.08407401
166	0x3d02b60e	0.031911902
167	0xbdac2127	-0.08404761
168	0xbc77a435	-0.015114834
169	0xbd2b270e	-0.041785292
170	0x3dae44ab	0.08509191
171	0x3c2b6eea	0.010463456
172	0xbd8e7ec8	-0.06957775
173	0xbcb99416	-0.02265362
174	0xbd929ce0	-0.07158828
175	0x3d3e518a	0.04646448
176	0x3d61d444	0.055134073
177	0x3d1998ec	0.037499353
178	0xbceb9ae8	-0.028760388
179	0x3d5c5ff4	0.053802446
180	0xbd6302fa	-0.05542276
181	0xbb787f47	-0.003791766
182	0x3e44352a	0.19160905
183	0x3da9983b	0.08280989
184	0xbd07a23f	-0.033113714
185	0xbdf177ab	-0.11790403
186	0xbcfe32fa	-0.031030167
187	0xbd0efd0e	-0.0349093
188	0x3d4ca82c	0.04996507
189	0x3cc63891	0.024196895
190	0xbda355a9	-0.07975323
191	0x3c566a50	0.01308687
192	0xbd629e33	-0.05532665
193	0xbd8fd41b	-0.07022878
194	0x3de2d830	0.11076391
195	0x3d0de897	0.034645643
196	0x3d88e38d	0.06684027
197	0x39e31731	0.00043314093
198	0xbe009f58	-0.12560785
199	0x3db989b3	0.09059467
200	0xbd154ce6	-0.03645029
201	0xbd87f58c	-0.06638631
202	0xbd1be99f	-0.038064595
203	0xbcf4bc64	-0.029874988
204	0xbdc27b71	-0.09496201
205	0x3dec00c6	0.11523585
206	0x3d8a483b	0.06752058
207	0x3dc4b9db	0.096057616
208	0x3ca07d7e	0.01959109
209	0x3d46b113	0.048508715
210	0xbda3a1b2	-0.07989825
211	0xbae416c0	-0.00174018
212	0x3d8bd084	0.068268806
213	0x3dd3efaf	0.103484504
214	0x3dc52624	0.09626415
215	0xbd0cb8fb	-0.0343561
216	0xbd650b7a	-0.055919148
217	0x3d8878ac	0.06663641
218	0xbd1dc5e3	-0.038518798
219	0xbc870b74	-0.016484953
220	0xbd5d0769	-0.053962145
221	0x3cf56f1a	0.029960204
222	0x3d788eb4	0.060682967
223	0x3d8ca2bd	0.06866977
224	0x3d63329b	0.055468183
225	0x3cd7de7e	0.02635121
226	0xbcd96874	-0.026539065
227	0xbcc76d2c	-0.02434405
228	0xbbbae625	-0.005703705
229	0x3cdbf195	0.026848594
230	0xbd3f2486	-0.04666569
231	0xbd65a83c	-0.056068644
232	0x3c9e41da	0.01931851
233	0xbdd97d23	-0.10619571
234	0xbdf0a7a4	-0.11750725
235	0x3cd967f2	0.026538823
236	0xbd397d74	-0.045285657
237	0x3dab4353	0.083624505
238	0x3b15e520	0.0022872165
239	0xbd61cc42	-0.055126436
240	0x3c97cbbd	0.018529767
241	0x3ded1d8a	0.115779
242	0x3d3ea5d8	0.04654488
243	0x3cc25c04	0.023725517
244	0x3d68b0ab	0.05680911
245	0x3d2e597e	0.042565815
246	0xbc4fa1c4	-0.012672845
247	0x3d96e43c	0.07367751
248	0xbce93adb	-0.028470447
249	0xbca31471	-0.019907208
250	0xbe0ad5ec	-0.13558167
251	0x3d775783	0.060386192
252	0x3dc91335	0.098181166
253	0x3d25208c	0.040314242
254	0xbd998c59	-0.07497472
255	0xbc7b5d7c	-0.015342113

fc2.bias f4 [84]
0	0x3c7c7427	0.015408552
1	0x3a273124	0.0006377867
2	0xbd219d26	-0.03945651
3	0xbd7e436b	-0.062076014
4	0x3d54183e	0.05178093
5	0x3af481fe	0.0018654463
6	0x3dc3b0a1	0.09555174
7	0x3d2def24	0.04246439
8	0xbd8778b5	-0.0661482
9	0xbc82e97e	-0.015980478
10	0xbbf89c6e	-0.0075870072
11	0x3ca71ded	0.020400012
12	0x3dc80e88	0.097683966
13	0xba230470	-0.0006218618
14	0x3bae0f0d	0.005311853
15	0xbd662492	-0.05618722
16	0xbcf36085	-0.02970911
17	0xbaeb3788	-0.0017945627
18	0xbd2a5ad9	-0.041590545
19	0xbd8ad685	-0.067791976
20	0x3d96955c	0.07352707
21	0x3d99e9de	0.0751531
22	0xbcfe78e1	-0.031063499
23	0xbd53701f	-0.0516206
24	0x3d08852d	0.03333013
25	0x3df36bba	0.118857816
26	0x3ca18bf7	0.01972006
27	0x3d6dfcc1	0.058102373
28	0xbd0383e0	-0.032108188
29	0xbd47a376	-0.048739873
30	0xbbc0b4b0	-0.0058809146
31	0x3c9e36c8	0.019313231
32	0xbd57b0e9	-0.05265895
33	0xbcf33b9e	-0.029691514
34	0x3c82f567	0.015986158
35	0x3bc9269a	0.006138635
36	0x3d870adb	0.065938674
37	0x3d881be2	0.06645943
38	0xbd9945c7	-0.07484012
39	0x3c1b5f25	0.009483133
40	0xbd993dc1	-0.07482482
41	0xbcb112c1	-0.021615388
42	0xbd62dc73	-0.055386018
43	0x3adbe58c	0.0016776784
44	0xbcb7ae0b	-0.022421857
45	0xbaf10eef	-0.0018391291
46	0xbc93f65f	-0.018061815
47	0xbcedaf13	-0.029014146
48	0xbd1eb351	-0.03874523
49	0xbd445596	-0.047933184
50	0x3d532e7d	0.051558007
51	0x3d495a1f	0.04915821
52	0xbcb6169d	-0.02222758
53	0x3db6bcf7	0.08922761
54	0xbd898aee	-0.06715952
55	0xbcef4127	-0.029205872
56	0x3d93b97f	0.07213115
57	0x3d9fe4ad	0.07807288
58	0xbc3c4563	-0.011491152
59	0x3d1cee55	0.03831323
60	0xbd92d9eb	-0.07170471
61	0x3dd1b5cf	0.10239755
62	0x3d7fc1c1	0.062440637
63	0xbd687878	-0.056755513
64	0x3e0a0181	0.13477136
65	0xbb9c988d	-0.0047789277
66	0x3d017232	0.031603046
67	0x3d82a1dc	0.063785285
68	0x3cfe4866	0.031040382
69	0x3dea3388	0.1143561
70	0xbd5eac50	-0.05436355
71	0xbd7599cd	-0.05996113
72	0x3d76912b	0.060197037
73	0x3cc19fea	0.023635823
74	0x3da74250	0.08166945
75	0xbd8b5646	-0.06803565
76	0xbd908f9d	-0.07058642
77	0x3da7ea7b	0.081990205
78	0x3d75b90c	0.059990928
79	0xbd49d030	-0.04927081
80	0x3d1d247a	0.038364865
81	0xbd686f48	-0.05674675
82	0x3d87bef8	0.06628221
83	0xbd52bbe8	-0.051448733

fc3.weight f4 [10, 84]
0	0x3d8824dd	0.06647656
1	0xbe252140	-0.16125965
2	0x3d9cb3d4	0.07651487
3	0xbd52b538	-0.051442355
4	0xbe51c7ab	-0.20486324
5	0xbd8055d1	-0.06266368
6	0x3d90e3e4	0.07074717
7	0xbe0b9372	-0.13630465
8	0xbd722ca1	-0.059124593
9	0xbe3122eb	-0.17298476
10	0xbd9ebb55	-0.077505745
11	0xbde9e5e0	-0.11420798
12	0x3db599ce	0.088672265
13	0xbc14d0c1	-0.009082974
14	0xbd7ad258	-0.061235756
15	0xbc38ba58	-0.011274897
16	0x3da39438	0.07987255
17	0xbdce37da	-0.100692466
18	0x3d91cd92	0.071192876
19	0xbdbb3746	-0.09141402
20	0xbab3733c	-0.0013690959
21	0x3d22d6cf	0.03975564
22	0x3d42eb81	0.047587875
23	0x3c842c12	0.016134296
24	0x38e52fba	0.00010928461
25	0xbddcd55b	-0.10782882
26	0xbd99cc77	-0.07509702
27	0x3e01febe	0.12694833
28	0xbe2a6c22	-0.16642812
29	0x3d8d5116	0.069002315
30	0xbc807ab6	-0.015683513
31	0xbdc75ee4	-0.09734896
32	0xbdc354ad	-0.09537635
33	0x3d45cf83	0.0482936
34	0x3cd16ecc	0.025565527
35	0xbc9722f0	-0.018449277
36	0xbe0abcc4	-0.13548571
37	0x3d2d6222	0.042329915
38	0xbdc09611	-0.09403623
39	0xbe19eaa3	-0.15030913
40	0x3b872ece	0.0041254526
41	0xbda3437f	-0.07971858
42	0xbdd34d05	-0.10317425
43	0x3dc02c9b	0.09383508
44	0xbd5a2fa3	-0.053268086
45	0xbc45c52b	-0.012070934
46	0xbdcab5b0	-0.098979354
47	0x3e0efc37	0.139634
48	0xbd587e38	-0.052854747
49	0xbc99db76	-0.018781405
50	0x3ddc3cc5	0.10753778
51	0x3cde37db	0.027126243
52	0xbe0201a1	-0.12695934
53	0xbdc98f16	-0.098417446
54	0xbcdf2e5d	-0.027243787
55	0xbdf88b45	-0.121359386
56	0xbe009dd8	-0.12560213
57	0x3b832efb	0.0040034032
58	0x3e07b8bc	0.13254064
59	0x3d9ae30b	0.07562836
60	0x3d71a7ce	0.05899792
61	0xbda630f7	-0.08114808
62	0x3d5b29dd	0.05350672
63	0xbe1a349e	-0.15059134
64	0xbe1a77b7	-0.1508473
65	0xbda6827b	-0.08130356
66	0x3dbfbc1b	0.0936205
67	0x3d98f35b	0.07468291
68	0xbd1a8308	-0.037722617
69	0xbd28af65	-0.041182894
70	0xbdf093df	-0.11746954
71	0x3d55f130	0.052231967
72	0x3deab745	0.11460737
73	0x3e10421d	0.1408772
74	0x3cd754b8	0.026285514
75	0xbdc58d49	-0.09646089
76	0x3da57489	0.08078868
77	0x3d99ae63	0.07503965
78	0x3cf59d2f	0.029982178
79	0xbc99e118	-0.01878409
80	0x3db6c2d3	0.089238785
81	0x3dc46e50	0.09591353
82	0xbdd3b040	-0.103363514
83	0xbd915d95	-0.070979275
84	0xbc9b1dd9	-0.01893513
85	0x3e037e3d	0.12841125
86	0xbe492755	-0.1964391
87	0xbdfaf0a8	-0.12252933
88	0x3e1c3bb1	0.15257145
89	0x3df93c6f	0.1216973
90	0x3d95f7d4	0.0732266
91	0x3df2db7d	0.1185827
92	0x3d15e68d	0.036596823
93	0x3dfa073a	0.122084096
94	0x3d48196f	0.04885238
95	0x3e135ed0	0.14391637
96	0xbe43d786	-0.19125184
97	0x3d57b44a	0.05266217
98	0x3dc18896	0.0944988
99	0x3d65e0ec	0.056122705
100	0xbd9f5bc7	-0.07781177
101	0x3dadd9e7	0.08488827
102	0xbde1819e	-0.11011051
103	0x3b5bef0a	0.0033559226
104	0xbc48eaf5	-0.012263049
105	0xbe256fc1	-0.16155912
106	0xbe08c88e	-0.13357756
107	0xbbc37806	-0.0059652356
108	0xbe14f7cf	-0.14547656
109	0x3e1d39be	0.15354058
110	0xbdc075f4	-0.09397498
111	0xbe228d2c	-0.15874165
112	0x3d945d2a	0.07244332
113	0xbbf1cb12	-0.007378944
114	0xbe40c2b2	-0.1882427
115	0xbe46ac36	-0.19401631
116	0xbb387c0f	-0.0028150117
117	0xbb131b87	-0.0022446827
118	0xbcc9e1e6	-0.02464385
119	0xbdae9df4	-0.08526221
120	0x3cfb42d2	0.03067151
121	0x3e2ae6b7	0.16689573
122	0xbde56dde	-0.11202596
123	0xbd1aa204	-0.037752166
124	0x3cfb9385	0.030709991
125	0xbddab5a8	-0.106791794
126	0xbe39621e	-0.18103835
127	0xbdfa2a08	-0.12215048
128	0x3dafc398	0.085822284
129	0xbd59ce6a	-0.053175367
130	0xbbc6cb31	-0.006066703
131	0xbd1807aa	-0.037116684
132	0xbdf97f77	-0.12182515
133	0xbd5657cf	-0.052329835
134	0x3d81864b	0.063244425
135	0xbe126a66	-0.142984
136	0x3d359118	0.044327825
137	0x3e288fe4	0.1646114
138	0xbe117c1d	-0.14207502
139	0x3db6b27e	0.089207634
140	0x3dfafd66	0.12255363
141	0x3d1a66bf	0.037695643
142	0xbe16a84b	-0.14712636
143	0xbcde2a0a	-0.027119655
144	0xbdc0a140	-0.09405756
145	0x3cf71f55	0.030166307
146	0x3d9cb1af	0.07651078
147	0xbd9d9abd	-0.076955296
148	0x3d887437	0.06662791
149	0xbddd1832	-0.107956305
150	0xbe14d71a	-0.1453518
151	0xbd1d890d	-0.03846078
152	0x3c2fac54	0.010722239
153	0x3d3b15c6	0.04567506
154	0xbe368e08	-0.17827618
155	0xbe703cd0	-0.23460698
156	0xbdc57ccf	-0.09642946
157	0xbe0c95ed	-0.13729067
158	0xbc76a7a0	-0.015054613
159	0xbe1e09de	-0.15433452
160	0xbd046643	-0.032324087
161	0x3c1243ae	0.008927269
162	0x3d9b6fd9	0.075896926
163	0x3d497d9a	0.04919205
164	0xbc20c186	-0.009811765
165	0x3c4282d4	0.011872012
166	0x3e6152ca	0.22004238
167	0xbd844044	-0.0645757
168	0xbd1f6dcb	-0.038923066
169	0xbe3474f0	-0.17622733
170	0x3cd7e2d0	0.02635327
171	0x3c81e4d3	0.015856182
172	0xbe01f89d	-0.12692495
173	0x3e0cc9a9	0.13748802
174	0xbd9ba8c9	-0.076005526
175	0x3ddce1ff	0.10785293
176	0xbe0b7f4e	-0.13622782
177	0x3d8baf7d	0.06820581
178	0x3c0287d9	0.007966959
179	0x3dee5bf9	0.11638636
180	0x3e005419	0.1253208
181	0xbdbc1856	-0.09184329
182	0xbd37fe84	-0.04492046
183	0xbd6b5758	-0.057456344
184	0xbd79fc84	-0.061031833
185	0x3da86962	0.08223225
186	0xbcfbf976	-0.0307586
187	0xbcb3c4f8	-0.021944508
188	0x3dc056ad	0.09391532
189	0xbdc265b5	-0.09492055
190	0xbe05c555	-0.13063557
191	0xbdcbbf18	-0.099485576
192	0xbda3c1c4	-0.07995942
193	0xbd683e1f	-0.05669987
194	0x3df3e1c8	0.11908299
195	0x3d3e075d	0.04639374
196	0xbd1e5220	-0.03865254
197	0xbb00ae06	-0.0019634976
198	0xbdecfb28	-0.11571342
199	0xbcec2099	-0.028824138
200	0x3df1fdaa	0.11815961
201	0x3d048e2f	0.03236216
202	0xbd6f8e50	-0.05848533
203	0xbd0a2147	-0.033723142
204	0xbcc4c84f	-0.024021296
205	0x3da9920a	0.08279808
206	0x3d57aef0	0.052657068
207	0x3dd01558	0.10160321
208	0x3d4fdcbf	0.05074763
209	0xbcfba51e	-0.030718382
210	0xbd49a016	-0.049224935
211	0xbe061ce5	-0.1309696
212	0xbd28ecc8	-0.041241437
213	0xbe1d8be7	-0.153854
214	0x3d241629	0.040060196
215	0x3d68ee46	0.05686786
216	0xbd0cbb52	-0.03435833
217	0x3c07b8ae	0.008283777
218	0xbd38b034	-0.045089915
219	0x3dd4c29f	0.103886835
220	0xbe27403b	-0.16333096
221	0x3d9b6e00	0.0758934
222	0xbdb40e9b	-0.08791848
223	0xbda6c503	-0.08143046
224	0x3bef304d	0.007299459
225	0x3dc4278a	0.09577854
226	0x3d0b5477	0.0340161
227	0xbdebac89	-0.11507518
228	0xbd173590	-0.036916316
229	0x3d7f28ce	0.062294774
230	0xbd1be978	-0.03806445
231	0x3d931bcc	0.07183036
232	0xbe1821c0	-0.14856625
233	0xbd55937b	-0.0521426
234	0x3d99823b	0.074955426
235	0xbc2e7389	-0.010647663
236	0xbe3b4260	-0.18287039
237	0x3b0196ff	0.0019773839
238	0x3d8e60b8	0.069520414
239	0xbdc33fb5	-0.095336355
240	0xbd887f48	-0.06664902
241	0x3da588ca	0.08082731
242	0x3e0bf00d	0.13665791
243	0x3b001c9c	0.0019548303
244	0xbd8db7c4	-0.06919816
245	0xbdda99ef	-0.10673892
246	0xbd5f476c	-0.054511473
247	0xbc85ce61	-0.01633376
248	0x3d358ef1	0.044325773
249	0x3dfded42	0.12398769
250	0x3dc5cd1d	0.09658263
251	0xbcb68266	-0.022278976
252	0xbcc2a943	-0.02376235
253	0xbc551679	-0.013005846
254	0x3da73078	0.081635416
255	0x3dcd719c	0.10031435

fc3.bias f4 [10]
0	0xbc96f793	-0.0184286
1	0x3d601eb3	0.054716777
2	0xbdabf735	-0.083967604
3	0xbd3e916b	-0.0465254
4	0x3dc3c832	0.095596686
5	0xbca27a20	-0.019833624
6	0x3cd17cab	0.025572142
7	0xbdb3d073	-0.08779993
8	0xbd9b20dc	-0.07574627
9	0x3c39936e	0.011326654
