models/client-3-2.pth (torch, 13414 bytes, 5 tensors)

fc1.weight f4 [64, 8]
000000 fa a4 28 3e 5c 55 c2 bd 01 6d 11 be 76 07 5d 3e
       0.16469184 -0.09488937 -0.14201738 0.21584877
000010 22 dd a5 3e e1 33 63 3d fe ef d7 3d d6 92 a3 be
       0.32395273 0.055469397 0.10543822 -0.31947964
000020 ea 66 91 3e f4 59 7f 3e 2a 62 a8 bd d9 08 af be
       0.2839883 0.24936658 -0.08221848 -0.34186438
000030 bc 69 f6 3d 3c 36 7a be 6b 64 9c be 9d a9 2f 3e
       0.12031886 -0.24434751 -0.30545363 0.17154546
000040 39 47 9d 3d d8 93 8e 3e b8 78 31 3e 2b 20 a4 3b
       0.076796 0.2784717 0.17331207 0.0050087175
000050 a5 c6 42 be 9f fe 9f 3e 7f b8 35 3e e1 ff 16 bd
       -0.1902109 0.31248948 0.17746161 -0.03686512
000060 dd 85 86 3e 80 d7 af be 75 12 a4 be a5 01 91 3e
       0.26274005 -0.343441 -0.32045332 0.28321567
000070 68 5d 5c bd 38 74 05 bd 20 48 90 bd 18 ab e0 bd
       -0.053800017 -0.032581538 -0.07045007 -0.109701335
000080 c4 14 99 bd 2c 16 a8 bd f0 91 18 be ea 16 0d 3e
       -0.07474664 -0.08207354 -0.1489942 0.13778272
000090 36 dc 77 3e 98 01 f8 bd 6e 38 67 be 12 10 2a 3e
       0.24205098 -0.12109679 -0.2258012 0.16607693
0000a0 42 9c 83 3c d5 ee a6 3e 7c ed 14 be 92 0e f2 3d
       0.01606572 0.3260409 -0.14543718 0.11819185
0000b0 a3 40 90 be df d6 10 bd 36 d2 4e be 08 77 fd bd
       -0.28174314 -0.035361167 -0.20197377 -0.12376219
0000c0 50 55 bd bc 32 e0 53 be 3b a5 22 be c8 1d a6 3e
       -0.02311197 -0.20690992 -0.15883343 0.32444596
0000d0 d4 5b db 3d b4 54 97 bd 83 82 a1 be 0f 52 a5 be
       0.10710874 -0.07389203 -0.31544885 -0.32289168
0000e0 16 7b d2 3d e1 be 9f 3e c6 eb 4e be 13 6a 9f 3e
       0.10277383 0.31200317 -0.20207128 0.31135616
0000f0 43 8b 8e be 68 e9 98 3e 72 af 8a be f3 93 e6 bd
       -0.27840623 0.29865575 -0.2708698 -0.11258688
000100 55 c9 55 3e 4a 30 ae 3e 7f 06 28 3e d6 fc 9c be
       0.20877583 0.34021217 0.16408728 -0.3066165
000110 d7 69 99 3e 1f 18 94 3e 71 5e 08 be 2f 82 90 bd
       0.29963562 0.28924653 -0.13317277 -0.070560805
000120 56 47 8c be 6c ea 9f be 80 32 9a bb 31 a9 a4 3e
       -0.27398175 -0.31233537 -0.004705727 0.32160333
000130 eb ba 48 be 00 03 2a bd cd 21 21 be 90 8e 32 bd
       -0.19602554 -0.041506767 -0.1573555 -0.04359299
000140 1e a4 7b 3e ac bb 54 be ff fd 8c 3e 64 5b cb 3d
       0.24574324 -0.20774716 0.27537534 0.09929541
000150 00 20 e1 3c 78 cf 91 be 0a 0e 0f 3e 17 f8 a2 be
       0.02748108 -0.284786 0.13970199 -0.31829903
000160 49 92 15 bd 19 a5 61 3d f1 2f 5e be 5e 74 06 be
       -0.03651646 0.05508909 -0.21697976 -0.13130328
000170 69 eb 71 be b1 c4 0b 3e 83 68 d1 bd 30 9a 14 3e
       -0.23624958 0.1364925 -0.10225012 0.14511943
000180 9e 09 03 3e 50 10 c5 3c 5f 38 55 bd be d8 7b 3d
       0.12796637 0.02405563 -0.052055713 0.061486
000190 54 87 03 3d cf f4 be 3d d5 a5 4f be 71 50 46 bd
       0.03211148 0.09324037 -0.20278104 -0.04841656
0001a0 5c b8 91 3d 39 12 cf 3d a8 87 2f 3d 64 9c 27 be
       0.07115242 0.101108976 0.04285398 -0.16368252
0001b0 75 d5 8a be 5a a7 ab 3e d2 4a fe bd 2d 6d 17 bd
       -0.2711598 0.33526117 -0.124166146 -0.036969353
0001c0 73 b8 a0 3e fa 72 2a 3e 9e db eb 3d 22 56 75 3e
       0.31390724 0.16645423 0.11516498 0.23958638
0001d0 56 30 62 3e c3 51 53 bd 8a 9a 4b 3e 27 55 0a 3e
       0.22088751 -0.051591646 0.1988317 0.13509046
0001e0 78 ce e9 3d 32 c7 91 be b7 a4 94 3c a6 80 4f 3e
       0.11416334 -0.28472286 0.018144948 0.20263919
0001f0 d4 59 f9 3d a8 4f 98 3e bf a1 77 be 30 3e 34 be
       0.121753365 0.29748273 -0.24182795 -0.17601848
000200 6f c2 df 3d 0b 44 fb bc c5 54 a7 3e 15 53 15 3d
       0.10925757 -0.030672094 0.32681862 0.036456186
000210 99 0b 7f be 1f fe a3 3e 7b a6 fe bd 58 a4 a2 be
       -0.24906768 0.32029817 -0.124340974 -0.3176601
000220 9a 41 65 3e 97 af 62 bd 70 3d 0e be 84 2b a7 3e
       0.22388306 -0.055343237 -0.13890624 0.32650387
000230 3f fc cc bd 2a 52 73 3e e4 75 75 3e ef 71 49 bd
       -0.100090496 0.23761812 0.23970753 -0.04918092
000240 5e e7 aa be 69 c8 a7 3e 70 35 98 3e b2 df c8 bd
       -0.33379644 0.32770088 0.2972827 -0.098082915
000250 d9 cd 8b be d3 93 d3 3d 14 2f 4b 3e 07 10 89 be
       -0.27305487 0.103309296 0.19842178 -0.2677004
000260 60 83 29 bd ac 3e 82 bc bd 3e 2a be a4 17 d2 bd
       -0.041385055 -0.015899025 -0.16625495 -0.10258415
000270 2f f8 97 3e d6 be 47 3e d9 5c 21 3e 88 40 ca bc
       0.29681537 0.19506392 0.15758075 -0.024688974
000280 eb f1 a7 3e 3d 63 86 bd 24 0b 8e bd 3f 5e 3a 3e
       0.32801756 -0.06561897 -0.06935719 0.18200015
000290 29 ce 54 3e 92 42 50 3e ea ff a0 3e 48 16 81 be
       0.20781769 0.20337895 0.31445247 -0.25212312
0002a0 40 b7 31 be 4d 77 0d be d8 0c 04 3d ad 44 86 be
       -0.1735506 -0.13815041 0.03223881 -0.2622427
0002b0 f8 bb 5b bd ef 8d 02 be 82 88 18 be c8 90 25 bd
       -0.053646058 -0.12749456 -0.14895824 -0.040421277
0002c0 8f a3 93 be 2c f3 ab 3e 54 96 bf bd c7 63 ab 3e
       -0.28835723 0.33583963 -0.09354845 0.33474562
0002d0 80 72 28 be 7a a2 8b bd 55 37 3b be 9e 7d 84 3e
       -0.16449928 -0.06818099 -0.18282826 0.25877088
0002e0 1b ba 11 3e cb b2 ac 3e de 01 12 3e a9 26 35 be
       0.1423115 0.33730158 0.14258525 -0.17690529
0002f0 d3 19 b0 3d 28 38 3d be a1 ea 5f 3d 14 24 25 be
       0.085986756 -0.18478453 0.05466712 -0.16127044
000300 5f 60 9a 3e a0 3b 84 3d 04 88 c2 39 06 c6 92 3d
       0.3015165 0.06456685 0.00037103903 0.07166676
000310 72 e4 43 be 19 5d 8c 3d 4a bc 9f bc 7c b2 51 3e
       -0.19130114 0.068536945 -0.019498963 0.20478243
000320 9e 53 0e 3d c1 ef 9b 3e 21 d4 b0 be 91 03 23 3c
       0.034747712 0.30456355 -0.34536842 0.009949581
000330 fe 5e 9b 3e f8 f5 78 be 97 0c 2f 3d c6 62 d2 bc
       0.3034591 -0.2431258 0.042736616 -0.025681864
000340 2e bd a3 be 5e 7d dd bd 20 bc 26 be a7 c1 34 be
       -0.3198027 -0.108149275 -0.16282701 -0.17651998
000350 43 9b 95 be 80 5c 0e 3c 2a e0 9f 3e 28 84 14 bd
       -0.29220018 0.008689046 0.3122571 -0.036258847
000360 40 85 02 bc e8 19 57 bd 5c ca a9 be 30 ab e3 bd
       -0.00796634 -0.05251494 -0.331622 -0.11116636
000370 e4 c0 12 3e dc ad 7d be 40 d5 ff 3b d6 5b 2b 3e
       0.14331394 -0.24773353 0.007807404 0.16734251
000380 72 ff 87 be c4 b1 83 3d 73 1d 11 bd 30 bf b1 be
       -0.26562077 0.064303905 -0.035428476 -0.34716177
000390 2b 55 15 be bf 8c 37 3d ac 60 1f 3e 72 9c ae bd
       -0.1458327 0.04481196 0.15564221 -0.08525933
0003a0 0e 51 5f be 2d 77 01 be dc 94 9e 3d ee 3a 82 be
       -0.21808264 -0.12643118 0.077432364 -0.25435585
0003b0 f4 1d 4a be 78 ea 12 be f0 1e 9e 3c 16 18 46 be
       -0.19737989 -0.14347255 0.019301862 -0.19345126
0003c0 0c 8e 9b be da fc 8b 3e 1b ff 29 be 53 59 69 3e
       -0.3038181 0.27341348 -0.16601221 0.2278798
0003d0 b3 73 2f 3e 8d 54 66 3e 0b 63 fd 3d e1 ee 2d 3e
       0.1713398 0.22493191 0.123724066 0.16985656
0003e0 44 55 c0 3d 69 20 90 3e fc 80 16 3e 76 39 f5 3c
       0.09391263 0.28149727 0.14697641 0.029934626
0003f0 ca 5d 9e bd 8e ef 9f 3e ab 93 a9 be 6c d8 a0 3e
       -0.077327326 0.31237453 -0.33120474 0.31415117

fc1.bias f4 [64]
000000 96 d3 70 be 12 cf 85 3d 6b 2a a9 be 46 65 66 be
       -0.23518214 0.06533636 -0.33040175 -0.2249957
000010 1a 2b 87 be 33 03 85 be 20 6c ae 3e d1 62 11 be
       -0.2640007 -0.25979003 0.34066868 -0.14197852
000020 67 f5 a1 bd a4 09 c1 bd 7a 84 0a be 5b 64 2b be
       -0.07908135 -0.09425667 -0.13527098 -0.16737501
000030 d7 08 29 3e 82 67 b5 3d 55 cd fe bd be 28 b4 bd
       0.16507278 0.08857633 -0.12441508 -0.087968335
000040 14 0f 0c 3e d0 bf 12 be 7f 21 4d 3e 61 b3 18 be
       0.13677627 -0.14330983 0.20032309 -0.14912178
000050 a2 4b 72 3e e4 7c 87 be 82 a1 68 bc c1 69 ed bd
       0.23661664 -0.2646247 -0.014198663 -0.115924366
000060 0f 76 9b 3e f2 61 53 3e 9e 42 d0 3d f1 81 81 3e
       0.3036351 0.20642832 0.10168956 0.2529445
000070 fc 33 57 3e c2 59 5b 3e b2 aa 5a be 69 f2 53 3e
       0.21015924 0.21420959 -0.21354178 0.20697941
000080 6d 0e 3a be 15 72 8e be 02 ce 84 be 7a 21 8c 3e
       -0.18169565 -0.27821413 -0.2593842 0.2736929
000090 14 7d 2d 3e 07 84 af bc 80 3d 9a 3e 40 3a ad be
       0.16942245 -0.02142526 0.30125046 -0.33833504
0000a0 81 1c e8 3d 32 b5 6f bd 45 50 26 be bc 31 b5 bd
       0.11333562 -0.05852241 -0.16241558 -0.08847377
0000b0 c4 07 ac 3e 90 65 80 3c 8b 5e 5c bd 77 0f 03 be
       0.33599675 0.015673429 -0.0538011 -0.12798868
0000c0 c7 ae aa be ea b4 a5 3e 4d f0 6e 3d 37 c6 da bd
       -0.3333647 0.3236459 0.058334637 -0.10682338
0000d0 46 91 28 be 9d 38 ac bd 61 73 ea 3d 26 c2 96 3e
       -0.16461667 -0.084092356 0.11447788 0.29444999
0000e0 10 34 b0 3e 77 59 65 3e c8 c2 b9 be c5 ea a1 3e
       0.3441472 0.2239741 -0.3628142 0.31624427
0000f0 83 91 af 3e 31 28 3b 3e 0f 6a e7 bd 02 11 23 bb
       0.34290704 0.1827705 -0.11299526 -0.0024881964

fc2.weight f4 [32, 64]
000000 90 40 ed bc a2 7d b2 bd d1 78 5e 3d b6 6a cb bd
       -0.02896145 -0.08715369 0.05431444 -0.09932463
000010 40 97 a5 3b d8 f0 63 3d 88 e2 9a 3c 20 a8 d1 bc
       0.005053431 0.05564961 0.018906847 -0.025592864
000020 08 b1 b5 bd ae 8d 91 bd 90 8d c4 3d bc 73 ec 3d
       -0.08871657 -0.071071014 0.095973134 0.11545512
000030 04 0e e2 3d de 7f d6 3d 04 8c dd 3d 80 10 a3 3a
       0.110378295 0.104736075 0.108177215 0.001244083
000040 20 4d eb 3d 64 05 7d bd d0 92 de bd c0 02 55 3d
       0.1148932 -0.06177272 -0.10867846 0.052004576
000050 70 2a bd 3d 9c aa 72 3d be 0f d0 bd 78 62 e9 bd
       0.0923661 0.059244737 -0.101592526 -0.113957345
000060 d8 a3 89 bc 10 72 cd bd cc 7b 6b bd d2 db 9d bd
       -0.01680176 -0.10031521 -0.05749111 -0.07707943
000070 f8 25 80 bc c0 44 bd bc a8 51 46 3d a8 14 9d bd
       -0.015643105 -0.023104072 0.048417717 -0.076699555
000080 f4 87 0c bd ec 22 b5 bd 58 a0 70 bd 40 09 40 3d
       -0.034309343 -0.088445514 -0.058746666 0.04688382
000090 4d 28 b0 3d 74 b2 60 3d a8 ea 5d 3d 98 34 8a bd
       0.08601437 0.054857686 0.054178864 -0.06748313
0000a0 2c e6 c2 bd 10 25 41 bd 74 42 ec bd 4e 6c 80 3d
       -0.09516558 -0.047154486 -0.115361124 0.062706575
0000b0 70 3a e6 3d 5e 22 d5 3d 40 6d ab bd cc fc de bd
       0.11241615 0.10406946 -0.08370447 -0.10888061
0000c0 00 69 d5 3c a6 05 f8 bd 54 e1 8b bd 8c 47 3a bd
       0.026051044 -0.12110452 -0.06830087 -0.04547839
0000d0 a0 e4 ed bb 98 cf e6 3d cc 91 ea bd 2c b7 6f 3d
       -0.0072599202 0.11270064 -0.1145359 0.058524296
0000e0 48 81 b6 bc 30 6e 3c bd c8 fe 82 bc c6 63 b1 3d
       -0.022278443 -0.04600352 -0.01599063 0.086616084
0000f0 46 a0 dd 3d 68 99 e3 bc 76 fa af 3d a8 73 ce 3d
       0.10821585 -0.02778311 0.085926935 0.100806534
000100 50 8d 2c 3d b6 de f8 bd 07 18 f9 3d 00 8b 5e bd
       0.042126954 -0.12151854 0.12162786 -0.05433178
000110 d4 f0 84 bd 08 46 b4 bc d4 5c df 3d ae ec d2 bd
       -0.06491247 -0.02200605 0.109063774 -0.10299049
000120 5c 78 8d bd 8e 08 cb bd d4 a6 a9 3d 52 01 af bd
       -0.06907722 -0.09913741 0.08283773 -0.08545174
000130 40 86 6f 3d 00 6e 22 3c f8 69 29 bd 68 8f 3f 3d
       0.05847764 0.009913921 -0.041360825 0.046767622
000140 d8 f1 e4 3c 48 29 fb bd 9c ff 74 bd b8 f8 bc bd
       0.027947351 -0.12263733 -0.05981408 -0.09227127
000150 60 ec 93 3d 80 ee 4d 3d f0 2a 26 3c e4 89 b4 3d
       0.07222819 0.05027628 0.010142073 0.08815363
000160 af 84 b2 3c b4 6d 09 3d 6e 8d c7 3d 60 fc 9e bb
       0.021791784 0.033551887 0.097437724 -0.004851863
000170 ec 80 ed bd 42 12 d3 3d 9e 69 9b 3d 8e e7 83 bd
       -0.115968555 0.10306217 0.07588504 -0.0644065
000180 2e 11 89 3d e4 0f cf 3d 3b 0f 66 bd 94 f9 49 bd
       0.0669273 0.10110453 -0.05616687 -0.049310282
000190 08 14 46 3d d0 5e 1e 3d fc c2 aa bd ea d6 e5 3d
       0.048358947 0.03866464 -0.083379716 0.11222632
0001a0 e0 81 b0 bb 2e c3 65 bc d6 a0 9f bd d4 40 1f 3d
       -0.005386576 -0.014023585 -0.07794349 0.038880184
0001b0 b0 72 b8 3d 00 23 0e 3a 12 97 f7 3d c7 de d6 bd
       0.0900625 0.00054220855 0.12089361 -0.1049171
0001c0 84 c2 05 bd 0c b8 bf bd 37 1a f9 bc 44 16 7f 3d
       -0.032656208 -0.09361276 -0.030408008 0.062277094
0001d0 de 1a dd 3d 20 0f 21 bd dd 61 c9 3d e0 00 cd bd
       0.1079614 -0.039321065 0.09833119 -0.100099325
0001e0 70 96 91 3c 50 3c ad bd 92 20 fe bd d4 e1 eb 3d
       0.01777193 -0.08458769 -0.12408556 0.11517683
0001f0 5d bb e4 3d 58 47 21 3d 40 38 73 3c aa e0 b0 3d
       0.11168549 0.03937468 0.014844954 0.08636601
000200 0a 95 cf bd bf 27 75 bc 09 e3 8a bd 85 3f 4b 3d
       -0.10135849 -0.0149630895 -0.06781585 0.049621124
000210 24 d0 2e 3d 66 f1 7e 3d e0 8b ad 3b 58 f2 60 3d
       0.042678967 0.062241934 0.0052962154 0.054918617
000220 a7 e5 ce bc 08 50 26 bd 68 96 45 bd 07 80 2c bd
       -0.025255991 -0.040603667 -0.04823914 -0.042114284
000230 8e d5 47 3c f4 54 3d bd 26 1f ad 3d 44 24 d7 bd
       0.0121969115 -0.046223596 0.08453207 -0.10504964
000240 82 f6 5a 3d 2a f2 c5 bd 95 23 c0 3d 62 ba 1e bd
       0.053457744 -0.0966533 0.09381787 -0.038751967
000250 f7 b3 55 3d a8 34 0f bd 20 c8 18 bc 73 85 9d 3d
       0.05217358 -0.034962326 -0.009325057 0.07691469
000260 c7 5e e8 3d e3 0e c0 bd 8c 1e 96 bd 34 9a b4 bd
       0.11346202 -0.093778394 -0.07330045 -0.088184744
000270 6c eb b0 bc 20 0b ad 3c f0 8a 52 bd 52 81 58 3d
       -0.021596633 0.021123469 -0.051402032 0.052857704
000280 08 12 c6 3c 40 09 94 3d a8 fe bd bd 13 36 e4 bc
       0.02417852 0.07228327 -0.092770875 -0.027857816
000290 bd ab e5 bd 2e 69 a2 bd ce 84 cf 3d 27 33 c3 3d
       -0.11214397 -0.07930218 0.10132752 0.09531241
0002a0 3e 32 cb bd 63 ec af bd 52 b8 d2 3d 3b 6a 95 bd
       -0.09921692 -0.08590009 0.102890626 -0.072956525
0002b0 58 e5 e3 bd 3a 8d 97 bd d3 ed eb bc 58 5e 93 3c
       -0.11127728 -0.07399984 -0.028799927 0.017989323
0002c0 fb b6 4e bd e0 ae 44 bd 59 10 8a 3d 3c 4e 97 bc
       -0.050467473 -0.048018336 0.06741399 -0.018469922
0002d0 90 16 19 bd b9 eb bc 3d 65 df ce 3d f3 52 fb bc
       -0.037375033 0.09224648 0.10101203 -0.030679202
0002e0 cf ed db bd f3 74 8c bd e0 20 2a bd fc e3 4e 3d
       -0.10738718 -0.06858244 -0.04153526 0.05051039
0002f0 28 97 1d 3d 7a 4e 2a ba b2 d2 39 3b 5e c4 f8 3d
       0.038474232 -0.0006496679 0.0028354344 0.12146829
000300 34 f0 10 bd 08 fd 9b 3d da 69 46 bd 20 3b b0 bc
       -0.035385326 0.07616621 -0.04844079 -0.021512568
000310 81 53 7d bb 6c e9 58 3d 1a 97 bf bd 78 13 05 3e
       -0.0038654509 0.052956983 -0.09354992 0.12995708
000320 75 22 a9 bd ec bf 83 3d 38 5a 09 bd 48 b5 8a bd
       -0.08258525 0.064330906 -0.033533305 -0.06772858
000330 96 f0 91 3d 6c 91 d2 bc b9 2a 8a 3d 7a 31 91 ba
       0.07125966 -0.025704108 0.0674643 -0.0011077367
000340 e8 c4 09 3e b8 b5 37 3d 6e 1d 90 bd a8 68 eb bd
       0.1345402 0.044851035 -0.07036863 -0.11494571
000350 05 bf a3 bd 10 f0 5c bc 30 54 b9 bd c9 66 9f 3d
       -0.079954185 -0.01348497 -0.090492606 0.077832766
000360 55 da e8 3c c0 e8 e1 bd 10 c7 a9 bc 90 8c 6f bc
       0.028424421 -0.11030722 -0.020724803 -0.014620915
000370 40 2f b3 3d fa b1 8b 3d 31 a2 8a 3d 7e 99 81 bd
       0.087492466 0.06821056 0.06769217 -0.063281044
000380 64 d6 5d bd 59 b9 db 3d f7 5a e9 bd b8 b6 69 3d
       -0.054159537 0.10728712 -0.11394303 0.05705902
000390 53 59 c8 bd 5a ca 5c bd 85 cc cc 3d 7c 33 10 3d
       -0.09782662 -0.053903915 0.099999465 0.03520535
0003a0 5e 8d fb 3d 53 a2 b1 3d a0 45 8e 3c 44 20 6e bd
       0.12282823 0.08673539 0.017367184 -0.05813624
0003b0 e8 c3 0d 3d 8c 88 04 bd 42 ea d7 3d 90 5c 49 bc
       0.03461066 -0.032356784 0.10542728 -0.012290135
0003c0 b0 b1 ca 3d 5e 58 81 bd df 92 69 bd 73 18 ee bc
       0.098971725 -0.06315683 -0.057024833 -0.029064393
0003d0 60 bc c2 bd ed 9b 1a bd 6a 41 8a 3c e5 33 84 3d
       -0.09508586 -0.03774636 0.016876895 0.064552106
0003e0 be 79 ef 3d 56 75 e5 3b d4 0f d3 bb 0e 8f 6a bd
       0.11693142 0.007002513 -0.006441096 -0.057265334
0003f0 3e 29 9c 3d ba b6 6a 3d 0c 4f 05 3e b9 ed a4 bd
       0.07625054 0.057303168 0.13018435 -0.080531545

fc2.bias f4 [32]
000000 77 22 f9 bc 30 56 75 bd d4 47 6d 3d 21 b1 c3 bd
       -0.030411942 -0.059896648 0.05792983 -0.09555269
000010 32 9f 09 3d 88 2e f3 bc 48 df 7c 3d 8c b3 f5 bd
       0.033599086 -0.029685274 0.061736375 -0.119971365
000020 74 a1 4e 3d 30 db 8d 3d ca 29 d9 bd 8a bf 98 bd
       0.050446942 0.06926572 -0.10603674 -0.07458408
000030 fa 2e e0 bd 60 d9 bb bd 9a 02 aa bd f1 3b 04 be
       -0.1094646 -0.0917232 -0.083012775 -0.12913491
000040 95 17 b7 3d ec 37 b6 bd 9e 65 4a bd 92 b0 8a 3c
       0.08940045 -0.08897385 -0.049413316 0.016929898
000050 cb 76 3f bd 05 0b 06 3e 80 1b 0a bc 9b c9 dc 3d
       -0.04674415 0.13090141 -0.008429408 0.10780641
000060 3a 79 d2 bd 72 a5 34 3d e4 ec b6 bd f4 c7 a1 3d
       -0.102770284 0.044103093 -0.08931902 0.07899466
000070 82 ed 42 3d 28 d2 09 3d 89 a5 ac bc 00 d4 74 bc
       0.047589786 0.033647686 -0.021075027 -0.014943123

fc3.weight f4 [1, 32]
000000 66 6c af 3d e8 34 ac bd 1e f4 ff 3d bc c7 c0 3d
       0.08565597 -0.084085286 0.124977335 0.09413096
000010 1f 93 36 3e 25 a4 09 3e 1a 0e 2b 3e bc 85 f6 bd
       0.1782956 0.13441522 0.16704598 -0.120372266
000020 da 31 fd 3d 6e 39 70 bd ff f6 cb 3b 9b 7f f2 bc
       0.12363024 -0.05864852 0.0062245126 -0.029601863
000030 60 cf 92 3c f2 66 a7 bc 4c 49 6f 3d aa 5f 75 bc
       0.01792115 -0.02043483 0.05841951 -0.014976421
000040 7c 64 0f be 8d 8e 1c be 66 58 e7 bc 72 b5 78 bd
       -0.14003175 -0.15288754 -0.028240394 -0.060719915
000050 b9 3c 93 bd 85 36 b4 3c 12 78 ab 3d f0 79 86 3c
       -0.07189316 0.021998653 0.08372511 0.016415566
000060 72 8d e1 bd 12 51 cf bd 5c 04 25 3e 62 94 e8 3d
       -0.11013307 -0.10122885 0.16114944 0.11356427
000070 bf 66 0f be 4e 74 2a be ef 72 70 3c dc f2 7b 3d
       -0.14004038 -0.16645929 0.01467584 0.061510906
