models/client-5-0.pth (torch, 239842 bytes, 12 tensors)

conv1.weight f4 [6, 1, 5, 5]
0.064753 0.35954648 0.28553426 0.266954 0.11096042 0.31392783 0.48630354 0.18377736
0.28053376 0.27342424 0.40368623 0.40725017 0.24284984 0.113661505 -0.089060925 0.13929497
0.32815707 -0.008900826 -0.2661824 -0.14901528 0.043661077 0.047358483 -0.106616355 -0.25133955
-0.19412161 0.049622655 -0.020848773 -0.057868052 -0.032573443 -0.03542873 -0.10196436 0.04063984
0.054853097 0.12155495 0.008407801 0.06537825 0.17082979 0.42995605 0.36819884 0.27591214
0.17410599 0.38239557 0.4791353 0.5155428 0.38974229 -0.12367977 0.010069632 0.3280626
0.35147488 0.08329503 -0.15922952 -0.2667137 0.10644526 0.038511675 0.13548677 -0.18974315
-0.15965451 0.07317516 0.04274026 0.081525154 -0.1395569 -0.034145474 0.21726777 0.21785471
0.29418352 0.00305102 0.09469834 0.32446656 0.2612906 0.29648656 0.3226226 0.1033297
0.33594018 0.38816303 0.33085907 -0.21467143 -0.0682514 -0.025880003 0.13198286 0.04479085
-0.05858992 -0.063522995 -0.15839483 0.20101485 0.1956402 -0.23155728 -0.3108179 -0.075486235
0.26953003 0.05834037 -0.075300775 -0.024037676 0.070673935 0.44557494 0.3269982 0.29164466
0.16750619 0.1290734 0.41290507 0.14301965 -0.14719927 0.00028947816 0.022987196 -0.11402354
0.022762086 -0.015517173 -0.27168757 -0.35832012 0.08165708 -0.0534224 -0.017865304 -0.1840187
-0.16115622 -0.109630086 0.035870004 0.19760787 0.032166936 -0.2087411 -0.099781565 -0.2032913
0.4104872 0.44228196 0.12971903 0.12715244 -0.048045464 0.17831089 0.003942988 -0.1500582
-0.23878524 -0.2564503 0.252677 0.0070386957 0.013083459 -0.23984577 -0.11470392 0.39332837
-0.009284071 -0.01677166 -0.19388463 -0.19941607 0.48920026 0.39341134 0.23415822 0.2368607
0.20937553 0.16494767 0.20225513 0.46206406 0.23021024 0.40702912
00000000: 399d 843d 7a16 b83e 8c31 923e 32ae 883e
00000010: 373f e33d 26bb a03e c7fc f83e 2230 3c3e
00000020: 1fa2 8f3e 43fe 8b3e f6af ce3e 1883 d03e
00000030: a1ad 783e 5dc7 e83d 9365 b6bd 57a3 0e3e
00000040: 3404 a83e c5d4 11bc 0f49 88be 7697 18be
00000050: f5d5 323d f8fa 413d ad59 dabd 94af 80be
00000060: d1c7 46be 2041 4b3d 0ccb aabc 0d07 6dbd
00000070: bb6b 05bd b71d 11bd b1d2 d0bd f675 263d
00000080: a4ad 603d cdf1 f83d e0c0 093c 08e5 853d
00000090: 01ee 2e3e 3323 dc3e 8f84 bc3e 5b44 8d3e
000000a0: d748 323e 5ac9 c33e 3951 f53e 9dfa 033f
000000b0: 4d8c c73e d24b fdbd 19fb 243c d2f7 a73e
000000c0: 84f4 b33e 9696 aa3d 100d 23be b38e 88be
000000d0: f9ff d93d 6bbe 1d3d 0bbd 0a3e 074c 42be
000000e0: 797c 23be dcdc 953d 6910 2f3d a9f6 a63d
000000f0: 01e8 0ebe 20dc 0bbd 717b 5e3e 4e15 5f3e
00000100: 399f 963e 9ff3 473b 34f1 c13d 7b20 a63e
00000110: e2c7 853e 16cd 973e ca2e a53e 869e d33d
00000120: 5a00 ac3e 4ebd c63e 5c66 a93e d4d2 5bbe
00000130: 64c7 8bbd 4d02 d4bc 8426 073e 9c76 373d
00000140: fcfb 6fbd 5818 82bd 4132 22be d6d6 4d3e
00000150: e855 483e 5a1d 6dbe 8623 9fbe 8798 9abd
00000160: d7ff 893e 50f6 6e3d 4b37 9abd a9ea c4bc
00000170: 7fbd 903d 6622 e43e 4f6c a73e 7352 953e
00000180: be86 2b3e d12b 043e 4b68 d33e be73 123e
00000190: 68bb 16be 1ac5 9739 a54f bc3c 2c85 e9bd
000001a0: 8e77 ba3c be3b 7ebc a21a 8bbe bc75 b7be
000001b0: d43b a73d 72d1 5abd 425a 92bc 666f 3cbe
000001c0: 2306 25be bd85 e0bd 6dec 123d b859 4a3e
000001d0: 7ac1 033d 3ac0 55be 475a ccbd 982b 50be
000001e0: 612b d23e c872 e23e 11d5 043e 4034 023e
000001f0: 52cb 44bd 2197 363e 2e34 813b dba8 19be
00000200: 1e84 74be 744d 83be e15e 813e dca4 e63b
00000210: 015c 563c 219a 75be e4e9 eabd 5662 c93e
00000220: 371c 18bc b864 89bc b189 46be ba33 4cbe
00000230: 7578 fa3e 366d c93e 2cc7 6f3e 9d8b 723e
00000240: 8a66 563e 0be8 283e f81b 4f3e a993 ec3e
00000250: 3cbc 6b3e 1f66 d03e

conv1.bias f4 [6]
0.15883574 -0.001779712 0.006819669 -0.0035816713 0.35201487 0.044155683
00000000: d6a5 223e 3a45 e9ba 8877 df3b 79ba 6abb
00000010: 4b3b b43e 97dc 343d

conv2.weight f4 [16, 6, 5, 5]
-0.01947545 0.059094798 0.09786119 0.08461467 0.1473956 0.019802472 -0.081975214 0.0058519472
0.05172043 0.017170679 -0.018722372 0.026829649 -0.041325912 -0.103092454 -0.058914147 -0.008714799
-0.10222575 -0.15662606 -0.093031906 -0.080650054 -0.061285634 -0.052118186 0.078442626 0.029191336
0.093480796 -0.06799173 0.07429975 0.07825056 0.03451416 -0.02493558 -0.05182756 0.036171354
-0.12677336 -0.05989728 -0.006228507 -0.10842917 -0.030074034 -0.209949 -0.0987098 -0.06235915
0.07410451 0.06782474 -0.02791445 0.005238323 -0.01068712 0.09398706 0.08200119 0.10095614
0.001074355 0.10635131 0.024498055 0.026486926 -0.034535218 -0.036276147 -0.040349655 -0.08972627
-0.04645008 0.0074935313 0.016010147 -0.1419024 -0.029961715 -0.122246705 -0.020887272 -0.03355253
-0.040584017 -0.05365525 0.0031780817 0.04353452 -0.0060642622 0.06829682 0.024879491 0.007889684
0.054496337 0.1130461 0.008422698 0.029319903 0.07940454 0.0005227131 0.11497138 0.06978184
-0.071533196 -0.043217704 -0.10648951 -0.09467509 -0.13056532 -0.12067203 -0.030557936 -0.1461243
-0.12534927 0.0062416545 0.07766792 -0.076217234 -0.012311585 -0.021784505 0.12462208 0.04990248
0.13198158 0.081848286 -0.011763294 0.007959404 0.03824955 0.03548224 0.03230032 -0.13850679
-0.0763467 0.042355247 0.027183067 0.039820928 0.0064714793 0.009742062 0.06341955 -0.0017908091
0.06479346 -0.0342925 -0.061798733 0.1152731 0.01692116 0.024867525 0.064129464 0.11267846
0.0076080086 0.07922349 -0.015008722 -0.031811595 0.009985347 -0.074470684 -0.023223158 -0.0531226
0.026676446 -0.09448285 0.021515122 -0.054371227 -0.05832662 -0.126126 -0.120986864 0.0014690013
-0.0027489206 -0.08609084 -0.019548047 -0.02757455 0.13403563 0.007580991 0.1394777 0.15444987
0.15431583 0.15062115 0.048527025 0.14493188 0.16668482 0.10890201 -0.019165257 0.029242797
-0.11709741 -0.02006937 0.17027391 0.11132736 -0.07722312 -0.16222085 0.014850413 0.05780387
0.024328535 -0.21655759 -0.114129074 0.16539541 0.074126825 -0.042508762 0.005573539 0.067746036
0.15669516 0.05739004 -0.014473806 0.0027494812 0.112248465 -0.021555806 -0.099437065 -0.027668228
-0.059140265 -0.0092156865 0.11383131 -0.05676828 -0.12901881 -0.19016305 -0.02172682 0.14533876
-0.024701675 -0.1436278 0.08013132 0.14701948 0.025218992 -0.15809663 -0.024238862 0.05621388
0.114828944 -0.029165769 -0.102815956 -0.014994977 0.071647644 0.084311865 -0.035112564 0.032006238
-0.05005383 -0.07486386 -0.015002763 0.066516936 -0.015553296 -0.05671422 -0.10388206 0.16825107
0.12684393 -0.08853169 -0.0836174 0.030027151 0.12900989 0.04565346 -0.04718523 0.03172407
0.04883718 0.038118083 -0.039548814 -0.16139878 0.09582469 0.13688406 -0.012115253 -0.0038079023
-0.07929991 -0.076735355 -0.20474194 0.049540255 0.102586076 -0.0075221173 -0.12885216 -0.11107114
0.15180996 0.17725635 -0.06258854 -0.13828637 -0.011361614 0.21383107 0.038652323 -0.07207144
-0.062826574 0.102474496 0.06705996 -0.08042203 -0.048994943 -0.000117112504 0.15174235 0.022515118
-0.09082002 0.033576146 0.014515115 0.019081904 -0.06467482 -0.067576185 0.10855275 0.0031724307
00000000: fb8a 9fbc 630d 723d 736b c83d 754a ad3d
00000010: dfee 163e cb38 a23c 9fe2 a7bd b1c1 bf3b
00000020: cdd8 533d 86a9 8c3c a95f 99bc dac9 db3c
00000030: 5c45 29bd 2322 d3bd f64f 71bd 84c8 0ebc
00000040: bc5b d1bd 9562 20be 8387 bebd db2b a5bd
00000050: a506 7bbd e179 55bd 87a6 a03d ab22 ef3c
00000060: dc72 bf3d 403f 8bbd 782a 983d d441 a03d
00000070: b85e 0d3d b445 ccbc 2349 54bd 6a28 143d
00000080: e0d0 01be da56 75bd 8118 ccbb 1d10 debd
00000090: d25d f6bc dffc 56be 5d28 cabd 4f6c 7fbd
000000a0: 1bc4 973d b3e7 8a3d d8ac e4bc 3da6 ab3b
000000b0: 0819 2fbc 4a7c c03d 3df0 a73d 18c2 ce3d
000000c0: 5fd1 8c3a b7ce d93d 25b0 c83c 1cfb d83c
000000d0: cd74 0dbd 4c96 14bd ae45 25bd 68c2 b7bd
000000e0: 7042 3ebd 4c8c f53b b627 833c dd4e 11be
000000f0: 4572 f5bc 7b5c fabd c91b abbc 616e 09bd
00000100: 6d3b 26bd 9cc5 5bbd 5d47 503b 4151 323d
00000110: b8b6 c6bb 34df 8b3d 13d0 cb3c bc43 013c
00000120: 8d37 5f3d b784 e73d 5bff 093c 4b30 f03c
00000130: d99e a23d af06 093a 1d76 eb3d c8e9 8e3d
00000140: ff7f 92bd 0c05 31bd 2c17 dabd 03e5 c1bd
00000150: eab2 05be e622 f7bd a354 fabc 9ca1 15be
00000160: 8f5b 00be cb86 cc3b 5c10 9f3d c817 9cbd
00000170: 88b6 49bc 6b75 b2bc dc39 ff3d 8b66 4c3d
00000180: 2e26 073e 13a0 a73d d5ba 40bc 2968 023c
00000190: 8fab 1c3d d355 113d 574d 043d b9d4 0dbe
000001a0: a95b 9cbd b27c 2d3d 06af de3c 451b 233d
000001b0: b40e d43b 2b9d 1f3c 1ce2 813d 95b9 eaba
000001c0: 6fb2 843d 4b76 0cbd ab20 7dbd 4e14 ec3d
000001d0: 3f9e 8a3c fbb6 cb3c 4f56 833d f7c3 e63d
000001e0: 9a4c f93b ed3f a23d 25e7 75bc e04c 02bd
000001f0: 9599 233c 1684 98bd 7e3e bebc 1597 59bd
00000200: 9088 da3c 3980 c1bd 7b40 b03c 5db4 5ebd
00000210: e5e7 6ebd 2d27 01be f6c7 f7bd 818b c03a
00000220: 3c27 34bb 6550 b0bd 3a23 a0bc 06e4 e1bc
00000230: a340 093e f669 f83b 3ed3 0e3e 1b28 1e3e
00000240: f804 1e3e 6e3c 1a3e 46c4 463d 0669 143e
00000250: 6daf 2a3e 0408 df3d 7500 9dbc 978e ef3c
00000260: c4d0 efbd 8568 a4bc 495c 2e3e 99ff e33d
00000270: 2827 9ebd 391d 26be 264f 733c c0c3 6c3d
00000280: a34c c73c 46c1 5dbe 81bc e9bd 6a5d 293e
00000290: cecf 973d ab1d 2ebd 3ca2 b63b 6fbe 8a3d
000002a0: b274 203e d211 6b3d 8b23 6dbc a430 343b
000002b0: 86e2 e53d cd95 b0bc a9a5 cbbd 7ba8 e2bc
000002c0: 103d 72bd 64fd 16bc 6420 e93d db85 68bd
000002d0: 821d 04be 1aba 42be 72fc b1bc afd3 143e
000002e0: 2b5b cabc 2a13 13be e41b a43d 468c 163e
000002f0: 0f98 ce3c 15e4 21be 9490 c6bc 8740 663d
00000300: 702b eb3d 0ded eebc 2c91 d2bd 7ead 75bc
00000310: 00bc 923d b3ab ac3d 31d2 0fbd f918 033d
00000320: 3f05 4dbd 3952 99bd 26ce 75bc 083a 883d
00000330: 40d3 7ebc 2c4d 68bd 1ec0 d4bd 024a 2c3e
00000340: 60e3 013e 1a50 b5bd 993f abbd 80fb f53c
00000350: 2b1b 043e 1fff 3a3d 4d45 41bd 19f1 013d
00000360: 7f09 483d b521 1c3d f0fd 21bd b945 25be
00000370: bc3f c43d 562b 0c3e 0e7f 46bc 008e 79bb
00000380: fe67 a2bd 6d27 9dbd dfa7 51be b9ea 4a3d
00000390: a618 d23d 187c f6bb d2f1 03be 4479 e3bd
000003a0: 1274 1b3e b082 353e 6c2e 80bd f19a 0dbe
000003b0: 1026 3abc 88f6 5a3e e651 1e3d 319a 93bd
000003c0: 38ab 80bd 26de d13d bb56 893d 4eb4 a4bd
000003d0: ecae 48bd 4c9a f5b8 5962 1b3e a071 b83c
000003e0: d9ff b9bd 2487 093d ced0 6d3c a751 9c3c
000003f0: 3b74 84bd 6265 8abd e750 de3d 8ee8 4f3b

conv2.bias f4 [16]
-0.05368996 -0.05720087 -0.029564388 0.059554655 -0.009682822 -0.02776426 0.09247776 -0.011038358
-0.057905655 -0.045795817 0.054565743 0.060438737 -0.10281951 0.072052814 -0.0068954704 -0.04675972
00000000: 01ea 5bbd 764b 6abd 0431 f2bc 95ef 733d
00000010: b3a4 1ebc e071 e3bc fb64 bd3d 3bda 34bc
00000020: 7b2e 6dbd 6594 3bbd 5480 5f3d 9c8e 773d
00000030: 0993 d2bd 6d90 933d 66f3 e1bb 1f87 3fbd

fc1.weight f4 [120, 256]
-0.08236779 -0.055520598 0.01469044 0.046740428 -0.05790022 -0.053632446 0.014358299 -0.016483111
0.058818538 0.05254754 -0.08841096 -0.02824012 0.0318784 -0.038844083 -0.033194058 -0.021751175
0.0070319744 -0.038211584 -0.027227279 0.020469373 -0.052548535 0.03790244 -0.04508105 -0.06451943
0.047499284 0.01990622 0.04700017 -0.014087003 -0.0040853913 0.033759404 0.03647281 -0.030606452
0.022814786 0.014376691 -0.002879926 0.0070896316 -0.011884067 0.046071373 -0.0067313877 0.0136786755
-0.03492331 0.040715255 0.021965109 -0.0035032292 0.02548611 0.06306841 0.060475983 0.006234057
0.0015932197 -0.01559486 0.032045674 -0.049478333 -0.02266932 0.035685223 -0.03724434 -0.04493269
-0.0038264585 -0.04945267 0.060257237 0.009055114 -0.0039457283 0.03329093 0.056922764 -0.020035595
-0.059915386 0.052275363 -0.05534352 -0.060988836 0.024583615 0.032609753 -0.02577459 -0.03293773
0.07063082 0.060841173 -0.023963986 -0.0016438664 0.0572686 -0.057581495 -0.027441602 -0.019646522
0.044466313 0.023410494 0.033512034 -0.0071164616 0.0038693864 -0.015948417 -0.016475663 0.035219543
-0.09302274 0.011976744 -0.023275653 -0.07975741 -0.004278112 -0.03841321 -0.049629536 -0.0024467788
0.006339822 0.049659647 0.05470809 0.05642457 -0.043196257 -0.0033312743 0.042986337 0.041600917
-0.022739027 -0.03403629 0.050620627 0.02005761 0.053757276 0.032654285 0.049243752 -0.020660048
0.045706972 -0.048520695 0.0039994386 0.009926709 -0.030855156 -0.047486335 0.045613952 0.058941886
-0.058545824 0.072290525 -0.0023980117 -0.07067266 0.042486597 -0.045892935 -0.016648477 -0.06292353
-0.051486988 0.044408977 0.005729495 0.032528 0.07234769 -0.002027265 0.01162731 0.01982544
0.021608366 -0.05367399 -0.017352799 0.0021867778 -0.0538863 -0.020278994 0.0074297353 -0.01403525
-0.016490549 -0.01610268 -0.012930283 0.016043128 -0.07257547 0.056263227 0.012414984 0.037390985
-0.065832816 -0.041377276 0.014514787 0.010071151 0.012901893 -0.0010586189 -0.015610943 0.022463959
-0.047951996 0.023404807 0.025018852 -0.009169018 0.011436441 -0.013355418 0.06616338 0.04563582
0.05106541 -0.037882753 0.070207104 0.057287153 0.02461221 -0.037782967 -0.001481961 -0.02221034
0.053432778 0.036719866 0.020566493 0.0008758836 0.0672231 0.005250741 0.029832978 -0.011019167
-0.0496973 -0.0136084715 -0.047715057 0.04723578 0.06154695 -0.052383564 0.03233285 -0.03195218
-0.0010672832 0.007604434 -0.02155426 0.051458232 0.033040173 0.027120424 -0.05080733 0.001454287
-0.040824696 0.026153836 0.027606942 -0.023263924 -0.03744306 0.01921549 -0.035497192 -0.045912556
0.035957254 0.05483983 -0.044995286 -0.047597017 0.0022785887 -0.015494984 -0.025416538 0.0032624386
0.027515233 -0.00677067 -0.0689761 -0.024254467 -0.04046408 -0.06148092 0.047697358 0.028913852
0.015946228 -0.0064410423 -0.046898972 -0.04235015 -0.038708057 -0.013673682 -0.04750332 -0.05526018
-0.038543988 0.025829514 0.031225184 0.02457913 0.067176715 0.02723581 0.06479191 0.053587224
0.0073423996 0.01852901 -0.0599294 -0.01351528 0.033510488 0.03188795 -0.03965239 0.011766759
0.08412898 0.034450386 0.0093934 0.0371055 0.023398343 -0.06663291 -0.03188507 -0.059554953
00000000: 72b0 a8bd 9169 63bd 2cb0 703c e472 3f3d
00000010: c828 6dbd b2ad 5bbd 123f 6b3c 9707 87bc
00000020: b5eb 703d 173c 573d ce10 b5bd d357 e7bc
00000030: ed92 023d f91a 1fbd 7ef6 07bd 852f b2bc
00000040: 7a6c e63b c083 1cbd be0b dfbc 63af a73c
00000050: 223d 57bd 973f 1b3d e8a6 38bd c322 84bd
00000060: 9c8e 423d 5e12 a33c 4083 403d 2ccd 66bc
00000070: bfde 85bb 4d47 0a3d 8364 153d 62ba fabc
00000080: 13e6 ba3c 368c 6b3c 24bd 3cbb 2450 e83b
00000090: 64b5 42bc 56b5 3c3d f992 dcbb 861c 603c
000000a0: bf0b 0fbd 0ac5 263d 2cf0 b33c 6f96 65bb
000000b0: 3fc8 d03c 032a 813d aab5 773d 0f47 cc3b
000000c0: 95d3 d03a 9581 7fbc 5342 033d cba9 4abd
000000d0: 03b5 b9bc ab2a 123d 858d 18bd 570b 38bd
000000e0: 52c5 7abb e28e 4abd 4bd0 763d e75b 143c
000000f0: 2b4b 81bb 125c 083d d827 693d b021 a4bc
00000100: d669 75bd b11e 563d e3af 62bd 6ecf 79bd
00000110: 9463 c93c ce91 053d 3c25 d3bc b7e9 06bd
00000120: e4a6 903d 9834 793d 1f50 c4bc 0177 d7ba
00000130: 7b92 6a3d 93da 6bbd 36cd e0bc bef1 a0bc
00000140: 4f22 363d 5dc7 bf3c ea43 093d 3531 e9bb
00000150: 8895 7d3b 41a6 82bc f8f7 86bc 5e42 103d
00000160: b582 bebd 1b3a 443c 95ac bebc da57 a3bd
00000170: 682f 8cbb 2c57 1dbd 5748 4bbd 235a 20bb
00000180: 48be cf3b ea67 4b3d 9715 603d 731d 673d
00000190: 8fee 30bd 8251 5abb 7112 303d b965 2a3d
000001a0: 3247 babc a369 0bbd 9357 4f3d db4f a43c
000001b0: 9730 5c3d 80c0 053d d1b3 493d 433f a9bc
000001c0: 3c37 3b3d a3bd 46bd b90d 833b a3a3 223c
000001d0: f4c3 fcbc 0881 42bd b2d5 3a3d 0c6d 713d
000001e0: bfcd 6fbd 0e0d 943d f627 1dbb d4bc 90bd
000001f0: 6d06 2e3d 3bfa 3bbd 6362 88bc 0dde 80bd
00000200: 05e4 52bd 30e6 353d 7dbe bb3b 153c 053d
00000210: 072b 943d dddb 04bb 7980 3e3c f668 a23c
00000220: 0704 b13c 42d9 5bbd 7527 8ebc 0b50 0f3b
00000230: e2b7 5cbd 2220 a6bc 2375 f33b 1bf4 65bc
00000240: 3017 87bc c4e9 83bc 8ad9 53bc e16c 833c
00000250: 73a2 94bd 4574 663d 3868 4b3c 4a27 193d
00000260: 5bd3 86bd 387b 29bd 6ecf 6d3c 7801 253c
00000270: 7662 533c 5bc1 8aba 0ac5 7fbc 5606 b83c
00000280: 5069 44bd 70bb bf3c 56f4 cc3c a639 16bc
00000290: e95f 3b3c afd0 5abc ab80 873d a0ec 3a3d
000002a0: f729 513d f22a 1bbd bec8 8f3d efa5 6a3d
000002b0: 8c9f c93c 50c2 1abd 5c3e c2ba 75f2 b5bc
000002c0: 54dc 5a3d 9267 163d 107b a83c 8e9b 653a
000002d0: 44ac 893d 680e ac3b 4a64 f43c bc89 34bc
000002e0: 658f 4bbd 11f6 5ebc dd70 43bd 4e7a 413d
000002f0: a818 7c3d 2690 56bd 736f 043d 4ae0 02bd
00000300: 15e4 8bba 9e2e f93b 8f92 b0bc dec5 523d
00000310: 2255 073d a72b de3c 591b 50bd c69d be3a
00000320: cc37 27bd 9240 d63c f427 e23c fc93 bebc
00000330: e55d 19bd ce69 9d3c 8165 11bd ce0e 3cbd
00000340: ea47 133d bb9f 603d fa4c 38bd 17f5 42bd
00000350: 6054 153b acde 7dbc 5836 d0bc a3ce 553b
00000360: a067 e13c 7fdc ddbb 5743 8dbd 4eb1 c6bc
00000370: aabd 25bd 6bd3 7bbd 4e5e 433d bedc ec3c
00000380: aaa1 823c 610f d3bb 2319 40bd 5a77 2dbd
00000390: 578c 1ebd 9407 60bc d792 42bd 8058 62bd
000003a0: 4de0 1dbd 6b98 d33c f5cb ff3c 2c5a c93c
000003b0: f293 893d a21d df3c 9fb1 843d 477e 5b3d
000003c0: 8398 f03b 26ca 973c 8878 75bd 316f 5dbc
000003d0: 4b42 093d f09c 023d 8b6a 22bd 5dc9 403c
000003e0: d14b ac3d d91b 0d3d c6e6 193c f0fb 173d
000003f0: e2ad bf3c d676 88bd eb99 02bd e5ef 73bd

fc1.bias f4 [120]
0.06957243 -0.02093498 -0.010523288 0.020411007 0.013885213 0.08835094 0.06246485 0.05980885
0.031637546 0.027083881 -0.0079892995 -0.0117163 0.016994612 -0.01611779 0.036217853 -0.059420172
-0.056729726 0.010422742 0.020054834 0.037583303 -0.025513476 0.051751543 0.019733211 0.05369144
0.030544467 0.04658227 -0.037357036 0.07716201 0.003707491 0.06421549 -0.018394087 -0.0054783113
-0.06377347 0.09685568 0.03337016 -0.025209656 0.05705396 -0.020555794 0.031129487 0.01921168
0.03701942 0.041894384 -0.012938539 0.072358504 -0.0073356936 0.024639925 -0.013045626 0.0023856268
0.0071081086 0.01081841 0.010628073 0.065365694 0.012132987 -0.04361141 0.024849778 0.0014205674
-0.009561844 0.0068557924 -0.009306154 0.053704876 0.011734757 0.033022385 0.04839318 -0.058250647
0.013071671 -0.047987536 -0.060318843 -0.024693444 0.01714841 0.065682374 0.08545905 0.06084728
0.031443786 -0.010643024 -0.037491314 -0.016224276 0.03165994 0.023147633 0.03679982 0.0465016
0.028800847 0.025014868 0.058049686 0.052119493 0.032340895 0.021361511 -0.041102 -0.005628126
-0.067141004 -0.025872886 -0.039472062 0.028562695 0.030664664 0.014094887 -0.027820392 -0.0010027775
-0.04474614 0.08758856 -0.028198922 0.049090505 -0.00021764442 0.046842296 -0.0021839354 0.00044689048
-0.0028638474 -0.05137596 -0.030910099 0.046649225 -0.021467363 0.026682956 -0.0007229611 0.0457237
-0.038182743 0.04050782 -0.04042476 -0.055301175 0.03195996 -0.026118146 -0.048669986 -0.0038682125
00000000: fd7b 8e3d d67f abbc de69 2cbc fc34 a73c
00000010: ce7e 633c 56f1 b43d 24db 7f3d 20fa 743d
00000020: 5f96 013d 04df dd3c 8de5 02bc b9f5 3fbc
00000030: 4938 8b3c 7509 84bc 2c59 143d 9162 73bd
00000040: 6e5d 68bd 26c4 2a3c 094a a43c f3f0 193d
00000050: a301 d1bc 6df9 533d 8ba7 a13c 8eeb 5b3d
00000060: 6438 fa3c 0dcd 3e3d b103 19bd 1e07 9e3d
00000070: 61f9 723b 6983 833d 32af 96bc 6883 b3bb
00000080: aa9b 82bd 455c c63d 26af 083d 7b84 cebc
00000090: 6ab1 693d a064 a8bc 4403 ff3c d061 9d3c
000000a0: ada1 173d 7299 2b3d 2afc 53bc b230 943d
000000b0: 4260 f0bb abd9 c93c 52bd 55bc 2d58 1c3b
000000c0: 23eb e83b b33f 313c 5e21 2e3c 73de 853d
000000d0: 70c9 463c e1a1 32bd c391 cb3c 5532 ba3a
000000e0: 48a9 1cbc 8ea6 e03b d778 18bc a5f9 5b3d
000000f0: 2343 403c 7b42 073d ed37 463d 3b98 6ebd
00000100: 902a 563c 948e 44bd e410 77bd e849 cabc
00000110: d37a 8c3c 7b84 863d 2805 af3d ff3a 793d
00000120: 33cb 003d 1460 2ebc 7e90 19bd c6e8 84bc
00000130: daad 013d 1ba0 bd3c 68bb 163d 7678 3e3d
00000140: c1ef eb3c fbeb cc3c 82c5 6d3d 407b 553d
00000150: e377 043d 56fe ae3c 925a 28bd 256c b8bb
00000160: 3981 89bd 60f3 d3bc 75ad 21bd 50fc e93c
00000170: 7634 fb3c 3eee 663c 97e7 e3bc a16f 83ba
00000180: ba47 37bd a261 b33d 6d01 e7bc 2013 493d
00000190: 7b37 64b9 b5dd 3f3d 5b20 0fbb a04c ea39
000001a0: 63af 3bbb 996f 52bd 2d37 fdbc 4213 3f3d
000001b0: 53dc afbc 3796 da3c 1985 3dba c648 3b3d
000001c0: 8265 1cbd 87eb 253d 6f94 25bd 7c83 62bd
000001d0: 72e8 023d b9f5 d5bc 2e5a 47bd d681 7dbb

fc0.weight f4 [120, 120]
0.020339351 0.020926906 -0.00081215735 0.020254225 -0.074669 0.08542829 0.015845396 0.07840295
0.124205664 0.052726496 -0.022509692 -0.067259766 -0.002349491 -0.014367176 0.10147364 -0.056108043
-0.03773613 0.048660643 -0.0050529265 0.11367335 -0.09033125 0.005728574 -0.09997536 0.02694792
-0.03831705 -0.1369976 -0.04609689 0.03983275 0.01296276 0.098368466 0.06944846 0.093827635
0.05339205 -0.07879752 -0.09034279 0.037092626 0.08474386 0.023196995 -0.051668886 -0.122332565
-0.049949612 -0.042935185 0.026494458 -0.11325225 -0.12139329 -0.07010309 0.00068020064 0.02747843
0.07391617 -0.0059411586 0.122511506 -0.0012589747 0.015447646 -0.000672756 -0.10847529 -0.09604323
0.115358606 -0.0667247 0.020040745 0.041362215 -0.06919581 -0.0039569708 0.055838145 0.02990852
0.07230764 0.07148157 -0.07905486 -0.033342358 0.14416473 0.12946996 -0.057906877 -0.020839619
0.074461736 -0.099440865 0.070032224 0.08152679 -0.058714096 0.072160795 0.09991731 -0.03152593
0.090722024 0.071409345 0.07150473 -0.072043486 0.008869412 0.10113998 0.09167157 0.050423857
-0.08808852 0.12260802 -0.09076639 -0.039617196 0.044849712 0.014780889 0.07213933 -0.0049843616
0.02585894 -0.06504213 -0.0110795945 -0.047707304 -0.015339885 0.13298285 0.010663893 -0.059604716
-0.07792767 0.11775907 0.12151395 0.023694752 -0.02780011 0.12815493 0.10776443 0.0068647894
0.012418435 -0.02645753 0.056685198 -0.061777487 0.008357142 0.024996292 -0.055586457 0.018327177
0.042425178 -0.0005667073 0.041559014 0.026486536 0.0811989 -0.07272698 0.016991217 -0.011150429
0.021181507 -0.031738892 0.0008260438 0.017286133 -0.050412335 -0.016859502 0.061316542 -0.0034630608
-0.02990472 -0.048953533 -0.0022533317 0.0397848 0.07471945 -0.067702375 -0.03730706 -0.09192877
0.11231214 0.0026845462 0.024634162 0.09533427 0.059251033 0.023362447 -0.07818758 -0.019114451
-0.020972362 0.089413844 0.011192359 0.019825412 0.05143946 0.049437463 -0.04077176 0.11690782
0.040849473 0.054139394 -0.020377701 0.019417811 0.051208273 -0.05282332 0.041335996 0.018052319
0.01506178 0.08247932 -0.07819046 0.0069803265 0.042659942 0.101323426 0.062370412 0.12762763
0.0021125297 -0.07458658 0.0008099437 0.095821284 0.04599097 0.0019249155 0.10381848 0.006686347
-0.042480137 0.07914937 0.0008932201 -0.0392392 -0.082612306 0.042622108 0.01827176 0.0052846316
0.03838054 0.08505752 -0.12033498 -0.039199322 -0.0030907919 -0.064922586 -0.097844005 0.021585064
0.0007985733 0.054094315 -0.046152312 -0.056869004 -0.021862525 -0.06575029 -0.0781738 -0.07315895
0.06615331 -0.06322048 -0.029899951 -0.06446303 0.017587004 0.04733268 -0.008501959 0.07234859
-0.046013135 0.06745276 -0.0667821 0.014989306 0.08302367 -0.054896135 0.086746216 0.10925922
-0.006300304 0.060832027 -0.070494086 -0.018831363 -0.030727886 0.05375225 -0.09594278 0.051387332
0.0042097927 0.049432244 0.03461913 0.10053712 0.104333155 -0.11344756 -0.05099802 -0.0017427778
0.033328924 -0.09721119 0.00036215034 -0.009518774 -0.028218461 -0.08729219 0.04564625 0.0063551674
0.038749386 -0.06232965 0.03982906 -0.00017487386 -0.060988467 0.07297972 0.09870126 0.018487314
00000000: b69e a63c e76e ab3c f5e6 54ba 30ec a53c
00000010: 10ec 98bd 07f5 ae3d 34ce 813c ba91 a03d
00000020: 8a5f fe3d bdf7 573d 3f66 b8bc 7dbf 89bd
00000030: ebf9 19bb 4e64 6bbc 69d1 cf3d 8cd1 65bd
00000040: 3391 1abd 6250 473d 0593 a5bb 93cd e83d
00000050: 97ff b8bd c3b6 bb3b e2bf ccbd e2c1 dc3c
00000060: 57f2 1cbd 1949 0cbe 18d0 3cbd aa27 233d
00000070: c261 543c 6875 c93d ff3a 8e3d b428 c03d
00000080: 9fb1 5a3d 9860 a1bd a405 b9bd 70ee 173d
00000090: 308e ad3d a007 be3c c1a2 53bd 7f89 fabd
000000a0: f797 4cbd cedc 2fbd e80a d93c ccf0 e7bd
000000b0: 0c9d f8bd 3592 8fbd 7e4f 323a 721a e13c
000000c0: 5c61 973d 0dae c2bb 50e7 fa3d 2e04 a5ba
000000d0: 2018 7d3c e45b 30ba 4b28 debd 50b2 c4bd
000000e0: 2241 ec3d f6a6 88bd 7d2c a43c 6d6b 293d
000000f0: 88b6 8dbd 7aa9 81bb 8ab6 643d b602 f53c
00000100: 0716 943d ee64 923d 84e7 a1bd ff91 08bd
00000110: eb9f 133e c693 043e c32f 6dbd d9b7 aabc
00000120: 657f 983d a7a7 cbbd 0e6d 8f3d 85f7 a63d
00000130: 317e 70bd 0ac9 933d 72a1 cc3d 5521 01bd
00000140: 78cc b93d 103f 923d 1271 923d 898b 93bd
00000150: 0351 113c 7a22 cf3d 4ebe bb3d 3f89 4e3d
00000160: c167 b4bd ea19 fb3d bbe3 b9bd a445 22bd
00000170: 55b4 373d 8b2b 723c c9bd 933d db53 a3bb
00000180: 21d6 d33c cf34 85bd 3087 35bc bc68 43bd
00000190: 2454 7bbc a82c 083e 9cb7 2e3c 1324 74bd
000001a0: 8b98 9fbd ab2b f13d 4edc f83d 7f1b c23c
000001b0: 0ebd e3bc 0c3b 033e 99b3 dc3d 07f2 e03b
000001c0: b176 4b3c 76bd d8bc bd2e 683d 640a 7dbd
000001d0: 65ec 083c 06c5 cc3c a0ae 63bd e022 963c
000001e0: 06c6 2d3d 158f 14ba c939 2a3d 4bfa d83c
000001f0: 9c4b a63d e2f1 94bd 2a31 8b3c 4ab0 36bc
00000200: d784 ad3c a400 02bd dc8a 583a a69b 8d3c
00000210: 2a7d 4ebd f01c 8abc 0e27 7b3d 85f4 62bb
00000220: befa f4bc 8083 48bd a2ac 13bb 63f5 223d
00000230: 8306 993d 8ba7 8abd 4acf 18bd 2745 bcbd
00000240: e803 e63d 36ef 2f3b 95cd c93c 9d3e c33d
00000250: 36b1 723d 9a62 bf3c cf20 a0bd e995 9cbc
00000260: 3bce abbc 9b1e b73d 2860 373c e768 a23c
00000270: 2fb2 523d f07e 4a3d 4a00 27bd 5e6d ef3d
00000280: c751 273d 45c1 5d3d 23ef a6bc 1a12 9f3c
00000290: c4bf 513d 445d 58bd ef4f 293d 75e2 933c
000002a0: afc5 763c ebea a83d 5222 a0bd 39bb e43b
000002b0: 31bc 2e3d a882 cf3d 1e78 7f3d d1b0 023e
000002c0: 5e72 0a3b d9c0 98bd 6752 543a f33d c43d
000002d0: 0761 3c3d 724d fc3a c99e d43d 2519 db3b
000002e0: a7ff 2dbd 1119 a23d fc26 6a3a 49b9 20bd
000002f0: a430 a9bd 8594 2e3d a8ae 953c b42a ad3b
00000300: ea34 1d3d a332 ae3d 3072 f6bd 788f 20bd
00000310: e28e 4abb 22f6 84bd 7062 c8bd 29d3 b03c
00000320: 5957 513a 0092 5d3d 350a 3dbd 79ef 68bd
00000330: 0a19 b3bc 17a8 86bd 9619 a0bd 5cd4 95bd
00000340: 637b 873d bd79 81bd bef0 f4bc 3105 84bd
00000350: 9f12 903c eadf 413d cd4b 0bbc 7f2b 943d
00000360: 4578 3cbd ac24 8a3d 0ec5 88bd b595 753c
00000370: 5008 aa3d c5da 60bd 00a8 b13d 4cc3 df3d
00000380: c872 cebb 012b 793d 345f 90bd 3b44 9abc
00000390: 0cb9 fbbc 522b 5c3d a67d c4bd 867b 523d
000003a0: 4df2 893b 7779 4a3d cacc 0d3d 68e6 cd3d
000003b0: 9fac d53d 3257 e8bd 4de3 50bd eb6d e4ba
000003c0: e983 083d a916 c7bd ffde bd39 a2f4 1bbc
000003d0: 672a e7bc 3fc6 b2bd 90f7 3a3d 023f d03b
000003e0: adb7 1e3d 604d 7fbd cc23 233d 585e 37b9
000003f0: 0bcf 79bd 6476 953d e323 ca3d b572 973c

fc0.bias f4 [120]
-0.03692229 -0.003975848 -0.02463586 0.02006521 -0.03405562 -0.08760904 -0.043054704 0.027793199
0.031977214 0.06705141 -0.045624577 -0.07024534 -0.00029628046 0.028853826 0.054004647 -0.07880545
0.0466206 0.020183645 0.07211998 -0.027087534 -0.042720076 -0.012412902 -0.059794966 -0.08720634
-0.08320609 0.102233075 -0.06447711 0.096710525 -0.06354504 -0.04576873 -0.025276354 0.106242254
0.12538669 -0.06056712 -0.054387383 -0.09294299 -0.063347034 0.10270898 0.0846308 -0.07264168
0.0583095 -0.03683499 -0.050928462 -0.064283 0.123789996 0.0418766 0.081401244 -0.022323402
0.060357533 -0.07523814 0.06195757 -0.049252234 0.05524068 -0.0343641 -0.051181316 -0.0417786
-0.0015498375 0.13365181 -0.07572674 -0.06373221 -0.043672647 0.015647372 -0.02062327 0.04893111
0.0449047 -0.045601822 0.032749005 -0.06612 0.035541404 -0.04329171 -0.045436166 0.11961153
-0.05982773 0.09841465 0.033111706 0.024785092 -0.03156661 0.04573641 0.044372242 -0.054858662
0.03196796 0.04887366 -0.011623328 -0.014470681 -0.054704543 -0.009231675 -0.06316877 0.07641827
0.004372934 0.05867592 0.124270245 -0.074461475 0.09280161 -0.08528261 0.049428448 -0.045829147
-0.073295966 -0.061547313 0.04825406 0.029688878 0.05591292 0.09552322 0.0033794774 0.008785491
-0.038767483 -0.040417843 0.07934512 0.006326992 -0.055675898 0.0056478106 -0.04661923 0.08302523
0.014013373 -0.06706394 -0.07052832 -0.03966174 -0.0506846 0.09073606 0.08238912 -0.080899365
00000000: d43b 17bd d547 82bb 25d1 c9bc cc5f a43c
00000010: e87d 0bbd 5e6c b3bd 215a 30bd 90ae e33c
00000020: 8afa 023d 4052 893d d6e0 3abd cadc 8fbd
00000030: 1756 9bb9 dc5e ec3c fa33 5d3d c064 a1bd
00000040: 3ef5 3e3d 2c58 a53c a4b3 933d ade6 ddbc
00000050: 3ffb 2ebd 7c5f 4bbc 91eb 74bd 3d99 b2bd
00000060: f467 aabd 935f d13d 930c 84bd 2b10 c63d
00000070: e723 82bd fe77 3bbd 5b10 cfbc 8a95 d93d
00000080: 5e65 003e 3a15 78bd 4ec5 5ebd e558 bebd
00000090: 17bc 81bd 1659 d23d ea52 ad3d 29c5 94bd
000000a0: f1d5 6e3d 49e0 16bd 5d9a 50bd cea6 83bd
000000b0: 9c85 fd3d cc86 2b3d b2b5 a63d 91df b6bc
000000c0: 7639 773d 7416 9abd 39c7 7d3d b6bc 49bd
000000d0: 0d44 623d 5fc1 0cbd 80a3 51bd 0a20 2bbd
000000e0: eb23 cbba 05dc 083e 9f16 9bbd 0886 82bd
000000f0: 17e2 32bd eb2e 803c 22f2 a8bc fd6b 483d
00000100: feed 373d fac8 3abd d223 063d ec69 87bd
00000110: dd93 113d a652 31bd 461b 3abd e4f6 f43d
00000120: ec0d 75bd 9f8d c93d 24a0 073d 1b0a cb3c
00000130: fd4b 01bd 1a56 3b3d abbf 353d 7ab3 60bd
00000140: d6f0 023d bf2f 483d c56f 3ebc 6f16 6dbc
00000150: df11 60bd 7440 17bc a15e 81bd 2f81 9c3d
00000160: d44a 8f3b 2956 703d 6681 fe3d 427f 98bd
00000170: c50e be3d a6a8 aebd 7c75 4a3d 58b7 3bbd
00000180: 321c 96bd 0919 7cbd 0da6 453d 1736 f33c
00000190: f204 653d aea1 c33d 397a 5d3b 05f1 0f3c
000001a0: a7ca 1ebd 2e8d 25bd b27f a23d a852 cf3b
000001b0: 690c 64bd 4511 b93b cef3 3ebd 2209 aa3d
000001c0: 5998 653c d258 89bd 2771 90bd 5974 22bd
000001d0: a89a 4fbd d4d3 b93d a0bb a83d 91ae a5bd

fc2.weight f4 [84, 120]
-0.017523834 0.12799388 0.03651427 0.02112029 -0.00461368 0.07031081 0.10114337 0.05519158
-0.0062895077 -0.075697124 0.017662963 -0.089654855 -0.08160138 0.05225002 0.010426341 0.05306893
-0.061359257 0.06761479 0.08178948 -0.03240508 -0.013476772 -0.08615278 0.059457686 -0.000118960284
-0.0065445006 0.019896554 -0.010698717 -0.004768891 -0.039258778 0.102898635 0.04712137 0.16831
-0.026641143 0.023479197 -0.08926302 0.073910475 0.0139395725 0.0625866 -0.043049388 0.050091248
0.09500476 -0.057528283 0.09339872 -0.104522265 -0.10327987 -0.09325969 -0.0021394428 0.024715574
-0.10497668 0.04047702 -0.037249956 -0.08644285 -0.0137359435 0.097965084 -0.015585858 0.0036078691
0.09714218 0.06985834 0.030197093 0.009327129 -0.09919168 0.032122955 -0.026599273 0.09444871
0.07633943 -0.046827354 -0.03262522 0.054054484 0.04121521 -0.033328414 0.10676151 0.08882035
-0.054137085 0.018273843 -0.033205334 -0.044253446 0.06783542 0.017057303 0.12533179 0.054218944
0.008825069 0.13047701 0.08403163 -0.0021224066 -0.0795919 0.14473468 0.034464557 0.062230993
-0.038050722 0.0957144 -0.088768594 -0.036923114 -0.053455994 -0.025125882 -0.03954035 0.01206276
0.048376672 0.114635065 -0.049518645 -0.07337032 0.08587864 -0.018441888 0.021347081 0.004431739
-0.07152392 0.03815174 -0.00933382 -0.0498196 -0.04923063 -0.06678569 0.01059641 -0.07754803
-0.024419805 -0.094330184 0.0814224 -0.010214425 -0.035417773 0.15555593 0.035059817 -0.03846656
-0.037978426 -0.013719232 0.004828656 0.18499345 -0.058423694 0.007058829 0.07004573 -0.048026737
-0.12933935 -0.13247736 0.10070955 -0.059480127 -0.09966189 -0.02822477 0.064181075 0.019292574
-0.05985118 0.08621466 -0.045018993 0.0274233 0.06929114 -0.044036023 0.100610875 0.030225715
-0.11874707 -0.041120306 0.121363945 0.015498963 0.09137244 -0.05902283 -0.020756308 -0.08341991
0.04225015 -0.13944706 -0.09013665 0.014356809 -0.082168594 0.12540315 0.03433255 0.047142386
-0.06429755 0.06491233 0.086507075 0.011669071 0.041065425 -0.10022261 -0.079304926 0.061185945
-0.03235886 -0.030921487 -0.06689305 0.026687331 0.16775566 0.021943325 -0.033242833 -0.0032912719
-0.03247089 0.07604761 0.0709036 0.13118608 -0.09638327 0.02921941 0.10941469 -0.067253016
0.1160305 0.14291407 0.09265271 -0.09963706 0.07488772 -0.03178904 -0.030487066 0.08028752
-0.12244205 0.058308966 -0.081296586 -0.060852595 0.08522972 -0.020721652 0.086904235 0.06907122
0.101728454 0.008476723 -0.005868624 0.023913851 0.0042432807 -0.08913699 -0.0046324483 -0.024165967
0.02137004 -0.044017807 -0.039280545 0.088381045 -0.12434984 -0.06606959 -0.017656324 0.09723953
0.120391324 0.017292198 0.0725828 0.061380755 0.049966086 0.0062202425 0.13358705 0.011858891
-0.115633845 -0.10496615 0.0018607953 -0.08064075 -0.02229104 0.055913437 0.10042781 -0.0468933
-0.07482571 -0.01705785 0.04718122 -0.03296738 0.09870587 0.15322585 0.05826877 0.06892853
0.0016688376 0.057287984 0.06138672 0.047405474 0.030489435 -0.018015727 -0.0039552865 -0.060121596
-0.041009557 0.03969805 0.051954404 -0.09634159 -0.038790755 -0.015315194 0.06354401 0.019239865
00000000: 258e 8fbc d410 033e fd8f 153d 7504 ad3c
00000010: 5a2e 97bb 1dff 8f3d 4124 cf3d 9110 623d
00000020: 3718 cebb 1807 9bbd ebb1 903c f79c b7bd
00000030: a01e a7bd 1e04 563d 3ed3 2a3c ce5e 593d
00000040: d853 7bbd 9f79 8a3d 3e81 a73d 30bb 04bd
00000050: aecd 5cbc de70 b0bd e789 733d 517a f9b8
00000060: 4073 d6bb 19fe a23c ac49 2fbc 5b44 9cbb
00000070: d0cd 20bd 85bc d23d 5602 413d 7559 2c3e
00000080: 873e dabc 7257 c03c 88cf b6bd 605e 973d
00000090: ce62 643c 672d 803d 8e54 30bd 7b2c 4d3d
000000a0: db91 c23d c7a2 6bbd d447 bf3d c50f d6bd
000000b0: 6584 d3bd f0fe bebd e535 0cbb 5178 ca3c
000000c0: 03fe d6bd 3bcb 253d 6993 18bd f308 b1bd
000000d0: b90c 61bc eba1 c83d d45b 7fbc 0072 6c3b
000000e0: 7bf2 c63d e411 8f3d e55f f73c d1d0 183c
000000f0: 0225 cbbd 5c93 033d b8e6 d9bc 536e c13d
00000100: d957 9c3d 0ace 3fbd 06a2 05bd 3c68 5d3d
00000110: 48d1 283d 6083 08bd c7a5 da3d 72e7 b53d
00000120: d9be 5dbd 07b3 953c 5102 08bd 1a43 35bd
00000130: 4ced 8a3d c2bb 8b3c fa56 003e af14 5e3d
00000140: 0697 103c c49b 053e c618 ac3d 1318 0bbb
00000150: 1401 a3bd 5435 143e b52a 0d3d ede5 7e3d
00000160: 13db 1bbd e905 c43d 4fcc b5bd b13c 17bd
00000170: acf4 5abd cbd4 cdbc 10f5 21bd e2a2 453c
00000180: 9e26 463d cac5 ea3d 10d4 4abd 2e43 96bd
00000190: 24e1 af3d 7113 97bc 13e0 ae3c 1f38 913b
000001a0: 227b 92bd 0045 1c3d e1ec 18bc a30f 4cbd
000001b0: 0fa6 49bd f0c6 88bd 919c 2d3c 80d1 9ebd
000001c0: 0b0c c8bc 2f30 c1bd cac0 a63d 675a 27bc
000001d0: 3a12 11bd 0e4a 1f3e e29a 0f3d 1d8f 1dbd
000001e0: 448f 1bbd a1c6 60bc b439 9e3b ec6e 3d3e
000001f0: af4d 6fbd c04d e73b 2374 8f3d afb7 44bd
00000200: 8971 04be 25a8 07be cf40 ce3d 6fa1 73bd
00000210: 881b ccbd a237 e7bc 5e71 833d 760b 9e3c
00000220: 8326 75bd 5091 b03d d665 38bd d4a6 e03c
00000230: 83e8 8d3d 1e5f 34bd 130d ce3d eb9b f73c
00000240: aa31 f3bd c46d 28bd a98d f83d 5def 7d3c
00000250: 7921 bb3d ecc1 71bd 2209 aabc 0fd8 aabd
00000260: 7e0e 2d3d 36cb 0ebe 9099 b8bd d238 6b3c
00000270: 0248 a8bd af69 003e 4aa0 0c3d 6018 413d
00000280: 6fae 83bd c1f0 843d 9f2a b13d a22f 3f3c
00000290: 3834 283d 8341 cdbd 9f6a a2bd 1d9e 7a3d
000002a0: b98a 04bd 0f4f fdbc 39ff 88bd 649f da3c
000002b0: 24c8 2b3e 7dc2 b33c a329 08bd 61b2 57bb
000002c0: 3200 05bd d9be 9b3d e835 913d a555 063e
000002d0: 9864 c5bd 8b5d ef3c cf14 e03d f3bb 89bd
000002e0: 66a1 ed3d 1158 123e b4c0 bd3d 840e ccbd
000002f0: bc5e 993d 3935 02bd 03c0 f9bc c96d a43d
00000300: e6c2 fabd 62d5 6e3d d37e a6bd 9240 79bd
00000310: eb8c ae3d 74c0 a9bc d9fa b13d 3675 8d3d
00000320: 0257 d03d f4e1 0a3c 964d c0bb fbe6 c33c
00000330: 380b 8b3b 748d b6bd cbcb 97bb b5f7 c5bc
00000340: 3910 af3c 044c 34bd a3e4 20bd 1f01 b53d
00000350: 21ab febd 7e4f 87bd ffa3 90bc 8525 c73d
00000360: ba8f f63d 5ea8 8d3c 4ba6 943d 636a 7b3d
00000370: 3da9 4c3d 2dd3 cb3b 0bcb 083e cb4b 423c
00000380: 70d1 ecbd 7ef8 d6bd eee5 f33a fa26 a5bd
00000390: b39b b6bc 7d05 653d 18ad cd3d 3013 40bd
000003a0: 393e 99bd e7bc 8bbc 1841 413d ce08 07bd
000003b0: 4e26 ca3d 3de7 1c3e 3cab 6e3d 672a 8d3d
000003c0: e6bc da3a cea6 6a3d a470 7b3d 3e2c 423d
000003d0: fbc4 f93c b895 93bc 599b 81bb 1042 76bd
000003e0: a3f9 27bd 6c9a 223d 24ce 543d bd4e c5bd
000003f0: 0ee3 1ebd 94ec 7abc 5d23 823d ec9c 9d3c

fc2.bias f4 [84]
0.022388058 -0.03676818 -0.053522 -0.04564476 0.08178924 -0.010107263 -0.07668525 -0.049307045
0.08964658 0.048829556 -0.026023898 0.01526418 0.099250965 0.010675033 0.07325082 0.040557604
0.06377972 0.005143441 -0.04979481 -0.00872831 0.025583759 -0.06902631 0.013280721 0.028524771
-0.007253564 0.047851622 -0.07362263 0.032707952 -0.031484082 -0.035595767 -0.104093425 -0.010720746
-0.09284963 -0.02969462 0.06450888 0.06922959 -0.07871295 0.10417429 -0.058660574 0.03162077
-0.013529754 0.051777832 0.04286003 0.08080143 0.052097097 0.10493312 -0.0463634 0.07007897
0.06336132 0.056288797 -0.043413363 -0.068121284 0.051218662 0.024573345 -0.038685944 0.09054513
0.030985774 0.024236975 -0.017023105 0.0035526822 0.031984203 -0.008328848 -0.062748626 -0.06291674
-0.037249394 0.07878224 0.07763496 0.0710096 -0.040306598 -0.0034619332 0.04134792 -0.011829187
0.011595402 0.03265365 0.12542216 -0.076994024 -0.04383566 0.019559374 -0.0042646257 0.02501542
0.030235179 -0.04217162 0.027404826 0.0057216994
00000000: 2967 b73c 3b9a 16bd e239 5bbd 00f6 3abd
00000010: 1e81 a73d ef98 25bc 280d 9dbd 2ff6 49bd
00000020: a098 b73d 8001 483d 1230 d5bc 9c16 7a3c
00000030: 1744 cb3d 55e6 2e3c 8704 963d bb1f 263d
00000040: f19e 823d 4f8a a83b a5f5 4bbd 2f01 0fbc
00000050: 0895 d13c ab5d 8dbd 6297 593c c8ac e93c
00000060: 4eaf edbb 1000 443d 76c7 96bd c6f8 053d
00000070: 74f5 00bd decc 11bd ef2e d5bd 11a6 2fbc
00000080: f227 bebd 2242 f3bc 3b1d 843d 3ec8 8d3d
00000090: 4134 a1bd 5559 d53d 1246 70bd c884 013d
000000a0: e7ab 5dbc fe14 543d 008e 2f3d 387b a53d
000000b0: c463 553d 2de7 d63d 8ce7 3dbd 9085 8f3d
000000c0: 94c3 813d 158f 663d 36d2 31bd 2c83 8bbd
000000d0: a9ca 513d 0a4e c93c 2775 1ebd ba6f b93d
000000e0: e1d5 fd3c 9f8c c63c 0a74 8bbc 1ed4 683b
000000f0: de01 033d b875 08bc 5a82 80bd 7eda 80bd
00000100: d292 18bd 9558 a13d 14ff 9e3d 7b6d 913d
00000110: 8818 25bd 9ae1 62bb 705c 293d 35cf 41bc
00000120: a4fa 3d3c d5bf 053d ab6e 003e 0baf 9dbd
00000130: 058d 33bd fb3a a03c 46be 8bbb 23ed cc3c
00000140: c4af f73c 26bc 2cbd 1680 e03c 187d bb3b

fc3.weight f4 [10, 84]
-0.028127562 -0.049106445 -0.06222502 -0.04593871 0.041570906 0.027138965 0.1438897 0.03187486
-0.1349509 -0.07655833 0.0035168896 0.04731245 0.06062427 0.14645916 0.05351907 -0.024441347
-0.10166395 -0.10379114 0.015481146 -0.060658693 -0.025143867 0.100749426 0.10258401 -0.072866045
-0.12090423 0.08075464 -0.17930178 0.09451492 -0.10523157 0.048409853 -0.09582245 -0.027883826
0.10544919 -0.0996137 -0.24103408 0.11379053 0.04742198 -0.17573209 -0.08369291 -0.06625259
-0.13248596 0.10553822 -0.13072379 0.16039053 -0.08771539 0.13255136 0.080235735 0.068680316
-0.066002436 0.1442317 -0.0036707665 -0.040470157 -0.012312738 -0.052021883 0.059269667 -0.15472849
0.11122094 0.06599112 0.061584674 0.047699127 0.052074064 -0.083513804 -0.12039479 0.0049949693
-0.09862442 -0.19640577 -0.17842314 0.09045755 0.08510591 -0.14376841 0.08772915 -0.08376251
-0.15984644 0.118272126 -0.09970748 -0.06595808 -0.095476374 -0.086979695 -0.0908328 -0.17052041
-0.18138583 -0.100886256 0.054407537 0.058545675 -0.044529572 -0.17655534 -0.026005348 -0.06665615
-0.22530235 -0.11227676 0.026997963 0.067940295 -0.04955654 -0.2255792 0.0980392 -0.20219904
0.08448295 0.051487774 -0.1496708 0.15791377 -0.06204065 0.09452317 0.00066728995 -0.06261481
0.07047197 -0.05136459 -0.038519636 0.053859092 -0.13646325 0.09331617 -0.050105166 -0.079169296
0.121413946 -0.00936299 -0.13400371 0.12587172 -0.048309706 -0.0010419902 0.148631 -0.12606312
0.1103395 0.1477905 -0.0692615 -0.13237244 0.16234192 -0.14871512 -0.11396722 -0.0819129
-0.03903746 -0.18305966 -0.12643863 -0.20952038 0.11863744 -0.10292399 -0.10023583 -0.22318111
-0.051762063 0.124897435 0.027915437 -0.17002407 -0.05749638 -0.18017364 0.05140078 0.106000155
-0.13510618 0.09609061 -0.02410078 0.17652002 -0.0048110066 0.08749841 0.0074089947 -0.13324565
-0.028678399 -0.073599264 -0.12239333 0.08222187 0.05877378 -0.1691771 0.122030996 0.019388609
0.017195437 0.029355528 0.091664344 0.09561448 0.03858198 -0.13521908 0.060450803 0.04902383
-0.15386447 -0.032354947 0.090523794 -0.014778809 -0.06422243 0.010136381 0.04201238 -0.03179004
-0.009728671 -0.15168148 0.009294217 0.044163022 -0.071478665 -0.052427933 0.041949395 0.120835826
0.004051881 -0.13798349 -0.08728557 -0.09541904 0.15468037 0.078589134 -0.066973105 0.04305884
0.16245164 -0.0016864301 -0.07775339 0.05668213 -0.19424894 -0.008511471 0.026591836 -0.053793263
-0.053068347 -0.053636312 -0.13262215 0.017805317 -0.032996133 0.04771098 0.08933476 0.12759726
-0.17321944 -0.06892463 0.048455786 0.17192842 0.03102459 -0.053107303 -0.11839064 -0.0979229
-0.11134371 -0.11126622 0.0569176 -0.08062857 -0.10972822 0.10457619 0.110461615 0.06894414
-0.15205272 0.064744554 -0.054535195 -0.020362647 -0.15041694 0.13291182 -0.1589481 -0.07390622
0.045417994 0.06394603 -0.07697159 -0.15094519 0.04277866 -0.05807608 -0.043867853 -0.10564432
0.04135761 0.13847385 0.018156638 -0.07166958 0.016972302 0.027210485 0.08171185 -0.08197293
-0.15533191 -0.112081364 -0.08486752 0.053113356 -0.06756582 0.051168602 0.00052648515 0.045143172
00000000: c66b e6bc d723 49bd aadf 7ebd 3b2a 3cbd
00000010: 4146 2a3d 8952 de3c d257 133e 378f 023d
00000020: 9230 0abe 9dca 9cbd 9e7b 663b b3ca 413d
00000030: 2851 783d 64f9 153e d036 5b3d 3839 c8bc
00000040: 3035 d0bd 7390 d4bd a2a4 7d3c 4075 78bd
00000050: 83fa cdbc b755 ce3d 9117 d23d cb3a 95bd
00000060: a39c f7bd b062 a53d e39a 37be 0a91 c13d
00000070: a683 d7bd 6949 463d 903e c4bd 9f6c e4bc
00000080: bff5 d73d 4402 ccbd a3d1 76be 020b e93d
00000090: 8d3d 423d 1df3 33be 3067 abbd 70af 87bd
000000a0: 66aa 07be 6c24 d83d 75dc 05be 6a3d 243e
000000b0: 20a4 b3bd 8bbb 073e a252 a43d 44a8 8c3d
000000c0: 492c 87bd 7ab1 133e 3e91 70bb 09c4 25bd
000000d0: 5ebb 49bc e614 55bd c0c4 723d 2571 1ebe
000000e0: cec7 e33d 5a26 873d 3640 7c3d 2960 433d
000000f0: 9d4b 553d 4909 abbd 8b91 f6bd d7ac a33b
00000100: 9afb c9bd 981e 49be 8eb4 36be cf41 b93d
00000110: 024c ae3d 0738 13be 57ab b33d ae8b abbd
00000120: c9ae 23be a838 f23d 6f33 ccbd 0815 87bd
00000130: 1e89 c3bd 6922 b2bd 8c06 babd e79c 2ebe
00000140: 35bd 39be 749d cebd 70da 5e3d 97cd 6f3d
00000150: a464 36bd ecca 34be 2b09 d5bc 0583 88bd
00000160: a9b5 66be 5cf1 e5bd d52a dd3c 4824 8b3d
00000170: ccfb 4abd 3cfe 66be c7c8 c83d 440d 4fbe
00000180: 6605 ad3d d8e4 523d 4d43 19be 26b4 213e
00000190: 561e 7ebd 5d95 c13d 12ed 2e3a 323c 80bd
000001a0: 9c53 903d ad63 52bd c4c6 1dbd 5a9b 5c3d
000001b0: 06bd 0bbe 8c1c bf3d 133b 4dbd 8323 a2bd
000001c0: e0a7 f83d 3a67 19bc 4538 09be 84e4 003e
000001d0: 66e0 45bd 6493 88ba ba32 183e b116 01be
000001e0: adf9 e13d 6556 173e f9d8 8dbd a48c 07be
000001f0: f63c 263e c748 18be a567 e9bd f3c1 a7bd
00000200: bee5 1fbd fe73 3bbe 2179 01be 838c 56be
00000210: 30f8 f23d d0c9 d2bd 7148 cdbd 9789 64be
00000220: 7504 54bd 3aca ff3d eaae e43c ca1a 2ebe
00000230: 5381 6bbd 707f 38be a089 523d 9c16 d93d
00000240: 4659 0abe 27cb c43d 006f c5bc aac1 343e
00000250: a6a5 9dbb 5e32 b33d 27c7 f23b 8c71 08be
00000260: f6ee eabc 36bb 96bd 5ba9 fabd f163 a83d
00000270: c6bc 703d c33c 2dbe 63eb f93d dcd4 9e3c
00000280: 72dd 8c3c 017b f03c 84ba bb3d 86d1 c33d
00000290: 2308 1e3d df76 0abe 439b 773d 36cd 483d
000002a0: a68e 1dbe 9f86 04bd 8a64 b93d d122 72bc
000002b0: 0d87 83bd 1013 263c 2c15 2c3d 4636 02bd
000002c0: 0165 1fbc 6452 1bbe c646 183c 49e4 343d
000002d0: 6863 92bd acbe 56bd 21d3 2b3d c678 f73d
000002e0: a4c5 843b 8b4b 0dbe c7c2 b2bd 0f6b c3bd
000002f0: 8864 1e3e 57f3 a03d 3229 89bd 775e 303d
00000300: b959 263e 340b ddba 2b3d 9fbd 852b 683d
00000310: 32e9 46be b273 0bbc 1fd7 d93c 5356 5cbd
00000320: 325e 59bd c0b1 5bbd 1ace 07be 75dc 913c
00000330: f426 07bd 976c 433d 25f5 b63d dba8 023e
00000340: 7060 31be 5b28 8dbd 9379 463d 010e 303e
00000350: 4827 fe3c 0b87 59bd cb76 f2bd cd8b c8bd
00000360: 2c08 e4bd 8bdf e3bd 6e22 693d 9720 a5bd
00000370: 30b9 e0bd 0b2c d63d b339 e23d 9632 8d3d
00000380: b5b3 1bbe cb98 843d 4c60 5fbd 91cf a6bc
00000390: e606 1abe 091a 083e 4ac3 22be 255c 97bd
000003a0: 3808 3a3d 23f6 823d 48a3 9dbd 6091 1abe
000003b0: ad38 2f3d 2fe1 6dbd c7ae 33bd 0d5c d8bd
000003c0: 9966 293d 17cc 0d3e 3bbd 943c 80c7 92bd
000003d0: 7f09 8b3c 86e8 de3c 8b58 a73d 6ce1 a7bd
000003e0: 540f 1fbe ea8a e5bd 06cf adbd 648d 593d
000003f0: f35f 8abd 2b96 513d d203 0a3a 0ce8 383d

fc3.bias f4 [10]
-0.05755689 0.03951051 -0.07375904 -0.013346393 -0.042971447 -0.07866744 0.11100183 0.038560357
-0.05190132 0.06727893
00000000: c6c0 6bbd c6d5 213d fb0e 97bd d4aa 5abc
00000010: d402 30bd 651c a1bd ed54 e33d 77f1 1d3d
00000020: 7b96 54bd 89c9 893d
