models/client-3-2.pth (torch, 181282 bytes, 10 tensors)

conv1.weight f4 [6, 1, 5, 5]
0.21304342 -0.11705313 0.173867 0.13996404 -0.16838461 -0.04374775 0.12048542 0.19830886
0.14342828 -0.12725995 0.24437839 0.0036973273 0.027331276 -0.0016757518 -0.091007635 0.13098602
0.18326767 0.1636552 0.029940888 -0.12879984 -0.1743548 0.17087755 -0.07866264 0.06397705
0.15162006 -0.045632213 -0.13600655 -0.010528297 0.015454737 0.24946247 -0.03053936 0.1568623
0.22874361 0.25620836 -0.059285242 0.2653663 -0.0937631 0.08349092 -0.043483745 0.11745409
-0.18159883 0.12925717 -0.1426235 -0.058337845 0.15602766 0.09860588 -0.25167906 -0.23524487
-0.18183942 -0.0013125265 0.13784476 -0.12574573 -0.0116994865 -0.08519742 0.05867625 0.1812712
0.18003355 -0.05756882 -0.002249602 -0.12972197 0.19297275 0.03843725 0.2196459 -0.07200421
-0.14128096 0.017280025 -0.056870103 0.12303533 0.062372554 -0.066170126 0.023360161 0.10533826
-0.072245054 0.08944462 -0.018374773 -0.016260857 0.19156875 0.00086040486 -0.11258237 0.14291005
-0.091891915 -0.014110131 0.11168495 0.13449584 0.113657 0.21461786 0.24317586 -0.1085818
0.193148 0.20536293 0.15148585 -0.03487623 0.22759703 0.14176627 0.2609387 -0.17446867
0.032237113 0.16969639 -0.12259339 0.16698171 0.33946824 0.25074363 0.083969526 0.28112364
0.31162536 0.13284194 0.14967175 0.15986805 0.10125033 0.18703657 -0.07444614 0.2075518
-0.021200016 -0.029999431 -0.048586022 -0.2587778 -0.21313745 -0.01216 0.07016424 0.051518764
-0.14099588 -0.32234815 -0.18230784 -0.2334199 -0.15215556 -0.016546145 0.18139474 -0.12896875
0.023535825 0.07762204 0.15684651 -0.0044714464 0.18303372 -0.13029869 -0.06033286 -0.13996233
-0.07048736 0.16948654 0.20632559 0.23623948 0.06558304 0.03311055 -0.055118203 0.23720057
-0.13051388 0.066610865 0.030673074 0.07371168 0.17936264 -0.0028009645
00000000: 0e28 5a3e 8db9 efbd 310a 323e bc52 0f3e
00000010: 046d 2cbe d730 33bd 0fc1 f63d 7a11 4b3e
00000020: ddde 123e 6f50 02be 543e 7a3e dc4e 723b
00000030: d7e5 df3c e6a4 dbba 3662 babd 3321 063e
00000040: 85aa 3b3e 3b95 273e 9846 f53c 1be4 03be
00000050: 118a 32be 86fa 2e3e e119 a1bd 6606 833d
00000060: 4a42 1b3e d8e8 3abd 4d45 0bbe e17e 2cbc
00000070: dd35 7d3c 1773 7f3e ae2d fabc 83a0 203e
00000080: c43b 6a3e be2d 833e 15d5 72bd 17de 873e
00000090: de06 c0bd 4afd aa3d 031c 32bd c58b f03d
000000a0: 0bf5 39be fe5b 043e e50b 12be aaf3 6ebd
000000b0: b7c5 1f3e e1f1 c93d 14dc 80be 08e4 70be
000000c0: 1d34 3abe 1509 acba 2d27 0d3e 7dc3 00be
000000d0: 34af 3fbc fc7b aebd 8256 703d 289f 393e
000000e0: b75a 383e 48cd 6bbd 0f6e 13bb d6d5 04be
000000f0: a69a 453e 6170 1d3d dbea 603e f176 93bd
00000100: f5ab 10be d78e 8d3c a0f0 68bd f2f9 fb3d
00000110: 5d7a 7f3d 3484 87bd cf5d bf3c 96bb d73d
00000120: 37f5 93bd be2e b73d b186 96bc 7d35 85bc
00000130: 992a 443e cb8c 613a 9691 e6bd 0357 123e
00000140: d431 bcbd 2e2e 67bc 14bb e43d 47b9 093e
00000150: 00c5 e83d c9c4 5b3e 1803 793e 2260 debd
00000160: 97c8 453e a94a 523e 1b1f 1b3e 61da 0ebd
00000170: 320f 693e 2d2b 113e c299 853e eaa7 32be
00000180: 100b 043d e4c4 2d3e 3e12 fbbd 41fd 2a3e
00000190: c8ce ad3e 7861 803e 37f8 ab3d 70ef 8f3e
000001a0: 5c8d 9f3e b807 083e 8d43 193e 73b4 233e
000001b0: 555c cf3d 8486 3f3e 3877 98bd 7688 543e
000001c0: a8ab adbc 5ec1 f5bc 2302 47bd 867e 84be
000001d0: b440 5abe bd3a 47bc 45b2 8f3d 5705 533d
000001e0: 3961 10be d10a a5be e8ae 3abe a005 6fbe
000001f0: abce 1bbe c88b 87bc 8bbf 393e 6210 04be
00000200: 34ce c03c 4ef8 9e3d 5f9c 203e 3685 92bb
00000210: 316d 3b3e 056d 05be 971f 77bd 4952 0fbe
00000220: ad5b 90bd e18d 2d3e 0447 533e c3e8 713e
00000230: 6750 863d ee9e 073d a0c3 61bd b5e4 723e
00000240: 6ea5 05be 476b 883d 1946 fb3c 26f6 963d
00000250: d7aa 373e 6390 37bb

conv1.bias f4 [6]
-0.12353278 -0.0102581065 -0.0006366089 -0.059904337 -0.087913215 -0.017340526
00000000: c1fe fcbd 9e11 28bc 1ae2 26ba 405e 75bd
00000010: d80b b4bd b80d 8ebc

conv2.weight f4 [16, 6, 5, 5]
0.027764397 -0.029350268 -0.03234476 0.0792131 0.09947882 -0.069878064 0.0002711914 -0.04690024
0.053333174 0.060297757 -0.05436581 -0.0035820007 -0.028236264 -0.04589734 0.028170086 -0.055453338
-0.08226651 -0.077946484 0.066718966 -0.05012729 -0.119871385 -0.12810114 -0.022327844 0.05802406
0.1056166 0.007908342 0.11216224 0.10895755 0.049818993 0.10270675 0.06682571 0.027338374
0.0765996 0.035152502 0.018964617 -0.053296678 -0.053227454 -0.033033732 -0.0566358 0.018974185
-0.035016518 -0.099662505 -0.051764145 0.06414 0.06765261 0.0142998565 0.053847495 0.039280046
0.028033974 -0.02384171 0.08062246 -0.055255037 -0.0065274504 0.03514144 0.054642152 0.0057350504
-0.040978994 -0.12346193 -0.06971921 0.100313544 0.04600987 -0.046666216 -0.1280043 -0.007503289
0.056697737 -0.054340377 -0.10129431 -0.057698656 0.08106769 0.044421997 -0.11983478 -0.11582742
-0.045976765 -0.04731609 0.10206797 -0.023890093 0.10465255 -0.024041131 0.024678968 0.042174313
-0.07661663 -0.040964484 0.0018032923 -0.035065982 -0.0216009 -0.11162116 -0.077941254 -0.10068621
-0.06917669 0.016339049 -0.15166621 -0.11917031 -0.0075506438 0.024754819 0.045314256 -0.040455814
-0.085007526 -0.041057244 -0.053964794 0.03664658 0.13579452 0.05548479 0.03991875 -0.024617627
0.030948658 0.017938524 0.055060707 0.14380659 0.017116474 0.0961839 0.078415245 0.0321062
-0.010044906 -0.07724614 0.052559692 -0.093537025 -0.12080857 0.031064956 0.043973785 -0.046585795
-0.0670835 -0.0168966 0.03278742 0.09526488 0.07714756 -0.005376617 0.0030736385 0.08535394
-0.047595534 -0.0128098 -0.06338234 -0.046612345 -0.038923606 0.019146089 0.052310776 -0.043790866
-0.10794953 0.005065765 0.017208923 -0.03183202 -0.115467384 -0.091016516 0.039566074 0.08506
0.05282424 -0.034198303 0.005201685 0.052817453 0.017827282 0.050779074 0.0038809585 0.08173051
0.08328908 0.020045556 0.0032303769 -0.01006515 0.025147447 0.0060339696 0.0049210615 -0.03924774
0.02043105 0.0029262833 -0.011904495 -0.016877832 -0.07083648 -0.03488266 -0.010846084 0.005136019
0.014713517 -0.09913601 -0.0029651558 -0.06907872 -0.04542231 -0.0984533 -0.026828473 0.021378137
0.01967872 0.063180394 0.0654618 0.033108067 0.09938732 0.0045081377 0.10837869 0.085237354
0.008123801 0.02260238 0.07509348 -0.02439965 0.08079313 0.016040199 0.032956515 -0.09706303
-0.07866971 -0.11634 -0.061784342 -0.18442577 -0.1509093 -0.0420097 -0.10316721 -0.032531552
0.053956468 0.0749729 0.11182058 -0.03327063 -0.007974378 0.017474476 -0.005156467 -0.088851236
0.04073876 -0.04974339 -0.0008819633 0.036637876 -0.053812876 -0.07480102 0.01643162 -0.014159711
-0.047093358 -0.10296347 -0.03492718 -0.013260407 -0.0077318763 -0.0041624885 -0.14163081 -0.1054394
-0.07500731 0.004494676 0.09113873 -0.027825393 0.07825023 0.041978236 0.08377419 -0.052515816
0.02617327 -0.057095304 -0.07211601 -0.0691918 0.04722643 -0.049673297 0.056114722 -0.12359209
-0.006225321 -0.11049079 -0.13624251 -0.08968409 -0.098867625 -0.101721324 -0.0973994 -0.120068885
-0.048198484 -0.038235366 0.08723123 0.08462095 0.122701265 0.09735225 0.018948775 0.102213725
00000000: 2972 e33c f96f f0bc f07b 04bd 7a3a a23d
00000010: 8dbb cb3d 3b1c 8fbd b22e 8e39 771a 40bd
00000020: e373 5a3d c8fa 763d afae 5ebd 00c0 6abb
00000030: bd4f e7bc d9fe 3bbd f4c4 e63c 0a23 63bd
00000040: 587b a8bd 68a2 9fbd f4a3 883d 4652 4dbd
00000050: 217f f5bd f22c 03be e2e8 b6bc a3aa 6d3d
00000060: 844d d83d fe91 013c 51b5 e53d 2325 df3d
00000070: 000f 4c3d eb57 d23d ebdb 883d baf4 df3c
00000080: 40e0 9c3d 12fc 0f3d af5b 9b3c 9e4d 5abd
00000090: 0805 5abd 614e 07bd f1fa 67bd c06f 9b3c
000000a0: 7b6d 0fbd db1b ccbd a406 54bd d55b 833d
000000b0: 748d 8a3d f249 6a3c 318f 5c3d 1de4 203d
000000c0: 81a7 e53c b14f c3bc 631d a53d 1b53 62bd
000000d0: 39e4 d5bb 78f0 0f3d 73d0 5f3d 17ed bb3b
000000e0: 97d9 27bd 9cd9 fcbd f2c8 8ebd 3071 cd3d
000000f0: d874 3c3d 1325 3fbd 8f13 03be 26de f5bb
00000100: e33b 683d 0494 5ebd 6473 cfbd 6d55 6cbd
00000110: d106 a63d d7f3 353d f06b f5bd ed36 edbd
00000120: 2252 3cbd 84ce 41bd 0309 d13d 28b5 c3bc
00000130: 1354 d63d e8f1 c4bc 8c2b ca3c f9be 2c3d
00000140: 2ee9 9cbd 60ca 27bd 735c ec3a 59a1 0fbd
00000150: 5ff4 b0bc a299 e4bd aa9f 9fbd 9234 cebd
00000160: 82ac 8dbd 78d9 853c 634e 1bbe 900f f4bd
00000170: 646b f7bb 9eca ca3c 719b 393d ffb4 25bd
00000180: 6d18 aebd a42b 28bd 300a 5dbd b91a 163d
00000190: b80d 0b3e 0544 633d d881 233d e8aa c9bc
000001a0: 0a88 fd3c d0f3 923c 5687 613d 0942 133e
000001b0: d937 8c3c 11fc c43d 2c98 a03d ca81 033d
000001c0: 6493 24bc 3933 9ebd d548 573d 5790 bfbd
000001d0: 7c6a f7bd ef7b fe3c db1d 343d bfd0 3ebd
000001e0: 1363 89bd bd6a 8abc 1a4c 063d 3c1a c33d
000001f0: 8aff 9d3d 552e b0bb 196f 493b 0cce ae3d
00000200: 89f3 42bd 32e0 51bc 9ace 81bd 96ec 3ebd
00000210: 5c6e 1fbd 42d8 9c3c d343 563d 0d5e 33bd
00000220: a514 ddbd b8fe a53b baf9 8c3c 4b62 02bd
00000230: 2a7a ecbd de66 babd 0910 223d f033 ae3d
00000240: 3b5e 583d 8513 0cbd e572 aa3b 1d57 583d
00000250: 850a 923c b8fd 4f3d ae57 7e3b 5362 a73d
00000260: 7793 aa3d 9436 a43c bbb4 533b 4de8 24bc
00000270: 0502 ce3c 9bb8 c53b db40 a13b 3dc2 20bd
00000280: 045f a73c e3c6 3f3b 120b 43bc 6143 8abc
00000290: b712 91bd 1fe1 0ebd c6b3 31bc 0d4c a83b
000002a0: f710 713c d207 cbbd 0f53 42bb 2579 8dbd
000002b0: be0c 3abd e2a1 c9bd 63c7 dbbc 3421 af3c
000002c0: 4435 a13c b964 813d d610 863d 539c 073d
000002d0: 948b cb3d 00b9 933b a6f5 dd3d ec90 ae3d
000002e0: b119 053c a028 b93c 9cca 993d c6e1 c7bc
000002f0: de76 a53d bc66 833c 69fd 063d fbc8 c6bd
00000300: 961d a1bd aa43 eebd 9411 7dbd 1cda 3cbe
00000310: f887 1abe 5d12 2cbd 5549 d3bd ce3f 05bd
00000320: 7501 5d3d 648b 993d 3002 e53d c946 08bd
00000330: f7a6 02bc a226 8f3c 95f7 a8bb a3f7 b5bd
00000340: b0dd 263d babf 4bbd 8e33 67ba 9911 163d
00000350: e46a 5cbd 4731 99bd 9b9b 863c 22fe 67bc
00000360: f7e4 40bd 83de d2bd cd0f 0fbd 2e42 59bc
00000370: ae5b fdbb 7c65 88bb ab07 11be 9df0 d7bd
00000380: 6f9d 99bd 1348 933b f1a6 ba3d 14f2 e3bc
00000390: a841 a03d 5ff1 2b3d cd91 ab3d d31a 57bd
000003a0: 5369 d63c c4dc 69bd 8fb1 93bd 6eb4 8dbd
000003b0: 8070 413d 3a76 4bbd 8dd8 653d da1d fdbd
000003c0: c7fd cbbb ff48 e2bd 2883 0bbe 4bac b7bd
000003d0: 1c7b cabd 4553 d0bd 5679 c7bd ade6 f5bd
000003e0: c66b 45bd b09c 1cbd 4aa6 b23d c04d ad3d
000003f0: cd4a fb3d 9e60 c73d 763a 9b3c 6e55 d13d

conv2.bias f4 [16]
0.018924635 -0.08594177 -0.04778996 0.048762742 0.0023921267 -0.06087289 -0.064266965 -0.036333356
0.04526341 -0.04123585 -0.089944094 0.007868049 -0.024633773 -0.06498832 -0.0667293 -0.06463701
00000000: d607 9b3c 3d02 b0bd 68bf 43bd 71bb 473d
00000010: 3ac5 1c3b da55 79bd 669e 83bd 49d2 14bd
00000020: 2066 393d ece6 28bd 9c34 b8bd fde8 003c
00000030: c4cc c9bc 9918 85bd 5fa9 88bd 6960 84bd

fc1.weight f4 [120, 256]
0.00734807 0.062428378 0.032433253 -0.027355826 -0.0017946085 -0.016686676 0.0047025187 -0.03403636
0.052154247 -0.047116324 0.028783144 0.0051075416 0.027207024 0.027552512 -0.046790384 -0.024753924
0.055136915 -0.01689396 0.03454322 0.009055562 -0.012756639 0.038229067 0.024946569 0.054339353
0.00020449562 -0.013419491 -0.0070805307 0.010156886 0.035654567 0.023917222 0.034868445 0.013207158
-0.009575235 0.048993308 0.008809762 -0.055124052 -0.06071277 -0.033435635 -0.0024495912 -0.013633287
0.0050581647 -0.039941944 0.008766727 -0.0021283147 -0.062937394 -0.038944006 0.017001817 -0.040212497
-0.021310491 -0.036594793 -0.040295295 0.052595425 -0.06805202 0.028270546 -0.052193217 -0.06910303
-0.06657306 -0.015264601 -0.032662556 0.048761643 -0.04031512 0.022252541 -0.049321275 -0.031884257
-0.02777445 -0.008307525 -0.05365739 -0.0020155571 -0.028054753 -0.03979281 0.0231025 -0.0051813573
-0.057321407 0.027155086 0.010459178 0.04917817 0.052319504 -0.055692747 0.025988076 0.042404633
0.059188202 -0.0011277382 -0.035628974 -0.0116321035 -0.020731227 -0.019067306 0.030768111 -0.024685116
0.011641011 0.04621252 0.014747149 0.02183139 0.057600066 -0.065461256 -0.025751099 -0.022456173
-0.005324845 -0.044600766 -0.00512409 0.025915002 0.018466469 0.05641294 0.041689515 0.019550577
-0.007336908 0.00044206684 -0.005437013 -0.05114876 -0.062130556 0.057295937 0.045568254 -0.051447235
-0.06185532 0.037888218 -0.037218653 -0.037525438 0.027484577 0.01963176 -0.020600177 0.02947164
0.0140182655 0.006292192 0.047707457 -0.013273516 0.010454893 0.016287902 -0.011345699 -0.026540235
0.053306885 0.0100963 0.048185315 0.007315896 0.037631307 -0.015281256 0.0041414862 0.054134708
-0.047331307 -0.03254378 0.00063287874 -0.01564044 0.050812036 -0.044765495 -0.036465555 0.046199255
-0.059546355 -0.0041847685 -0.039613534 -0.05632537 0.03889926 0.00034901293 -0.007943066 0.0032540094
-0.0071525536 0.027646303 0.042780258 0.002140761 0.052808993 -0.058227904 -0.01836785 0.029496724
-0.020564854 -0.041935213 0.021669827 0.0489597 -0.06745424 -0.06811122 0.019507287 -0.0436515
0.03642498 0.024436245 -0.007893461 -0.023263043 0.030799093 -0.02021908 -0.0051319255 0.0042931945
-0.054831106 -0.018828128 -0.0380591 -0.015552178 0.04270014 0.02928712 -0.051877856 -0.043366488
0.004377557 -0.0007084204 0.043371312 -0.01907257 0.0076922765 0.036747742 0.04048712 -0.045949545
0.030134648 0.03382604 -0.06193038 -0.05568629 -0.0020491395 -0.03511681 0.042472422 -0.008480356
-0.03525436 -0.024514051 -0.058634877 0.012794197 -0.022543637 -0.03169474 -0.034849063 0.01972431
-0.028201584 -0.029424423 -0.031788174 0.0296405 -0.010652535 -0.04962033 0.042038716 0.022075165
0.0228695 0.05097078 -0.020893572 -0.026675846 -0.039114237 -0.010325218 -0.06253213 0.04016751
0.019495629 -0.009730297 -0.04930571 0.008570192 0.028712792 -0.026853867 0.038763043 0.013745393
-0.00618448 -0.039516628 -0.056631252 -0.060555268 -0.01843689 -0.06782642 0.054891955 -0.05930169
0.056713264 0.041782875 0.011120377 0.049889654 -0.004138292 0.017407473 -0.0023193285 0.026978604
0.047465425 0.053132374 0.02456607 -0.06040678 -0.024006551 0.0041931327 -0.027017426 0.020774856
00000000: 14c8 f03b e6b4 7f3d bbd8 043d 5319 e0bc
00000010: 1239 ebba 7fb2 88bc 9617 9a3b b669 0bbd
00000020: b19f 553d 0cfd 40bd a1ca eb3c 2a5d a73b
00000030: 44e1 de3c ceb5 e13c 46a7 3fbd bec8 cabc
00000040: 3fd7 613d 3465 8abc 317d 0d3d c85d 143c
00000050: 3901 51bc 1596 1c3d bf5c cc3c f192 5e3d
00000060: e06d 5639 6ddd 5bbc cc03 e8bb 1169 263c
00000070: 860a 123d 0dee c33c 37d2 0e3d d662 583c
00000080: 72e1 1cbc 35ad 483d d256 103c c2c9 61bd
00000090: f4ad 78bd cef3 08bd 5289 20bb 265e 5fbc
000000a0: f6be a53b 2a9a 23bd 51a2 0f3c 327b 0bbb
000000b0: 52e5 80bd c083 1fbd 6547 8b3c dcb5 24bd
000000c0: 5793 aebc 6ce4 15bd ae0c 25bd 4d6e 573d
000000d0: dc5e 8bbd a297 e73c 8ec8 55bd e485 8dbd
000000e0: 7557 88bd 6118 7abc 2cc9 05bd 4aba 473d
000000f0: 7821 25bd f64a b63c 1b05 4abd 1199 02bd
00000100: 3e87 e3bc 491c 08bc dac7 5bbd 7017 04bb
00000110: 15d3 e5bc c9fd 22bd 7441 bd3c 60c8 a9bb
00000120: dac9 6abd 5874 de3c f95c 2b3c 0c6f 493d
00000130: fa4c 563d 141e 64bd f2e4 d43c 7bb0 2d3d
00000140: 546f 723d 9dd0 93ba b0ef 11bd 9494 3ebc
00000150: 89d4 a9bc 0a33 9cbc 680d fc3c 7138 cabc
00000160: f0b9 3e3c 5749 3d3d 079e 713c bed7 b23c
00000170: 0cee 6b3d 8d10 86bd f8f3 d2bc 02f6 b7bc
00000180: 0a7c aebb 4baf 36bd fbe7 a7bb b34b d43c
00000190: fe46 973c 4111 673d a0c2 2a3d 8828 a03c
000001a0: 726a f0bb 35c5 e739 f928 b2bb 5d81 51bd
000001b0: 9c7c 7ebd 25af 6a3d c7a5 3a3d 56ba 52bd
000001c0: 015c 7dbd ad30 1b3d 9672 18bd 46b4 19bd
000001d0: 5627 e13c c9d2 a03c b4c1 a8bc 826e f13c
000001e0: deac 653c bb2e ce3b e568 433d 2979 59bc
000001f0: 004b 2b3c 356e 853c 50e3 39bc e86a d9bc
00000200: 5258 5a3d f46a 253c f75d 453d 2fba ef3b
00000210: 4923 1a3d 3c5e 7abc 4eb5 873b 5bbc 5d3d
00000220: 79de 41bd a04c 05bd c6e7 253a 6120 80bc
00000230: 4820 503d 065c 37bd e85c 15bd 6e3b 3d3d
00000240: e1e6 73bd 6220 89bb cd41 22bd 6eb5 66bd
00000250: d554 1f3d b9fb b639 a223 02bc 3841 553b
00000260: f85f eabb 807a e23c 5a3a 2f3d 024c 0c3b
00000270: 3e4e 583d 6280 6ebd 2c78 96bc 1da3 f13c
00000280: a077 a8bc 42c4 2bbd ec84 b13c f789 483d
00000290: 7325 8abd e57d 8bbd bfcd 9f3c eacb 32bd
000002a0: 5c32 153d 852e c83c 9353 01bc 2392 bebc
000002b0: 614e fc3c 7ca2 a5bc b629 a8bb edad 8c3b
000002c0: 9596 60bd 723d 9abc dce3 1bbd 90ce 7ebc
000002d0: 58e6 2e3d 8beb ef3c e07d 54bd 0fa1 31bd
000002e0: 9c71 8f3b 4ab5 39ba 1ea6 313d 143e 9cbc
000002f0: 7e0f fc3b cd84 163d d3d5 253d 9735 3cbd
00000300: f0dc f63c 2c8d 0a3d b6aa 7dbd 4f17 64bd
00000310: db4a 06bb a5d6 0fbd 90f7 2d3d 31f1 0abc
00000320: e066 10bd b1d1 c8bc 202b 70bd c09e 513c
00000330: 6fad b8bc 58d2 01bd e4bd 0ebd e094 a13c
00000340: 0207 e7bc 7d0b f1bc 5134 02bd a2d0 f23c
00000350: f887 2ebc b03e 4bbd ca30 2c3d fad6 b43c
00000360: d158 bb3c bdc6 503d ff28 abbc 4e87 dabc
00000370: 4036 20bd 1a2b 29bc d810 80bd b086 243d
00000380: 4cb5 9f3c d36b 1fbc c9f4 49bd fe69 0c3c
00000390: 1737 eb3c a4fc dbbc ffc5 1e3d 5b34 613c
000003a0: 2ea7 cabb 30dc 21bd 2cf6 67bd cd08 78bd
000003b0: f608 97bc 94e8 8abd 63d6 603d 54e6 72bd
000003c0: 2b4c 683d 8524 2b3d 3e32 363c 1859 4c3d
000003d0: 829a 87bb 1e9a 8e3c e0ff 17bb 3c02 dd3c
000003e0: 1b6b 423d 55a1 593d c83e c93c 1a6d 77bd
000003f0: 63a9 c4bc 8c66 893b a653 ddbc 0830 aa3c

fc1.bias f4 [120]
-0.027751204 -0.034034077 -0.020492934 0.050971236 0.030370444 -0.0051696524 -0.007428391 0.049843043
0.03333024 -0.04432905 -0.024151698 0.066376306 0.033612944 0.008831762 0.022403758 -0.061111324
-0.020685937 -0.035590973 0.03795224 -0.049508642 0.077710524 -0.016197609 -0.04793024 0.07399507
-0.025341416 -0.021342881 -0.016514627 -0.027010554 -0.024500236 -0.049103566 0.0031864098 -0.062803745
0.015584879 -0.008155714 -0.037161272 0.0095044095 -0.015679624 -0.06573753 -0.035208058 -0.04214714
0.05055328 -0.05973893 -0.050035696 0.01557355 0.04460584 0.021748018 0.018832395 -0.029365102
0.043065973 -0.0115966955 0.025274768 0.1072654 0.081655614 0.02678235 -0.03566667 -0.060652506
0.042741116 0.057036813 0.05689935 0.004699424 -0.03415163 -0.017250808 -0.020792635 0.07245832
-0.03908592 0.0013052032 0.041630115 -0.02603089 0.013421987 0.020519855 -0.0030817855 0.011576523
0.05694575 -0.06391136 -0.019001992 0.0065486673 -0.004278498 0.014784992 0.017593278 -0.06426741
0.095779635 0.069567576 -0.039493844 -0.01798476 -0.020137008 -0.018600939 -0.0329218 0.059906475
-0.056639686 0.068202995 -0.013367349 0.06161209 0.024698887 0.0005566676 -0.019112803 -0.00769835
0.0062389183 0.056643795 0.020808404 0.038154405 -0.04029267 0.058045242 0.012101734 0.01574394
0.06357176 0.026508356 -0.040543932 -0.04321919 0.007181991 0.023527272 0.021282416 -0.004135832
0.058402605 -0.030962298 0.0015689267 -0.04227124 -0.044931173 0.040740397 0.056922473 0.070603676
00000000: 7e56 e3bc 5167 0bbd cce0 a7bc 37c7 503d
00000010: 70cb f83c 3066 a9bb dc69 f3bb 3828 4c3d
00000020: 4a85 083d 6192 35bd c8d9 c5bc 4df0 873d
00000030: baad 093d 18b3 103c 1688 b73c de4f 7abd
00000040: 8e75 a9bc d7c7 11bd cf73 1b3d 93c9 4abd
00000050: b226 9f3d d9b0 84bc 8052 44bd ba8a 973d
00000060: cd98 cfbc 44d7 aebc af49 87bc 3d45 ddbc
00000070: b8b4 c8bc d220 49bd 16d3 503b 409f 80bd
00000080: b857 7f3c 8b9f 05bc 6b36 18bd 62b8 1b3c
00000090: 8e72 80bc 66a1 86bd 5336 10bd 7ba2 2cbd
000000a0: f510 4f3d cfb0 74bd 3bf2 4cbd 3428 7f3c
000000b0: 9db4 363d e628 b23c 6546 9a3c 158f f0bc
000000c0: f265 303d 1100 3ebc 080d cf3c f6ad db3d
000000d0: 0f3b a73d a966 db3c 3717 12bd c36e 78bd
000000e0: 4f11 2f3d 6f9f 693d 4b0f 693d a0fd 993b
000000f0: 94e2 0bbd 9151 8dbc 5155 aabc 0765 943d
00000100: 8f18 20bd 5a13 ab3a 5784 2a3d bc3e d5bc
00000110: e5e7 5b3c 4119 a83c c8f7 49bb 75ab 3d3c
00000120: f23f 693d f6e3 82bd 11aa 9bbc 3496 d63b
00000130: a432 8cbb c03c 723c c71f 903c a29e 83bd
00000140: 1d28 c43d 7279 8e3d 4cc4 21bd c754 93bc
00000150: 5ef6 a4bc ff60 98bc 02d9 06bd 7e60 753d
00000160: 04ff 67bd 03ae 8b3d ba02 5bbc f55c 7c3d
00000170: 5255 ca3c 55ed 113a 7492 9cbc 7142 fcbb
00000180: d76f cc3b 5303 683d 6376 aa3c cb47 1c3d
00000190: ed09 25bd d9c0 6d3d 5a46 463c 6ff9 803c
000001a0: e931 823d 0d28 d93c 6511 26bd 9b06 31bd
000001b0: e856 eb3b 44bc c03c 7658 ae3c e085 87bb
000001c0: 9237 6f3d a5a4 fdbc 72a4 cd3a 9c24 2dbd
000001d0: c009 38bd 67df 263d 8a27 693d a998 903d

fc2.weight f4 [84, 120]
-0.08689752 0.09934654 0.06008402 0.08981115 0.05244202 -0.048073992 -0.044632252 0.041650265
0.0770557 0.055366274 -0.0786801 -0.0196358 0.018135646 0.032379508 0.07110536 -0.0418876
-0.0024375527 0.06495631 0.0192751 0.06189605 0.1051024 0.08684459 -0.020171463 0.086017154
0.07215773 -0.04828993 0.06896846 -0.017321635 -0.029720696 -0.09170256 0.022449188 -0.014123257
0.02867938 0.028818088 -0.07130097 0.017706431 0.010101893 0.08482453 0.016889615 -0.07433607
-0.008346155 -0.009374746 0.014679594 -0.010670548 -0.06867343 0.10201013 -0.06726628 0.014018459
0.0059555788 -0.024407746 0.06177615 -0.0132013215 0.034931097 0.08740266 -0.06909887 -0.045361895
-0.002378758 0.013671332 -0.017785983 0.05423492 -0.064562544 0.036431924 -0.06578824 -0.01753723
-0.058515362 -0.018772317 -0.05650774 0.032456037 0.0289357 0.005581859 -0.06550368 0.08308903
-0.005920757 0.009589324 -0.06294646 0.020144582 -0.054479882 0.0067194747 0.07206565 -0.010685347
0.073079586 -0.021200495 0.020392105 -0.009973202 0.02322124 -0.039136816 -0.0042884424 0.10289688
0.04161225 -0.0028837344 0.0637842 0.07742922 -0.08275014 -0.029291498 -0.07863897 -0.04619856
-0.064921804 0.087141916 -0.050292946 0.08826381 0.004821579 0.0592353 0.07432713 -0.087056786
0.06173669 0.0036469793 0.049869135 0.09407253 0.08717276 0.07897529 -0.052884202 0.06423171
-0.060169227 0.00842727 -0.03716121 0.008135032 0.0142377475 -0.033780973 -0.024973065 -0.005404078
-0.0044506835 0.011660434 0.01530971 0.015767653 0.06930698 -0.0866675 0.105773024 0.10755359
-0.0452579 0.016701711 -0.09321742 -0.04003838 0.035426173 0.061125837 0.102152705 -0.04345054
0.048545416 -0.0522418 0.09082521 -0.047531277 0.044190347 -0.06617694 0.048538316 0.090280436
0.06306848 -0.04462791 -0.066816576 0.08797223 0.020797743 -0.059526406 0.033560913 -0.00019670354
0.089148834 -0.05067165 0.09620807 -0.06545146 -0.04202032 0.0031971575 -0.04411669 -0.0010252818
0.01844444 0.0442759 0.05275277 -0.039087716 0.054933958 -0.05392921 0.05979585 0.010911929
0.02315874 -0.008035878 0.04012545 0.0010519287 0.032111797 0.08018497 -0.030591542 0.103821106
-0.06426574 0.047013145 0.090102755 0.024989989 0.040859967 0.003733431 -0.076191455 0.012309679
-0.023822067 -0.06163095 -0.029193649 0.07842544 0.066962324 0.013293479 -0.02475404 0.05976179
-0.07133649 -0.07500371 0.02585723 -0.02538615 0.016856553 -0.046456445 -0.0715189 -0.041170876
0.10102017 0.07844504 0.05019459 -0.017426392 0.0086389845 0.06670755 0.08094148 0.026752483
-0.028398892 0.014013469 0.04466265 0.026064288 0.053501688 0.055586096 0.054656774 -0.011444701
0.09547025 0.007038628 -0.065276965 -0.06615214 0.006684396 0.052424822 0.013927167 -0.007545828
0.008970586 0.034010515 0.02514646 0.023861138 0.02326843 0.093937576 0.042805597 -0.057497147
-0.026712082 -0.016140088 0.06226865 0.0014426208 -0.07539989 -0.054704987 -0.031094229 0.05736168
-0.051795736 -0.018200073 0.08822056 -0.041320536 -0.034833632 0.0762143 -0.050817184 0.05253158
0.08759861 0.05600955 -0.03971376 -0.0034599872 0.09569679 -0.08141334 -0.04455314 0.11639233
00000000: 54f7 b1bd 3376 cb3d a91a 763d e9ee b73d
00000010: 72cd 563d 3ce9 44bd 4fd0 36bd 7899 2a3d
00000020: 61cf 9d3d bfc7 623d 0823 a1bd 42db a0bc
00000030: 3591 943c 60a0 043d b09f 913d 5592 2bbd
00000040: 59bf 1fbb d007 853d d1e6 9d3c b686 7d3d
00000050: ed3f d73d 94db b13d a03e a5bc c329 b03d
00000060: 6fc7 933d a9cb 45bd 563f 8d3d 1ae6 8dbc
00000070: d178 f3bc 8dce bbbd 5ce7 b73c 3c65 67bc
00000080: 05f1 ea3c e913 ec3c 3e06 92bd 140d 913c
00000090: 6982 253c 7cb8 ad3d 175c 8a3c 823d 98bd
000000a0: 50be 08bc 8998 19bc ae82 703c 86d3 2ebc
000000b0: a8a4 8cbd b0ea d03d e7c2 89bd aead 653c
000000c0: 0427 c33b c1f2 c7bc fd08 7d3d 5b4a 58bc
000000d0: e913 0f3d 2a00 b33d b583 8dbd 65cd 39bd
000000e0: f0e4 1bbb b9fd 5f3c e9b3 91bc 6f25 5e3d
000000f0: 5e39 84bd a439 153d fcbb 86bd 3daa 8fbc
00000100: cead 6fbd 67c8 99bc a974 67bd 9ff0 043d
00000110: 900a ed3c 07e8 b63b cb26 86bd 952a aa3d
00000120: e902 c2bb 8a1c 1d3c 13ea 80bd 4006 a53c
00000130: 4c26 5fbd 0a2f dc3b 2897 933d 9811 2fbc
00000140: c0aa 953d a9ac adbc 580d a73c a466 23bc
00000150: 783a be3c ed4d 20bd 1086 8cbb 99bb d23d
00000160: 9b71 2a3d 09fd 3cbb 4aa1 823d 3693 9e3d
00000170: e878 a9bd b9f4 efbc 780d a1bd b43a 3dbd
00000180: b9f5 84bd 7677 b23d faff 4dbd a8c3 b43d
00000190: 56fe 9d3b b7a0 723d d338 983d d44a b2bd
000001a0: 9ddf 7c3d 2902 6f3b 9443 4c3d 19a9 c03d
000001b0: a287 b23d ccbd a13d 1b9d 58bd ea8b 833d
000001c0: 0274 76bd 8812 0a3c 5a36 18bd cc48 053c
000001d0: 7145 693c eb5d 0abd 5094 ccbc b114 b1bb
000001e0: 0ad7 91bb 680b 3f3c 94d5 7a3c 2a2b 813c
000001f0: d1f0 8d3d bb7e b1bd 879f d83d 0e45 dc3d
00000200: 5960 39bd 07d2 883c c6e8 bebd 49ff 23bd
00000210: 091b 113d 165f 7a3d 7035 d13d 32f9 31bd
00000220: 8fd7 463d 7ffb 55bd 9102 ba3d 28b0 42bd
00000230: f000 353d c787 87bd 1dd0 463d f3e4 b83d
00000240: 0c2a 813d c1cb 36bd 21d7 88bd c92a b43d
00000250: 0760 aa3c f6d1 73bd 2b77 093d 3442 4eb9
00000260: aa93 b63d 138d 4fbd bd08 c53d 6a0b 86bd
00000270: 801d 2cbd 6787 513b b4b3 34bd c062 86ba
00000280: cb18 973c a55a 353d 4a13 583d 711a 20bd
00000290: 6e02 613d e0e4 5cbd 7eec 743d f3c7 323c
000002a0: 66b7 bd3c eaa8 03bc 955a 243d dfe0 893a
000002b0: a987 033d 0438 a43d 1d9b fabc 29a0 d43d
000002c0: c29d 83bd db90 403d cb87 b83d ceb7 cc3c
000002d0: c85c 273d 94ac 743b 440a 9cbd 89ae 493c
000002e0: 7f26 c3bc bc70 7cbd 8527 efbc 849d a03d
000002f0: 8b23 893d e4cc 593c fcc8 cabc c7c8 743d
00000300: de18 92bd 8c9b 99bd 8bd2 d33c 9ef6 cfbc
00000310: c116 8a3c 1d49 3ebd 8078 92bd cba2 28bd
00000320: aae3 ce3d cba7 a03d d898 4d3d cbc1 8ebc
00000330: 878a 0d3c f89d 883d a6c4 a53d 0628 db3c
00000340: cba4 e8bc c098 653c 2ff0 363d c684 d53c
00000350: 9624 5b3d 3fae 633d c8df 5f3d 8e82 3bbc
00000360: e885 c33d 4ba4 e63b eeaf 85bd c67a 87bd
00000370: c708 db3b 69bb 563d c62e 643c fe42 f7bb
00000380: 5df9 123c 9c4e 0b3d f3ff cd3c 6f78 c33c
00000390: 6f9d be3c 5862 c03d ec54 2f3d 2182 6bbd
000003a0: 4cd3 dabc 3838 84bc 690d 7f3d 5216 bd3a
000003b0: 426b 9abd 5612 60bd 53b9 febc 15f4 6a3d
000003c0: c427 54bd 5218 95bc fbac b43d b93f 29bd
000003d0: b6ad 0ebd 3e16 9c3d ae25 50bd 5b2b 573d
000003e0: e666 b33d 456a 653d e5aa 22bd f4c0 62bb
000003f0: aefc c33d 0abc a6bd 5a7d 36bd 1a5f ee3d

fc2.bias f4 [84]
-0.072310485 -0.07269158 -0.050346218 -0.021039734 -0.042266075 0.072834454 -0.017491147 0.0024717345
0.0023083843 -0.05087069 0.0002335346 0.10267112 -0.082326025 -0.06510886 0.05447221 0.018659009
0.071584456 0.008660881 0.0497639 0.09468583 -0.054918442 -0.049550377 0.06554518 0.03919082
-0.027048543 -0.0656404 0.06967064 -0.009519707 0.072501354 -0.034832537 -0.08032634 0.050218217
0.05205968 0.08978768 -0.0172908 0.033521414 -0.028107272 -0.05018128 -0.006130877 0.11217371
0.09327417 0.076966345 0.026187899 0.057620507 -0.005246732 -0.0047033103 0.041350145 0.11152586
0.05710796 0.0710247 0.004215704 0.0999837 0.066549525 -0.033462416 0.08755197 0.048079055
-0.09529591 0.01222719 0.085096486 -0.05128064 0.030348605 -0.06210226 0.078593045 -0.021414092
-0.047814727 -0.041259043 0.017460633 0.06244987 -0.063499235 0.0343081 0.10609766 0.059821513
0.007894685 0.073621966 0.014841438 0.044249035 -0.012782047 0.036313806 0.0791002 0.010515636
-0.05276618 0.060625903 0.019869866 0.07010748
00000000: 8517 94bd 53df 94bd d637 4ebd 855b acbc
00000010: 311f 2dbd 3b2a 953d 9849 8fbc d3fc 213b
00000020: 4348 173b c95d 50bd f8e0 7439 3c45 d23d
00000030: 8c9a a8bd cb57 85bd 411e 5f3d c7da 983c
00000040: df9a 923d 5ee6 0d3c 3bd5 4b3d a5ea c13d
00000050: 29f2 60bd 56f5 4abd 8d3c 863d 8e86 203d
00000060: e894 ddbc 796e 86bd 7baf 8e3d 8cf8 1bbc
00000070: 977b 943d 90ac 0ebd 2382 a4bd 9eb1 4d3d
00000080: 883c 553d 9ae2 b73d 70a5 8dbc c04d 093d
00000090: 3941 e6bc e38a 4dbd 86e5 c8bb 54bb e53d
000000a0: 8706 bf3d 88a0 9d3d 0188 d63c 7b03 6c3d
000000b0: c7ec abbb 3a1e 9abb c55e 293d ac67 e43d
000000c0: 09ea 693d 6675 913d e323 8a3b 41c4 cc3d
000000d0: 1e4b 883d e30f 09bd 724e b33d 8bee 443d
000000e0: 812a c3bd 8d54 483c 1147 ae3d a60b 52bd
000000f0: a39d f83c f05e 7ebd 64f5 a03d 9b6c afbc
00000100: 60d9 43bd 3eff 28bd 9a09 8f3c 6fcb 7f3d
00000110: e30b 82bd a686 0c3d bb49 d93d 6707 753d
00000120: b558 013c 1dc7 963d 8129 733c 7a3e 353d
00000130: ca6b 51bc c9bd 143d 49ff a13d c649 2c3c
00000140: 5a21 58bd de52 783d 21c6 a23c 8394 8f3d

fc3.weight f4 [10, 84]
-0.11427523 -0.0074799065 -0.122904055 0.057901498 -0.12742798 0.06275668 -0.06284669 0.094358504
0.0015281779 -0.11752335 -0.10840668 -0.14912458 -0.11099455 -0.07049155 -0.10974786 0.008819583
-0.10000049 -0.007967969 -0.014267859 -0.0149704665 0.012589652 -0.06869062 -0.113243684 -0.027772494
-0.0285243 -0.1568656 -0.023921173 0.0060741603 -0.035726756 0.06289422 0.007306847 -0.032578163
0.0065821633 -0.043548774 0.07687152 0.018305108 0.079412 0.0656465 0.059238587 -0.014383246
-0.009565796 -0.085344285 0.07676212 0.078470655 -0.114300005 0.027793776 0.024635196 -0.14666335
0.043854278 -0.13462448 -0.06107923 0.021018585 -0.10810718 -0.12505919 -0.039517675 0.026191207
-0.015354184 -0.08339342 0.056570098 -0.03821955 -0.13600245 -0.06250962 -0.04157138 -0.083287396
-0.027197286 -0.020871397 0.0017333822 -0.120381124 -0.054045796 -0.1305543 -0.036260955 0.06866948
-0.08592587 -0.14924863 -0.08056742 0.0053081037 -0.10049741 -0.07283132 -0.14072727 0.023328818
-0.06477228 0.0028521048 -0.10400881 0.0031796375 -0.12760991 0.031377617 0.04007781 0.0070951297
-0.06557431 0.028985903 -0.009675578 -0.032168668 -0.10480954 -0.079875566 -0.10341063 -0.0121552795
-0.022314902 -0.047617678 -0.084213994 -0.07107085 -0.08899912 -0.08293187 -0.055789005 0.034980096
-0.13598895 0.008432233 -0.1067573 0.011783235 0.07949333 -0.062376194 -0.10926174 0.051144417
-0.110748164 0.03869862 -0.050624873 -0.10640597 0.039559465 -0.060956854 0.04070333 -0.099145226
-0.059663843 0.062032796 -0.13963564 -0.0118814055 -0.009787004 0.07625899 -0.10263324 0.08238721
-0.08482234 0.06503166 0.03453421 -0.06544249 -0.13306153 0.015980555 -0.122716635 -0.1413513
-0.11559648 -0.09076418 -0.034366407 -0.003158439 -0.13780391 0.086546764 -0.12612511 0.060070198
0.02239045 -0.050675977 -0.00035388864 -0.042267207 -0.10299545 0.050235584 0.08861222 -0.073992044
-0.12281154 -0.12129442 0.05799691 -0.10357043 0.05592198 0.062465396 -0.068847485 -0.0038223346
0.08994765 0.013951763 -0.024154488 -0.10800565 0.028761873 0.018963106 -0.117117904 0.013696997
0.022528945 0.018479876 0.06708307 0.059887584 -0.063525155 -0.05803711 -0.0458191 0.065435976
-0.053325996 0.002044146 -0.057872258 -0.031106463 0.07692757 -0.0028559973 0.049810443 0.004522488
0.077816606 -0.10161985 0.079879485 0.04450832 -0.027712826 0.0143919345 -0.12190928 -0.037234217
-0.07584585 -0.08079163 -0.0155045055 -0.05775813 0.07380555 0.004480377 -0.10371003 0.063678235
0.018132424 -0.12912594 0.010463921 0.021417687 -0.07053654 -0.10781365 -0.011876441 -0.0088147735
-0.063368 -0.12515537 -0.0495981 -0.11438599 0.02746838 0.10029007 -0.101035185 -0.056545865
0.06900341 -0.048697103 0.024800304 -0.064538084 0.04775806 0.00079393026 0.02109485 0.08658945
0.02250464 -0.0049525523 -0.036763974 -0.049821734 0.036255512 0.096636355 -0.03573241 0.037342615
0.060828377 -0.04371875 -0.10621908 0.09038718 -0.032897864 -0.12331808 0.08005953 -0.002518383
0.02697053 -0.0826486 0.08940453 -0.020763908 -0.0024219085 -0.07411507 -0.07719579 -0.11084411
-0.0818657 -0.032784108 -0.16354048 -0.06742235 -0.02438818 -0.09466392 -0.03264045 -0.09341841
00000000: 2209 eabd 011a f5bb 1fb5 fbbd 1f2a 6d3d
00000010: 7b7c 02be 9386 803d c4b5 80bd 083f c13d
00000020: 244d c83a 15b0 f0bd 5204 debd 1db4 18be
00000030: 1c51 e3bd e05d 90bd 7cc3 e0bd 0380 103c
00000040: 0fcd ccbd 168c 02bc bdc3 69bc b046 75bc
00000050: d444 4e3c abad 8cbd 4eec e7bd 2483 e3bc
00000060: cbab e9bc 60a1 20be 56f6 c3bc c009 c73b
00000070: 3856 12bd afce 803d 466e ef3b ae70 05bd
00000080: 30af d73b 3360 32bd d16e 9d3d 98f4 953c
00000090: c2a2 a23d ac71 863d 29a4 723d b5a7 6bbc
000000a0: dbb9 1cbc fcc8 aebd 7535 9d3d 39b5 a03d
000000b0: 1f16 eabd c6af e33c c0cf c93c eb2e 16be
000000c0: 8ba0 333d 00db 09be 372e 7abd 2b2f ac3c
000000d0: 4c67 ddbd 840f 00be 49dd 21bd f18e d63c
000000e0: 1e90 7bbc 2bca aabd 0cb6 673d 1a8c 1cbd
000000f0: 3a44 0bbe 0b05 80bd c046 2abd 9592 aabd
00000100: d8cc debc 7efa aabc a832 e33a 618a f6bd
00000110: 205f 5dbd 07b0 05be 5e86 14bd 96a2 8c3d
00000120: e7f9 afbd a2d4 18be 8800 a5bd 9aef ad3b
00000130: 96d1 cdbd 9628 95bd cf1a 10be 141c bf3c
00000140: 54a7 84bd 61ea 3a3b 9202 d5bd 7761 503b
00000150: 2cac 02be d185 003d a128 243d 437e e83b
00000160: d34b 86bd d873 ed3c 5186 1ebc 4bc3 03bd
00000170: 62a6 d6bd cd95 a3bd f4c8 d3bd f026 47bc
00000180: becd b6bc c10a 43bd 6378 acbd 988d 91bd
00000190: 2c45 b6bd 2fd8 a9bd 0383 64bd 4a47 0f3d
000001a0: b040 0bbe 5927 0a3c 92a3 dabd 780e 413c
000001b0: 66cd a23d 2e7e 7fbd 9fc4 dfbd cf7c 513d
000001c0: efcf e2bd 7282 1e3d 075c 4fbd 60eb d9bd
000001d0: 1b09 223d e5ad 79bd 89b8 263d a70c cbbd
000001e0: 1362 74bd 1a16 7e3d a5fc 0ebe 3aaa 42bc
000001f0: ac59 20bc ac2d 9c3d 6031 d2bd a0ba a83d
00000200: 56b7 adbd 522f 853d be73 0d3d b606 86bd
00000210: 4841 08be a7e9 823c dc52 fbbd 65be 10be
00000220: d9bd ecbd 92e2 b9bd cac3 0cbd d0fd 4ebb
00000230: 781c 0dbe 6e3f b13d f126 01be 2b0c 763d
00000240: 2d6c b73c 9d91 4fbd 218a b9b9 6120 2dbd
00000250: 47ef d2bd d4c3 4d3d 537a b53d 2489 97bd
00000260: 9e84 fbbd 3569 f8bd 2b8e 6d3d bc1c d4bd
00000270: 720e 653d b7db 7f3d e9ff 8cbd 2280 7abb
00000280: 7936 b83d ef95 643c a2df c5bc 1132 ddbd
00000290: 059e eb3c 8458 9b3c 83db efbd 5f69 603c
000002a0: 9f8e b83c 1c63 973c d962 893d af4c 753d
000002b0: 7a19 82bd 52b8 6dbd cfac 3bbd 4c03 863d
000002c0: 5c6c 5abd 14f7 053b 760b 6dbd fbd2 febc
000002d0: 348c 9d3d af2b 3bbb 0906 4c3d 6131 943b
000002e0: 505e 9f3d 111e d0bd db97 a33d 5b4e 363d
000002f0: 0206 e3bc 26cc 6b3c 93ab f9bd e882 18bd
00000300: 1255 9bbd 1576 a5bd 9c06 7ebc ca93 6cbd
00000310: 5d27 973d 20d0 923b ed65 d4bd bc69 823d
00000320: 738a 943c 9739 04be de70 2b3c 2574 af3c
00000330: 7675 90bd 67cd dcbd 6795 42bc d76b 10bc
00000340: 15c7 81bd bb28 00be 6127 4bbd 3443 eabd
00000350: 5e05 e13c e164 cd3d 89eb cebd a39c 67bd
00000360: a951 8d3d 9d76 47bd 022a cb3c 8b2c 84bd
00000370: f59d 433d c21f 503a 1bcf ac3c cf55 b13d
00000380: a75b b83c 0549 a2bb d295 16bd e011 4cbd
00000390: a980 143d 48e9 c53d 265c 12bd 92f4 183d
000003a0: 2d27 793d 6f12 33bd 6489 d9bd ea1c b93d
000003b0: e9bf 06bd 318e fcbd 40f6 a33d 750b 25bb
000003c0: 4df1 dc3c ab43 a9bd b919 b73d 1219 aabc
000003d0: e2b8 1ebb a4c9 97bd d418 9ebd 3d02 e3bd
000003e0: 34a9 a7bd a148 06bd 2877 27be bb14 8abd
000003f0: b8c9 c7bc 28df c1bd feb1 05bd 2752 bfbd

fc3.bias f4 [10]
0.0061398814 0.06804144 0.005044166 -0.13879852 -0.0073307357 -0.13333209 0.03194093 -0.040280454
-0.07303677 0.019167073
00000000: 0f31 c93b 4f59 8b3d 8849 a53b 3321 0ebe
00000010: ab36 f0bb 3588 08be 7ed4 023d 1efd 24bd
00000020: 4d94 95bd 4404 9d3c
