models/client-3-0.pth (torch, 181282 bytes, 10 tensors)

conv1.weight f4 [6, 1, 5, 5]
0	0x3ddd8629	0.10816605
1	0xbe0dd022	-0.13848928
2	0x3cde8c53	0.027166521
3	0x3d24aa82	0.04020167
4	0x3e2c9fa4	0.16857773
5	0xbdb0d985	-0.086352386
6	0x3e864aa0	0.2622881
7	0xbcc5436d	-0.024080003
8	0x3e652dbd	0.22380729
9	0xbcdb87ad	-0.026798094
10	0xbd901821	-0.07035852
11	0x3e1e2f6c	0.15447778
12	0x3e940bb5	0.28915182
13	0x3ec014c3	0.3751584
14	0x3e61880c	0.22024554
15	0x3d6dc5fe	0.05805015
16	0x3eae6772	0.34063298
17	0x3e92e769	0.28692177
18	0x3e890b71	0.26766542
19	0x3d76dec0	0.060271025
20	0x3e2fe5e2	0.17177537
21	0x3e845ac3	0.25850496
22	0xbd06d240	-0.032915354
23	0xbdfaa6fc	-0.12238881
24	0x3e598668	0.21242678
25	0xbe6046c4	-0.21901995
26	0xbe672961	-0.22574379
27	0xbe32355a	-0.17403165
28	0xbddb0c0c	-0.10695657
29	0x3e840e5d	0.25792208
30	0xbe3c9db2	-0.18419531
31	0xbe09863f	-0.13430117
32	0xbdcd930f	-0.10037815
33	0x3cfeabb1	0.031087728
34	0x3e6e23ff	0.23255919
35	0xbe8c6418	-0.27420115
36	0xbe0fa937	-0.14029394
37	0xbe2c9f26	-0.16857585
38	0x3e24faf3	0.16111355
39	0x3dc02260	0.093815565
40	0xbdd661bb	-0.10467859
41	0xbe1fa899	-0.15591659
42	0x3b8d9795	0.0043210485
43	0xba4748fa	-0.0007602122
44	0x3ddc9623	0.10770824
45	0x3cc10501	0.023561956
46	0xbde6d8b6	-0.11271803
47	0xbd17c420	-0.037052274
48	0x3e49864a	0.19680133
49	0x3dd51439	0.10404248
50	0x3d7ebbaf	0.062190708
51	0x3e749a39	0.23886956
52	0x3ea36c37	0.319185
53	0xbd36bc73	-0.044613313
54	0x3d560265	0.052248377
55	0x3df9c65e	0.12196039
56	0x3eb4c0b4	0.3530327
57	0x3e1069bc	0.14102834
58	0x3dcc0991	0.09962762
59	0x3e613a09	0.21994795
60	0x3d13618b	0.035981696
61	0x3e97be7e	0.29637522
62	0x3e59a22d	0.21253271
63	0x3ceb54cc	0.028726958
64	0x3e9bae24	0.30406296
65	0xbe10a416	-0.14125094
66	0x3e5478a5	0.20749147
67	0x3de2aa83	0.11067679
68	0xbe068220	-0.13135576
69	0x3d48ea0c	0.04905133
70	0x3d8d5adb	0.06902095
71	0xbdaa3d18	-0.08312434
72	0xbe080c8e	-0.13286039
73	0xbe889988	-0.26679635
74	0xbd5b7574	-0.05357881
75	0x3ca7a42c	0.020464025
76	0xbe0f6762	-0.14004281
77	0x3b207382	0.002448291
78	0x3d780a4c	0.060556695
79	0x3d8c4749	0.06849534
80	0xb9b9992d	-0.00035400075
81	0x3d859ec3	0.06524422
82	0x3e02bb3c	0.12766737
83	0x3e28cbae	0.16483948
84	0x3ea5697c	0.3230704
85	0x3d4a93ff	0.049457546
86	0x3e925e31	0.28587487
87	0x3ecc603a	0.39917165
88	0x3e3deeb0	0.18548083
89	0x3ea76951	0.32697538
90	0x3e360188	0.17774022
91	0x3e460e1d	0.19341321
92	0x3e924ffe	0.28576654
93	0x3e96e73d	0.29473296
94	0x3e41d537	0.18928991
95	0xbc357c20	-0.011076957
96	0xbe1a3cef	-0.15062307
97	0x3e88a5d0	0.26689005
98	0x3e89a71c	0.26885307
99	0x3e39df4f	0.18151592
100	0xbe50313a	-0.20331278
101	0x3e201ac1	0.15635206
102	0x3d0a04b2	0.033695884
103	0x3ebaec2a	0.36508304
104	0x3e412a64	0.18863827
105	0xbe85e376	-0.261501
106	0xbde7dd04	-0.11321452
107	0x3cbc60e3	0.022995418
108	0x3eb32e50	0.3499627
109	0x3d85af60	0.06527591
110	0xbd841832	-0.064499274
111	0x3eb02c40	0.3440876
112	0x3ec0d42e	0.3766188
113	0x3e006eea	0.1254231
114	0x3e846d15	0.25864473
115	0x3e771d80	0.24132347
116	0x3e77934e	0.24177286
117	0x3e7d2dba	0.24724475
118	0x3e59567c	0.21224397
119	0x3d6b820a	0.05749706
120	0xbd564897	-0.05231532
121	0x3e5f957b	0.21834366
122	0x3e609014	0.21929961
123	0x3e8a8020	0.27050877
124	0xbdb84543	-0.089975856
125	0x3e8595ec	0.26090944
126	0x3e542dea	0.2072064
127	0x3dd0d560	0.10196948
128	0x3e2b6763	0.16738658
129	0xbd941447	-0.0723043
130	0x3dc620ef	0.0967425
131	0x3ec53d82	0.3852349
132	0x3edbe82d	0.42950574
133	0x3e489ef1	0.19591881
134	0x3e7fc0c8	0.24975884
135	0x3dfd2931	0.12361372
136	0x3db3c473	0.08777704
137	0x3e3a4542	0.18190482
138	0x3e73e2bf	0.23816966
139	0x3e7c4c4b	0.24638478
140	0xbe98628e	-0.2976269
141	0xbe8df439	-0.2772539
142	0xbe725deb	-0.2366864
143	0x3d512690	0.051062167
144	0x3bae1b3f	0.0053133066
145	0xbeb6ce26	-0.35704154
146	0xbeb1f831	-0.34759668
147	0xbe817cd8	-0.2529056
148	0xbd963470	-0.073342204
149	0xbe219035	-0.15777667

conv1.bias f4 [6]
0	0xbce6c2c6	-0.028169047
1	0x3e80eef2	0.251823
2	0x3c55d22c	0.013050597
3	0xbb195af6	-0.0023400164
4	0x3c65da73	0.014029133
5	0x3e40aeb3	0.18816642

conv2.weight f4 [16, 6, 5, 5]
0	0x3d663498	0.0562025
1	0xbd2ea0ec	-0.042633936
2	0xbe480863	-0.1953445
3	0xbd6850e3	-0.056717765
4	0x3da1492a	0.07875283
5	0xbd4e8cbb	-0.05042718
6	0xbe25e302	-0.16199878
7	0xbd916e9d	-0.07101176
8	0x3dc3e106	0.09564404
9	0x3ddc3f52	0.10754265
10	0xbc3f7828	-0.011686362
11	0xbdf46df9	-0.11935038
12	0x3d30608b	0.04306082
13	0x3dcc2553	0.099680565
14	0x3ca3b8a7	0.01998551
15	0x3dc23ebc	0.09484622
16	0x3d9f075d	0.07765076
17	0x3de1e790	0.11030495
18	0x3e0091e0	0.12555647
19	0xbd8fc9cf	-0.07020914
20	0x3c940999	0.018070983
21	0x3e0c8d29	0.13725723
22	0x3d9f62ec	0.0778254
23	0x3c63571f	0.013875752
24	0xbbcbb3ba	-0.0062164934
25	0xbc85dac8	-0.016339675
26	0x3c0553bc	0.00813764
27	0xbce99c7a	-0.028516997
28	0x3e29cdf9	0.16582479
29	0x3c8cec27	0.01720245
30	0x3c89eaa5	0.01683552
31	0x3c0c3be2	0.008559199
32	0x3db45825	0.08805875
33	0x3e3aa955	0.18228658
34	0x3cb785d5	0.022402683
35	0xbcc402c7	-0.023927106
36	0x3d2650df	0.04060447
37	0xbc1a9bf0	-0.009436592
38	0x3dee914a	0.116488054
39	0xbdb5f3dd	-0.08884404
40	0xbdc6a0f2	-0.09698667
41	0xbcd49e6a	-0.025954444
42	0x3d880193	0.06640925
43	0xbd0f35aa	-0.034963287
44	0xbe053921	-0.13010074
45	0xbd098c6d	-0.033581186
46	0xbc8e64bc	-0.017382018
47	0xbd192211	-0.037386004
48	0xbdb18d37	-0.08669513
49	0xbdf51ae8	-0.119680226
50	0xbd80d53a	-0.0629067
51	0xbd415b25	-0.047206063
52	0xbdd85b74	-0.10564318
53	0xbd24dc84	-0.040249363
54	0x3c859ab9	0.01630913
55	0xbd873e28	-0.06603652
56	0x3be87c83	0.007094921
57	0xbdd60555	-0.10450236
58	0xbb793e4f	-0.0038031524
59	0x3c65bac5	0.01402158
60	0x3d34a18f	0.044099387
61	0xbd9a193e	-0.07524346
62	0xbd8a5fed	-0.06756578
63	0xbcfdb7a7	-0.030971361
64	0x3d4cc83d	0.04999565
65	0xbdaecd8d	-0.085352995
66	0x3c17b74b	0.009260009
67	0xbcab91af	-0.02094349
68	0x3dbc151d	0.091837145
69	0x3b64f08b	0.0034933414
70	0x3d2f754f	0.042836484
71	0x3db40f56	0.087919876
72	0x3d06da29	0.032922897
73	0x3d7cdd70	0.061734617
74	0x3d4e3e54	0.05035241
75	0x3d7c7514	0.061635092
76	0x3bfc0b3c	0.007691769
77	0xbdf7e097	-0.12103384
78	0x3d5c68fa	0.05381105
79	0x3da16600	0.07880783
80	0xbdf6a66b	-0.120434605
81	0xbd9cd553	-0.07657876
82	0xbd991be3	-0.07476022
83	0x3df23a9d	0.11827586
84	0x3d369a27	0.044580605
85	0xbb9f48b1	-0.0048609604
86	0xbc66c66c	-0.014085393
87	0x3d95c597	0.07313078
88	0x3e147027	0.14495908
89	0xbd1b99d4	-0.0379885
90	0x3d2bbb93	0.04192693
91	0x3dae0a6a	0.0849808
92	0xbcbb645b	-0.022875002
93	0x3d72a514	0.059239462
94	0xbda00bf2	-0.078147784
95	0x3ddf123f	0.10892152
96	0x3d3fb719	0.046805475
97	0xbc86bb7f	-0.016446827
98	0x3ce9af92	0.028526101
99	0xbe0a9b8c	-0.13535899
100	0x3d7205c0	0.059087515
101	0x3cf4e985	0.029896507
102	0xbe0b64e6	-0.13612708
103	0x3cef38df	0.029201923
104	0x3c377c6c	0.011199098
105	0xbd664c44	-0.056225076
106	0xbd6c0cf1	-0.05762953
107	0xbdd3d686	-0.103436515
108	0x3db610a7	0.08889895
109	0x3da1dee6	0.07903843
110	0xbd9b7bbf	-0.07591962
111	0xbd20227f	-0.039095398
112	0x3d45db83	0.048305046
113	0x3d620934	0.055184558
114	0x3dd84a21	0.10561014
115	0x3d5e298b	0.054238837
116	0x3da47e7b	0.08031937
117	0x3e0e0370	0.13868499
118	0x3ca5cfa4	0.020240612
119	0xbd4289fc	-0.047494873
120	0x3d802746	0.06257491
121	0x3dd0a531	0.10187758
122	0x3d93f042	0.0722356
123	0x3aa593d3	0.0012632556
124	0xbdc89c81	-0.09795476
125	0x3da0f57a	0.07859321
126	0x3d8566bd	0.065137364
127	0xbd8b1fa1	-0.06793142
128	0xbcc509ea	-0.024052579
129	0xbdebedd8	-0.115199745
130	0xbdd9a8ec	-0.106279224
131	0xbd97470d	-0.07386599
132	0xbdc08ae4	-0.09401491
133	0xbe096cda	-0.1342043
134	0xbe0248e3	-0.12723117
135	0x3ce7aac1	0.028279664
136	0xbde1bf78	-0.11022848
137	0xbe16b897	-0.14718853
138	0xbd8651cf	-0.065585725
139	0xbdd10626	-0.10206251
140	0xbb6d9231	-0.0036250467
141	0xbdbcd91b	-0.09221097
142	0xbdf44150	-0.1192652
143	0xbb860118	-0.004089486
144	0xbc108915	-0.008821745
145	0xbdbd3d94	-0.09240261
146	0x3b0bfeb3	0.002136153
147	0xbd860be4	-0.06545237
148	0x3d10d9e8	0.03536406
149	0xbd997b03	-0.07494166
150	0xbdca908f	-0.098908536
151	0xbd8e7c97	-0.069573574
152	0xbe0c3619	-0.13692512
153	0xbb934399	-0.0044941423
154	0xbd37e7d6	-0.04489883
155	0xbdc2016c	-0.094729275
156	0xbe1bf8f4	-0.15231687
157	0xbdd29788	-0.102828085
158	0x3dee9a33	0.11650505
159	0xbba2cbde	-0.0049681505
160	0xbdf15757	-0.11784237
161	0xbd4e361b	-0.050344568
162	0x3d74cbd6	0.059764706
163	0x3d93109d	0.07180903
164	0x3cc819ac	0.024426304
165	0xbd6c8259	-0.057741497
166	0x3d636a62	0.055521376
167	0x3d554584	0.05206825
168	0xbd2d5ac7	-0.0423229
169	0x3d016ccd	0.0315979
170	0xbc757673	-0.014981854
171	0x3ca963dc	0.0206775
172	0xbd93382e	-0.0718845
173	0xbe21677a	-0.1576213
174	0xbe52c11f	-0.20581482
175	0xbca9c2f5	-0.020722846
176	0xbc8bb76c	-0.017055236
177	0x3d4bac94	0.04972513
178	0x3da4b863	0.080429815
179	0xbdb47f20	-0.0881331
180	0xbdeb4217	-0.11487215
181	0xbd90c4ec	-0.0706881
182	0xbd66bd70	-0.056333005
183	0xbceb03b7	-0.028688295
184	0x3d1df691	0.038565222
185	0x3d03a1e1	0.0321368
186	0x3d900486	0.07032113
187	0xbda7f9a6	-0.082019135
188	0xbd00c44c	-0.031437203
189	0xbe0b7d1e	-0.13621947
190	0xbb45b753	-0.0030169084
191	0xbcd37c72	-0.025816176
192	0xbc821deb	-0.015883407
193	0x3ad8a83f	0.0016529633
194	0xbd807196	-0.06271665
195	0x3c65e438	0.014031462
196	0xba545a92	-0.0008100654
197	0xbd5b8baa	-0.05359999
198	0xbc762b0c	-0.015024912
199	0xbde90353	-0.11377587
200	0xbc60869b	-0.013703967
201	0xbddb1757	-0.10697811
202	0xbc6af1ec	-0.014339905
203	0x3b50ef50	0.0031880923
204	0x3da78752	0.08180107
205	0xbb860c40	-0.004090816
206	0xbdeb345f	-0.11484598
207	0xbd9cdb88	-0.0765906
208	0xbbafc085	-0.0053635263
209	0xbd27918a	-0.04091028
210	0xbd477b07	-0.048701312
211	0xbdafd52d	-0.08585582
212	0x3cb569d5	0.022145191
213	0x3d30456d	0.04303496
214	0x3d9be84e	0.07612668
215	0xbc87d9d9	-0.01658337
216	0x3d160857	0.036629047
217	0x3d9e1f3e	0.07720803
218	0x3d7ff8df	0.0624932
219	0x3ddab133	0.10678329
220	0xbd565812	-0.052330084
221	0x3dabe0ee	0.08392511
222	0x3d2c6aa8	0.042093903
223	0x3d846d8b	0.06466206
224	0xbdcac4f3	-0.09900846
225	0xbcae0ee5	-0.021247337
226	0xbdc1206f	-0.09430014
227	0xbd0d68a2	-0.034523614
228	0xbd9a0dc0	-0.07522154
229	0x3db0b217	0.08627718
230	0xbd854124	-0.06506565
231	0xbe16398a	-0.14670387
232	0xbd81e6dd	-0.06342862
233	0xbd1131ff	-0.03544807
234	0x3d1afeaa	0.037840523
235	0xbd6c73fd	-0.057727803
236	0x3d8bbf8d	0.06823645
237	0xbbdd1d50	-0.006747879
238	0x3dede951	0.11616767
239	0x3dee5f46	0.11639266
240	0x3d527262	0.051378615
241	0x3d840586	0.06446366
242	0x3df4f566	0.119608685
243	0x3b0c6cd7	0.0021427178
244	0x3b3a465c	0.0028423285
245	0xbd906899	-0.070512004
246	0x3db3a058	0.087708175
247	0x3d6afb73	0.057368707
248	0xbe357323	-0.17719702
249	0xbe5801d8	-0.21094453
250	0xbcd5b799	-0.026088523
251	0xbdfd2d48	-0.12362152
252	0xbdc62c62	-0.09676434
253	0xbcb9ce80	-0.022681475
254	0x3d5acf67	0.05342045
255	0xbd169e1f	-0.03677189

conv2.bias f4 [16]
0	0xbcc11c8e	-0.023573186
1	0xbb959788	-0.004565183
2	0xbd25ddc6	-0.040494703
3	0xbaaa7d9e	-0.0013007408
4	0xbceddd10	-0.029036075
5	0xbcb32a3c	-0.021870725
6	0x3adb0038	0.0016708439
7	0xbd776ae4	-0.060404673
8	0x3cfc3e47	0.030791415
9	0xbd0f1ff6	-0.03494259
10	0x3d3d3434	0.046192363
11	0xbc7f9a52	-0.015600758
12	0xbd3bd0fa	-0.045853592
13	0xbd858364	-0.065192014
14	0x3c27253a	0.010201747
15	0x3d15a251	0.03653175

fc1.weight f4 [120, 256]
0	0x3b8a9d11	0.0042301496
1	0xbd730d7e	-0.05933904
2	0xbc8a9c6a	-0.016920287
3	0x3c910a9d	0.017705256
4	0xbd85308d	-0.06503401
5	0xbd01d201	-0.031694416
6	0xbd392927	-0.04520526
7	0xbace066c	-0.0015718467
8	0xbd8aa47b	-0.067696534
9	0xbd295428	-0.041340023
10	0x3a155efc	0.00056980527
11	0x3d62e50b	0.055394214
12	0x3d44b175	0.0480208
13	0xbd0f1be0	-0.034938693
14	0x3d642e10	0.05570799
15	0xbd81e4b6	-0.06342451
16	0xbd471bc0	-0.04861045
17	0x3bcf775a	0.0063313665
18	0x3a775358	0.00094347214
19	0xbc3fa834	-0.011697818
20	0xbcfa0024	-0.030517645
21	0xbcf76124	-0.030197687
22	0x3d1fb34a	0.038989343
23	0xbd72c9aa	-0.059274353
24	0xbc3010d2	-0.010746198
25	0x3d487b35	0.048945624
26	0xbd5397a0	-0.051658273
27	0x3d16c92e	0.036812954
28	0x3974ef8e	0.00023358894
29	0x3b6da33c	0.0036260625
30	0x3c61197e	0.013738988
31	0x3c5a149a	0.013310576
32	0x3d6336a8	0.055472046
33	0xbd42288c	-0.04740195
34	0x382c9800	4.1149557e-05
35	0xbc5c06c2	-0.013429346
36	0x3d64e08a	0.0558782
37	0xbd4ef61a	-0.05052767
38	0x3c3854a6	0.0112506505
39	0xbd5b45bc	-0.0535333
40	0xbd651cf2	-0.055935808
41	0xbd3b7388	-0.045764476
42	0x3c3b3a6c	0.011427503
43	0xbd892f2d	-0.06698451
44	0x3ca7e9e8	0.020497277
45	0xbcf9f6ff	-0.030513285
46	0xbcad8778	-0.02118276
47	0x3cc17c16	0.02361874
48	0xbd04481d	-0.032295335
49	0xbd6ea1b0	-0.058259666
50	0xbcefa1be	-0.02925193
51	0x3d4ff124	0.05076708
52	0xbb790004	-0.0037994394
53	0xbba57c29	-0.0050502014
54	0xbd4dd586	-0.05025246
55	0xbcfd8c22	-0.03095061
56	0xbb075bef	-0.0020654162
57	0x3c855fea	0.016281087
58	0xbceed9c2	-0.02915657
59	0x3cbfee07	0.02342893
60	0xbc04c256	-0.008102974
61	0xbc8d86a8	-0.017276123
62	0xbad20b1a	-0.0016025037
63	0x3d378fb2	0.044814773
64	0xbc1977df	-0.009366958
65	0xbd32c2c2	-0.043642767
66	0x3d471f58	0.048613876
67	0xbd67572c	-0.056479618
68	0x3d14613d	0.036225546
69	0xbceec166	-0.029144954
70	0x3cd90480	0.026491404
71	0x3aed9144	0.0018124958
72	0xbc500e1c	-0.012698676
73	0xbcb9cc52	-0.022680435
74	0x3c638020	0.013885528
75	0x3c5f134c	0.013615441
76	0xbc9ffaad	-0.019528711
77	0x3cbc6da6	0.023001503
78	0x3d508cc2	0.050915487
79	0xbd7c695c	-0.061623916
80	0xbc26c033	-0.01017766
81	0xbcefef88	-0.029289022
82	0x3d5dfaf8	0.05419442
83	0xbd7064e0	-0.058689952
84	0xb9822d68	-0.00024829363
85	0x3c696baa	0.0142468605
86	0xbd4c6d8c	-0.04990916
87	0x3c0f79f4	0.008757103
88	0xbd39d5d3	-0.045369934
89	0xbc9f312c	-0.019432627
90	0x3cfcca08	0.030858055
91	0xbd86500c	-0.065582365
92	0x3bcb9f5e	0.0062140664
93	0x3cd29d40	0.025709748
94	0x3cf41bc7	0.029798402
95	0x3d0a72d5	0.03380092
96	0x3c037664	0.008023832
97	0xbd43225a	-0.047640182
98	0xbd663748	-0.056205064
99	0x3c9d17fd	0.019176478
100	0xbc20ab7c	-0.00980651
101	0xbd7a2301	-0.06106854
102	0x3c07ec4a	0.008296082
103	0xbd681646	-0.056661867
104	0xbce2842e	-0.027650919
105	0xbcf0e812	-0.029407535
106	0xbd7d8a5a	-0.06189952
107	0x3d478894	0.048714235
108	0xbcd93671	-0.026515217
109	0xbd84f75b	-0.06492492
110	0x3d4431c9	0.04789904
111	0xbcf00008	-0.02929689
112	0x3c2026c0	0.009774864
113	0xbd1ff71b	-0.039054018
114	0x3d0c9036	0.034317218
115	0xbcd6df48	-0.026229516
116	0x3bb40b36	0.0054945005
117	0x3d114d26	0.035473965
118	0x3bc18fb4	0.0059070233
119	0x3d2330f6	0.039841615
120	0xbb48a55c	-0.003061614
121	0x3ce72306	0.028214943
122	0x3c20701e	0.009792356
123	0xbd113086	-0.035446666
124	0xbc0de197	-0.008659742
125	0xbd1866f1	-0.037207548
126	0x3d352f8f	0.04423481
127	0xbd4d8db8	-0.05018398
128	0x3c39e53a	0.011346156
129	0x3ce54562	0.027987186
130	0xbb91fbfa	-0.004455087
131	0x3bce56be	0.0062969616
132	0x3d04cb3f	0.032420393
133	0x3cc25914	0.023724116
134	0xbd4c9166	-0.04994335
135	0x3d49c808	0.04926303
136	0xbc9dd8c1	-0.019268395
137	0x3d2f0bdc	0.04273592
138	0xbc506c20	-0.0127210915
139	0x3d06fd8a	0.032956637
140	0xbbd20e75	-0.006410415
141	0xbd2719c6	-0.040796064
142	0xbceda33b	-0.029008498
143	0xbd472a92	-0.048624583
144	0xbce2f588	-0.027704969
145	0x3c863e6f	0.016387193
146	0xbd04fe95	-0.03246935
147	0x3a5aa1f0	0.00083401706
148	0x3bec1456	0.0072045727
149	0x3ce29620	0.027659476
150	0x3ca56a48	0.02019228
151	0x3d0501bd	0.03247236
152	0xbc6bbd23	-0.014388355
153	0xbcc776b3	-0.024348592
154	0x3d4243f5	0.04742809
155	0xbbbbc162	-0.00572984
156	0xbcbe53e2	-0.023233358
157	0xbd5a415b	-0.053284984
158	0x3d671128	0.056412846
159	0x3d1213a3	0.03566326
160	0x3cb70a44	0.022343762
161	0x3d270f16	0.04078587
162	0x3bba1f9f	0.005680039
163	0x3d08ce82	0.033400066
164	0x3d28a8f2	0.041176744
165	0xbd47f1f8	-0.048814744
166	0xbcfe058e	-0.031008508
167	0xbcd7089c	-0.026249222
168	0xbd553a73	-0.052057695
169	0xbcd3e8fc	-0.025867932
170	0x3c83d5b0	0.016093105
171	0xbc91eb59	-0.017812418
172	0x3d01a39d	0.031650174
173	0x3d2e0fe6	0.04249563
174	0xbc59baaa	-0.013289133
175	0x3d518fee	0.051162653
176	0xbbdf217e	-0.0068094125
177	0x3976eca8	0.0002354855
178	0xbd27d624	-0.040975705
179	0xbcd910ac	-0.026497208
180	0x3adf807e	0.0017051843
181	0x3cb916c0	0.022593856
182	0xbd1af1c0	-0.037828207
183	0x3d28cc32	0.04121036
184	0xbd72a4d1	-0.059239212
185	0x3d37e9e0	0.044900775
186	0xbccc462c	-0.024935804
187	0xbd405f7c	-0.04696606
188	0xbd5eb467	-0.054371264
189	0xbcd5138c	-0.026010297
190	0x3d2daa06	0.042398475
191	0x3bb7e9fe	0.005612611
192	0xbcb15570	-0.021647185
193	0xbbbed39a	-0.0058235647
194	0x3c0a73b7	0.00845044
195	0xbca56736	-0.020190816
196	0xbc7da838	-0.015482001
197	0xbd890431	-0.066902526
198	0xbc147a34	-0.009062339
199	0xbc1b090a	-0.009462604
200	0x3d4297dc	0.047508106
201	0xbc822b61	-0.015889825
202	0xba51abcc	-0.0007998317
203	0x3c7128ef	0.014719232
204	0x3ce035e0	0.02736944
205	0x3c245e22	0.010032209
206	0x3d1f53c5	0.03889825
207	0x3d22473c	0.039618716
208	0xbd445b56	-0.047938667
209	0xbbb8d016	-0.00564004
210	0xbcdf32cb	-0.0272459
211	0xbcbe281a	-0.023212481
212	0xbd4f4f67	-0.050612833
213	0x3d46a6ea	0.048499025
214	0xbd75e758	-0.06003508
215	0xbbccdc20	-0.006251827
216	0x3d550c16	0.05201348
217	0xbd2856a4	-0.041098252
218	0x3d361202	0.044450767
219	0xbd0acb5e	-0.033885352
220	0x3c7da0f8	0.0154802725
221	0x3ce05ba0	0.02738744
222	0xbcb952c8	-0.022622481
223	0x3c3d9982	0.011572244
224	0x3d2f54ca	0.04280547
225	0xbc605554	-0.013692219
226	0x3cda999b	0.026684573
227	0x3d49fa20	0.049310803
228	0x37eb5cdf	2.805743e-05
229	0xbd0200a9	-0.03173891
230	0x3c575059	0.013141715
231	0xbb8bdea5	-0.0042684847
232	0x3d018416	0.031620108
233	0x3cb56a74	0.022145487
234	0xbd0625ac	-0.03275077
235	0xbd893ccb	-0.067010485
236	0xbd85b2b3	-0.06528225
237	0xbbbeebd8	-0.0058264546
238	0xbbcabc0c	-0.0061869677
239	0x3ca58459	0.02020471
240	0xbcd421f1	-0.02589509
241	0xbd05a306	-0.032626174
242	0x3c75abcc	0.014994573
243	0xbd173359	-0.036914203
244	0x3d2dc896	0.04242762
245	0xbd74deca	-0.05978278
246	0xbc1bd8d0	-0.009512141
247	0x3c18f093	0.009334701
248	0x3979e75f	0.00023832683
249	0x3be23c90	0.0069041923
250	0xbd89d9e9	-0.06731016
251	0x3ce89d4d	0.02839532
252	0xbce30fc4	-0.027717479
253	0xbc0f5450	-0.008748129
254	0xbcb4a42e	-0.022050943
255	0xbd3747e1	-0.044746283

fc1.bias f4 [120]
0	0x39300e84	0.00016790075
1	0xbd8073bb	-0.06272074
2	0xbd838e06	-0.06423573
3	0x3db1fb45	0.08690504
4	0x3d52ebbd	0.05149435
5	0xbcf437f5	-0.029811839
6	0x3cb5cd02	0.022192482
7	0xbcbb504c	-0.022865437
8	0x3ca50395	0.02014331
9	0x3d87b94c	0.066271394
10	0x3dc41dab	0.09575971
11	0x3d1766ab	0.036963146
12	0x3d95abbe	0.07308148
13	0xbb00cfb7	-0.0019655058
14	0xbc972364	-0.018449493
15	0xbd21611a	-0.039399244
16	0xbd0b2607	-0.033971813
17	0xbc9eedda	-0.019400526
18	0xbccb2b19	-0.024800824
19	0x3d244468	0.0401043
20	0x3d238058	0.03991732
21	0x3da20a01	0.07912064
22	0xbd2aca48	-0.041696817
23	0x3d5631ce	0.05229359
24	0x3d1dabcb	0.038493913
25	0x3d255b85	0.040370483
26	0x3d1d6ac3	0.038431894
27	0x3c242370	0.010018215
28	0x3d20d710	0.0392676
29	0x3cfa8c02	0.030584339
30	0x3d737dbe	0.05944609
31	0xbbd39da9	-0.0064580035
32	0x3b58c812	0.0033078236
33	0xbd0bcc4c	-0.03413038
34	0xbcd1232c	-0.025529467
35	0xbcf7a09b	-0.03022795
36	0x3bd50217	0.0065004933
37	0x3c999cfd	0.018751616
38	0xbc0247f8	-0.007951729
39	0xba1f0d30	-0.0006067334
40	0x3d866691	0.06562532
41	0xbd683c9d	-0.05669843
42	0xbba88243	-0.0051424815
43	0xbd1f5766	-0.03890171
44	0x3c9b9acd	0.018994713
45	0xbc0cf5e5	-0.008603548
46	0xbb86135f	-0.0040916647
47	0xbc704eaf	-0.014667197
48	0xbace8d6e	-0.0015758702
49	0x3d068bfa	0.032848336
50	0xbd64c14c	-0.055848405
51	0x3d5e2b89	0.054240737
52	0xbd206891	-0.039162222
53	0xbc8d8c55	-0.01727883
54	0x3d4338cd	0.04766159
55	0x3cd6e96b	0.02623435
56	0xbd432d84	-0.04765083
57	0x3d29e7a4	0.041480675
58	0xbc27cacb	-0.010241221
59	0xbcefbc76	-0.02926467
60	0x3d985640	0.07438326
61	0xbd57702c	-0.05259721
62	0xbd6c05d0	-0.05762273
63	0x3da0129d	0.0781605
64	0x3daa1fb4	0.08306828
65	0x3ce5b2c5	0.028039346
66	0x3d3dc868	0.0463337
67	0xbd341a7f	-0.04397058
68	0xbc5c680b	-0.01345254
69	0x3cd9645b	0.026537111
70	0x3c84bd30	0.016203493
71	0xbbf4eefa	-0.0074747773
72	0x3d4694f2	0.04848189
73	0x3d802b4d	0.06258259
74	0x3c0d12c2	0.008610429
75	0xbc205f8c	-0.009788405
76	0xbc05d51c	-0.008168485
77	0x3b963940	0.0045844615
78	0x3ce83b75	0.028348664
79	0x390b9ee2	0.00013315261
80	0x3b08c4d1	0.0020869265
81	0x3d056097	0.03256282
82	0xbcebe32b	-0.028794846
83	0x3d61e5fc	0.05515097
84	0x3cb9c954	0.022679009
85	0x3c73640b	0.014855395
86	0xbc14d1b1	-0.009083197
87	0xbcd1a667	-0.025592042
88	0xbd39262d	-0.045202423
89	0xbc6b5453	-0.014363366
90	0xbc629404	-0.013829235
91	0xbd45eab6	-0.04831954
92	0x3d771aed	0.060328413
93	0xbd20ef47	-0.039290693
94	0x3bade9bc	0.0053074043
95	0x3cf87f83	0.03033424
96	0x3d3b0c29	0.045665894
97	0x3d2e6036	0.042572223
98	0xbcc923c3	-0.024553185
99	0x3ca65a1e	0.020306643
100	0xbd808818	-0.06275958
101	0xbd1d0c01	-0.038341526
102	0x3c3bdd18	0.011466287
103	0xbd78e980	-0.060769558
104	0xbd3e3a37	-0.046442237
105	0xbc6672b5	-0.014065434
106	0xbd5a5152	-0.05330021
107	0xbd8d8776	-0.06910603
108	0xbc2a283a	-0.010385567
109	0xbbb5aaaf	-0.0055440287
110	0x3b9c1c9f	0.004764154
111	0x3d85c65a	0.06531973
112	0x3c023297	0.007946632
113	0xbd81ff2b	-0.063474976
114	0x3d637b30	0.055537403
115	0x3aa6a37b	0.0012713516
116	0xbd426c3d	-0.047466505
117	0x3cf3e956	0.02977435
118	0x3c42c588	0.011887915
119	0x3d2f6ee9	0.04283038

fc2.weight f4 [84, 120]
0	0xbd679a77	-0.056543794
1	0x3d9d27c2	0.07673599
2	0x3d980d4e	0.07424413
3	0x3d0b3397	0.033984747
4	0x3db5265f	0.08845209
5	0xbc7fa066	-0.015602207
6	0xbda52a7c	-0.08064744
7	0x3d00687a	0.031349637
8	0x3dbf3f67	0.09338265
9	0xbcab9fb1	-0.02095017
10	0x3cc47c51	0.02398506
11	0x3d983fce	0.07434045
12	0x3cf17cfb	0.02947854
13	0xbd4151fe	-0.047197334
14	0x3be4598f	0.006968684
15	0xbb7a67b0	-0.0038208775
16	0xbc64111e	-0.013920097
17	0xbd9d3976	-0.076769754
18	0x3d93ecc0	0.07222891
19	0x3d6c29da	0.0576571
20	0xbdbd4045	-0.09240774
21	0xbd437bcb	-0.04772548
22	0x3dc23762	0.0948322
23	0xbd24052c	-0.040043995
24	0xbcc0acbb	-0.023519864
25	0x3d87e63a	0.06635709
26	0xbcf79992	-0.030224595
27	0x3d5c6884	0.05381061
28	0xbd194b52	-0.037425347
29	0xbd933288	-0.071873724
30	0x3beccb20	0.007226363
31	0xbc98f6fa	-0.018672455
32	0xbce4d469	-0.027933316
33	0xbd8e160e	-0.069378
34	0xbd2907fe	-0.041267388
35	0x3c945a69	0.018109517
36	0x3d00e23a	0.031465746
37	0xbd387b5b	-0.045039516
38	0x3c058c53	0.008151132
39	0xbd5f4886	-0.054512523
40	0x3c980c00	0.01856041
41	0x3d3dc40f	0.046329554
42	0xbce34a74	-0.027745463
43	0x3dbae44c	0.091255754
44	0x3dafe5cb	0.085887514
45	0x3da81236	0.082065985
46	0xbc7ded28	-0.015498437
47	0x3b24d89e	0.0025153528
48	0x3c445540	0.011983216
49	0xbd62ca22	-0.05536855
50	0xbd404b0a	-0.046946563
51	0x3ce62664	0.028094478
52	0x39c356b6	0.00037257903
53	0x3dcae43f	0.09906816
54	0xbc832506	-0.016008865
55	0x3afa1c10	0.001908185
56	0x3d2350a1	0.039871816
57	0xbd4e33cd	-0.05034237
58	0x3d32c2d2	0.043642826
59	0x3d9990f4	0.07498351
60	0xbdb41da8	-0.08794719
61	0x3dac8566	0.08423881
62	0x3dbf4c18	0.093406856
63	0xbd9ed1f6	-0.077548906
64	0xbd7c44fd	-0.06158923
65	0xbd87668a	-0.06611355
66	0xbdb728fb	-0.08943363
67	0x3d96ddc0	0.07366514
68	0xbc518f28	-0.012790479
69	0xbb1eb314	-0.0024215626
70	0x3d6b01bc	0.0573747
71	0x3cd13603	0.02553845
72	0xbcaf56f6	-0.02140377
73	0x3d3ca894	0.046059206
74	0xbd6c4f77	-0.05769297
75	0xbd35b76e	-0.044364385
76	0x3dad1751	0.08451713
77	0x3d3b808c	0.04577689
78	0xbd7e89a8	-0.062142998
79	0x3cdcb341	0.026940944
80	0xbdaf013c	-0.08545157
81	0x3d6f26ae	0.058386497
82	0x3da96dd5	0.08272902
83	0xbd69db77	-0.057094064
84	0xbd4cc9c8	-0.04999712
85	0x3c8a950e	0.016916778
86	0x3d8b58d8	0.06804055
87	0x3ca79b22	0.020459715
88	0x3bc0d541	0.005884797
89	0x3c9b8ee5	0.018989036
90	0x3db99cad	0.09063087
91	0x3ccde670	0.025134295
92	0xbd50a89c	-0.05094205
93	0x3caf5cc0	0.021406531
94	0xbd470cbe	-0.048596136
95	0xbd94acee	-0.07259546
96	0x3dc4ac24	0.09603146
97	0x3d803065	0.062592305
98	0x3ccb7f27	0.024840904
99	0xbb88e690	-0.004177876
100	0xbd744c7f	-0.059643265
101	0x3ca3b203	0.019982344
102	0x3c1cf83f	0.009580671
103	0x3d3dbf70	0.046325147
104	0xbd977ed7	-0.0739724
105	0xbce6a26b	-0.028153619
106	0xbd08baa5	-0.033381123
107	0x3d0f1425	0.03493132
108	0x3d31e32d	0.043429542
109	0xbbfc7e33	-0.007705474
110	0x3ad2c32a	0.0016079892
111	0xbd4089c0	-0.04700637
112	0xbd7f511a	-0.062333204
113	0x3d8cc9fb	0.06874462
114	0xbd547551	-0.051869694
115	0xbd7660be	-0.060150854
116	0x3d99ee5d	0.07516167
117	0xbd75c960	-0.0600065
118	0x3d3ff475	0.04686399
119	0x3dadba67	0.08482819
120	0x3d84906d	0.064728595
121	0xbc064fda	-0.008197749
122	0xbd338505	-0.04382803
123	0x3d814297	0.06311529
124	0x3cc7e8be	0.024402972
125	0xbd6fa662	-0.058508284
126	0x3bf79939	0.0075561074
127	0xbd8a2b7a	-0.06746574
128	0x3d123af4	0.035700753
129	0xbccc3564	-0.024927802
130	0x3d3727c9	0.044715676
131	0x3d26a571	0.04068512
132	0xbdd9a7c2	-0.106277004
133	0xbdab9754	-0.08378473
134	0x3d21a88f	0.03946739
135	0xbda81ee2	-0.082090154
136	0xbd857152	-0.06515755
137	0xbc234ebb	-0.009967501
138	0xbd7fb454	-0.062427834
139	0xbd8d32d7	-0.068944626
140	0xbd01e751	-0.03171474
141	0xbdd28145	-0.102785625
142	0x3d1af3f3	0.037830304
143	0x3d88e1e9	0.06683714
144	0xbdee471b	-0.11634656
145	0x3d12ad07	0.035809543
146	0xbdb6f94e	-0.0893427
147	0x3d6b6534	0.05746956
148	0x3cb2fd70	0.021849364
149	0xbd95eca8	-0.07320529
150	0x3d410d3e	0.04713177
151	0xbdd0929e	-0.10184215
152	0xbd9e6fb1	-0.07736147
153	0x3cc00e07	0.023444189
154	0x3d5b9a37	0.053613868
155	0xbcad39da	-0.02114575
156	0xbd4fbb07	-0.050715473
157	0x3d346646	0.044042848
158	0xbc238918	-0.009981416
159	0xbd6789e2	-0.05652798
160	0xbdd68bd1	-0.104758866
161	0xbd9522b6	-0.07282011
162	0x3d2329cc	0.039834782
163	0x3d2b5608	0.041830093
164	0x3d835d2c	0.064142555
165	0x3b1a86e0	0.0023578927
166	0x3d242744	0.04007651
167	0xbc8ec8b7	-0.017429693
168	0xbd97beee	-0.07409464
169	0xbdc043bd	-0.0938792
170	0x3d4c2784	0.049842373
171	0x3d701d42	0.058621652
172	0xba7d6074	-0.0009665557
173	0x3b30ff3f	0.0027007607
174	0x3b0b02ea	0.0021211454
175	0x3d3f7afc	0.046748146
176	0xbd860b42	-0.06545116
177	0xbd7b1639	-0.06130049
178	0x3c9b9382	0.018991236
179	0x3d15416c	0.036439344
180	0xbdb9b3c2	-0.09067489
181	0xbd0de960	-0.034646392
182	0xbc17f957	-0.009275756
183	0xbd2ebdf3	-0.04266162
184	0x3d621995	0.05520018
185	0xbda5cf5d	-0.08096192
186	0xbdce03a9	-0.10059292
187	0x3c5f6936	0.013635924
188	0xbdbcd572	-0.09220399
189	0x3cc1b1e2	0.023644391
190	0xbd295fe5	-0.041351218
191	0xbbcd38af	-0.0062628607
192	0x3bf0ef37	0.0073527354
193	0xbd1eaf38	-0.03874132
194	0xbdcbe54c	-0.09955844
195	0x3db479d8	0.08812302
196	0xbdc7d26d	-0.097569324
197	0xbcaea1e0	-0.021317422
198	0xbd0f31e9	-0.034959707
199	0xbc7caac6	-0.015421575
200	0xbc80b3df	-0.01571077
201	0x3d4f48e5	0.050606627
202	0xbe0049e2	-0.12528184
203	0xbdd2eacf	-0.102986924
204	0xbb6d2db6	-0.0036190576
205	0xbc2e0f34	-0.010623742
206	0x3d6ce200	0.057832718
207	0xbd6c59f0	-0.05770296
208	0x3d2efa21	0.04271901
209	0x3d7201cd	0.05908375
210	0x3dab104e	0.08352719
211	0xbdaafcf4	-0.08349028
212	0x3d0cd1b1	0.034379665
213	0xbdae386b	-0.085068546
214	0xbdaec431	-0.08533514
215	0xbd3c4328	-0.045962483
216	0xbcad0b5f	-0.021123586
217	0xbc49f74d	-0.0123270275
218	0x3d9e78cb	0.07737883
219	0xbd9593a3	-0.0730355
220	0xbcc6b7ac	-0.024257503
221	0x3d6569de	0.056009166
222	0xbde8c6f3	-0.113660716
223	0x3d7daabc	0.061930403
224	0x3d84b13f	0.064791195
225	0xbb753466	-0.0037415265
226	0x3dab198e	0.083544835
227	0x3d1f61cc	0.038911626
228	0x3cdb87cf	0.026798157
229	0xba53e7de	-0.0008083562
230	0xbdae0ca6	-0.08498506
231	0xbd53825c	-0.051637992
232	0xbd7978c8	-0.0609062
233	0xbd55ddd4	-0.052213505
234	0xbdc06feb	-0.09396347
235	0x3d9a3453	0.07529511
236	0x3d89947f	0.067177765
237	0x3d0b1152	0.033952065
238	0xbcc0052d	-0.023439968
239	0xbcb139d8	-0.021634027
240	0x3db52992	0.088458195
241	0xbd309ec7	-0.043120172
242	0xbda665b3	-0.08124866
243	0x3d2cfb60	0.042231917
244	0xbdbaefb5	-0.09127752
245	0xbd0f1c02	-0.03493882
246	0xbd8e0064	-0.06933668
247	0xbb5238c7	-0.00320773
248	0xbdecf259	-0.11569662
249	0xbd0df18c	-0.034654185
250	0x3d85780e	0.06517039
251	0x3d44240d	0.047885943
252	0xbd1bf806	-0.03807833
253	0xbd73af5e	-0.059493415
254	0xbddd3dc3	-0.10802796
255	0xbd517052	-0.051132508

fc2.bias f4 [84]
0	0xbcf1a55b	-0.029497793
1	0x3ba5d4f4	0.0050607864
2	0xbbda3bd8	-0.006659966
3	0x3d96c2e9	0.07361395
4	0xbdc47409	-0.095924444
5	0xbd896bc4	-0.06710008
6	0xbdd7a9c4	-0.10530427
7	0xbb7f1ee8	-0.0038928334
8	0xbd99b903	-0.07505991
9	0x3c9629eb	0.018330535
10	0x3d049ba9	0.03237501
11	0x3b9ff515	0.004881511
12	0x3d8a4b19	0.06752605
13	0xbd4e7701	-0.05040646
14	0xbdd9b732	-0.10630645
15	0x3d3f2a22	0.04667104
16	0xbd5183a4	-0.051150933
17	0x3d790b3a	0.060801722
18	0x3cee5b39	0.029096233
19	0x3da59ac9	0.080861636
20	0xbcc7a11d	-0.024368817
21	0x3dfe9b02	0.12431909
22	0xbdbf6028	-0.09344512
23	0xbcc64367	-0.024202062
24	0x3d10e54a	0.035374917
25	0xbd54800e	-0.051879935
26	0x3d6b2b6a	0.05741445
27	0x3b1046bc	0.0022014817
28	0xbc7a1dd5	-0.015265902
29	0xbc4278bc	-0.011869606
30	0x3dab7c83	0.08373358
31	0xbc55540f	-0.013020529
32	0xbd6185ec	-0.05505936
33	0xbd1473cc	-0.036243245
34	0xbca15166	-0.019692134
35	0x3c6b3c09	0.014357575
36	0x3d0b6bc1	0.03403831
37	0xbd267f47	-0.040648725
38	0x3ca3064c	0.019900464
39	0x3d477579	0.048696015
40	0xbd6a8dea	-0.057264246
41	0xbc06e03e	-0.008232174
42	0x3d80c79d	0.06288073
43	0x3d263e1b	0.040586572
44	0x3d3cfb52	0.046138115
45	0x3d6c7fc1	0.057739023
46	0x3ad75f92	0.001643168
47	0xbd03b32b	-0.03215329
48	0xbd9cb8c9	-0.076524325
49	0x3d9cbbf5	0.076530375
50	0x3c12c8a8	0.008958973
51	0x3d30aca9	0.04313341
52	0x3d4f8148	0.0506604
53	0x3d542948	0.05179718
54	0x3daf3e66	0.085568234
55	0x3db1506a	0.08657916
56	0xbd6b2350	-0.057406723
57	0xbc364390	-0.011124507
58	0x3cdc8a20	0.026921332
59	0xbdaa440b	-0.083137594
60	0x3d6ad79f	0.05733454
61	0x3db0fb59	0.08641691
62	0x3d8acdfb	0.06777569
63	0x3d0be410	0.034153044
64	0x3d32c625	0.043645997
65	0x3dc9b235	0.098484434
66	0x3dce3758	0.1006915
67	0xbd92b77e	-0.071639046
68	0xbc83aa58	-0.016072437
69	0xbd101d3a	-0.035184123
70	0x3dc07999	0.09398193
71	0x3cffd260	0.031228244
72	0x3dda669d	0.10664103
73	0x3dae4807	0.08509832
74	0xbc2ab260	-0.0104185045
75	0x3cb417b0	0.021983951
76	0xbcafdac1	-0.021466615
77	0x3d6fff8a	0.05859331
78	0x3dca62b3	0.09882107
79	0xbdd75e20	-0.10516
80	0x3de5181f	0.11186241
81	0xbd3583db	-0.0443152
82	0x3c9e60a2	0.019333187
83	0xbd6bd5c3	-0.057576906

fc3.weight f4 [10, 84]
0	0x3df8d619	0.12150211
1	0xbd8b5b7e	-0.0680456
2	0xbd538119	-0.05163679
3	0xbdddeea1	-0.108365305
4	0xbcf02620	-0.029315054
5	0x3d815deb	0.063167416
6	0x3d71f413	0.059070658
7	0xbd6fcc25	-0.058544297
8	0xbdab3e0a	-0.083614424
9	0xbd3dd73f	-0.046347853
10	0xbe125a42	-0.14292243
11	0xbdf2b7ec	-0.118514866
12	0xbd612de0	-0.05497539
13	0xbd0f6444	-0.03500773
14	0xbdc87adc	-0.097890586
15	0x3d6e21bd	0.058137644
16	0xbc85b03b	-0.016319385
17	0xbae08ddd	-0.0017132122
18	0xbd90c6c1	-0.07069159
19	0xbdde2200	-0.10846329
20	0x3cb19a99	0.021680163
21	0xbdd2f3d6	-0.10300414
22	0x3dc622d0	0.09674609
23	0x3d90ba70	0.0706681
24	0x3e1fb5b4	0.15596658
25	0xbcfa0266	-0.030518722
26	0xbce4cbf7	-0.02792929
27	0x3cf2fca8	0.029661492
28	0x3d852958	0.06502026
29	0x3bbaccbc	0.005700676
30	0xbe3c7915	-0.18405564
31	0xbdf84006	-0.121215865
32	0xbdda7660	-0.106671095
33	0xbcdf8b09	-0.027287977
34	0x3d6e9429	0.058246765
35	0x3d2b4e91	0.041822974
36	0x3e0b96e6	0.13631782
37	0x3d9edb0c	0.077566236
38	0x3dfa4a8c	0.1222125
39	0xbd520804	-0.051277176
40	0x3dbe7346	0.092993304
41	0xbd36800d	-0.044555712
42	0xbd365c92	-0.044521876
43	0xbd9e0a21	-0.07716776
44	0x3d3dcf4c	0.04634027
45	0x3d5400c1	0.05175853
46	0xbccaa10e	-0.024735
47	0xbdd9ec99	-0.106408305
48	0xbd5ace7a	-0.053419568
49	0xbe413b41	-0.1887026
50	0x3db4b840	0.088242054
51	0xbe1a5422	-0.15071157
52	0x3e040522	0.12892583
53	0xbdd555cf	-0.10416757
54	0xbca66019	-0.020309495
55	0x3c606ddb	0.013698067
56	0xbdf97981	-0.12181378
57	0xbdafd453	-0.085854195
58	0xbd8bcc68	-0.06826097
59	0x3be1e49f	0.006893709
60	0xbdadd6b7	-0.08488219
61	0xbe0066ad	-0.12539168
62	0xbdf5b5c9	-0.119975634
63	0xbd077af6	-0.03307625
64	0xbe069568	-0.13142931
65	0xbdb8795d	-0.09007523
66	0xbdfcbe8f	-0.12341034
67	0xbcc81aff	-0.024426935
68	0x3d8a7d76	0.06762211
69	0xbdd3872e	-0.10328518
70	0x3c16cd5e	0.009204237
71	0x3ca77ed1	0.020446213
72	0x3dfd7a21	0.1237681
73	0xbd814ab7	-0.06313079
74	0x3de9ad6b	0.1141003
75	0x3ba9ce6d	0.0051820786
76	0xbdb0b464	-0.08628157
77	0x3e0a9ca7	0.1353632
78	0xbe318c3a	-0.17338648
79	0x3dd36f86	0.10324006
80	0xbd6a9b7d	-0.05727719
81	0xbd555ebc	-0.0520923
82	0x3d121dfc	0.035673127
83	0xbde4730a	-0.111547545
84	0xbd88b94b	-0.06675967
85	0xbddcb32f	-0.10776364
86	0x3df0cee5	0.11758212
87	0xbdb98474	-0.090584666
88	0x3cac3574	0.021021582
89	0xbe041803	-0.12899785
90	0xbdbc506d	-0.091950275
91	0x3d992dfa	0.074794725
92	0xbdb7c5bb	-0.08973261
93	0xbe002c49	-0.12516893
94	0x3dbb37a5	0.09141473
95	0x3da243d2	0.07923092
96	0x3de275a5	0.11057595
97	0x3df6f31e	0.1205809
98	0x3d8d753e	0.06907128
99	0xbe34ea36	-0.1766747
100	0xbe038a18	-0.12845647
101	0x3dc561fb	0.09637829
102	0xbe11c0cc	-0.14233702
103	0xbd89d745	-0.067305125
104	0x3d4a567c	0.049398884
105	0x3e03ac2f	0.12858652
106	0xbe03e4ba	-0.12880221
107	0xbd58eb44	-0.05295874
108	0xbd90b58e	-0.07065879
109	0xbd032509	-0.03201774
110	0xbb839ff5	-0.004016871
111	0xbddfd092	-0.109284535
112	0xbd80a0f5	-0.062807
113	0xbe09d840	-0.13461399
114	0xbd995c26	-0.07488279
115	0xbdf279c5	-0.11839632
116	0x3d8d65cf	0.06904184
117	0x3daa4f25	0.08315877
118	0x3daa1252	0.083042756
119	0xbc13ef48	-0.009029217
120	0xbdf81da5	-0.12115029
121	0xbd72fdd3	-0.059324097
122	0xbda3685f	-0.079788916
123	0xbc0748d2	-0.008257108
124	0xbdec10b6	-0.11526625
125	0xbce091d7	-0.027413292
126	0x3deee7ac	0.11665282
127	0xbc81c3e7	-0.015840484
128	0xbd8bcabe	-0.068257794
129	0x3de8a0f5	0.11358825
130	0xbd79d57e	-0.060994618
131	0xbccca829	-0.024982529
132	0xbd8a1a5c	-0.06743309
133	0x3d8114fe	0.06302832
134	0xbe0fcacd	-0.14042206
135	0x3d1f2f9a	0.038863756
136	0x3ca7d243	0.020486003
137	0xbe399e6b	-0.18126838
138	0xbd90c275	-0.0706834
139	0x3e3e2e3a	0.18572322
140	0xbd91d354	-0.07120386
141	0xbdb3272c	-0.08747706
142	0x3d42802d	0.04748552
143	0x3d4e6552	0.050389595
144	0xbd9020d8	-0.070375144
145	0x3e2ecdfc	0.17070764
146	0x3df3c467	0.11902695
147	0xbe0efc80	-0.13963509
148	0x3e2008fb	0.15628426
149	0x3d86642c	0.06562075
150	0xbe0428b4	-0.12906152
151	0xbe22f75a	-0.1591467
152	0xbdaabf0d	-0.08337221
153	0xbd5d8c43	-0.054088842
154	0xbd96753e	-0.07346581
155	0xbc44cf14	-0.012012262
156	0x3e0d50fa	0.13800421
157	0x3e255836	0.16146931
158	0xbd86483e	-0.06556748
159	0xbe160937	-0.14651953
160	0x3dd799b2	0.10527362
161	0xbc2e10d3	-0.010624128
162	0x3debdd30	0.115167975
163	0xbe4cd3e5	-0.20002706
164	0x3d9542c1	0.07288123
165	0x3d6e9fd0	0.058257878
166	0xbdf11ee9	-0.11773474
167	0xbe036cab	-0.12834422
168	0xbc8c55d7	-0.017130775
169	0xbd9e5510	-0.07731068
170	0xbdd7b86d	-0.10533223
171	0x3ce32f48	0.027732506
172	0x3db31cec	0.08745751
173	0xbd385b22	-0.045008786
174	0x3d3ac43b	0.045597296
175	0x3dcc24ec	0.0996798
176	0x3c9fd4d9	0.019510673
177	0xbe23de70	-0.16002822
178	0xbcb84857	-0.022495432
179	0xbdb33bba	-0.08751626
180	0xbe1e69b7	-0.15470015
181	0xbdb6062d	-0.08887897
182	0xbdc29088	-0.095002234
183	0xbd9118a8	-0.07084781
184	0x3dc449eb	0.09584411
185	0x39d01adf	0.00039692872
186	0xbb0c895d	-0.002144418
187	0xbe0c6d18	-0.13713491
188	0x3ca4b6c6	0.020106684
189	0x3d919a26	0.071094796
190	0x3dba3c46	0.090935275
191	0x3e09774a	0.13424411
192	0xbdc9b7bb	-0.09849497
193	0x3c49fa1a	0.012327695
194	0x3deebddf	0.11657309
195	0xbcf91c69	-0.030409055
196	0x3def2389	0.116767
197	0xbe00da96	-0.12583384
198	0xbddeb53c	-0.108744115
199	0x3e0e1a6c	0.13877267
200	0x3bca5ed4	0.006175855
201	0x3d597c3b	0.05309699
202	0x3dc2920d	0.09500513
203	0xbdad87a9	-0.08473141
204	0xb99959e8	-0.0002924942
205	0xbdbfb507	-0.093607
206	0xbe08d66e	-0.13363048
207	0xbdb8ec38	-0.0902943
208	0xbd3ad977	-0.045617547
209	0x3d96bf3f	0.07360696
210	0x3cdaa58a	0.026690263
211	0xbdd663d1	-0.10468257
212	0xbdb39919	-0.087694354
213	0xbb13c5eb	-0.0022548388
214	0xbbf16c2d	-0.007367632
215	0xbd17bb32	-0.037043758
216	0xbe0f30d7	-0.13983475
217	0xbb08713d	-0.0020819448
218	0xbd4e8197	-0.050416555
219	0xbdd0e98f	-0.10200798
220	0xbd180a27	-0.037119057
221	0x3d2e8d67	0.04261532
222	0xbe13c6f3	-0.14431362
223	0xbdc66122	-0.09686495
224	0x3c910f9c	0.017707638
225	0xbddb7689	-0.10715968
226	0x3d96d7cb	0.07365378
227	0xbdca899a	-0.09889527
228	0x3d38a4ae	0.045078926
229	0x3c2c1e7f	0.010505318
230	0xbe2e0e82	-0.16997722
231	0xbd483b35	-0.04888459
232	0xbd1ed20f	-0.038774546
233	0xbdf1150a	-0.11771591
234	0x3ddc8db9	0.10769219
235	0x3c863ee2	0.016387407
236	0x3d825db5	0.063655294
237	0xbdd11a49	-0.102100916
238	0xbcd64fc7	-0.026161088
239	0x3dde1005	0.10842899
240	0x3df26272	0.11835183
241	0x3e05a266	0.13050231
242	0xbb304d8b	-0.0026901688
243	0xbd9d1d6d	-0.07671628
244	0x3d5ee44c	0.05441694
245	0xbd8cb0de	-0.06869672
246	0x3a1fac3b	0.0006091033
247	0x3db6a371	0.08917893
248	0x3c89ffc0	0.016845584
249	0x3d55943f	0.05214333
250	0xbd7a3026	-0.061081074
251	0x3d98b82d	0.07457004
252	0xbdd1296d	-0.102129795
253	0xbda1a0fb	-0.07892033
254	0xbd564789	-0.052314315
255	0x3d9a1199	0.07522888

fc3.bias f4 [10]
0	0xbd06f896	-0.032951914
1	0x3d3bee3a	0.045881487
2	0x3c589926	0.013220107
3	0x3d57b2c0	0.052660704
4	0x3d50e918	0.051003546
5	0xbd559ec7	-0.052153375
6	0x3d3ec813	0.046577524
7	0xbdf41171	-0.11917389
8	0xbcb59c6c	-0.022169314
9	0xbd0c981b	-0.034324747
