models/client-20-0.pth (torch, 13424 bytes, 5 tensors)

fc1.weight f4 [64, 8]
0	0xbe7dc429	-0.2478186
1	0xbe638f01	-0.2222252
2	0x3c5a5100	0.013324976
3	0xbdedd174	-0.11612216
4	0xbe616466	-0.22010955
5	0x3e9d51d5	0.30726495
6	0x3b7c8502	0.0038531427
7	0x3cc949a2	0.024571244
8	0x3e624022	0.22094777
9	0xbc62d55e	-0.013844816
10	0x3e3eb408	0.18623364
11	0xbe2f30cb	-0.17108457
12	0xbe0dca63	-0.13846736
13	0xbeaa627a	-0.33278257
14	0xbe17eba4	-0.14835984
15	0xbdcbbd2b	-0.0994819
16	0x3e43d2e8	0.19123423
17	0xbd749fb7	-0.05972263
18	0xbda085da	-0.0783803
19	0xbdda5731	-0.10661162
20	0xbc5c9aff	-0.013464688
21	0x3e39fd02	0.18162921
22	0x3e8b81fe	0.27247614
23	0xbe0de1b0	-0.13855624
24	0x3e964b64	0.29354393
25	0x3eace1eb	0.33766112
26	0x3e12b9b6	0.14328656
27	0x3e374602	0.178978
28	0xbea2f73c	-0.3182925
29	0xbe53c624	-0.20681053
30	0x3cfd4a82	0.030919317
31	0x3e9cf605	0.30656448
32	0x3d5c2fac	0.0537564
33	0xbea4868a	-0.32133895
34	0x3e876265	0.26442257
35	0x3cd888f0	0.026432484
36	0xbe4a8bf7	-0.19779955
37	0xbd3d6110	-0.046235144
38	0x3dbabc78	0.09117979
39	0x3e972d68	0.2952683
40	0xbe187ac8	-0.14890587
41	0x3d5bc929	0.05365864
42	0xbccf3992	-0.025296006
43	0x3e524730	0.20534968
44	0x3e57cc63	0.21074061
45	0x3e7f290b	0.24918
46	0xbdcbb3c1	-0.09946395
47	0xbd07d2f8	-0.03316018
48	0xbe938065	-0.28808895
49	0x3e3b9dde	0.1832194
50	0xbe6c973b	-0.23104565
51	0xbe62ad80	-0.22136497
52	0xbdb6f166	-0.08932762
53	0x3e916385	0.2839624
54	0xbeafece6	-0.34360427
55	0xbea24dc3	-0.31699952
56	0x3e56361c	0.20919079
57	0x3ea10ff6	0.3145749
58	0xbe8b0fee	-0.2716059
59	0x3e0bf446	0.13667402
60	0xbe02e85e	-0.12783954
61	0xbeaba42a	-0.33523685
62	0x3e4c92e5	0.19977911
63	0x3e9eddb0	0.3102851
64	0xbd2b4820	-0.04181683
65	0x3e684840	0.22683811
66	0x3d16aa90	0.036783755
67	0xbd3b71da	-0.045762874
68	0x3de05986	0.10954575
69	0xbe9e0fb6	-0.30871361
70	0x3cf7463e	0.030184861
71	0xbeb2a6d2	-0.348929
72	0x3eaab39f	0.33340165
73	0x3e3ec9a8	0.18631613
74	0xbc1ae71f	-0.009454518
75	0x3eb3384a	0.35003883
76	0x3e8deddd	0.27720538
77	0x3eafc466	0.34329528
78	0xbdd81ec0	-0.1055274
79	0xbc2d71c1	-0.010586203
80	0x3eb2bb7e	0.3490867
81	0xbbea2e40	-0.0071466267
82	0xbe8c5af0	-0.2741313
83	0x3ea353e6	0.31899947
84	0x3e8b2ad0	0.271811
85	0xbd925668	-0.07145387
86	0xbe52592c	-0.20541829
87	0x3e8a8032	0.2705093
88	0x3e64a52b	0.22328632
89	0xbce4c49f	-0.027925787
90	0x3e3cbc1a	0.1843113
91	0x3e5df55a	0.21675625
92	0x3ea8fdc8	0.3300612
93	0x3ea3c287	0.3198435
94	0x3da9a864	0.08284071
95	0xbe965f6b	-0.29369673
96	0xbd87b155	-0.0662562
97	0xbda010d0	-0.07815707
98	0xbc7b91df	-0.015354603
99	0xbc1ecb60	-0.009692043
100	0xbe0abfc8	-0.13549721
101	0x3e5324e5	0.20619543
102	0x3dde6638	0.108593404
103	0x3e7aedbb	0.2450475
104	0xbe6313bf	-0.22175501
105	0xbe3f33ec	-0.1867215
106	0x3d3c0211	0.04590041
107	0xbdd6a4f2	-0.104806796
108	0x3df368e1	0.118852384
109	0xbe544cc7	-0.20732413
110	0x3eacbd9c	0.3373841
111	0xbe55fd71	-0.20897461
112	0x3dacd8cf	0.084397905
113	0xbe9e3fda	-0.3090809
114	0x3d0879a8	0.033319145
115	0x3e00e414	0.12587005
116	0xbcdd3a0b	-0.027005216
117	0x3dc41d66	0.0957592
118	0x3e5350a8	0.20636237
119	0xbcb6f86f	-0.02233526
120	0xbe471f22	-0.1944547
121	0x3eb4323a	0.3519457
122	0xbdd15b08	-0.10222441
123	0xbe85b4e3	-0.26114568
124	0xbe91d52a	-0.28482944
125	0xbdd91728	-0.1060012
126	0x3e4980b2	0.19678
127	0x3e4820d8	0.19543779
128	0xbd5c3512	-0.05376155
129	0xbe0800fc	-0.13281626
130	0xbe8f9a28	-0.280473
131	0x3eac197a	0.33613187
132	0x3ea28530	0.3174224
133	0xbe8a0904	-0.26960003
134	0x3dd51f53	0.10406365
135	0x3e774120	0.24145937
136	0x3ea05dca	0.31321555
137	0x3e65d7cd	0.22445603
138	0x3e31c7e4	0.17361408
139	0xbe3153bc	-0.17317098
140	0x3d000ea0	0.031263947
141	0x3e14192b	0.14462726
142	0xbe4b1b22	-0.19834569
143	0xbd3c9d00	-0.046048164
144	0x3eb46e91	0.35240605
145	0xbe9f88c6	-0.31159037
146	0xbeafa3c2	-0.34304625
147	0x3eb22d11	0.34800008
148	0x3d9f1e39	0.077694364
149	0xbd498c23	-0.04920591
150	0x3e2cb1aa	0.16864648
151	0x3e052d46	0.13005552
152	0xbe4b0f0d	-0.1982996
153	0xbe62b280	-0.22138405
154	0x3ea55766	0.32293242
155	0xbe49357e	-0.19649312
156	0x3e22f23d	0.15912719
157	0x3e2aa932	0.16666105
158	0xbc345de1	-0.011008711
159	0x3e7db652	0.24776581
160	0x3c0e19a0	0.008673102
161	0x3e82e436	0.25564736
162	0x3e9d30ab	0.30701193
163	0x3e04a952	0.12955216
164	0xbe7c55bc	-0.2464208
165	0xbe33aafc	-0.17545694
166	0x3e9862d4	0.297629
167	0xbe4999ba	-0.19687548
168	0xbc40dbc0	-0.0117711425
169	0x3ea680ff	0.3252029
170	0xbe964112	-0.2934652
171	0x3d1f2ef8	0.038863152
172	0xbdbdcc6b	-0.09267505
173	0x3e3daab2	0.18522146
174	0xbd385ae1	-0.045008544
175	0xbe4dc036	-0.20092854
176	0x3d2f0604	0.042730346
177	0xbeb49f31	-0.35277703
178	0x3ea64d4a	0.32480842
179	0xbe9b9fa8	-0.30395246
180	0xbce7a160	-0.028275192
181	0x3e3bf4cc	0.18355101
182	0x3e049f92	0.12951496
183	0xbda592a2	-0.080846086
184	0x3e0d6fa7	0.13812123
185	0xbe73a70a	-0.23794189
186	0xbdceb641	-0.10093356
187	0x3ead2945	0.3382055
188	0xbe830b5c	-0.25594604
189	0x3e058440	0.1303873
190	0x3cd08a20	0.025456488
191	0x3e8c5c70	0.27414274
192	0x3eb09211	0.3448644
193	0xbe9f85de	-0.3115682
194	0xbe2aa3fe	-0.1666412
195	0x3da97869	0.082749195
196	0x3e36d73d	0.17855544
197	0xbdac93c7	-0.08426624
198	0x3e16f5c6	0.14742193
199	0x3e0ff840	0.14059544
200	0x3ca704d1	0.020388039
201	0x3e78af42	0.24285606
202	0x3cca0020	0.024658263
203	0xbe329798	-0.17440641
204	0x3dd1c167	0.10241967
205	0x3e8bb971	0.27289918
206	0xbe6b7347	-0.22993194
207	0xbe4f8223	-0.20264487
208	0xbe243040	-0.16034031
209	0x3e3f1803	0.18661503
210	0x3ea11f40	0.31469154
211	0xbe872a24	-0.26399338
212	0xbd30a9f2	-0.043130822
213	0xbe6183c4	-0.22022921
214	0x3e39c9ee	0.18143436
215	0x3e3718aa	0.17880502
216	0xbd5dda98	-0.054163545
217	0xbe9e0bfc	-0.30868518
218	0x3c827cb0	0.015928596
219	0x3e3f0e7a	0.18657866
220	0xbc8ce1b0	-0.01719746
221	0x3e8f0df5	0.27940336
222	0x3e2346cb	0.15944974
223	0xbc4bbe60	-0.012435526
224	0x3e115e42	0.14196113
225	0x3d8e2b34	0.06941834
226	0x3e1ff036	0.15618977
227	0xbe47b5c5	-0.19502933
228	0xbe09d874	-0.13461477
229	0x3e6b0202	0.22949985
230	0xbcc70e61	-0.024298849
231	0x3e861c72	0.26193577
232	0x3dad8857	0.084732704
233	0xbeb3d0e2	-0.35120302
234	0x3e0bcc3c	0.13652128
235	0xbe24dcf4	-0.16099912
236	0xbe8e2c54	-0.27768195
237	0xbbac7bc0	-0.0052637756
238	0x3e3a5480	0.18196297
239	0x3e75a80f	0.2398989
240	0xbd1c1b10	-0.038111746
241	0x3dc0597b	0.09392067
242	0xbe51f99b	-0.20505373
243	0xbe1a56c9	-0.15072168
244	0xbe2f9732	-0.1714752
245	0x3e949344	0.29018605
246	0xbe8da96e	-0.27668327
247	0x3e34c0ae	0.17651626
248	0xbe995cfa	-0.29953748
249	0xbe0d7a24	-0.13816124
250	0x3e758620	0.23976946
251	0x3e0beb37	0.13663946
252	0xbe5312bc	-0.20612615
253	0xbe14a72c	-0.14516896
254	0xbaa66f00	-0.0012697875
255	0x3e35008f	0.17675994

fc1.bias f4 [64]
0	0x3e725e02	0.23668674
1	0xbe7e036b	-0.24805991
2	0x3e72c2e2	0.23707154
3	0x3deb2734	0.11482087
4	0xbd1fa8a9	-0.038979206
5	0x3b0ad97f	0.0021186767
6	0xbe9dc25c	-0.30812347
7	0x3dc13a44	0.094349414
8	0xbe8c7fa4	-0.27441132
9	0xbd88bcb0	-0.06676614
10	0x3d8bb792	0.06822123
11	0xbeb13252	-0.34608704
12	0x3ea795fd	0.3273162
13	0x3e8421d2	0.25807053
14	0x3e71de68	0.23619998
15	0xbe281a34	-0.16416246
16	0xbe9ec4a6	-0.31009406
17	0x3e155322	0.14582494
18	0xbdb82857	-0.08992069
19	0x3ea11146	0.3145849
20	0x3e197fc2	0.14990142
21	0x3eb4ff51	0.3535104
22	0x3ea062e9	0.31325462
23	0x3e9e955a	0.3097332
24	0xbe46e1f1	-0.19422127
25	0xbc84bf60	-0.016204536
26	0x3e943016	0.28942937
27	0x3e88296b	0.265941
28	0x3e1e60c2	0.15466598
29	0x3dbf3500	0.09336281
30	0xbe799a52	-0.24375275
31	0xbe8163e8	-0.25271535
32	0x3e8a9ea5	0.2707416
33	0x3e7a7356	0.2445806
34	0xbdd94221	-0.10608316
35	0xbe9831c2	-0.29725462
36	0xbe24fb82	-0.16111568
37	0xbe4fc986	-0.20291719
38	0xbddd5b18	-0.108083904
39	0x3ea3d273	0.31996498
40	0x3eaf596c	0.3424791
41	0xbe4dbd27	-0.20091687
42	0xbd5a0770	-0.05322975
43	0xbe83433a	-0.25637227
44	0x3ca2bc10	0.019865066
45	0xbe6b76b5	-0.22994502
46	0x3ddbf6f8	0.10740465
47	0xbe82bba4	-0.25533783
48	0xbe6dd5ef	-0.2322614
49	0x3e7184d6	0.23585829
50	0x3e268ad0	0.1626389
51	0x3e9021a1	0.28150657
52	0x3de619ad	0.11235366
53	0x3ea4f074	0.322147
54	0x3ea62163	0.32447347
55	0xbe8b4861	-0.27203658
56	0x3d043a90	0.032282412
57	0x3ea094b6	0.31363457
58	0x3e5dc1ed	0.21656008
59	0xbe54303a	-0.20721522
60	0xbe98c70c	-0.2983936
61	0x3e4353de	0.19074962
62	0x3d34c351	0.04413158
63	0x3dce3db4	0.10070363

fc2.weight f4 [32, 64]
0	0x3dab16e6	0.08353977
1	0x3bde6d62	0.006787942
2	0x3d5d8420	0.054081082
3	0x3df5608e	0.11981307
4	0x3da3ba21	0.07994486
5	0x3beddce0	0.0072589964
6	0xbd1f6a52	-0.038919754
7	0x3decafc4	0.11556962
8	0x3d855ebe	0.06512211
9	0xbdb0f224	-0.08639935
10	0xbd867860	-0.065659285
11	0x3d941a44	0.07231572
12	0x3df86187	0.12127977
13	0x3c34a13e	0.011024771
14	0xbd1f6a60	-0.038919806
15	0xbde1bae3	-0.11021974
16	0x3d8b4999	0.06801147
17	0x3ca268a8	0.019825295
18	0xbd588527	-0.05286136
19	0xbde45415	-0.1114885
20	0xbd6e7712	-0.058219023
21	0xbd05841d	-0.032596696
22	0xbdeb2ea4	-0.11483505
23	0xbdad5037	-0.084625654
24	0xbd678cd0	-0.056530774
25	0x3d24354c	0.04008989
26	0xbddd8abc	-0.10817477
27	0xbd051d50	-0.032498658
28	0xbd9de49a	-0.07709618
29	0x3cb23808	0.021755233
30	0xbda9e24c	-0.08295116
31	0xbcbb4cb4	-0.022863723
32	0xbd4f367a	-0.050589062
33	0x3d0a8c30	0.0338251
34	0x3d150271	0.03637928
35	0x3dfae4fb	0.12250706
36	0x3de9853a	0.11402364
37	0xbcb45ace	-0.022015955
38	0xbd92898e	-0.07155143
39	0x3df3de70	0.11907661
40	0xbdc2f4d1	-0.09519351
41	0xbd96b6f4	-0.07359114
42	0xbdee7a80	-0.11644459
43	0xbda682fc	-0.08130452
44	0xbddfb286	-0.109227225
45	0x3cadf4f0	0.02123496
46	0xbd9cd3b8	-0.0765757
47	0x3d6973ac	0.05699508
48	0xbd9974c1	-0.07492972
49	0xbd44f5b2	-0.048085876
50	0x3d4b2cde	0.049603336
51	0x3c8705f6	0.016482335
52	0x3dedd31c	0.116125315
53	0x3d534a94	0.051584795
54	0x3ce01ad2	0.027356539
55	0x3d876c15	0.06612412
56	0xbdd5977c	-0.10429284
57	0x3d47ff3c	0.048827395
58	0x3dfc030a	0.12305267
59	0xbd979fa6	-0.074034974
60	0x3dcf7e7a	0.10131545
61	0xbd0b6f98	-0.03404197
62	0x3d5e203e	0.054229967
63	0x3ce87339	0.028375255
64	0xbce092d5	-0.027413765
65	0xbc5625d1	-0.01307054
66	0xbdefa219	-0.117008395
67	0x3dc21fa5	0.09478692
68	0xbda4f4d8	-0.08054513
69	0xbde4bbfc	-0.11168668
70	0x3d70050f	0.058598574
71	0x3dd19dca	0.10235174
72	0x3b65f8be	0.003509089
73	0xbd715ffa	-0.05892942
74	0xbdcc2fb9	-0.0997004
75	0xbd5d7870	-0.054069936
76	0xbcd550ee	-0.026039567
77	0xbdc4be8e	-0.09606658
78	0x3df23ef7	0.11828416
79	0xbd0634ac	-0.032765076
80	0x3df2ca00	0.11854935
81	0xbda42e44	-0.08016637
82	0xbd983e76	-0.074337885
83	0xbc99b8d7	-0.018764896
84	0xbd404cc7	-0.04694822
85	0xbdbdad8d	-0.09261618
86	0xbdb05ffb	-0.08612057
87	0x3d8ac8ff	0.06776618
88	0x3df6bab8	0.120473325
89	0xbd6fc0ee	-0.0585336
90	0x3ced0608	0.02893354
91	0xbc952168	-0.018204406
92	0x3df6e99a	0.12056275
93	0xbce8be4a	-0.02841105
94	0xbdb6064e	-0.08887921
95	0x3db285c7	0.08716922
96	0xbda6d748	-0.081465304
97	0xbdfaf7fc	-0.122543305
98	0xbdda7d44	-0.10668424
99	0x3d87f13c	0.06637809
100	0xbd8eccdd	-0.06972668
101	0xbd87b180	-0.06625652
102	0xbdf712c6	-0.120641276
103	0xbdc26868	-0.0949257
104	0x3c3b3cc2	0.01142806
105	0x3dbdf320	0.09274888
106	0xbcedf48f	-0.029047279
107	0x3d3a58ad	0.045494724
108	0x3ced73dd	0.028985912
109	0x3bba8ae0	0.0056928247
110	0x3d024a50	0.03180915
111	0xb9f841ff	-0.00047351417
112	0xbd054058	-0.032532066
113	0xbddd0088	-0.10791117
114	0xbd82288a	-0.063553885
115	0x3dff0a3a	0.124531224
116	0x3d97613b	0.07391592
117	0x3d996454	0.07489839
118	0x3d8d4a9c	0.06898996
119	0xbdef0208	-0.11670309
120	0xbbcbb220	-0.0062163025
121	0x3df8020c	0.121097654
122	0x3dbe0b86	0.09279542
123	0xbdd3a4a2	-0.103341356
124	0xbd889a04	-0.06670001
125	0x3c8bc980	0.017063856
126	0xbcf1ef00	-0.02953291
127	0xbca6f808	-0.020381942
128	0x3b8511a1	0.0040609394
129	0xbddecbf5	-0.108787455
130	0xbd903b32	-0.070425406
131	0xbd8cac4c	-0.068688005
132	0x3d99c95a	0.07509108
133	0xbd005118	-0.031327337
134	0x3da430e3	0.08017137
135	0xbdcbb39d	-0.09946368
136	0xbdcb547a	-0.09928222
137	0x3dd3a993	0.10335078
138	0x3dc74d02	0.09731485
139	0x3dc70548	0.09717804
140	0x3dee4c52	0.11635651
141	0x3dbe229a	0.092839435
142	0xbdcd5e24	-0.100277215
143	0x3dffb972	0.12486543
144	0xbd20dc07	-0.039272334
145	0x3de0ab5e	0.10970186
146	0x3d3185f3	0.043340635
147	0xbda42f39	-0.080168195
148	0x3c6b9871	0.014379607
149	0x3de1d128	0.110262215
150	0xbd35c175	-0.044373948
151	0xbdcf045e	-0.10108255
152	0x3bccb081	0.006246627
153	0xbd5a3410	-0.053272307
154	0xbd867e0c	-0.0656701
155	0x3dac2012	0.084045544
156	0xbccdeac6	-0.025136363
157	0xbdf9ea4a	-0.1220289
158	0xbcde2435	-0.027116874
159	0xbce0d98f	-0.02744749
160	0x3be282e1	0.0069125746
161	0x3c8a6268	0.016892627
162	0xbdcce814	-0.10005203
163	0x3d36e2a4	0.044649735
164	0xbac6ccfd	-0.0015167292
165	0x3cbd2c80	0.023092508
166	0x3d10cc28	0.03535095
167	0x3bfc3dc0	0.007697791
168	0x3dbe8c97	0.09304159
169	0xbdc20fc8	-0.09475666
170	0xbdb7055d	-0.0893657
171	0x3ddb6bd4	0.10713926
172	0x3df4c176	0.11950962
173	0xbde6121b	-0.11233922
174	0x3d172828	0.03690353
175	0xbd5efef9	-0.05444238
176	0x3dcce937	0.1000542
177	0x3dbff615	0.09373108
178	0x3cac74a1	0.021051707
179	0x3d9bcac3	0.07607033
180	0xbd0989a8	-0.033578545
181	0x3cdf32ad	0.027245844
182	0xbddec02e	-0.10876499
183	0xbdd3c92a	-0.103411034
184	0xbd3712ad	-0.044695545
185	0xbd23faf0	-0.040034235
186	0xbdef1b00	-0.11675072
187	0xbd3638b9	-0.04448769
188	0x3d70103a	0.058609225
189	0x3dac430a	0.08411224
190	0xbd2fde26	-0.042936467
191	0x3db5b049	0.08871514
192	0x3d44cfd4	0.048049763
193	0xbcbf7f70	-0.023376197
194	0x3dbc5c76	0.09197323
195	0xbd2982ff	-0.041384693
196	0x3d26a607	0.04068568
197	0x3d28b2d4	0.04118617
198	0x3dc8180a	0.0977021
199	0x3d8fa944	0.07014707
200	0xbda1ff0a	-0.07909973
201	0xbd75d233	-0.060014915
202	0xbd8069a0	-0.06270146
203	0xbd8d68fe	-0.06904791
204	0xbc515503	-0.012776616
205	0xbddcb0d0	-0.10775912
206	0xbde1c9b6	-0.110248014
207	0x3cce2ff1	0.025169345
208	0xbdfb4d6a	-0.12270625
209	0xbd642df8	-0.0557079
210	0x3d60d611	0.05489165
211	0xbcb955df	-0.022623954
212	0x3dea0945	0.11427549
213	0xbdfe16fc	-0.12406728
214	0x3cd283d1	0.02569762
215	0xbdbd18ed	-0.0923327
216	0xbcbc9f26	-0.023025107
217	0x3cf29d43	0.029616004
218	0x3c955b1e	0.018231925
219	0xbdcfc840	-0.101456165
220	0xbde5799c	-0.11204836
221	0xbd6dc7a2	-0.058051713
222	0xbc70103e	-0.01465231
223	0x3a82c780	0.0009977669
224	0x3d0c0ca8	0.034191757
225	0xbdfaa730	-0.1223892
226	0x3c872d2e	0.016501036
227	0xbddd32c2	-0.10800697
228	0x3bf59fbf	0.00749585
229	0x3ce35f78	0.027755484
230	0xbc7e87b0	-0.01553528
231	0xbc6c0531	-0.014405535
232	0x3c9b6a27	0.018971516
233	0x3cbba0c7	0.022903813
234	0xbdf159fe	-0.11784743
235	0xbdf45c18	-0.11931628
236	0xbd00955c	-0.03139244
237	0xbd0f9030	-0.035049617
238	0xbda3f1b6	-0.08005087
239	0x3db2f314	0.0873777
240	0x3b101f40	0.0021991283
241	0xbc000852	-0.007814484
242	0xbd0d006c	-0.03442423
243	0xbde24eb0	-0.11050165
244	0xbdecc8d0	-0.115617394
245	0x3c1ebf3f	0.009689151
246	0xbddd6186	-0.10809617
247	0x3d83478e	0.06410132
248	0xbdae774e	-0.08518849
249	0xbde7c764	-0.113173276
250	0x3dacd2c6	0.08438639
251	0x3dd5bf56	0.10436885
252	0x3db08cb6	0.086205885
253	0xbc32e14f	-0.010917976
254	0x3df819a9	0.12114269
255	0x3d8c5045	0.06851248

fc2.bias f4 [32]
0	0x3dcb1a0a	0.09917076
1	0xbdeb385a	-0.114853576
2	0x3db904ea	0.090341404
3	0xbc4ee84e	-0.012628628
4	0x3aee4efd	0.0018181499
5	0x3cc142a6	0.02359135
6	0xbdf32c24	-0.118736535
7	0xbd96dc79	-0.073662706
8	0x3dc4eae9	0.09615118
9	0xbccdfbb8	-0.025144443
10	0x3de91cfe	0.11382483
11	0xbdceb28c	-0.10092649
12	0x3ddd77c2	0.108138576
13	0xbd2ef0a5	-0.042709965
14	0xbdccb75d	-0.09995911
15	0xbdb62710	-0.08894169
16	0x3dd75d8e	0.10515891
17	0x3dd4ae35	0.1038479
18	0x3dec50bc	0.11538836
19	0x3dc4fd6e	0.096186504
20	0x3cbf2e66	0.023337554
21	0xbdd39bbe	-0.1033244
22	0xbde0b4ab	-0.1097196
23	0xbcf4aec9	-0.0298685
24	0xbda0d16e	-0.078524455
25	0xbdf1573a	-0.11784215
26	0xbdd1d0ba	-0.102448896
27	0x3d8572cc	0.065160364
28	0xbdd4c460	-0.10389018
29	0xbd317d3a	-0.043332316
30	0x3dc0afef	0.09408557
31	0xbdfb3fa0	-0.12267995

fc3.weight f4 [1, 32]
0	0x3d960053	0.073242806
1	0x3cb0f66e	0.021601882
2	0x3d9b2b6d	0.07576642
3	0xbdfc93e6	-0.12332897
4	0x3e12004f	0.1425793
5	0xbd0326e4	-0.03201951
6	0x3e1bc725	0.15212686
7	0x3e278388	0.16358769
8	0x3d0e09dc	0.03467737
9	0x3e001e1d	0.12511487
10	0x3cd81940	0.026379228
11	0xbe1cb44c	-0.15303153
12	0xbd9fbc91	-0.07799638
13	0x3db72af4	0.089437395
14	0x3ccbd99a	0.024884034
15	0x3e27d4d5	0.16389783
16	0x3bac77a1	0.0052632843
17	0xbe22d3fe	-0.15901181
18	0xbd2c041d	-0.04199611
19	0x3c791410	0.015202537
20	0x3c14d990	0.009085074
21	0x3d5d4a2c	0.054025814
22	0xbce8c888	-0.028415933
23	0xbd98e64e	-0.07465802
24	0x3d5b29df	0.05350673
25	0x3d8fb012	0.070160046
26	0x3d96ce2a	0.073635414
27	0xbe2dacbc	-0.16960424
28	0xbcfea771	-0.031085702
29	0x3d009be8	0.031398684
30	0xbd4fafc6	-0.05070474
31	0xbcda12c8	-0.026620284
