models/client-3-1.pth (torch, 181282 bytes, 10 tensors)

conv1.weight f4 [6, 1, 5, 5]
0	0xbdbda529	-0.092600174
1	0x3d90eccd	0.07076416
2	0xbdc6f07c	-0.097138375
3	0xbe271ce6	-0.16319618
4	0x3d6427b4	0.055701926
5	0x3e837996	0.256787
6	0xbdb7d099	-0.08975334
7	0x3d030fe9	0.031997595
8	0x3d2c922f	0.0421316
9	0x3de1bc68	0.11022264
10	0x3e893fcd	0.2680649
11	0x3ea68bc6	0.32528514
12	0x3e9e6205	0.30934158
13	0x3da8d1d4	0.082431465
14	0x3e214ff5	0.15753157
15	0x3e21aed9	0.15789355
16	0x3e952ac2	0.29134184
17	0x3e088bca	0.13334575
18	0x3e12d98b	0.14340799
19	0x3e67441f	0.2258458
20	0x3afc59c2	0.0019252824
21	0xbdf3a433	-0.11896553
22	0xbe179e37	-0.14806448
23	0xbd3c238e	-0.045932345
24	0xbdf1a5b3	-0.11799183
25	0x3ddf4c85	0.10903267
26	0x3e60a1f4	0.2193678
27	0x3d536061	0.051605586
28	0x3e004926	0.12527904
29	0x3e753356	0.23945364
30	0x3e2bdba8	0.16783011
31	0xbe12ddec	-0.14342469
32	0x3db65899	0.089036174
33	0xbdab25e0	-0.083568335
34	0x3dbee339	0.09320683
35	0xbe877570	-0.26456785
36	0xbe6c38e2	-0.23068574
37	0x3e33eb36	0.17570195
38	0xbd99bc7b	-0.07506653
39	0x3e85eaae	0.2615561
40	0xbe783a48	-0.24240983
41	0x3e0905fd	0.1338119
42	0x3e264244	0.16236216
43	0xbd33205b	-0.04373203
44	0x3e8d0fab	0.27551016
45	0xbe83acd8	-0.25717807
46	0x3da6e0e8	0.08148366
47	0xbe0f6616	-0.14003786
48	0x3d628440	0.055301905
49	0x3dbd0abe	0.092305645
50	0x3dc53d60	0.09630847
51	0xbdab56fd	-0.08366201
52	0x3dcdcd0b	0.100488745
53	0xbdb43c04	-0.088005096
54	0xbcbc5880	-0.022991419
55	0x3e7bfcbf	0.24608134
56	0x3d85594e	0.06511174
57	0xbe3c162a	-0.1836783
58	0xbe6d507d	-0.23175235
59	0xbe2fec45	-0.17179973
60	0x3e93a16c	0.28834093
61	0x3e3fec4a	0.18742481
62	0xbd925421	-0.071449526
63	0xbdcda6f4	-0.100416094
64	0x3cf18291	0.029481204
65	0x3e848d51	0.25889066
66	0x3d36ca44	0.04462649
67	0xbdad51a5	-0.08462838
68	0xbd68360b	-0.056692164
69	0xbe6716c6	-0.22567281
70	0x3d5a6e49	0.053327832
71	0x3e47b130	0.19501185
72	0x3d4ccc5e	0.049999587
73	0x3d4ecf04	0.050490394
74	0xbd5d0bf9	-0.053966496
75	0x3e9e1eb4	0.308828
76	0x3e3cdd09	0.18443693
77	0x3ea65221	0.32484534
78	0x3ea2851b	0.31742176
79	0x3e723d10	0.23656106
80	0x3cdcefd1	0.026969822
81	0x3dc35653	0.095379494
82	0x3ea95113	0.33069667
83	0x3e2c9982	0.16855434
84	0x3e0c1f7d	0.13683887
85	0x3e2f8675	0.17141135
86	0xbe13a4a5	-0.14418276
87	0x3e064112	0.1311076
88	0xbab1aa69	-0.0013554815
89	0x3e003b5f	0.12522648
90	0xbe8d6035	-0.27612463
91	0xbd8b0895	-0.06788746
92	0xbe8e6655	-0.27812448
93	0xbe6a9437	-0.22908102
94	0x3e0e084e	0.13870355
95	0xbeb5149f	-0.35367295
96	0xbebaea5f	-0.36506936
97	0xbdd2d87b	-0.102951966
98	0xbc67ca19	-0.014147305
99	0xbe05e308	-0.13074887
100	0x3e4b28fe	0.19839856
101	0x3e773bf4	0.24143964
102	0x3ce1ed68	0.027579024
103	0xbdceb489	-0.10093028
104	0xbe6362f2	-0.22205713
105	0x3c5bc3be	0.013413368
106	0x3e0deb61	0.13859321
107	0xbdbf7aa8	-0.09349567
108	0xbe40e704	-0.18838125
109	0xbe0d1bff	-0.13780211
110	0x3e6d2404	0.2315827
111	0x3e837e48	0.25682282
112	0xbd91b11b	-0.07113858
113	0x3ce2536b	0.027627667
114	0xbd39ebc8	-0.045390874
115	0x3e0299b6	0.12753949
116	0x3e05d9dd	0.1307139
117	0x3e9f026a	0.3105653
118	0x3da6f656	0.081524536
119	0x3e9926f6	0.29912537
120	0x3e63e32c	0.22254628
121	0x3e2e3a55	0.1701444
122	0x3e902564	0.28153527
123	0x3db072e5	0.086156644
124	0x3ddb1c72	0.10698785
125	0xbe071e9f	-0.13195275
126	0xbdae2990	-0.08504021
127	0xbce02468	-0.02736111
128	0xbd987a27	-0.07445174
129	0x3e0ffb92	0.1406081
130	0x3d829a0e	0.0637704
131	0x3d20e889	0.039284263
132	0x3e3de285	0.18543442
133	0x3e02e646	0.12783155
134	0x3e80097c	0.25007236
135	0x3d1a1bc9	0.037624154
136	0x3e8407ef	0.25787303
137	0x3db7a4e4	0.08966997
138	0x3ebee8b8	0.37286925
139	0x3ebabbce	0.3647141
140	0xbd967bde	-0.073478445
141	0x3e427bb8	0.18992507
142	0x3e8810fe	0.26575464
143	0x3eb33cd6	0.35007352
144	0x3e17b10f	0.14813636
145	0xbdc221b6	-0.09479086
146	0x3e6edbb3	0.23325996
147	0x3d23c7a7	0.039985325
148	0x3e6ef882	0.23336986
149	0xbde5ae6a	-0.112149075

conv1.bias f4 [6]
0	0xb91044b9	-0.00013758511
1	0x3b50cc0b	0.00318599
2	0x3be01508	0.0068384446
3	0x3bc51dfa	0.0060155364
4	0xbd99afea	-0.07504256
5	0x3d5c8179	0.053834412

conv2.weight f4 [16, 6, 5, 5]
0	0xbe0062f2	-0.12537745
1	0xbd713051	-0.05888397
2	0xbc006e78	-0.007838838
3	0x3c740ec8	0.014896102
4	0xbc3e942d	-0.011632008
5	0xbc5ceced	-0.013484222
6	0x3daf7679	0.08567519
7	0x3e2868d0	0.16446233
8	0x3ca422f2	0.020036194
9	0x3d199be4	0.037502185
10	0x3da2a872	0.07942285
11	0x3cc4f7ff	0.024044035
12	0xbd03cc92	-0.032177515
13	0x3cc68076	0.024231177
14	0x3de3c07d	0.111206986
15	0xbcd38ba5	-0.025823424
16	0xbd9c64a7	-0.076363854
17	0xbdaa4c72	-0.08315362
18	0xbdbc7ac8	-0.09203106
19	0xba9e0001	-0.0012054445
20	0x3d489e0d	0.048978854
21	0x3dbd7e69	0.092526264
22	0x3b598214	0.0033189105
23	0x3c6ae7f5	0.014337529
24	0x3d06ea0a	0.03293804
25	0xbb848c9c	-0.0040450823
26	0xbde07ee3	-0.10961702
27	0x3cfb8910	0.030705005
28	0xbd8b5ce7	-0.06804829
29	0xbd804f7b	-0.0626516
30	0xbcee0aea	-0.029057939
31	0x3cdd218f	0.026993541
32	0xbd75b85f	-0.059990283
33	0xbd9f8b34	-0.07790223
34	0xbe0a9612	-0.1353381
35	0x3ae190f0	0.0017209332
36	0x3ca3e97f	0.0200088
37	0x3d88f49e	0.06687282
38	0x3d5ee10f	0.05441385
39	0x3d4c1dbd	0.049833048
40	0x3d9229ab	0.07136854
41	0xbda64999	-0.081195064
42	0xbc694829	-0.014238396
43	0x3d5b9511	0.053608958
44	0x3d4f1256	0.050554596
45	0x3d1b0e8b	0.037855666
46	0xbd62bc47	-0.055355337
47	0xbd8401c2	-0.06445648
48	0x3cd98469	0.026552396
49	0x3c2b3d85	0.010451679
50	0xbdbcff55	-0.09228388
51	0xbe043c29	-0.12913574
52	0xbc18252b	-0.009286205
53	0xbd910043	-0.07080128
54	0xbd8e2bdc	-0.06941959
55	0xbdf05866	-0.11735611
56	0xbd0d36c0	-0.03447604
57	0xbbcd7ffb	-0.00627136
58	0x3c581ff5	0.013191213
59	0x3e1ac89b	0.15115587
60	0xbd96cd2f	-0.073633544
61	0xbdb23606	-0.087017104
62	0xbce46fda	-0.027885366
63	0xbd853063	-0.0650337
64	0x3dbcf50e	0.09226428
65	0x3d989ab0	0.07451379
66	0xbd4a414f	-0.04937869
67	0xbd0c7db0	-0.034299552
68	0xbdff134b	-0.12454852
69	0xbdd00ab0	-0.101582885
70	0xbddaab78	-0.10677236
71	0xbd2b29cb	-0.041787904
72	0xbc6d63ae	-0.0144890975
73	0xbd8c91d3	-0.06863751
74	0xbdc9f5b5	-0.09861318
75	0xbc627565	-0.013821934
76	0x3aed1d98	0.0018090485
77	0x3d547d26	0.051877163
78	0x3d8a362a	0.06748612
79	0x3c28e798	0.0103091225
80	0xbb7b79c9	-0.003837215
81	0xbd83c329	-0.06433708
82	0xbc2367bf	-0.009973465
83	0x3e291e13	0.16515379
84	0x3d96de0f	0.07366573
85	0xbc5fd13f	-0.013660728
86	0x3c8e2176	0.01734994
87	0x3db37e44	0.08764318
88	0x3e686707	0.22695552
89	0x3db000c9	0.085939
90	0x3da58672	0.08082284
91	0x3cc50007	0.024047865
92	0x3da0ca6a	0.078511074
93	0x3d85566c	0.06510624
94	0x3dc07f21	0.09399248
95	0xbc589238	-0.013218455
96	0xbdbf47d1	-0.0933987
97	0xbe1952c3	-0.14972977
98	0x3b7c0147	0.003845291
99	0xbc34779d	-0.011014846
100	0xbd9d3c47	-0.076775126
101	0xbd073132	-0.0330059
102	0x3dd0453b	0.10169455
103	0x3d230163	0.039796244
104	0x3dd8d8f4	0.105882555
105	0x3cfba26f	0.030717103
106	0x3ad280f2	0.0016060157
107	0x3d4b5c2e	0.049648456
108	0x3ded2748	0.11579758
109	0x3e00c42d	0.12574835
110	0x3c6d9d03	0.014502767
111	0xbddbb145	-0.10727171
112	0xbdc0b3c8	-0.094092906
113	0x3ccfd69f	0.025370894
114	0x3e0c9472	0.13728502
115	0x3daf2a2e	0.08552967
116	0x3e050291	0.1298926
117	0x3d9e3f24	0.07726887
118	0xbc6ea057	-0.014564595
119	0x3d6d669f	0.057959195
120	0x3dadd2d0	0.08487475
121	0x3d34dd37	0.04415628
122	0x3d8c4b7f	0.06850337
123	0x3c3543c8	0.011063524
124	0xbbfa8c5f	-0.007646128
125	0xbdfaa07c	-0.12237641
126	0xbdc9a982	-0.09846784
127	0x3ca599cd	0.02021494
128	0xbdb4d365	-0.08829383
129	0xbe040de4	-0.12895924
130	0xbd853fbd	-0.06506298
131	0x3d4f50c7	0.050614145
132	0xbcdcdff1	-0.026962252
133	0xbcedaf38	-0.029014215
134	0xb71966ad	-9.143417e-06
135	0x3d9a451e	0.07532714
136	0xbdb405fe	-0.087902054
137	0xbcba1fa5	-0.022720167
138	0xbd76d6b3	-0.060263347
139	0xbd3149b9	-0.043283198
140	0xbdab7724	-0.08372334
141	0xbdb15d2e	-0.08660351
142	0xbd360b8a	-0.0444446
143	0x3d3ff8ac	0.04686801
144	0x3dd85f6c	0.10565075
145	0x3b9c0062	0.004760788
146	0x3c33c71e	0.010972766
147	0x3de2d9ca	0.11076696
148	0x3ddcfb92	0.10790171
149	0xbc880173	-0.016602254
150	0x3dc31f99	0.09527511
151	0x3d612bf0	0.054973543
152	0x3d48936d	0.04896872
153	0x3d8f2aca	0.06990583
154	0x3c6d56d8	0.014486037
155	0x3dc9cdea	0.09853728
156	0x3cf98d8a	0.030462999
157	0xbc84641f	-0.016161023
158	0xbd030001	-0.031982426
159	0x3c22b958	0.009931885
160	0xbd10ddea	-0.035367884
161	0x3d3974bc	0.045277342
162	0x3d322741	0.043494467
163	0x3ccaf198	0.024773404
164	0x3c3f2ab1	0.011667893
165	0x3c4016fe	0.011724232
166	0xbc8f84c8	-0.01751937
167	0x3c6841d2	0.014175849
168	0x3e0d9a4d	0.13828392
169	0xbc8ceefb	-0.017203799
170	0x3d40ea3a	0.047098376
171	0x3bd8cfe8	0.006616581
172	0x3d612128	0.05496326
173	0x3c803a97	0.015652938
174	0x3d23f90f	0.040032443
175	0xbd2ac023	-0.041687142
176	0xbd1774c5	-0.036976594
177	0x3cc734a2	0.02431709
178	0x3d8f3bfc	0.06993863
179	0xbca7b9d5	-0.020474354
180	0xbbf964d9	-0.007610899
181	0xbd0ffb8c	-0.035152003
182	0xbdf5f46b	-0.1200951
183	0xbd53959d	-0.051656354
184	0xbc598540	-0.013276398
185	0x3df9db41	0.122000225
186	0x3daf581a	0.08561726
187	0xbdb2cf43	-0.08730938
188	0xbdffa3b7	-0.12482398
189	0xbca5d9a3	-0.020245379
190	0xbbe33340	-0.0069335997
191	0x3d943685	0.07236961
192	0x3c3e6231	0.01162009
193	0x3c81182b	0.015758594
194	0xbdbfbbb9	-0.09361977
195	0xbcef1ba5	-0.029187987
196	0x3dd0476c	0.10169873
197	0xbbc2e2b5	-0.0059474357
198	0x3d880ec7	0.066434436
199	0x3d057733	0.03258438
200	0x3ce8b446	0.028406274
201	0x3c1e356d	0.009656292
202	0xbc7351b4	-0.0148510225
203	0xbd629cdc	-0.055325374
204	0xbcc14822	-0.023593966
205	0x3cbeb3b4	0.023279049
206	0x3ddb35ad	0.10703597
207	0x3baccc80	0.0052734017
208	0x3c2cc764	0.010545585
209	0xbc96b774	-0.018398024
210	0xbaef18b1	-0.0018241612
211	0x3deae193	0.11468806
212	0x3dbfee1e	0.09371589
213	0x3da06a6c	0.07832798
214	0xbd9bdff0	-0.07611072
215	0xbd5ef151	-0.054429356
216	0x3c37e7bf	0.011224686
217	0x3e1ab027	0.1510626
218	0x3d98634a	0.07440813
219	0x3c8dd20a	0.017312068
220	0xbcf80c77	-0.030279381
221	0xbe0c09e8	-0.13675654
222	0x3d7300de	0.059327
223	0x3cd31968	0.02576895
224	0x3da249cc	0.07924232
225	0xbcc0dea8	-0.02354367
226	0xbe083002	-0.13299564
227	0x3ca4acab	0.020101866
228	0x3d80b980	0.06285381
229	0x3ce9cb4e	0.028539326
230	0xbc3246d3	-0.010881144
231	0xbd2ae5eb	-0.041723173
232	0x3d18cfd0	0.03730756
233	0x3daa2430	0.083076835
234	0x3dbce8dd	0.09224103
235	0x3da97062	0.082733884
236	0xbbeb0308	-0.007171992
237	0xbe192bdb	-0.14958136
238	0xbdbbce1d	-0.09170172
239	0x3d4c76f0	0.049918115
240	0x3dd96446	0.10614829
241	0x3d29d622	0.04146398
242	0x3dc2e1e3	0.09515741
243	0x3bc820a0	0.006107405
244	0xbd8de10a	-0.069276884
245	0xbc5543a5	-0.013016616
246	0x3de0550e	0.10953723
247	0x3da5190d	0.08061419
248	0x3dec9c2e	0.115532264
249	0x3dbdd523	0.09269168
250	0x3d9fde5b	0.07806083
251	0x3d8786b4	0.066174895
252	0xbd744ee4	-0.05964555
253	0xbda992fe	-0.0827999
254	0x3c9e1ce2	0.019300882
255	0x3db66c4d	0.089073755

conv2.bias f4 [16]
0	0xbcc6baeb	-0.024259051
1	0xbd6fc16a	-0.058534063
2	0x3d12abd4	0.0358084
3	0x3cfa3b7c	0.030545942
4	0xbd33a56b	-0.043858927
5	0x3c913965	0.017727563
6	0x3b2a6669	0.0026000983
7	0x3dc8984f	0.097946756
8	0x3ac99e24	0.0015382213
9	0xbd5b4653	-0.053533863
10	0xbd84e330	-0.06488645
11	0x3d28c0c5	0.041199464
12	0x3d249db1	0.04018945
13	0x3df6d46d	0.12052236
14	0xbdba19d5	-0.09086958
15	0xbc3b411f	-0.0114291

fc1.weight f4 [120, 256]
0	0x3c808fd6	0.015693586
1	0xbd367227	-0.044542458
2	0x3d397c92	0.045284815
3	0xbd3339a7	-0.043756153
4	0x3d1ab061	0.037765864
5	0xbd42403b	-0.047424536
6	0xbc578b62	-0.01315579
7	0xbd528113	-0.051392626
8	0x3ca04890	0.01956585
9	0xbcb41ff8	-0.0219879
10	0xbd8c62b3	-0.06854763
11	0xbd786a4f	-0.06064826
12	0x3c12a03e	0.0089493375
13	0xbd888725	-0.06666402
14	0xbd4a311a	-0.049363233
15	0x3cb291e0	0.021798074
16	0x3da4a711	0.08039678
17	0x3cd69c8c	0.026197694
18	0xbd452f20	-0.048140645
19	0xbd729841	-0.059227232
20	0x3c9c8f15	0.019111196
21	0x3d029bd8	0.031886905
22	0xbd3b09ce	-0.045663647
23	0xbd7d3055	-0.06181367
24	0xbcfd5df3	-0.030928588
25	0xbcf9c432	-0.030489061
26	0x3c255f67	0.0100935465
27	0xbd1d4f67	-0.038405802
28	0xbd1d9419	-0.038471315
29	0x3d007d47	0.031369474
30	0x3cb0bcad	0.021574343
31	0xbda3702c	-0.079803795
32	0xbd01cee6	-0.031691454
33	0x3ced4ae2	0.028966371
34	0x3d969f77	0.07354634
35	0x3addb646	0.0016915284
36	0x3bfa004b	0.0076294295
37	0xbcd24436	-0.025667291
38	0x3d408594	0.04700239
39	0x3caa3fc7	0.020782365
40	0xbc1c97e3	-0.009557697
41	0x3d39a447	0.045322683
42	0x3d9d9cf5	0.07695953
43	0x3d2fedaa	0.042951263
44	0x3c907c53	0.017637407
45	0xbcbd6fb4	-0.023124553
46	0xbd1506da	-0.036383487
47	0xbd607b0b	-0.054804843
48	0xbd340560	-0.04395044
49	0xbd47f5f3	-0.04881854
50	0xbaa19cb2	-0.0012330024
51	0x3d622e77	0.055220094
52	0xbd20bcb1	-0.03924245
53	0xbbe241d9	-0.0069048223
54	0x3c03bb77	0.008040301
55	0xbb3d9719	-0.0028929173
56	0x3d2c4b11	0.042063776
57	0x3c3f7459	0.011685454
58	0xbc97f202	-0.018548016
59	0xbd160d54	-0.036633804
60	0xbd199d34	-0.037503436
61	0xbb3a511e	-0.0028429697
62	0xbc1e8d7b	-0.009677286
63	0x3d4ae69d	0.049536336
64	0xbd1d2566	-0.038365744
65	0xbdd0fb9f	-0.10204243
66	0xbcd364c9	-0.025804894
67	0x3d4c1fa3	0.04983486
68	0x3c908d86	0.017645609
69	0xbdb2e3ed	-0.0873488
70	0x3cf4bc08	0.029874817
71	0x3da2a12b	0.079408966
72	0xbd53b5fb	-0.051687222
73	0x3cf63883	0.030056244
74	0x3da1e8aa	0.07905705
75	0x3d340452	0.043949433
76	0x3d0d4c2a	0.034496464
77	0xbd7a33a6	-0.061084412
78	0x3d692d91	0.05692822
79	0xbc8b44f7	-0.017000658
80	0xbde409f3	-0.1113471
81	0xbd1abba5	-0.037776608
82	0xbd453974	-0.048150495
83	0xbd2db296	-0.04240664
84	0xb89c6d4a	-7.459016e-05
85	0xbd2b1ef8	-0.04177758
86	0xbd66b7ee	-0.056327753
87	0x3d3df12f	0.04637259
88	0x3d9fd4b9	0.078042455
89	0x3ced1159	0.028938936
90	0x3d009071	0.03138775
91	0xbcdd2e95	-0.026999751
92	0xbc911e69	-0.017714696
93	0x3d1e5d03	0.03866292
94	0xbd8a7602	-0.067607895
95	0x3c5f7334	0.013638306
96	0xbcf88f1f	-0.030341683
97	0xbc6a3501	-0.014294864
98	0x3d5f80a6	0.054566048
99	0xbcef7ed4	-0.029235281
100	0xbd79c394	-0.060977533
101	0x3d402fa7	0.046920445
102	0x3ce369db	0.027760437
103	0x3d2d826a	0.0423607
104	0xbd47a92a	-0.04874531
105	0x3d681c91	0.056667868
106	0x3d947b4a	0.07250078
107	0x3d6b9199	0.0575119
108	0x3d5fea99	0.05466709
109	0xbd47d47b	-0.04878662
110	0x3cd547bc	0.026035182
111	0xbd2e268f	-0.04251724
112	0xbb2bf14a	-0.0026236349
113	0x3d76ee03	0.06028558
114	0xbce7210a	-0.028213996
115	0xbd3940db	-0.045227867
116	0x3af2a9c2	0.0018513727
117	0x3d92dcce	0.071710214
118	0x3cd5a9ba	0.026081908
119	0x3c7f7502	0.015591862
120	0xbc4ad6ae	-0.012380285
121	0x3d7b4bc1	0.06135154
122	0x3da030c6	0.07821803
123	0xbc33748e	-0.010953082
124	0x3dd2a387	0.102850966
125	0x3da34e16	0.07973878
126	0xbccc4970	-0.024937361
127	0xbc5773f3	-0.013150203
128	0x3d46dbc8	0.048549443
129	0x3d05ce3f	0.032667395
130	0xbd5ab55c	-0.053395614
131	0x3c7566c1	0.014978112
132	0x3df263cb	0.1183544
133	0x3dba9404	0.09110263
134	0xbd25e123	-0.04049791
135	0x3d508278	0.050905675
136	0x3d52bef8	0.051451653
137	0x3c9983bb	0.018739572
138	0xbcc9f4ae	-0.024652805
139	0xbc42e044	-0.011894289
140	0xbd1a80ee	-0.037720613
141	0xbc004ece	-0.0078312885
142	0x3d321790	0.043479502
143	0x3d8e1f80	0.06939602
144	0xbd65ad06	-0.05607321
145	0xbd98f762	-0.074690595
146	0x3d4872b1	0.048937503
147	0x3d8a3616	0.06748597
148	0x3cdf769c	0.027278237
149	0x3d190806	0.037361167
150	0x3c724bae	0.014788551
151	0xbd17655a	-0.03696189
152	0x3c5d229f	0.013497024
153	0xbd7eede9	-0.062238608
154	0xbcb7d2e6	-0.022439431
155	0xbd928ee5	-0.07156161
156	0xbc947f21	-0.018127026
157	0xbce32d1b	-0.027731469
158	0x3c8987db	0.016788414
159	0x3d3ecf88	0.046584636
160	0xbd3b8d8c	-0.045789286
161	0xbdace495	-0.08442036
162	0x3cd77aee	0.026303735
163	0x3c9f5751	0.019450815
164	0x3da8cdff	0.08242416
165	0xba60390a	-0.00085534214
166	0x3d1ddb83	0.03853942
167	0x3d964827	0.07337981
168	0x3d05f7f1	0.03270716
169	0x3ce54c41	0.027990462
170	0xbd8f696f	-0.07002532
171	0xb8c3ee87	-9.342754e-05
172	0xbc2c49da	-0.010515654
173	0x3cb390b4	0.021919586
174	0x3cc84278	0.024445757
175	0xbd1e43e7	-0.038638975
176	0x3bcfaba2	0.006337599
177	0xbd2893d2	-0.041156597
178	0x3cc2b1a3	0.023766344
179	0xbd6ce434	-0.05783482
180	0x3c18d3b9	0.009327822
181	0xbcd2d2c6	-0.02573527
182	0x3d84bbf0	0.06481159
183	0xbccd04b4	-0.025026657
184	0xbceeed84	-0.02916599
185	0x3cf45479	0.029825436
186	0x3dc85721	0.097822435
187	0x3c2607d3	0.010133701
188	0xbb80f428	-0.0039353557
189	0x3cc6c661	0.024264516
190	0xbc82e8e7	-0.015980197
191	0x3d08be24	0.033384457
192	0x3aca3809	0.0015428077
193	0x3db4291f	0.08796906
194	0x3d8bf381	0.06833554
195	0xbcce0f6d	-0.02515384
196	0xbc9583b4	-0.018251278
197	0xbcaa7963	-0.020809835
198	0x3d2c30cf	0.042038735
199	0x3c660692	0.014039652
200	0xbda0e4f6	-0.07856171
201	0x3da4794b	0.08030947
202	0x3d8094f8	0.062784135
203	0x3ad49e77	0.0016221543
204	0xbd1712dd	-0.036883224
205	0xbc1aba6d	-0.009443861
206	0x3d80238c	0.0625678
207	0xbc1998f7	-0.009374849
208	0x3bcf563e	0.0063274195
209	0x3cdd380f	0.02700427
210	0x3d33f052	0.04393036
211	0xbbd86a90	-0.0066045
212	0x3dba57ef	0.09098803
213	0xbc4d4ac1	-0.01253003
214	0xbd299022	-0.04139722
215	0x3c9de8da	0.019276071
216	0xbc0d2f53	-0.00861724
217	0xbc4e5d25	-0.01259545
218	0xbd2a43df	-0.041568633
219	0x3d9ee290	0.07758057
220	0xbd3348e8	-0.0437707
221	0xbd46087d	-0.04834794
222	0x3d9df970	0.07713592
223	0x3d7f2664	0.06229247
224	0x3d3231dd	0.043504585
225	0xbc3fab25	-0.011698519
226	0xbd2845c3	-0.041082155
227	0xbc8519c9	-0.016247647
228	0x3cf929cd	0.03041544
229	0xbcc009bc	-0.023442142
230	0xbc44219d	-0.011970905
231	0x3d876b68	0.06612283
232	0xbcaedcd6	-0.021345537
233	0xbcf52f55	-0.029929796
234	0xbcd70829	-0.026249008
235	0xbc2f3d96	-0.010695836
236	0xbd8f52fd	-0.06998251
237	0xbda642ed	-0.08118234
238	0xbceab4fe	-0.028650757
239	0xbd73e994	-0.05954893
240	0x3d547e35	0.051878173
241	0x3c35064a	0.011048863
242	0x3cf236e6	0.029567193
243	0x3ca2beb2	0.019866321
244	0xbabadc97	-0.0014256415
245	0xbd1117f8	-0.03542325
246	0x3a904e19	0.0011009603
247	0xbd650231	-0.055910293
248	0xbd0151b3	-0.031572055
249	0x3c4f3fc0	0.0126494765
250	0xbcf29e71	-0.029616566
251	0x3d42cba8	0.047557503
252	0x3d473c49	0.048641477
253	0xbca9be8e	-0.020720746
254	0xbce3616e	-0.027756419
255	0x3cd83d7a	0.026396502

fc1.bias f4 [120]
0	0xbd0d81df	-0.034547683
1	0x3d285332	0.041094966
2	0x3c2fe788	0.010736354
3	0xbd59eab6	-0.053202353
4	0x3be3e9ac	0.006955346
5	0x3c93c3ad	0.018037641
6	0x3be09722	0.006853954
7	0x3ceb19d2	0.028698836
8	0x3cb9fe33	0.02270422
9	0xbd61704b	-0.05503873
10	0x3ce247c2	0.027622107
11	0xbc4e961d	-0.012609032
12	0x3d88e4c7	0.06684261
13	0x3ce6017a	0.028076876
14	0xbc7a88c1	-0.015291394
15	0xba3e752e	-0.0007265386
16	0x3d0759f7	0.03304478
17	0x3a0b890d	0.00053228514
18	0x3d0891ea	0.03334228
19	0xbd23a4d6	-0.03995212
20	0x3b5ad978	0.0033393782
21	0x3d5dfcf2	0.054196306
22	0x3d002c48	0.03129223
23	0xbcafa82e	-0.021442499
24	0xbd3257aa	-0.043540634
25	0xbd9e2764	-0.07722357
26	0x3d016b13	0.031596255
27	0x3d3a1bb0	0.04543656
28	0xbc541a4f	-0.012945726
29	0x3cd0a5ad	0.025469625
30	0xbbede3a7	-0.0072598043
31	0xbcf46064	-0.029831119
32	0xbd153f51	-0.036437336
33	0x3cfa0238	0.030518636
34	0xbc3fed76	-0.01171433
35	0x3d0bf0a5	0.034165043
36	0x3c006605	0.007836823
37	0xbcc71885	-0.024303684
38	0x3d0200c9	0.03173903
39	0x3c58eb61	0.013239712
40	0x3d1c8663	0.0382141
41	0x3d101c58	0.03518328
42	0xbd897d16	-0.067133114
43	0x3bf6bf10	0.0075301006
44	0xbd666928	-0.05625263
45	0xbd73d4fd	-0.059529293
46	0xbc0cb6d7	-0.008588514
47	0xbd701dbe	-0.058622114
48	0x3d4ae95a	0.049538948
49	0xbc390295	-0.0112921195
50	0x3b7cbbd6	0.0038564107
51	0x3d9a6b51	0.0754
52	0xbcbcede4	-0.023062654
53	0x3d5ee6c0	0.05441928
54	0xbd7c05fe	-0.061529152
55	0xbc0c398a	-0.00855864
56	0xbd36fb83	-0.044673454
57	0x3d8172e8	0.06320745
58	0xbcdebc9d	-0.027189547
59	0xbd04adb6	-0.032392226
60	0x3d23e830	0.040016353
61	0xbb140afa	-0.002258955
62	0xbba99c39	-0.005176094
63	0xbcd72f2c	-0.02626761
64	0xbcf19d8e	-0.029494073
65	0x3ba81c48	0.0051303245
66	0x3d85f93c	0.06541678
67	0x3cb35dae	0.021895256
68	0xbd768361	-0.060183886
69	0x3bf7570c	0.0075482186
70	0x3a9d8262	0.0012017007
71	0x3c022896	0.007944247
72	0x3c9e75ca	0.019343276
73	0xbcbb5e57	-0.022872133
74	0x3dab7165	0.08371238
75	0x3d6dbe89	0.058043037
76	0xbc6d6923	-0.014490399
77	0xbc913bcd	-0.01772871
78	0xbc527805	-0.012845998
79	0x3d5d39d8	0.054010242
80	0xbc355774	-0.011068214
81	0x3b90eeae	0.004422984
82	0x3cc27d00	0.023741245
83	0x3cc657ac	0.024211727
84	0x3d92501a	0.071441844
85	0x3d3e828a	0.04651121
86	0xbcf4274d	-0.029803896
87	0x3bc4a4ec	0.0060011055
88	0xbd095cb6	-0.03353568
89	0xbcad7065	-0.021171758
90	0x3c480a7b	0.01220953
91	0xbc18675f	-0.009301989
92	0x3d912ebb	0.07088991
93	0x3c9a915e	0.018868145
94	0x3b0ea19b	0.0021763805
95	0xbd169f08	-0.036772758
96	0xbd8b89d4	-0.06813398
97	0xbd7a22cf	-0.061068352
98	0xbd1f9908	-0.0389643
99	0x3d1c6ce5	0.038189787
100	0xbd64460a	-0.055730857
101	0xbd4fc12e	-0.05072134
102	0xbcc82007	-0.024429334
103	0x3cec012d	0.028809154
104	0xbd1052b3	-0.035235118
105	0xbcde7175	-0.02715371
106	0x3cf6915d	0.030098611
107	0x3cd25d0c	0.025679134
108	0xbd02071a	-0.031745054
109	0x3cbdea91	0.023183139
110	0xbd4c28a9	-0.049843464
111	0xbd1e7549	-0.03868607
112	0xbcb777ce	-0.022395995
113	0x3c36c41b	0.011155154
114	0xbc6f409a	-0.014602805
115	0x3dacc603	0.08436205
116	0xbd5fa469	-0.054600153
117	0xbc554e36	-0.013019135
118	0xbd7d620c	-0.061861083
119	0xbc6088be	-0.013704477

fc2.weight f4 [84, 120]
0	0x3df8fa76	0.12157147
1	0x3dc5a372	0.09650315
2	0xbd9d4452	-0.07679047
3	0xbdc4c897	-0.09608572
4	0x3ccffe86	0.02538992
5	0x3dda4444	0.10657552
6	0x3c7f2f57	0.015575252
7	0x3d986f01	0.07443047
8	0x3b529da2	0.0032137414
9	0xbca49302	-0.02008963
10	0xbe02953e	-0.12752244
11	0xbd3f60c2	-0.046723135
12	0x3d1f5486	0.038898967
13	0x3d2a5e7d	0.041594017
14	0xbe053016	-0.13006625
15	0x3daa0052	0.08300842
16	0x3daf94da	0.08573313
17	0xbcc3fa91	-0.02392319
18	0xbe1153ef	-0.14192174
19	0x3dc1cea0	0.09463239
20	0x3d8446ae	0.064587936
21	0x3bd39cf3	0.006457919
22	0x3d436571	0.047704164
23	0x3d146856	0.036232315
24	0x3e0bbe5a	0.13646832
25	0x3caf2b22	0.021382872
26	0x3da95ed2	0.08270039
27	0x3dada7e1	0.08479286
28	0xbdc0cf11	-0.09414495
29	0xbc5d9a31	-0.013525532
30	0xbd8f9c24	-0.07012203
31	0xbe207001	-0.15667726
32	0xbc4c71fb	-0.012478347
33	0x3dbfa0f2	0.0935687
34	0x3cc1006a	0.023559768
35	0xbd32c81c	-0.04364787
36	0xbe0f4c91	-0.13994052
37	0x3dc3a219	0.09552402
38	0xbda1d455	-0.07901827
39	0x3d3159da	0.04329858
40	0x3dd14f1e	0.102201685
41	0xbdb02511	-0.0860082
42	0xbd3d0a28	-0.046152264
43	0x3d964cc9	0.07338864
44	0x3da2c5a8	0.07947856
45	0xbd530731	-0.05152053
46	0x3dad5fc1	0.08465529
47	0xbd9cbe91	-0.07653535
48	0xbb9bf35c	-0.0047592353
49	0xbc70ca9e	-0.014696745
50	0xbc0e8eaf	-0.008701011
51	0x3d6abbb4	0.057307914
52	0xbd7a0e50	-0.061048806
53	0x3d44e80f	0.04807287
54	0xbcd89285	-0.026437053
55	0xbd447cca	-0.04797057
56	0xbdaf1a56	-0.08549945
57	0x3d065ae0	0.03280151
58	0x3da1aa5b	0.07893821
59	0xbd1e1ea8	-0.038603455
60	0xbdef8447	-0.11695152
61	0x3d8d90da	0.06912394
62	0xbd3b90f3	-0.04579253
63	0x3ce321fd	0.027726168
64	0xbbf1e50e	-0.007382042
65	0xbdcc1b44	-0.09966138
66	0xbd2e502a	-0.04255692
67	0xbde04a76	-0.10951702
68	0xbd2463ea	-0.040134348
69	0xbd0e2c9d	-0.034710515
70	0x3d23212a	0.03982655
71	0xbcb0deaa	-0.02159055
72	0x3c93cc25	0.01804168
73	0xbc31b793	-0.01084699
74	0xbc3b36b2	-0.011426615
75	0xbd7eca78	-0.062204808
76	0xbd4f6e89	-0.050642524
77	0x3c2b1979	0.010443085
78	0xbdc613bc	-0.09671733
79	0xbbe4d122	-0.0069829384
80	0x3d7e9c7e	0.06216096
81	0xbc034da9	-0.008014121
82	0xbc2fe489	-0.010735639
83	0xb88c0e48	-6.67838e-05
84	0xbccb5dde	-0.024825033
85	0x3d24c93a	0.040230967
86	0x3d72fa2c	0.059320614
87	0x3dad77a5	0.08470086
88	0x3d6d5fd7	0.057952728
89	0x3c10ccfc	0.008837935
90	0x3e02861e	0.12746474
91	0x3c8c2d30	0.01711139
92	0xbd410afa	-0.04712961
93	0x3e1761e1	0.14783432
94	0x3d9295a0	0.07157445
95	0x3abbdcad	0.0014332734
96	0xbd2ca01b	-0.042144876
97	0x3d2c7cc1	0.042111162
98	0x3d976cae	0.07393776
99	0x3dc72a2c	0.097248405
100	0xbd85611c	-0.06512663
101	0xbcebd767	-0.028789235
102	0x3d9f9eb4	0.07793942
103	0x3ddbaac5	0.10725931
104	0xbcaea177	-0.021317227
105	0x3ca85263	0.020547098
106	0xbc846f69	-0.016166406
107	0x3bb56c86	0.0055366186
108	0xbdc7b68d	-0.09751616
109	0xbd8332e1	-0.06406189
110	0x3dcf8b11	0.10133947
111	0x3d8dce81	0.06924153
112	0x3d55b15e	0.052171104
113	0x3d51d629	0.05122963
114	0xbcadca8f	-0.021214752
115	0xbc41e5d9	-0.011834585
116	0x3da7d058	0.08194035
117	0xbc0308d2	-0.007997708
118	0x3dbeadee	0.09310518
119	0xbced891c	-0.028996043
120	0x3ceaa28e	0.028641965
121	0xbd4e722b	-0.050401848
122	0xbda26f0e	-0.07931338
123	0xbcb7b807	-0.022426618
124	0xbd2ed46f	-0.04268306
125	0x3ccb4773	0.024814343
126	0xbd6edcef	-0.058316167
127	0x3d95a062	0.07305981
128	0xbdba3cec	-0.09093651
129	0x3c73d759	0.014882886
130	0x3dc5fcf0	0.096673846
131	0xbc8e84a3	-0.01739723
132	0x3d61d638	0.055135936
133	0xbaf0e6cf	-0.0018379333
134	0xbdbf3407	-0.09336095
135	0xbcab4600	-0.020907402
136	0x3d5f6a43	0.0545447
137	0xbd0fc618	-0.035101026
138	0x3dba8791	0.091078885
139	0xbd5078c4	-0.05089642
140	0x3ce4f87b	0.027950516
141	0xbd0ac338	-0.03387758
142	0x3bfe5de0	0.0077626556
143	0xbcaf061e	-0.021365222
144	0xbccbe838	-0.024891004
145	0x3dc26500	0.094919205
146	0xbcdf633e	-0.027269002
147	0xbc97d7b2	-0.018535469
148	0xbd885a52	-0.06657852
149	0xbd83b11e	-0.06430267
150	0xbd269a04	-0.040674224
151	0x3dafd9fd	0.085865
152	0xbc48a227	-0.012245691
153	0xbd2a340a	-0.041553535
154	0xbdfa10de	-0.122102484
155	0xbddd3a83	-0.10802176
156	0xbad43d73	-0.001619263
157	0xbd36ecdc	-0.04465948
158	0xbd2dec2e	-0.042461567
159	0x3d7b6f1c	0.06138526
160	0x3d3385e1	0.04382885
161	0x3db2372f	0.08701932
162	0xb99dfb8f	-0.000301328
163	0x3ad3760f	0.0016133207
164	0x3d127bd7	0.035762634
165	0xbd7cd5d7	-0.06172737
166	0x3d64d67b	0.055868607
167	0x3d22ff9c	0.03979455
168	0x3d82819d	0.06372378
169	0x3d887cd6	0.066644356
170	0xbdc1d2c2	-0.09464027
171	0x3d221a6a	0.03957597
172	0x3d11a502	0.035557754
173	0xbc80aa78	-0.015706286
174	0x3dc147ff	0.0943756
175	0xbd161e4e	-0.036649995
176	0x3d52b5c1	0.051442865
177	0xbace5284	-0.0015741144
178	0xbd8a706e	-0.067597255
179	0x3c449792	0.011999028
180	0xbcfd9bd6	-0.030958097
181	0x3dc2d473	0.09513178
182	0xbb3920db	-0.0028248343
183	0x3dca16df	0.098676436
184	0x3e0bdf61	0.13659431
185	0xbd9284f3	-0.07154264
186	0x3beca40b	0.007221704
187	0xbd6e7b5a	-0.058223106
188	0xbcd3fec9	-0.025878327
189	0xbc8dc845	-0.01730741
190	0xbd9bee5f	-0.07613825
191	0x3c18d1a8	0.00932733
192	0xbd8a7832	-0.06761207
193	0xbdae8409	-0.085212775
194	0xbd0c7d0e	-0.03429895
195	0x3dbad2df	0.09122252
196	0xbd98f6e6	-0.07468967
197	0xbd1b1c0c	-0.037868544
198	0xbd640e6e	-0.055677824
199	0x3d668c6b	0.056286257
200	0xbc14ee2c	-0.009089988
201	0xbd95e1cc	-0.07318458
202	0x3d772fc3	0.060348283
203	0x3d873ea1	0.066037424
204	0xbca044bd	-0.019564027
205	0xbdaa75d4	-0.08323255
206	0xbd82d221	-0.06387735
207	0xbb91461e	-0.0044334074
208	0xbd43ee86	-0.047834896
209	0x3d7f6248	0.062349588
210	0x3d158ee5	0.036513228
211	0xbc7366bc	-0.014856037
212	0xbd837c01	-0.06420136
213	0xbd8e8db9	-0.06960625
214	0x3d27dc34	0.040981486
215	0x3d9e48d3	0.07728734
216	0xbc48d770	-0.012258396
217	0xbce3dcc0	-0.027815223
218	0xbae41b68	-0.0017403187
219	0xbd37c6ee	-0.04486745
220	0xbd932e5b	-0.07186576
221	0x3d827704	0.06370357
222	0x3d952462	0.0728233
223	0xb7bf7ffc	-2.2828572e-05
224	0xbaadb127	-0.0013251648
225	0x3d5564b3	0.052097987
226	0x3d7a50d3	0.061112236
227	0x3aabe25e	0.0013113727
228	0x3d0e40a2	0.034729607
229	0xbce289dd	-0.027653629
230	0xbc2d09a9	-0.010561385
231	0x3c9cd680	0.01914525
232	0xbd36b4f5	-0.044606168
233	0x3cda9f51	0.026687296
234	0x3c05eba9	0.008173862
235	0x3da5c7af	0.08094727
236	0xbc03b66f	-0.008039101
237	0xbd2e95d8	-0.04262337
238	0xbc205d1e	-0.009787826
239	0xbc021572	-0.007939683
240	0xbdad27fc	-0.08454892
241	0x3ca876b2	0.02056441
242	0xbdb273df	-0.08713507
243	0x3d2e139d	0.042499173
244	0xbd8309e4	-0.06398371
245	0xbdadc04c	-0.08483943
246	0x3d46af14	0.04850681
247	0xbd1cc2ec	-0.03827183
248	0xbdcc900e	-0.09988414
249	0x3cfaae64	0.030600734
250	0xbc454208	-0.012039669
251	0xbd087359	-0.03331313
252	0x3d74f52e	0.059804134
253	0x3d29d616	0.041463934
254	0x3cf91084	0.030403383
255	0xbd6e3f35	-0.058165748

fc2.bias f4 [84]
0	0x3dd8a22f	0.10577809
1	0x3da998ac	0.08281073
2	0xbd266093	-0.040619444
3	0xbd796a19	-0.0608922
4	0x3d363f7d	0.04449414
5	0x3d836989	0.064166136
6	0x3da693cd	0.081336595
7	0x3d9beb35	0.076132216
8	0xbbc7d32e	-0.0060981726
9	0x3c156f8a	0.009120831
10	0xbd09b04a	-0.033615388
11	0x3da892f1	0.08231152
12	0x3d7e4975	0.062081773
13	0xbb1850b3	-0.002324146
14	0x3d494774	0.04914041
15	0xbda65e7c	-0.0812349
16	0xbc144628	-0.00904993
17	0x3dd0420b	0.10168847
18	0x3d5f3305	0.054492015
19	0x3d27176c	0.04079382
20	0x3db2aa73	0.08723917
21	0x3dbd6e8f	0.09249603
22	0xbd4f1389	-0.05055574
23	0xbd64e74e	-0.05588465
24	0x3d9d6ead	0.07687125
25	0x3da4cae1	0.080465086
26	0xbb298ff7	-0.0025873163
27	0x3c88fe35	0.016722778
28	0x3c8ee1f0	0.01744172
29	0xbbb7d994	-0.005610654
30	0x3c6a871a	0.014314437
31	0x3dce57af	0.10075318
32	0xbc4281c4	-0.011871759
33	0x3d8dee4f	0.069302194
34	0xbd3f2105	-0.04666235
35	0xbd9301d9	-0.07178087
36	0xba1f1641	-0.0006068685
37	0xbd566305	-0.052340526
38	0x3d403d90	0.04693371
39	0x3dbef1c9	0.093234606
40	0x3d76524d	0.060137082
41	0x3d0ecf33	0.03486557
42	0xbce2b726	-0.027675223
43	0x3c50287c	0.012704965
44	0xbcbbe1a0	-0.022934735
45	0xbb27b943	-0.0025592602
46	0xbc52e170	-0.012871131
47	0xbd121b82	-0.035670765
48	0xbd900d2f	-0.070337646
49	0xbdaf3336	-0.085546896
50	0x3dd8977c	0.10575768
51	0x3db672d6	0.08908622
52	0xbc77e928	-0.015131272
53	0x3df71a1d	0.120655276
54	0x3d8612f8	0.06546587
55	0xbda490bf	-0.080354206
56	0x3d5c4b5d	0.05378281
57	0xbd522ee7	-0.05131426
58	0x3da651f6	0.081211016
59	0x3da8cde7	0.08242398
60	0x3d168a97	0.036753263
61	0x3cefd4b3	0.029276228
62	0x3cae7762	0.02129716
63	0x3db4960f	0.08817684
64	0xbc8e59f0	-0.01737687
65	0x3d112590	0.035436213
66	0x3cceb979	0.025234925
67	0xbd31d38c	-0.043414637
68	0x3dd1abb7	0.1023783
69	0x3d7482a3	0.059694897
70	0x3d05c0c0	0.032654524
71	0x3bb9b633	0.005667472
72	0xbd6fd5e9	-0.05855361
73	0x3db211f1	0.08694828
74	0xbdaca336	-0.084295675
75	0x3de56e58	0.11202687
76	0x3d187ed1	0.037230317
77	0xbc1ae274	-0.009453405
78	0xbd40fbcd	-0.047115136
79	0x3d18e376	0.0373263
80	0xbb7063be	-0.0036680545
81	0x3da966e0	0.08271575
82	0x3d5adef6	0.05343529
83	0xbd9eadd8	-0.07748002

fc3.weight f4 [10, 84]
0	0x3de6d47b	0.11270996
1	0xbe676592	-0.2259734
2	0x3c822428	0.015886381
3	0x3c517421	0.012784035
4	0xbe6b547c	-0.22981447
5	0xbe675841	-0.2259226
6	0xbd33ce2c	-0.043897793
7	0xbd43faea	-0.047846712
8	0xbe10cdb3	-0.14140968
9	0xbc24d217	-0.010059855
10	0x3dd4d8a8	0.103928864
11	0xbba3308a	-0.0049801515
12	0x3de2ba65	0.11070708
13	0x3dd7448e	0.10511123
14	0x3df5c799	0.12000961
15	0xbd4be202	-0.049776085
16	0xbc8446c2	-0.016147021
17	0x3da860fa	0.08221622
18	0xbe1039a2	-0.14084485
19	0x3ca28a38	0.019841298
20	0xbe114a0b	-0.14188401
21	0xbe16a967	-0.1471306
22	0xbe1058c3	-0.1409636
23	0x3d20e7a0	0.039283395
24	0xbd61e6b0	-0.05515164
25	0xbe13227b	-0.14368622
26	0x3def38fd	0.116807915
27	0xbdaffdc8	-0.08593327
28	0x3d049f48	0.032378465
29	0x3b92ee13	0.004483947
30	0xbd83fe94	-0.06445041
31	0x3d6cd6e9	0.05782214
32	0x3d8f298e	0.06990348
33	0xbdfca6d1	-0.12336505
34	0xbd84f470	-0.06491935
35	0xbe541fc1	-0.20715238
36	0x3dc5e269	0.09662325
37	0xbe3b2400	-0.18275452
38	0xbddf5bcd	-0.109061815
39	0xbce04442	-0.027376298
40	0xbdfb0816	-0.12257402
41	0xbd287680	-0.041128635
42	0xbe16031f	-0.14649628
43	0x3b9dcfe0	0.0048160404
44	0xbdb41be9	-0.08794386
45	0xbd5dc082	-0.054138668
46	0x3cff7121	0.031181874
47	0xbd4e966a	-0.050436415
48	0x3dc443b0	0.09583223
49	0x3d4bd2af	0.04976147
50	0x3db6724c	0.08908519
51	0xbd5f75bb	-0.054555636
52	0xbdd7117d	-0.105013825
53	0xbd8bb255	-0.068211235
54	0xbe10612a	-0.14099565
55	0xbe158ec8	-0.14605248
56	0x3d98c623	0.074596666
57	0xbe299df9	-0.16564168
58	0x3dca9bc1	0.09892989
59	0x3d7e1fd7	0.062042084
60	0xbd8b1d57	-0.067927055
61	0x3db53691	0.08848298
62	0xbe408c0a	-0.1880342
63	0xbbecc71d	-0.0072258846
64	0xbd9227f4	-0.07136527
65	0xbe1ec70e	-0.15505621
66	0xbdc44dba	-0.09585138
67	0x3d093458	0.033497185
68	0x3da191a2	0.078891054
69	0xbdf00a4e	-0.117207155
70	0xbe225a53	-0.15854768
71	0x3e0cfcb2	0.1376827
72	0xbc80eec6	-0.015738856
73	0x3e237b13	0.15964918
74	0x3ce89a87	0.028393997
75	0x3e2b85ad	0.16750212
76	0x3daf7344	0.08566907
77	0xbde970f1	-0.11398495
78	0x3cf3fad2	0.029782686
79	0xbce2bf1c	-0.027679019
80	0xbc94934f	-0.018136648
81	0xbe044a31	-0.12918927
82	0x3da8ffd0	0.08251917
83	0xbd3d582c	-0.046226665
84	0xbcc4a32b	-0.024003586
85	0x3dbc89a2	0.09205939
86	0xbd81ce05	-0.06338123
87	0x3d993a57	0.074818306
88	0x3dd0a59f	0.1018784
89	0xbd1183d9	-0.03552613
90	0xbe3829e9	-0.17984737
91	0x3e221c9f	0.1583123
92	0xbdcaff8f	-0.09912025
93	0xbe484271	-0.19556595
94	0xbbbdb588	-0.0057894625
95	0x3d76054f	0.060063656
96	0xbe1be272	-0.15223101
97	0xbe23ebf4	-0.16007978
98	0x3dfc8421	0.12329889
99	0xbd5dfe8c	-0.054197833
100	0xbda16078	-0.07879728
101	0x3ddb7751	0.10716117
102	0xbd73761c	-0.05943881
103	0xbd2c4d96	-0.04206618
104	0xbd17b006	-0.037033103
105	0x3acd0a89	0.0015643399
106	0x3c81f4d5	0.015863815
107	0xbe1784b2	-0.14796713
108	0xbe0ce332	-0.13758543
109	0x3b5cb2a0	0.0033675805
110	0xbe25b57f	-0.16182517
111	0x3dd5bfa3	0.104369424
112	0xbd40c1a3	-0.047059666
113	0xbbb19b4c	-0.005420124
114	0xbd5158da	-0.051110126
115	0x3e09ad49	0.1344501
116	0xbe18fbe9	-0.14939846
117	0xbdb996aa	-0.0906194
118	0xbe2b2b40	-0.16715717
119	0xbd8adde8	-0.067806065
120	0xbde74905	-0.11293224
121	0xbd8296d0	-0.063764215
122	0x3d61ac45	0.05509593
123	0x3df775cf	0.12083017
124	0x3bc4af9d	0.00600238
125	0x3e2574aa	0.16157785
126	0xbcd43b77	-0.025907261
127	0xbc6b7cea	-0.014373044
128	0xbd5a7f3d	-0.053344
129	0xbd01e726	-0.03171458
130	0x3d7fe90a	0.062478103
131	0xbdbbdbc2	-0.09172775
132	0x3bdd4e55	0.0067537227
133	0xbd1ec13b	-0.038758498
134	0x3e2e386b	0.17013709
135	0x3e472830	0.19448924
136	0xbdfb3d96	-0.12267606
137	0xbcc91e0d	-0.024550462
138	0x3e2a7378	0.1664561
139	0xbe0a7062	-0.13519433
140	0x3ca5eac2	0.020253543
141	0xbda21158	-0.07913464
142	0x3d97bc8f	0.074090116
143	0x3e04863d	0.12941833
144	0xbdf7be7c	-0.12096879
145	0x3d7b2a23	0.06131948
146	0x3dc39aca	0.09551008
147	0xbdabb5a1	-0.08384252
148	0x3dd351d4	0.10318342
149	0xbe551847	-0.20810042
150	0x3d8fb394	0.07016674
151	0xbdbc442d	-0.09192691
152	0x3e158a4d	0.14603539
153	0x3dd58131	0.10425032
154	0xbcbee907	-0.023304475
155	0xbdc83caf	-0.097771995
156	0x3de71e4d	0.11285076
157	0xbd92f6b5	-0.07175962
158	0xbcae2d2d	-0.021261776
159	0x3da981c7	0.08276706
160	0xbd8cba4e	-0.06871472
161	0xbd8a8e7d	-0.06765459
162	0xbe4c4108	-0.19946682
163	0x3e02232f	0.12708734
164	0xbdaba658	-0.08381337
165	0xbdf9b7a3	-0.12193229
166	0xbd405963	-0.046960246
167	0x3c065dd5	0.008201082
168	0xbdcd8f16	-0.10037057
169	0xbde60be5	-0.112327375
170	0x3bb70a6f	0.0055859606
171	0x3e084498	0.13307416
172	0x3d63eb5f	0.05564439
173	0xbdd86732	-0.10566558
174	0xbcf04648	-0.029330388
175	0xbd955430	-0.07291448
176	0xbe01cb9a	-0.12675324
177	0xbddc82d8	-0.10767144
178	0xbd90f840	-0.070786
179	0x3d4f9b90	0.050685465
180	0x3bf27089	0.007398669
181	0x3dc2ff0e	0.09521304
182	0xbb5d4b39	-0.003376676
183	0xbd1127c4	-0.035438314
184	0x3dab8dff	0.08376693
185	0xbe33eca2	-0.17570737
186	0x3df55e13	0.11980834
187	0x3d90ec41	0.07076312
188	0x3d0faa1e	0.035074346
189	0xbce5d873	-0.028057313
190	0x3d2a6f35	0.04160996
191	0xbe2ae269	-0.16687931
192	0xbc21bb8d	-0.009871376
193	0x3c4ea362	0.012612196
194	0x3cd0f886	0.02550913
195	0xbdb7a675	-0.08967296
196	0x3df51d44	0.119684726
197	0xbd8a2415	-0.06745163
198	0xbc1c08a5	-0.009523545
199	0xbe306318	-0.17225301
200	0x3d469d84	0.048490062
201	0x3d98e156	0.074648544
202	0x39f43447	0.00046578256
203	0xbe045604	-0.12923437
204	0x3e02ae47	0.12761794
205	0xbcccf912	-0.02502111
206	0xbd8bcc5d	-0.068260886
207	0xbd4297ab	-0.047507923
208	0xbd23c048	-0.039978296
209	0x3cddd673	0.027079796
210	0x3dc573f2	0.096412554
211	0xbda9fc2f	-0.08300053
212	0xbe0c6ff9	-0.13714589
213	0xbe280c06	-0.16410837
214	0x3cdf588a	0.027263898
215	0x3c3415a4	0.010991488
216	0x3d43042d	0.047611404
217	0x3b86c40d	0.0041127265
218	0x3e0f9354	0.14021045
219	0x3dac5624	0.084148675
220	0x3dc33300	0.09531212
221	0x3cb4ffac	0.02209457
222	0x3d49d26e	0.049272947
223	0xbdd86309	-0.105657645
224	0x3d8253a0	0.063636065
225	0xbea84503	-0.32865152
226	0x3c885d90	0.016646177
227	0x3d87b60c	0.066265196
228	0xbc766fb6	-0.015041282
229	0xbd9f2d00	-0.07772255
230	0xbdb4fb1e	-0.08836959
231	0xbe01b8a8	-0.12668097
232	0xbc8d24e4	-0.017229505
233	0xbdadc45b	-0.084847175
234	0x3da23ac9	0.07921369
235	0x3d73bf32	0.05950851
236	0xbd18f42d	-0.03734224
237	0xbcbb7495	-0.02288274
238	0xbe339b68	-0.17539752
239	0x3d4b0738	0.04956743
240	0xbd0ff457	-0.03514513
241	0x3ddbd2f6	0.10733597
242	0x3e2488f6	0.16067871
243	0xbe1a6118	-0.15076101
244	0xbd183be6	-0.0371665
245	0x3c38e6ae	0.011285467
246	0xbe095d7b	-0.13414566
247	0x3e0b6541	0.13612844
248	0x3dab0925	0.083513536
249	0xbe025e27	-0.12731229
250	0xbd88f408	-0.0668717
251	0x3d83812d	0.06421123
252	0xbe00cf6f	-0.1257913
253	0x3d171f3c	0.03689502
254	0x3d81c64a	0.06336649
255	0x3d93a0a2	0.07208373

fc3.bias f4 [10]
0	0x3cde056c	0.027102195
1	0x3d9b4bc1	0.07582808
2	0xbdd20f8b	-0.10256871
3	0xbd9a6098	-0.07537955
4	0xbd9cd55a	-0.07657881
5	0x3c04ce5a	0.008105839
6	0xbcd3c877	-0.025852425
7	0xbdbdafc8	-0.09262043
8	0xbc6be243	-0.014397207
9	0x3d8bf6d3	0.06834187
