models/client-3-4.pth (torch, 181282 bytes, 10 tensors)

conv1.weight f4 [6, 1, 5, 5]
0.09997922 -0.1571963 0.005152162 0.04721012 0.19557562 -0.11764226 0.21451627 -0.057304334
0.23569608 0.012359513 -0.11773763 0.0981519 0.25656757 0.38893446 0.26792923 0.018552594
0.293082 0.26197356 0.2963472 0.1223157 0.13373956 0.2233133 -0.051424943 -0.11677792
0.2357413 -0.19010113 -0.2133858 -0.17885505 -0.12958743 0.24889046 -0.14108853 -0.11331209
-0.114359245 0.010874127 0.22601403 -0.2341196 -0.13434236 -0.18464579 0.14474443 0.08972644
-0.07112782 -0.1497674 -0.002136092 -0.010397759 0.10417426 0.0535119 -0.10364089 -0.04053272
0.1877594 0.10398994 0.017879616 0.19228877 0.30586287 -0.009654578 0.106175326 0.073425494
0.30499306 0.13552682 0.13909306 0.2724344 -0.010969876 0.25946814 0.20140207 0.057627287
0.35776836 -0.16340126 0.18659957 0.10355627 -0.1278069 0.06956463 0.06242933 -0.08575882
-0.12750685 -0.25942206 -0.037263785 0.020610897 -0.16031022 -0.01918477 0.06137371 0.089925475
-0.016137863 0.02926744 0.09508994 0.1627746 0.34485596 0.023568913 0.23868936 0.34774375
0.17340755 0.36337042 0.15920565 0.14367308 0.22764932 0.28758836 0.2478206 -0.038508672
-0.19383353 0.23097743 0.25972572 0.2185424 -0.20940265 0.1217946 -0.005362171 0.35823327
0.22201006 -0.29622692 -0.17670931 -0.019023718 0.35733494 0.12049994 -0.11070506 0.275631
0.3434357 0.15409349 0.3358357 0.21045527 0.19128953 0.22297545 0.24623667 0.14384171
-0.07720756 0.19292456 0.20387161 0.29210183 -0.026003832 0.26598924 0.21184614 0.10651469
0.17541093 -0.05992768 0.10428758 0.38845357 0.4308528 0.20357853 0.2641227 0.12593476
0.07945097 0.17265664 0.23910254 0.25924438 -0.29783264 -0.289805 -0.25205082 0.044899277
0.012743745 -0.3489658 -0.35299546 -0.2584927 -0.07435001 -0.1505187
00000000: e8c1 cc3d 11f8 20be 78d3 a83b 665f 413d
00000010: fa44 483e 6dee f0bd 27aa 5b3e f3b7 6abd
00000020: 505a 713e 8e7f 4a3c 6d20 f1bd dd03 c93d
00000030: d35c 833e 6b22 c73e 052e 893e 9cfb 973c
00000040: d80e 963e 6621 863e d2ba 973e a780 fa3d
00000050: 06f3 083e 3eac 643e f6a2 52bd 4329 efbd
00000060: 2b66 713e dfa9 42be cf81 5abe c725 37be
00000070: 91b2 04be 24dd 7e3e 8379 10be 2b10 e8bd
00000080: 2e35 eabd 6529 323c 3970 673e 0cbd 6fbe
00000090: 0b91 09be c913 3dbe e237 143e 7fc2 b73d
000000a0: 76ab 91bd a05c 19be adfd 0bbb 5d5b 2abc
000000b0: 5059 d53d 4b2f 5b3d ad41 d4bd a305 26bd
000000c0: 0044 403e adf8 d43d 4678 923c 59e7 443e
000000d0: 0f9a 9c3e 3c2e 1ebc 7372 d93d 1b60 963d
000000e0: 0d28 9c3e 8bc7 0a3e 696e 0e3e 867c 8b3e
000000f0: ffba 33bc 02d9 843e 583c 4e3e 970a 6c3d
00000100: 6a2d b73e a952 27be f513 3f3e 4f15 d43d
00000110: d0df 02be e777 8e3d e6b5 7f3d 52a2 afbd
00000120: 2891 02be f8d2 84be e9a1 18bd 2fd8 a83c
00000130: 5d28 24be 6129 9dbc 0063 7b3d d92a b83d
00000140: 8d33 84bc 45c2 ef3c 84be c23d 62ae 263e
00000150: f690 b03e 9813 c13c fc6a 743e 780b b23e
00000160: c091 313e b00b ba3e ce06 233e 091f 133e
00000170: e71c 693e c83e 933e afc4 7d3e 45bb 1dbd
00000180: 4c7c 46be 5985 6c3e c5fa 843e 94c9 5f3e
00000190: a66d 56be 726f f93d 27b5 afbb 5a6a b73e
000001a0: 9b56 633e 0eab 97be 49f3 34be a1d7 9bbc
000001b0: 9bf4 b63e acc8 f63d 56b9 e2bd 821f 8d3e
000001c0: ced6 af3e afca 1d3e a8f2 ab3e 9681 573e
000001d0: 67e1 433e ad53 643e 7725 7c3e 3e4b 133e
000001e0: ff1e 9ebd 048e 453e b8c3 503e 5f8e 953e
000001f0: fd05 d5bc be2f 883e 32ee 583e 6024 da3d
00000200: ec9e 333e ba76 75bd ba94 d53d 63e3 c63e
00000210: bd98 dc3e e476 503e 173b 873e 0bf5 003e
00000220: 31b7 a23d e7cc 303e 4cd7 743e aebb 843e
00000230: 857d 98be 5261 94be ce0c 81be 4ee8 373d
00000240: 24cb 503c a5ab b2be d2bb b4be 2859 84be
00000250: d144 98bd 9321 1abe

conv1.bias f4 [6]
-0.03711252 0.25983316 0.0064718598 -0.018451907 0.026482144 0.19301036
00000000: 4c03 18bd da08 853e e511 d43b 7428 97bc
00000010: 15f1 d83c 82a4 453e

conv2.weight f4 [16, 6, 5, 5]
0.044414196 -0.061230235 -0.2145383 -0.07528169 0.06513593 -0.056192555 -0.16693084 -0.093427256
0.076774634 0.10387834 0.0058381236 -0.11801894 0.030435774 0.093087256 0.027654296 0.09803576
0.0686871 0.103028655 0.12512125 -0.05830502 0.0022701279 0.12652057 0.07645882 0.02122902
-0.0040097395 -0.0358577 0.005214194 -0.040220108 0.15698357 0.02707224 0.017759282 0.003959657
0.07249488 0.17669703 0.053220656 -0.012983709 0.023415828 -0.027869627 0.13710968 -0.060903
-0.100349 -0.0513682 0.05551393 -0.000710339 -0.13312241 -0.033459313 -0.015601345 -0.018422194
-0.068032846 -0.12964477 -0.062711604 -0.05415711 -0.119503245 -0.04759771 0.0022315187 -0.07880969
-0.013000192 -0.12823457 -0.027583996 -0.003189613 0.0412497 -0.07739646 -0.08792806 -0.047626458
0.044164434 -0.06881877 0.0125003 -0.025322462 0.08385394 0.0056035263 0.040086642 0.079308145
0.026481073 0.057173006 0.055006463 0.054274466 -0.013255787 -0.14366594 0.033656474 0.07206949
-0.1250275 -0.08674595 -0.102603436 0.10524287 0.043480054 0.009067012 -0.014415777 0.060809527
0.1407079 -0.03386503 0.044850465 0.07885769 -0.02780692 0.06340717 -0.070375934 0.094782785
0.0369779 -0.012423311 0.036255844 -0.13904515 0.049970195 0.009471337 -0.15343174 0.006755286
-0.0018320513 -0.064997904 -0.062486943 -0.12700945 0.07335683 0.07511886 -0.06120075 -0.03690611
0.031970743 0.048314597 0.11404949 0.056722242 0.07026047 0.12677734 0.021340437 -0.031819526
0.047274034 0.088352375 0.069602326 0.012928871 -0.09536991 0.09174327 0.06416311 -0.0723622
-0.03006795 -0.111960515 -0.11362817 -0.100818105 -0.110931136 -0.1401653 -0.12915996 0.022209387
-0.11950596 -0.16456592 -0.08410767 -0.118354395 0.019661872 -0.07196323 -0.11943939 -0.005747047
-0.015596266 -0.08950147 0.0034659812 -0.06777458 0.02563341 -0.08572684 -0.08222165 -0.06054095
-0.12817954 -0.00034037445 -0.032478087 -0.07269238 -0.1429576 -0.11707692 0.12431339 0.017126296
-0.09295803 -0.052996058 0.062188618 0.085431166 0.040283553 -0.055229086 0.0637331 0.061762605
-0.039241523 0.02376337 0.0029785775 0.04475624 -0.05213532 -0.15145198 -0.21855085 -0.028665258
-0.048504602 0.036934525 0.09507422 -0.06978135 -0.12198742 -0.10846705 -0.05709839 0.0035439285
0.057805534 0.022881271 0.048697915 -0.07768699 0.00015376833 -0.13246545 -0.008567996 -0.025620932
-0.009724085 0.014527888 -0.06760103 0.028080542 0.020956248 -0.046038866 -0.022105305 -0.1347851
0.007526335 -0.088329375 0.001570448 0.022139084 0.09785011 0.011498811 -0.10422316 -0.07682383
-0.012875617 -0.023224108 -0.024180563 -0.08236425 0.014276439 0.049978144 0.0926597 -0.0051164855
0.037614327 0.07811396 0.07119043 0.1183587 -0.042946424 0.09323287 0.051876534 0.06353283
-0.109702274 0.0007994014 -0.084921345 -0.030753965 -0.06435846 0.104992755 -0.04313644 -0.14937207
-0.07338414 -0.027939025 0.056551177 -0.040752 0.07278229 -0.005078606 0.12520243 0.12930329
0.059041064 0.074285835 0.12680048 0.0073464774 -0.0063192337 -0.052710272 0.10964689 0.07780206
-0.16612104 -0.22339015 -0.006270157 -0.11421295 -0.089648865 -0.017352572 0.067925215 -0.01692803
00000000: a9eb 353d 8ecc 7abd eeaf 5bbe 492d 9abd
00000010: fd65 853d 2a2a 66bd ebef 2abe ca56 bfbd
00000020: 053c 9d3d 2bbe d43d bb4d bf3b eab3 f1bd
00000030: 7254 f93c 88a4 be3d 438b e23c f9c6 c83d
00000040: d3ab 8c3d b000 d33d c91f 003e 3fd1 6ebd
00000050: 6dc6 143b 9c8e 013e 7196 9c3d 7be8 ad3c
00000060: 2264 83bb 86df 12bd d4db aa3b d7bd 24bd
00000070: 4dc0 203e 9ac6 dd3c ea7b 913c 03c0 813b
00000080: 3278 943d 11f0 343e e7fd 593d 9fb9 54bc
00000090: 8dd2 bf3c d84e e4bc 7b66 0c3e 6d75 79bd
000000a0: c783 cdbd 7667 52bd 9362 633d 0b36 3aba
000000b0: 3e51 08be a20c 09bd c99c 7fbc 24ea 96bc
000000c0: ce54 8bbd 99c1 04be f16e 80bd d9d3 5dbd
000000d0: 1ebe f4bd d1f5 42bd ac3e 123b fa66 a1bd
000000e0: c2fe 54bc ec4f 03be d5f7 e1bc d408 51bb
000000f0: 72f5 283d 0982 9ebd a013 b4bd f613 43bd
00000100: c4e5 343d dbf0 8cbd 0fce 4c3c 0d71 cfbc
00000110: 9dbb ab3d c99d b73b e431 243d 4f6c a23d
00000120: d6ee d83c 3e2e 6a3d 754e 613d e74e 5e3d
00000130: cd2e 59bc 2a1d 13be 5fdb 093d 2b99 933d
00000140: 3507 00be dca7 b1bd c021 d2bd 9389 d73d
00000150: 2418 323d ce8d 143c 2730 6cbc 6913 793d
00000160: bb15 103e 0fb6 0abd 1fb5 373d 2480 a13d
00000170: 57cb e3bc 9edb 813d 4221 90bd 7a1d c23d
00000180: 2376 173d 258b 4bbc 0281 143d da61 0ebe
00000190: 8cad 4c3d ab2d 1b3c 361d 1dbe 725b dd3b
000001a0: 7121 f0ba 9f1d 85bd 4ff2 7fbd c40e 02be
000001b0: 1b3c 963d ebd7 993d a3ad 7abd dc2a 17bd
000001c0: c1f3 023d 87e5 453d c792 e93d 9555 683d
000001d0: b9e4 8f3d ebd1 013e 24d2 ae3c 3155 02bd
000001e0: 6ba2 413d 17f2 b43d aa8b 8e3d 9ed3 533c
000001f0: 4d51 c3bd e5e3 bb3d f367 833d a232 94bd
00000200: 1051 f6bc 8e4b e5bd e3b5 e8bd b979 cebd
00000210: dd2f e3bd 7e87 0fbe 8242 04be 76f0 b53c
00000220: 8abf f4bd f883 28be a440 acbd ca63 f2bd
00000230: ef11 a13c 7561 93bd a49c f4bd b951 bcbb
00000240: 7b87 7fbc 8c4c b7bd 8425 633b 66cd 8abd
00000250: 28fd d13c 8e91 afbd d363 a8bd caf9 77bd
00000260: 7f41 03be 4974 b2b9 be07 05bd bedf 94bd
00000270: 7a63 12be 06c6 efbd 0598 fe3d 724c 8c3c
00000280: c860 bebd 6512 59bd 7eb9 7e3d 89f6 ae3d
00000290: 5e00 253d e537 62bd 8086 823d c9fa 7c3d
000002a0: b8bb 20bd 66ab c23c 3d34 433b 5252 373d
000002b0: d88b 55bd 3a16 1bbe cbcb 5fbe 67d3 eabc
000002c0: c3ac 46bd a848 173d 46b6 c23d 86e9 8ebd
000002d0: 8ad4 f9bd f923 debd 00e0 69bd 4141 683b
000002e0: 7fc5 6c3d 8171 bb3c 7777 473d 5b1a 9fbd
000002f0: df3c 2139 06a5 07be c860 0cbc fde2 d1bc
00000300: c551 1fbc 6106 6e3c 6972 8abd 2a09 e63c
00000310: 70ac ab3c 4093 3cbd 2f16 b5bc 1b05 0abe
00000320: 799f f63b 08e6 b4bd 7ed7 cd3a 065d b53c
00000330: a365 c83d 8265 3c3c f472 d5bd d055 9dbd
00000340: 40f4 52bc 7c40 bebc 5116 c6bc 97ae a8bd
00000350: bae7 693c e2b5 4c3d 5ec4 bd3d 31a8 a7bb
00000360: 7b11 1a3d 36fa 9f3d 4acc 913d 0c66 f23d
00000370: 97e8 2fbd e0f0 be3d 7d7c 543d 801d 823d
00000380: 96ab e0bd eb8e 513a 3eeb adbd bdef fbbc
00000390: 5ece 83bd 7106 d73d d6af 30bd fef4 18be
000003a0: 6d4a 96bd 62e0 e4bc 35a2 673d 92eb 26bd
000003b0: e20e 953d 6f6a a6bb 1135 003e 1568 043e
000003c0: 0bd5 713d 2c23 983d fcd7 013e b8ba f03b
000003d0: 9311 cfbb bae6 57bd 8c8e e03d b056 9f3d
000003e0: a21b 2abe 63c0 64be e475 cdbb 7be8 e9bd
000003f0: d399 b7bd fb26 8ebc 601c 8b3d a7ac 8abc

conv2.bias f4 [16]
-0.02469398 -0.003731254 -0.03518326 -0.0005644056 -0.029864619 -0.028461838 -0.009791234 -0.0726064
0.029903328 -0.037186034 0.046584506 -0.016255759 -0.0522769 -0.063102685 0.009610714 0.03722526
00000000: 084b cabc 0e88 74bb 521c 10bd 9ef4 13ba
00000010: a5a6 f4bc cd28 e9bc 696b 20bc aab2 94bd
00000020: d3f7 f43c 6250 18bd 65cf 3e3d cc2a 85bc
00000030: 4d20 56bd fb3b 81bd 4276 1d3c 8479 183d

fc1.weight f4 [120, 256]
0.0042301496 -0.05933904 -0.016920287 0.017705256 -0.06503401 -0.031694416 -0.04520526 -0.0015718467
-0.067696534 -0.041340023 0.00056980527 0.055394214 0.0480208 -0.034938693 0.05570799 -0.06342451
-0.04861045 0.0063313665 0.00094347214 -0.011697818 -0.030517645 -0.030197687 0.038989343 -0.059274353
-0.010746198 0.048945624 -0.051658273 0.036812954 0.00023358894 0.0036260625 0.013738988 0.013310576
0.055472046 -0.04740195 4.1149557e-05 -0.013429346 0.0558782 -0.05052767 0.0112506505 -0.0535333
-0.055935808 -0.045764476 0.011427503 -0.06698451 0.020497277 -0.030513285 -0.02118276 0.02361874
-0.032295335 -0.058259666 -0.02925193 0.05076708 -0.0037994394 -0.0050502014 -0.05025246 -0.03095061
-0.0020654162 0.016281087 -0.02915657 0.02342893 -0.008102974 -0.017276123 -0.0016025037 0.044814773
-0.009366958 -0.043642767 0.048613876 -0.056479618 0.036225546 -0.029144954 0.026491404 0.0018124958
-0.012698676 -0.022680435 0.013885528 0.013615441 -0.019528711 0.023001503 0.050915487 -0.061623916
-0.01017766 -0.029289022 0.05419442 -0.058689952 -0.00024829363 0.0142468605 -0.04990916 0.008757103
-0.045369934 -0.019432627 0.030858055 -0.065582365 0.0062140664 0.025709748 0.029798402 0.03380092
0.008023832 -0.047640182 -0.056205064 0.019176478 -0.00980651 -0.06106854 0.008296082 -0.056661867
-0.027650919 -0.029407535 -0.06189952 0.048714235 -0.026515217 -0.06492492 0.04789904 -0.02929689
0.009774864 -0.039054018 0.034317218 -0.026229516 0.0054945005 0.035473965 0.0059070233 0.039841615
-0.003061614 0.028214943 0.009792356 -0.035446666 -0.008659742 -0.037207548 0.04423481 -0.05018398
0.011346156 0.027987186 -0.004455087 0.0062969616 0.032420393 0.023724116 -0.04994335 0.04926303
-0.019268395 0.04273592 -0.0127210915 0.032956637 -0.006410415 -0.040796064 -0.029008498 -0.048624583
-0.027704969 0.016387193 -0.03246935 0.00083401706 0.0072045727 0.027659476 0.02019228 0.03247236
-0.014388355 -0.024348592 0.04742809 -0.00572984 -0.023233358 -0.053284984 0.056412846 0.03566326
0.022343762 0.04078587 0.005680039 0.033400066 0.041176744 -0.048814744 -0.031008508 -0.026249222
-0.052057695 -0.025867932 0.016093105 -0.017812418 0.031650174 0.04249563 -0.013289133 0.051162653
-0.0068094125 0.0002354855 -0.040975705 -0.026497208 0.0017051843 0.022593856 -0.037828207 0.04121036
-0.059239212 0.044900775 -0.024935804 -0.04696606 -0.054371264 -0.026010297 0.042398475 0.005612611
-0.021647185 -0.0058235647 0.00845044 -0.020190816 -0.015482001 -0.066902526 -0.009062339 -0.009462604
0.047508106 -0.015889825 -0.0007998317 0.014719232 0.02736944 0.010032209 0.03889825 0.039618716
-0.047938667 -0.00564004 -0.0272459 -0.023212481 -0.050612833 0.048499025 -0.06003508 -0.006251827
0.05201348 -0.041098252 0.044450767 -0.033885352 0.0154802725 0.02738744 -0.022622481 0.011572244
0.04280547 -0.013692219 0.026684573 0.049310803 2.805743e-05 -0.03173891 0.013141715 -0.0042684847
0.031620108 0.022145487 -0.03275077 -0.067010485 -0.06528225 -0.0058264546 -0.0061869677 0.02020471
-0.02589509 -0.032626174 0.014994573 -0.036914203 0.04242762 -0.05978278 -0.009512141 0.009334701
0.00023832683 0.0069041923 -0.06731016 0.02839532 -0.027717479 -0.008748129 -0.022050943 -0.044746283
00000000: 119d 8a3b 7e0d 73bd 6a9c 8abc 9d0a 913c
00000010: 8d30 85bd 01d2 01bd 2729 39bd 6c06 ceba
00000020: 7ba4 8abd 2854 29bd fc5e 153a 0be5 623d
00000030: 75b1 443d e01b 0fbd 102e 643d b6e4 81bd
00000040: c01b 47bd 5a77 cf3b 5853 773a 34a8 3fbc
00000050: 2400 fabc 2461 f7bc 4ab3 1f3d aac9 72bd
00000060: d210 30bc 357b 483d a097 53bd 2ec9 163d
00000070: 8eef 7439 3ca3 6d3b 7e19 613c 9a14 5a3c
00000080: a836 633d 8c28 42bd 0098 2c38 c206 5cbc
00000090: 8ae0 643d 1af6 4ebd a654 383c bc45 5bbd
000000a0: f21c 65bd 8873 3bbd 6c3a 3b3c 2d2f 89bd
000000b0: e8e9 a73c fff6 f9bc 7887 adbc 167c c13c
000000c0: 1d48 04bd b0a1 6ebd bea1 efbc 24f1 4f3d
000000d0: 0400 79bb 297c a5bb 86d5 4dbd 228c fdbc
000000e0: ef5b 07bb ea5f 853c c2d9 eebc 07ee bf3c
000000f0: 56c2 04bc a886 8dbc 1a0b d2ba b28f 373d
00000100: df77 19bc c2c2 32bd 581f 473d 2c57 67bd
00000110: 3d61 143d 66c1 eebc 8004 d93c 4491 ed3a
00000120: 1c0e 50bc 52cc b9bc 2080 633c 4c13 5f3c
00000130: adfa 9fbc a66d bc3c c28c 503d 5c69 7cbd
00000140: 33c0 26bc 88ef efbc f8fa 5d3d e064 70bd
00000150: 682d 82b9 aa6b 693c 8c6d 4cbd f479 0f3c
00000160: d3d5 39bd 2c31 9fbc 08ca fc3c 0c50 86bd
00000170: 5e9f cb3b 409d d23c c71b f43c d572 0a3d
00000180: 6476 033c 5a22 43bd 4837 66bd fd17 9d3c
00000190: 7cab 20bc 0123 7abd 4aec 073c 4616 68bd
000001a0: 2e84 e2bc 12e8 f0bc 5a8a 7dbd 9488 473d
000001b0: 7136 d9bc 5bf7 84bd c931 443d 0800 f0bc
000001c0: c026 203c 1bf7 1fbd 3690 0c3d 48df d6bc
000001d0: 360b b43b 264d 113d b48f c13b f630 233d
000001e0: 5ca5 48bb 0623 e73c 1e70 203c 8630 11bd
000001f0: 97e1 0dbc f166 18bd 8f2f 353d b88d 4dbd
00000200: 3ae5 393c 6245 e53c fafb 91bb be56 ce3b
00000210: 3fcb 043d 1459 c23c 6691 4cbd 08c8 493d
00000220: c1d8 9dbc dc0b 2f3d 206c 50bc 8afd 063d
00000230: 750e d2bb c619 27bd 3ba3 edbc 922a 47bd
00000240: 88f5 e2bc 6f3e 863c 95fe 04bd f0a1 5a3a
00000250: 5614 ec3b 2096 e23c 486a a53c bd01 053d
00000260: 23bd 6bbc b376 c7bc f543 423d 62c1 bbbb
00000270: e253 bebc 5b41 5abd 2811 673d a313 123d
00000280: 440a b73c 160f 273d 9f1f ba3b 82ce 083d
00000290: f2a8 283d f8f1 47bd 8e05 febc 9c08 d7bc
000002a0: 733a 55bd fce8 d3bc b0d5 833c 59eb 91bc
000002b0: 9da3 013d e60f 2e3d aaba 59bc ee8f 513d
000002c0: 7e21 dfbb a8ec 7639 24d6 27bd ac10 d9bc
000002d0: 7e80 df3a c016 b93c c0f1 1abd 32cc 283d
000002e0: d1a4 72bd e0e9 373d 2c46 ccbc 7c5f 40bd
000002f0: 67b4 5ebd 8c13 d5bc 06aa 2d3d fee9 b73b
00000300: 7055 b1bc 9ad3 bebb b773 0a3c 3667 a5bc
00000310: 38a8 7dbc 3104 89bd 347a 14bc 0a09 1bbc
00000320: dc97 423d 612b 82bc ccab 51ba ef28 713c
00000330: e035 e03c 225e 243c c553 1f3d 3c47 223d
00000340: 565b 44bd 16d0 b8bb cb32 dfbc 1a28 bebc
00000350: 674f 4fbd eaa6 463d 58e7 75bd 20dc ccbb
00000360: 160c 553d a456 28bd 0212 363d 5ecb 0abd
00000370: f8a0 7d3c a05b e03c c852 b9bc 8299 3d3c
00000380: ca54 2f3d 5455 60bc 9b99 da3c 20fa 493d
00000390: df5c eb37 a900 02bd 5950 573c a5de 8bbb
000003a0: 1684 013d 746a b53c ac25 06bd cb3c 89bd
000003b0: b3b2 85bd d8eb bebb 0cbc cabb 5984 a53c
000003c0: f121 d4bc 06a3 05bd ccab 753c 5933 17bd
000003d0: 96c8 2d3d cade 74bd d0d8 1bbc 93f0 183c
000003e0: 5fe7 7939 903c e23b e9d9 89bd 4d9d e83c
000003f0: c40f e3bc 5054 0fbc 2ea4 b4bc e147 37bd

fc1.bias f4 [120]
0.00016790075 -0.05997686 -0.061508823 0.086179465 0.05066772 -0.035318233 0.02589259 -0.027146399
0.026958495 0.07270684 0.09858157 0.040462583 0.074975826 -0.0034518128 -0.02495346 -0.035145305
-0.041625064 -0.021502635 -0.034353834 0.03443145 0.0441202 0.08408188 -0.04009404 0.048022185
0.032895476 0.038307052 0.054890074 0.010018215 0.041594706 0.02624164 0.057416957 -0.009811193
0.0033078236 -0.04568201 -0.018134216 -0.040994592 0.006350465 0.022036023 -0.0075354106 0.002076068
0.06927383 -0.05669843 -0.0051424815 -0.03890171 0.014816909 -0.008603548 -0.0012207212 -0.009030798
-0.0015758702 0.03142702 -0.055848405 0.057312388 -0.036807723 -0.02082819 0.046710525 0.027758531
-0.05923458 0.040360004 -0.019561578 -0.032142136 0.0827514 -0.05259721 -0.058688756 0.08629268
0.086410835 0.028949812 0.038437773 -0.04735765 -0.013596636 0.023907721 0.014706566 -0.0031330495
0.04848189 0.06365166 0.009042854 0.0031361012 -0.007445222 0.0045844615 0.022261705 -0.0046017664
0.0064239283 0.030591166 -0.03694216 0.050443985 0.020218872 0.02096783 -0.0064757257 -0.019101337
-0.037837483 -0.017672453 -0.01997195 -0.04831954 0.056734998 -0.042615652 -0.00444839 0.035699286
0.042130712 0.049148522 -0.024721034 0.020306643 -0.06161769 -0.03266103 0.0026268773 -0.060769558
-0.046442237 -0.013890308 -0.050987445 -0.0719084 -0.005995257 -0.00012439386 0.008415385 0.060474407
-0.0011698577 -0.057850268 0.066107035 0.0005423361 -0.042097792 0.038108498 0.0075838505 0.05006002
00000000: 840e 3039 4caa 75bd adf0 7bbd dc7e b03d
00000010: f588 4f3d daa9 10bd b21c d43c 2062 debc
00000020: 10d8 dc3c 53e7 943d 22e5 c93d 18bc 253d
00000030: ed8c 993d cf37 62bb 336b ccbc 86f4 0fbd
00000040: 0b7f 2abd 4b26 b0bc 9bb6 0cbd fe07 0d3d
00000050: 62b7 343d 1f33 ac3d a639 24bd e9b2 443d
00000060: 68bd 063d dbe7 1c3d 6ad4 603d 7023 243c
00000070: 365f 2a3d b5f8 d63c 0b2e 6b3d 20bf 20bc
00000080: 12c8 583b 0f1d 3bbd 358e 94bc f2e9 27bd
00000090: 9017 d03b e484 b43c 9beb f6bb a40e 083b
000000a0: 70df 8d3d 9d3c 68bd 4382 a8bb 6657 1fbd
000000b0: 9fc2 723c e5f5 0cbc 9b00 a0ba eaf5 13bc
000000c0: 6e8d ceba 9eb9 003d 4cc1 64bd 65c0 6a3d
000000d0: b2c3 16bd e19f aabc 8953 3f3d dc65 e33c
000000e0: f59f 72bd 8850 253d 9a3f a0bc 79a7 03bd
000000f0: 9179 a93d 2c70 57bd 9f63 70bd 37ba b03d
00000100: 2af8 b03d 2828 ed3c ed70 1d3d 18fa 41bd
00000110: 6dc4 5ebc 20da c33c cff3 703c d953 4dbb
00000120: f294 463d cd5b 823d 7b28 143c 0c87 4d3b
00000130: 0df7 f3bb 4039 963b 2e5e b63c 6aca 96bb
00000140: d17f d23b 539a fa3c aa50 17bd 5a9e 4e3d
00000150: 0ca2 a53c bac4 ab3c 5332 d4bb 687a 9cbc
00000160: 7afb 1abd d2c5 90bc 379c a3bc b6ea 45bd
00000170: f562 683d c08d 2ebd cdc3 91bb 6a39 123d
00000180: 4191 2c3d f64f 493d c483 cabc 1e5a a63c
00000190: d562 7cbd 92c7 05bd b027 2c3b 80e9 78bd
000001a0: 373a 3ebd 2d94 63bc 36d8 50bd b644 93bd
000001b0: dc73 c4bb b96f 02b9 afe0 093c 03b4 773d
000001c0: e955 99ba 67f4 6cbd 2063 873d 8f2b 0e3a
000001d0: bc6e 2cbd a817 1c3d f381 f83b bc0b 4d3d

fc2.weight f4 [84, 120]
-0.056543794 0.07953519 0.072178304 0.0314953 0.0692134 -0.010747318 -0.09735825 0.003064693
0.076776624 -0.036020137 0.027836718 0.057134442 0.037952878 -0.05677562 -0.00082486693 -0.014469909
-0.029036965 -0.06695271 0.055946525 0.022131294 -0.07992516 -0.066454895 0.089030966 -0.073520176
-0.028499883 0.06697304 -0.029170137 0.05381061 -0.03887913 -0.082871616 0.006956875 -0.04136374
-0.027933316 -0.07496877 -0.04207346 0.0014798158 0.019990832 -0.036629796 -0.031326655 -0.06355773
0.021235876 0.046329554 -0.027745463 0.091255754 0.09017765 0.082065985 -0.018459307 -0.008978039
0.011983216 -0.05876404 -0.046946563 0.030180423 -0.031241465 0.08199151 -0.030427927 0.00451907
0.049336832 -0.06911388 0.024022425 0.07673495 -0.07434283 0.08423881 0.07783211 -0.09911435
-0.070086285 -0.063395195 -0.11934546 0.07211117 -0.018696614 0.01868829 0.04661727 -0.008818622
-0.02140377 0.008696346 -0.04157348 -0.044364385 0.04727003 0.04577689 -0.08168907 0.019333834
-0.09782888 0.05441397 0.06427235 -0.089286655 -0.06006938 -0.00070976553 0.06318895 0.02421269
-0.021867003 0.0073615797 0.07072544 0.025134295 -0.07682461 0.0012409913 -0.036816437 -0.065783866
0.09696851 0.06357102 0.032509528 -0.004177876 -0.06876072 3.8393613e-05 0.007828935 0.046325147
-0.0739724 -0.0417481 -0.02463038 0.024314582 0.029290514 -0.007402787 0.017885543 -0.07461272
-0.069687374 0.0695884 -0.051067572 -0.06551724 0.0669791 -0.080299325 0.022070386 0.07777798
0.064728595 -0.007824044 -0.042437404 0.059826765 0.025396204 -0.06669239 0.0055086133 -0.07626028
0.04110863 -0.026256138 0.042922374 0.04080886 -0.108623676 -0.08324796 0.033799 -0.086584896
-0.059237797 -0.015045979 -0.060299084 -0.06744296 -0.035132587 -0.10619328 0.03466814 0.0647515
-0.1142319 0.03572087 -0.0893427 0.05746956 0.018207228 -0.08297439 0.045094542 -0.10072909
-0.07736147 0.02556595 0.05023001 -0.019499239 -0.056661896 0.0424921 -0.020680998 -0.050633557
-0.10844434 -0.07282011 0.039834782 0.041830093 0.059428494 0.0023578927 0.038874395 -0.018807681
-0.07409464 -0.098455586 0.049842373 0.05638558 -0.00059406547 -0.0015897847 -0.011651276 0.045444794
-0.05183064 -0.060632035 0.028512862 0.031278953 -0.09253678 -0.034646392 -0.010134224 -0.044426825
0.054332472 -0.08096297 -0.100848496 0.013635924 -0.08189311 0.019987551 -0.03944871 -0.006087268
0.0073527354 -0.036471255 -0.10886974 0.08812302 -0.10050666 -0.021317422 -0.029807802 -0.017275175
-0.015817491 0.049623147 -0.124068 -0.10175085 -0.0029988086 -0.010623742 0.06383392 -0.059482515
0.037641615 0.07186082 0.073372245 -0.08349028 0.034598764 -0.08899938 -0.08738993 -0.046294637
-0.022341643 -0.013942219 0.0778833 -0.0730355 -0.03580336 0.05460614 -0.11702971 0.061930403
0.064791195 -0.0020110158 0.083544835 0.03416487 0.02719945 -0.0038060027 -0.09474866 -0.05287242
-0.056542303 -0.064125545 -0.09968101 0.07529511 0.06995019 0.03478426 -0.017521605 -0.021634027
0.088458195 -0.051481817 -0.0637266 0.037617203 -0.09030085 -0.042149387 -0.068753615 0.00352405
-0.09795845 -0.027832549 0.07106359 0.046463247 -0.031769805 -0.05077978 -0.1244135 -0.06142449
00000000: 779a 67bd 58e3 a23d 38d2 933d 3701 013d
00000010: c1bf 8d3d 8515 30bc c363 c7bd 04d9 483b
00000020: 103d 9d3d da89 13bd d409 e43c ce05 6a3d
00000030: 7a74 1b3d 8d8d 68bd e23b 58ba 3213 6dbc
00000040: eede edbc 811e 89bd 2f28 653d b04c b53c
00000050: cdaf a3bd 8119 88bd de55 b63d bf91 96bd
00000060: 9678 e9bc 2929 893d 36f6 eebc 8468 5c3d
00000070: b93f 1fbd 98b8 a9bd 7ff6 e33b 066d 29bd
00000080: 69d4 e4bc 3a89 99bd 3855 2cbd 61f6 c13a
00000090: d0c3 a33c 2009 16bd 6150 00bd 8e2a 82bd
000000a0: dcf6 ad3c 0fc4 3d3d 744a e3bc 4ce4 ba3d
000000b0: 0faf b83d 3612 a83d f937 97bc a018 13bc
000000c0: 4055 443c 90b2 70bd 0a4b 40bd ef3c f73c
000000d0: 1aee ffbc 2aeb a73d fd43 f9bc b514 943b
000000e0: 6b15 4a3d 948b 8dbd adca c43c 3727 9d3d
000000f0: 0e41 98bd 6685 ac3d 7166 9f3d 77fc cabd
00000100: 6689 8fbd 57d5 81bd 646b f4bd 05af 933d
00000110: a429 99bc 2f18 993c c0f1 3e3d fb7b 10bc
00000120: f656 afbc 1e7b 0e3c f448 2abd 6eb7 35bd
00000130: 389e 413d 8c80 3b3d 994c a7bd fd61 9e3c
00000140: 825a c8bd 2fe1 5e3d 39a1 833d ecdb b6bd
00000150: 4f0b 76bd 8f0f 3aba 3569 813d b159 c63c
00000160: 6e22 b3bc 6839 f13b 80d8 903d 70e6 cd3c
00000170: 3956 9dbd c2a8 a23a d5cc 16bd b1b9 86bd
00000180: 6d97 c63d 8631 823d b628 053d 90e6 88bb
00000190: 6cd2 8cbd d408 2138 ef44 003c 70bf 3d3d
000001a0: d77e 97bd 0e00 2bbd a7c5 c9bc 602f c73c
000001b0: a9f2 ef3c 1493 f2bb b484 923c 8ece 98bd
000001c0: 41b8 8ebd 5d84 8e3d 3b2c 51bd e72d 86bd
000001d0: 572c 893d f973 a4bd f4cc b43c 104a 9f3d
000001e0: 6d90 843d 6b30 00bc d8d2 2dbd e90c 753d
000001f0: b30b d03c 0596 88bd 9981 b43b 5a2e 9cbd
00000200: 8661 283d 1d17 d7bc 5fcf 2f3d 3127 273d
00000210: 1776 debd e87d aabd d270 0a3d 6c53 b1bd
00000220: 55a3 72bd 6983 76bc 2cfc 76bd 891f 8abd
00000230: 30e7 0fbd dd7b d9bd 2e00 0e3d 6f9c 843d
00000240: 6af2 e9bd 0c50 123d 4ef9 b6bd 3465 6b3d
00000250: 5327 953c 7aee a9bd 0eb5 383d 0e4b cebd
00000260: b16f 9ebd af6f d13c fcbd 4d3d debc 9fbc
00000270: 4e16 68bd 320c 2e3d 326b a9bc 2265 4fbd
00000280: 1118 debd b622 95bd cc29 233d 0856 2b3d
00000290: 4b6b 733d e086 1a3b c23a 1f3d 9112 9abc
000002a0: eebe 97bd 15a3 c9bd 8427 4c3d 91f4 663d
000002b0: 0fbb 1bba 5360 d0ba fee4 3ebc 5224 3a3d
000002c0: 5d4c 54bd 4c59 78bd ce93 e93c 5c1e 003d
000002d0: ec83 bdbd 60e9 0dbd 040a 26bc e7f8 35bd
000002e0: ba8b 5e3d eacf a5bd a889 cebd 3669 5f3c
000002f0: 93b7 a7bd efbc a33c f894 21bd b477 c7bb
00000300: 37ef f03b e262 15bd 19f7 debd d879 b43d
00000310: 70d6 cdbd e0a1 aebc 7e2f f4bc ab84 8dbc
00000320: af93 81bc a441 4b3d 5d17 febd c062 d0bd
00000330: a987 44bb 340f 2ebc 5cbb 823d f0a3 73bd
00000340: 182e 1a3d c42b 933d 3044 963d f4fc aabd
00000350: 6fb7 0d3d 4f45 b6bd 7ef9 b2bd 729f 3dbd
00000360: d205 b7bc e86d 64bc 4881 9f3d a393 95bd
00000370: 8ba6 12bd b0aa 5f3d 46ad efbd bcaa 7d3d
00000380: 3fb1 843d 3fcb 03bb 8e19 ab3d 76f0 0b3d
00000390: 62d1 de3c 216e 79bb 960b c2bd c090 58bd
000003a0: e798 67bd 4154 83bd 8f25 ccbd 5334 9a3d
000003b0: 0c42 8f3d f179 0e3d 7889 8fbc d839 b1bc
000003c0: 9229 b53d 99de 52bd 1783 82bd 7f14 1a3d
000003d0: a7ef b8bd d6a4 2cbd b2ce 8cbd bff3 663b
000003e0: 719e c8bd 1601 e4bc ca89 913d 3f50 3e3d
000003f0: 0e21 02bd 75fe 4fbd 81cc febd 3f98 7bbd

fc2.bias f4 [84]
-0.038376033 0.0029675977 -0.005211334 0.069777176 -0.095377274 -0.07297892 -0.10530427 0.001724356
-0.063734405 0.02537166 0.031132499 0.004545309 0.059345927 -0.04319857 -0.11558814 0.035403207
-0.045401186 0.050859448 0.030194603 0.083906464 -0.024281664 0.11871682 -0.101453565 -0.022749346
0.033517085 -0.051879935 0.05690584 0.0027857712 -0.021167263 -0.0053602587 0.07803493 -0.020689322
-0.04024859 -0.0470769 -0.023491131 -0.0031558215 0.041706983 -0.031161768 0.026788618 0.044469047
-0.06216616 -0.0013276713 0.06543668 0.045471303 0.05193036 0.062168874 0.0010246779 -0.03288873
-0.07708969 0.06930471 0.015562789 0.038882013 0.046550713 0.04578121 0.085998744 0.08721989
-0.07016497 -0.018144952 0.028171554 -0.073642805 0.05679203 0.07807494 0.07271617 0.036757227
0.042191323 0.106110856 0.10551821 -0.075401075 -0.01849289 -0.036558006 0.09304197 0.031810086
0.10891778 0.08708322 -0.016565586 0.021167643 -0.019563947 0.06550003 0.0899069 -0.107803605
0.10544684 -0.05208085 0.02559402 -0.06354285
00000000: 3030 1dbd 077c 423b d7c3 aabb 56e7 8e3d
00000010: 2955 c3bd f975 95bd c4a9 d7bd c903 e23a
00000020: 2f87 82bd 3ad8 cf3c 9509 ff3c d1f0 943b
00000030: b714 733d fcf0 30bd 7ab9 ecbd f402 113d
00000040: 98f6 39bd ff51 503d ac5a f73c 27d7 ab3d
00000050: 57ea c6bc ce21 f33d e3c6 cfbd d65c babc
00000060: 3649 093d 0e80 54bd 1916 693d 7c91 363b
00000070: f866 adbc 1ca5 afbb c7d0 9f3d a77c a9bc
00000080: b5db 24bd b5d3 40bd 7970 c0bc e6d1 4ebb
00000090: f1d4 2a3d f746 ffbc ce73 db3c 2d25 363d
000000a0: f2a1 7ebd 4205 aeba ab03 863d 1e40 3a3d
000000b0: eeb4 543d caa4 7e3d 7c4e 863a 55b6 06bd
000000c0: 33e1 9dbd a1ef 8d3d 11fb 7e3c bf42 1f3d
000000d0: f6ab 3e3d 1485 3b3d 1c20 b03d 57a0 b23d
000000e0: a7b2 8fbd b9a4 94bc 08c8 e63c 0ad2 96bd
000000f0: c29e 683d c1e5 9f3d 37ec 943d bf8e 163d
00000100: cfd0 2c3d a650 d93d ee19 d83d e16b 9abd
00000110: 677e 97bc d9bd 15bd ca8c be3d 4b4b 023d
00000120: 4910 df3d b058 b23d 8db4 87bc c467 ad3c
00000130: 9244 a0bc e124 863d 1c21 b83d 23c8 dcbd
00000140: 83f4 d73d bb52 55bd 8daa d13c c122 82bd

fc3.weight f4 [10, 84]
0.10510375 -0.07139594 -0.028864058 -0.12241332 -0.037935857 0.05378106 0.059070658 -0.052763455
-0.104102865 -0.016320236 -0.11969077 -0.11908579 -0.02992483 0.029943429 -0.10685405 0.054379385
-0.018889511 0.00018897161 -0.033478975 -0.1274807 -0.025405658 -0.10765454 0.07951676 0.055837672
0.16035457 -0.030518722 -0.037822593 0.03975091 0.05525768 0.01219199 -0.19946496 -0.13627693
-0.086212434 -0.063960776 0.05788719 0.046232406 0.13985467 0.087537415 0.12987407 -0.033715993
0.09763247 -0.05542403 -0.024761915 -0.06849778 0.056961603 0.0716564 -0.016976044 -0.11472303
-0.032496195 -0.19450238 0.0922251 -0.12647152 0.12147632 -0.10066474 -0.01644952 0.030845026
-0.1544035 -0.10588678 -0.059097555 -0.014928559 -0.080139555 -0.12547965 -0.0873188 -0.02739709
-0.13995159 -0.0678196 -0.11980047 -0.030275496 0.06722874 -0.103608645 0.012667535 0.02034535
0.12602597 -0.06898379 0.1046844 0.013886534 -0.07890373 0.13866411 -0.18323472 0.1049836
-0.06955515 -0.065402254 0.04141706 -0.11772479 -0.04132213 -0.08969969 0.11028724 -0.09357476
0.021655262 -0.11149009 -0.091950275 0.057730123 -0.08519092 -0.14073199 0.086512566 0.07605108
0.11555837 0.107002504 0.06113004 -0.16636762 -0.12012727 0.10543838 -0.14560227 -0.07340857
0.07800054 0.12878475 -0.14236785 -0.043539815 -0.082038976 -0.03201774 -0.017044703 -0.10416342
-0.051754385 -0.104319155 -0.06631281 -0.11548237 0.07111578 0.079718634 0.08435718 0.013457814
-0.13221046 -0.06648937 -0.08763348 -0.030836802 -0.124518804 -0.04551588 0.09463337 -0.02394699
-0.05419843 0.0861157 -0.07160631 -0.034400266 -0.08085041 0.07907453 -0.16255663 0.015149962
0.011995117 -0.16431393 -0.045515075 0.17737693 -0.06691849 -0.09409906 0.047213405 0.017603239
-0.073287874 0.17008886 0.11349597 -0.12542285 0.15785268 0.056763243 -0.1446288 -0.14897978
-0.0830215 -0.05465311 -0.08530779 -0.0070170676 0.12007673 0.14623494 -0.04959672 -0.13491668
0.10832605 -0.0010171321 0.12215154 -0.18490231 0.08240924 0.062284708 -0.122256264 -0.110166065
-0.027695755 -0.069467336 -0.093948334 0.0350136 0.09083471 -0.07328541 0.045597296 0.10195565
0.031352878 -0.16813001 -0.019180138 -0.08329758 -0.14449053 -0.08637924 -0.085698135 -0.074312575
0.09361115 -0.0050484845 0.0063519026 -0.13524973 0.008685059 0.07302671 0.089884035 0.13854812
-0.094452165 0.012327695 0.13261497 -0.03170483 0.1127522 -0.12718041 -0.11493879 0.14051586
0.012984543 0.042948995 0.09148872 -0.08146656 -0.0031806747 -0.10168253 -0.14490779 -0.10072225
-0.0488904 0.10371404 0.02826291 -0.12301475 -0.09369225 -0.003134214 -0.017201208 -0.012375674
-0.1530728 -0.0073961066 -0.043542355 -0.10943529 -0.029974917 0.054588705 -0.13489233 -0.102953136
0.025976475 -0.09899212 0.0767626 -0.119797625 0.050770335 0.0042801267 -0.16646224 -0.03996841
-0.039175674 -0.10533689 0.11141629 0.016864248 0.06406869 -0.10216995 -0.02824534 0.106984556
0.10997651 0.13677429 -0.0059278817 -0.06713191 0.054222558 -0.06623383 -0.007586832 0.09177241
0.0127217425 0.045648646 -0.07368898 0.066953674 -0.1190445 -0.07486937 -0.068240575 0.07862053
00000000: a340 d73d 0938 92bd 5174 ecbc d6b3 fabd
00000010: a162 1bbd 8749 5c3d 13f4 713d 7e1e 58bd
00000020: e233 d5bd 04b2 85bc 6f20 f5bd 40e3 f3bd
00000030: eb24 f5bc ec4b f53c 4cd6 dabd ebbc 5e3d
00000040: 2dbe 9abc ae26 4639 4021 09bd 4d8a 02be
00000050: 871f d0bc fc79 dcbd afd9 a23d 0bb6 643d
00000060: fd33 243e 6602 fabc ddeb 1abd dad1 223d
00000070: e155 623d eac0 473c 8b40 4cbe 2e8c 0bbe
00000080: 2590 b0bd defd 82bd 1e1b 6d3d 315e 3d3d
00000090: 1036 0f3e d146 b33d b5fd 043e c819 0abd
000000a0: 88f3 c73d 4f04 63bd 80d9 cabc 9048 8cbd
000000b0: 9250 693d 97c0 923d 5811 8bbc e8f3 eabd
000000c0: bb1a 05bd a22b 47be 83e0 bc3d c081 01be
000000d0: 94c8 f83d 5129 cebd 25c1 86bc b5ae fc3c
000000e0: f31b 1ebe 2bdb d8bd 4710 72bd ea96 74bc
000000f0: 3520 a4bd bd7d 00be 33d4 b2bd dd6f e0bc
00000100: 784f 0fbe 01e5 8abd f359 f5bd 5104 f8bc
00000110: 39af 893d c530 d4bd 7e8b 4f3c 4bab a63c
00000120: f40c 013e 6047 8dbd c664 d63d 5884 633c
00000130: 4798 a1bd f7fd 0d3e e2a1 3bbe a401 d73d
00000140: ee72 8ebd 9ef1 85bd efa4 293d b219 f1bd
00000150: 6541 29bd 79b4 b7bd 47de e13d 20a4 bfbd
00000160: 6066 b13c eb54 e4bd 6d50 bcbd 6c76 6c3d
00000170: 9478 aebd 0c1c 10be 802d b13d abc0 9b3d
00000180: dea9 ec3d 2124 db3d 7e63 7a3d 465c 2abe
00000190: 4905 f6bd 14f0 d73d c318 15be 3b57 96bd
000001a0: bfbe 9f3d 26e0 033e e1c8 11be ce56 32bd
000001b0: 0d04 a8bd 0925 03bd 55a1 8bbc a253 d5bd
000001c0: 68fc 53bd 48a5 d5bd 03cf 87bd 0582 ecbd
000001d0: 26a5 913d 8643 a33d 75c3 ac3d 2a7e 5c3c
000001e0: 2e62 07be 942b 88bd 2f79 b3bd 769d fcbc
000001f0: b703 ffbd dc6e 3abd 24cf c13d 7a2c c4bc
00000200: 2cff 5dbd 6e5d b03d 54a6 92bd 4be7 0cbd
00000210: e694 a5bd d4f1 a13d 3f75 26be 8c37 783c
00000220: 2b87 443c e941 28be 046e 3abd 4ca2 353e
00000230: 900c 89bd 02b7 c0bd d862 413d ab34 903c
00000240: f417 96bd c62b 2e3e 9370 e83d d96e 00be
00000250: 22a4 213e 9380 683d 9219 14be 288e 18be
00000260: 2d07 aabd f1db 5fbd dab5 aebd 6eef e5bb
00000270: caea f53d 9dbe 153e ee25 4bbd 9927 0abe
00000280: 0cda dd3d 4a51 85ba 962a fa3d 0857 3dbe
00000290: 2dc6 a83d 401e 7f3d 7e61 fabd bf9e e1bd
000002a0: 35e2 e2bc e444 8ebd fc67 c0bd 6c6a 0f3d
000002b0: 8c07 ba3d a916 96bd 3bc4 3a3d 20ce d03d
000002c0: e06b 003d 462a 2cbe aa1f 9dbc ec97 aabd
000002d0: 53f5 13be 99e7 b0bd 8182 afbd 3131 98bd
000002e0: 34b7 bf3d c26d a5bb 9f23 d03b e87e 0abe
000002f0: c74b 0e3c 078f 953d 1f15 b83d 8fdf 0d3e
00000300: 2370 c1bd 1afa 493c 38cc 073e ecdc 01bd
00000310: a0ea e63d 953b 02be 0765 ebbd 64e3 0f3e
00000320: 1fbd 543c 49eb 2f3d 705e bb3d f1d7 a6bd
00000330: de72 50bb ee3e d0bd b562 14be 7847 cebd
00000340: 4d41 48bd 0768 d43d 9e87 e73c 28ef fbbd
00000350: b9e1 bfbd 6367 4dbb 8ce9 8cbc 57c3 4abc
00000360: 1ebf 1cbe 0a5b f2bb 7859 32bd 9c1f e0bd
00000370: f58d f5bc 6898 5f3d 3721 0abe 18d9 d2bd
00000380: 9ecc d43c 61bc cabd b635 9d3d 7558 f5bd
00000390: 8ef4 4f3d 4e40 8c3b 1475 2abe eab5 23bd
000003a0: ac76 20bd deba d7bd 392e e43d e426 8a3c
000003b0: 7236 833d 7b3e d1bd c562 e7bc b81a db3d
000003c0: 5d3b e13d 8f0e 0c3e ad3e c2bb 747c 89bd
000003d0: 7918 5e3d 9aa5 87bd f69a f8bb 2cf3 bb3d
000003e0: db6e 503c 13fa 3a3d 3fea 96bd 021f 893d
000003f0: 9acd f3bd 1d55 99bd b7c1 8bbd cd03 a13d

fc3.bias f4 [10]
-0.027292099 0.043281835 0.007318305 0.046221536 0.050682355 -0.04508489 0.047351725 -0.12117085
-0.017970264 -0.028319053
00000000: ae93 dfbc 4b48 313d 64ce ef3b cb52 3d3d
00000010: 4d98 4f3d efaa 38bd e2f3 413d 6c28 f8bd
00000020: 6036 93bc 5cfd e7bc
