models/client-4-4.pth (torch, 181282 bytes, 10 tensors)

conv1.weight f4 [6, 1, 5, 5]
0.0065724594 -0.23789734 -0.29137778 -0.07558809 0.11414678 0.15915264 -0.022368696 -0.20731534
-0.4348572 -0.37371805 0.16678339 0.201379 -0.20005052 0.031906523 -0.25279814 0.00023202074
0.35484752 0.022995044 0.0681044 0.067698725 -0.060797952 0.32259738 0.36559513 0.42020395
0.121503085 -0.04481349 0.106859714 0.33633563 0.18260482 0.20090221 0.31913525 0.20226182
0.094549045 0.2989027 0.17034087 -0.08529639 -0.05653362 -0.13215958 0.06037695 0.16430864
-0.054674335 -0.14849539 -0.16061735 -0.26719478 -0.039163508 -0.28120962 -0.22069135 -0.1564964
-0.16009696 -0.13679418 -0.14181632 -0.2797246 -0.12488047 0.20138739 0.21764605 -0.0060071973
0.2136641 0.3812825 0.3452917 0.24897444 0.17951605 0.35144132 0.097955965 0.028883211
-0.058869526 0.116411924 0.16028455 0.015262873 0.004848584 0.041710433 -0.07745531 0.12690498
-0.22133142 -0.13881646 0.092246674 -0.04282361 0.13637497 0.13170494 -0.08668621 -0.12594122
0.10061727 0.11817603 0.04156409 0.11251092 -0.25539592 0.22533563 0.2811673 -0.09094828
-0.25788942 -0.15064855 0.22858456 0.30068284 0.26182482 -0.08254439 -0.23116465 0.23406321
0.19249564 0.26546568 0.057081055 0.06256725 0.047733475 -0.09492593 -0.13950495 -0.21103635
-0.2991289 0.0035829998 -0.1387099 -0.22212021 0.16539165 0.16054448 0.1602631 -0.010951268
-0.02959837 0.26184544 0.23171568 0.22691281 0.02095038 0.24861296 -0.027894529 -0.14922847
0.12858 0.1241955 -0.041489627 -0.22107078 0.041591663 -0.121997476 -0.16628788 0.06274733
0.2244981 0.031682644 -0.056993384 0.07520625 0.02414315 0.31047025 0.19558057 -0.17625912
-0.17284118 0.07232383 0.26066688 0.18760468 -0.26226485 0.0011364188 0.2526876 0.29511914
0.14695893 0.016327197 0.0839748 0.14580902 0.25123322 -0.091331765
00000000: c95d d73b 5c9b 73be 782f 95be eecd 9abd
00000010: c9c5 e93d e9f8 223e 8e3e b7bc 794a 54be
00000020: 9aa5 debe f957 bfbe 44c9 2a3e 4c36 4e3e
00000030: 0bda 4cbe 6ab0 023d c26e 81be 984a 7339
00000040: 93ae b53e 1a60 bc3c 527a 8b3d a1a5 8a3d
00000050: 4607 79bd 7c2b a53e 492f bb3e f924 d73e
00000060: 9cd6 f83d 5a8e 37bd 44d9 da3d 2f34 ac3e
00000070: c2fc 3a3e 4fb9 4d3e b265 a33e b91d 4f3e
00000080: eea2 c13d c609 993e d66d 2e3e e0af aebd
00000090: cc8f 67bd d754 07be d24d 773d 8640 283e
000000a0: 32f2 5fbd 2d0f 18be e078 24be c1cd 88be
000000b0: ea69 20bd b5fa 8fbe eafc 61be 9840 20be
000000c0: 75f0 23be c613 0cbe 4c38 11be 1038 8fbe
000000d0: 55c1 ffbd 7f38 4e3e 9bde 5e3e 06d8 c4bb
000000e0: c3ca 5a3e 7637 c33e 13ca b03e 28f3 7e3e
000000f0: 0ed3 373e 1ef0 b33e 239d c83d 7c9c ec3c
00000100: 2c21 71bd 6069 ee3d a221 243e 2111 7a3c
00000110: dfe0 9e3b 8fd8 2a3d e4a0 9ebd 61f3 013e
00000120: b4a4 62be e725 0ebe d3eb bc3d cf67 2fbd
00000130: e1a5 0b3e a9dd 063e 8a88 b1bd bcf6 00be
00000140: 6d10 ce3d 4606 f23d 1b3f 2a3d 206c e63d
00000150: 41c3 82be 62be 663e 29f5 8f3e 1843 babd
00000160: 150a 84be 9d43 1abe 1212 6a3e 1af3 993e
00000170: e70d 863e 080d a9bd 6db6 6cbe 44ae 6f3e
00000180: 941d 453e 1eeb 873e d3cd 693d 4223 803d
00000190: 2d84 433d 8768 c2bd 63da 0ebe ea19 58be
000001a0: 6c27 99be c3d0 6a3b f809 0ebe 7b73 63be
000001b0: 6e5c 293e c665 243e 031c 243e f26c 33bc
000001c0: 4878 f2bc 9b10 863e e046 6d3e d55b 683e
000001d0: 22a0 ab3c 6594 7e3e 1183 e4bc 59cf 18be
000001e0: 7aaa 033e 365a fe3d 07f1 29bd 6160 62be
000001f0: 055c 2a3d d0d9 f9bd 5f47 2abe ac81 803d
00000200: d4e2 653e a9c5 013d e571 69bd bc05 9a3d
00000210: dbc7 c53c f5f5 9e3e 4646 483e 457d 34be
00000220: 47fd 30be 841e 943d 2176 853e 711b 403e
00000230: 9447 86be e3f3 943a 4560 813e db19 973e
00000240: 677c 163e 9dc0 853c fbfa ab3d f64e 153e
00000250: a4a1 803e 260c bbbd

conv1.bias f4 [6]
-0.010089659 0.06358633 -0.09077724 -0.020716866 0.0005830969 -0.015542875
00000000: 194f 25bc 8d39 823d 6be9 b9bd 6bb6 a9bc
00000010: f8da 183a 8ba7 7ebc

conv2.weight f4 [16, 6, 5, 5]
0.090133235 -0.015047796 -0.12262431 0.005517928 -0.042541627 0.13369998 -0.17044948 -0.18259187
-0.13173327 -0.076876745 0.030200202 -0.15766059 -0.2837126 -0.22375855 -0.0087729925 0.04903441
-0.14330176 -0.30070886 -0.17354004 0.14050363 -0.0025743276 -0.12729743 -0.21045463 -0.04875113
0.16005158 -0.0641144 -0.082370296 0.039327353 0.075069666 -0.13806495 -0.031877123 -0.01427747
0.02067863 -0.047165353 -0.053200137 0.004477704 -0.14673753 0.04090662 -0.075181596 -0.13296694
0.018195063 -0.08869054 0.052362997 0.035803374 -0.11947294 -0.10105401 -0.0835728 0.07862327
0.0644735 -0.009750474 0.045121085 -0.052371137 0.030740328 -0.031005988 -0.026285123 0.11828363
-0.0012949745 -0.10882699 0.09499399 0.07231065 0.027362997 -0.1583999 -0.07059934 0.022313
0.09793621 0.025178956 -0.07104947 0.01753072 0.07671243 -0.112133086 -0.07767471 0.041815877
0.026847558 0.0595662 -0.17157349 0.0372175 -0.013381079 -0.20246117 0.038195115 0.13898538
0.04228139 -0.03331297 -0.22261788 0.110524684 0.19320974 0.18288305 -0.117216796 0.0012426208
0.18533282 0.12188103 -0.0058695623 -0.025692072 0.03332847 0.1348496 0.12057829 0.061181553
0.026706401 0.09660977 0.118207745 -0.048781708 0.044809654 -0.003135982 -0.16196507 -0.098737046
0.0910391 0.010394668 -0.07892655 -0.2218218 -0.06100422 0.03440508 0.058121353 -0.029968595
-0.045094177 0.05183625 0.051519863 -0.04254905 -0.073707215 -0.09222656 -0.038998187 -0.002966778
-0.009925319 0.07457821 0.0111011835 0.07683734 0.02317167 -0.0724216 -0.12932122 -0.042905144
0.16287664 0.112694725 0.039297733 -0.22387971 0.045518644 0.14185475 -0.036809325 -0.09752086
-0.115806766 0.11117072 0.22740258 -0.1714872 -0.12027442 0.10697312 0.19598635 0.18976334
-0.15092893 -0.043649353 0.08567237 0.07844056 0.101631075 -0.19190437 -0.07070006 0.13368118
0.21997586 0.16609012 -0.07336838 0.009405117 0.021185022 0.14418685 0.12113666 0.18115166
-0.045959443 -0.078705005 -0.10161848 -0.034086917 0.21882915 0.057016388 -0.008585377 -0.05718798
-0.19678326 0.10631056 0.046055585 0.0366703 0.031459685 -0.115504935 -0.008283896 0.123262085
0.0389452 -0.08936909 -0.09839385 -0.009425488 0.09075772 0.02483258 0.017691024 -0.013280916
-0.15569116 -0.06387814 0.047991987 -0.00026754182 -0.004054641 -0.09981952 -0.06589917 -0.038613696
-0.045794055 0.104835644 -0.05110059 -0.06051177 -0.13249162 -0.014201843 -0.010324273 -0.01685131
-0.014791158 -0.079748034 0.0033842728 -0.049389284 0.04215209 -0.13507998 0.023310833 -0.061660137
0.019959707 0.061527442 -0.06837264 0.06763282 -0.04382116 -0.074978665 -0.11089957 0.049067136
-0.036290713 0.02013708 -0.10207319 -0.08881808 -0.034321137 -0.063652456 0.029910052 -0.040542725
-0.058724865 -0.1770015 -0.016539145 0.120122775 -0.029363533 -0.042207807 -0.15413645 -0.08591891
-0.0669616 0.09206954 0.08420222 -0.04406105 -0.032897424 -0.035196993 0.009662778 0.08045801
0.035813853 -0.07709105 -0.17108986 -0.038366318 0.13881013 -0.007094273 -0.008517858 -0.022929695
0.010306768 0.09180302 -0.07410154 0.035602115 -0.0031307682 0.06865798 0.0920322 -0.036477838
00000000: c697 b83d 088b 76bc 7422 fbbd bccf b43b
00000010: 2140 2ebd a6e8 083e 4f8a 2ebe 5df9 3abe
00000020: 16e5 06be 8e71 9dbd 6a66 f73c c771 21be
00000030: c742 91be f620 65be 99bc 0fbc 4ed8 483d
00000040: b2bd 12be 83f6 99be 7bb4 31be 2fe0 0f3e
00000050: 0db6 28bb 425a 02be 6b81 57be 44af 47bd
00000060: 90e4 233e 694e 83bd c2b1 a8bd b815 213d
00000070: 20be 993d e660 0dbe 9691 02bd 0dec 69bc
00000080: 3b66 a93c 7530 41bd 63e8 59bd b4b9 923b
00000090: 5d42 16be b38d 273d cff8 99bd 7c28 08be
000000a0: d00d 953c 63a3 b5bd 957a 563d 8fa6 123d
000000b0: 3bae f4bd 68f5 cebd 3728 abbd 3d05 a13d
000000c0: af0a 843d 74c0 1fbc e3d0 383d 1e83 56bd
000000d0: 24d3 fb3c 4500 febc e653 d7bc b03e f23d
000000e0: 22bc a9ba afe0 debd 368c c23d 9b17 943d
000000f0: 5d28 e03c 9533 22be 6396 90bd c1c9 b63c
00000100: c892 c83d 1944 ce3c 6282 91bd 969c 8f3c
00000110: 681b 9d3d 08a6 e5bd eb13 9fbd 2047 2b3d
00000120: 69ef db3c b0fb 733d f6b0 2fbe 6171 183d
00000130: 503c 5bbc fb51 4fbe 7b72 1c3d 2f52 0e3e
00000140: 402f 2d3d 2e73 08bd f1f5 63be c45a e23d
00000150: c6d8 453e b245 3b3e 5c0f f0bd 6fdf a23a
00000160: e3c7 3d3e c39c f93d 7555 c0bb 2e78 d2bc
00000170: 6f83 083d 0316 0a3e c0f1 f63d 8299 7a3d
00000180: 62c7 da3c 58db c53d e716 f23d 54cf 47bd
00000190: 548a 373d 0c85 4dbb 2cda 25be a636 cabd
000001a0: b572 ba3d 664e 2a3c 3ea4 a1bd 4125 63be
000001b0: 90df 79bd 57ec 0c3d a810 6e3d b380 f5bc
000001c0: acb4 38bd 3f52 543d 7e06 533d ea47 2ebd
000001d0: cff3 96bd 47e1 bcbd 90bc 1fbd 466e 42bb
000001e0: ce9d 22bc 76bc 983d bde1 353c e55c 9d3d
000001f0: 84d2 bd3c c751 94bd c86c 04be 4ebd 2fbd
00000200: 22c9 263e 7ecc e63d a9f6 203d b940 65be
00000210: c271 3a3d 5f42 113e 60c5 16bd 04b9 c7bd
00000220: 192c edbd 79ad e33d 39dc 683e 579a 2fbe
00000230: 6f52 f6bd b914 db3d a5b0 483e 5251 423e
00000240: 1d8d 1abe aac9 32bd ff74 af3d 72a5 a03d
00000250: f423 d03d 9482 44be 31cb 90bd b8e3 083e
00000260: 5a41 613e 8713 2a3e 2942 96bd eb17 1a3c
00000270: 368c ad3c b8a5 133e 7f16 f83d d27f 393e
00000280: f83f 3cbd 1730 a1bd 5a1d d0bd b99e 0bbd
00000290: c014 603e 048a 693d aea9 0cbc f13d 6abd
000002a0: 8d81 49be 5ab9 d93d c8a4 3c3d 9933 163d
000002b0: dfdb 003d da8d ecbd 2eb9 07bc d570 fc3d
000002c0: 0185 1f3d 2407 b7bd b782 c9bd 5d6d 1abc
000002d0: 2fdf b93d b26d cb3c c4ec 903c 3398 59bc
000002e0: 816d 1fbe 8bd2 82bd 3f93 443d db44 8cb9
000002f0: cbdc 84bb 2d6e ccbd 25f6 86bd 6529 1ebd
00000300: 8c92 3bbd 12b4 d63d da4e 51bd 31db 77bd
00000310: e2ab 07be d9ae 68bc 2427 29bc c20b 8abc
00000320: 9d56 72bc f052 a3bd adca 5d3b 6b4c 4abd
00000330: aca7 2c3d 6852 0abe 5cf6 be3c 578f 7cbd
00000340: 8a82 a33c 3304 7c3d f406 8cbd 1383 8a3d
00000350: d17d 33bd 6a8e 99bd 501f e3bd 9ffa 483d
00000360: 92a5 14bd 85f6 a43c c00b d1bd 41e6 b5bd
00000370: 5294 0cbd 385c 82bd ed05 f53c 2110 26bd
00000380: 7c89 70bd e23f 35be 1a7d 87bc ee02 f63d
00000390: cb8b f0bc 18e2 2cbd f2d5 1dbe 41f6 afbd
000003a0: 2a23 89bd f48e bc3d 3772 ac3d 5c79 34bd
000003b0: 73bf 06bd b92a 10bd a150 1e3c 2bc7 a43d
000003c0: 8cb1 123d eae1 9dbd 2e32 2fbe 0026 1dbd
000003d0: 3e24 0e3e 1377 e8bb 7c8e 0bbc 0ed7 bbbc
000003e0: b8dd 283c 3903 bc3d 8cc2 97bd 86d3 113d
000003f0: 932d 4dbb 8e9c 8c3d 617b bc3d c969 15bd

conv2.bias f4 [16]
-0.015772564 -0.03655471 0.06267471 -0.041446324 -0.0134721985 0.07977487 0.047942374 0.05621683
0.0037691328 -0.02143685 -0.07337145 -0.10960145 -0.10974893 -0.071306266 -0.062404975 -0.022655113
00000000: 7735 81bc 64ba 15bd 995b 803d 9fc3 29bd
00000010: 7fba 5cbc 0261 a33d 395f 443d 9e43 663d
00000020: 8e03 773b 559c afbc c543 96bd ba76 e0bd
00000030: 0cc4 e0bd 0509 92bd 5c9c 7fbd 3797 b9bc

fc1.weight f4 [120, 256]
0.080356814 -0.044938475 -0.021046381 0.018849608 -0.075495236 -0.05548335 0.07164629 0.08747553
0.10636777 0.04729834 -0.021711571 -0.10064686 0.08288353 -0.0017946322 -0.101114854 -0.1482174
-0.006114302 0.05307326 0.008053633 0.109228365 0.09798286 0.04067168 -0.00655763 0.0044003427
0.07552211 0.0971219 -0.008615819 -0.07313855 -0.019345572 0.02673377 0.02217444 0.053686656
0.04752941 -0.05549463 0.01704466 0.021882998 0.019787353 0.04135813 0.012686695 0.01086736
-0.032661173 -0.081529036 0.04413422 0.034304798 -0.19130282 -0.07889978 0.060510367 0.14884858
-0.012101972 0.007472209 0.0473514 -0.046621952 0.0543446 -0.015032142 0.11094912 -0.031617828
0.14315696 0.059802655 0.026343916 0.0121147055 -0.11471193 -0.15631339 0.021235388 0.13966961
-0.014418011 0.011069671 0.06924271 -0.04678109 0.06425606 0.04738562 -0.03790354 -0.03145916
0.054787997 0.03829525 -0.027231723 -0.03455477 -0.10120336 -0.07491635 -0.10098617 0.1107876
-0.01341032 -0.05941564 0.08563988 0.06399637 -0.11121322 -0.007147378 0.010024572 0.0757799
0.17341281 0.04303095 0.016222479 0.06445428 -0.04931596 -0.14867032 -0.07674116 -0.04168514
-0.053951565 -0.058105078 0.06963555 0.016793313 0.10856764 -0.019953972 0.012861917 -0.059942883
-0.060231432 -0.12038698 0.007623584 0.08905611 -0.12760626 -0.021810925 0.07459003 0.1115859
0.017155739 -0.03614578 -0.076472305 -0.0510457 -0.0044724145 -0.05534996 0.08353314 -0.056227855
0.20388366 0.14201787 0.058482017 -0.04059348 0.10134181 -0.10610264 0.0007355404 -0.00892983
0.009897065 0.041727573 0.0054923077 -0.0037795345 -0.022304459 0.021780653 -0.025314143 -0.014887566
-0.06113166 -0.13298841 -0.017951867 0.038672872 0.018917963 -0.04069039 -0.04937893 0.111137375
0.013708342 -0.0043709646 0.08566098 -0.009970738 -0.053517684 -0.08346398 0.0142583 0.074851334
0.035662714 -0.048160672 0.014488621 0.06994453 -0.0072659417 0.0010347613 0.01398334 -0.083264075
0.022298876 0.041115593 0.07468216 -0.055498943 0.09006585 -0.02087185 -0.09514698 -0.13697624
-0.066201076 -0.08343369 0.015645025 0.024057917 0.048292093 -0.042661715 -0.009040655 0.041728675
0.0051337257 -0.05203185 -0.0732106 -0.020163475 0.06331861 0.092616975 -0.000979957 0.010018281
0.19352739 0.11458791 0.018162642 -0.058902755 -0.050591446 -0.07833201 0.01939972 -0.07783623
0.04940037 -0.03997646 0.053539593 0.028270498 -0.0028608055 0.046967097 0.08474826 0.026144432
0.08093455 0.03274025 0.060814034 -0.14885643 0.14537862 0.10411216 -0.0010397235 -0.046481192
0.05072593 0.082747996 -0.018335514 0.0769961 0.054866824 -0.004294717 -0.055724274 -0.07289972
-0.052501846 0.09171369 -0.10914794 -0.020411804 0.08205657 -0.07972089 -0.0009767686 0.03242898
-0.035081204 -0.05579088 0.058457635 0.0026227382 0.1082858 0.012427085 -0.05768947 0.011873707
0.05619563 -0.0240994 0.05182279 0.0076880353 -0.02585259 -0.045025952 0.0943921 -0.007927782
-0.00081540685 -0.009878473 -0.026556587 0.042709045 0.07664447 0.09640978 -0.055667188 0.044458613
0.12887739 0.08107664 -0.08845253 0.022136765 -0.044802662 0.020335905 -0.030931512 0.07490199
00000000: 1d92 a43d 6811 38bd 7669 acbc 7e6a 9a3c
00000010: 3f9d 9abd 8242 63bd 4abb 923d 5f26 b33d
00000020: 58d7 d93d e7bb 413d 77dc b1bc f11f cebd
00000030: d7be a93d dd39 ebba 4e15 cfbd 4dc6 17be
00000040: 7c5a c8bb 5963 593d 63f3 033c 1fb3 df3d
00000050: 3dab c83d 5997 263d 63e1 d6bb c030 903b
00000060: 56ab 9a3d d9e7 c63d 5d29 0dbc aac9 95bd
00000070: 9b7a 9ebc c700 db3c 2ca7 b53c 8ae6 5b3d
00000080: 33ae 423d 564e 63bd 3ea1 8b3c f943 b33c
00000090: 1619 a23c 2467 293d dbdb 4f3c 030d 323c
000000a0: b9c7 05bd b2f8 a6bd 15c6 343d 3083 0c3d
000000b0: e3e4 43be 3596 a1bd b8d9 773d c36b 183e
000000c0: 5947 46bc 6fd9 f43b 8bf3 413d a9f6 3ebd
000000d0: 7198 5e3d 6049 76bc 4b39 e33d b281 01bd
000000e0: bd97 123e a1f3 743d 32cf d73c c27c 463c
000000f0: 17ee eabd 9e10 20be d6f5 ad3c 8d05 0f3e
00000100: 8539 6cbc 915d 353c 1fcf 8d3d 879d 3fbd
00000110: ae98 833d 6d17 423d be40 1bbd 52db 00bd
00000120: 6169 603d 7bdb 1c3d 1015 dfbc 4d89 0dbd
00000130: b543 cfbd be6d 99bd d6d1 cebd 9ce4 e23d
00000140: f5b6 5bbc d05d 73bd f663 af3d 8710 833d
00000150: c2c3 e3bd 8d34 eabb 1a3e 243c 7e32 9b3d
00000160: 2193 313e 3941 303d 01e5 843c 9b00 843d
00000170: 88ff 49bd 083d 18be 782a 9dbd 0abe 2abd
00000180: 51fc 5cbd 97ff 6dbd 159d 8e3d 2192 893c
00000190: b658 de3d 8376 a3bc caba 523c ab86 75bd
000001a0: 3cb5 76bd 738d f6bd 42cf f93b 0d63 b63d
000001b0: 37ab 02be d3ac b2bc a8c2 983d 2687 e43d
000001c0: 318a 8c3c 990d 14bd 839d 9cbd 4c15 51bd
000001d0: 558d 92bb a4b6 62bd 6c13 ab3d 2e4f 66bd
000001e0: e1c6 503e 226d 113e d78a 6f3d 5945 26bd
000001f0: 4b8c cf3d 574c d9bd 48d1 403a 6c4e 12bc
00000200: 4d27 223c 88ea 2a3d d1f8 b33b 11b2 77bb
00000210: d7b7 b6bc 576d b23c 9b5f cfbc faea 73bc
00000220: 3165 7abd 1d2e 08be cb0f 93bc 7267 1e3d
00000230: d8f9 9a3c f7aa 26bd 9041 4abd fe9b e33d
00000240: f498 603c 4f3a 8fbb 066f af3d 4e5c 23bc
00000250: 5c35 5bbd 2aef aabd a59b 693c a84b 993d
00000260: 1113 123d 2044 45bd ae61 6d3c 143f 8f3d
00000270: 2317 eebb d4a0 873a 611a 653c 5b86 aabd
00000280: 22ac b63c d368 283d f6f2 983d dc52 63bd
00000290: 7274 b83d 71fb aabc 6bdc c2bd 8043 0cbe
000002a0: 6e94 87bd 48df aabd ff29 803c 1c15 c53c
000002b0: eecd 453d 0dbe 2ebd 411f 14bc b0eb 2a3d
000002c0: d038 a83b 591f 55bd 70ef 95bd df2d a5bc
000002d0: 30ad 813d f8ad bd3d e771 80ba b723 243c
000002e0: 0b2c 463e 11ad ea3d d2c9 943c 0444 71bd
000002f0: fa38 4fbd 886c a0bd 29ec 9e3c 9a68 9fbd
00000300: 0b58 4a3d 5bbe 23bd 554c 5b3d 8897 e73c
00000310: 5a7c 3bbb 9260 403d 7f90 ad3d d92c d63c
00000320: 03c1 a53d a41a 063d 2318 793d d26d 18be
00000330: 22de 143e c238 d53d 5547 88ba 1063 3ebd
00000340: fec5 4f3d c877 a93d 5c34 96bc 22b0 9d3d
00000350: 09bc 603d b3ba 8cbb 233f 64bd 734c 95bd
00000360: 2d0c 57bd 63d4 bb3d f588 dfbd a836 a7bc
00000370: 460d a83d b544 a3bd ea06 80ba 40d4 043d
00000380: 4fb1 0fbd fa84 64bd 4671 6f3d 3fe2 2b3b
00000390: f2c4 dd3d f99a 4b3c cb4b 6cbd f089 423c
000003a0: 642d 663d 1b6c c5bc 2244 543d eaeb fb3b
000003b0: d0c8 d3bc 226d 38bd a550 c13d 87e3 01bc
000003c0: 07c1 55ba 52d9 21bc 338d d9bc aeef 2e3d
000003d0: c7f7 9c3d 7e72 c53d 4703 64bd 3c1a 363d
000003e0: 6ff8 033e 820b a63d 9a26 b5bd 2958 b53c
000003f0: ff82 37bd 7c97 a63c 1564 fdbc 3766 993d

fc1.bias f4 [120]
0.06771974 0.05812718 0.018984547 0.008611082 -0.004132413 0.054757703 -0.04910008 -0.064224996
-0.041965745 0.014358404 -0.008455322 -0.014288985 -0.030424055 -0.007667411 0.017263182 -0.05632905
0.034147818 -0.009760205 0.07462015 0.068718 -0.017877141 -0.04352927 -0.045370344 0.04682812
0.03844047 -0.03878012 0.043570824 -0.033429142 0.021760667 0.032125074 -0.043398283 0.010236457
0.03646007 -0.02187585 -0.028852787 0.05250767 0.02568235 -0.0006926094 0.03865465 0.04695433
0.044488057 -0.022425154 -0.014936626 0.06288892 0.02865337 0.038990106 0.044062845 0.0058307173
-0.017087983 0.03073117 0.034265496 0.089427345 0.010906478 -0.0034100884 0.037170876 0.006454709
-0.04179098 -0.03124533 0.030042639 -0.013501587 0.06385373 0.049950834 -0.0017013291 -0.026305106
-0.021709535 -0.014395362 0.0062966193 0.014618933 -0.042121757 -0.03683563 -0.005851469 -0.03925147
-0.030641507 0.060382675 -0.01694259 0.017297797 0.046001684 0.02674667 -0.0109941 0.013491442
0.05665909 -0.017922107 0.05995884 0.08175536 0.009158936 0.0051025823 -0.049454156 0.048052207
-0.03218394 0.05450343 -0.00087884936 -0.016751673 0.016826257 -0.013508778 -0.021363946 0.06092426
-0.036151543 0.027454538 -0.01326445 0.06611908 -0.03753847 -0.036930427 -0.022395244 0.006863203
0.0138823325 -0.032957427 -0.059271146 -0.044662036 -0.07264797 -0.05502659 0.057731614 0.046407837
0.007258596 0.03502231 -0.0010365276 -0.041771457 0.021875586 0.019856442 -0.015609237 0.04211824
00000000: a6b0 8a3d c416 6e3d 7b85 9b3c 7f15 0d3c
00000010: 3169 87bb 9d49 603d 2a1d 49bd 6588 83bd
00000020: 46e4 2bbd 833f 6b3c 3188 0abc 591c 6abc
00000030: de3b f9bc e83e fbbb 846b 8d3c 4ab9 66bd
00000040: 95de 0b3d 44e9 1fbc 73d2 983d 06bc 8c3d
00000050: 1573 92bc bf4b 32bd 41d6 39bd d8ce 3f3d
00000060: c173 1d3d e7d7 1ebd 5277 323d ffec 08bd
00000070: 6d43 b23c 9595 033d 66c2 31bd d0b6 273c
00000080: 2857 153d fc34 b3bc ae5c ecbc 4812 573d
00000090: cb63 d23c 3b90 35ba 5754 1e3d 2f53 403d
000000a0: 1c39 363d f5b4 b7bc c0b8 74bc e8cb 803d
000000b0: 79ba ea3c 17b4 1f3d 3e7b 343d 9a0f bf3b
000000c0: 19fc 8bbc efbf fb3c fa59 0c3d af25 b73d
000000d0: 16b1 323c ca7b 5fbb 7d40 183d 0682 d33b
000000e0: 052d 2bbd 35f6 ffbc fb1b f63c c335 5dbc
000000f0: bfc5 823d 3f99 4c3d 22ff deba ce7d d7bc
00000100: 32d8 b1bc 86da 6bbc df53 ce3b 4084 6f3c
00000110: dd87 2cbd f5e0 16bd aebd bfbb 26c6 20bd
00000120: e603 fbbc d353 773d 30cb 8abc 1cb4 8d3c
00000130: 436c 3c3d d51b db3c 9920 34bc 360b 5d3c
00000140: 5d13 683d 62d1 92bc 6797 753d 5b6f a73d
00000150: 5d0f 163c 9033 a73b 7190 4abd 64d2 443d
00000160: 4fd3 03bd fd3e 5f3d 9562 66ba ce3a 89bc
00000170: 38d7 893c ec53 5dbc 7103 afbc b88b 793d
00000180: a413 14bd 57e8 e03c 2353 59bc 7169 873d
00000190: f0c1 19bd 5c44 17bd 3b76 b7bc b8e4 e03b
000001a0: b972 633c 5efe 06bd 4dc6 72bd 8aef 36bd
000001b0: 75c8 94bd 9063 61bd fc77 6c3d 2516 3e3d
000001c0: 84d9 ed3b 8e73 0f3d 18dc 87ba 8c18 2bbd
000001d0: 6e34 b33c faa9 a23c e3bd 7fbc 2d84 2c3d

fc2.weight f4 [84, 120]
0.12704457 0.13160118 0.17487054 -0.024690453 0.0105791185 -0.23633826 -0.060742926 0.04951136
0.010450826 0.05710841 -0.021184519 0.05768574 0.063212864 0.033521675 -0.07421388 0.056556426
0.04803703 0.013950881 0.06647733 0.01870017 0.118297264 0.1295409 0.08720126 -0.0065230303
-0.15867977 -0.16430193 -0.061093055 0.05462962 0.04855543 -0.01132515 -0.0096096825 0.052914474
0.02661121 -0.097836256 -0.033271953 0.051701717 0.05871138 -0.025883004 -0.010861107 -0.10025386
-0.003041239 -0.111594416 -0.026676135 0.12705515 -0.018058814 -0.041629273 -0.06577187 0.056250975
0.13121954 0.030916765 0.004353642 0.058961447 0.21449953 -0.09064708 0.03424343 0.13348484
0.06909444 0.045901477 0.112983376 -0.0781394 0.04024773 -0.026411725 -0.059399653 -0.09057145
-0.1310842 0.0014216566 -0.028181456 -0.045157 -0.015001586 0.06398683 0.04649387 0.015644968
-0.12790713 -0.012123674 -0.023986414 -0.0016703847 0.08649359 0.0087725185 -0.037720826 0.00913588
0.08039852 -0.03510745 0.17926931 -0.11215096 0.074284576 0.08399032 -0.10101716 -0.12259739
0.06714066 0.0005645046 0.0031396037 -0.006502324 0.08791541 -0.06430716 -0.051475972 -0.13692228
-0.04535331 0.031348307 -0.017507626 -0.10544275 -0.10171527 0.034467015 -0.006380166 0.03341962
0.097976506 0.13783927 -0.07840163 -0.016462373 0.030290117 0.033361983 0.0038123527 0.0376864
0.12912638 0.102758944 -0.097468935 -0.034925196 0.114313915 -0.025359523 0.058528874 0.044264436
0.04134894 0.032030437 0.05835236 0.033049688 -0.009899881 0.051255062 -0.011937304 0.08802599
0.027517458 -0.057207257 0.10778515 0.088945806 -0.091081224 -0.11774613 -0.056655243 -0.024950042
0.03992103 -0.028177617 -0.05141587 -0.025572117 0.06272268 0.044756394 -0.061453253 0.06755413
-0.030254094 0.021559555 -0.0015540255 -0.038127303 0.06341639 -0.10572068 0.08079438 -0.0635145
-0.06520708 -0.07687184 0.03587699 0.071151294 0.046250284 -0.08504766 0.050290484 0.0165083
-0.066051975 -0.0358913 -0.03941627 -0.099762015 -0.05085512 -0.006415139 -0.07739979 -0.03311391
0.06586797 0.0046437606 0.015382287 0.043314558 0.1397224 -0.0005659657 -0.09418721 -0.069438
-0.0776495 0.0068827304 0.03558855 -0.048458204 0.03460902 0.03785087 -0.017401453 -0.14994371
-0.045578547 -0.058604907 -0.031638466 0.045943636 0.026878508 -0.05142875 0.05220904 0.011798571
0.040276956 0.015130029 0.08324231 -0.04478683 0.0016178077 -0.011010525 -0.18064749 0.035219453
-0.031279605 0.01545392 -0.017669847 0.02708837 0.12410151 0.0652287 0.035609156 -0.093875766
0.018808942 -0.10520085 -0.04424404 0.012022227 0.04798031 -0.041285194 -0.074644044 0.058827396
-0.06258989 -0.06619005 -0.08127812 0.0002016614 0.053265996 -0.042270057 -0.11770094 0.07528717
-0.053500835 0.019420637 0.046130832 -0.09861177 -0.026075216 0.06502296 0.085365765 0.0761332
0.058801547 -0.01961701 -0.04885253 0.06380221 0.10749141 -0.12891811 -0.03320894 -0.051720183
0.030411717 -0.00062676764 0.13308743 -0.06361763 0.022457853 0.034086477 0.115477115 0.00909876
-0.07773633 0.13851419 0.020060247 0.01480861 0.07496707 0.03223703 -0.01773031 -0.060693502
00000000: f917 023e 76c2 063e 4311 333e a243 cabc
00000010: 0a54 2d3c a802 72be 93cd 78bd 6ccc 4a3d
00000020: f139 2b3c 82ea 693d 288b adbc e247 6c3d
00000030: bf75 813d 064e 093d 72fd 97bd b6a7 673d
00000040: 7ac2 443d 3c92 643c 4425 883d 1931 993c
00000050: d645 f23d 5fa6 043e 9396 b23d 25bf d5bb
00000060: f37c 22be c43e 28be b63c 7abd 4fc3 5f3d
00000070: 0fe2 463d 1f8d 39bc ee71 1dbc d9bc 583d
00000080: c1ff d93c 605e c8bd 2c48 08bd 2ec5 533d
00000090: 587b 703d 9808 d4bc c9f2 31bc e551 cdbd
000000a0: 864f 47bb 9d8b e4bd e987 dabc bf1a 023e
000000b0: 14f0 93bc 7583 2abd 67b3 86bd 6c67 663d
000000c0: 6a5e 063e 2845 fd3c ffa8 8e3b 8f81 713d
000000d0: c4a5 5b3e 2da5 b9bd d742 0c3d 40b0 083e
000000e0: 6381 8d3d 3003 3c3d d463 e73d 8d07 a0bd
000000f0: ceda 243d 675d d8bc 0d4d 73bd 867d b9bd
00000100: f03a 06be e156 ba3a ccdc e6bc 8cf6 38bd
00000110: 36c9 75bc 870b 833d 5b70 3e3d e029 803c
00000120: 16fa 02be 60a2 46bc 287f c4bc cff0 daba
00000130: 8d23 b13d 9cba 0f3c 2781 1abd a8ae 153c
00000140: fba7 a43d d4cc 0fbd 6092 373e 67af e5bd
00000150: 8322 983d 1e03 ac3d 16e2 cebd 5714 fbbd
00000160: 0b81 893d 43fb 133a cfc1 4d3b 7211 d5bb
00000170: ff0c b43d 79b3 83bd 78d8 52bd 5b35 0cbe
00000180: 64c4 39bd 1567 003d 276c 8fbc 5ef2 d7bd
00000190: 1850 d0bd 492d 0d3d b610 d1bb 03e3 083d
000001a0: e8a7 c83d bd25 0d3e 0991 a0bd 19dc 86bc
000001b0: fb22 f83c 93a6 083d aad8 793b 0e5d 1a3d
000001c0: b539 043e 4873 d23d cb9d c7bd b90d 0fbd
000001d0: 6a1d ea3d c6be cfbc f9bb 6f3d a04e 353d
000001e0: 825d 293d 5932 033d e202 6f3d 1c5f 073d
000001f0: 1c33 22bc d4f0 513d af94 43bc f846 b43d
00000200: 4b6c e13c 2852 6abd 76be dc3d 3829 b63d
00000210: cb88 babd e224 f1bd 540f 68bd 0864 ccbc
00000220: 3c84 233d bfd4 e6bc 7399 52bd 9e7c d1bc
00000230: c074 803d 7b52 373d 68b6 7bbd d259 8a3d
00000240: 6fd7 f7bc aa9d b03c 71b0 cbba 602b 1cbd
00000250: 74e0 813d 1584 d8bd 8677 a53d e413 82bd
00000260: 4a8b 85bd fc6e 9dbd c0f3 123d c5b7 913d
00000270: f070 3d3d 782d aebd 65fd 4d3d 6a3c 873c
00000280: 4246 87bd c102 13bd f472 21bd 0750 ccbd
00000290: 754d 50bd 1636 d2bb c883 9ebd 74a2 07bd
000002a0: c9e5 863d b02a 983b fd05 7c3c 9b6a 313d
000002b0: 6413 0f3e 515d 14ba 39e5 c0bd 8335 8ebd
000002c0: b306 9fbd 8788 e13b 4dc5 113d 1c7c 46bd
000002d0: 30c2 0d3d 8409 1b3d 7e8d 8ebc d88a 19be
000002e0: 92b0 3abd b30b 70bd 5697 01bd 652f 3c3d
000002f0: 5130 dc3c f4a6 52bd 25d9 553d cb4e 413c
00000300: 73f9 243d f1e3 773c f27a aa3d 6572 37bd
00000310: 9e0c d43a 7d65 34bc a8fb 38be 4642 103d
00000320: 0b1f 00bd 7032 7d3c 5bc0 90bc 6ee8 dd3c
00000330: ef28 fe3d a096 853d e8da 113d f041 c0bd
00000340: 3615 9a3c 8b73 d7bd 3d39 35bd e0f8 443c
00000350: 0087 443d aa1a 29bd fade 98bd fff4 703d
00000360: 212f 80bd a68e 87bd 2575 a6bd 1275 5339
00000370: 722d 5a3d 5e23 2dbd 310d f1bd 2930 9a3d
00000380: b123 5bbd 0718 9f3c aff3 3c3d f8f4 c9bd
00000390: b19b d5bc c22a 853d 3fd4 ae3d b9eb 9b3d
000003a0: e4d9 703d dab3 a0bc 9719 48bd bcaa 823d
000003b0: 7524 dc3d 1c03 04be 1906 08bd 8bd8 53bd
000003c0: fe21 f93c aa4d 24ba 1248 083e f649 82bd
000003d0: 88f9 b73c 439e 0b3d 447f ec3d f712 153c
000003e0: 3a34 9fbd aad6 0d3e 6355 a43c d09f 723c
000003f0: 5688 993d fa0a 043d 283f 91bc c099 78bd

fc2.bias f4 [84]
0.12057911 -0.0010552406 0.11864669 0.047146812 0.041349865 -0.06428256 0.015283565 -0.0628649
-0.04088197 0.06192642 0.049835794 -0.0175608 0.0567791 0.100011684 0.008006086 0.018917684
-0.0398839 0.06156916 0.028968506 -0.09918972 0.011424824 0.0066335425 0.09684983 0.060217988
0.06781866 -0.024223274 0.032807656 0.0753559 0.10293569 0.08165756 -0.069086425 0.025103299
-0.058932733 0.049724475 0.061772343 0.043916084 0.0008635016 0.13596977 0.04196239 0.055123445
-0.05390435 0.028499966 -0.055174462 -0.05257152 -0.04976889 0.1042136 -0.027620252 -0.04806983
-0.022588708 0.083055064 -0.06348066 0.028121144 -0.045205023 0.07365039 0.109865256 0.020326644
-0.05372124 -0.0094775995 0.0291049 -0.037351694 -0.048527975 -0.10655546 0.09207078 -0.02547236
-0.07701271 -0.0064779264 0.077942155 0.083154954 0.033884592 0.10079242 0.07052678 0.05230545
-0.018049406 0.068319954 0.039073937 -0.06127543 0.049404502 0.11495102 0.05302658 0.09932731
0.105782814 0.1214137 -0.038137004 -0.037417736
00000000: 2ef2 f63d 0050 8aba 09fd f23d 041d 413d
00000010: 7a5e 293d 93a6 83bd eb67 7a3c 50bf 80bd
00000020: da73 27bd 8fa6 7d3d 9e20 4c3d abdb 8fbc
00000030: 3491 683d edd2 cc3d f52b 033c 42f9 9a3c
00000040: 4d5d 23bd f22f 7c3d 5c4f ed3c fb23 cbbd
00000050: 2f2f 3b3c 305e d93b 3459 c63d 23a7 763d
00000060: 82e4 8a3d e36f c6bc 5261 063d 3254 9a3d
00000070: f2cf d23d 143c a73d 2f7d 8dbd 6fa5 cd3c
00000080: 7363 71bd e4ab 4b3d ff04 7d3d 5ae1 333d
00000090: 9d5c 623a a93b 0b3e c1e0 2b3d 1fc9 613d
000000a0: cfca 5cbd c378 e93c 9efe 61bd 3c55 57bd
000000b0: 77da 4bbd f16d d53d de43 e2bc dfe4 44bd
000000c0: f40b b9bc c618 aa3d 2602 82bd 505e e63c
000000d0: e728 39bd 04d6 963d 0901 e13d 1084 a63c
000000e0: ce0a 5cbd ef47 1bbc 666d ee3c 17fe 18bd
000000f0: 45c5 46bd c039 dabd 9b8f bc3d 69ab d0bc
00000100: d7b8 9dbd c944 d4bb 23a0 9f3d 254d aa3d
00000110: 92ca 0a3d 426c ce3d 5870 903d 3d3e 563d
00000120: 59dc 93bc 55eb 8b3d fe0b 203d f2fb 7abd
00000130: 605c 4a3d 716b eb3d 6632 593d 1e6c cb3d
00000140: a9a4 d83d bfa7 f83d 8c35 1cbd 5743 19bd

fc3.weight f4 [10, 84]
-0.14438483 -0.21106276 -0.050851073 -0.43043232 0.101145744 0.07735579 -0.044614207 -0.22332789
-0.062206686 0.18068588 0.076180935 0.12903635 -0.17839743 -0.10925718 -0.14924987 -0.10871038
0.13165928 -0.228462 -0.013633545 -0.052909154 0.092529565 -0.18118937 -0.17156675 0.025933271
-0.16595353 0.026120858 0.07567809 0.018453628 0.05569409 -0.112435386 -0.08317834 0.042100094
0.004965871 0.11228202 -0.12692529 0.10397679 0.018831229 -0.025189139 -0.070534505 -0.13591945
-0.035080213 0.07722836 -0.066974774 -0.15455374 -0.045154948 0.06246469 -0.048868906 -0.14877388
0.03491277 -0.058599487 -0.043177824 -0.063742206 0.008286155 -0.11508358 -0.22903928 0.030074192
-0.22145145 -0.16737925 -0.18738495 -0.0816292 0.075465046 -0.0010086158 -0.0040575815 -0.009703073
-0.07943108 0.05771818 -0.15644017 0.0788114 -0.07160042 0.06523611 0.017784277 -0.13773017
-0.02775211 -0.17711772 -0.052904062 -0.10849704 0.035129383 -0.15507764 -0.20971821 0.16109715
0.14821261 0.06865184 -0.04843093 -0.09423358 0.07463761 0.1457185 0.065452866 -0.09277835
0.10657844 -0.04185672 -0.010688741 -0.102453165 -0.073758975 -0.032907303 -0.057447974 0.10137756
0.104840614 -0.017753584 -0.054679744 -0.14274204 -0.04185277 0.07443245 0.105016604 -0.16324002
0.07632507 -0.08810857 0.057169456 0.08287317 0.06445857 -0.04768399 0.17920393 -0.2393153
-0.07786441 -0.028074734 0.06987656 -0.13184358 -0.029206583 -0.09818526 -0.29489642 -0.120941296
-0.10579299 0.20226261 -0.014299128 -0.0134428125 -0.21542412 -0.031905808 0.051371444 0.07739358
-0.1456157 -0.15040073 -0.20221673 0.045008153 0.15202843 0.04766608 -0.081950724 -0.12234743
-0.00893614 -0.11207508 0.11786387 -0.09271597 -0.086672194 0.04932844 0.14003596 -0.051611234
0.049212243 0.07273531 0.11305124 0.033456586 0.018759364 0.128798 0.11434465 -0.22944003
0.10837287 -0.12031768 0.016331112 -0.057198066 -0.15713029 -0.14599076 -0.19182405 0.008659612
0.087339364 0.095076576 0.14546871 -0.21727948 -0.20954236 0.13815841 0.012613142 0.056940004
-0.21745844 -0.1433177 0.06889351 -0.090733185 0.08519335 -0.041330308 0.012077105 -0.13045113
0.041956365 -0.110243194 0.04085524 -0.12016054 -0.17832564 -0.1558963 -0.20795342 0.12299694
0.0019281848 -0.2525103 0.025623301 -0.062929265 -0.029344944 -0.18621768 0.09709681 -0.136596
-0.091689125 0.12258589 -0.19124465 -0.059611242 0.05544977 0.15028016 0.05849939 0.08475073
0.06779553 -0.07495337 -0.04777776 -0.17514864 -0.014259536 -0.13007897 0.014734406 0.12927371
0.03393606 -0.08042747 -0.10250899 -0.12521194 -0.04954435 -0.18814963 -0.15163822 -0.103181794
0.069867 -0.0927983 0.021594321 0.13417408 0.096671775 -0.18702257 -0.19723988 -0.11856148
-0.08188576 0.11739399 -0.1287618 0.020579148 0.06821655 -0.02983068 -0.0541316 0.076728106
0.0861381 0.061670657 -0.121731035 -0.1117257 0.06952107 0.03690035 0.11347562 -0.12874289
-0.15477607 -0.059707616 -0.21405566 0.06504039 0.07694719 -0.1515171 -0.058001064 -0.07628689
0.0056948005 0.09110932 -0.012245047 0.025169324 -0.107019894 -0.19304878 -0.06524487 0.075982176
00000000: 9ed9 13be d620 58be 3749 50bd a061 dcbe
00000010: 8025 cf3d b66c 9e3d 63bd 36bd 11b0 64be
00000020: 70cc 7ebd b805 393e c004 9c3d 1b22 043e
00000030: d1ad 36be 3ac2 dfbd f5d4 18be 8ca3 debd
00000040: b1d1 063e f1f1 69be 3b5f 5fbc 45b7 58bd
00000050: 2480 bd3d b589 39be 32af 2fbe 0372 d43c
00000060: b9ef 29be 69fb d53c 1dfd 9a3d 102c 973c
00000070: 7c1f 643d 8644 e6bd 6859 aabd 2671 2c3d
00000080: bfb8 a23b 1ef4 e53d b4f8 01be c9f1 d43d
00000090: f343 9a3c 7459 cebc 6574 90bd 782e 0bbe
000000a0: 45b0 0fbd e729 9e3d 122a 89bd 5643 1ebe
000000b0: 65f4 38bd fada 7f3d c32a 48bd 2e58 18be
000000c0: b100 0f3d 0406 70bd 3bdb 30bd 468b 82bd
000000d0: a7c2 073c f1b0 ebbd 4689 6abe 275e f63c
000000e0: 2bc4 62be 7765 2bbe d7e1 3fbe 362d a7bd
000000f0: 6b8d 9a3d 8833 84ba 76f5 84bb a3f9 1ebc
00000100: c3ac a2bd e669 6c3d da31 20be df67 a13d
00000110: 3ea3 92bd 829a 853d 55b0 913c 2309 0dbe
00000120: 6558 e3bc 595e 35be eeb1 58bd b233 debd
00000130: d4e3 0f3d accc 1ebe 5fc0 56be a7f6 243e
00000140: 0cc5 173e 5699 8c3d 835f 46bd 89fd c0bd
00000150: 9adb 983d 3b37 153e 270c 863d 9302 bebd
00000160: cc45 da3d f471 2bbd d41f 2fbc f7d2 d1bd
00000170: f20e 97bd cfc9 06bd 914e 6bbd 0a9f cf3d
00000180: adb6 d63d f76f 91bc def7 5fbd f82a 12be
00000190: cf6d 2bbd 0a70 983d f212 d73d 6428 27be
000001a0: 5150 9c3d 4472 b4bd 852a 6a3d 69b9 a93d
000001b0: db02 843d 4a50 43bd 3c81 373e 120f 75be
000001c0: 6077 9fbd fcfc e5bc 711b 8f3d 0102 07be
000001d0: a542 efbc 5b15 c9bd aafc 96be 12b0 f7bd
000001e0: ffa9 d8bd ee1d 4f3e e446 6abc 3e3f 5cbc
000001f0: 2498 5cbe aaaf 02bd dd6a 523d 8680 9e3d
00000200: 481c 15be a602 1abe e711 4fbe 785a 383d
00000210: 57ad 1b3e 823d 433d c8d5 a7bd 4a91 fabd
00000220: e368 12bc 9f87 e5bd 9d62 f13d dfe1 bdbd
00000230: 3181 b1bd 9e0c 4a3d 9665 0f3e 4d66 53bd
00000240: c792 493d 40f6 943d 6987 e73d c609 093d
00000250: 3dad 993c 9fe3 033e 872d ea3d 54f2 6abe
00000260: 98f2 dd3d 1e69 f6bd d3c8 853c 8548 6abd
00000270: c3e6 20be 9a7e 15be 866d 44be 0ce1 0d3c
00000280: fbde b23d 82b7 c23d c0f5 143e 837e 5ebe
00000290: 4692 56be 6679 0d3e 5aa7 4e3c ec39 693d
000002a0: 6dad 5ebe e0c1 12be 0a18 8d3d 52d2 b9bd
000002b0: da79 ae3d f849 29bd 0ddf 453c fb94 05be
000002c0: 70da 2b3d 2fc7 e1bd d357 273d bb16 f6bd
000002d0: ff9a 36be 48a3 1fbe bef1 54be d2e5 fb3d
000002e0: 25bb fc3a 0849 81be f5e7 d13c 0fe1 80bd
000002f0: cf64 f0bc d9af 3ebe b1da c63d d2df 0bbe
00000300: 82c7 bbbd 500e fb3d a3d5 43be eb2a 74bd
00000310: 4c1f 633d 0be3 193e 0e9d 6f3d ca91 ad3d
00000320: 62d8 8a3d 2781 99bd 9db2 43bd 2a5a 33be
00000330: d4a0 69bc 6c33 05be 9468 713c 5460 043e
00000340: 8a00 0b3d 28b7 a4bd 3cf0 d1bd 8f37 00be
00000350: 04ef 4abd 4caa 40be 0d47 1bbe fa50 d3bd
00000360: 6e16 8f3d 090d bebd 93e6 b03c ee64 093e
00000370: dafb c53d d882 3fbe 40f9 49be 5cd0 f2bd
00000380: b9b3 a7bd 436c f03d 22da 03be 9a95 a83c
00000390: 1eb5 8b3d 785f f4bc 19b9 5dbd a023 9d3d
000003a0: 2c69 b03d 5f9a 7c3d 1f4e f9bd 72d0 e4bd
000003b0: 1061 8e3d d224 173d e865 e83d 2dd5 03be
000003c0: 9e7d 1ebe f98f 74bd 6831 5bbe e533 853d
000003d0: 7d96 9d3d 4c27 1bbe 8692 6dbd 4d3c 9cbd
000003e0: 739b ba3b 8697 ba3d 739f 48bc e62f ce3c
000003f0: 3f2d dbbd 94ae 45be 1a9f 85bd 8b9c 9b3d

fc3.bias f4 [10]
-0.020230655 0.07043757 -0.042761642 -0.111086614 -0.044339012 -0.0358769 0.07877173 0.059015434
0.017760595 -0.051654957
00000000: c2ba a5bc 9341 903d d526 2fbd 6181 e3bd
00000010: d39c 35bd a8f3 12bd 1353 a13d 2bba 713d
00000020: ab7e 913c 2694 53bd
