models/client-4-4.pth (torch, 239906 bytes, 12 tensors)

conv1.weight f4 [6, 1, 5, 5]
0.13003697 0.16317074 0.17878366 0.17915678 0.1114475 0.2994805 0.32862222 0.38790637
0.2724531 0.14047693 0.30439243 0.27692515 0.060487665 0.25272557 0.28235745 0.07073252
0.07778638 -0.03055355 0.13935798 0.11380978 -0.1779674 -0.22565702 -0.36069223 -0.28889126
-0.15904078 0.23393853 -0.024830304 0.101699784 -0.051620085 -0.12006015 0.13420708 0.30104735
0.032536868 -0.12939571 -0.18945874 0.08649313 0.38325664 0.025539422 -0.175108 -0.23247717
0.21286426 0.26382813 0.1528872 -0.10526149 -0.05453576 0.32740736 0.30925292 0.378665
0.40015015 0.005720487 0.25315383 0.16459511 -0.09246289 -0.056014095 -0.21938802 0.12369979
0.18710178 0.0022268754 -0.31479174 -0.13112229 0.2770053 0.1687852 -0.1521868 -0.36323842
-0.15657476 0.24625683 -0.060723294 -0.16046192 -0.326606 0.035652697 0.21471862 -0.13789418
-0.27335572 -0.2046825 0.1813925 0.30014616 0.35335004 0.41487515 0.03219239 0.18907885
0.32928178 0.26241294 0.07320172 0.081846595 0.33363247 0.36771598 -0.036042385 0.024832195
-0.11187058 0.089493155 -0.014389448 -0.05363279 -0.11240752 -0.266718 -0.1100593 0.20469542
0.15778749 -0.04493485 -0.162049 -0.05205727 -0.037372466 0.2037864 0.028372843 0.013951232
-0.08023494 0.17419085 -0.0068272585 0.093961544 -0.11223354 -0.27161944 0.11857341 0.3167406
0.0022720858 -0.017350055 -0.34714046 0.37825787 0.16621247 0.19750556 0.03359887 -0.20078564
0.17367946 0.30092826 0.007538943 0.07510005 -0.065033674 0.27255782 0.22757554 -0.03620408
0.008018288 -0.048065618 -0.071300745 0.03628843 0.1349739 0.2753512 0.28835446 0.18928368
0.18775016 0.114415586 0.23270084 0.2647513 0.10229386 -0.14838241 -0.079460576 -0.20242538
0.20529175 0.014948853 -0.17907494 -0.22059096 -0.26195988 -0.056673933
00000000: 6928 053e 3b16 273e 1013 373e e074 373e
00000010: 963e e43d 8255 993e 2c41 a83e aa9b c63e
00000020: f97e 8b3e 2fd9 0f3e 53d9 9b3e 22c9 8d3e
00000030: eac1 773d 3f65 813e 2891 903e 36dc 903d
00000040: 774e 9f3d 704b fabc dcb3 0e3e 1a15 e93d
00000050: 163d 36be a212 67be a7ac b8be 8ee9 93be
00000060: 96db 22be 958d 6f3e ec68 cbbc fa47 d03d
00000070: 956f 53bd 19e2 f5bd 956d 093e e122 9a3e
00000080: 6145 053d 4f80 04be 7901 42be 4f23 b13d
00000090: 373a c43e 0d38 d13c 834f 33be 7f0e 6ebe
000000a0: 17f9 593e 7b14 873e 768e 1c3e 5693 d7bd
000000b0: e460 5fbd f0a1 a73e 6656 9e3e 61e0 c13e
000000c0: 7be0 cc3e ec72 bb3b 619d 813e 9f8b 283e
000000d0: 2f5d bdbd 096f 65bd 41a7 60be 5156 fd3d
000000e0: 9c97 3f3e c5f0 113b 622c a1be ec44 06be
000000f0: a4d3 8d3e 07d6 2c3e dbd6 1bbe 63fa b9be
00000100: 2255 20be c02a 7c3e fdb8 78bd 2150 24be
00000110: e738 a7be 9008 123d 33df 5b3e 2234 0dbe
00000120: 48f5 8bbe 4a98 51be f5be 393e c2ac 993e
00000130: 4cea b43e 846a d43e 2bdc 033d e39d 413e
00000140: 9f97 a83e fd5a 863e c9ea 953d 309f a73d
00000150: e0d1 aa3e 4545 bc3e 2ea1 13bd e36c cb3c
00000160: 671c e5bd 3048 b73d b8c1 6bbc 0eae 5bbd
00000170: ea35 e6bd 438f 88be c566 e1bd ad9b 513e
00000180: 0b93 213e 9b0d 38bd 2cf0 25be 013a 55bd
00000190: df13 19bd 62ad 503e 2a6e e83c b593 643c
000001a0: 3752 a4bd 165f 323e 32b7 dfbb e96e c03d
000001b0: b3da e5bd b411 8bbe 9ed6 f23d d32b a23e
000001c0: 46e7 143b b421 8ebc 65bc b1be 04ab c13e
000001d0: 9a33 2a3e e63e 4a3e f89e 093d c09a 4dbe
000001e0: 07d9 313e 4513 9a3e 3d09 f73b 0ece 993d
000001f0: 6030 85bd b38c 8b3e 9009 693e bb4a 14bd
00000200: 235f 033c 74e0 44bd 2006 92bd 2da3 143d
00000210: 9936 0a3e d5fa 8c3e 32a3 933e 95d3 413e
00000220: 9441 403e b852 ea3d 2149 6e3e 7b8d 873e
00000230: 717f d13d 8ff1 17be 3abc a2bd 9948 4fbe
00000240: 0038 523e 09ec 743c 6c5f 37be 99e2 61be
00000250: 9b1f 86be ed22 68bd

conv1.bias f4 [6]
0.21114777 -0.13282757 0.03573991 0.027232671 0.098623835 0.050656248
00000000: 1f37 583e f303 08be 0364 123d 0d17 df3c
00000010: 4bfb c93d ed7c 4f3d

conv2.weight f4 [16, 6, 5, 5]
0.0061704316 -0.056995217 -0.101517946 -0.1121899 -0.04532248 0.050895624 0.14987451 0.19663505
0.22264479 0.12530649 0.109276235 0.07808956 0.13453376 0.2610442 0.20128056 0.003250092
-0.1120515 -0.10762249 -0.040901314 0.05887343 -0.06030687 -0.16248514 -0.14347056 -0.060363214
0.0043928656 -0.017059833 0.12916392 0.13405854 0.15074545 0.07418581 -0.051597886 0.0007161645
-0.039960254 0.03158028 0.10308689 -0.11056794 -0.20669389 -0.14925973 -0.25340554 -0.06415986
0.002758643 -0.0041740667 -0.1299499 -0.19675125 -0.18688956 0.037199847 0.10238448 0.07123892
-0.002138989 0.019249426 0.06304236 0.017452683 -0.028129151 -0.08192116 -0.104811415 -0.1270021
-0.100278854 -0.18514356 -0.20737708 -0.19274087 -0.1469251 -0.025423434 -0.15999636 -0.123127215
-0.1447014 -0.011656518 -0.01514144 -0.019857833 -0.09315073 -0.17000166 -0.039333966 0.12967943
-0.00046608222 -0.1534384 -0.037571985 0.02952989 -0.07742335 -0.1176822 -0.035581473 -0.1355307
0.024996744 0.0629522 0.020257447 0.10197427 -0.001173793 0.006826327 0.062052123 0.11195886
0.14223348 0.05444062 -0.038348347 0.09236374 -0.0683905 -0.058338672 0.026751079 0.005104119
-0.06041978 -0.13508996 -0.18073002 -0.09882672 0.045735937 -0.066724226 0.00047874323 0.103731774
0.20480831 -0.059064586 -0.15672302 -0.004904126 -0.017261557 0.02338271 0.012842441 -0.020665087
-0.2054282 -0.21261677 -0.1686565 0.08411226 0.05946597 -0.029556254 -0.14234176 -0.07384179
0.08052052 0.09938422 0.054251004 0.06899944 0.063477956 0.022820214 -0.00504966 -0.05317968
-0.07793744 -0.070781805 0.030973587 0.094922125 0.14797902 0.116933346 0.22397351 0.12556696
0.054840032 0.11707378 0.225433 0.17969741 -0.07145972 -0.12778667 0.005697636 -0.10704754
0.08324515 -0.09351526 -0.11050568 -0.17351268 -0.1419244 -0.09580536 0.04562721 -0.10056275
-0.055207185 -0.12565851 -0.029988894 0.12392495 0.10433292 -0.03291726 -0.15069312 -0.010866922
0.12231681 0.016599098 -0.027995177 -0.07434125 -0.10333695 -0.1106311 -0.08946194 0.06671593
-0.052526698 -0.13047959 -0.09978743 0.07661382 0.0049102125 0.016029019 -0.0632035 0.08984245
0.21271603 0.05922285 -0.1004168 -0.12260674 -0.013010327 0.15971299 0.19827653 0.071224414
-0.08543934 -0.17590281 0.045813806 0.18713592 0.04991684 -0.01658691 -0.113324866 -0.04338587
0.18398675 0.055900965 0.023383396 -0.17683886 -0.06471882 0.10931579 0.02777888 0.0723711
-0.20559241 -0.14125277 0.0076453947 -0.04169348 -0.10804746 -0.10157226 -0.15569618 0.07166876
-0.051477272 -0.09325941 -0.119630836 -0.065522864 0.14791752 0.10355605 0.045078464 -0.09512425
-0.012844087 0.16854367 0.25640264 0.12279842 -0.06834482 -0.039517906 0.08854141 0.18002544
-0.004475267 -0.0035667666 -0.03638923 -0.011777048 -0.057154927 -0.08719559 -0.018315714 -0.057751168
0.092522554 -0.07198993 -0.12242723 0.06443242 0.041050054 0.050581686 0.08240717 -0.041538898
-0.1306166 -0.084841214 0.135333 0.099320166 0.025478158 -0.1285767 -0.025385989 0.015084141
0.10349312 -0.096634984 -0.031016335 0.10537566 -0.041384965 -0.0030534812 -0.084781446 -0.08347293
00000000: 5531 ca3b d173 69bd a4e8 cfbd d1c3 e5bd
00000010: 11a4 39bd ee77 503d b478 193e b35a 493e
00000020: fffc 633e 5850 003e 38cc df3d 6bed 9f3d
00000030: 38c3 093e 96a7 853e 7e1c 4e3e 7fff 543b
00000040: 427b e5bd 2e69 dcbd 2388 27bd 4425 713d
00000050: 5604 77bd 8162 26be f2e9 12be 6b3f 77bd
00000060: 07f2 8f3b 10c1 8bbc 8c43 043e a446 093e
00000070: 045d 1a3e bbee 973d 4e58 53bd fcbc 3b3a
00000080: 5dad 23bd 535a 013d 381f d33d 7271 e2bd
00000090: 90a7 53be 8bd7 18be 5fbe 81be 3f66 83bd
000000a0: 59ca 343b 9cc6 88bb 9611 05be 2979 49be
000000b0: fa5f 3fbe de5e 183d f4ae d13d b6e5 913d
000000c0: 482e 0cbb f9b0 9d3c 5a1c 813d eef8 8e3c
000000d0: 1b6f e6bc 48c6 a7bd 5ea7 d6bd d70c 02be
000000e0: 005f cdbd 4696 3dbe a85a 54be dd5d 45be
000000f0: 8973 16be ce44 d0bc 16d6 23be 1f2a fcbd
00000100: 9b2c 14be fbfa 3ebc cd13 78bc e5ac a2bc
00000110: cfc5 bebd ea14 2ebe a71c 21bd afca 043e
00000120: 7f5c f4b9 f51e 1dbe 15e5 19bd abe8 f13c
00000130: 2290 9ebd 5e03 f1bd e1bd 11bd 8fc8 0abe
00000140: f9c5 cc3c 15ed 803d f2f2 a53c e3d7 d03d
00000150: f5d9 99ba 62af df3b 5e2a 7e3d b04a e53d
00000160: a7a5 113e 21fd 5e3d 2813 1dbd 3329 bd3d
00000170: 5210 8cbd 88f4 6ebd 1425 db3c 7440 a73b
00000180: bb7a 77bd 0655 0abe 4a11 39be aa65 cabd
00000190: 9b55 3b3d b6a6 88bd d4ff fa39 5371 d43d
000001a0: 45b9 513e b5ed 71bd 007c 20be cab2 a0bb
000001b0: 1c68 8dbc 198d bf3c 1a69 523c d449 a9bc
000001c0: c55b 52be 36b8 59be 4ab4 2cbe 0c43 ac3d
000001d0: 9792 733d f51f f2bc 0ac2 11be 5d3a 97bd
000001e0: f1e7 a43d f489 cb3d 4d36 5e3d 944f 8d3d
000001f0: bb00 823d 75f1 ba3c 9e77 a5bb f0d2 59bd
00000200: aa9d 9fbd 0df6 90bd 52bc fd3c 8866 c23d
00000210: d087 173e c07a ef3d 5059 653e a094 003e
00000220: f19f 603d 61c4 ef3d e9d7 663e 9902 383e
00000230: 7959 92bd 82da 02be 3cb3 ba3b be3b dbbd
00000240: 6f7c aa3d ee84 bfbd cd50 e2bd 4fad 31be
00000250: a154 11be 9a35 c4bd 99e3 3a3d d8f3 cdbd
00000260: ee20 62bd a0ac 00be 45ab f5bc 5dcc fd3d
00000270: 7fac d53d 40d4 06bd 4c4f 1abe 2d0b 32bc
00000280: 3c81 fa3d d5fa 873c 2456 e5bc 3a40 98bd
00000290: 53a2 d3bd 8f92 e2bd d237 b7bd 5da2 883d
000002a0: 3c26 57bd 719c 05be 5a5d ccbd b5e7 9c3d
000002b0: d9e5 a03b 4a4f 833c d670 81bd 52ff b73d
000002c0: 3bd2 593e a993 723d 53a7 cdbd 3e19 fbbd
000002d0: 4429 55bc cd8b 233e 0109 4b3e 1bde 913d
000002e0: d2fa aebd de1f 34be 42a7 3b3d 8fa0 3f3e
000002f0: 9a75 4c3d 45e1 87bc de16 e8bd 62b5 31bd
00000300: 0667 3c3e 69f8 643d 898e bf3c 3f15 35be
00000310: 4d8b 84bd f5e0 df3d 8990 e33c 4d37 943d
00000320: d186 52be 91a4 10be 3886 fa3b c8c6 2abd
00000330: fd47 ddbd 1e05 d0bd d26e 1fbe 12c7 923d
00000340: d5d9 52bd cafe bebd 0301 f5bd da30 86bd
00000350: b177 173e 3215 d43d 32a4 383d 81d0 c2bd
00000360: 0170 52bc b696 2c3e 3547 833e bd7d fb3d
00000370: 5ef8 8bbd 87dd 21bd 3355 b53d 9758 383e
00000380: 43a5 92bb 6ac0 69bb e00c 15bd 85f4 40bc
00000390: 491b 6abd 9a93 b2bd d60a 96bc 7d8c 6cbd
000003a0: 777c bd3d 756f 93bd 21bb fabd 25f5 833d
000003b0: 1a24 283d be2e 4f3d 17c5 a83d b124 2abd
000003c0: 5cc0 05be 3bc1 adbd bc94 0a3e 5f68 cb3d
000003d0: 92b7 d03c 9ca9 03be 47f6 cfbc 7923 773c
000003e0: 33f4 d33d 90e8 c5bd f815 febc 32cf d73d
000003f0: 4883 29bd ea1c 48bb e5a1 adbd dbf3 aabd

conv2.bias f4 [16]
0.068540335 -0.11365852 -0.040514342 -0.040793628 -0.029700061 -0.038299143 -0.089904286 0.05606669
0.039229244 -0.11604907 0.084206544 -0.062203355 -0.089267135 -0.062562905 -0.0016031734 0.03198924
00000000: e05e 8c3d ccc5 e8bd 5ef2 25bd 3817 27bd
00000010: 8b4d f3bc 90df 1cbd bd1f b8bd 2fa6 653d
00000020: d8ae 203d 23ab edbd 7b74 ac3d f2c8 7ebd
00000030: b0d1 b6bd fb20 80bd 9321 d2ba 2607 033d

skip_layer.weight f4 [120, 256]
0.03976369 0.02532317 0.032065876 0.034749273 -0.0016603586 0.05864182 -0.04845032 0.0246367
-0.029238997 -0.02319379 -0.0011065523 0.028591655 -0.01796669 0.039943937 0.040474277 0.039732687
-0.07597299 0.02368988 0.039199885 -0.0069090887 0.031071994 0.033273328 -0.04814194 -0.0592125
-0.04460896 0.020709671 -0.005589684 -0.03634135 0.054268736 -0.07228528 0.016395098 -0.07393337
0.03843116 -0.04792205 -0.038455807 0.03377362 -0.027034193 0.032322258 0.010444769 0.033857904
0.03117636 0.03496821 -0.010944108 0.018937025 0.06664801 0.029576337 -0.039351948 0.034432404
0.046321757 0.006088506 -0.048260886 -0.058430824 -0.028334558 -0.047808148 -0.026482522 -0.028992584
0.023980608 -0.033316676 0.05901854 -0.026970897 0.040823393 -0.009910352 -0.011398388 -0.0011798316
0.023782713 -0.03322455 0.052499544 -0.052480925 -0.037300136 0.007557506 0.05366343 -0.0050675333
-0.048643515 0.033849902 -0.0362089 0.031665385 0.01590006 0.01388296 -0.05207389 0.01849618
0.041938104 -0.01960102 -0.037143953 -0.049417082 -0.02478239 -0.06563852 -0.053234138 0.050687935
0.031561565 0.038016785 0.06299277 -0.059969116 0.055909567 0.008150743 0.061255038 -0.0137456795
-0.012132706 -0.01634013 0.038477365 -0.0068213656 0.0084131835 -0.052761596 -0.060769595 -0.06619614
0.05066815 -0.049771823 -0.022387264 -0.03235788 0.055512108 -0.03305621 -0.00015921738 0.013255748
-0.0042504203 0.042177994 -0.023752633 -0.042376123 -0.059129406 0.028296001 0.05567488 0.04069591
-0.008949501 -0.0006209198 0.031371184 0.057355333 0.05946875 0.04178948 0.007382208 0.0605427
0.05005838 -0.037202097 -0.024957247 -0.05326948 0.05063181 -0.016245723 -0.046785377 -0.035294626
-0.03843496 0.02497585 0.06490973 0.0008753141 -0.019554265 0.004533675 0.035563253 0.057461716
0.04429927 0.028404571 0.03156248 0.034247763 0.045928605 0.036333602 -0.06260104 -0.012597094
0.008572264 0.014202706 0.022430722 -0.052623216 0.04409885 0.0035712942 0.043373305 0.03517669
0.016067537 0.05746059 -0.016775183 0.025264947 0.029797448 -0.04977267 0.06501498 -0.039916445
0.04673946 0.003923707 -0.02208422 0.011251022 -0.04867251 0.0066384864 -0.004349868 0.0043612095
0.024469035 -0.04581492 -0.06381387 0.010625169 0.025093598 -0.031809695 0.02692008 -0.059814796
-0.055659987 -0.058501925 -0.013058376 -0.019137407 -0.01637099 0.037158113 -0.04571538 0.0099031525
0.01372103 -0.009593616 -0.055622555 -0.06315276 -0.011023795 0.012655876 0.044750992 -0.02232544
-0.05015192 0.03934744 -0.0032665196 0.065535806 0.056344356 -0.0039806818 -0.0250295 0.07027022
-0.062476918 0.023262123 0.084745556 0.017260775 -0.019257395 -0.014937116 -0.03573902 -0.02558989
0.022417128 -0.0354397 -0.046767496 0.01779551 0.063887864 -0.0072820513 -0.06506458 -0.03782321
0.09088594 -0.03191832 0.008225421 -0.052320138 0.075317755 0.057128783 0.009457773 -0.003284555
0.033463318 0.06662433 -0.05208659 0.049718805 0.026949083 0.057695094 0.032253724 -0.005035829
-0.03042439 -0.024104923 0.032445904 -0.031467568 0.02845266 0.053907935 -0.041127775 0.029540595
0.01280468 -0.005133636 -0.0132847 -0.01619348 -0.00012469961 0.013484163 -0.013425954 0.07726297
00000000: 40df 223d 8972 cf3c 8257 033d 4155 0e3d
00000010: 64a0 d9ba 6832 703d d873 46bd e8d2 c93c
00000020: 9f86 efbc e700 bebc bc09 91ba 0c39 ea3c
00000030: e12e 93bc 419c 233d 5bc8 253d bebe 223d
00000040: ba97 9bbd 4711 c23c 0f90 203d a365 e2bb
00000050: b28a fe3c 9d49 083d 7c30 45bd ce88 72bd
00000060: e3b7 36bd 54a7 a93c ab29 b7bb abda 14bd
00000070: e548 5e3d 4e0a 94bd 034f 863c 616a 97bd
00000080: fe69 1d3d e949 44bd d683 1dbd 3556 0a3d
00000090: d076 ddbc 5864 043d 8920 2b3c 96ae 0a3d
000000a0: 9165 ff3c d33a 0f3d ea4e 33bc d221 9b3c
000000b0: c07e 883d 134a f23c 822f 21bd fe08 0d3d
000000c0: e2bb 3d3d 1782 c73b 35ad 45bd 2955 6fbd
000000d0: e01d e8bc 7ad2 43bd e0f1 d8bc db81 edbc
000000e0: fb72 c43c 1177 08bd 6dbd 713d 12f2 dcbc
000000f0: 6e36 273d 075f 22bc 4ec0 3abc 94a4 9aba
00000100: f7d3 c23c 7716 08bd c309 573d 3df6 56bd
00000110: 07c8 18bd f5a4 f73b 2fce 5b3d 8d0d a6bb
00000120: 6c3e 47bd 32a6 0a3d c94f 14bd 90b3 013d
00000130: d840 823c 5b75 633c 6e4b 55bd 4d85 973c
00000140: 4ac7 2b3d 5192 a0bc 4224 18bd 9169 4abd
00000150: 7004 cbbc 7d6d 86bd 0a0c 5abd 279e 4f3d
00000160: b346 013d 7db7 1b3d 5a02 813d 2da2 75bd
00000170: 6e01 653d b28a 053c 90e6 7a3d 8f35 61bc
00000180: 42c8 46bc bcdb 85bc 719a 1d3d c385 dfbb
00000190: 73d7 093c 8b1c 58bd 8ae9 78bd d891 87bd
000001a0: 6889 4f3d 8add 4bbd 7f65 b7bc b289 04bd
000001b0: aa60 633d f365 07bd 97f3 26b9 a32e 593c
000001c0: 1c47 8bbb d5c2 2c3d e294 c2bc 9692 2dbd
000001d0: ad31 72bd 04cd e73c 580b 643d c1b0 263d
000001e0: eea0 12bc 39c5 22ba 127f 003d 6ded 6a3d
000001f0: 8195 733d 722b 2b3d 73e6 f13b 9ffb 773d
00000200: 040a 4d3d 3a61 18bd 2473 ccbc 1931 5abd
00000210: 4d63 4f3d c015 85bc 06a2 3fbd 1991 10bd
00000220: fa6d 1dbd 279a cc3c 64ef 843d 5675 653a
00000230: 4430 a0bc 398f 943b c6aa 113d fa5c 6b3d
00000240: 2773 353d b4b0 e83c a947 013d 6247 0c3d
00000250: a21f 3c3d 8bd2 143d f934 80bd 0b64 4ebc
00000260: ae72 0c3c 77b2 683c a2c0 b73c 718b 57bd
00000270: ffa0 343d 600c 6a3b 35a8 313d 6f15 103d
00000280: 11a0 833c cc5b 6b3d 1c6c 89bc 6ff8 ce3c
00000290: c719 f43c 6dde 4bbd 9326 853d 6d7f 23bd
000002a0: e071 3f3d 7192 803b f7e9 b4bc 3556 383c
000002b0: d35c 47bd a987 d93b 5689 8ebb 7ae8 8e3b
000002c0: 4973 c83c 6da8 3bbd d9b0 82bd 3015 2e3c
000002d0: 1791 cd3c e24a 02bd 8087 dc3c 5c00 75bd
000002e0: bafb 63bd b79f 6fbd ccf2 55bc 0dc6 9cbc
000002f0: 741c 86bc 1b33 183d 0d40 3bbd d540 223c
00000300: 2cce 603c 8b2e 1dbc 7ad4 63bd 3c56 81bd
00000310: 269d 34bc 975a 4f3c d14c 373d d7e3 b6bc
00000320: 1a6c 4dbd c82a 213d 1b13 56bb a337 863d
00000330: 57c9 663d 6170 82bb aa0a cdbc d5e9 8f3d
00000340: cce7 7fbd 3590 be3c 148f ad3d 7866 8d3c
00000350: afc1 9dbc ceba 74bc 1463 12bd e4a1 d1bc
00000360: 20a4 b73c 3829 11bd 468f 3fbd e4c7 913c
00000370: a4d7 823d 469e eebb 9440 85bd 83ec 1abd
00000380: 6822 ba3d c9bc 02bd ebc3 063c a44d 56bd
00000390: 3240 9a3d dfff 693d c6f4 1a3c b041 57bb
000003a0: d510 093d 5672 883d c058 55bd f2a5 4b3d
000003b0: 53c4 dc3c b151 6c3d 7b1c 043d 9803 a5bb
000003c0: 923c f9bc b077 c5bc ffe5 043d 23e4 00bd
000003d0: 8e15 e93c 91ce 5c3d 9975 28bd 1eff f13c
000003e0: b8ca 513c 0f38 a8bb 12a8 59bc 30a8 84bc
000003f0: ccc1 02b9 aeec 5c3c 88f8 5bbc 0c3c 9e3d

skip_layer.bias f4 [120]
-0.03572543 0.07327797 0.07932184 0.08460353 -0.0628039 0.05557301 -0.0013125066 0.013414827
-0.0012123239 0.028609313 0.056414373 -0.039349448 0.047304444 0.11513133 0.06454869 0.010583199
-0.027173426 -0.010872859 3.150078e-05 0.07891991 0.01050352 0.056608472 0.012940845 0.02038405
0.068927266 0.04614627 0.020946944 0.074663825 0.010511273 -0.047696657 -0.047713064 -0.04859727
-0.0038685258 -0.037305523 0.04411092 -0.011470773 0.044842884 0.024812056 -0.050928682 0.03734756
-0.040351063 -0.018395888 -0.02372971 -0.02719957 0.09390561 0.060026716 0.039128914 0.0031267968
0.0035487043 -0.029584873 0.010708429 0.050429333 -0.06439825 -0.0008491382 0.06643409 0.011625319
0.05171674 0.062346064 0.06976279 0.036937464 0.043714948 -0.046427816 -0.032202605 0.022582643
-0.048659734 -0.04970027 -0.076466665 0.06829167 -0.03893772 0.030458933 -0.021717433 -0.057534434
0.07907513 0.018568026 0.05673013 -0.038230143 -0.023036718 -0.013571405 -0.01669919 0.004771878
0.0199254 0.075468384 -0.024807315 0.009406137 0.010618856 0.070734926 -0.03501929 -0.045091983
0.005145197 0.08772514 0.08928278 0.01391374 0.0780235 -0.01575931 0.036732815 0.09115942
0.048281312 0.054688025 0.049374975 0.023137437 0.02434062 0.053976472 -0.047738 0.04347092
0.016962491 0.057193905 0.06139166 0.0679539 -0.020860814 -0.07720836 -0.005331612 0.026310368
0.008074562 0.04371113 0.065559916 -0.024246568 0.052899834 0.04875223 0.04125128 0.08349096
00000000: d454 12bd c312 963d 7d73 a23d 9e44 ad3d
00000010: 559f 80bd 86a0 633d 6a08 acba ddc9 5b3c
00000020: d7e6 9eba 145e ea3c c212 673d e32c 21bd
00000030: 4ec2 413d fac9 eb3d 1b32 843d 2765 2d3c
00000040: ce9a debc 1324 32bc b41f 0438 c3a0 a13d
00000050: f516 2c3c 49de 673d d705 543c 74fc a63c
00000060: bd29 8d3d df03 3d3d ed98 ab3c 59e9 983d
00000070: 7937 2c3c 925d 43bd c66e 43bd ee0d 47bd
00000080: 1887 7dbb adcd 18bd a7ad 343d e9ef 3bbc
00000090: 2cad 373d a742 cb3c 989a 50bd c1f9 183d
000000a0: 2847 25bd f9b2 96bc cf64 c2bc a2d1 debc
000000b0: 9651 c03d 93de 753d a445 203d f2ea 4c3b
000000c0: 6191 683b fa5b f2bc 6872 2f3c fd8e 4e3d
000000d0: 3be3 83bd b398 5eba 990e 883d 1f78 3e3c
000000e0: efd4 533d 965e 7f3d cbdf 8e3d bd4b 173d
000000f0: 720e 333d 182b 3ebd e1e6 03bd 3cff b83c
00000100: 6e4f 47bd 8392 4bbd 8e9a 9cbd 81dc 8b3d
00000110: 297d 1fbd 0385 f93c c2e8 b1bc 3aa9 6bbd
00000120: 24f2 a13d f91b 983c da5d 683d 3697 1cbd
00000130: 80b7 bcbc 995a 5ebc bdcc 88bc 6a5d 9c3b
00000140: 983a a33c 2b8f 9a3d b638 cbbc 331c 1a3c
00000150: b6fa 2d3c 79dd 903d 6370 0fbd 5fb2 38bd
00000160: 0a99 a83b 3da9 b33d e4d9 b63d 75f6 633c
00000170: c9ca 9f3d ab19 81bc 2675 163d cab1 ba3d
00000180: a0c2 453d 8d00 603d 6a3d 4a3d b98a bd3c
00000190: fb65 c73c 6f16 5d3d ec88 43bd 900e 323d
000001a0: ecf4 8a3c 2844 6a3d d275 7b3d 6a2b 8b3d
000001b0: 4ce4 aabc 6b1f 9ebd ceb4 aebb d788 d73c
000001c0: 2b4b 043c 710a 333d 4744 863d bda0 c6bc
000001d0: 7fad 583d 6bb0 473d 1af7 283d 4ffd aa3d

fc1.weight f4 [120, 120]
0.12784144 0.020981114 0.07122031 0.077762276 -0.09199936 -0.07496132 0.069267645 -0.029151194
-0.014326378 0.08391175 -0.0036192422 -0.0024265402 0.07794025 0.0059755943 0.12615594 0.11191783
-0.029305197 -0.120686136 0.11135322 0.024745354 0.09928555 0.0050925286 -0.078404486 0.027074853
0.03317141 0.05692461 -0.08432292 0.041991968 0.07625488 0.0457387 -0.08120038 0.0764412
-0.069198824 -0.025771126 -0.021795074 -0.100583605 0.060025413 -0.048491705 -0.086984344 0.0769029
0.05203045 -0.034219325 0.09157882 0.06371212 -0.025932126 -0.041522007 -0.018269923 0.008040457
0.09901771 0.028855816 0.021535719 -0.03997318 0.033395126 0.011718574 0.11120564 -0.05501612
-0.018460162 -0.0917626 -0.11899472 0.15205184 -0.014037281 0.002541642 0.06918109 -0.005605923
-0.023527447 0.08509451 -0.070355475 0.061937433 -0.07734835 -0.016656809 -0.039938837 -0.038530182
0.022583049 0.03846034 0.04432358 -0.022812558 -0.042195547 0.04406281 -0.12311142 0.10885237
-0.034433648 -0.0034512246 0.10950003 0.043054763 -0.01533015 0.17000616 -0.013939112 0.077182226
0.03690888 0.029859891 -0.08251084 -0.0043841475 0.05246577 0.04231791 -0.057860788 0.050675374
0.0011604613 0.113718584 0.039220683 -0.10501336 -0.019461447 0.064717524 0.09879315 -0.0063464874
-0.08189304 -0.008082455 0.07221614 -0.0039824117 0.11420185 -0.062911585 -0.066515714 -0.04822937
-0.035722088 -0.05896095 0.027991649 -0.067508124 0.038448125 -0.064118795 -0.03283478 0.00013072889
0.11034532 -0.0774759 -0.0009332707 -0.018743562 0.08967958 0.011802404 -0.076905616 0.03283369
0.08203501 -0.004390759 -0.06341668 -0.03955248 0.032165278 -0.011853524 0.05066177 0.04664801
-0.017496489 -0.10830454 0.03407827 0.087387584 0.1330182 0.16549775 -0.018482497 0.01327444
0.1015739 0.06782988 -0.09085195 0.007020978 -0.006574687 -0.055389076 -0.013287543 0.076655634
0.028881675 0.09779416 0.005076454 -0.030086908 0.00838881 0.09086762 -0.022227958 -0.06044139
-0.010376774 -0.0043315897 0.07052368 0.014436548 -0.026050871 0.10185174 -0.10388725 0.012761858
-0.0831057 0.016649084 0.034316193 0.07560966 0.053674422 -0.050916616 0.05536015 0.06727566
-0.013587089 -0.060097046 0.0048137917 0.13617069 -0.08375846 0.05969489 -0.0664291 -0.046260178
0.03511687 -0.05627064 -0.067554794 0.104667485 0.065794535 -0.035417583 -0.03582311 0.019912655
0.0690509 -0.052552592 -0.037146673 0.06354247 0.0222397 0.06600506 -0.035269156 0.021801477
-0.0072531556 -0.03170303 0.13990468 0.051763546 0.086365 0.08904794 0.110423684 0.026785037
0.052350655 0.021282367 0.04142443 0.05925134 -0.07680325 -0.11001551 -0.08981455 -0.09426909
0.071116306 0.11215889 0.016068969 -0.05337668 -0.027847558 -0.0008282494 0.083196074 0.06704085
-0.03756204 0.000194572 0.065132305 -0.07018061 0.003486109 0.036958333 -0.020115519 -0.07540905
-0.04101193 0.0076549985 0.08402854 -0.004295086 0.07748912 -0.07516819 -0.08356418 -0.07948176
0.044922154 0.0341198 0.039136387 -0.08344034 0.058525283 0.009372369 -0.07319667 0.09323546
-0.011646111 0.019715343 0.02993167 0.113548346 0.0020432125 -0.005708776 -0.1149617 -0.10148702
00000000: dee8 023e 96e0 ab3c f4db 913d d441 9f3d
00000010: 296a bcbd 5285 99bd 32dc 8d3d 7cce eebc
00000020: 2fb9 6abc ecd9 ab3d cf30 6dbb 9706 1fbb
00000030: 239f 9f3d ebce c33b 062f 013e 2d35 e53d
00000040: 7411 f0bc 4b2a f7bd 280d e43d c5b6 ca3c
00000050: 3956 cb3d 3adf a63b 8892 a0bd 15cc dd3c
00000060: bfde 073d c829 693d 7fb1 acbd c5ff 2b3d
00000070: 852b 9c3d 8158 3b3d 634c a6bd 348d 9c3d
00000080: 1db8 8dbd f81d d3bc 958b b2bc c7fe cdbd
00000090: 35dd 753d 3d9f 46bd d924 b2bd 457f 9d3d
000000a0: e21d 553d 9029 0cbd ad8d bb3d 807b 823d
000000b0: 9c6f d4bc fb12 2abd ceaa 95bc 1fbc 033c
000000c0: ccc9 ca3d 0863 ec3c ad6b b03c ebba 23bd
000000d0: 54c9 083d 43ff 3f3c c8bf e33d 9558 61bd
000000e0: c439 97bc 08ee bbbd 81b3 f3bd 7ab3 1b3e
000000f0: a0fc 65bc ad91 263b d1ae 8d3d e4b1 b7bb
00000100: a2bc c0bc 0846 ae3d 8816 90bd 1bb2 7d3d
00000110: d068 9ebd dc73 88bc e896 23bd d3d1 1dbd
00000120: 1600 b93c 9788 1d3d a48c 353d 67e1 babc
00000130: 3dd5 2cbd 347b 343d d721 fcbd feed de3d
00000140: 4c0a 0dbd f12d 62bb 8d41 e03d 315a 303d
00000150: 4f2b 7bbc 1816 2e3e e060 64bc b711 9e3d
00000160: c42d 173d bb9c f43c 71fb a8bd e5a8 8fbb
00000170: 59e6 563d 8b55 2d3d 6fff 6cbd fb90 4f3d
00000180: 9f1a 983a 4ae5 e83d dea5 203d 3f11 d7bd
00000190: 9d6d 9fbc 9f8a 843d 1054 ca3d 32f6 cfbb
000001a0: 8ab7 a7bd 466c 04bc 0ee6 933d e47e 82bb
000001b0: a9e2 e93d cad7 80bd 6439 88bd 298c 45bd
000001c0: 5351 12bd 0981 71bd be4e e53c b341 8abd
000001d0: c87b 1d3d b750 83bd c37d 06bd 4514 0939
000001e0: bafc e13d afab 9ebd bda6 74ba 198c 99bc
000001f0: eda9 b73d df5e 413c b180 9dbd 9f7c 063d
00000200: f901 a83d 5be0 8fbb 9be0 81bd c801 22bd
00000210: bdbf 033d 4835 42bc b782 4f3d fc11 3f3d
00000220: cc54 8fbc c5ce ddbd a895 0b3d 43f8 b23d
00000230: ec35 083e 3e78 293e 9b68 97bc 097d 593c
00000240: fa05 d03d 64ea 8a3d 9610 babd 3b10 e63b
00000250: 7970 d7bb a8df 62bd ffb3 59bc a1fd 9c3d
00000260: 4399 ec3c 4e48 c83d 6258 a63b d278 f6bc
00000270: 3871 093c ce18 ba3d 6817 b6bc 6491 77bd
00000280: 5803 2abc 02f0 8dbb b86e 903d 4587 6c3c
00000290: a368 d5bc a597 d03d d7c2 d4bd 1d17 513c
000002a0: 5233 aabd a963 883c 238f 0c3d 3dd9 9a3d
000002b0: b6d9 5b3d f18d 50bd 53c1 623d d2c7 893d
000002c0: 629c 5ebc 5228 76bd 03bd 9d3b 5470 0b3e
000002d0: 8e89 abbd a182 743d fb0b 88bd 507b 3dbd
000002e0: b5d6 0f3d 0b7c 66bd 2b5a 8abd e85b d63d
000002f0: 49bf 863d 0712 11bd 41bb 12bd dd1f a33c
00000300: 8f6a 8d3d 6341 57bd 1c27 18bd 8e22 823d
00000310: 0830 b63c a92d 873d 6476 10bd 0399 b23c
00000320: e1ab edbb 09db 01bd 2c43 0f3e 0306 543d
00000330: 22e0 b03d c45e b63d d025 e23d 4b6c db3c
00000340: a46d 563d 5c58 ae3c aaac 293d 88b1 723d
00000350: 064b 9dbd d04f e1bd b1f0 b7bd 2710 c1bd
00000360: 6da5 913d 8fb3 e53d 12a3 833c 81a1 5abd
00000370: 9020 e4bc e01e 59ba b462 aa3d b74c 893d
00000380: a7da 19bd 0606 4c39 1664 853d daba 8fbd
00000390: 3477 643b 9f61 173d 4dc9 a4bc 0f70 9abd
000003a0: 20fc 27bd c8d6 fa3b 2817 ac3d cbbd 8cbb
000003b0: 9eb2 9e3d c8f1 99bd b223 abbd 55c7 a2bd
000003c0: 4b00 383d 34c1 0b3d 7a4d 203d c5e2 aabd
000003d0: 35b8 6f3d 918e 193c 23e8 95bd 3cf2 be3d
000003e0: 54cf 3ebc 1282 a13c 4333 f53c 098c e83d
000003f0: 6be7 053b af10 bbbb 0a71 ebbd 6dd8 cfbd

fc1.bias f4 [120]
-0.007182329 0.010870981 0.0070708585 -0.06999348 -0.06445998 0.04626096 0.1383434 0.10448746
0.03140144 -0.06261937 -0.022372665 0.008165066 0.042754766 -0.04338 0.018173017 0.030131515
-0.004958249 -0.009007398 -0.018499164 0.0747315 0.016291803 0.0010072204 -0.080858506 -0.041409165
-0.060023244 0.0426171 0.10372636 0.08179257 0.027099272 0.035003565 -0.078827664 0.11988555
-0.07795342 -0.047482606 0.09441686 -0.029798748 0.009045571 -0.014782424 -0.09377753 0.105015546
0.06177574 0.08473627 -0.076323934 0.0711337 0.068135895 0.07708509 -0.06506841 0.003222913
0.13107114 -0.03390536 0.045237083 -0.054085493 0.05227801 -0.002066508 -0.020313071 -0.048649732
0.003566224 0.056602325 0.115216754 0.057893407 0.024820767 0.040084038 0.11018655 0.012065093
0.068155885 -0.06587992 0.07435896 0.02128599 0.07075499 -0.052387465 -0.10413709 0.012269436
-0.000100911595 -0.050905973 0.094375245 -0.042557094 0.061202873 -0.00015644406 -0.020099862 0.031756144
0.08163271 -0.067214586 0.13240482 0.028156782 -0.11221007 0.011832938 -0.0033972238 0.03252509
0.049126193 0.104062505 -0.093001746 0.07556887 -0.008870014 0.0934156 0.026091648 -0.04544449
0.022549191 0.059943084 0.044459347 -0.06538104 -0.009116529 -0.023770923 0.04658441 -0.056450095
-0.00049473316 0.08825686 0.11501622 -0.06527557 0.07798428 0.008278299 -0.029449064 -0.08650855
-0.023111124 -0.026146807 0.11750402 0.06692455 -0.04891052 0.042841926 0.017626438 -0.033390187
00000000: be59 ebbb 331c 323c a9b2 e73b be58 8fbd
00000010: 9803 84bd 227c 3d3d e4a9 0d3e 85fd d53d
00000020: cc9e 003d 963e 80bd e146 b7bc c5c6 053c
00000030: 9f1f 2f3d 3aaf 31bd 94df 943c 5ed6 f63c
00000040: cf78 a2bb c493 13bc 8f8b 97bc d40c 993d
00000050: 6376 853c b504 843a 2599 a5bd a89c 29bd
00000060: efda 75bd 458f 2e3d 7c6e d43d dd82 a73d
00000070: 4bff dd3c e65f 0f3d 6670 a1bd 8e86 f53d
00000080: 0ba6 9fbd 1f7d 42bd a05d c13d 811c f4bc
00000090: e033 143c fb31 72bc 6f0e c0bd 6412 d73d
000000a0: 8f08 7d3d 368a ad3d b94f 9cbd 8cae 913d
000000b0: d58a 8b3d cade 9d3d 9642 85bd 8237 533b
000000c0: 8337 063e 59e0 0abd 854a 393d c088 5dbd
000000d0: 7721 563d 406e 07bb 9967 a6bc f144 47bd
000000e0: 4fb7 693b d7d7 673d c3f6 eb3d a321 6d3d
000000f0: ec54 cb3c 292f 243d 7ca9 e13d abac 453c
00000100: 5095 8b3d 0dec 86bd 8349 983d f55f ae3c
00000110: fee7 903d 3d94 56bd d445 d5bd bf05 493c
00000120: 80a0 d3b8 c882 50bd cf47 c13d 5950 2ebd
00000130: ddaf 7a3d 220b 24b9 77a8 a4bc bb12 023d
00000140: 0d2f a73d cda7 89bd 2195 073e 0da9 e63c
00000150: 65ce e5bd f0de 413c f5a3 5ebb 0739 053d
00000160: 8c38 493d b91e d53d b377 bebd dac3 9a3d
00000170: 8953 11bc ae50 bf3d 27be d53c 0024 3abd
00000180: 15b9 b83c e186 753d 011b 363d 7fe6 85bd
00000190: 7e5d 15bc 3dbb c2bc 4bcf 3e3d 3738 67bd
000001a0: fbb0 01ba 03c0 b43d a08d eb3d 33af 85bd
000001b0: 39b6 9f3d b4a1 073c 2a3f f1bc 652b b1bd
000001c0: 8a53 bdbc d431 d6bc f3a5 f03d bd0f 893d
000001d0: 6656 48bd 047b 2f3d 5265 903c 26c4 08bd

fc2.weight f4 [84, 120]
-0.06916088 0.073492594 0.08785277 0.060287207 -0.06531167 0.12293428 0.11432457 0.06459219
-0.054002628 0.08278344 -0.023302324 0.063646644 -0.09695815 -0.04641841 -0.001625898 0.113434054
-0.060459282 -0.017453758 -0.06771727 -0.11787887 -0.009809096 0.115328416 -0.052142564 0.028590992
-0.015162682 0.10263208 0.011635905 -0.115541555 0.11931039 0.07258865 -0.0026609967 -0.07929724
-0.09505752 -0.009813326 0.08353446 -0.12220542 0.020074703 -0.058893047 0.10022511 0.051836863
0.1664895 0.02479005 -0.044858072 0.013609422 -0.048707344 0.048755787 -0.08663468 0.03600041
0.065610915 -0.011276835 0.061487995 0.09457849 0.04786149 -0.06398548 -0.17598632 0.010885707
-0.07950123 -0.12137942 0.007670092 -0.017078668 -0.0032266248 0.012207729 -0.006627782 0.051722456
0.04037528 0.00044638058 -0.022661855 -0.027396997 -0.10442284 0.08658832 0.026086295 -0.029675843
0.045446437 0.062118866 0.008347622 0.06855349 0.10108817 -0.039572 0.006412611 -0.001588542
-0.02184878 0.0076608127 0.027783338 0.060822953 -0.07389457 0.047723163 -0.040361945 0.042014834
0.06161868 0.026180454 -0.11999649 0.051226206 -0.13643762 -0.034810938 -0.108124346 -0.11739445
-0.027270846 0.0006695091 0.04685071 -0.061745644 0.076542735 -0.04960015 0.04245041 -0.037939187
0.0041472088 0.063654654 0.11943304 -0.04755921 0.13004181 0.042053014 -0.05470141 -0.05898714
0.121749125 0.11999691 -0.07494468 -0.075121336 0.052731276 -0.06313208 -0.06681375 0.033850137
-0.044144675 -0.037265617 0.0012947936 -0.14709888 0.018534202 0.10119375 0.14791054 0.03952587
0.026161198 0.023125518 -0.038536444 0.017565634 0.011347189 -0.07016008 0.009899905 -0.029597003
-0.056203805 -0.047573645 0.05792541 0.010665408 0.10456201 0.14378779 -0.080479816 -0.097069465
0.0298466 0.015782733 0.053908717 -0.12274699 0.011225083 0.027479112 0.08335766 0.09264612
-0.009972576 0.05245259 -0.056969922 -0.04746245 -0.08840821 -0.10154091 0.05138201 -0.022229632
-0.022804039 0.08844573 -0.007767909 0.13893116 -0.111950815 0.07822871 0.06341375 -0.01376445
0.06495092 0.08296658 0.07327363 -0.040755503 -0.1415707 0.008160868 0.13486256 0.08803308
-0.019764148 -0.03375281 0.035053987 -0.060372997 -0.06854537 0.04826042 -0.11510187 -0.0056047044
0.01912132 0.022913773 0.052245706 -0.002101702 -0.01270723 0.018703517 -0.058779642 0.029556107
-0.042283226 0.057289995 -0.08978315 -0.11692617 0.06759172 0.01750396 0.021912502 0.0046738265
0.02945464 -0.08771108 -0.008916248 0.03907658 0.048444763 0.047064815 -0.1297239 0.077232875
0.028125709 -0.05425974 -0.11772607 -0.046000227 -0.014333334 0.14673984 -0.07155815 -0.09738808
-0.016986227 -0.09041337 -0.12783776 -0.11421682 -0.10456992 0.08900663 -0.0058266087 0.050889242
-0.115646005 -0.009326334 0.0647956 -0.074448265 0.079963274 -0.042321365 0.07410867 0.12315852
0.0143271675 -0.052633073 0.17229898 0.035017557 0.048405774 0.0145664895 -0.030469019 0.086838394
0.082105875 0.10551465 -0.034220465 0.16904908 0.014071577 0.061206955 0.055151165 -0.094189934
-0.08964864 0.10810513 0.08985433 0.04759674 0.09872089 -0.0053635384 0.03284494 0.07202869
00000000: 38a4 8dbd 4983 963d 27ec b33d b8ef 763d
00000010: 20c2 85bd f8c4 fb3d 0023 ea3d e948 843d
00000020: dc31 5dbd 5d8a a93d 84e4 bebc 2c59 823d
00000030: ff91 c6bd 3b21 3ebd 151c d5ba 1d50 e83d
00000040: 27a4 77bd 2ffb 8ebc 5aaf 8abd 7a6a f1bd
00000050: 55b6 20bc 4e31 ec3d 7193 55bd a837 ea3c
00000060: e66c 78bc c530 d23d 86a4 3e3c 0da1 ecbd
00000070: 0159 f43d 5ca9 943d 1e64 2ebb 9766 a2bd
00000080: 84ad c2bd 13c8 20bc 1d14 ab3d d646 fabd
00000090: b473 a43c d639 71bd d342 cd3d e452 543d
000000a0: 397c 2a3e 8114 cb3c 19bd 37bd 0efa 5e3c
000000b0: 5a81 47bd 26b4 473d 866d b1bd 2a75 133d
000000c0: 045f 863d 79c2 38bc d6da 7b3d 5eb2 c13d
000000d0: 690a 443d d20a 83bd c235 34be f759 323c
000000e0: 8ad1 a2bd c695 f8bd 6555 fb3b 90e8 8bbc
000000f0: c875 53bb ed02 483c dd2d d9bb edda 533d
00000100: 8d60 253d 3008 ea39 5ba5 b9bc ab6f e0bc
00000110: a4db d5bd 3855 b13d edb2 d53c c11a f3bc
00000120: 0b26 3a3d 5a70 7e3d 77c4 083c c665 8c3d
00000130: 5107 cf3d 4016 22bd e120 d23b a036 d0ba
00000140: 36fc b2bc 8e07 fb3b e299 e33c 7d21 793d
00000150: 0956 97bd 5d79 433d 9152 25bd bf17 2c3d
00000160: de63 7c3d 6478 d63c b8c0 f5bd 92d2 513d
00000170: 4eb6 0bbe ea95 0ebd 4c70 ddbd 806c f0bd
00000180: 1c67 dfbc ff81 2f3a 88e6 3f3d 00e9 7cbd
00000190: 70c2 9c3d 8729 4bbd 7be0 2d3d 1f66 1bbd
000001a0: 4fe5 873b 5f5d 823d 4f99 f43d 72cd 42bd
000001b0: ae29 053e c83f 2c3d 960e 60bd 809c 71bd
000001c0: 9b57 f93d f1c0 f53d 997c 99bd 37d9 99bd
000001d0: c0fc 573d 644b 81bd a6d5 88bd 71a6 0a3d
000001e0: 0cd1 34bd d5a3 18bd 10b6 a93a 17a1 16be
000001f0: 0ad5 973c ab3e cf3d dc75 173e e1e5 213d
00000200: 0250 d63c ba71 bd3c 64d8 1dbd cee5 8f3c
00000210: 8fe9 393c 17b0 8fbd 3633 223c 6a75 f2bc
00000220: f635 66bd 95dc 42bd 3243 6d3d f7bd 2e3c
00000230: 9b24 d63d 1b3d 133e 9ad2 a4bd 5bcc c6bd
00000240: db80 f43c ca4a 813c 63cf 5c3d c662 fbbd
00000250: 69e9 373c e01b e13c 6cb7 aa3d 40bd bd3d
00000260: 0464 23bc 87d8 563d 4b59 69bd fc67 42bd
00000270: 5d0f b5bd aef4 cfbd f175 523d eb1a b6bc
00000280: 89cf babc 0923 b53d f289 febb f843 0e3e
00000290: 7846 e5bd 6036 a03d 11df 813d 4a84 61bc
000002a0: fd04 853d 62ea a93d 7c10 963d 3eef 26bd
000002b0: e9f7 10be 29b5 053c 6919 0a3e b04a b43d
000002c0: 6ce8 a1bc 6340 0abd c594 0f3d ad49 77bd
000002d0: 8461 8cbd b8ac 453d 87ba ebbd aba7 b7bb
000002e0: 51a4 9c3c aab5 bb3c 98ff 553d b5bc 09bb
000002f0: fc31 50bc 1e38 993c ecc2 70bd a61f f23c
00000300: 2d31 2dbd eaa8 6a3d 3ae0 b7bd fd76 efbd
00000310: 876d 8a3d 7764 8f3c d981 b33c e626 993b
00000320: db4a f13c dea1 b3bd 7415 12bc c40e 203d
00000330: 046e 463d 09c7 403d 58d6 04be 452c 9e3d
00000340: e367 e63c 763f 5ebd 5e1a f1bd bc6a 3cbd
00000350: 5cd6 6abc f842 163e 148d 92bd 6773 c7bd
00000360: b326 8bbc a52a b9bd e7e7 02be 82ea e9bd
00000370: c128 d6bd 1c49 b63d 23ed bebb 3d71 503d
00000380: d0d7 ecbd 7bcd 18bc 8eb3 843d 5578 98bd
00000390: c9c3 a33d 2b59 2dbd 49c6 973d 893a fc3d
000003a0: 7fbc 6a3c c795 57bd 256f 303e 926e 0f3d
000003b0: 2245 463d 49a8 6e3c 2a9a f9bc 54d8 b13d
000003c0: 2027 a83d 1118 d83d c22a 0cbd 341b 2d3e
000003d0: 798c 663c 25b4 7a3d 30e6 613d a7e6 c0bd
000003e0: b599 b7bd 3966 dd3d 8c05 b83d cdf4 423d
000003f0: 2e2e ca3d 9fc0 afbb 6a88 063d c783 933d

fc2.bias f4 [84]
0.049532283 0.015213341 -0.078052 0.11679967 0.13879368 -0.08707107 -0.044055 0.022528945
-0.087439254 -0.08506304 0.019661825 0.093256086 0.0717269 0.059088852 -0.06431545 -0.07854114
-0.0012620888 0.06292514 -0.06466811 -0.07169212 0.021138407 -0.07569074 -0.09722899 -0.058807455
0.07331573 0.07384107 0.02220366 0.07195503 -0.08356259 0.0062669334 -0.06822036 0.095588826
-0.0334794 0.009291539 -0.039396986 -0.0558434 0.05352337 0.08742498 0.04809757 -0.07449944
-0.021896077 -0.05596069 -0.030635409 0.0006649326 0.031392336 0.07823435 0.065611236 -0.0055163973
-0.06665622 0.039146952 -0.009454063 -0.035166573 0.06892453 0.065386996 -0.025268268 0.037332773
-0.08018689 -0.015326404 -0.04695663 0.084404394 -0.07784648 -0.0802207 -0.060718376 -0.011614819
0.07810871 -0.044027086 -0.06135173 0.0030920408 -0.0005128111 -0.014761471 -0.03263089 -0.0077214083
-0.029244684 0.08539864 0.056724124 -0.022369944 -0.02586548 -0.0069138077 0.08133443 -0.049794935
-0.02300588 0.13351913 0.08491687 0.07725551
00000000: 5de2 4a3d 6141 793c bad9 9fbd aa34 ef3d
00000010: ee1f 0e3e 5152 b2bd 0473 34bd 9f8e b83c
00000020: 5a13 b3bd 8835 aebd d611 a13c 0cfd be3d
00000030: 8ee5 923d 2707 723d d2b7 83bd 2dda a0bd
00000040: ac6c a5ba e5de 803d b770 84bd 51d3 92bd
00000050: 742a ad3c bf03 9bbd fe1f c7bd 16e0 70bd
00000060: 8f26 963d fd39 973d 73e4 b53c 295d 933d
00000070: dd22 abbd d95a cd3b 1eb7 8bbd 13c4 c33d
00000080: b221 09bd 8a3b 183c bc5e 21bd 0dbc 64bd
00000090: 523b 5b3d de0b b33d f501 453d 2a93 98bd
000000a0: 675f b3bc 0937 65bd 1cf7 fabc df4e 2e3a
000000b0: 4095 003d 5539 a03d 2f5f 863d e5c2 b4bb
000000c0: 0e83 88bd 8e58 203d 37e5 1abc d30a 10bd
000000d0: 4e28 8d3d 9ee9 853d 66ff cebc 40ea 183d
000000e0: 0639 a4bd 991b 7bbc 9855 40bd 36dc ac3d
000000f0: fa6d 9fbd c04a a4bd d5b3 78bd 154c 3ebc
00000100: 76f7 9f3d bf55 34bd f44b 7bbd d6a3 4a3b
00000110: 2c6e 06ba 19da 71bc f8a7 05bd de03 fdbb
00000120: 8c92 efbc 7be5 ae3d 8e57 683d 2c41 b7bc
00000130: d8e3 d3bc 398d e2bb aa92 a63d c6f5 4bbd
00000140: d476 bcbc 3db9 083e e5e8 ad3d 2338 9e3d

fc3.weight f4 [10, 84]
-0.12347053 -0.17634228 0.037781127 -0.12796496 -0.2562167 -0.15073887 0.038367346 0.11397743
0.0694343 -0.026590597 -0.17433703 -0.13174605 -0.12572138 0.15500087 0.07107829 0.10844846
0.007262252 0.17410845 -0.063007645 -0.09863179 0.045540962 0.029924134 -0.023733854 -0.09748456
-0.10034832 -0.14470732 0.15942898 -0.09385587 -0.070575185 0.11328523 0.050565448 0.13802417
0.029392771 -0.09589511 -0.05198913 -0.0015180196 -0.19740297 -0.06480376 -0.042767614 0.08584648
0.025250448 0.015744815 0.049778555 0.044813316 -0.12116099 -0.092023365 -0.0449212 -0.10486188
-0.0702553 -0.10204448 -0.041891735 -0.12733793 -0.084216475 0.09526336 -0.048720375 0.09855568
-0.109134644 -0.014683277 -0.1220094 -0.13201112 0.0063109905 -0.07349607 -0.09898613 -0.13299884
-0.016858196 0.14068969 0.1191413 -0.2156959 0.0152031835 -0.023454336 -0.08632564 0.05776548
-0.11625835 -0.13554458 -0.19679622 0.022174302 0.071128696 0.11766692 0.010817236 -0.05670909
-0.04675175 -0.20761219 -0.16077377 0.16706483 -0.19273908 -0.19683844 0.08324597 0.13731979
0.11920528 -0.05865714 0.08930115 0.09535373 0.0897852 0.03133691 0.044631388 0.06740485
0.15327743 -0.10443946 -0.0770944 0.0017375102 -0.11173849 -0.049627125 -0.11497514 0.09099222
0.092715755 0.04827899 0.039513927 0.021590302 -0.081187546 -0.0205899 -0.18093826 -0.16509336
-0.053594768 -0.0004099709 -0.037841212 -0.19052942 -0.047813855 -0.18404631 -0.0046186945 0.2013991
0.09800555 -0.17377411 -0.10275907 -0.10482774 -0.036129754 -0.03801549 0.02118125 -0.20663674
0.110149406 0.10857013 0.027452482 -0.019062335 0.09085359 0.09903555 -0.1572396 -0.02186198
0.16522563 -0.21035697 -0.06928761 -0.07060605 -0.0024966155 -0.07419602 -0.020681003 -0.17123817
-0.07165269 -0.13956828 -2.7003907e-05 -0.14604783 0.110274695 -0.11496534 -0.024372334 -0.15012524
-0.15117486 0.16626662 0.07284718 -0.023413375 -0.12937552 -0.052773904 -0.07005908 -0.18180327
0.088241704 -0.10107573 -0.20934151 -0.083129264 -0.14267232 0.15953176 0.0811217 0.00549621
0.054004077 -0.08495952 0.034646936 -0.095861405 -0.1611914 -0.16923621 -0.016117364 0.024870565
-0.032120075 -0.040062096 0.13531911 -0.06978046 0.033846956 -0.17792204 0.06520492 0.08802727
-0.18428755 -0.056631096 -0.07612612 0.06865417 -0.011427933 -0.017902661 0.021707017 0.07364193
0.040514942 -0.13940515 0.01402674 0.071727894 0.08842454 0.09331643 -0.08325322 0.08109494
0.03600244 -0.04845463 -0.13794649 -0.1722896 -0.18635745 -0.11832068 -0.162485 -0.051292516
-0.033597343 -0.06557205 0.1018847 0.044287696 -0.068146154 0.038212113 0.031859487 0.15817039
-0.18741088 -0.101264 -0.024352586 -0.032139238 -0.013192749 -0.08516759 -0.06315488 -0.13694566
-0.112609595 0.11972766 -0.018387025 -0.106300004 -0.12330376 -0.11635319 -0.11157822 -0.049471967
0.00042369592 -0.00400593 0.1575683 -0.008937354 -0.088127084 -0.049932774 0.099613875 -0.17555362
0.026298288 0.011720391 0.106680825 0.10284404 -0.057318836 0.03862305 -0.13909626 -0.081351414
-0.1050511 -0.031975195 0.1477914 -0.036548916 -0.025217747 0.10377389 -0.12609425 0.014426452
00000000: 1ede fcbd 1293 34be 62c0 1a3d 3f09 03be
00000010: d62e 83be 4a5b 1abe 1427 1d3d 006d e93d
00000020: 9233 8e3d 86d4 d9bc 6885 32be 70e8 06be
00000030: 1bbd 00be 8cb8 1e3e 7f91 913d 3a1a de3d
00000040: 2ff8 ed3b 7c49 323e 270a 81bd 77ff c9bd
00000050: 2989 3a3d 7523 f53c 806d c2bc fca5 c7bd
00000060: 6c83 cdbd 282e 14be 5a41 233e 8237 c0bd
00000070: b989 90bd 1602 e83d b71d 4f3d 3556 0d3e
00000080: 1cc9 f03c a864 c4bd 8ef2 54bd 49f8 c6ba
00000090: 0124 4abe d5b7 84bd 182d 2fbd 48d0 af3d
000000a0: 07da ce3c 45fb 803c 99e4 4b3d 2b8e 373d
000000b0: 4123 f8bd bf76 bcbd 4bff 37bd d3c1 d6bd
000000c0: 03e2 8fbd b2fc d0bd ab96 2bbd e064 02be
000000d0: b079 acbd 7019 c33d 048f 47bd 8fd7 c93d
000000e0: fc81 dfbd 2192 70bc 10e0 f9bd ec2d 07be
000000f0: 6dcc ce3b 1c85 96bd 3db9 cabd d930 08be
00000100: 331a 8abc f510 103e 5b00 f43d 63df 5cbe
00000110: c616 793c 4f23 c0bc 7fcb b0bd 7f9b 6c3d
00000120: dc18 eebd 33cc 0abe f384 49be e2a6 b53c
00000130: ecab 913d 5bfb f03d c73a 313c ca47 68bd
00000140: c37e 3fbd 4a98 54be e1a1 24be 0b13 2b3e
00000150: 655d 45be 0490 49be dd7c aa3d 8f9d 0c3e
00000160: e621 f43d 7842 70bd 85e3 b63d d148 c33d
00000170: 4ee1 b73d 225b 003d 67cf 363d 8e0b 8a3d
00000180: c2f4 1c3e 5be4 d5bd abe3 9dbd 2bbd e33a
00000190: 26d7 e4bd d045 4bbd 1678 ebbd 215a ba3d
000001a0: c2e1 bd3d 31c0 453d 5bd9 213d 25de b03c
000001b0: a845 a6bd 26ac a8bc e147 39be 3c0e 29be
000001c0: 3086 5bbd 5df1 d6b9 63ff 1abd 251a 43be
000001d0: 76d8 43bd a376 3cbe 6b58 97bb 913b 4e3e
000001e0: 22b7 c83d d7f1 31be 5973 d2bd edaf d6bd
000001f0: cbfc 13bd 21b6 1bbd 4d84 ad3c 9598 53be
00000200: 0396 e13d 045a de3d 07e4 e03c 9d28 9cbc
00000210: 7211 ba3d 27d3 ca3d 6b03 21be e517 b3bc
00000220: e830 293e d167 57be aae6 8dbd e899 90bd
00000230: 429e 23bb 15f4 97bd 356b a9bc 0f59 2fbe
00000240: a5be 92bd fdea 0ebe 7386 e2b7 908d 15be
00000250: b3d7 e13d f372 ebbd 7da8 c7bc 6eba 19be
00000260: 95cd 1abe cc41 2a3e e730 953d 68cd bfbc
00000270: 047b 04be 7329 58bd 237b 8fbd a32a 3abe
00000280: 11b8 b43d cb00 cfbd 9f5d 56be ad3f aabd
00000290: b118 12be 4b5c 233e 2223 a63d 8d19 b43b
000002a0: 6133 5d3d 42ff adbd f2e9 0d3d fc52 c4bd
000002b0: 5c0f 25be 424c 2dbe 9008 84bc 5bbd cb3c
000002c0: 5790 03bd 2718 24bd 1891 0a3e 0fe9 8ebd
000002d0: 1ba3 0a3d 3231 36be 288a 853d a447 b43d
000002e0: e0b5 3cbe 02f6 67bd 03e8 9bbd 8f9a 8c3d
000002f0: 3a3c 3bbc 9aa8 92bc ead2 b13c 95d1 963d
00000300: fff2 253d 39c0 0ebe 69d0 653c 13e6 923d
00000310: ed17 b53d af1c bf3d aa80 aabd 1b15 a63d
00000320: 4b77 133d 5d78 46bd d841 0dbe af6c 30be
00000330: 7dd4 3ebe 1d52 f2bd 7862 26be 1a18 52bd
00000340: 5e9d 09bd a44a 86bd eda8 d03d 0467 353d
00000350: 3690 8bbd 4e84 1c3d 187f 023d 6bf7 213e
00000360: a3e8 3fbe 8063 cfbd 137f c7bc 6fa4 03bd
00000370: 6626 58bc 586c aebd 5957 81bd 7c3b 0cbe
00000380: dc9f e6bd c733 f53d 63a0 96bc d1b3 d9bd
00000390: af86 fcbd 954a eebd 1f83 e4bd 1ea3 4abd
000003a0: 8123 de39 2d44 83bb 9659 213e fb6d 12bc
000003b0: f97b b4bd 4f86 4cbd 5c02 cc3d 54c4 33be
000003c0: 826f d73c e206 403c 7a7b da3d e59f d23d
000003d0: 28c7 6abd 3433 1e3d 406f 0ebe 929b a6bd
000003e0: 0825 d7bd 6cf8 02bd a156 173e 51b4 15bd
000003f0: 7395 cebc 6887 d43d da1e 01be ed5c 6c3c

fc3.bias f4 [10]
0.03333351 -0.029871115 -0.0950482 -0.054558415 -0.0041965866 0.04948505 0.038743053 -0.08624232
-0.009219302 -0.05940429
00000000: b888 083d 45b4 f4bc a1a8 c2bd a578 5fbd
00000010: 8583 89bb d6b0 4a3d 09b1 1e3d d09f b0bd
00000020: 8e0c 17bc ea51 73bd
