models/client-4-0.pth (torch, 239842 bytes, 12 tensors)

conv1.weight f4 [6, 1, 5, 5]
0	0xbe9db078	-0.30798697
1	0xbe1fbbbb	-0.15598957
2	0x3d8aa754	0.067701966
3	0x3e48ee8b	0.19622247
4	0x3ea20fb0	0.31652594
5	0xbe8b7085	-0.27234283
6	0xbe9800f0	-0.29688215
7	0xbd859890	-0.065232396
8	0x3e883669	0.26604012
9	0x3eb4a129	0.35279205
10	0xbe2f5789	-0.17123236
11	0xbdd365de	-0.10322164
12	0x3e7f13ef	0.24909948
13	0x3e8a76be	0.27043718
14	0x3ea81079	0.32825068
15	0xbe2c60bb	-0.16833775
16	0x3d672699	0.056433294
17	0xbc7547cc	-0.014970731
18	0x3e123bab	0.14280574
19	0x3de3ee15	0.11129395
20	0xbcde2ce0	-0.027121007
21	0x3e210b64	0.15727001
22	0x3e2c6344	0.16834742
23	0x3c948930	0.018131822
24	0x3e4b83d9	0.19874515
25	0x3e97852c	0.2959379
26	0xbb64e0d1	-0.003492404
27	0x3e998e8e	0.29991573
28	0x3e32fcf1	0.17479302
29	0x3e2981d4	0.16553432
30	0x3c8f39ed	0.017483676
31	0x3eb876c2	0.36028105
32	0x3e14430b	0.144787
33	0x3e8ab58d	0.27091637
34	0x3e8f8394	0.28030074
35	0x3ddbccff	0.10732459
36	0x3db667fd	0.08906553
37	0x3e193c8d	0.14964505
38	0xbd8dc659	-0.069225974
39	0x3d1c2e28	0.038129956
40	0xbe907510	-0.28214312
41	0xbdc30a72	-0.09523477
42	0xbe6c0fac	-0.23052853
43	0x3c80f25b	0.015740564
44	0x3d92c726	0.07166891
45	0xbec98afc	-0.3936385
46	0xbef11322	-0.4708491
47	0xbec24d1a	-0.3794945
48	0xbebdb2d0	-0.37050486
49	0xbe559c43	-0.2086039
50	0xbe490492	-0.1963065
51	0xbe84050c	-0.257851
52	0xbe965647	-0.293627
53	0x3e3890c9	0.18023981
54	0x3d6721fe	0.0564289
55	0x3d19a168	0.037507445
56	0xbe4cdd40	-0.20006275
57	0x3daa5bdd	0.08318303
58	0x3da135f6	0.0787162
59	0x3dff210f	0.12457477
60	0x3d363cfe	0.04449176
61	0x3de515f7	0.1118583
62	0x3ec21d4c	0.37912977
63	0x3ef52861	0.4788237
64	0x3ea97d7d	0.33103552
65	0xbdaf1a37	-0.08549922
66	0x3e8641d0	0.26222086
67	0x3eb2f481	0.34952167
68	0x3e44ffd3	0.19238214
69	0x3d49df4e	0.049285226
70	0x3dad313c	0.08456656
71	0xbdb708e7	-0.08937245
72	0xbe19095e	-0.1494498
73	0x3de1fb5f	0.11034273
74	0xbe03ee18	-0.12883794
75	0xbe54e1a4	-0.207892
76	0xbeadbf08	-0.33934808
77	0xbdfcc6ea	-0.12342627
78	0x3d82a263	0.06378629
79	0xbdddd08b	-0.10830792
80	0xbe83cc2b	-0.25741705
81	0xbe8ea25c	-0.27858245
82	0xbcf84419	-0.030305909
83	0x3e1f476a	0.15554586
84	0xbdc15d7b	-0.09441658
85	0x3daec6ae	0.08533989
86	0x3dbb2312	0.091375485
87	0x3e58121d	0.2110066
88	0x3e8f9cf9	0.28049448
89	0xbd833e3c	-0.06408355
90	0x3e6a7181	0.22894861
91	0xbc481c4a	-0.012213776
92	0x3e089c09	0.13340773
93	0x3ed67c2b	0.41891608
94	0x3ed0499f	0.40681168
95	0x3e6b2045	0.22961529
96	0x3e3918c1	0.18075849
97	0x3e231358	0.15925348
98	0x3eb1a5b4	0.34696734
99	0x3eba3e74	0.36375773
100	0x3e81a6c4	0.25322545
101	0x3d74e23d	0.05978607
102	0xbe2bbaf2	-0.16770533
103	0xbe8ef33f	-0.27919957
104	0xbe173748	-0.14767182
105	0x3e80b9c9	0.25141743
106	0x3c60c25c	0.013718214
107	0x3da4378c	0.08018407
108	0xbbfc2d9d	-0.007695867
109	0x3d31953d	0.043355215
110	0x3e3a9c1b	0.18223612
111	0x3e27010d	0.16308995
112	0x3eaa4c28	0.33261228
113	0x3dc704a3	0.09717681
114	0x3e847e6c	0.25877702
115	0xbc842e34	-0.016135313
116	0xbdaac6b0	-0.08338678
117	0x3ea17f62	0.31542498
118	0x3c7839b0	0.0151504725
119	0xbca80e6a	-0.020514686
120	0xbe7261a4	-0.2367006
121	0x3e391e68	0.18078005
122	0x3e6f62e2	0.23377565
123	0x3e4da84a	0.20083728
124	0xbcfaf531	-0.030634494
125	0x3d70a121	0.058747414
126	0xbd11915f	-0.035539027
127	0xbdb1e105	-0.08685497
128	0x3c6d1cca	0.014472196
129	0xb9ea5bac	-0.0004470026
130	0x3df5914c	0.11990604
131	0x3e54367c	0.20723909
132	0x3da6a89d	0.08137629
133	0x3dbb4f30	0.09145963
134	0xbe9654e6	-0.29361647
135	0x3d4c1380	0.049823284
136	0x3dcb35cb	0.099223696
137	0x3e2dc7d2	0.16970757
138	0xbd06d6bb	-0.032919627
139	0xbea08a6a	-0.31355602
140	0xbe0fa70f	-0.14028572
141	0x3e951aac	0.29121912
142	0x3d00b2d2	0.031420536
143	0x3d48fb4a	0.049067773
144	0x3b9d4c76	0.0048003746
145	0xbb91e0e4	-0.004451858
146	0x3e801d8b	0.2502254
147	0x3caca816	0.021076243
148	0x3e1a4a53	0.15067415
149	0x3e190f81	0.1494732

conv1.bias f4 [6]
0	0xbe0c8a60	-0.13724661
1	0x3db4231d	0.0879576
2	0x3a3c4e18	0.0007183268
3	0xbb00b8f6	-0.0019641495
4	0xbd510425	-0.051029343
5	0xbcc3bd0c	-0.023893856

conv2.weight f4 [16, 6, 5, 5]
0	0x3c0e18d4	0.008672912
1	0x3d8a0908	0.06740004
2	0xbccfdf90	-0.025375158
3	0xbd8c3227	-0.06845503
4	0xbd2cb024	-0.04216017
5	0xbbc8642b	-0.0061154566
6	0x3c7bf79e	0.015378861
7	0x3da03e5c	0.07824394
8	0x3d6e5821	0.058189515
9	0xbe11bc82	-0.14232066
10	0xbd8ae328	-0.06781608
11	0xbd3b07f4	-0.04566188
12	0xbd74a697	-0.059729185
13	0xbcb06af5	-0.021535376
14	0xbd701193	-0.05861051
15	0xbb043723	-0.0020174466
16	0xbde28938	-0.11061329
17	0x3c6d265d	0.014474479
18	0x3db47816	0.08811967
19	0x3de6574f	0.112471215
20	0x3d73cbc2	0.05952049
21	0x3dda3caa	0.10656102
22	0xbd2da305	-0.042391796
23	0x3d95ed57	0.073206596
24	0xbd109ccf	-0.035305794
25	0x3ca91bda	0.020643163
26	0x3de724d7	0.112863235
27	0xbd1ead9a	-0.038739778
28	0x3d8dab41	0.0691743
29	0xbdd3489d	-0.10316584
30	0xbc8679a7	-0.01641543
31	0x3de0993c	0.10966727
32	0x3e2d2d9b	0.16911928
33	0x3e1de658	0.154199
34	0x3e4174fb	0.18892281
35	0x3d1b4d68	0.037915617
36	0x3e07fe13	0.13280515
37	0x3dab80e2	0.08374192
38	0x3d1f248b	0.03885321
39	0xbc054a4f	-0.008135392
40	0x3d16d6e5	0.036826033
41	0xbd60abce	-0.054851346
42	0xbe60ad89	-0.21941198
43	0xbe0d0eaa	-0.13775125
44	0xbdf1575d	-0.11784241
45	0xbe0a3389	-0.13496222
46	0xbce25f55	-0.027633348
47	0xbdf0384a	-0.11729486
48	0xbb8c7142	-0.0042859623
49	0x3cc1eb13	0.023671662
50	0xbcb21e4a	-0.021742959
51	0xbbb6c76c	-0.005577972
52	0xbc3e777d	-0.011625168
53	0x3cc9ff23	0.024657791
54	0x3d85fac4	0.0654197
55	0xbd1ee5ce	-0.038793378
56	0xbd5b7653	-0.05357964
57	0x3d8aaea4	0.06771591
58	0xbd4566a7	-0.0481936
59	0xbd251f66	-0.040313147
60	0xbe0cb3c7	-0.13740455
61	0xbdfdf1f6	-0.12399666
62	0xbdcc252c	-0.099680275
63	0xbd90e96a	-0.0707577
64	0xbde2b54d	-0.11069737
65	0x3c90c64a	0.017672677
66	0xbd7a1ef9	-0.061064694
67	0xbd4b45c0	-0.049627066
68	0x3cafc7ae	0.02145752
69	0x3bcff3e2	0.006346212
70	0xbc79ad51	-0.015239076
71	0x3dedbdc6	0.11608462
72	0x3da29c61	0.07939983
73	0x3d0f0da6	0.034925126
74	0xbc011396	-0.007878205
75	0x3b977941	0.004622609
76	0xbd1a4312	-0.03766162
77	0x3e155951	0.14584853
78	0x3e1746fc	0.14773172
79	0x3beef356	0.0072921915
80	0xbd0199ee	-0.03164094
81	0xbde5ca88	-0.112202704
82	0x3cf0b48e	0.02938297
83	0xbd874283	-0.06604483
84	0x3bb165c2	0.005413742
85	0xbe04d6dd	-0.12972589
86	0xbddd6dbf	-0.10811948
87	0xbe407df0	-0.18798041
88	0xbdf9e53e	-0.122019276
89	0xbd9aad13	-0.075525425
90	0x3d525212	0.0513478
91	0xbd11ba3e	-0.035578005
92	0x3a3efc6f	0.00072855403
93	0x3de6ea41	0.11275149
94	0x3dbdbd4e	0.09264623
95	0x3de259d3	0.11052289
96	0x3d298848	0.041389734
97	0x3ddf8351	0.109137185
98	0x3cc7321f	0.024315892
99	0xbcb3c758	-0.02194564
100	0xbdaf98d1	-0.08574069
101	0x3da4512c	0.08023295
102	0x3d8d55e6	0.069011495
103	0x3d95da2a	0.07317002
104	0x3e2492b6	0.16071591
105	0xbda05b60	-0.078299284
106	0x3cc6dca8	0.024275139
107	0x3c38bd29	0.011275568
108	0x3c906b0b	0.017629167
109	0x3de207e6	0.11036663
110	0xbe030b2d	-0.12797232
111	0xbe44d31a	-0.19221154
112	0xbd0b20cb	-0.03396682
113	0x3b227ae4	0.0024792487
114	0xbc5549c7	-0.013018078
115	0xbda67a13	-0.081287526
116	0xbde8757a	-0.11350532
117	0xbc238244	-0.009979788
118	0xbd77ad9e	-0.06046831
119	0x3d097026	0.03355422
120	0x3d2525b9	0.04031918
121	0x3d376983	0.04477836
122	0x3d36c0ac	0.04461734
123	0xbcec0ce7	-0.028814746
124	0xbdaf7483	-0.08567145
125	0xbde0eb08	-0.10982329
126	0x3c7e8cec	0.015536528
127	0x3db24de6	0.08706264
128	0x3e011b84	0.12608153
129	0x3d356692	0.04428727
130	0xbd3af948	-0.04564789
131	0xbdb0465b	-0.08607169
132	0xbd9a639e	-0.07538532
133	0xbd141bc1	-0.03615928
134	0x3d972cc9	0.07381589
135	0xbe480344	-0.19532496
136	0xbd4b16fd	-0.04958247
137	0xbded3bff	-0.11583709
138	0xbe190365	-0.14942701
139	0xbc1eeabb	-0.009699519
140	0xbe019471	-0.12654282
141	0xbd9cf02b	-0.07662996
142	0xbde3963d	-0.1111264
143	0xbd4a1762	-0.049338706
144	0x3cf13f74	0.029449202
145	0x3cc24cf9	0.023718344
146	0xbc62f963	-0.013853404
147	0xbd7e2da0	-0.06205523
148	0xbd4dd343	-0.050250303
149	0x3cc94845	0.024570594
150	0xbccd6f29	-0.02507742
151	0xbcd39e62	-0.025832359
152	0xbdff96e2	-0.124799505
153	0xbe20aa2d	-0.15689917
154	0xbe1a8583	-0.15089993
155	0xbca64fb5	-0.02030168
156	0xbdb3acee	-0.08773218
157	0x3cf9f2d3	0.030511295
158	0xbd6a645f	-0.057224628
159	0xbdeaaacc	-0.11458358
160	0xbc60fc89	-0.013732084
161	0xbd182c46	-0.037151597
162	0xbd5e0f1d	-0.054213632
163	0xbdbff24b	-0.093723856
164	0xbca1aebd	-0.019736642
165	0xbd6e5e71	-0.058195535
166	0xbe1bdf63	-0.15221934
167	0xbb0bbf75	-0.0021323834
168	0xbb963414	-0.004583845
169	0x3cce5983	0.025189167
170	0xbd0ecbf6	-0.03486248
171	0x3c1a541a	0.009419465
172	0xbd88cc66	-0.06679611
173	0xbb52b445	-0.0032150906
174	0x3d0d94c9	0.03456572
175	0x3da27039	0.07931561
176	0x3c2d3fec	0.010574322
177	0xbd029b3c	-0.031886324
178	0xbdb16144	-0.0866113
179	0xbe452403	-0.19252019
180	0x3cb773fd	0.022394175
181	0x3de66524	0.1124976
182	0x3d91a954	0.07112375
183	0x3e290ed0	0.16509557
184	0x3ceca6ae	0.028888073
185	0x3dfefed6	0.1245095
186	0x3e782ad9	0.24235095
187	0x3e8b1224	0.27162278
188	0x3e97e427	0.29666254
189	0x3e774a6b	0.24149482
190	0xbdd33553	-0.10312905
191	0x3d8e9d57	0.06963604
192	0xbd0eac48	-0.03483227
193	0x3d998f49	0.074980326
194	0x3cc3d2b1	0.023904176
195	0xbd887bd6	-0.06664245
196	0xbe02ef98	-0.1278671
197	0xbe038015	-0.12841828
198	0xbd4ce97b	-0.05002735
199	0xbdefa93c	-0.11702201
200	0x3c8721e3	0.01649565
201	0xbd80e2cf	-0.0629326
202	0xbc7d37aa	-0.015455166
203	0xbdedf5c9	-0.116191454
204	0xbdf3c28a	-0.1190234
205	0xbd1d4965	-0.038400073
206	0x3ddd5e00	0.10808945
207	0x3dbbc623	0.09168651
208	0x3df3ddba	0.11907525
209	0x3e27d43f	0.16389559
210	0xbb8136ed	-0.0039433152
211	0xbcfb8b57	-0.03070609
212	0xbd4cb9c9	-0.049981866
213	0x3aca193f	0.0015418901
214	0xbba4d300	-0.005030036
215	0xbd850e56	-0.06496875
216	0xbe07ac97	-0.13249432
217	0xbe0de2cf	-0.13856052
218	0x3caf9ee5	0.021438072
219	0xbd040a81	-0.03223658
220	0x3ddc592f	0.10759198
221	0x3d7a23a5	0.06106915
222	0x3d18d057	0.037308063
223	0xbc6f973c	-0.014623459
224	0xbd465bf4	-0.048427537
225	0xbd09efa1	-0.033675794
226	0x3d9b74bb	0.07590624
227	0x3dca64e8	0.098825276
228	0x3d89065c	0.06690666
229	0xbc889e8b	-0.016677162
230	0xbd8e3aa3	-0.06944778
231	0x3d943ccd	0.07238159
232	0x3c3dcb15	0.011584063
233	0x3e2abd93	0.1667388
234	0x3e188232	0.14893416
235	0xbdb7c4af	-0.08973061
236	0xbd4f7094	-0.050644472
237	0xbddacd13	-0.10683646
238	0xbdc27e21	-0.094967134
239	0x3d4ae912	0.04953868
240	0x3da2c26e	0.07947241
241	0x3d477214	0.048692778
242	0xbdc71644	-0.09721044
243	0xbd9e4026	-0.07727079
244	0xbdd451b1	-0.10367144
245	0x3d11e051	0.035614315
246	0x3dc54719	0.096327014
247	0x3cb2c9af	0.021824686
248	0x3d164592	0.03668744
249	0x3c8e1be5	0.017347286
250	0xbcd394a0	-0.025827706
251	0xbd6341ef	-0.0554828
252	0x3c2d0f31	0.010562704
253	0x3cf0b6c5	0.029384026
254	0x3ad65e69	0.0016355041
255	0x3d22b803	0.03972627

conv2.bias f4 [16]
0	0xbd0ee172	-0.03488297
1	0xbdbb574e	-0.091475114
2	0xbd851318	-0.064977825
3	0x3bf19e37	0.007373597
4	0xbdff9695	-0.12479893
5	0x3d9a9e8a	0.0754977
6	0x3c2301ca	0.009949157
7	0xbdf4f896	-0.119614765
8	0x3aa9c4d8	0.0012952341
9	0xbd2aeb35	-0.041728217
10	0xbcc7f013	-0.024406468
11	0xbd16f868	-0.036857992
12	0x3d53afdc	0.051681384
13	0xbd5a7548	-0.053334504
14	0xbcdfa3bd	-0.027299756
15	0xbdcbd12e	-0.09952007

fc1.weight f4 [120, 256]
0	0x3c49eb4d	0.0123241665
1	0x3d2f3cfb	0.042782765
2	0x3d1dd861	0.038536433
3	0xbd954af5	-0.072896875
4	0xbca83fa5	-0.02053816
5	0xbca9e6d3	-0.020739948
6	0x3d890b5e	0.06691621
7	0xbd29f78a	-0.041495837
8	0xbcd1c516	-0.025606673
9	0x3c73acc3	0.014872733
10	0x3c852fdd	0.016258175
11	0xbd8c886d	-0.06861959
12	0x3d9900e2	0.074708715
13	0x3c2939a0	0.01032868
14	0x3bd37fdd	0.0064544515
15	0xbce0a2af	-0.027421324
16	0x3dc8e454	0.09809175
17	0xbc900324	-0.017579623
18	0x3d97113f	0.07376336
19	0xbe0cb93c	-0.13742536
20	0x3c2d9089	0.010593542
21	0xbd42e044	-0.047577158
22	0x3ccfcf0f	0.025367288
23	0xbd700d23	-0.05860628
24	0xbc09b205	-0.00840426
25	0x3d321e7e	0.04348611
26	0xbd13e97e	-0.036111347
27	0x3d0b32c2	0.033983953
28	0x3c510218	0.012756847
29	0xbd95f222	-0.07321574
30	0xbd6687be	-0.056281798
31	0xbdac33ce	-0.084083185
32	0x3d8e2bc3	0.06941941
33	0x3d116b36	0.035502635
34	0x3d89ac41	0.06722308
35	0xbd93dfc2	-0.07220413
36	0xbccd7c1a	-0.02508359
37	0x3ae6cb5c	0.0017608213
38	0x3de1c287	0.11023431
39	0x3ccda5bc	0.025103442
40	0x3d96bfde	0.073608145
41	0x3d2fb667	0.04289856
42	0x3cc872b6	0.024468761
43	0x3db7e434	0.08979073
44	0x3a829217	0.0009961751
45	0xbdc3a5e4	-0.095531255
46	0xbd91e731	-0.071241744
47	0xbd843bd8	-0.06456727
48	0x3b94e663	0.004544066
49	0xbda25a93	-0.07927432
50	0xbd318971	-0.043343965
51	0xbd92eef3	-0.07174482
52	0x3d958230	0.07300222
53	0xbb5c8831	-0.0033650512
54	0xba34b7fb	-0.00068938703
55	0x3c4e616b	0.012596468
56	0x3df5d12e	0.120027885
57	0xbc38c682	-0.011277797
58	0x3b8ddfc5	0.004329654
59	0x3dd78561	0.10523487
60	0xbc93c5a8	-0.018038586
61	0xbcec0e80	-0.028815508
62	0xbbd23f2c	-0.006416222
63	0x3d351fd5	0.04421981
64	0xbccae503	-0.024767404
65	0xbce7e31c	-0.028306536
66	0x3d0e8dd0	0.03480321
67	0xbd03eda1	-0.032209042
68	0x3dbb4bd9	0.09145326
69	0x3d0008db	0.031258445
70	0x3c8b3e3a	0.016997445
71	0xbc424b62	-0.011858793
72	0x3d9bad0d	0.07601366
73	0xbc08c3b6	-0.008347442
74	0x3d0b2326	0.033969067
75	0xbbfc463c	-0.0076988023
76	0xbd018b2a	-0.031626858
77	0xbd89caf1	-0.06728161
78	0xbcecb3b6	-0.028894287
79	0xbe079cbd	-0.13243385
80	0x3b2718f7	0.0025497058
81	0xbbe8fa7f	-0.0071099396
82	0x3db0f9f3	0.08641424
83	0x3de81653	0.11332383
84	0xbc978e1d	-0.018500382
85	0x3c57ff3f	0.013183414
86	0xbcbc8f0c	-0.023017429
87	0x3ccfa3b7	0.02534662
88	0x3d888a34	0.06666985
89	0xbd062c1e	-0.032756917
90	0x3d9ec8cc	0.07753143
91	0x3da2fda5	0.07958535
92	0x3d8e1009	0.06936652
93	0x3e17c8c3	0.14822678
94	0x3d914374	0.07092944
95	0xbc817a1e	-0.0158053
96	0xbd6546c5	-0.055975694
97	0xbd2eaa63	-0.042642962
98	0x3d971a16	0.073780224
99	0x3c4f572b	0.01265506
100	0xbdcb2c3e	-0.09920548
101	0x3d2752ec	0.040850565
102	0x3d18dbb7	0.03731891
103	0x3c98ff58	0.018676445
104	0xbc6203a1	-0.0137948105
105	0xbd6ec128	-0.058289677
106	0x3bedd49e	0.007258012
107	0x3c029432	0.007969903
108	0x3cc43f8a	0.023956079
109	0x3dacc862	0.084366575
110	0x3df83c6d	0.121209
111	0x3d8b8502	0.068124786
112	0x3d77bd4a	0.060483254
113	0x3d5b6c11	0.053569857
114	0xbd48d09e	-0.049027078
115	0x3ce0f4bb	0.027460447
116	0xbb9919d0	-0.0046722665
117	0x3b8af8df	0.0042410935
118	0x3db7eb34	0.08980408
119	0xbc8ff0b6	-0.017570835
120	0x3cff57d8	0.031169817
121	0x3cc3cf7c	0.023902647
122	0x3a6490ec	0.0008719105
123	0xbd16bfc0	-0.03680396
124	0xbc82bc01	-0.015958788
125	0x3b7b58f0	0.0038352571
126	0xbc880c3b	-0.016607394
127	0xbd1b651a	-0.037938215
128	0x3cefbb53	0.029264128
129	0x3de4cd80	0.111720085
130	0x3b488ba1	0.0030600803
131	0xbca50d3d	-0.020147914
132	0x3cc057b0	0.023479313
133	0xbc7650a0	-0.015033871
134	0xbd20414b	-0.03912477
135	0x3d5375f2	0.051626153
136	0xbd590ed5	-0.05299266
137	0xbc6dec00	-0.014521599
138	0xbda0f120	-0.07858491
139	0xbd12c9aa	-0.035836853
140	0x3df74dad	0.12075362
141	0x3c578550	0.013154343
142	0xbdbe6b1e	-0.09297775
143	0xbe3d845d	-0.18507524
144	0x3d3daab8	0.04630539
145	0x3d478972	0.048715062
146	0x3d5e1369	0.05421773
147	0xbd16c494	-0.036808565
148	0xbdedaccb	-0.11605223
149	0xbcc318c6	-0.023815524
150	0xbd359688	-0.04433301
151	0x3d4b8012	0.049682684
152	0xbcf0b3b9	-0.029382573
153	0xbc4769dd	-0.012171236
154	0x3d64371a	0.05571661
155	0xbd0997de	-0.033592097
156	0x3bde2448	0.0067792274
157	0xbd486e66	-0.04893341
158	0xbcc1b8eb	-0.023647746
159	0x3ac29d29	0.0014847863
160	0x3cce896a	0.025212009
161	0xbb90c03c	-0.0044174474
162	0x3d2dc742	0.042426355
163	0x3d646131	0.05575675
164	0x3c7da675	0.015481581
165	0x3cf76816	0.030201
166	0xbd36508d	-0.044510413
167	0x3d0b15e0	0.03395641
168	0xbd5b0a5c	-0.053476676
169	0xbda72fc5	-0.08163408
170	0x3cca3d36	0.02468739
171	0xbd0a0144	-0.033692613
172	0xbda09f51	-0.07842887
173	0xbe0c6d36	-0.13713536
174	0xbe121b72	-0.14268282
175	0xbbebb7c0	-0.0071935356
176	0x3d084ce7	0.033276465
177	0x3d385b2f	0.045008834
178	0x3d3b1f17	0.045683946
179	0xbcc5d50c	-0.02414944
180	0xbd9c7ba5	-0.07640771
181	0xbd29ed36	-0.041485988
182	0x3d93d55a	0.07218428
183	0x3cc613ed	0.024179423
184	0xbd5f73c1	-0.05455375
185	0xbda751b3	-0.0816988
186	0x3cfe5cc7	0.031050099
187	0xbcbf06c7	-0.023318661
188	0x3c6466ab	0.013940494
189	0xbdd9247a	-0.106026605
190	0xbd2260c8	-0.03964308
191	0xbd4ea1b5	-0.050447185
192	0xbbb964a0	-0.0056577474
193	0x3d1b0b39	0.0378525
194	0x3d943bf3	0.07237997
195	0x3d4a745d	0.04942738
196	0x3cab9db0	0.020949215
197	0x3d8d7f71	0.06909073
198	0x3c4a71f8	0.012356274
199	0xbb7279ea	-0.0036998936
200	0x3c860604	0.01636029
201	0x3c8b39cb	0.016995331
202	0x3d168b92	0.0367542
203	0xbd0b10ac	-0.033951446
204	0x3ba3d4ec	0.0049997475
205	0x3d64c72e	0.055854015
206	0x3de5f6a0	0.112286806
207	0xbd5860e4	-0.052826777
208	0xbc8a9003	-0.016914373
209	0xbcb533e5	-0.022119472
210	0x3cb611d6	0.022225302
211	0xbd1e0b83	-0.038585197
212	0xba36e5c5	-0.00069769874
213	0xbca12828	-0.019672468
214	0x3cf52b90	0.029927999
215	0xbbcbdbfd	-0.006221293
216	0x3d78f395	0.060779173
217	0xbb39e629	-0.0028365946
218	0x3d42323d	0.047411192
219	0x3c94b7b8	0.01815401
220	0xbd452419	-0.04813013
221	0xbc4f5a90	-0.012655869
222	0x3d750061	0.059814814
223	0xbd5838aa	-0.052788414
224	0xbd58a471	-0.0528912
225	0xbc7b0361	-0.01532063
226	0x3cef8aab	0.029240927
227	0x3d3662b8	0.04452774
228	0xbcd9df83	-0.026595837
229	0x3c132c71	0.008982764
230	0x3d27bdf6	0.040952645
231	0x3d4a6747	0.0494149
232	0xbd6b7086	-0.057480358
233	0xbc1c8e95	-0.009555479
234	0x3cf5c370	0.030000418
235	0x3d53fdcd	0.051755715
236	0x3aa20fb4	0.0012364299
237	0x3d068e22	0.032850392
238	0x3d6fe7e4	0.058570758
239	0xbce8f029	-0.02843483
240	0x3d04bbc0	0.032405615
241	0x3daa5521	0.08317018
242	0x3d96f92f	0.07371747
243	0xbd3d95b3	-0.046285342
244	0xbd1ff34e	-0.039050393
245	0xbb6e6cb5	-0.0036380712
246	0x3c805fdd	0.015670711
247	0xbcad4fbb	-0.021156183
248	0xbba7b589	-0.005118076
249	0xbd2eae91	-0.04264695
250	0x3ce4fc5f	0.027952371
251	0x3cd5d937	0.026104553
252	0xbcfc3aeb	-0.030789813
253	0x3d092118	0.033478826
254	0xbd66bb91	-0.05633122
255	0xbcf9f37e	-0.030511614

fc1.bias f4 [120]
0	0xbd07ec65	-0.033184428
1	0x3d0235eb	0.0317897
2	0x3b5abc4f	0.00333764
3	0xbb3c8b39	-0.0028769507
4	0x3c74c819	0.014940285
5	0x3d867c02	0.06566621
6	0x3ced9c19	0.029005097
7	0xbd87efdc	-0.066375464
8	0x3d315ca3	0.043301236
9	0xbc2f9897	-0.010717533
10	0x3d806ef3	0.06271162
11	0x3da83ce3	0.08214738
12	0x3c89d76e	0.016826358
13	0x3bcf4daa	0.006326397
14	0x3d43373a	0.04766009
15	0xbd04b45b	-0.032398563
16	0x3c125708	0.008931883
17	0x3cfbcb2b	0.030736526
18	0x3d71345d	0.05888783
19	0x3d1acd7d	0.037793625
20	0xbd793634	-0.060842708
21	0x3c5a489e	0.013322977
22	0xbd0aac55	-0.033855755
23	0xbda9e7ec	-0.08296189
24	0x3bcaf4ca	0.006193732
25	0xbd8069db	-0.0627019
26	0x3be90a94	0.0071118567
27	0xbc2c848a	-0.010529647
28	0xbcc695a0	-0.024241269
29	0x3d4d0102	0.05004979
30	0xbc67466a	-0.014115909
31	0xbd1ffb90	-0.039058268
32	0x3d25a7c9	0.040443216
33	0x3d835077	0.06411832
34	0xbd17d977	-0.037072625
35	0xbcc0e1a6	-0.023545098
36	0x3c6e3637	0.014539293
37	0x3d9837d9	0.07432527
38	0x3d7e87d9	0.062141273
39	0xbad571a5	-0.0016284479
40	0x3cca15bf	0.024668572
41	0xbb243108	-0.002505364
42	0xbd0773ae	-0.033069305
43	0xbd6c2e8f	-0.05766159
44	0x3d034746	0.032050394
45	0xbb95bb0d	-0.0045694173
46	0xbd561668	-0.052267462
47	0xbd271751	-0.04079372
48	0x3cceb27d	0.025231594
49	0x3d716939	0.05893824
50	0xbd904dcf	-0.07046091
51	0xbd269a25	-0.040674347
52	0xbdb47d6b	-0.08812984
53	0x3d0289db	0.03186975
54	0x3d41a746	0.047278665
55	0x3dac7061	0.08419872
56	0xbd512bed	-0.05106728
57	0x3d84f319	0.0649168
58	0xbc6c4aa4	-0.014422093
59	0xbcba86a2	-0.022769276
60	0x3d725153	0.059159588
61	0xbc9fba92	-0.019498143
62	0xbd5eaba8	-0.054362923
63	0x3bed4a08	0.007241491
64	0xbcaad753	-0.020854628
65	0x3cf66f16	0.030082267
66	0xbd8b15b0	-0.06791246
67	0xbd61c9cb	-0.055124085
68	0x396d5319	0.00022633038
69	0x3d3d0385	0.046145935
70	0x3d38a8b3	0.04508276
71	0xbd320d04	-0.043469444
72	0x3cdc1a18	0.026867911
73	0x3cd6ea98	0.02623491
74	0xbc01e9b8	-0.007929258
75	0x3cb91233	0.022591686
76	0x3d6cd3e3	0.05781926
77	0x3cf85700	0.030314922
78	0xbd795c80	-0.06087923
79	0xbcbc3af5	-0.022977332
80	0x3d8ee469	0.069771595
81	0x3b07fc29	0.0020749664
82	0xbc6ecac9	-0.014574715
83	0xbcde2502	-0.027117256
84	0xbd156bac	-0.036479637
85	0xbd73b19a	-0.059495546
86	0xbc182e43	-0.009288373
87	0x3da73e22	0.08166148
88	0xbd3f0451	-0.046634976
89	0x3cf63a4b	0.030057093
90	0x3cc01745	0.023448596
91	0xbd1cf9bf	-0.038324114
92	0x3d12c11c	0.035828695
93	0x3d1b84f1	0.03796858
94	0x3d78058b	0.06055216
95	0x3d126dff	0.03574943
96	0x3c9c1751	0.019054087
97	0x3dbaf469	0.09128649
98	0x3d216bef	0.039409574
99	0x3d7196ed	0.058981825
100	0xbce34a26	-0.027745318
101	0xbcf59a48	-0.029980794
102	0xbc8788fc	-0.016544811
103	0x3da6182c	0.08110079
104	0xbd987a7d	-0.07445238
105	0xbd749755	-0.059714634
106	0xbd33d0ce	-0.043900304
107	0xbd2699a2	-0.04067386
108	0x3d011339	0.031512473
109	0x3d2896cf	0.041159447
110	0xbd093f2c	-0.03350751
111	0xbca934ca	-0.020655055
112	0x3c3f1165	0.011661862
113	0x3d51aad0	0.05118829
114	0x3cb7557d	0.022379631
115	0xbd0fac8a	-0.035076655
116	0x3d7fa890	0.062416613
117	0xbd7e90c0	-0.062149763
118	0x3d50ac15	0.05094536
119	0x3da833bb	0.08212992

fc0.weight f4 [120, 120]
0	0x3dac0cea	0.08400901
1	0xbe093ff6	-0.13403305
2	0xbd0f0324	-0.034915105
3	0xbdd6fd7a	-0.104975656
4	0xbc571877	-0.0131283915
5	0x3dfdc644	0.12391332
6	0x3d605e93	0.054777693
7	0xbd881f14	-0.06646553
8	0xbd9a468f	-0.07532989
9	0x3d02d651	0.03194267
10	0xbcf0d754	-0.029399551
11	0x3d6f340f	0.058399256
12	0x3ce5fc20	0.028074324
13	0xbd753419	-0.059864137
14	0xbd559e2c	-0.052152798
15	0x3e113c2a	0.14183107
16	0xbdaac33a	-0.08338018
17	0xbda9ddb2	-0.08294238
18	0x3ddf4347	0.10901504
19	0x3de2b6ea	0.11070044
20	0xbdf2019a	-0.11816712
21	0x3d74cafb	0.05976389
22	0xbd0a6cf0	-0.033795297
23	0xbd64c4d7	-0.055851784
24	0x3de408c4	0.111344844
25	0x3dbd3ea0	0.092404604
26	0x3d9bbab8	0.07603973
27	0x3deccbc6	0.11562304
28	0xbd6f50a7	-0.058426525
29	0x3d4661ea	0.048433222
30	0x3c43e5e7	0.011956668
31	0x3d9d4acb	0.07680281
32	0x3b671f7f	0.0035266576
33	0xbca11298	-0.019662187
34	0x3cd63ea4	0.026152916
35	0x3d649107	0.05580237
36	0xbc1ab19b	-0.0094417585
37	0xbd930998	-0.07179564
38	0x3d795545	0.060872335
39	0x3e004dbd	0.12529655
40	0xbe074b9c	-0.13212436
41	0xbd8f6d62	-0.07003285
42	0xbd7590fe	-0.05995273
43	0xbdc6d8dd	-0.09709332
44	0xbcd930ec	-0.026512586
45	0x3dd0e906	0.10200696
46	0xbdc4bd6f	-0.09606444
47	0x3dfabfea	0.12243636
48	0x3d83c202	0.064334884
49	0xbcaf5049	-0.021400588
50	0xbd65b1b4	-0.056077674
51	0x3d552de6	0.052045725
52	0x3db10e6a	0.086453274
53	0xbd665cf3	-0.056240987
54	0xbddc9af8	-0.107717454
55	0xbc58ef50	-0.01324065
56	0x3ca50c7f	0.02014756
57	0x3c4e8e71	0.012607203
58	0x3c2ed96e	0.010671956
59	0xbca8a46a	-0.020586211
60	0xbc9d2cda	-0.019186426
61	0x3e241eab	0.16027324
62	0xbd2856b3	-0.041098308
63	0x3def7553	0.116923
64	0x3dbf83ce	0.093513116
65	0xbbd9a1ec	-0.006641617
66	0xbbfd27c1	-0.0077256863
67	0xbe037a69	-0.12839665
68	0xbdaadf3b	-0.08343359
69	0x3d92c651	0.07166732
70	0xbd267c55	-0.040645916
71	0x3d2b4318	0.041812032
72	0x3c9e2929	0.019306736
73	0x3d9d66d8	0.076856315
74	0xbc744bce	-0.014910651
75	0xbcc2e525	-0.023790905
76	0x3dd8a5ae	0.10578476
77	0xbdc0a53e	-0.094065174
78	0xbd830095	-0.063965954
79	0xb909f653	-0.00013157101
80	0xbcac7a84	-0.021054514
81	0xbc83e0bc	-0.016098373
82	0x3d09264b	0.033483785
83	0x3c083375	0.00831305
84	0xbcaed293	-0.021340644
85	0xbc51dbc0	-0.01280874
86	0xbcf5f86e	-0.030025687
87	0xbddcf726	-0.10789327
88	0x3c26dc4f	0.010184362
89	0x3cce0002	0.025146488
90	0x3ba80440	0.0051274598
91	0x3d6a4d77	0.057202782
92	0xbcd36a58	-0.025807545
93	0x3c468f39	0.012119108
94	0xbcdf2282	-0.027238134
95	0xbd493d70	-0.049130857
96	0x3db2d496	0.08731954
97	0x3b1f8c47	0.0024345086
98	0xbc8dc7ed	-0.017307246
99	0x3dae4c11	0.08510602
100	0xbd86e648	-0.065868914
101	0x3be34e7a	0.0069368454
102	0x3dcd6218	0.100284755
103	0xbd05e4ec	-0.03268902
104	0x3ddd1757	0.10795467
105	0xbcd3fa14	-0.025876082
106	0x3ade7e2e	0.001697486
107	0x3da0a807	0.07844549
108	0xbcd4fe73	-0.026000237
109	0xbd144e9e	-0.036207788
110	0xbe0520bf	-0.13000773
111	0xbd6bf42d	-0.05760591
112	0xbdf01107	-0.11721998
113	0xbdeb33d1	-0.114844926
114	0x3dfafc14	0.12255111
115	0xbcd41454	-0.0258886
116	0x3d6b0ffa	0.057388283
117	0xbd6ea636	-0.05826398
118	0x3db939a0	0.09044194
119	0xbdac3895	-0.0840923
120	0x3db827f7	0.08991998
121	0x3cb7ebdf	0.02245134
122	0x3da41eab	0.08013662
123	0x3d93c60e	0.0721551
124	0x3dc79de0	0.09746909
125	0x3e0bfa5c	0.13669723
126	0xbc545bd4	-0.012961347
127	0x3d9e6c65	0.07735518
128	0xbbf9a5e7	-0.007618654
129	0x3d3cbfd9	0.046081398
130	0xbbc90368	-0.0061344393
131	0x3e05baf7	0.13059603
132	0x3cb1fbf2	0.021726582
133	0x3dcaa7ad	0.09895263
134	0xbd8eba55	-0.06969134
135	0xbd2328d8	-0.039833874
136	0xbd8a098d	-0.06740103
137	0x3da08b2d	0.07839046
138	0x3c04f925	0.008116041
139	0xbd5eaa9f	-0.054361936
140	0xbd3f1083	-0.046646606
141	0x3d29151f	0.04127991
142	0x3db2e00f	0.08734142
143	0xbcf767f4	-0.030200936
144	0xbc08ed8f	-0.00835742
145	0xbe0048bd	-0.12527747
146	0x3c64bd33	0.013961124
147	0xbc1a27c2	-0.009408893
148	0xbdb60e19	-0.08889408
149	0x3c246bb3	0.010035443
150	0x3daf497f	0.0855894
151	0xbbd79204	-0.0065786857
152	0xbdb40c4c	-0.08791408
153	0xbdb9c171	-0.09070099
154	0x3d6ccfd4	0.057815388
155	0xbd51ae00	-0.05119133
156	0x3a8330e8	0.0010009082
157	0xbd6bcc42	-0.057567842
158	0x3dbf584d	0.09343014
159	0x3dc8f7c2	0.09812881
160	0xbde60e35	-0.112331785
161	0x3dcea936	0.10090868
162	0x3db381ad	0.08764968
163	0xbd6fe0e6	-0.05856409
164	0xbd9bab2a	-0.07601006
165	0x3d89e91a	0.06733914
166	0x39d421aa	0.00040460873
167	0x3d4af433	0.049549293
168	0x3cd9ae3c	0.02657234
169	0xbbbea416	-0.0058179004
170	0x3ca0f175	0.019646386
171	0x3dd3c534	0.10340348
172	0x3d20de86	0.039274715
173	0xbdc7974c	-0.097456545
174	0xbd36a5d0	-0.044591725
175	0x3d96d6f5	0.073652185
176	0x3c0b43de	0.0085000675
177	0xbdee9c84	-0.11650947
178	0x3d8a81e9	0.0676306
179	0x3d68dbc1	0.0568502
180	0xbd62d5f6	-0.05537983
181	0xbd5a1de3	-0.05325116
182	0x3d3c0973	0.04590745
183	0xbd32c3e8	-0.043643862
184	0x3dc9f762	0.09861638
185	0xbd82b8a2	-0.06382872
186	0x3d1c4afd	0.038157452
187	0xbd9bb080	-0.07602024
188	0xbc5539a4	-0.013014231
189	0xbce5d023	-0.028053349
190	0x3d6a76ac	0.05724208
191	0xbc53e524	-0.012933049
192	0x3d8baf64	0.068205625
193	0x3da915e2	0.08256127
194	0xbc31da66	-0.010855293
195	0x3d4d1f18	0.05007848
196	0x3db2a0e6	0.08722095
197	0x3d40b0fc	0.047043785
198	0xbcc52f94	-0.024070539
199	0x3d867474	0.065651804
200	0xbce9dab4	-0.028546669
201	0x3c7cef8f	0.015437975
202	0xbd6f4c9d	-0.058422673
203	0xbc610706	-0.013734585
204	0x3cb89b94	0.022535123
205	0xbda91bd5	-0.08257262
206	0x3e04894b	0.12942998
207	0x3ccda8a2	0.025104824
208	0x3d53ce7d	0.051710594
209	0x3c369814	0.011144657
210	0x3d0675e5	0.032827277
211	0xbcb773cf	-0.022394089
212	0x3d37237d	0.04471158
213	0xbd8c5c95	-0.06853596
214	0xbcd84511	-0.02640012
215	0x3e17b2a0	0.14814234
216	0x3d09cec4	0.033644453
217	0x3ddd419d	0.1080353
218	0x3da5ace4	0.08089617
219	0x3d1a8e23	0.03773321
220	0xbdf1ba9d	-0.11803172
221	0xbdaaa789	-0.08332736
222	0xbde5642b	-0.11200746
223	0xbc0729bf	-0.008249699
224	0x3bafe776	0.0053681685
225	0xbd904b7c	-0.070456475
226	0x3d24fcd0	0.040280163
227	0xbd671ff2	-0.05642695
228	0x3e0abc0a	0.13548294
229	0xbcc94f77	-0.024574025
230	0xbd8b4bee	-0.06801592
231	0x3dc65405	0.09683994
232	0xbdd69c45	-0.10479025
233	0xbd39f4db	-0.045399528
234	0xbcf3e887	-0.029773964
235	0x3d0efabe	0.034907095
236	0x3ddd6981	0.10811139
237	0xbcc5fb64	-0.024167724
238	0x3e33d037	0.17559896
239	0xbcab0716	-0.020877402
240	0x3d72a8ec	0.059243128
241	0x3dd9a37b	0.106268845
242	0x3dadf385	0.08493713
243	0xbc979fc0	-0.018508792
244	0x3d6b27ad	0.057410885
245	0xbc8b4e0b	-0.017004987
246	0xbce985cc	-0.028506182
247	0xbcc00942	-0.023441914
248	0x3d944962	0.07240559
249	0xbd72025c	-0.05908428
250	0xbdf6771e	-0.120344386
251	0xbb516812	-0.00319529
252	0x3d89cba7	0.06728297
253	0x3d085fc4	0.033294454
254	0xbda15403	-0.07877352
255	0xbca7d630	-0.020487875

fc0.bias f4 [120]
0	0x3cdb0972	0.026737902
1	0x3d866cdd	0.06563733
2	0x3d03a202	0.032136925
3	0x3b470b18	0.0030371603
4	0xbca9a105	-0.020706663
5	0x3c4ad703	0.012380364
6	0xba8e298e	-0.0010846124
7	0x3da5f88c	0.08104047
8	0xbd866f3c	-0.06564185
9	0x3d0d99d0	0.034570515
10	0x3d895511	0.06705678
11	0xbce5e1e7	-0.02806182
12	0xbd2e5ca9	-0.042568836
13	0xbd849a48	-0.06474739
14	0x3d09b0f9	0.03361604
15	0xbb141b6e	-0.0022599357
16	0x3de1dd6e	0.110285625
17	0x3d3c4119	0.04596052
18	0xbcba88bc	-0.022770278
19	0x3d952ee8	0.07284337
20	0x3da04731	0.07826079
21	0x3c8f9808	0.017528549
22	0xbd015204	-0.031572357
23	0x3d98b0dc	0.07455608
24	0x3d435dd0	0.04769689
25	0xbd8d5d35	-0.069025435
26	0x3de6692c	0.11250529
27	0xbd239ddc	-0.03994547
28	0x3dbfc492	0.09363665
29	0x3c75c83a	0.015001351
30	0x3d49676d	0.0491709
31	0x3c5829e3	0.01319358
32	0xbd0c6554	-0.03427632
33	0x3ce1e312	0.027574096
34	0xbda6b25b	-0.08139487
35	0x3d2e79ba	0.042596556
36	0x3e054068	0.1301285
37	0x3dc5549c	0.096352786
38	0xbcd3f440	-0.025873303
39	0x3cdd6cf9	0.027029501
40	0x3da212f3	0.079137705
41	0xbd4d15bf	-0.050069567
42	0x3d019e4b	0.0316451
43	0x3dd8e903	0.105913185
44	0x3d588755	0.052863438
45	0x3d1c4bb3	0.03815813
46	0xbd0cc1c2	-0.03436447
47	0xbd609250	-0.054827034
48	0xbd644a88	-0.05573514
49	0x3e13a1b8	0.1441716
50	0xbd34d85d	-0.044151653
51	0xbd19c18b	-0.037538093
52	0xbd08b867	-0.033378985
53	0x3d87269e	0.065991625
54	0x3c952411	0.018205674
55	0xbcf04c95	-0.029333392
56	0x3c8bb635	0.017054657
57	0x3d3bfc03	0.045894634
58	0xbd0cd51f	-0.034382936
59	0xbcddbce1	-0.027067604
60	0x3d24233e	0.040072672
61	0x3d758116	0.05993756
62	0xbd947dba	-0.07250543
63	0x3db9d8da	0.09074564
64	0xbcb3b72d	-0.021937931
65	0x3d46c909	0.048531566
66	0xbbd72077	-0.0065651494
67	0x3b68e8dd	0.0035539188
68	0xbd9c66ed	-0.07636819
69	0xbdaadaf6	-0.08342545
70	0x3dce42ff	0.10071372
71	0x3bb92fb6	0.0056514395
72	0xbcec8a20	-0.028874457
73	0xbdc44621	-0.095836885
74	0x3d1046e0	0.03522384
75	0x3c11dc77	0.008902661
76	0x3ce3a7cc	0.027789973
77	0x3bad37c1	0.0052861874
78	0xbd43d664	-0.04781188
79	0xbd5818e4	-0.052758113
80	0x3d3d6cac	0.046246216
81	0xbc3e1931	-0.011602686
82	0x3b02606f	0.0019893905
83	0x3dec86c7	0.11549144
84	0x3e08db07	0.13364802
85	0x3dda226e	0.10651098
86	0x3c41586e	0.011800868
87	0x3cb35885	0.021892795
88	0xbdc14fa5	-0.09439019
89	0x3d009355	0.031390507
90	0xbd1d39bc	-0.038385138
91	0x3d68e9c0	0.056863546
92	0xbdb788a8	-0.08961612
93	0xbc140f99	-0.009036922
94	0xbd1283cb	-0.03577022
95	0xbb9dd892	-0.004817077
96	0xbdced1b2	-0.1009859
97	0x3d8f5f11	0.07000554
98	0x3c6f16ae	0.01459281
99	0xbc8248fa	-0.015903939
100	0xbc213cd7	-0.0098411655
101	0x3d899dd6	0.06719558
102	0xbd6cf57f	-0.05785131
103	0xbd36533b	-0.04451297
104	0x3d4e99dc	0.0504397
105	0x3db40c99	0.08791465
106	0x3c876d4a	0.016531605
107	0x3d15b863	0.036552798
108	0xbdd4b80f	-0.10386669
109	0x3d099f37	0.033599105
110	0x3d9bbdd5	0.07604567
111	0xbddaa635	-0.10676233
112	0x3dd40003	0.10351565
113	0xbd4a7e79	-0.04943702
114	0xbc8008aa	-0.015629131
115	0xbcc2fb17	-0.02380137
116	0xbccfd931	-0.02537212
117	0xbd3e0709	-0.046393428
118	0x3d1c9e3f	0.038236853
119	0x3e019fc7	0.12658606

fc2.weight f4 [84, 120]
0	0x3becae2b	0.007222911
1	0xbbd8c7b5	-0.006615604
2	0x3d90a95f	0.07063555
3	0xbd64f9f8	-0.05590245
4	0xbd867aae	-0.06566368
5	0x3d3113d7	0.04323181
6	0x3d7cfbb9	0.0617635
7	0x3c4bb1ff	0.012432574
8	0xbcf3f5fd	-0.029780382
9	0x3d0db0a5	0.03459229
10	0x3d9dbfd0	0.07702601
11	0xbdd74da3	-0.10512855
12	0xbd295960	-0.041345
13	0xbdd7c33f	-0.10535287
14	0x3dc25958	0.09489697
15	0x3e18a71b	0.14907496
16	0x3d703cef	0.05865186
17	0xbddca2a3	-0.10773208
18	0xbd81bdb5	-0.06335012
19	0x3cd8e2f4	0.026475407
20	0xbd348f4e	-0.04408198
21	0x3ceeeadb	0.029164722
22	0x3c6ee040	0.014579833
23	0xbc5deb92	-0.013544934
24	0x3bf87b5b	0.0075830645
25	0x3c979ed6	0.018508356
26	0x3dc5cb1f	0.09657883
27	0xbd05f483	-0.032703888
28	0x3d3edd3a	0.046597697
29	0x3ceff255	0.029290358
30	0x3d1c8abb	0.03821824
31	0xbc9ae453	-0.018907702
32	0x3cc1021f	0.023560582
33	0x3df49898	0.119431674
34	0x3d373284	0.04472591
35	0x3dcfb0e1	0.10141159
36	0xbb2e31ea	-0.0026580044
37	0x3d3699c1	0.044580225
38	0xbdbeb389	-0.09311587
39	0x3a9e4551	0.0012075101
40	0x3d8b9916	0.06816308
41	0xbd0d4919	-0.03449354
42	0xbb589ba4	-0.0033051753
43	0xbd1cb39b	-0.038257223
44	0x3ceba3a9	0.028764563
45	0xbd627b0f	-0.05529314
46	0x3e0981ce	0.13428423
47	0x3ca6584e	0.020305779
48	0xbddeea53	-0.108845375
49	0x3dcdb87a	0.10044952
50	0x3defae93	0.11703219
51	0x3d12d473	0.03584714
52	0x3da20dbc	0.07912776
53	0x3d1b82a8	0.0379664
54	0x3d1ae82b	0.03781907
55	0x3da40e34	0.080105215
56	0x3d5e2854	0.05423768
57	0x3d19984e	0.037498765
58	0x3d64f7f8	0.055900544
59	0xbd593015	-0.05302437
60	0xbd7233b3	-0.059131335
61	0xbd6dd056	-0.058060013
62	0x3ce451cb	0.027871033
63	0x3d83d1b2	0.064364806
64	0x3dfcce52	0.1234404
65	0x3d2a7d37	0.04162332
66	0xbc8b896e	-0.017033305
67	0xbdff5f69	-0.1246937
68	0x3dc32f59	0.09530515
69	0x3d181be3	0.03713597
70	0xbc966f69	-0.018363671
71	0xbd8a0851	-0.067398675
72	0x3c123d2a	0.008925715
73	0xbd476b5a	-0.048686363
74	0xbcf0c4cd	-0.029390717
75	0x3c6b096b	0.014345507
76	0xbd7e2487	-0.062046554
77	0x3d4ad226	0.04951682
78	0xbdbb3083	-0.09140112
79	0xbdfb7caf	-0.12279641
80	0x3dcf1ddb	0.10113116
81	0xbda5f7a0	-0.08103871
82	0xbd830edc	-0.063993186
83	0x3cf0de7d	0.029402966
84	0x3da0f798	0.07859725
85	0xbd4be350	-0.04977733
86	0xbdb50ef8	-0.08840746
87	0xbd9493f4	-0.07254782
88	0x3d8b3b34	0.067984015
89	0xbc80e2ca	-0.015733141
90	0x3a4e726a	0.00078753254
91	0x3e078605	0.13234718
92	0x3d1d8194	0.038453653
93	0xbb78b155	-0.0037947495
94	0x3db2ad02	0.08724405
95	0x3de5af4b	0.11215075
96	0x3d848a98	0.06471747
97	0x3c964741	0.018344523
98	0xbd88d79b	-0.066817485
99	0xbdd925f8	-0.10602945
100	0xbd3fb1f2	-0.04680056
101	0x3d58c1ab	0.05291907
102	0xbb2c76fd	-0.002631604
103	0xbd3632b3	-0.044481944
104	0xbd424c1e	-0.047435872
105	0xbcf54986	-0.029942285
106	0x3e092c53	0.13395815
107	0xbdb267d7	-0.08711212
108	0x3d3e7d1c	0.046506032
109	0x3d771b0c	0.06032853
110	0xbd20b714	-0.039237097
111	0x3d3f63ab	0.04672591
112	0x3dace8ab	0.084428154
113	0xbb939121	-0.0045033847
114	0xbac2e74d	-0.0014869958
115	0xbb85d20f	-0.004083879
116	0xbcfa09c0	-0.030522227
117	0x3c996142	0.018723134
118	0xbdb4af18	-0.08822459
119	0x3bb430ea	0.005498995
120	0x3a1f84ab	0.0006085138
121	0x3d093b3b	0.033503752
122	0xbc45df1c	-0.012077119
123	0x3ca47b4c	0.020078324
124	0xbd43bca8	-0.04778734
125	0xbd3d3809	-0.046196017
126	0xbc450ddc	-0.01202723
127	0xbd170673	-0.036871385
128	0x3a058b6f	0.00050943246
129	0x3d159c11	0.03652579
130	0x3e45679f	0.1927781
131	0x3e17d61c	0.1482777
132	0x3e0e60a7	0.13904057
133	0x3dedd6a8	0.11613208
134	0x3dd2fa01	0.10301591
135	0x3de567ba	0.11201425
136	0x3df0b405	0.11753086
137	0x3dc10e85	0.094265975
138	0x3e152216	0.14563784
139	0xbd917be4	-0.071037084
140	0xbd818631	-0.06324423
141	0x3dbb3084	0.09140113
142	0x3db75fa6	0.0895379
143	0x3bce2017	0.0062904465
144	0xbdbe23db	-0.09284183
145	0x3c61441d	0.01374915
146	0x3e06f163	0.13178019
147	0x3b303f50	0.0026893206
148	0xbd84592e	-0.06462322
149	0x3dd6e0a6	0.10492067
150	0x3d7570c1	0.059921984
151	0x3c492ee9	0.012279251
152	0x3c3188bf	0.010835825
153	0xbc78b80e	-0.015180601
154	0xbcb01a09	-0.02149679
155	0x3d9c64f7	0.07636445
156	0xbd347498	-0.044056505
157	0xbd69b895	-0.057060797
158	0xbb976c71	-0.0046210815
159	0xbc23d66b	-0.009999852
160	0xbda6e2c5	-0.081487216
161	0x3c9f9cc3	0.01948393
162	0xbda80e6c	-0.08205876
163	0xbe3364c9	-0.17518915
164	0x3ca50b6d	0.02014705
165	0xbe07b9d2	-0.13254479
166	0xbd03aeca	-0.032149114
167	0xbd83c99c	-0.06434938
168	0xbd6c4197	-0.05767974
169	0x3db57eed	0.088621
170	0x3d886ec5	0.066617526
171	0x3db71656	0.08939807
172	0x3dc55c18	0.09636706
173	0xbe026bc6	-0.12736425
174	0xbbb9c2c5	-0.0056689703
175	0x3d660d40	0.05616498
176	0x3a303eb9	0.00067232136
177	0xbdc028d2	-0.09382786
178	0x3e1caa9e	0.1529946
179	0x3d5f613a	0.05453608
180	0x3d757f47	0.059935834
181	0x3d570c3a	0.052501895
182	0x3cc48efa	0.023993958
183	0x3c45d90b	0.012075673
184	0xbd5697e0	-0.052390933
185	0x3d0c7d27	0.034299042
186	0x3d930903	0.07179453
187	0x3e218fca	0.15777507
188	0x3dec899b	0.11549684
189	0x3ce526ac	0.027972542
190	0x3ddd38d8	0.10801858
191	0x3d8a9c09	0.067680426
192	0xbcbe3b96	-0.023221772
193	0x3d6c252c	0.057652637
194	0x3db21bef	0.08696734
195	0x3da36247	0.07977729
196	0xbc9a8b2e	-0.018865194
197	0xbd881f20	-0.066465616
198	0x3d3dcd78	0.04633853
199	0xbc903610	-0.017603904
200	0x3aefa840	0.0018284395
201	0x3e1e76e8	0.15475047
202	0x3e073ed1	0.13207556
203	0x3d6bf29c	0.057604417
204	0xbdb21441	-0.086952694
205	0xbd9f4fdf	-0.07778906
206	0x3d8010ff	0.06253242
207	0xbce6897e	-0.028141733
208	0xbc82caab	-0.01596578
209	0x3e107862	0.14108422
210	0x3e205031	0.1565559
211	0x3dde992d	0.1086906
212	0x3db4b31a	0.088232234
213	0x3d95b5e9	0.07310087
214	0x3db182d6	0.08667533
215	0xbda675ad	-0.081279136
216	0x3d26699f	0.040628072
217	0x3c9909c7	0.01868142
218	0x3d89ddf1	0.06731785
219	0x3db32bc2	0.087485805
220	0x3e0ec6af	0.1394298
221	0x3ba535b7	0.0050418037
222	0x3d16d59c	0.036824808
223	0x3d494c27	0.04914489
224	0xbda2ae3b	-0.07943388
225	0xbcdea7a9	-0.027179556
226	0xbd36e494	-0.044651583
227	0x3d66f644	0.0563872
228	0xbd62dda4	-0.055387154
229	0x3cb0f968	0.021603301
230	0xbdf84b98	-0.12123793
231	0xbc4db5bd	-0.012555537
232	0xbcffc365	-0.031221101
233	0x3e2fe60a	0.17177597
234	0x3da21a9b	0.07915231
235	0xbd672a78	-0.056436986
236	0x3cd527f0	0.02602002
237	0x3ba26846	0.004956278
238	0x3c2ddb72	0.010611402
239	0xbd86d462	-0.065834776
240	0x3a8437b5	0.0010087403
241	0x3d19c015	0.0375367
242	0x3db0d77c	0.086348504
243	0x3c2a7595	0.01040401
244	0xbde39056	-0.11111514
245	0x3d21c517	0.0394946
246	0xbd22dc5b	-0.03976093
247	0xbcde6f12	-0.027152572
248	0xbcf406fe	-0.02978849
249	0xbc4b9631	-0.012425945
250	0x3dc285b8	0.09498161
251	0x3d7729eb	0.06034271
252	0x3dee0718	0.11622447
253	0x3dd5101d	0.10403464
254	0x3d2c37d9	0.042045448
255	0x3d2d5772	0.042319722

fc2.bias f4 [84]
0	0x3af81912	0.001892837
1	0x3da86090	0.08221543
2	0xbcbfb195	-0.023400107
3	0x3dcffbb0	0.101554275
4	0x3dcf9eae	0.101376876
5	0x3deb4f5e	0.114897475
6	0xbc46e483	-0.012139442
7	0xbd4091ad	-0.047013927
8	0xbda1a848	-0.07893425
9	0xbd390f3e	-0.04518055
10	0x3d9bf399	0.07614822
11	0x3da3f2f3	0.08005323
12	0x3c86224c	0.016373776
13	0x3da01fa6	0.078185365
14	0x3cad3cb8	0.021147117
15	0xbd947053	-0.07247987
16	0xbd529afe	-0.051417343
17	0x3dc97662	0.09837033
18	0xbcda3b99	-0.026639747
19	0xbd16d152	-0.036820717
20	0xbcb6f6a8	-0.022334412
21	0xbd566142	-0.052338846
22	0x3d8a89f1	0.067645915
23	0x3d8b910a	0.068147734
24	0xbb2648d1	-0.0025372992
25	0x3d258163	0.040406596
26	0x3de9ac96	0.11409871
27	0xbd066b12	-0.032816954
28	0xbd05e84a	-0.03269223
29	0x3c7efa4c	0.015562605
30	0x3d8b0a9b	0.06789132
31	0xbc1fb0e6	-0.009746766
32	0x3dad27ec	0.0845488
33	0x3c5d2e9c	0.013499882
34	0x3da4913c	0.08035514
35	0xbd95b4a8	-0.07309848
36	0xbd55f648	-0.052236825
37	0x3e049206	0.12946329
38	0xbd87af06	-0.0662518
39	0xbd81e84f	-0.063431375
40	0x3d57a3a0	0.05264628
41	0x3d0ecaf7	0.03486153
42	0x3e03ff16	0.12890276
43	0x3d87c6de	0.06629728
44	0x3dc18b3a	0.094503835
45	0x3d989601	0.07450486
46	0x3d58b7b1	0.052909557
47	0xbda72bb8	-0.081626356
48	0x3ddb9ff8	0.10723871
49	0xbcb145f0	-0.021639794
50	0x3ddbb953	0.10728707
51	0x3ca19941	0.019726397
52	0x3dc3a9eb	0.09553894
53	0xbd79d888	-0.060997516
54	0x3d634bf8	0.05549237
55	0xbdc101cb	-0.0942417
56	0x3d8e15de	0.069377646
57	0xbd371c4a	-0.044704713
58	0x3deef257	0.116673164
59	0x3d3f6049	0.046722684
60	0xbcdaf96c	-0.026730262
61	0xbd01f75d	-0.031730045
62	0x3d15c4e5	0.036564726
63	0x3bc72407	0.006077293
64	0x3da5bf83	0.080931686
65	0xbc4f32de	-0.012646405
66	0xbbcc9b4c	-0.006244099
67	0x3d9c6bd8	0.07637757
68	0x3dc098ec	0.094041675
69	0x3e0cda7e	0.13755223
70	0x3cc4b024	0.024009772
71	0x3d4cf63f	0.050039526
72	0xbdd80b73	-0.10549059
73	0xbc207833	-0.009794283
74	0x3dbcd4d9	0.09220285
75	0xbcbad2be	-0.022805568
76	0xbd42be51	-0.04754478
77	0xbd7bf689	-0.06151441
78	0xbd809d50	-0.06280005
79	0x3de28bed	0.11061845
80	0xbb8ea6c9	-0.0043533784
81	0xbd442d14	-0.047894552
82	0xbd24869b	-0.040167432
83	0xbd4f9c85	-0.050686378

fc3.weight f4 [10, 84]
0	0xbe0cb205	-0.13739784
1	0x3d220466	0.039554976
2	0xbdab35dd	-0.08359883
3	0xbdac96a9	-0.08427174
4	0x3dac0c85	0.084008254
5	0xbe0291c9	-0.12750925
6	0x3d51be41	0.05120683
7	0x3c982954	0.018574394
8	0xbc0604fe	-0.008179901
9	0x3b7c4f8c	0.0038499562
10	0xbdc114df	-0.09427809
11	0x3ce087ea	0.027408559
12	0x3e1fb8a7	0.15597783
13	0x3e032b54	0.12809497
14	0xbe145d5f	-0.14488743
15	0x3cacdf77	0.02110265
16	0xbd8212ca	-0.0635124
17	0xbd070e11	-0.0329724
18	0xbdae1609	-0.085002966
19	0xbb2e6b54	-0.0026614266
20	0x3dcc0861	0.09962536
21	0xbd048c6a	-0.03236047
22	0x3c09b46a	0.0084048305
23	0xbd4d67b1	-0.050147716
24	0x3db585f7	0.088634424
25	0xbe33cd27	-0.17558728
26	0xbe185112	-0.14874676
27	0xbe258cbd	-0.16166969
28	0xbe2694db	-0.16267721
29	0xbe5d4ed4	-0.21612102
30	0x3e00a94e	0.12564585
31	0x3d7c9973	0.061669778
32	0xbe074755	-0.13210805
33	0x3e0a0767	0.13479386
34	0x3da22068	0.07916337
35	0xbdded778	-0.10880941
36	0xbd91026a	-0.070805386
37	0xbe620784	-0.2207318
38	0xbe3a7625	-0.18209131
39	0xbe3f9470	-0.18708968
40	0xbd30147a	-0.042988278
41	0xbcbf5bb6	-0.02335916
42	0xbe5fac01	-0.21842958
43	0xbdf8df63	-0.12151983
44	0xbe0d2f66	-0.13787612
45	0xbd7f19c6	-0.06228044
46	0x3d1eb2b1	0.038744632
47	0x3d39e6ba	0.045386054
48	0x38acd761	8.2417166e-05
49	0x3df10408	0.11768347
50	0xbe521fb3	-0.20519905
51	0x3bdf65c0	0.0068175495
52	0xbe0ea245	-0.13929088
53	0xbdc8650d	-0.09784899
54	0xbe57df06	-0.2108117
55	0xbda6826f	-0.08130347
56	0xbe366be6	-0.17814597
57	0x3e07acfe	0.13249585
58	0x3e00fe3e	0.12596986
59	0xbdb7b77d	-0.089705445
60	0x3dc2ac29	0.09505493
61	0xbd90dbe7	-0.07073193
62	0x3d4e4806	0.050361656
63	0x3c07ca05	0.008287911
64	0xbddb26c0	-0.1070075
65	0xbe148dc1	-0.145072
66	0xbd8127a4	-0.06306389
67	0x3d017732	0.031607814
68	0xbde6a193	-0.112612866
69	0xbe01aab4	-0.12662774
70	0xbdc31832	-0.09526099
71	0x3dc77bc6	0.09740405
72	0xbc8097f5	-0.015697459
73	0xbc8808a2	-0.016605679
74	0x3de0a51d	0.10968993
75	0xbc8dc5ad	-0.017306173
76	0xbe1c5788	-0.15267766
77	0x3ce0e4d1	0.027452858
78	0xbd344f66	-0.044021033
79	0x3da28916	0.07936303
80	0x3e1571ff	0.14594267
81	0xbe2006be	-0.15627572
82	0xbda80492	-0.08203997
83	0xbdf0603f	-0.117371075
84	0x3e01caad	0.12674971
85	0xbded00f5	-0.11572448
86	0xbd80593f	-0.06267022
87	0xbe58339f	-0.21113442
88	0xbe7047c0	-0.2346487
89	0xbdf8bcaa	-0.1214536
90	0x3e01a303	0.1265984
91	0x3d99ae3a	0.07503934
92	0x3ce6a1b0	0.02815327
93	0x3e33b84c	0.17550772
94	0xbdb28fbd	-0.08718822
95	0x3befb535	0.0073153027
96	0x3df16a3e	0.11787842
97	0xbe3169c1	-0.17325498
98	0x3da4c114	0.08044639
99	0xbe7d5691	-0.24740054
100	0xbe038310	-0.12842965
101	0x3bebecaf	0.0071998457
102	0xbe332371	-0.17493989
103	0xbe0b8ee8	-0.13628733
104	0xbd1ef91f	-0.0388118
105	0xbdc75a33	-0.09734001
106	0xbe30ddf6	-0.17272171
107	0x3d36b7b3	0.044608783
108	0xbc9c20f1	-0.019058676
109	0xbb749f84	-0.0037326524
110	0xbd300121	-0.042969827
111	0xbd16a366	-0.036776923
112	0xbdbd455b	-0.09241744
113	0xbe2a9c67	-0.16661225
114	0xbe33f74a	-0.17574802
115	0xbdacb50d	-0.0843297
116	0xbe78ba38	-0.24289787
117	0xbe39bb9c	-0.18137974
118	0xbbb91a05	-0.0056488537
119	0x3d06910f	0.032853182
120	0xbde18914	-0.11012474
121	0x3dc083fd	0.09400175
122	0xbdfa3608	-0.12217337
123	0xbe485e87	-0.1956731
124	0x3e08b41e	0.13349959
125	0x3dbc7505	0.09202007
126	0x3dc6b118	0.09701747
127	0xbda914ea	-0.08255942
128	0xbd97ed66	-0.07418327
129	0xbdf5d378	-0.12003225
130	0x3cd56243	0.026047831
131	0xbdf7cf82	-0.12100126
132	0x3e408ce1	0.18803741
133	0xbe255e6c	-0.161493
134	0x3e02e317	0.1278194
135	0xbd764a7a	-0.06012962
136	0x3c513852	0.012769775
137	0xbde642ff	-0.11243247
138	0x3d54ad75	0.051923234
139	0xbe31d5ed	-0.17366762
140	0x3dea727b	0.11447617
141	0xbdc129cc	-0.094318
142	0x3d5bf2a7	0.05369821
143	0xbe43b130	-0.1911056
144	0x3df50591	0.11963952
145	0xbdf613fc	-0.120155305
146	0xbd22c86d	-0.039741922
147	0xbe222ec5	-0.15838154
148	0x3e1b2d4c	0.15153998
149	0x3d53dc6f	0.051723894
150	0xbe4693a7	-0.19392262
151	0x3e0a0cc0	0.13481426
152	0x3e114ac0	0.14188671
153	0xbd1936f2	-0.037405916
154	0x3dfbef02	0.123014465
155	0x3cce59f0	0.02518937
156	0x3d715edc	0.058928356
157	0x3dd9eeaa	0.10641225
158	0xbd2b6942	-0.04184843
159	0xbdbd0489	-0.09229381
160	0x3dd1220b	0.10211571
161	0x3c21092b	0.009828846
162	0xbe0a4441	-0.135026
163	0xbe0d53d4	-0.13801509
164	0xbd4ea7d9	-0.05045304
165	0x3db7c4f3	0.08973112
166	0xbe479814	-0.19491607
167	0x3d22f571	0.039784852
168	0xbba49e7c	-0.0050237756
169	0x3da2e522	0.0795386
170	0x3c8ba3cd	0.01704588
171	0x3e08df12	0.13366345
172	0xbd90afe9	-0.07064802
173	0x3b1a9751	0.0023588727
174	0x3c6727df	0.014108627
175	0x3d846bfc	0.06465909
176	0xbd0bc5ad	-0.034124065
177	0x3d8136e0	0.06309295
178	0xbe0581ea	-0.1303784
179	0xbe1887a4	-0.14895493
180	0x3dafa3c6	0.08576159
181	0x3c1a8ecc	0.0094334595
182	0xbd9159f1	-0.07097233
183	0xbd035d08	-0.032071143
184	0xbe05bd61	-0.13060524
185	0xbd04a819	-0.032386873
186	0x3d068d8f	0.032849845
187	0xbe3008d1	-0.17190863
188	0xbe3a935a	-0.18220273
189	0x3d0682c6	0.03283956
190	0xbd812c2b	-0.063072525
191	0x3d1b3901	0.03789616
192	0x3d01d059	0.031692836
193	0xbdc0196e	-0.0937985
194	0xbe017795	-0.12643273
195	0xbd0ccbe3	-0.03437413
196	0x3db6718d	0.08908377
197	0xbe560176	-0.20898995
198	0x3d5acceb	0.05341808
199	0xbd3d2162	-0.046174414
200	0xbd693f33	-0.056945037
201	0x3d026cfd	0.03184222
202	0xbdb8cc62	-0.09023358
203	0x3ddbc312	0.10730566
204	0x3d932536	0.07184832
205	0x3c7ecf47	0.015552348
206	0xbdb4b16d	-0.08822904
207	0xbe0479b9	-0.12937059
208	0x3dd2a26f	0.10284888
209	0xbcf5dbb2	-0.030011985
210	0xbd7d8f85	-0.06190445
211	0x3e292007	0.16516124
212	0xbe2bd11c	-0.16778988
213	0xbcb1e495	-0.021715442
214	0x3cdd7416	0.027032893
215	0xbd8d00e6	-0.06884937
216	0xbe798afe	-0.24369428
217	0x3de1f32d	0.1103271
218	0x3bee73ed	0.007277003
219	0x3dfa6730	0.12226713
220	0xbd86e78a	-0.06587131
221	0xbe09fd19	-0.13475455
222	0xbe3dcd24	-0.18535286
223	0xbd5e6884	-0.054298893
224	0xbde0c6bc	-0.109754056
225	0x3d3c76f5	0.046011884
226	0xbe05d584	-0.13069731
227	0x3cbc4d51	0.022986086
228	0xbd3048db	-0.04303823
229	0xbe654199	-0.22388305
230	0x3e0b8940	0.13626575
231	0x3d1b74a9	0.037953053
232	0x3d473805	0.04863741
233	0x3dc442f0	0.0958308
234	0x3d599331	0.05311889
235	0x3c8bcb31	0.017064663
236	0x3dfd1086	0.12356667
237	0xbe3bd392	-0.18342426
238	0x3bc121ca	0.0058939205
239	0xbd86c84b	-0.065811716
240	0xbd35335e	-0.04423844
241	0xbdb8a8bf	-0.09016561
242	0xbe06e837	-0.1317452
243	0x3d7450e7	0.059647467
244	0xbd10b4c6	-0.03532865
245	0xbe33cf53	-0.17559557
246	0x3bedb4b0	0.0072542056
247	0xbc4edffb	-0.012626643
248	0xbda25cac	-0.07927832
249	0xbe8b609d	-0.27222148
250	0xbdf14e3d	-0.11782501
251	0x3dd47c7c	0.10375306
252	0xbdb63a53	-0.08897843
253	0xbd8548a6	-0.06507997
254	0x3daadba3	0.08342674
255	0xbd6cc2ec	-0.05780308

fc3.bias f4 [10]
0	0x3cfbde71	0.030745717
1	0xbd3031c9	-0.04301623
2	0xbe075e7c	-0.13219637
3	0x3b532563	0.003221833
4	0xbda733aa	-0.08164151
5	0xbd7b9564	-0.061421767
6	0xbdc8e26b	-0.09808811
7	0x3c6fd78d	0.014638794
8	0xbd784d92	-0.06062085
9	0x3c658364	0.014008377
