models/client-3-2.pth (torch, 181282 bytes, 10 tensors)

conv1.weight f4 [6, 1, 5, 5]
00000000: 06e7 f63d 3e28 fbbd 0cda 5b3d 0133 893d
00000010: 9d5c 533e 031b a5bd 82bd 8c3e bb71 47bc
00000020: 078f 733e 53f2 fe3a 0cbe aebd 6768 0b3e
00000030: e5d4 823e c3ce ac3e a28e 533e d654 de3c
00000040: 90e3 9c3e 3859 803e 5731 6f3e 823d 143d
00000050: 4b9b 153e a44a 7c3e 8182 21bd 3d16 03be
00000060: fb4a 463e fc97 7bbe b194 81be 7058 41be
00000070: 56ad dbbd cfc7 833e bb67 40be 24a3 09be
00000080: 4107 d0bd 5047 023d 91fe 6d3e c8a4 7cbe
00000090: c814 0abe f20c 28be 5e8b 283e 2a0c c53d
000000a0: 56f9 9cbd a109 0ebe 5aba 663c 3915 e83b
000000b0: 2c03 e43d 0b7d 473d ddb3 c4bd 82f8 ecbc
000000c0: 895a 513e 9c4b e03d c579 6b3d 466c 6a3e
000000d0: b117 a83e 8088 3dbc 1e6f ad3d 400c bc3d
000000e0: 1bea a43e eaf5 003e d4c6 bf3d 88d8 623e
000000f0: ab28 8d3b bc7b 893e df73 423e 8f08 753c
00000100: 9205 973e c6c1 16be c01c 4b3e 6d9e d83d
00000110: 1777 0fbe be11 183d d28d 903d 5a87 a4bd
00000120: ff95 febd c173 86be 846d 44bd 0ee5 0e3d
00000130: 6e01 fbbd d5fc e73c 6bc1 ae3d fd95 c93d
00000140: 913c 013c 85ca 943d 1139 123e 7482 333e
00000150: f08b ab3e 152b 1c3d 75dc 8a3e caa8 be3e
00000160: 7d49 1e3e 8c1a a13e 8184 253e af09 293e
00000170: af62 7e3e 1676 863e 8010 383e e111 eabc
00000180: 2ff3 29be dddd 7f3e 5c6d 833e a53a 383e
00000190: 9a12 46be a565 313e 541d 503d 172c bd3e
000001a0: 450f 503e bfed 7fbe 257b d3bd 0614 ff3c
000001b0: 64d8 b33e 37a1 a73d f5c0 91bd b35c aa3e
000001c0: 2f1c b73e 9ec7 e93d 6e29 883e 18a7 613e
000001d0: 9f31 5d3e 1710 663e f7fa 483e 08f8 5d3d
000001e0: cb72 83bd 645f 563e 096e 543e 7bd2 873e
000001f0: 94ac b2bd 867c 8c3e 8a3d 6c3e d1e3 053e
00000200: 8364 463e 6918 59bd 902a cb3d 0720 c83e
00000210: 0fb5 de3e e8df 4c3e ccd3 803e caf0 e53d
00000220: b9fa 983d 673f 2e3e 30de 693e b8fc 733e
00000230: a84a a1be e6cd 98be 10e5 86be c0a3 d13c
00000240: dc5c a7bb 583e babe fbb1 b6be e67f 88be
00000250: f2be adbd 5f7c 24be
0.12055783 -0.12263535 0.053674743 0.06699181 0.20640798 -0.08061793 0.27488333 -0.012173112
0.2378503 0.001945088 -0.08532342 0.13614045 0.2555305 0.33751497 0.20659879 0.027140062
0.30642366 0.25068069 0.23358665 0.03619147 0.14610021 0.24637848 -0.0394311 -0.12801452
0.1936454 -0.24569696 -0.25308755 -0.18881392 -0.107264206 0.2573838 -0.1878957 -0.1344114
-0.101576336 0.03180629 0.2324164 -0.24672234 -0.1348449 -0.16411188 0.16459414 0.09621461
-0.076647446 -0.1387086 0.014082516 0.007082608 0.111334175 0.048703235 -0.09604619 -0.028927092
0.20444693 0.10951921 0.057489175 0.22892866 0.32830575 -0.011568189 0.084684595 0.09182024
0.32209858 0.12593809 0.09364095 0.22152913 0.0043078265 0.26852214 0.18989514 0.014955654
0.29496437 -0.14722356 0.19835186 0.10577092 -0.14010273 0.037126295 0.070583 -0.08033629
-0.12430953 -0.26260188 -0.047956005 0.034886412 -0.12256132 0.028318802 0.08532985 0.09843061
0.007887975 0.0726519 0.14279582 0.17530233 0.335052 0.038127024 0.2712132 0.3723815
0.15457721 0.31465566 0.16163827 0.165076 0.24842332 0.26261967 0.17975044 -0.028572978
-0.16596673 0.24986978 0.25669372 0.17991121 -0.19343033 0.1732393 0.05080922 0.369477
0.20318325 -0.24993037 -0.10326222 0.031137478 0.3512603 0.08185046 -0.07116882 0.3327385
0.3576369 0.11415027 0.26594108 0.22036397 0.2160096 0.22467075 0.19626985 0.05419162
-0.064183794 0.20934826 0.207451 0.2652777 -0.08724323 0.27438754 0.2307035 0.13075186
0.1937428 -0.053001795 0.099202275 0.39086935 0.43497512 0.20007288 0.25161588 0.112275675
0.074696966 0.17016374 0.22838664 0.23826873 -0.3150227 -0.29844588 -0.26346636 0.025590777
-0.0051075052 -0.3637569 -0.35682663 -0.2666008 -0.084836856 -0.16063069

conv1.bias f4 [6]
00000000: 5ea7 02bd c5a3 813e 2d1e 923b e32e 78bc
00000010: ba6f 9d3c 162c 4b3e
-0.031897895 0.2532026 0.0044591636 -0.015147897 0.019218314 0.19841036

conv2.weight f4 [16, 6, 5, 5]
00000000: 670e 693d dc74 1fbd 3110 42be 27c8 2cbd
00000010: b393 c83d 8f5d 66bd be16 23be c0da 7fbd
00000020: 5720 e43d 10ef 003e 2a92 2039 09bd c8bd
00000030: 597b 723d 6ae0 dc3d 5ab2 b03c cee5 df3d
00000040: ae97 bd3d a972 e73d cd5e ee3d 7b8f 81bd
00000050: 80b4 6e3c 19e7 033e a99a 873d aaa6 983c
00000060: 32e6 b23c b576 06bc 0062 6d3a cb42 24bd
00000070: aa6c 313e 389a 013d 5ea6 013d ae45 703c
00000080: b9f4 cf3d ca54 4b3e 4ab8 293d 6895 26bb
00000090: 3522 453d 634c d2b9 1db7 0f3e 376e 8cbd
000000a0: 2cda 9abd 43f1 03bd 2532 7d3d ff7e 16bc
000000b0: 7083 bebd 1bd5 c7bc 03da 7fbc 2d9c fcbc
000000c0: d43a 45bd 9d5d c5bd 691b 88bd 8690 2dbd
000000d0: 85e6 c5bd 54eb f0bc 7d3c c63c ef03 94bd
000000e0: 0b16 7dbb 05ce dabd b920 4e3c 7cd7 fc3c
000000f0: 1a9c 1a3d a4c0 99bd e9a5 6cbd a305 c2bc
00000100: 80ce 6c3d 1c3d 84bd 0154 ee3c 927b 35bc
00000110: d155 b63d f4d2 02bb 1b7a 623d 6634 c13d
00000120: 0b39 043d 7cbc 5a3d a40c 563d 3e4b 7c3d
00000130: ca20 ea3b a1c0 edbd 1bcb 8d3d 4e5a c83d
00000140: 0f57 ffbd 9b95 95bd 0662 8dbd 5240 053e
00000150: 9e73 763d c31d ee3b a127 673b 726c a43d
00000160: cd4d 1c3e 8579 0dbd 6e7b 663d 6ae2 c63d
00000170: ba19 9bbc 2485 763d 3d74 94bd 490a d03d
00000180: b13b 273d cf1f acbc 80f7 253d 6a78 e4bd
00000190: f1f3 783d 866a 0a3d e6f0 0fbe 6552 173d
000001a0: d737 d33c df91 73bd a290 53bd f10d babd
000001b0: 43d5 d33d eddb c53d b824 84bd ca7a 81bc
000001c0: ed39 773d a5c7 863d b2db e63d c03e 913d
000001d0: 9c7f c03d b8ef 0e3e a861 833c 97bb 1bbd
000001e0: a739 793d e629 c63d 02b7 7c3d 7298 b03b
000001f0: 1c52 8ebd ff7a a23d fb87 a53d 85b7 3abd
00000200: 2ddd 31bc 20db f4bd fa64 d3bd d21f b3bd
00000210: 4eda cbbd dda9 02be 2830 c4bd ea1b c43c
00000220: 3283 f6bd ba74 25be 1337 78bd b065 b4bd
00000230: 5b7c 8a3c 0be2 83bd dcae d5bd e4b0 79ba
00000240: fc47 9abc 6696 9bbd 2a2b bc3c f1d7 58bd
00000250: 1db1 f23c 5e48 b8bd 2431 cfbd dca2 5cbd
00000260: 6752 efbd 8b41 53bc 0ed0 85bd c655 afbd
00000270: f402 07be b091 e3bd 11af d33d 4522 cfbb
00000280: f2ff c9bd 1a0d 20bd b27c 793d bfc7 9a3d
00000290: 3cc7 0a3d 75e8 69bd c9f7 823d 08da 7b3d
000002a0: 55e3 07bd 7546 183d 0f8f 22bc 593e f63c
000002b0: 71b3 79bd 97bd 12be 02a0 3fbe a627 80bc
000002c0: b9a8 71bb 21e6 aa3c cf81 193d dd62 c7bd
000002d0: 698f cabd c784 9dbd d66a a5bd 91af 34bd
000002e0: ef14 893d 12cb 213d 6660 603d 08f3 c7bd
000002f0: 16e7 01bd a5f0 d1bd 829a 1b3b 46d8 dabc
00000300: 560f aebc f983 323a 70d6 9ebd ef53 bd3c
00000310: a347 0d3c 4651 7abd e139 aebc 485e e3bd
00000320: 74dc 46bc 6122 bcbd 21af 873c f871 093d
00000330: f2f2 953d 574c 12bc e79e d7bd dbec 81bd
00000340: 365e a3bc 761d 63bd 70b2 01bd 4509 80bd
00000350: 4566 b93c 1ac3 203d b24a 973d 93f9 05bc
00000360: 8a19 443d 488c b23d 6194 853d 12cb dc3d
00000370: ce1e 59bd 876e b93d c8a7 4e3d 7efe 8c3d
00000380: 291f babd a296 8cbc 3086 9bbd dd0a cbbc
00000390: 51e9 aabd 8e84 9f3d 0fef 4bbd 47ef 04be
000003a0: 7871 98bd 46d2 37bd b89d 193d 95de 18bd
000003b0: 7b1b a13d 98e6 85bb e376 f53d 9199 fc3d
000003c0: a3f8 593d 10c0 953d a296 013e 0c1d 433c
000003d0: c93f de3b 768f 85bd 605e c53d c0bd 863d
000003e0: 0969 24be b47e 46be b7d9 d7bc d49c d4bd
000003f0: 6ac1 9cbd 9084 1abd 3706 0e3d 54c7 e5bc
0.0568985 -0.038929805 -0.18951489 -0.042183068 0.097937964 -0.05624157 -0.15926644 -0.062464476
0.11138981 0.12591195 0.0001531324 -0.098016806 0.059199665 0.10784991 0.02156942 0.10932504
0.09257446 0.113011666 0.116391756 -0.06326195 0.014569402 0.12881126 0.06621296 0.01863416
0.021838281 -0.008207013 0.00090554357 -0.04010276 0.17326608 0.031641215 0.0316528 0.01466505
0.10154099 0.19856563 0.041435517 -0.0025418643 0.048128325 -0.00040111234 0.14034696 -0.06856959
-0.07561144 -0.032212507 0.0618154 -0.009185552 -0.093024135 -0.024393609 -0.015615943 -0.03083619
-0.048151806 -0.09636996 -0.06645853 -0.042374156 -0.09663109 -0.029409088 0.024198765 -0.07227313
-0.0038617875 -0.10683826 0.012581044 0.03086447 0.037746526 -0.075074464 -0.05777541 -0.023684328
0.05781412 -0.06456968 0.02909279 -0.011076825 0.08903087 -0.0019962164 0.05529223 0.09433822
0.032280963 0.05340241 0.05225815 0.061595194 0.007145022 -0.11609007 0.06923505 0.09782849
-0.12467777 -0.073039256 -0.06903462 0.13012818 0.060168855 0.0072667315 0.0035271423 0.08028497
0.15264054 -0.03453972 0.056270055 0.09711154 -0.018933166 0.060185567 -0.07248733 0.10158212
0.04082841 -0.021011261 0.040519238 -0.1115578 0.060779516 0.033792995 -0.14056739 0.036943812
0.025783462 -0.059465285 -0.051651604 -0.0908469 0.10343411 0.09661088 -0.06452316 -0.01580562
0.060357977 0.06581048 0.11272372 0.07092047 0.093993396 0.13958633 0.016037777 -0.038020696
0.060845997 0.0967596 0.061697967 0.0053892666 -0.06949255 0.07933616 0.08082577 -0.045585174
-0.010855955 -0.11955857 -0.10321994 -0.087463036 -0.09953748 -0.1276011 -0.095794976 0.023939092
-0.12036742 -0.16157809 -0.060599398 -0.08808458 0.016905 -0.06439599 -0.104337424 -0.0009524955
-0.018833153 -0.075970456 0.022969801 -0.052940313 0.02962547 -0.08998178 -0.10116795 -0.053866252
-0.11685639 -0.012894045 -0.06533824 -0.08561282 -0.1318472 -0.11111772 0.10336126 -0.006321224
-0.09863271 -0.039074995 0.060909934 0.0755763 0.03388141 -0.057106454 0.063949175 0.061487228
-0.033175785 0.037176568 -0.009921803 0.030059027 -0.060962144 -0.14330135 -0.18713382 -0.015643906
-0.0036874248 0.020861687 0.03747731 -0.097356535 -0.098906346 -0.07691341 -0.08077018 -0.044112746
0.06693446 0.039500304 0.054779433 -0.097631514 -0.03171452 -0.102509774 0.0023743217 -0.026714455
-0.021247547 0.00068098266 -0.077557445 0.023111312 0.008623037 -0.061112665 -0.021267833 -0.11101967
-0.012137521 -0.09186245 0.016563 0.033555955 0.07321729 -0.008929334 -0.10528355 -0.06344005
-0.019942384 -0.055448018 -0.031664312 -0.06251768 0.022631774 0.039248563 0.07387294 -0.008177179
0.04787592 0.08718163 0.06522442 0.1078092 -0.053007893 0.090542845 0.050452977 0.06884478
-0.090879746 -0.017161671 -0.075939536 -0.024785453 -0.08345283 0.07788955 -0.04978853 -0.12981902
-0.074435174 -0.044878267 0.037503928 -0.037321646 0.078665696 -0.004086327 0.119855665 0.12333978
0.053215634 0.07312024 0.12655118 0.011908781 0.006782506 -0.065215036 0.09637141 0.06579161
-0.16055693 -0.19384271 -0.026348932 -0.10381475 -0.07654078 -0.037724078 0.034673896 -0.028049149

conv2.bias f4 [16]
00000000: e748 70bc d385 b0bb 6b0c 4fbd 615c 2d3b
00000010: fd48 f1bc 6259 24bd e431 c33b a7e4 57bd
00000020: c8c6 963c c7dc efbc 2980 5f3d e77c 183b
00000030: ebd5 4bbd 0f4d 98bd 302a 643c fe20 c73c
-0.014665819 -0.005387047 -0.050548952 0.0026452767 -0.029453749 -0.040124305 0.005956875 -0.052708294
0.018405333 -0.02928008 0.054565582 0.0023267807 -0.049764555 -0.07436573 0.013926074 0.024307724

fc1.weight f4 [120, 256]
00000000: 119d 8a3b 7e0d 73bd 6a9c 8abc 9d0a 913c
00000010: 8d30 85bd 01d2 01bd 2729 39bd 6c06 ceba
00000020: 7ba4 8abd 2854 29bd fc5e 153a 0be5 623d
00000030: 75b1 443d e01b 0fbd 102e 643d b6e4 81bd
00000040: c01b 47bd 5a77 cf3b 5853 773a 34a8 3fbc
00000050: 2400 fabc 2461 f7bc 4ab3 1f3d aac9 72bd
00000060: d210 30bc 357b 483d a097 53bd 2ec9 163d
00000070: 8eef 7439 3ca3 6d3b 7e19 613c 9a14 5a3c
00000080: a836 633d 8c28 42bd 0098 2c38 c206 5cbc
00000090: 8ae0 643d 1af6 4ebd a654 383c bc45 5bbd
000000a0: f21c 65bd 8873 3bbd 6c3a 3b3c 2d2f 89bd
000000b0: e8e9 a73c fff6 f9bc 7887 adbc 167c c13c
000000c0: 1d48 04bd b0a1 6ebd bea1 efbc 24f1 4f3d
000000d0: 0400 79bb 297c a5bb 86d5 4dbd 228c fdbc
000000e0: ef5b 07bb ea5f 853c c2d9 eebc 07ee bf3c
000000f0: 56c2 04bc a886 8dbc 1a0b d2ba b28f 373d
00000100: df77 19bc c2c2 32bd 581f 473d 2c57 67bd
00000110: 3d61 143d 66c1 eebc 8004 d93c 4491 ed3a
00000120: 1c0e 50bc 52cc b9bc 2080 633c 4c13 5f3c
00000130: adfa 9fbc a66d bc3c c28c 503d 5c69 7cbd
00000140: 33c0 26bc 88ef efbc f8fa 5d3d e064 70bd
00000150: 682d 82b9 aa6b 693c 8c6d 4cbd f479 0f3c
00000160: d3d5 39bd 2c31 9fbc 08ca fc3c 0c50 86bd
00000170: 5e9f cb3b 409d d23c c71b f43c d572 0a3d
00000180: 6476 033c 5a22 43bd 4837 66bd fd17 9d3c
00000190: 7cab 20bc 0123 7abd 4aec 073c 4616 68bd
000001a0: 2e84 e2bc 12e8 f0bc 5a8a 7dbd 9488 473d
000001b0: 7136 d9bc 5bf7 84bd c931 443d 0800 f0bc
000001c0: c026 203c 1bf7 1fbd 3690 0c3d 48df d6bc
000001d0: 360b b43b 264d 113d b48f c13b f630 233d
000001e0: 5ca5 48bb 0623 e73c 1e70 203c 8630 11bd
000001f0: 97e1 0dbc f166 18bd 8f2f 353d b88d 4dbd
00000200: 3ae5 393c 6245 e53c fafb 91bb be56 ce3b
00000210: 3fcb 043d 1459 c23c 6691 4cbd 08c8 493d
00000220: c1d8 9dbc dc0b 2f3d 206c 50bc 8afd 063d
00000230: 750e d2bb c619 27bd 3ba3 edbc 922a 47bd
00000240: 88f5 e2bc 6f3e 863c 95fe 04bd f0a1 5a3a
00000250: 5614 ec3b 2096 e23c 486a a53c bd01 053d
00000260: 23bd 6bbc b376 c7bc f543 423d 62c1 bbbb
00000270: e253 bebc 5b41 5abd 2811 673d a313 123d
00000280: 440a b73c 160f 273d 9f1f ba3b 82ce 083d
00000290: f2a8 283d f8f1 47bd 8e05 febc 9c08 d7bc
000002a0: 733a 55bd fce8 d3bc b0d5 833c 59eb 91bc
000002b0: 9da3 013d e60f 2e3d aaba 59bc ee8f 513d
000002c0: 7e21 dfbb a8ec 7639 24d6 27bd ac10 d9bc
000002d0: 7e80 df3a c016 b93c c0f1 1abd 32cc 283d
000002e0: d1a4 72bd e0e9 373d 2c46 ccbc 7c5f 40bd
000002f0: 67b4 5ebd 8c13 d5bc 06aa 2d3d fee9 b73b
00000300: 7055 b1bc 9ad3 bebb b773 0a3c 3667 a5bc
00000310: 38a8 7dbc 3104 89bd 347a 14bc 0a09 1bbc
00000320: dc97 423d 612b 82bc ccab 51ba ef28 713c
00000330: e035 e03c 225e 243c c553 1f3d 3c47 223d
00000340: 565b 44bd 16d0 b8bb cb32 dfbc 1a28 bebc
00000350: 674f 4fbd eaa6 463d 58e7 75bd 20dc ccbb
00000360: 160c 553d a456 28bd 0212 363d 5ecb 0abd
00000370: f8a0 7d3c a05b e03c c852 b9bc 8299 3d3c
00000380: ca54 2f3d 5455 60bc 9b99 da3c 20fa 493d
00000390: df5c eb37 a900 02bd 5950 573c a5de 8bbb
000003a0: 1684 013d 746a b53c ac25 06bd cb3c 89bd
000003b0: b3b2 85bd d8eb bebb 0cbc cabb 5984 a53c
000003c0: f121 d4bc 06a3 05bd ccab 753c 5933 17bd
000003d0: 96c8 2d3d cade 74bd d0d8 1bbc 93f0 183c
000003e0: 5fe7 7939 903c e23b e9d9 89bd 4d9d e83c
000003f0: c40f e3bc 5054 0fbc 2ea4 b4bc e147 37bd
0.0042301496 -0.05933904 -0.016920287 0.017705256 -0.06503401 -0.031694416 -0.04520526 -0.0015718467
-0.067696534 -0.041340023 0.00056980527 0.055394214 0.0480208 -0.034938693 0.05570799 -0.06342451
-0.04861045 0.0063313665 0.00094347214 -0.011697818 -0.030517645 -0.030197687 0.038989343 -0.059274353
-0.010746198 0.048945624 -0.051658273 0.036812954 0.00023358894 0.0036260625 0.013738988 0.013310576
0.055472046 -0.04740195 4.1149557e-05 -0.013429346 0.0558782 -0.05052767 0.0112506505 -0.0535333
-0.055935808 -0.045764476 0.011427503 -0.06698451 0.020497277 -0.030513285 -0.02118276 0.02361874
-0.032295335 -0.058259666 -0.02925193 0.05076708 -0.0037994394 -0.0050502014 -0.05025246 -0.03095061
-0.0020654162 0.016281087 -0.02915657 0.02342893 -0.008102974 -0.017276123 -0.0016025037 0.044814773
-0.009366958 -0.043642767 0.048613876 -0.056479618 0.036225546 -0.029144954 0.026491404 0.0018124958
-0.012698676 -0.022680435 0.013885528 0.013615441 -0.019528711 0.023001503 0.050915487 -0.061623916
-0.01017766 -0.029289022 0.05419442 -0.058689952 -0.00024829363 0.0142468605 -0.04990916 0.008757103
-0.045369934 -0.019432627 0.030858055 -0.065582365 0.0062140664 0.025709748 0.029798402 0.03380092
0.008023832 -0.047640182 -0.056205064 0.019176478 -0.00980651 -0.06106854 0.008296082 -0.056661867
-0.027650919 -0.029407535 -0.06189952 0.048714235 -0.026515217 -0.06492492 0.04789904 -0.02929689
0.009774864 -0.039054018 0.034317218 -0.026229516 0.0054945005 0.035473965 0.0059070233 0.039841615
-0.003061614 0.028214943 0.009792356 -0.035446666 -0.008659742 -0.037207548 0.04423481 -0.05018398
0.011346156 0.027987186 -0.004455087 0.0062969616 0.032420393 0.023724116 -0.04994335 0.04926303
-0.019268395 0.04273592 -0.0127210915 0.032956637 -0.006410415 -0.040796064 -0.029008498 -0.048624583
-0.027704969 0.016387193 -0.03246935 0.00083401706 0.0072045727 0.027659476 0.02019228 0.03247236
-0.014388355 -0.024348592 0.04742809 -0.00572984 -0.023233358 -0.053284984 0.056412846 0.03566326
0.022343762 0.04078587 0.005680039 0.033400066 0.041176744 -0.048814744 -0.031008508 -0.026249222
-0.052057695 -0.025867932 0.016093105 -0.017812418 0.031650174 0.04249563 -0.013289133 0.051162653
-0.0068094125 0.0002354855 -0.040975705 -0.026497208 0.0017051843 0.022593856 -0.037828207 0.04121036
-0.059239212 0.044900775 -0.024935804 -0.04696606 -0.054371264 -0.026010297 0.042398475 0.005612611
-0.021647185 -0.0058235647 0.00845044 -0.020190816 -0.015482001 -0.066902526 -0.009062339 -0.009462604
0.047508106 -0.015889825 -0.0007998317 0.014719232 0.02736944 0.010032209 0.03889825 0.039618716
-0.047938667 -0.00564004 -0.0272459 -0.023212481 -0.050612833 0.048499025 -0.06003508 -0.006251827
0.05201348 -0.041098252 0.044450767 -0.033885352 0.0154802725 0.02738744 -0.022622481 0.011572244
0.04280547 -0.013692219 0.026684573 0.049310803 2.805743e-05 -0.03173891 0.013141715 -0.0042684847
0.031620108 0.022145487 -0.03275077 -0.067010485 -0.06528225 -0.0058264546 -0.0061869677 0.02020471
-0.02589509 -0.032626174 0.014994573 -0.036914203 0.04242762 -0.05978278 -0.009512141 0.009334701
0.00023832683 0.0069041923 -0.06731016 0.02839532 -0.027717479 -0.008748129 -0.022050943 -0.044746283

fc1.bias f4 [120]
00000000: 840e 3039 eaa3 69bd b158 80bd 48f3 a93d
00000010: 7100 5e3d ab5c c5bc 8969 e93c f722 a5bc
00000020: 3e56 a73b d69f 943d d6bb b93d 250c 1e3d
00000030: 9bdb 893d 62d6 33bb 649b aabc 5d44 3abd
00000040: 9f64 22bd a080 58bc 5889 e4bc bccb 3a3d
00000050: d558 163d 84ae b13d 4a34 8abd dacd 483d
00000060: 1b6f d23c f793 1b3d e3e3 7c3d 7023 243c
00000070: 3c98 123d 45da b93c cefc 913d 6777 50bc
00000080: 12c8 583b 777b 07bd 38da f0bc 216d 13bd
00000090: ab89 033c 3a07 903c 5f14 32bb e04a dcba
000000a0: 9c03 843d 9d3c 68bd 4382 a8bb 6657 1fbd
000000b0: 563b f73c e5f5 0cbc d680 59bc 1c75 53bc
000000c0: 6e8d ceba bf9d 3e3d 4cc1 64bd 022a 4f3d
000000d0: 3633 1bbd 7652 43bc 6304 573d e78b 933c
000000e0: 1799 78bd c8c3 243d cd75 d6bc 9a24 cabc
000000f0: d18d 873d 2c70 57bd 3c2e 90bd cd9e a93d
00000100: ab4e aa3d 6749 f63c 554f 5e3d dc1b c8bc
00000110: c350 ddbc 7294 933c 256c aa3c 769b cabb
00000120: f294 463d 97b0 243d e310 343c 29b8 223c
00000130: 263d b0ba 4039 963b 86ba c93c b9dc 03bc
00000140: 9275 96bc 77d9 2e3d ca80 d7bc 7793 803d
00000150: 6e22 9e3b 09c3 2f3c c1ee 6a3c 722d 07bd
00000160: 0841 33bd 6192 adbb e2b3 a6bc b6ea 45bd
00000170: 0c2a 4a3d 7295 26bd c84a 303c 3d6b e83c
00000180: d354 373d 69a0 363d 16f3 14bd 1e5a a63c
00000190: 431a 83bd a7b8 07bd 5949 673c 80e9 78bd
000001a0: 373a 3ebd 06e7 8cbc 0ab2 27bd 0b36 97bd
000001b0: 2c91 36bb 2067 08bc 9f1c 9c3b b535 7f3d
000001c0: 61c5 813c b8c5 86bd a93c 6c3d ac30 3dba
000001d0: d0b7 20bd a87a 2c3d d6be 753c c0a0 2f3d
0.00016790075 -0.057041086 -0.062669165 0.08298355 0.05419964 -0.02409204 0.028492706 -0.020158274
0.0051067164 0.07257049 0.0906903 0.0385858 0.067313395 -0.0027441015 -0.02082605 -0.045475353
-0.03964674 -0.01321426 -0.027897522 0.045604452 0.03670581 0.08675864 -0.067482546 0.04902444
0.025687745 0.037982907 0.061740767 0.010018215 0.035789713 0.022687087 0.07128297 -0.01272378
0.0033078236 -0.03307673 -0.02940093 -0.035992745 0.008028428 0.01758157 -0.0027172787 -0.0016806982
0.06446001 -0.05669843 -0.0051424815 -0.03890171 0.03017966 -0.008603548 -0.013275346 -0.012906339
-0.0015758702 0.046537157 -0.055848405 0.05057717 -0.037890635 -0.011921516 0.052494418 0.018011047
-0.060692873 0.040225774 -0.026179219 -0.024675656 0.06618846 -0.05259721 -0.070400685 0.08282242
0.08315786 0.030064298 0.054274876 -0.024427347 -0.02701605 0.01801512 0.02080352 -0.006183083
0.04848189 0.04020747 0.010990354 0.0099316025 -0.0013445958 0.0045844615 0.024625074 -0.00804823
-0.018366609 0.04268786 -0.026306529 0.06278127 0.0048258817 0.010727652 0.01433915 -0.033002324
-0.04376319 -0.0052969907 -0.020349447 -0.04831954 0.049356505 -0.040669866 0.010760017 0.028371448
0.04475863 0.044586573 -0.036364637 0.020306643 -0.064014934 -0.033135083 0.014116609 -0.060769558
-0.046442237 -0.017200004 -0.040941276 -0.07383355 -0.0027857525 -0.008325368 0.004764154 0.06230708
0.015841188 -0.065806806 0.057675038 -0.00072170305 -0.039237797 0.04210916 0.014999112 0.042877913

fc2.weight f4 [84, 120]
00000000: 779a 67bd 31c1 d63d 7854 d03d 0c17 6c3d
00000010: 10db 923d 1227 113c 8774 a9bd 718b 463d
00000020: 52ff b13d fce9 f4bc e930 203d 9c2f fa3c
00000030: 58fe 1c3d b361 63bd 3c16 debb 0116 1d3c
00000040: c7c2 13bd 721d 7dbd d1cc 8b3d 5475 a43d
00000050: 3d79 96bd 4c4d edbc 5117 b03d 5f87 94bc
00000060: 5dee 0fbc 71d3 8b3d 52d8 8bbc 8468 5c3d
00000070: b56d 10bd 9245 16bd 541c e03b 354d acbc
00000080: 69d4 e4bc c607 9abd d15d a9bc 4ce6 3dba
00000090: 409b 493c d64c 40bd 9b8c 983b 8f42 83bd
000000a0: 524e 3d3c 0fc4 3d3d 744a e3bc 4ce4 ba3d
000000b0: 56c1 b23d 3612 a83d 487b a6bc 6ba7 5b3b
000000c0: 4055 443c 6f8f 82bd 0a4b 40bd 11bc 6c3d
000000d0: 9069 3ebd 2bc2 bb3d 68ca a33c 952f d4ba
000000e0: 5230 233d 632e 93bd a044 863d 19ee bc3d
000000f0: c21c b2bd 6685 ac3d be0c ab3d cb4c 78bd
00000100: 9707 8bbd 6386 59bd 8d4f fbbd 50f0 da3d
00000110: 49ee d4bc c4eb d23c 4908 3a3d bb4c d03c
00000120: f656 afbc 26df 653d 2ee9 a03b 0f66 33bd
00000130: e848 8b3d 8c80 3b3d cf3c acbd 25b0 343d
00000140: df4c 85bd c855 403d 24eb a73d 9571 76bd
00000150: f67a 4ebd a306 eb3c 46ed a93d ad7f b7b9
00000160: 40b5 453a 5a63 8f3c 8c69 053e 70e6 cd3c
00000170: 37e9 9fbd 6790 3f3d e85a 87bc c080 b0bd
00000180: 7ce9 b53d 9bcb 9d3d 3674 0b3d 90e6 88bb
00000190: 0340 66bd cc4e bd3c 217b 7a3c 70bf 3d3d
000001a0: d77e 97bd ab2a 3dbd fbe9 6b3c 34bb ff3c
000001b0: 9781 293d c051 3bbc 2ac3 d23a c750 2fbd
000001c0: 666f 53bd 0747 823d 5140 9abd ff52 6bbd
000001d0: 7a2d 8f3d de1a 8ebd db10 1b3d a0b8 8d3d
000001e0: 6d90 843d 5625 cb3b 78cc 02bd d2ff 793d
000001f0: 5a73 c13c 2ddc 99bd 9bde a23b 9370 b9bd
00000200: ecf6 4b3d 7e31 f3bc b303 563d e957 003d
00000210: a5c2 c8bd c24f b1bd a169 083d 6b98 b7bd
00000220: a412 5fbd 6a56 8dbc 29bf 74bd 6624 8cbd
00000230: d8cb 08bd ce50 e4bd 7075 1f3d 2b0f 8a3d
00000240: 0880 dbbd ca36 193d 396f d6bd 3465 6b3d
00000250: 9400 e13c 5b19 93bd 53a2 323d fe47 d6bd
00000260: b16f 9ebd 41cb b63c 71b7 603d 6042 c4bc
00000270: 281d 8ebd a1f1 3c3d 7e85 a3bc a669 72bd
00000280: 3215 ddbd b622 95bd cc29 233d 0856 2b3d
00000290: ba78 6b3d e086 1a3b c774 443d 8ef6 84bc
000002a0: eebe 97bd 3c6e c8bd 8427 4c3d 2753 823d
000002b0: cd21 e7ba db96 16bc 062c 30bb ac2a 5c3d
000002c0: 5d4c 54bd 2a50 8cbd 79d5 f43c 1a0c df3c
000002d0: 6faf babd 60e9 0dbd 651c a4bb 96ff 38bd
000002e0: 5eb5 6c3d d7c5 a7bd e881 d9bd f0b0 a23c
000002f0: 93b7 a7bd 5c35 d13c 8ef4 28bd ec73 6cb9
00000300: 37ef f03b f971 16bd 77ff d3bd d879 b43d
00000310: de41 dfbd e0a1 aebc 402a 1dbd 5bd1 87bc
00000320: e9f6 69bc 7fef 493d a048 f2bd 99da d9bd
00000330: ea13 a7bb 340f 2ebc b178 6f3d 2b13 72bd
00000340: 1331 283d 5647 8f3d 903e 983d f4fc aabd
00000350: dc23 0d3d 769f a8bd db1e 80bd 9251 0cbd
00000360: 9c9b b5bc 0a3c 94b9 0b49 ad3d a393 95bd
00000370: 61e6 cdbc 46cd 733d 2e51 f2bd bcaa 7d3d
00000380: 3fb1 843d 59fd dbbb e9d9 4c3d a146 d33c
00000390: 7abf d83c 1988 c2ba a60c aebd e4c7 68bd
000003a0: 0f90 48bd d4dd 55bd 6aa1 aabd 5334 9a3d
000003b0: 2d44 953d 46f0 2e3d ebd2 0cbc 6b61 21bc
000003c0: 9229 b53d d8c6 6cbc 4dc5 48bd 3286 423d
000003d0: 7a29 cdbd 35aa dabc 1763 87bd 90cd 43bb
000003e0: 81bc 9abd c593 5cbd ded3 973d 9b8d 7b3c
000003f0: d436 d2bb 65b2 4abd b10d fdbd 26f6 76bd
-0.056543794 0.10486067 0.10172361 0.057639167 0.07170689 0.008859413 -0.08274179 0.048472825
0.086912766 -0.029896729 0.039109144 0.03054028 0.0383285 -0.055513095 -0.006777553 0.009587766
-0.036074426 -0.06179566 0.06826175 0.08030191 -0.07347343 -0.028967522 0.08598197 -0.018130956
-0.008784858 0.068274386 -0.017070923 0.05381061 -0.035260875 -0.03668744 0.0068393145 -0.021032909
-0.027933316 -0.07521014 -0.020674618 -0.0007244095 0.012305081 -0.046948276 0.0046554334 -0.064091794
0.011554318 0.046329554 -0.027745463 0.091255754 0.08728282 0.082065985 -0.020322457 0.0033516537
0.011983216 -0.06375014 -0.046946563 0.05779654 -0.04648739 0.09167894 0.019993976 -0.0016188497
0.039841004 -0.07186582 0.06556058 0.09225101 -0.08696891 0.08423881 0.0835204 -0.06062011
-0.06788557 -0.053106677 -0.122710325 0.10690367 -0.02599253 0.025747187 0.045418058 0.025427213
-0.02140377 0.056121014 0.0049106097 -0.043798503 0.06801015 0.04577689 -0.08410036 0.044113297
-0.065088026 0.046956807 0.081991464 -0.060166914 -0.050410233 0.028689688 0.082972094 -0.00034999606
0.0007541962 0.01750343 0.13028544 0.025134295 -0.07808154 0.046768572 -0.01652284 -0.08618307
0.08882424 0.0770485 0.034046374 -0.004177876 -0.05621339 0.023108862 0.015288145 0.046325147
-0.0739724 -0.04618327 0.014399047 0.031217195 0.041383352 -0.011433065 0.0016079892 -0.042801645
-0.05161991 0.06361204 -0.07531799 -0.057452198 0.06991096 -0.06938718 0.03785787 0.0691998
0.064728595 0.006199519 -0.031933278 0.061034985 0.023614574 -0.07512698 0.0049703843 -0.09054675
0.04979603 -0.029686686 0.05224962 0.031333838 -0.098027505 -0.08657791 0.03330386 -0.08964618
-0.054461136 -0.01725312 -0.059752617 -0.0684288 -0.033397526 -0.11148225 0.038930357 0.06741174
-0.107177794 0.037405767 -0.10470433 0.05746956 0.027466096 -0.071825705 0.043611836 -0.1046295
-0.07736147 0.022313716 0.054862443 -0.023957431 -0.06939155 0.046128873 -0.019961115 -0.059182785
-0.10795058 -0.07282011 0.039834782 0.041830093 0.05748818 0.0023578927 0.04796293 -0.016230848
-0.07409464 -0.097866505 0.049842373 0.06363516 -0.0017633975 -0.00919124 -0.0026881709 0.053751633
-0.05183064 -0.068512276 0.029886948 0.02722745 -0.091154926 -0.034646392 -0.0050082677 -0.04516562
0.057790153 -0.08192032 -0.10620481 0.019859761 -0.08189311 0.025538139 -0.04124885 -0.00022549898
0.0073527354 -0.036729787 -0.103514604 0.08812302 -0.10901235 -0.021317422 -0.03837037 -0.01657932
-0.014280059 0.049300667 -0.11830258 -0.10637397 -0.0050988095 -0.010623742 0.05846471 -0.05910031
0.041062426 0.06996028 0.07433808 -0.08349028 0.034458026 -0.0823354 -0.06255885 -0.03425748
-0.022168927 -0.00028273492 0.084611975 -0.0730355 -0.025134267 0.059521936 -0.1183189 0.061930403
0.064791195 -0.006713551 0.050012503 0.025790514 0.02645849 -0.0014841586 -0.08498506 -0.056831256
-0.04896551 -0.052213505 -0.083315685 0.07529511 0.07288394 0.04270961 -0.008595209 -0.009849886
0.088458195 -0.014451705 -0.049016286 0.04749126 -0.10017677 -0.02669249 -0.06610697 -0.0029877163
-0.075554855 -0.05385186 0.07413457 0.015353586 -0.0064152274 -0.049486537 -0.12356127 -0.06029334

fc2.bias f4 [84]
00000000: 56fd 98bc 37da e33b 50c1 0bbc 5cb8 a33d
00000010: 6803 b9bd f001 9cbd c4a9 d7bd 4cf2 29bc
00000020: e11f 95bd 7021 1c3c ab6a 123d b5b1 1b3c
00000030: 2d00 8c3d 4cb7 47bd ce0f edbd a526 3b3d
00000040: 3ff4 35bd 4897 693d ed5a 3e3d 4b7e 623d
00000050: 0c2f 68bc 06d9 053e 54d4 c6bd e70d c4bc
00000060: ea24 043d 0e80 54bd 062a 4b3d b603 32bc
00000070: ca79 a4bc 3ed4 1ebc b53d 973d 43ea 29bc
00000080: ff82 e8bc 55fa 67bd 0ff4 94bc d028 fd3c
00000090: b32f da3c 0a75 2cbd c46b 983c 0492 403d
000000a0: 1819 8ebd 2e70 e1bb 1926 823d f958 483d
000000b0: fa57 603d 398c 823d bae2 223b 3282 a0bc
000000c0: ce89 b8bd f68d 9f3d 6ef9 f7ba 9b5f 343d
000000d0: 89b0 343d 618b 403d 7e35 ac3d 667c d23d
000000e0: 215f 56bd 394c f5bc 91f5 f73c 9138 89bd
000000f0: b10d 473d 4bf5 bd3d 687a 8f3d f63f 073d
00000100: 07da 463d 6c19 ce3d 0243 d63d 8b6b 94bd
00000110: 0844 61bc 3a1d 10bd c85d bc3d 79fd 043d
00000120: bb14 e83d a7f8 b23d 6bb0 aabc 4674 223d
00000130: bc80 85bc 3a1d 6e3d a20b d53d 46c7 f3bd
00000140: 144a e73d b1ad 6fbd 782e bc3c 8910 8abd
-0.018675487 0.0069535035 -0.008529976 0.07994148 -0.09033853 -0.07617557 -0.10530427 -0.0103727095
-0.07281471 0.0095294565 0.035746258 0.009502818 0.06835971 -0.04875879 -0.1157528 0.04569115
-0.044422384 0.05702904 0.046473432 0.055296224 -0.014171373 0.13071069 -0.09708467 -0.02393241
0.032261766 -0.051879935 0.049600624 -0.010865143 -0.020077605 -0.009694157 0.073848166 -0.010370794
-0.028382776 -0.05663522 -0.018182782 0.03090325 0.026634073 -0.042103805 0.018606074 0.04701425
-0.0693838 -0.006879828 0.06354923 0.048912976 0.0547714 0.063744016 0.0024854378 -0.019593332
-0.09010659 0.07790749 -0.001891894 0.04403649 0.04411367 0.047007922 0.0840864 0.10277633
-0.052336816 -0.029943572 0.030268462 -0.06700242 0.04859704 0.092753015 0.07005769 0.033019982
0.04854777 0.100634426 0.104619995 -0.07247075 -0.01374913 -0.035184123 0.09197575 0.032468293
0.11332079 0.08738833 -0.020836076 0.03966167 -0.016296737 0.05813334 0.104026094 -0.11903243
0.11293426 -0.058515254 0.022971377 -0.06741435

fc3.weight f4 [10, 84]
00000000: 85bf 0a3e c9b2 a4bd 0de8 05bd 6dab dcbd
00000010: c19e 87bd 6388 343d 13f4 713d 12cf 41bd
00000020: 01ff ccbd 289e 3fbd f57e 0dbe 334b d7bd
00000030: f52a 6cbd 2494 81bc 3b7e dbbd fd70 793d
00000040: ea83 97bc 17fd 36bb 73a5 39bd e58a 9ebd
00000050: 7e4c 303d 6766 ecbd b6a4 c03d ac28 303d
00000060: f75f 1c3e 6602 fabc bf84 35bd 4990 2c3d
00000070: 8cff 6b3d b9a6 f0bb 94e9 3cbe 694e 00be
00000080: 0572 00be 6042 4fbd e9fe 183d b7b9 423d
00000090: 7cd7 193e 51f7 c03d 92d5 073e 1946 8bbd
000000a0: af04 d33d 9cd3 30bc 0c36 22bd b0c6 86bd
000000b0: 18cd 5a3d 5a5f 463d 506f cdbc 6478 fdbd
000000c0: fdd1 e0bc d948 46be 70ab b13d 9753 19be
000000d0: 7310 fd3d 23ca cbbd 76da d4bc 11cc d33c
000000e0: ad50 cebd 3437 87bd 5de6 43bd bcec 70bc
000000f0: 0905 b6bd 02a7 13be 25be 95bd ac64 8dbc
00000100: cacc 0bbe 704b aabd d620 debd f28e ddbc
00000110: 6f3d 893d 2e87 d3bd e60d 223c f671 d03b
00000120: 69db f63d 1b0f dabd ec1f f43d 5a07 6b3c
00000130: 222e e0bd 5e6d 0a3e 4e45 15be 206e d43d
00000140: cff5 46bd b6c5 4dbd 9ce4 2a3d b20e dfbd
00000150: f20f 85bd 469d 9cbd 1bb4 e03d 4e9f d5bd
00000160: 952c c33c fd95 2cbe 6d50 bcbd b8b6 8f3d
00000170: 40f5 9abd c016 f6bd c800 bb3d ddfc 393d
00000180: 0a7a bf3d e8ef e53d 344e 743d d586 41be
00000190: 9b2e 01be 0be6 bb3d 11c1 23be d195 00bd
000001a0: 5b37 063d 9616 023e d385 03be 7a4e 5cbd
000001b0: 5628 a5bd 0925 03bd 3284 513b 3cfd e1bd
000001c0: 4efd 92bd 1101 06be 70d7 9ebd 432d 06be
000001d0: 65f2 a43d 781f 453d c329 9e3d 0235 203c
000001e0: b75f f7bd ac68 74bd 69a5 9cbd 9b9c 34bc
000001f0: 5f3b 0ebe 641f e8bc b544 eb3d ac11 3dbc
00000200: 8629 88bd 0692 e53d 7ba3 63bd a6c1 0fbd
00000210: b8ea 86bd 0141 773d 48ef 0fbe 0faf 283d
00000220: 2ff1 a13c 611c 2bbe 0c13 54bd b1cb 2c3e
00000230: 3a60 f4bd c50e a5bd 7934 713d 4fe2 3e3d
00000240: d400 a4bd f486 273e 41b4 f83d bda8 f8bd
00000250: 5245 1b3e 1988 863d a9e0 02be ff16 2bbe
00000260: 3af3 b0bd 438c 5dbd 3ea3 9cbd f466 b1bc
00000270: 8f4e 0b3e e692 263e f1a2 8fbd 0ff0 22be
00000280: e5f2 de3d 91fd 99b9 36c8 e83d a808 4fbe
00000290: 0f32 943d d26b 573d 3f42 d4bd b803 0cbe
000002a0: 90cc ffbc 5f28 9ebd 65c8 c3bd e1ac 313d
000002b0: c26e 9d3d d8b1 01bc 3bc4 3a3d df7d c43d
000002c0: 3203 ba3c 363d 00be 049b 82bc 49da a0bd
000002d0: 1713 25be da5a 21be fb33 afbd 3ddc 8dbd
000002e0: a002 c63d 09ee 46bb 15c5 693d 1a3a e1bd
000002f0: 55bc 3dba 60eb 9a3d b524 793d e49e 0c3e
00000300: 87a5 a7bd 1afa 493c 048a 063e 3758 babc
00000310: e65a e03d 6943 f5bd bb01 e8bd d075 1c3e
00000320: 49b7 353d f339 163d 5cd3 c23d 2bcf b7bd
00000330: ab00 07bb 56ee ecbd e177 14be ce07 d2bd
00000340: 4556 59bd 1d87 913d 858f c03c 9d8f d8bd
00000350: 2b87 d8bd 6cf1 8c3b 4e24 9d39 4f51 cfbc
00000360: da17 05be 62b9 9f3b 0bf2 3abd d62d b2bd
00000370: 4d6c e2bc 9cb3 473d 4c44 0cbe 547c bebd
00000380: 4d72 e23c 7ac9 babd 4a4f ac3d 06b0 eabd
00000390: f434 3b3d 72b3 523c dffb 33be 2029 1bbd
000003a0: 6529 37bd 06ba bcbd c761 c23d 4750 003d
000003b0: bb23 a93d 491a d1bd 8422 f6bc 456e cd3d
000003c0: 698b 033e 1250 043e ca5b 013c 3498 d4bd
000003d0: 3fea 243d 868e 65bd 28f4 b0bb 66bd c23d
000003e0: 7074 933c 3832 563d 305b 6cbd 2bc9 a43d
000003f0: 9ee1 c9bd 882e bcbd b3a6 70bd 1e37 963d
0.13549621 -0.08041913 -0.032692004 -0.107748844 -0.06622077 0.04407538 0.059070658 -0.04731662
-0.10009576 -0.04678169 -0.13817962 -0.1051239 -0.057658155 -0.01581771 -0.10717436 0.06089877
-0.018495519 -0.002792185 -0.0453238 -0.07741336 0.0430417 -0.11542969 0.09406416 0.043007538
0.15270983 -0.030518722 -0.04431605 0.04212979 0.057616755 -0.0073440936 -0.18448478 -0.12529911
-0.12543495 -0.05060041 0.037352476 0.047540393 0.15023607 0.09422172 0.13265064 -0.068004794
0.10303628 -0.010792639 -0.039602324 -0.065808654 0.05341825 0.048430778 -0.025077492 -0.12376478
-0.02744388 -0.19363727 0.08675277 -0.14973293 0.12356653 -0.09950664 -0.025983077 0.025854142
-0.100739814 -0.06602326 -0.047827113 -0.014704879 -0.08887679 -0.14419177 -0.07311658 -0.017259918
-0.1365234 -0.0831517 -0.10846107 -0.0270457 0.06701171 -0.10328518 0.009891009 0.0063612415
0.12053568 -0.106474124 0.11920151 0.0143450145 -0.10946299 0.13518283 -0.14577219 0.10372567
-0.048574265 -0.05023738 0.041721925 -0.10891475 -0.06497182 -0.07647185 0.109718524 -0.104307756
0.02382497 -0.16854091 -0.091950275 0.07017273 -0.07566309 -0.12016058 0.091310084 0.045407165
0.09349449 0.11227399 0.059644893 -0.1889909 -0.12615435 0.091747366 -0.15991618 -0.031392876
0.032767635 0.12703928 -0.12844019 -0.05378578 -0.08064334 -0.03201774 0.0031969664 -0.11034629
-0.0717722 -0.13086344 -0.07755935 -0.13103203 0.080540456 0.048125714 0.07722809 0.009778263
-0.12078803 -0.059670135 -0.07648737 -0.011023666 -0.13889836 -0.02833528 0.11487714 -0.011539858
-0.06648545 0.112094924 -0.05557583 -0.035096787 -0.06587738 0.060364727 -0.14056122 0.041182574
0.019768326 -0.16710044 -0.051775977 0.16874577 -0.11932416 -0.08059458 0.058887932 0.046602543
-0.080079705 0.16360074 0.12143756 -0.12141559 0.15163162 0.06568927 -0.12781014 -0.16707991
-0.08640142 -0.054088842 -0.076483235 -0.021655537 0.13604186 0.16266975 -0.070135005 -0.15911888
0.10886172 -0.00029371356 0.11366312 -0.20218146 0.072361104 0.05259306 -0.10364198 -0.13673294
-0.031225473 -0.07722544 -0.095597066 0.04337776 0.07687141 -0.007915936 0.045597296 0.095943205
0.022706602 -0.1252335 -0.015943058 -0.078541346 -0.16120563 -0.15757313 -0.08554836 -0.06926773
0.096684694 -0.0030354282 0.057072718 -0.1099741 -0.00072378415 0.075644255 0.060826022 0.13732487
-0.08185869 0.012327695 0.13138586 -0.022747142 0.109548375 -0.11975748 -0.11328455 0.15279317
0.044364247 0.03667636 0.0951297 -0.08975061 -0.0020599763 -0.115688965 -0.14498855 -0.10255395
-0.05306079 0.07105849 0.023505935 -0.10574267 -0.10572656 0.0043012407 0.00029972423 -0.025307326
-0.1299738 0.0048743943 -0.045640986 -0.08700149 -0.027639532 0.048755273 -0.13697928 -0.093010575
0.027642393 -0.0912046 0.08413561 -0.11459355 0.045704797 0.012860166 -0.1757655 -0.037881017
-0.04471721 -0.09215169 0.09491306 0.03132656 0.08258768 -0.102100916 -0.030045755 0.10030798
0.1284615 0.1292117 0.007895419 -0.10380593 0.040262457 -0.056044124 -0.0054001994 0.09508781
0.017999858 0.052293986 -0.05770415 0.08046182 -0.09857486 -0.09188563 -0.058752727 0.073347315

fc3.bias f4 [10]
00000000: e0c8 02bd 13c3 503d 6e8d 563c fde9 3b3d
00000010: 73e1 573d 45da 39bd e912 143d 5378 eabd
00000020: 1250 a6bc cf13 19bd
-0.03192985 0.050967287 0.013095243 0.045877445 0.05270524 -0.045374174 0.036150847 -0.11448731
-0.020301852 -0.037372407
