models/client-3-1.pth (torch, 239842 bytes, 12 tensors)

conv1.weight f4 [6, 1, 5, 5]
000000 9d b5 aa 3e 74 39 a9 3e 31 e1 ac 3c 75 f4 a1 3d
       0.33341685 0.33051646 0.021103473 0.079079546
000010 34 2a 83 3d a0 d5 88 3e 1a 1d c7 3a dd cf 6c bd
       0.06404534 0.26725483 0.0015191168 -0.05781542
000020 1e 81 1f be 9b 44 0b be 9c c4 2f 3d bc 27 0e 3e
       -0.15576598 -0.1360039 0.04291211 0.13882345
000030 7e 8e 63 be 2e b0 61 be df b2 84 be 3a bb 10 3e
       -0.22222325 -0.22039863 -0.25917718 0.14133921
000040 a4 ec 7b 3e 25 11 b4 3b f2 6d ef 3b b1 28 29 be
       0.2460199 0.005495208 0.0073068077 -0.16519429
000050 b6 ce 1e bd bd 89 27 3e 7d ee b5 3e 86 8d 3c 3d
       -0.038771354 0.16361137 0.35533515 0.046033405
000060 f8 64 84 3e 75 4b bd be 76 2d e4 be 3f 92 6e be
       0.25858283 -0.36971632 -0.44565934 -0.23297976
000070 63 a3 bf be 0c 27 83 be ce b3 9a be 0c d6 91 be
       -0.37429342 -0.25615728 -0.30215305 -0.28483617
000080 97 9b 3e be ed 74 69 be 2e 67 94 be 4f cc 15 3e
       -0.1861404 -0.2279851 -0.2898497 0.14628719
000090 0c 63 26 3e 3e a5 71 bd 5e b5 e3 bb f3 07 21 be
       0.16248721 -0.058995478 -0.006949111 -0.15725689
0000a0 5f b9 7f 3e 98 02 ad 3c 8a e0 56 3c 5c 06 41 3d
       0.24973057 0.0211194 0.013115058 0.047125205
0000b0 5a 5e 8e 3d a2 11 60 bb 9f ce ac 3d 9c ac bb 3e
       0.0695159 -0.0034190197 0.08437847 0.36655128
0000c0 45 f5 a2 3d b6 fc 8c 3e 6e 28 98 be 4e 62 bc be
       0.07956938 0.27536553 -0.29718345 -0.3679375
0000d0 7e 45 a1 be 1c c0 20 be 2c a5 61 3e 12 e7 c1 bd
       -0.3149833 -0.15698284 0.22035664 -0.09467901
0000e0 70 60 a9 be b5 2d 8c be c5 99 f8 3c 55 fe a1 3e
       -0.33081388 -0.27378622 0.03034676 0.31639352
0000f0 96 5c 92 3e a8 6c 9e 3d 0d f3 cb bc 06 b5 bf 3e
       0.28586262 0.07735568 -0.02489617 0.37442797
000100 9d 0a c6 3c 99 16 cb 3e 42 91 0a 3e 2a ff 3a 3e
       0.024174983 0.39665678 0.13531974 0.182614
000110 da cc 45 3e 8d 4c b8 3e 28 3b 04 3e e7 b6 d7 3e
       0.19316426 0.35995904 0.12913191 0.4213173
000120 60 de 8c 3e 27 c6 90 3e e1 dd d4 3d 66 ad e8 3c
       0.2751341 0.28276178 0.103938825 0.028402995
000130 bf 0c 67 3e a8 c7 32 3e 4e 09 a1 3d 60 d4 05 bc
       0.22563456 0.17458975 0.07863103 -0.00816831
000140 e1 5b fe 3d 8c d0 ac bd fa 16 6a 3e f4 32 f1 3d
       0.12419868 -0.08438215 0.22860327 0.11777297
000150 77 d3 54 3e ec 1b 15 be 32 0c ea 3d db 48 9f 3e
       0.20783792 -0.14561433 0.11428107 0.31110272
000160 27 f4 60 3e 22 21 95 3e 5a 7a 35 bd 3a 29 b5 3d
       0.21968137 0.2912684 -0.044306137 0.08845754
000170 c0 1d b6 3d 08 c4 83 3e 0b 12 c6 3e 98 a3 4b be
       0.08892393 0.25735497 0.3868564 -0.19886625
000180 ad 84 6b be 29 fb 13 3d b2 9c 2e 3e 1a d8 aa 3e
       -0.2299983 0.036128197 0.17051962 0.33367997
000190 0d ef 95 3d 1c f6 30 be 16 85 16 be 4d 1d d0 bd
       0.07320986 -0.17281383 -0.14699206 -0.10161839
0001a0 90 ab 86 3e 2a 11 b0 3e e3 0f a5 3e a8 11 23 bd
       0.26302767 0.34388095 0.32238683 -0.03981176
0001b0 f7 22 b1 3e 6b a5 79 3e 33 10 04 3e 85 f3 35 3e
       0.3459699 0.24379508 0.12896805 0.17768677
0001c0 af c2 a6 3e 59 39 ab 3e 0e 7f dd 3e 2b 1c 8e 3e
       0.32570407 0.3344219 0.43260998 0.27755865
0001d0 2a 12 23 bc 44 5f 4d 3e 62 4d 5d 3e 52 06 41 3e
       -0.009953061 0.20055872 0.2161155 0.18850067
0001e0 c7 73 4c 3e f9 13 4d 3d b1 ef cc bc 6c 25 00 3e
       0.1996604 0.050067876 -0.025016638 0.12514275
0001f0 5f 5b 77 3e ce 67 0c be c0 d1 15 3e 40 2a 10 be
       0.24155949 -0.13711473 0.14630795 -0.14078617
000200 05 31 14 3e 76 5e cd 3d bf 99 d6 bd 8b 4f 22 3d
       0.14471824 0.100277826 -0.104785435 0.03962664
000210 0a 35 fc 3d f7 84 95 3e 6d c7 c6 bd 8a 1b 85 bd
       0.12314804 0.29203007 -0.09706006 -0.06499393
000220 9c 97 a0 bc b7 5a b4 3e 08 5c 84 ba f1 2a 20 bd
       -0.019603543 0.3522546 -0.0010098228 -0.039103452
000230 6a 58 ab 3e d6 c7 6c 3e 71 5e e1 3d fc 6f 52 3e
       0.33465892 0.23123106 0.110043414 0.20550531
000240 d1 63 bb 3e 39 f4 9f 3e 87 80 cf bc 8d 55 7e 3d
       0.3659959 0.31241015 -0.025329841 0.062093306
000250 e7 3a 0b 3e c2 6f b7 3e
       0.13596688 0.35827452

conv1.bias f4 [6]
000000 83 80 e6 3d 95 99 cc 3e 45 a7 5b 3e 6d 6e 96 3a
       0.112549804 0.39960924 0.21450527 0.0011477001
000010 95 07 74 ba 91 bf 31 bd
       -0.0009308991 -0.043395583

conv2.weight f4 [16, 6, 5, 5]
000000 dc 27 50 3d bc 77 2a 3d 77 27 8e bd 54 f6 8e 3d
       0.050819263 0.041618094 -0.06941121 0.06980577
000010 b0 26 b1 bb d9 65 28 bc 63 59 de 3c fe 4d 1e bd
       -0.0054062232 -0.010278189 0.027142232 -0.038648598
000020 7a 85 7e bd 21 aa 04 3e d0 df c1 3c 2e 27 46 bd
       -0.062139012 0.12955524 0.023666292 -0.04837721
000030 9a 92 90 bd 26 ad 67 ba 0f f1 20 3d e7 81 f4 3d
       -0.07059212 -0.0008837752 0.03929239 0.119388394
000040 30 7d 0d 3e d4 2a 8e bc fa 86 a4 bd 47 5f ea bc
       0.13817286 -0.017354406 -0.08033557 -0.028609885
000050 76 60 08 3d e8 a0 08 3e 1d 4a 07 3e f9 61 7f 3d
       0.033295117 0.13342631 0.13211866 0.062349293
000060 1a e3 1d 3d 77 ac 04 bd 84 60 af bc da a9 80 3d
       0.03854666 -0.032391038 -0.021408327 0.062823966
000070 de 72 1d 3d 80 94 82 3d 05 f5 69 bd 6e a7 b7 3c
       0.038439624 0.063759804 -0.057118434 0.022418704
000080 e3 9f 12 3d e4 df 63 bd 47 ea a4 3c 30 85 6d 3c
       0.03579701 -0.05563344 0.020131243 0.014497086
000090 31 59 e7 3c be 17 e6 3c 8f 77 39 3d de f0 74 3d
       0.028240772 0.028087493 0.045280036 0.05980002
0000a0 41 48 1b 3e bb a3 51 3e 28 15 97 3d 65 73 bc 3d
       0.15164281 0.20472614 0.07377082 0.09201697
0000b0 e3 4f 13 3c 86 1b 08 3d 25 ec 2b 3e dc 53 5a 3e
       0.008991214 0.033229373 0.167893 0.21321052
0000c0 1b ed 32 3e 7f 92 16 3e 92 71 ee 3a 6a 6c a1 3c
       0.17473261 0.14704321 0.0018191806 0.019705016
0000d0 2a e9 5c bd 97 02 99 3d 8b 87 c7 3c a2 fe 64 bd
       -0.0539333 0.07471197 0.024356624 -0.0559069
0000e0 c7 35 b5 bd 95 23 ce 3c a3 7f 2e bd 03 c4 59 3d
       -0.08848148 0.025163451 -0.042602193 0.053165447
0000f0 2d a4 07 3d 0b c5 f0 bd 58 45 14 be b4 58 09 bd
       0.033115555 -0.11756333 -0.14479578 -0.03353186
000100 3e 3e 11 be 1d 9e 2a 3d 0e 24 95 3c 4d f4 8e 3d
       -0.141839 0.041654695 0.018205669 0.069801904
000110 a4 02 a6 3c 34 a0 80 bd fc 19 c4 3c a9 28 06 3e
       0.020264931 -0.06280556 0.023938172 0.13101448
000120 1b e6 da 3d fd ee 3e 3e c6 6a 43 3d a4 65 09 3d
       0.106884204 0.18645854 0.04770925 0.033544198
000130 5f fa 8d 3d d9 a1 df bc b4 20 2b 3c 2e fe 32 3b
       0.0693252 -0.027298855 0.010444809 0.0027312147
000140 6f 09 f7 bb 1b b4 54 3d 9a 58 94 bd 31 d2 a8 bc
       -0.0075389664 0.051929574 -0.07243462 -0.02060804
000150 46 e9 29 bd c7 88 9d bd b4 08 cd bd 22 5e 8f 3c
       -0.041482233 -0.07692104 -0.100114256 0.01750094
000160 6f 1d c3 bd f2 37 44 3c c2 53 b2 3d 8d 7e 8f 3c
       -0.095270984 0.011976229 0.08707382 0.017516399
000170 a0 dd b1 bc 81 32 9a bd 02 f3 e5 bd ab 4c 1d 3e
       -0.021712124 -0.07529164 -0.11227991 0.15361278
000180 ee f9 20 3e 29 c6 c1 3d 4b 56 0f 3d d0 36 e5 bc
       0.1572034 0.09461624 0.034994405 -0.027980238
000190 d6 89 e3 bd 66 3b 91 bd 8c 4c 31 bc 2d 29 47 3d
       -0.111102745 -0.070914075 -0.010821473 0.048623253
0001a0 59 cd a0 3d 51 f3 b1 bd 94 ac 96 bd 8a 15 54 3d
       0.07851667 -0.08688987 -0.073571354 0.051778354
0001b0 17 91 a0 3d 1a 81 ae 3c f8 ea 8b bc 6b 21 ce bd
       0.07840174 0.021301795 -0.017079815 -0.10064968
0001c0 53 ef 09 be 91 bd 05 be 4a 36 f0 bd a3 e5 9f 3c
       -0.13470201 -0.13060595 -0.11729105 0.019518679
0001d0 37 7b 07 bc a2 b0 aa bd d6 5f ec bd 51 ea 94 bd
       -0.008269123 -0.08334471 -0.11541717 -0.07271255
0001e0 97 e2 e9 3c 27 7d 68 bc 6f a6 8c b9 d9 8c 97 3d
       0.02855043 -0.014189995 -0.00026826884 0.073999114
0001f0 d4 7d d2 3d 16 c9 c3 bd 12 34 ff bc 78 98 2b bd
       0.10277906 -0.095598385 -0.031152759 -0.041893452
000200 52 6b 45 bd 04 7e 17 bd ee 01 68 bd c6 ae 0d be
       -0.04819805 -0.036985412 -0.056642465 -0.13836202
000210 f3 bc 12 bd 18 26 31 bd 11 bf 39 bd 77 c9 dc 3b
       -0.035824727 -0.04324922 -0.04534823 0.0067378837
000220 4e df 3c bd 85 ff 29 be 7b b5 04 be 13 28 f6 bd
       -0.046111397 -0.16601379 -0.12959854 -0.12019362
000230 8f bc 0f 3d 0a 74 6b bd ce 6f 28 bc 6f a3 a0 bd
       0.035091933 -0.05748371 -0.010280563 -0.078436725
000240 7a 34 d1 bc 9e 53 1f 3e 30 3d b2 3c d3 bb 25 3e
       -0.025537718 0.15559241 0.021757692 0.1618493
000250 97 b6 63 3d 3e 95 1e 3e 2f ce 2d 3d d3 85 80 bd
       0.055594053 0.15486619 0.04243296 -0.06275525
000260 83 fe 8e bd 45 be a9 bd 69 09 63 bd 34 9c 82 bd
       -0.06982138 -0.08288244 -0.055428896 -0.0637745
000270 df 0d 80 3c 31 13 23 3c 53 11 b9 bd ca 5e 99 3a
       0.015631614 0.009953306 -0.090365075 0.0011701223
000280 a4 ab 29 3d 23 9e df 3d bf 3d b4 3c 1a af 1e bd
       0.041423455 0.10918834 0.0220021 -0.03874121
000290 85 fb ed 3d 67 5c fb bc 3b 1c 65 3c 5b b6 d9 bd
       0.11620239 -0.03068371 0.013983781 -0.10630485
0002a0 1f 4a 09 be e9 c0 08 bc 3f ee 96 bd 8b fa 3e be
       -0.13407181 -0.008346775 -0.073696606 -0.18650262
0002b0 cf b2 2f be 1d 37 5c bd 58 4f e1 3d 4f 5c 05 3c
       -0.17158054 -0.053763498 0.11001462 0.008139684
0002c0 86 16 e2 bc 95 15 c4 bc bc b4 a2 3d 63 8c 2c 3d
       -0.02759863 -0.023936072 0.079446286 0.04212607
0002d0 b9 c7 46 3c 7c bd 6e bd 3a 98 92 bd 3f 45 90 bd
       0.0121325785 -0.058286175 -0.07157941 -0.07044458
0002e0 16 da f2 bc a0 ef b6 bd d8 1d 05 be af cb 91 bd
       -0.029645007 -0.089324236 -0.12999666 -0.07118928
0002f0 a5 49 50 be 3e f6 c2 bd a2 a6 6c bc e2 28 3b 3d
       -0.20340593 -0.09519623 -0.014444025 0.045693286
000300 88 1f 79 bd 09 06 5d be 9b 8d 45 be 91 06 5f 3d
       -0.060821086 -0.21584333 -0.192923 0.05444962
000310 42 36 38 3d 2c dc 69 bd a3 07 1f be f2 96 f5 bd
       0.04497362 -0.057094738 -0.15530257 -0.11991681
000320 ec cd d5 3c e0 5b 5d 3d 0e 50 92 bc 9d a1 82 3c
       0.026099168 0.054042697 -0.017860439 0.015946204
000330 75 7c 21 3d 58 37 2c 3d ec 5a 2a 3d ca e8 f6 3b
       0.039425332 0.042044967 0.041590616 0.007535075
000340 23 2c dc 3b db a4 28 3d 91 31 c3 bd b2 d8 e1 bd
       0.0067191287 0.041172843 -0.095309384 -0.110276595
000350 3d 72 7e bd 79 e5 ad 3d 91 d4 82 3d ef d5 04 be
       -0.062120665 0.08491034 0.063882 -0.12972234
000360 8a 31 92 bd d3 b1 74 3d ab 3c bb 3d 00 47 21 be
       -0.07138355 0.0597399 0.09142431 -0.1574974
000370 d8 56 c4 bd 61 44 3d 3d 37 3f d8 3d 89 b0 9a 3d
       -0.09586877 0.04620779 0.10558932 0.07553203
000380 fd db 63 be 57 38 09 3d ab bf 7e bc 38 21 09 3c
       -0.22251888 0.033500995 -0.015548627 0.008369736
000390 11 51 fd 3c 13 b7 04 bd 59 4f bb 3d db a1 46 bd
       0.030922445 -0.032401156 0.09145994 -0.0484942
0003a0 91 ca bc bc 68 a1 30 3e 10 5d b8 3c a0 d2 df bb
       -0.02304581 0.17249072 0.022505313 -0.0068305284
0003b0 ef 00 2b bc 25 20 a6 3d 7b cf 21 3d 1b dc 60 bd
       -0.010437234 0.081116 0.03950451 -0.05489741
0003c0 2f 66 38 be 80 1a 9c bd d1 8e ab 3c dc 0d 47 3d
       -0.1800773 -0.07622242 0.020942124 0.0485972
0003d0 9e df 3e bd 4b b0 03 bd 54 94 69 3d a9 c7 4b 3d
       -0.046599977 -0.032150548 0.057026222 0.049750958
0003e0 f5 90 25 3d 87 c0 c6 bb 85 9c f5 3b 96 22 f2 3c
       0.040421445 -0.0060654315 0.007495465 0.029557507
0003f0 23 d9 3f 3d 63 95 b3 3d 61 1a 9e 3d 7d bc 95 3c
       0.046837937 0.08768728 0.07719875 0.018278355

conv2.bias f4 [16]
000000 10 75 8d 3d 85 e8 db ba 14 a7 e1 bc b7 35 85 bd
       0.069070935 -0.001677767 -0.02754549 -0.06504386
000010 39 a1 03 bd 96 ac 88 bd 8c a8 04 bd 86 9e df bc
       -0.032136176 -0.06673543 -0.0323873 -0.02729727
000020 d7 6c e9 bc 8f d8 18 bd 28 f2 57 3b 03 83 03 3b
       -0.028494282 -0.0373159 0.0032950733 0.0020067103
000030 6c 53 d1 bd cd 14 44 bd ea 11 33 bd 06 5d 19 bc
       -0.102209896 -0.0478714 -0.043718256 -0.009360557

fc1.weight f4 [120, 256]
000000 f4 65 e2 3b 62 86 a8 3c b9 64 62 3d 78 45 9c bc
       0.0069091264 0.020571891 0.055271838 -0.019076094
000010 0a 1a b4 3b 7e f1 d8 bc 4e 9d f2 bc a1 0e 03 3d
       0.005496268 -0.02648234 -0.029616024 0.031996373
000020 fd 1a 81 3d 06 4a 2c bd 0d 16 13 3d e1 32 1c 3d
       0.06303976 -0.04206278 0.0359097 0.03813446
000030 8e e2 0a bd 3b a5 59 3c cd d3 4c bc 08 60 1b 3d
       -0.033907466 0.013284023 -0.012501669 0.03793338
000040 b7 c5 6a bc a6 cf fa 3c 09 04 cb bd 80 9c 1f 3d
       -0.014329365 0.030616593 -0.09912879 0.03896761
000050 14 ee 65 ba 30 d4 e6 3c 0d f8 7d bc 60 df 2d 39
       -0.0008771133 0.02817735 -0.015501034 0.0001658178
000060 8c db 3f 3d ce e5 54 bd 25 3c 7b bd f8 b3 7e bd
       0.046840236 -0.05197697 -0.061336655 -0.06218335
000070 13 d2 34 3d e1 eb 36 bc c6 1b f0 3c f9 8b 8e bc
       0.044145655 -0.011164636 0.029310118 -0.017400729
000080 5d ee 4e 3d fe 18 66 3d 03 9a b8 bc c2 d0 7f bd
       0.05052029 0.05617618 -0.022534376 -0.062454946
000090 a8 99 cb bc cf 8d 90 bd 9f 18 4d 3d bf 3c 42 3c
       -0.024853542 -0.07058298 0.05007231 0.011855303
0000a0 89 ac 25 3d 52 68 8b 3d 0f ed ab bc 96 4e 12 bd
       0.040447745 0.06807007 -0.020987062 -0.035719477
0000b0 5f 6a 31 3c dd 5d 4d 3c 26 b4 77 bc 20 1b 15 3c
       0.0108285835 0.012534586 -0.015118634 0.009100705
0000c0 cb e7 ab 3d b2 2f 31 bd 0a 92 86 3d b4 a4 50 bd
       0.083938204 -0.043258376 0.065708235 -0.050938323
0000d0 ab f9 4c ba 20 12 82 bc e2 94 a8 bc 02 90 87 bc
       -0.0007819186 -0.015877783 -0.020578805 -0.01654816
0000e0 73 19 ee bc 82 67 1b bd f8 c1 a7 3c 6a c0 51 3c
       -0.02906487 -0.03794051 0.020478234 0.012802223
0000f0 72 8c 18 3c 14 31 b4 3d b8 27 d4 3b 39 4b 6a bb
       0.0093108285 0.087984234 0.0064744614 -0.0035750403
000100 3a 28 62 3d 80 c5 3e 3d d7 ca 0b bd 7b a4 8d bc
       0.055214144 0.04657507 -0.03412899 -0.017290344
000110 27 0d ee bc 34 2c 69 bb 69 4b 4f bd 2d c0 ef 3b
       -0.029059006 -0.0035579326 -0.050609026 0.0073166103
000120 8a 8b a3 bd b6 28 db 3c 29 4a 0c 3d 21 60 9e ba
       -0.07985599 0.02675281 0.034250412 -0.0012083092
000130 69 0b 0e 3c a3 91 bc 3c 20 ae f7 bc 7b 86 e7 bc
       0.008669713 0.023018664 -0.030234396 -0.028262367
000140 92 e0 95 bb 96 d4 36 bc 0b ce 73 bd 06 96 cd 3b
       -0.00457389 -0.011159083 -0.05952267 0.0062739877
000150 29 54 17 3d c4 0c 1d bc 72 cf 8a bc c9 a0 61 3d
       0.036945496 -0.009585563 -0.01694462 0.055084977
000160 c9 3b 87 bd 70 dc 02 bd 01 92 3c 3c 6b 65 62 bd
       -0.066032 -0.031948507 0.011509419 -0.0552725
000170 24 2b 06 bd e2 2c 3f bd 1e ee 6a 3c 85 fe 1f 3b
       -0.032755986 -0.046673663 0.014338998 0.002441318
000180 de 24 18 3d 4b 3d 04 3d 41 c2 fd 3c 93 ba 6d bd
       0.037144534 0.032285016 0.030976417 -0.05803926
000190 20 97 52 bd bd 69 63 3d d9 3b 6b 3d c6 cb 44 3d
       -0.051413655 0.05552076 0.057430122 0.048045896
0001a0 6d 19 e1 3c ab 1d 75 3d d2 66 8d 3c 2c e2 4a bd
       0.027477944 0.059842747 0.017260943 -0.0495321
0001b0 98 94 17 bd 08 2d 13 bb 0b 06 81 3c 44 19 db bc
       -0.037006944 -0.002245726 0.015749952 -0.026745446
0001c0 bf b4 45 bd e2 0d 18 3b 2d ce cf bc 3b 37 5e bd
       -0.048268076 0.0023201634 -0.025366867 -0.05425189
0001d0 91 9d 39 3d 13 e0 25 3d 59 fb c4 3b 10 61 6b 3d
       0.045316283 0.040496897 0.0060114083 0.057465613
0001e0 30 8c 7d bc 84 0d 32 3d 38 5d 41 3d 7e 5d 0a 3c
       -0.015475318 0.04346992 0.04720804 0.008445142
0001f0 7a 7f a1 3b 93 96 01 3d 6a cf 01 3d 85 3b 63 bd
       0.0049285265 0.03163774 0.031691946 -0.055476684
000200 cc 23 c6 3c 42 af d8 3c 43 18 57 bc 6d 4b 32 3d
       0.024186991 0.026450757 -0.013128343 0.043528963
000210 7f 5b 3e 3c ea 91 ba 3a 1e 27 92 bb b9 c4 76 bd
       0.011618494 0.001423416 -0.0044602295 -0.060246203
000220 6e dc 4d bd 2e 8c 72 3c bf 55 fc bc d0 b9 ef 3c
       -0.050259046 0.014803929 -0.030802606 0.029263407
000230 9c e6 0b bb cb f2 35 bd cf a1 34 3d 71 b3 b6 3c
       -0.002134717 -0.044421 0.044099625 0.022302361
000240 0e af 07 bd 58 2a 4a 3d 6d cb df 3c 83 c3 8c 3d
       -0.03312593 0.04935679 0.02731868 0.068732284
000250 07 ee 10 bd 9f 76 bb 3c d3 56 20 bd 0e ee 6f 3c
       -0.03538325 0.022883711 -0.039145302 0.014644159
000260 7b 17 51 bc 52 86 23 bc 76 ff 16 3c 97 f0 b9 3b
       -0.012761946 -0.009980755 0.00921618 0.0056744325
000270 bd 35 cd bc 6d 37 9b bb 3b f2 74 3c f8 d0 86 3d
       -0.025050038 -0.004736832 0.01495033 0.065828264
000280 78 30 d3 bc 89 10 52 bd 10 4a 87 3d 2e 74 99 3b
       -0.025779948 -0.0512853 0.06605923 0.004683039
000290 df 9e 8f 3d b3 c4 89 bb b3 86 44 3d 95 50 9b bd
       0.07012724 -0.0042043566 0.04798002 -0.07583729
0002a0 b5 ce 1b 3d 79 4f fc bc 22 b8 a0 bc 47 a8 6e bd
       0.038038928 -0.030799614 -0.019619051 -0.05826595
0002b0 af a2 36 3d 0b cc 35 3b 41 94 07 3d 46 b2 79 bc
       0.04458874 0.0027740027 0.03310037 -0.015240258
0002c0 6b b4 1a bd 58 a0 be 3c fa 09 e5 bc e3 2d 5d 3d
       -0.037769716 0.023269817 -0.027958859 0.05399884
0002d0 90 6a 39 3d 45 65 d7 bc 27 02 31 3d 14 36 79 bd
       0.04526764 -0.026293406 0.043214943 -0.06084259
0002e0 83 7e 91 3d 64 94 21 bc 1f 3b 9a bc 04 fd 94 3c
       0.07104208 -0.009862039 -0.01882702 0.018187054
0002f0 dd f9 04 bd 69 4b 34 3c cf 0a 56 3d 72 78 8b bd
       -0.03246485 0.011004307 0.0522564 -0.068100825
000300 fe f6 30 3d 26 f6 ee bc c7 08 f9 bc 66 ae 3e bc
       0.0432043 -0.029170107 -0.030399693 -0.0116382595
000310 8a e8 4b 3c 34 8c ba 3c 7a a0 56 3c ae d2 d7 3c
       0.012445578 0.022771932 0.013099784 0.026345577
000320 f7 12 d8 bc 3c 20 87 bb c9 b3 3a 3b 26 c1 b2 3c
       -0.02637623 -0.0041237157 0.0028488508 0.021820616
000330 89 89 8f 3d 4f e4 3f 3d 1d b7 65 bc 88 02 8e 3c
       0.070086546 0.04684859 -0.014020708 0.017335191
000340 29 07 63 ba 50 0a 1f ba 9f 4c 50 3c 68 1c 84 3c
       -0.000866043 -0.00060669053 0.01271358 0.016126826
000350 49 3f 93 3d 26 e2 35 3d 5e ff 14 3d 58 80 23 bd
       0.07189805 0.044405125 0.03637635 -0.03991732
000360 0a 87 e0 3d 33 85 1a 3d cb d9 a0 3d 6a e8 49 bd
       0.10963257 0.037724685 0.07854041 -0.049293913
000370 e7 d6 6d 3d 19 c9 b2 3d 7e 37 85 bc ae a1 42 bd
       0.058066275 0.087297626 -0.016261812 -0.04751747
000380 81 4b 23 bd 41 ac ae bd 73 f5 77 3c fe 7e 29 3d
       -0.039866928 -0.085289486 0.015134203 0.041380875
000390 bb 14 e9 3c ba 96 71 bb e9 16 01 bd 06 ca 03 bd
       0.028452268 -0.0036863522 -0.03151599 -0.032175086
0003a0 7a 73 c1 bc 64 e4 25 3c 9a a9 cd 3c 20 a1 53 3c
       -0.023614634 0.010125253 0.025105286 0.012916833
0003b0 5c 8a 91 bc 98 df 96 3b 24 4f 2a 3d 6f 0e 1a bd
       -0.01776617 0.004604291 0.04157938 -0.03761142
0003c0 5a e5 21 bd 5a 2e 71 bd d0 47 73 bd a6 3b 82 bd
       -0.039525367 -0.058882095 -0.059394658 -0.06359033
0003d0 fd ba 8c 3d 67 90 2a 3d 78 80 65 3c e5 fc 53 bd
       0.06871603 0.04164162 0.01400768 -0.05175485
0003e0 ab de 08 bd 3f 76 46 3c 00 e1 f0 bb db b8 82 bd
       -0.033415478 0.012113153 -0.007351041 -0.06382915
0003f0 fd 57 9c bc 52 84 ec 3a 3f 93 77 ba 5a 85 58 3c
       -0.019084925 0.0018044806 -0.00094442436 0.013215387

fc1.bias f4 [120]
000000 64 58 78 3d fd fd 59 bd 36 71 a8 3c 2a 52 41 3c
       0.06063117 -0.053220738 0.020561796 0.011799375
000010 c6 27 5e 3d f7 11 f5 3c 89 53 51 3c 11 5e 17 bd
       0.05423715 0.029915793 0.012776264 -0.036954943
000020 fd f2 27 bd 16 9c 7c 3d d1 6e 5f 3d 87 98 8e 3c
       -0.041003216 0.061672293 0.054549042 0.017406715
000030 ba b1 9f bb f7 77 42 3d 48 99 2d bd 3e f3 d7 bc
       -0.0048734816 0.04747769 -0.04238251 -0.026361104
000040 58 2f 09 bd 65 02 98 3d 52 d5 23 bd 7d ec 24 3d
       -0.033492416 0.07422332 -0.03999836 0.040264595
000050 0d 5f 18 3d 27 14 4b 3d da 69 71 bc 0b 47 5f 3d
       0.037200022 0.049579766 -0.01473471 0.05451111
000060 24 c8 16 3b df c1 03 bd 03 12 51 3d ab 17 57 bd
       0.0023007477 -0.03216731 0.051042568 -0.052512806
000070 1f 5e 05 3d 23 1a 7d bd e2 ca 1d bd 8c 4b bd 3c
       0.032560464 -0.061792504 -0.038523562 0.023107313
000080 50 0c 91 bd 75 da ed 3c f5 9d 57 3d d6 da 21 3d
       -0.070824265 0.029034832 0.052640874 0.03951534
000090 7c aa 77 bc f0 3c 55 3d fb fa 6b bb f0 6e 2b 3d
       -0.01511633 0.052060068 -0.003600775 0.041853845
0000a0 5e f4 af bc 3b 0e 25 3c ce 34 45 bc 5a 8f 10 3d
       -0.021478828 0.010074194 -0.012036515 0.03529296
0000b0 5c 07 88 3d ff 15 08 bc 34 bb a3 3c 4f 49 17 bd
       0.06642029 -0.0083060255 0.019986726 -0.036935147
0000c0 dc 75 06 3d 7b bc 61 bd d8 ce ee 3c f4 51 0d bc
       0.032827243 -0.05511139 0.029151365 -0.008625496
0000d0 82 b1 80 3d 47 7c 1f 3d 34 58 66 3b b4 73 01 3d
       0.06283857 0.03893688 0.0035147788 0.031604484
0000e0 24 0e b7 3d 3e f7 07 bd ad 58 a3 bc fb 17 9e 3c
       0.08938244 -0.033194773 -0.019939745 0.019298544
0000f0 5a 5b e6 bb f5 fe 16 bd c2 88 80 3d da eb 8e 3d
       -0.007029933 -0.03686424 0.062760845 0.06978579
000100 d3 fc 13 bc 9b 96 aa bd 0a 1d 56 bc 2e c2 20 3d
       -0.009032446 -0.08329507 -0.013068447 0.039247684
000110 87 79 0f 3d e0 58 60 3d c5 41 88 bd f5 33 13 3d
       0.035028007 0.054772258 -0.066531695 0.035938222
000120 4d 43 17 bd 6d 63 95 bd 6a a8 a1 3c be 0e e2 bc
       -0.036929417 -0.072943546 0.019733626 -0.02759492
000130 69 70 9b bb f6 30 3e 3d 0a a0 f9 bc 05 84 94 3d
       -0.004743625 0.04643341 -0.03047182 0.07251743
000140 85 d6 9d 3c 0a c6 a8 bc 6f 9c e7 bc 91 5a 31 3c
       0.01926733 -0.020602245 -0.028272836 0.010824815
000150 da 1a 60 bd b5 9e 2c 3b 21 5c 7f bd 7d 93 06 3d
       -0.054713108 0.0026339714 -0.06234372 0.0328555
000160 90 d9 8d 3c 9d 2a 3f bd d2 fe 48 3d 7e a2 4d 3d
       0.017315656 -0.0466715 0.04907114 0.050203793
000170 37 1c 6f 3d 43 15 e2 bc 93 74 8a 3a 71 c2 6e bd
       0.058376517 -0.027598029 0.0010563306 -0.058290903
000180 3b c1 86 3d cf 57 13 3c f3 2c 01 bb 81 0f 31 bc
       0.065798245 0.008993103 -0.001971063 -0.010806919
000190 cb 1c aa bc d9 80 16 bd d9 91 df 3b ca 82 93 bd
       -0.020765683 -0.036743972 0.0068228063 -0.072026804
0001a0 d5 b6 80 3d 39 b2 5a bd 34 1f 8b 3d bd 45 54 bd
       0.062848724 -0.053392623 0.06793061 -0.05182432
0001b0 80 ee 5e 3d 8e e8 08 3d ab 54 00 bd a1 23 52 bd
       0.05442667 0.033424906 -0.031330746 -0.05130351
0001c0 39 49 d0 bc 7a b6 47 3d 2f 82 43 3d a2 8c 38 bd
       -0.02542554 0.048758008 0.047731575 -0.045055993
0001d0 79 7e 18 3d 71 be 29 bc 04 98 86 bd 6d 1d 6a 3d
       0.03722999 -0.010360346 -0.065719634 0.05715697

fc0.weight f4 [120, 120]
000000 70 ab e2 3d 07 ba 0a 3d 20 17 19 3d db 9d 07 3e
       0.11067855 0.033868816 0.03737557 0.13243811
000010 96 d0 86 bd 63 2f e0 3c 2a f0 18 bb 07 17 45 bc
       -0.06582753 0.027366346 -0.0023336508 -0.012029416
000020 91 63 09 3e 68 0e 1c 3d 17 59 6a 3d 9d f7 a7 3d
       0.13416888 0.038099676 0.05721387 0.08201525
000030 1d 74 58 3d b8 0f 73 3d 66 89 86 3d e9 e2 8d bd
       0.05284511 0.059341162 0.065691754 -0.06928045
000040 54 f0 e0 3c ca ac 1f bd 9b 62 6e bd 57 b5 04 be
       0.027458347 -0.038983144 -0.058199506 -0.129598
000050 fa f0 ed bd ac 2e 55 bd 2f fa 5b bd 95 f8 08 3c
       -0.11618228 -0.052046463 -0.05370539 0.008360048
000060 c7 64 84 3d 96 54 a7 ba 99 81 d7 bd 5b f0 dd bd
       0.06464534 -0.0012766297 -0.10522766 -0.1083686
000070 7d 56 ac bd 14 f8 0c bd 26 0b 6d ba d7 c0 15 bd
       -0.08414934 -0.034416273 -0.0009042494 -0.03656086
000080 56 46 86 bc 42 f2 c4 3c 97 79 2c ba 99 41 7f 3c
       -0.01639096 0.024041299 -0.00065793976 0.015579605
000090 24 3f 42 bd 74 a8 aa bd 3a 33 97 bd b2 80 3b 3d
       -0.047423497 -0.08332911 -0.073828176 0.04577703
0000a0 2b ae 09 bd 15 4e d1 3c 6a b9 ff bc 50 ee ea 3d
       -0.033613365 0.025549928 -0.031216342 0.11471236
0000b0 83 09 d7 3c 24 a4 13 bc 50 2f 10 bd 5e c5 dc 3d
       0.026249653 -0.009011302 -0.03520137 0.10779832
0000c0 8c a3 0a bd 7f 06 8a 3d 5a 57 ab 3c e1 4d 7e bd
       -0.033847377 0.0673952 0.020915676 -0.06208599
0000d0 d6 69 8b 3c eb bb 55 3d f8 f9 c2 3d 80 b5 a9 3c
       0.01701824 0.052181166 0.09520334 0.020716429
0000e0 58 0c bd 3d db 72 9f bd 3a bd 89 3c ab 43 ee 3d
       0.0923087 -0.07785579 0.016813863 0.116340004
0000f0 f4 f9 8c bd dc 25 aa bd 8e b1 98 bd de 92 9f 3d
       -0.06883612 -0.08308002 -0.07455741 0.077916846
000100 d2 c0 9c bd af 7f 90 bd 6b 07 ee 3c 99 45 d2 3d
       -0.07653965 -0.07055604 0.029056272 0.10267181
000110 90 f1 1b bd 56 7b 93 bc 50 e6 37 3d 5b 91 9d 3d
       -0.03807217 -0.018003147 0.044897377 0.0769374
000120 85 0a 02 3c 47 06 6d 3c 93 4d 32 bc ac 3b 10 bd
       0.007937078 0.014466829 -0.010882753 -0.035213158
000130 e0 73 61 3c 71 de 64 3d ad f5 48 3d a9 af a1 3d
       0.013760537 0.0558762 0.04906242 0.07894833
000140 b6 d8 4c 3d 75 98 01 3e 54 97 3b 3d 56 5f 3b bd
       0.05001136 0.12655814 0.045798615 -0.045745216
000150 25 1d 31 3d 3c 02 02 3e fe ec cb b9 a8 03 98 3c
       0.043240685 0.12696165 -0.0003889575 0.018556431
000160 b0 43 5d 3d 90 53 b5 bd 8a 2e b9 3c 3b 91 ae bd
       0.05401963 -0.08853829 0.0226052 -0.08523794
000170 0c 22 b2 bc 9d 0a ce bd d0 bf 62 3d a9 3c 4b bb
       -0.02174475 -0.10060618 0.055358708 -0.0031011498
000180 13 ef 1a 3d 09 70 bd 3c b9 c8 99 3d ef 4e ee 3b
       0.037825655 0.023124712 0.07508988 0.007272593
000190 0a 24 47 bd cb 7e 25 bd 63 8d b7 3d d9 5f 44 bd
       -0.048618354 -0.040404122 0.08962514 -0.04794297
0001a0 36 5f d7 3c ab 83 98 3d 17 cf 96 3d 03 29 b2 bd
       0.026290517 0.07446989 0.07363718 -0.086992286
0001b0 46 96 8c 39 7b 09 03 3d 06 88 8f 3d 43 bb e0 3c
       0.00026814843 0.031991463 0.07008366 0.027433043
0001c0 20 59 6f 3c e4 43 ee 3c 2b 52 f2 bc 04 ed b6 3a
       0.014608651 0.029085107 -0.029580196 0.0013956134
0001d0 27 eb ea bd f7 70 d8 3b a6 1b ec 3c 94 cf b0 bd
       -0.11470633 0.0066052633 0.028821778 -0.086333424
0001e0 d8 bc 30 3b 43 bf 67 bd 32 fb 35 3c c1 38 3c 3d
       0.0026968028 -0.056578886 0.011107253 0.045952562
0001f0 a6 99 43 bd 3c 66 b7 bd 7b 9b b2 3d 8f 99 98 3d
       -0.047753952 -0.089550465 0.08721062 0.07451164
000200 f9 a3 44 3d 9e 67 99 bd 58 66 c5 bc 7b 70 5a 3c
       0.04800794 -0.074904665 -0.024096653 0.0133324815
000210 35 ae ab 3d 19 12 92 bd 6e c4 03 be 09 f6 a5 bd
       0.08382837 -0.07132358 -0.128679 -0.08103568
000220 26 45 ba bc a5 6a 5f 3d ec 23 39 bd a0 a2 60 bd
       -0.02273805 0.054545064 -0.045200273 -0.05484259
000230 95 27 92 3d 32 b5 91 bd d5 42 1c bd 6f 4e 6d bc
       0.07136456 -0.071146384 -0.038149673 -0.014484032
000240 6a 6c 29 bd d3 3a 2d bd a3 af c9 bc 6c 86 bd bc
       -0.041363157 -0.042292427 -0.024619883 -0.023135386
000250 35 14 4c 3d 40 34 23 3d 68 64 70 3d 9d 50 ab 3d
       0.04982396 0.03984475 0.058689505 0.08364985
000260 fc d6 be bc bd a9 82 bd 36 de 01 bc 0d f4 19 3e
       -0.023295872 -0.06380031 -0.007926514 0.15034504
000270 c3 0a df 3c ad 99 3e bb ae 5b 89 3d 82 d9 1f bd
       0.027226811 -0.0029083297 0.0670694 -0.03902579
000280 fa fe f9 bc ea 3d 50 3d 72 33 48 bd bb 9a 2d 3d
       -0.03051709 0.050840296 -0.048877187 0.04238389
000290 ca d7 0f 3d e3 46 ce 3d 92 6f 6b bd fc 2e 92 3d
       0.0351179 0.10072114 -0.05747945 0.07137868
0002a0 60 f6 49 3d 26 c3 92 3d 1b ed 49 bd 8b d6 b0 bd
       0.049307227 0.07166128 -0.049298387 -0.08634671
0002b0 9f 0c 0b 3d 34 1c da 3b 71 94 87 bd 63 62 8a 3c
       0.033947583 0.006656194 -0.0662011 0.016892618
0002c0 bb f9 aa bd bd 42 79 bd 54 b4 a4 ba be bd 34 bc
       -0.083484136 -0.060854662 -0.0012565949 -0.011031566
0002d0 5d ff 72 bd 19 4f 5e ba 01 cb 94 bc e0 36 2c 3d
       -0.059325565 -0.00084804144 -0.018163206 0.04204452
0002e0 1e 6c dc 3d bc ef df bc ea cc 25 3d 31 b3 9c 3d
       0.10762809 -0.027335994 0.040478624 0.076513655
0002f0 10 58 8c bd 4b 5b 87 bb 3c d6 94 3d ba 4d 07 be
       -0.06852734 -0.004130756 0.072674245 -0.13213244
000300 ca af a8 3d d9 ac 05 bd 47 6c b7 3b 3c 8c 20 3c
       0.08236654 -0.032635543 0.0055976245 0.0097990595
000310 6f a0 12 bd 7f a2 d0 3c a5 4d be bc 6a 1c 4b 3d
       -0.035797533 0.02546811 -0.023230383 0.049587645
000320 66 15 f5 3c c0 b0 8c bc d5 6e 55 3d b1 05 76 3c
       0.02991743 -0.017174125 0.05210765 0.015016005
000330 5c 26 81 3c fe 65 23 3d 24 09 a2 bc 63 7d d6 3c
       0.015765361 0.03989219 -0.01977975 0.026182836
000340 82 38 6c 3d fe 0d 1e bd 4b e2 d8 bc 1b 33 37 bd
       0.057671078 -0.038587563 -0.026475092 -0.044726472
000350 13 b6 fc bd a3 df 00 bd 2e d4 7d 3c 33 17 d8 bd
       -0.123394154 -0.031463277 0.015492482 -0.105513
000360 93 09 90 bd ff 2d 94 3d c7 9f 77 3d 75 c0 3e bc
       -0.07033076 0.072353356 0.06045511 -0.011642565
000370 98 8a 60 3d b7 8e 28 3d cd ec ec bd e1 1f a4 3d
       0.054819673 0.04115173 -0.11568604 0.08013893
000380 37 06 a0 3d fe b2 8d 3d 5c 73 0a bd 04 f4 2a 3a
       0.078136854 0.06918906 -0.03380142 0.00065213465
000390 a2 1c d1 bd eb be 8e bd d8 12 ff bc e1 59 e1 bc
       -0.102105394 -0.069700085 -0.031136915 -0.027508678
0003a0 3b 74 ae bd 62 23 d8 bd 84 31 91 bc f8 96 56 bc
       -0.08518263 -0.10553624 -0.017723806 -0.013097517
0003b0 1f 3e d9 bb 26 b2 54 3d b8 9a 44 3b 51 2c 50 3c
       -0.00662972 0.051927708 0.0029999446 0.012705878
0003c0 72 49 d2 bc 70 de e1 3d da f6 94 bd ee 98 28 3b
       -0.025669787 0.11028755 -0.07273646 0.0025725919
0003d0 d5 3f 68 bd 6e a1 de 3d 51 97 4c bd 53 6e a4 3b
       -0.0567015 0.10870634 -0.049948994 0.0050180345
0003e0 9d d8 b2 3d eb 31 aa 3d 24 dd 59 bd 9a be aa bd
       0.08732722 0.08310302 -0.05318941 -0.083371356
0003f0 1b 14 8b b9 92 5c 1b 3d f1 56 b4 3d 55 bb 69 3c
       -0.00026527126 0.03793008 0.08805645 0.014265855

fc0.bias f4 [120]
000000 0f a9 d1 3d 3d 48 fd bc 95 47 5e 3c 00 3c 5e bd
       0.102373235 -0.030918235 0.013566871 -0.05425644
000010 62 c3 05 3c 69 37 d1 3c ad 19 40 bd fe b6 71 3d
       0.008164259 0.025539117 -0.046899486 0.059012406
000020 7d 67 3c bd 4a d3 08 3d d5 1b 75 3d 18 d0 c3 3d
       -0.04599713 0.033404626 0.059840996 0.09561175
000030 87 56 b9 bb d2 ca c3 bd 1f 37 24 bd 22 0d e3 bc
       -0.005656067 -0.09560169 -0.04009163 -0.027716223
000040 67 0f ec ba 82 a3 3a bd e8 e4 17 3c 84 2d b8 3d
       -0.0018009961 -0.04556609 0.009270884 0.089930564
000050 58 bf d2 3c 6a e1 c2 3d 8e 1d e5 3d 15 36 ed 3c
       0.025726005 0.095156506 0.11187278 0.028956452
000060 d5 b6 c1 bd ad 55 09 3e ed 35 65 bd 2e 10 7c 3c
       -0.094587006 0.13411589 -0.05595963 0.015384717
000070 86 a7 92 3c 1a e2 62 bd 04 52 ad bd 8e 7e 2c 3d
       0.017902147 -0.05539141 -0.08462909 0.04211288
000080 cd ae e8 3d 6c 3d 94 3c 82 5c 14 bd 87 07 b6 3d
       0.113614656 0.018095694 -0.036221035 0.088881545
000090 2d 8d ee bc 49 7e cb bd ab ee 19 3b 0e ca a7 3d
       -0.029120052 -0.09936196 0.0023488204 0.08192836
0000a0 af 34 65 3d 78 38 bc bc e4 b4 69 3d 29 69 22 3d
       0.055958446 -0.022976145 0.057057276 0.03965107
0000b0 f3 06 88 3d 3a 91 92 3d f8 9a 26 bc 17 02 9e 3c
       0.066419505 0.07156606 -0.010168783 0.019288106
0000c0 8c f3 c4 3d 7b 13 2b bc 8d 33 2f 3d 34 48 9a bd
       0.096167654 -0.010441656 0.042773772 -0.07533303
0000d0 a8 a7 e2 3d 36 64 4e bd 36 55 84 bd d4 e5 7f 3d
       0.11067134 -0.050388537 -0.06461565 0.06247504
0000e0 3e 1c 79 bc 31 19 18 bc 4d 5d d0 bc 50 98 b1 bd
       -0.015204487 -0.00928335 -0.025435114 -0.086716294
0000f0 35 a4 b9 bd e5 1f a3 3d 80 9b b3 3d 51 53 88 3d
       -0.09064523 0.07965068 0.08769894 0.06656516
000100 f3 a0 68 3d e8 0d 73 bd 34 b4 df 3c 99 c1 43 3c
       0.056794118 -0.059339434 0.027307607 0.011948013
000110 fa e9 98 3d c0 0a 06 bd a4 07 6e bb cc ef 7b 3d
       0.074665025 -0.032725096 -0.0036320472 0.061507985
000120 fc 1b 63 3d 82 da c6 bd 87 b8 67 bc 7d f6 9e bd
       0.05544661 -0.09709646 -0.014143116 -0.07761858
000130 d9 2d 2d 3d 4d 80 7b 3d 9e 86 8a bd ac df 1e bd
       0.04228005 0.061401654 -0.067639574 -0.03878753
000140 01 83 66 bc 21 4b 8d bd 58 d7 da ba 6f f8 dc 3d
       -0.01406932 -0.06899095 -0.0016696258 0.107895724
000150 e2 36 b3 bc 06 e2 4c bc e5 a0 d4 3c 7d dd d6 bc
       -0.021876756 -0.01250506 0.025955627 -0.02622866
000160 15 76 c7 3d 95 2e 4f bd e0 02 ac 3d 7d 5f 17 3d
       0.09739319 -0.050581533 0.08398986 0.0369563
000170 24 9f 93 3d 25 3e d3 3d ba 06 88 3d fa d9 b8 bd
       0.07208088 0.103145875 0.06641908 -0.09025951
000180 21 2b c9 3d b3 a5 a6 bd 12 21 a7 bd a9 1d 17 3d
       0.09822679 -0.08137073 -0.081606045 0.03689352
000190 df 0c c7 bd b4 9d d9 bc 1d 4e 16 3d e2 c0 8d 3c
       -0.09719252 -0.026564457 0.03669559 0.017303888
0001a0 5f a0 d1 3d 1f e8 28 3d ac 0c c6 bd c0 eb 5b bc
       0.102356665 0.041236993 -0.09670386 -0.013422906
0001b0 22 18 81 bc 96 d3 be bd 7e 0c 09 bd 51 59 0e bd
       -0.015758578 -0.093177006 -0.03345918 -0.034753148
0001c0 a0 bb bb 3c e3 88 3c 37 73 dd 68 bc dc 09 36 3d
       0.022916615 1.1237545e-05 -0.014212954 0.044442996
0001d0 95 7a 87 bd 3f fc d3 3d 42 c7 08 3e fc b1 85 3d
       -0.066151775 0.103508465 0.13357261 0.065280885

fc2.weight f4 [84, 120]
000000 87 32 c4 3c 83 0d ce 3c 4d 8c 09 bd a4 e8 85 3d
       0.023949875 0.025152927 -0.033581067 0.06538513
000010 2b c7 57 bd 21 86 f5 3c 74 be 66 3c 23 f9 ad 3d
       -0.052680176 0.029971184 0.0140834935 0.08494785
000020 02 16 7e 3d 9b be 82 3c bf 6d e9 3c 30 7b 61 3a
       0.062032707 0.015960028 0.028494714 0.0008601425
000030 8c f0 62 bc 48 7e 65 3c 7a 61 d4 bd 7c 22 e2 bd
       -0.013851296 0.014007159 -0.10370155 -0.110417336
000040 50 62 3d 3d 5e 08 27 3d a4 a8 a6 3d 97 3d fe bc
       0.046236336 0.040779464 0.081376344 -0.031035228
000050 5c e0 bc 3d db 74 d2 3d b2 02 3a bd 6f 46 d0 3d
       0.09222481 0.10276195 -0.045412727 0.10169684
000060 54 15 08 bd 6b e5 ed 3c 07 84 7e bd 6c ff 4e 3d
       -0.033223465 0.02904006 -0.06213763 0.050536558
000070 cc 61 4e bd f8 33 65 3d 0c b0 4d bd 7a 71 54 bd
       -0.050386235 0.055957764 -0.05021672 -0.051866032
000080 79 c6 da bc 0b 9d 8c 3a 25 f1 b6 3d 48 3f ac bd
       -0.026705967 0.0010727955 0.089327134 -0.084105074
000090 9a 19 12 3d 0f e7 5b 3d 69 54 b4 3d 1c a4 57 bd
       0.035668947 0.05368715 0.088051625 -0.05264674
0000a0 99 ab 5e bd f8 10 03 3c 17 41 d3 3d 7b 71 60 3d
       -0.054362867 0.007999651 0.10315149 0.054795723
0000b0 38 2f 3d bc 8a 52 01 3d 80 93 61 bd a3 73 d2 bc
       -0.011546902 0.031572856 -0.055072308 -0.025689906
0000c0 7a 6a cc bc 58 22 aa 3d c4 4b 07 bd 94 de 6f 3d
       -0.024953116 0.08307332 -0.03303124 0.058561876
0000d0 0b bd 9b bd 88 1f 43 3d 7c 07 dd 3d b3 a7 be 3d
       -0.076044165 0.047637492 0.10792443 0.0930933
0000e0 6b 0f 74 bc aa ac 76 bd f1 46 04 3e ca 0e 42 3b
       -0.014896254 -0.06022326 0.12917687 0.0029610866
0000f0 81 f6 c1 3d ab 8f 89 3d 3b a9 67 bd e1 e1 89 bc
       0.09470845 0.067168556 -0.056557875 -0.01683134
000100 fd 15 2c bd 31 2f 43 bd fb 1c e7 3c 4d 66 5f bc
       -0.042013157 -0.047652427 0.028212061 -0.01363523
000110 cb b7 4a 3d f5 01 9b bb c8 95 d1 3b 0d c9 01 3d
       0.049491685 -0.004730458 0.006396029 0.031685878
000120 c0 d8 7f bd b1 d3 fa 3d 71 2d 9b 3b bd e6 92 3c
       -0.06246257 0.12247408 0.0047356416 0.01793229
000130 0d 85 09 bb 71 15 86 bd 17 44 ec 3d 44 10 a0 bd
       -0.0020983845 -0.065470584 0.115364246 -0.078156024
000140 58 6d a1 3c 0c e3 aa 3d 10 a7 83 bd 1a f3 8d 3b
       0.01970546 0.08344087 -0.06428349 0.0043319585
000150 c5 9e a3 3d b2 33 45 bd 0f a5 f7 bc 36 59 b9 3d
       0.07989267 -0.048145004 -0.030230073 0.09050219
000160 12 8e af bd 2b f1 8d bd 96 09 b3 bd a7 f6 70 bd
       -0.0857202 -0.06930765 -0.08742063 -0.058828976
000170 b9 b9 ab 3d 7c f9 89 bd cf 06 c9 bd 86 8b e9 bc
       0.08385033 -0.067370385 -0.09815752 -0.028508913
000180 91 64 f3 3d 71 db 05 bd 53 a9 aa bc 17 48 1b bc
       0.11884416 -0.03267998 -0.020832693 -0.009477637
000190 c3 8f 36 3d 2e df d5 bd d5 15 17 3d 7f a9 5a bd
       0.044570696 -0.10442959 0.036886055 -0.0533843
0001a0 7d 72 b3 3d 90 fe e9 bc 08 ff 12 3d e3 ef 32 3d
       0.08762071 -0.028563768 0.035887748 0.043685805
0001b0 3e 5c 3c 3d 62 87 a9 3d 56 38 cf bc 58 8f ab bd
       0.045986407 0.08277775 -0.025295418 -0.0837695
0001c0 2c 5d c5 3d f6 74 cd 3d cf d5 9f bc bb 65 27 bd
       0.09636912 0.10032074 -0.019511132 -0.040868502
0001d0 6f 6a e6 3c f3 d0 8d bd 67 8d 1a 3d 8c 9f 14 bd
       0.028126923 -0.069246195 0.037732508 -0.03628497
0001e0 2b 37 7e 3c b5 4e 8c 3c 1e c8 8b bd 7f e1 1a be
       0.015516083 0.017127374 -0.06825279 -0.15125082
0001f0 a6 8a b8 3d 53 24 85 bd ad 0a 0f bc 64 2b 14 bc
       0.0901082 -0.06501069 -0.008730573 -0.009043548
000200 1e 91 49 3d 5c 66 be 3d de 42 38 bd 3f 4d 12 bd
       0.04921066 0.09296867 -0.044985645 -0.0357182
000210 14 9b d1 bd 8c 13 b8 bd 5d a4 c9 bc 31 c5 97 3d
       -0.10234657 -0.08988103 -0.024614507 0.07410658
000220 ac 7c 54 bd c7 91 d6 3c e5 ce d3 38 b6 7b fc 3d
       -0.05187671 0.026192559 0.00010099801 0.123282835
000230 d4 98 12 3d 0c 0b a1 bd d3 65 4b bd 05 c1 84 3d
       0.03579028 -0.07863435 -0.049657654 0.06482128
000240 2c 09 85 bc a2 78 16 3c bc 1f cd bd 82 cf ed 3d
       -0.016239725 0.009184035 -0.100158185 0.116118446
000250 73 4f 34 3c b2 15 10 bd 05 07 3c bc 47 5a 01 3e
       0.01100527 -0.03517694 -0.011476283 0.12632094
000260 7c 33 d6 3d d0 82 b1 bd 33 c6 60 bc 9c 29 af 3d
       0.104590386 -0.08667529 -0.013719129 0.08552858
000270 55 e6 22 3d 2c e5 66 bc 30 97 95 bd f2 f3 e4 3d
       0.039770443 -0.014092725 -0.07304227 0.111793414
000280 4d 9c 07 be c1 f8 a4 3c 6e a3 16 be 66 f9 d4 3d
       -0.13243218 0.020138146 -0.14710781 0.103991315
000290 3e ee ae bc ce 7d 94 3d af 18 b4 3c 3b 86 b7 bd
       -0.021353837 0.07250558 0.021984426 -0.08961149
0002a0 c0 e0 bf bb 72 e2 ee bc 76 8d d4 3d 19 31 a3 bc
       -0.0058556497 -0.029160712 0.10378544 -0.019920873
0002b0 5b f4 8a bd 85 e0 07 3c e3 72 72 bd 5f 1a d2 3c
       -0.06784888 0.008293276 -0.059191596 0.02564734
0002c0 f1 cf 4e 3d c8 1f 83 3c 4c 72 c7 bc 37 56 44 3d
       0.050491277 0.016006365 -0.024346493 0.047933783
0002d0 74 51 51 bd 74 7d 87 bb c9 0e 2b 3e f7 cd 24 3d
       -0.05110307 -0.004134828 0.16704859 0.040235486
0002e0 f1 db 07 bc f0 9b d6 bd bc 62 67 bd 6a b8 13 bd
       -0.008292184 -0.104789615 -0.056490645 -0.036064543
0002f0 a9 8e 45 3d 66 a0 0e 3c 4a 20 b1 bd f0 dd a6 3b
       0.048231754 0.008705234 -0.08648737 0.005092375
000300 30 11 1b bd be c2 a5 bd cb 00 a7 3d a4 41 58 3d
       -0.03785819 -0.08093785 0.08154448 0.052796975
000310 74 d4 9d 3d 12 26 39 3d cc e9 f9 bd b3 89 b9 3d
       0.07706538 0.045202322 -0.12202796 0.09059467
000320 60 06 c2 bc 3f f3 4a bd 32 29 01 bd 4a 06 05 bc
       -0.02368468 -0.049548384 -0.031533428 -0.008119175
000330 fd 17 b9 bd 9e 5f cb 3d bb 92 93 3d d9 81 d6 3d
       -0.090377785 0.09930347 0.07205721 0.10473985
000340 f7 e2 8b 3c 2c 10 53 3d 63 ac a4 bd 34 03 b1 bc
       0.017075999 0.051529095 -0.08040693 -0.021607973
000350 df fa 93 3d d5 7f d8 3d fb 61 ee 3d fb b8 0c bd
       0.07225584 0.10571257 0.11639782 -0.0343561
000360 c4 3e 81 bd a6 82 ad 3d 0e c6 5a bd 1b 7d be bc
       -0.063108 0.08472185 -0.053411536 -0.023253014
000370 57 47 23 bd 7c 00 13 3d fb 2e b5 3d 6e 06 7c 3d
       -0.039862957 0.035889134 0.088468514 0.06152957
000380 c4 b6 8d 3d 6c 21 08 3d 48 9d 26 bd 98 4b 92 bc
       0.069196254 0.033235 -0.04067734 -0.017858312
000390 12 92 ec 3c 56 65 e1 3c 86 24 3f bd 4e 0f c2 bc
       0.028878246 0.027514141 -0.04666569 -0.023688938
0003a0 2f d9 bb 3b dc c5 c0 bd d4 84 c4 bd 7f 93 d4 3c
       0.0057326774 -0.09412739 -0.095956475 0.025949238
0003b0 f8 93 a1 bc 2f 35 ba 3d cf 9a a1 3c 0c 7d d8 bc
       -0.019723877 0.09092175 0.019727139 -0.026426814
0003c0 23 28 87 3c 22 ea c7 3d 38 af 14 3d 46 78 24 3d
       0.01649863 0.09761454 0.036299914 0.040153764
0003d0 7a 35 80 3d ea f8 48 3d 40 d8 9a bc 51 d1 ae 3d
       0.062602 0.049065508 -0.018901944 0.08536018
0003e0 a2 a0 0c bd 31 8a b0 bb ef e2 05 be 17 d3 85 3d
       -0.03433288 -0.0053875674 -0.1307485 0.06534403
0003f0 97 74 da 3d 66 26 f9 3c 06 ab a6 bd 81 09 cd bc
       0.10666769 0.030413818 -0.08138089 -0.025028946

fc2.bias f4 [84]
000000 42 86 91 3c b7 ae 4b 3c d3 55 22 bd fb 15 7d bd
       0.017764214 0.012431792 -0.03963263 -0.06178854
000010 03 dd 89 3d 46 54 3c bb 1b 2f c3 3d 29 bb 2c 3d
       0.06731608 -0.0028736754 0.09530469 0.042170677
000020 fd 77 61 bd b8 46 85 bc 3e ea 8a bb 3a cd 83 3c
       -0.05504607 -0.016269073 -0.0042393496 0.01608907
000030 ea 3f bd 3d 12 8f ac bc fe 06 b5 3b 92 24 66 bd
       0.09240706 -0.021064315 0.005524515 -0.05618722
000040 fb 55 f3 bc 85 31 18 bc 60 21 2f bd 27 f9 90 bd
       -0.029704085 -0.00928915 -0.04275644 -0.07078772
000050 d2 c7 86 3d f5 44 a9 3d d8 e2 01 bd 41 d8 22 bd
       0.065810814 0.08265106 -0.031710476 -0.039757017
000060 e1 c5 14 3d 09 be e7 3d 88 71 51 3c 60 fc 64 3d
       0.036321525 0.11315543 0.012783416 0.055904746
000070 93 7f 0c bd 72 a0 21 bd e3 40 d0 bb ff 8b d3 3c
       -0.03430135 -0.039459653 -0.0063553913 0.025823591
000080 ef c5 61 bd 29 8c b5 bc 67 f5 82 3c 9a 26 c9 3b
       -0.055120405 -0.02216156 0.015986158 0.006138635
000090 5b 6c 81 3d 8d 12 79 3d 0c 2f 99 bd 33 7e 38 3c
       0.06319495 0.060808707 -0.074796766 0.011260557
0000a0 50 a9 a3 bd 82 2b 98 bc 4f df 37 bd b3 94 5a 3c
       -0.07991278 -0.018575434 -0.044890698 0.013341117
0000b0 61 02 c1 bc 39 9f 69 bb e5 0c f3 bc 49 45 09 bd
       -0.023560705 -0.0035647883 -0.029669235 -0.03351334
0000c0 9c ef 4a bd 96 55 44 bd 3b af 62 3d 2b a5 3d 3d
       -0.049544916 -0.047933184 0.055342894 0.046300095
0000d0 ee e1 c8 bc ca 60 ba 3d e5 80 90 bd 67 cc 6f bc
       -0.024521794 0.09100492 -0.07055835 -0.014636136
0000e0 c2 74 98 3d d9 8c a5 3d 3b 8b 2d bc 6a ca 17 3d
       0.07444145 0.08083505 -0.010592277 0.03705827
0000f0 eb d9 92 bd 88 3d d3 3d a3 d2 88 3d 0f 71 9c bd
       -0.07170471 0.103144705 0.06680801 -0.07638752
000100 a6 e4 15 3e 26 a1 27 bc 2c 36 cb 3c 0f 26 8a 3d
       0.14638004 -0.010231292 0.024806105 0.0674554
000110 e5 84 19 3d 41 52 ef 3d da 53 7d bd ee 6f 75 bd
       0.037480254 0.116856106 -0.061847545 -0.059921198
000120 5e 09 78 3d 72 4d aa 3c 75 d0 ac 3d 7d 92 9b bd
       0.06055581 0.020788882 0.084381975 -0.075963
000130 20 0e 95 bd 2c 7e a4 3d 07 f7 6f 3d 30 d0 49 bd
       -0.07278085 0.08031878 0.058585193 -0.04927081
000140 5f 40 08 3d a9 8e 82 bd f9 de 8c 3d e8 bb 52 bd
       0.033264514 -0.063748665 0.06878466 -0.051448733

fc3.weight f4 [10, 84]
000000 13 b8 7d 3d be 3b 40 be 80 4d a2 3d a9 0d 62 bd
       0.061943125 -0.1877279 0.07924938 -0.05518881
000010 b7 c9 5e be c3 25 8e bd 32 db 92 3d b9 41 0e be
       -0.21756636 -0.06940796 0.071707144 -0.13892259
000020 43 5c 6a bd 55 05 33 be a8 e3 82 bd 98 3a fc bd
       -0.057216894 -0.17482503 -0.06391078 -0.12315863
000030 92 24 c2 3d 35 28 fa bb 6a 56 98 bd 58 ba 38 bc
       0.094796315 -0.0076341876 -0.07438357 -0.011274897
000040 f6 8f ae 3d 35 80 ac bd fc 9f a7 3d 8a 2f 09 be
       0.08523552 -0.08422891 0.081848115 -0.13397041
000050 1a cf 6d ba 6c 3a 25 3d fe 41 5b 3d 33 c0 98 3c
       -0.0009071693 0.04033892 0.053529732 0.018646335
000060 31 c6 75 b9 54 cc bf bd 11 c4 97 bd c8 b9 03 3e
       -0.00023438853 -0.09365144 -0.074104436 0.12863839
000070 1e a1 2f be a3 42 8b 3d 2d 4c 55 bc 3d db b7 bd
       -0.17151305 0.06799819 -0.01301865 -0.08977363
000080 c6 03 bd bd f4 42 e0 3c cc 6e d1 3c f0 22 97 bc
       -0.09229235 0.027375676 0.025565527 -0.018449277
000090 cb d1 0b be f5 c6 da 3c be 6e b9 bd b3 be 1b be
       -0.13654248 0.026706198 -0.090543255 -0.15209465
0000a0 2f e7 0a 3c 9c 6f 83 bd f3 67 e9 bd c1 96 c1 3d
       0.00847797 -0.06417772 -0.1139678 0.09452582
0000b0 c1 fa 89 bd 84 fe 81 bc 0e 0a f5 bd ad c0 07 3e
       -0.06737281 -0.015868433 -0.119648084 0.13257094
0000c0 5b 0c 48 bd 76 db 99 bc 1f 97 c6 3d 3f 85 10 3d
       -0.048839908 -0.018781405 0.09696793 0.035283323
0000d0 0d 6d 19 be 43 6c df bd 6b c1 86 bc 76 7c 04 be
       -0.14983006 -0.10909321 -0.01644965 -0.12938103
0000e0 88 8a f8 bd bb 8f e0 ba 85 b3 0e 3e 37 65 bd 3d
       -0.12135798 -0.0017132679 0.13935669 0.09247821
0000f0 ce a7 71 3d 44 a5 b3 bd 7b 47 55 3d 2e 8b e4 bd
       0.05899792 -0.08771756 0.052070122 -0.11159359
000100 15 18 24 be 43 61 8a bd 8a e0 cf 3d 56 8f 8c 3d
       -0.16024812 -0.067568325 0.10150249 0.06863277
000110 51 1f 40 bd bf e9 04 bd f0 b7 e1 bd 79 9e 52 3d
       -0.046904866 -0.03244948 -0.110214114 0.051420663
000120 58 dd f3 3d ec 87 11 3e a0 50 fe 3c 59 ca b9 bd
       0.11907452 0.14212006 0.031044304 -0.09071798
000130 af 19 a3 3d b1 6b a2 3d 8c a1 bc 3c 18 e1 99 bc
       0.07963883 0.07930697 0.02302625 -0.01878409
000140 c1 46 ba 3d e7 66 bf 3d 8e 8f a1 bd 95 5d 91 bd
       0.090955265 0.09345799 -0.07888709 -0.070979275
000150 2a 2b e4 bc f2 5a fa 3d 1e d1 4e be 10 58 fc bd
       -0.027852613 0.12224378 -0.2019696 -0.12321484
000160 fe d2 1a 3e 0a 4b eb 3d 7b a6 8d 3d 0d 95 f9 3d
       0.1511955 0.11488922 0.06916519 0.12186632
000170 80 db 28 3d 12 8a f6 3d b2 32 00 3d 2c ad 0d 3e
       0.041224957 0.120380536 0.031298347 0.13835591
000180 8d a5 49 be 0a 11 1b 3d 16 2f c3 3d ec e0 65 3d
       -0.19692059 0.037858047 0.09530465 0.056122705
000190 26 76 c7 bd 9b c6 9f 3d 7e ec f0 bd 4f 46 13 bb
       -0.09739332 0.07801553 -0.11763857 -0.0022472327
0001a0 e2 a7 97 bc 7a 2b 25 be ce 14 03 be 1a e6 cc ba
       -0.01851267 -0.16129866 -0.12800905 -0.001563254
0001b0 bc 52 07 be 26 ed 1d 3e 9c 49 bf bd 4e 0b 2e be
       -0.13215154 0.15422496 -0.09340212 -0.169965
0001c0 03 5c 89 3d 52 47 9b ba e8 44 33 be a2 0d 40 be
       0.06707003 -0.0011846817 -0.17506754 -0.187552
0001d0 2b 0e 5d bb aa 77 78 3c e6 e1 c9 bc f4 9d ae bd
       -0.0033730369 0.015165249 -0.02464385 -0.08526221
0001e0 6c 22 e6 3c a2 b2 23 3e a0 af 00 be b2 d3 0c bd
       0.028092586 0.15986112 -0.12566996 -0.034381576
0001f0 9d 87 c5 3c a2 9d c9 bd a6 77 16 be 58 ef f5 bd
       0.024112517 -0.09844519 -0.1469408 -0.12008542
000200 89 87 a7 3d a8 09 60 bd 27 8d d8 ba 67 a2 20 bd
       0.08180148 -0.05469671 -0.0016521559 -0.03921738
000210 21 71 f4 bd cf 57 56 bd d1 e4 69 3d a9 39 16 be
       -0.1193564 -0.052329835 0.057102982 -0.14670433
000220 4d 8a 1d 3d 5a 75 20 3e d4 c6 0f be 6c b4 c4 3d
       0.038461972 0.15669766 -0.1404069 0.09604725
000230 00 c6 f9 3d 0d 61 0b 3d 39 5a 1d be d8 08 59 bd
       0.12195969 0.0340281 -0.15366448 -0.05298695
000240 40 a1 c0 bd b8 8c d2 3c 9d dc 90 3d 75 0e 7d bd
       -0.09405756 0.025701866 0.07073329 -0.061781365
000250 27 51 92 3d 85 e8 a4 bd 10 3a 10 be 8c 47 01 bd
       0.07144385 -0.08052162 -0.14084649 -0.031562373
000260 d7 45 98 3c c7 26 15 3d d5 fb 2a be a6 5a 6e be
       0.01858799 0.036413934 -0.16697629 -0.23276767
000270 af 53 c0 bd e0 f5 03 be 99 61 8a bc c7 7a 1b be
       -0.093909614 -0.12886763 -0.016892241 -0.15183555
000280 8d dc fa bc dd ab 39 3c 03 b7 9c 3d 9a 7d 49 3d
       -0.030622745 0.011332479 0.07652094 0.04919205
000290 b2 28 01 bc fe 7c 05 3c bb ac 56 3e 44 40 84 bd
       -0.007883238 0.008147476 0.20964329 -0.0645757
0002a0 02 b5 40 bd 08 30 37 be be 75 d1 3c 3e 59 10 3c
       -0.047047623 -0.17889416 0.02556884 0.0088103395
0002b0 cb d5 10 be a7 fd 0f 3e f8 50 a7 bd 43 77 dd 3d
       -0.14144056 0.14061604 -0.081697404 0.10813763
0002c0 99 9e 18 be c9 dc 77 3d 76 ce 18 3d c5 00 f3 3d
       -0.1490425 0.06051329 0.03730627 0.11865381
0002d0 b4 bf f9 3d 77 21 84 bd cd 97 6d bd 58 57 6b bd
       0.121947676 -0.064516954 -0.058006097 -0.057456344
0002e0 64 6c 8e bd 51 c2 b7 3d ad 72 cf bc 85 6a ab ba
       -0.069542676 0.0897261 -0.025323236 -0.001307801
0002f0 ce 9a c8 3d 39 73 d4 bd b2 70 0e be 7b 49 a7 bd
       0.09795152 -0.103735395 -0.13910177 -0.08168312
000300 08 72 ba bd 36 a3 ab bd 99 99 fc 3d b9 b5 71 3d
       -0.09103781 -0.083807394 0.12333984 0.059011195
000310 f3 57 22 bd 39 03 1a bc 3e eb f4 bd 29 08 3b bd
       -0.039634656 -0.009400182 -0.119589314 -0.04566208
000320 92 82 f6 3d 74 be 35 3d 50 8e 6f bd 47 21 0a bd
       0.12036623 0.044371083 -0.05848533 -0.033723142
000330 1d 95 d5 bc 4a 36 b8 3d 36 b7 6d 3d 12 a6 c5 3d
       -0.02607208 0.0899473 0.05803605 0.09650816
000340 4d a7 61 3d b8 4b 20 bd 88 b9 96 bd a8 ff 10 be
       0.05509119 -0.03913471 -0.07359606 -0.14160025
000350 4e 73 62 bd db fc 22 be 9e f7 ca 3c de 32 8b 3d
       -0.055285744 -0.15916769 0.024776276 0.067968115
000360 b0 10 29 bd ae b8 07 3c ba ee 33 bd 2e 39 d6 3d
       -0.04127568 0.008283777 -0.04392884 0.10460125
000370 b5 cf 29 be 98 42 94 3d f2 c2 b0 bd 71 6e ca bd
       -0.1658314 0.07239264 -0.08630933 -0.09884346
000380 14 39 c6 3b 89 23 d6 3d be a5 06 3d 5f 8a ef bd
       0.0060492847 0.104559965 0.032872908 -0.11696314
000390 90 35 17 bd 19 23 85 3d ab 94 27 bd e5 5c 02 3d
       -0.036916316 0.06500835 -0.040913265 0.031826872
0003a0 80 44 3c be d5 e8 74 bd d0 9f 9f 3d 43 3d f5 bc
       -0.18385506 -0.05979236 0.07794154 -0.029936438
0003b0 c5 c5 5e be a8 c7 65 3b d6 fe 89 3d 26 85 c6 bd
       -0.2175513 0.0035061631 0.06738059 -0.09693365
0003c0 33 bd 8b bd 30 d3 9e 3d 06 5b 0d 3e 9d 29 35 bc
       -0.06823196 0.077551246 0.13804254 -0.011057285
0003d0 23 4b 68 bd d4 5d e1 bd b4 46 96 bd 61 ce 85 bc
       -0.05671228 -0.110042244 -0.07337704 -0.01633376
0003e0 d2 b0 1d 3d 98 6f fe 3d dd c6 e9 3d 66 82 b6 bc
       0.038498707 0.124236286 0.11414883 -0.022278976
0003f0 08 a8 c8 bb 57 0e a0 bc a2 a6 af 3d f0 3d d4 3d
       -0.0061235465 -0.019538088 0.085767046 0.10363376

fc3.bias f4 [10]
000000 ea 23 a9 bc df 6b 5e 3d 77 95 c4 bd 1f ab 26 bd
       -0.020647008 0.054302093 -0.09598821 -0.040690538
000010 b0 d6 be 3d 48 3f 80 bc f7 ae c7 3c 2c 7a 9e bd
       0.09318292 -0.015655175 0.024375422 -0.07738146
000020 48 ce 93 bd e8 86 40 3c
       -0.072170794 0.011750914
