models/client-2-3.pth (torch, 181282 bytes, 10 tensors)

conv1.weight f4 [6, 1, 5, 5]
0	0x3e7fbcb0	0.24974322
1	0x3c9651d7	0.018349571
2	0xbe6df3ad	-0.23237486
3	0xbdc9363b	-0.09824797
4	0xbbd49d41	-0.0064884727
5	0x3e52b946	0.20578489
6	0x3c415018	0.011798881
7	0xbe3242d0	-0.174083
8	0xbe22123f	-0.15827273
9	0x3cd8da06	0.02647115
10	0x3e332e98	0.17498243
11	0xbddfb111	-0.109224446
12	0xbe1cddae	-0.15318939
13	0xbdc2ed71	-0.095179446
14	0x3db89f77	0.090147905
15	0x3ea47f72	0.32128483
16	0x3e2b836e	0.16749355
17	0x3e032de7	0.12810479
18	0xbe33717b	-0.17523758
19	0xbdc5cfa3	-0.09658744
20	0x3e9304cf	0.28714606
21	0x3d7466e1	0.059668425
22	0x3bb652ec	0.0055640843
23	0x3dccbc2a	0.09996827
24	0x3e4ec0a8	0.2019068
25	0xbd985bcb	-0.07439383
26	0x3e192c06	0.149582
27	0x3d1bb498	0.038014024
28	0x3e057453	0.13032655
29	0x3cb9348a	0.02260806
30	0x3e7ef42c	0.24897832
31	0x3e96e0d4	0.29468405
32	0x3d2b5f41	0.041838888
33	0x3e8717b3	0.2638527
34	0x3d9eaf4a	0.077482775
35	0x3df8af02	0.12142755
36	0x3e050c15	0.1299289
37	0x3eb57a9f	0.35445115
38	0x3db4d3c5	0.08829454
39	0xbca4b0e2	-0.020103876
40	0x3e6cd6b3	0.23128776
41	0x3dc0b65f	0.094097845
42	0xbbfd2b4e	-0.0077261096
43	0x3e5ad64a	0.21370807
44	0x3d67dd7f	0.05660772
45	0x3e2db501	0.16963579
46	0x3a9ba340	0.0011874214
47	0x3ccf2efb	0.025290957
48	0x3aaa58b6	0.0012996409
49	0x3e8cf319	0.2752922
50	0x3e4bfe19	0.1992115
51	0x3e56bef3	0.20971279
52	0x3d57b0e6	0.052658938
53	0xbe08e533	-0.13368683
54	0xbe128601	-0.14308931
55	0x3e0efcda	0.13963643
56	0xbcd016f3	-0.025401568
57	0x3d557309	0.05211166
58	0xbe214e94	-0.15752631
59	0xbde0071f	-0.10938858
60	0x3e9008b9	0.28131655
61	0x3e3146e0	0.17312193
62	0x3de6d55a	0.11271162
63	0xbe06813f	-0.13135241
64	0x3d2eea2f	0.042703804
65	0x3e7e03cd	0.24806137
66	0x3e4fc26d	0.20289011
67	0x3df39a71	0.11894692
68	0x3b74a9b7	0.0037332603
69	0x3d1d35ea	0.038381495
70	0x3c71fc9e	0.014769701
71	0xbd3108a2	-0.043221124
72	0x3d061bbf	0.032741304
73	0x3e8097ec	0.25115907
74	0x3e82500d	0.254517
75	0xbcb09879	-0.02155708
76	0xbe5dbf34	-0.2165497
77	0x3d88fcec	0.06688866
78	0x3e9c175b	0.3048657
79	0x3d631695	0.055441458
80	0xbe6ffbe0	-0.23435926
81	0xbdfa6add	-0.12227414
82	0x3d2d1ccd	0.042263795
83	0x3e7b13d3	0.24519281
84	0xbe0255ad	-0.12727995
85	0xbe1f55e1	-0.15560104
86	0x3dcb3832	0.09922828
87	0x3e139a7a	0.14414397
88	0x3e994c01	0.299408
89	0xbe18101c	-0.14849895
90	0x3d1a6367	0.037692454
91	0x3ca9e604	0.020739563
92	0x3c9e6aee	0.019338097
93	0x3e58d3f4	0.21174604
94	0xbe2763e6	-0.16346702
95	0x3e8411b2	0.2579475
96	0xbd9b3fcb	-0.07580527
97	0x3e93af6d	0.28844777
98	0xbdb1b752	-0.08677544
99	0xbb260cc4	-0.0025337199
100	0x3cd77a05	0.0263033
101	0xbe48d32f	-0.1961181
102	0xbe10f897	-0.1415733
103	0xbde827a0	-0.11335683
104	0xbe803a0e	-0.25044292
105	0x3e7c82c5	0.2465926
106	0x3e7ddd4f	0.24791454
107	0x3d136bac	0.035991356
108	0xbe50571d	-0.20345731
109	0xbe522549	-0.20522036
110	0xbd77f78b	-0.06053881
111	0xbb85ecfc	-0.0040870886
112	0x3dbf0447	0.09326988
113	0x3d987acd	0.074452974
114	0x3d83c5eb	0.06434234
115	0xbd33b5a9	-0.043874417
116	0x3b8d8643	0.0043189838
117	0x3e256fe7	0.16155969
118	0x3e90dd74	0.28293955
119	0x3e190f2f	0.14947198
120	0x3db8b50e	0.090189084
121	0x3e8324b0	0.25613928
122	0x3eaae9ca	0.33381492
123	0x3d9acc54	0.07558504
124	0x3daad17a	0.08340736
125	0x3e7a687e	0.24453923
126	0x3da90dd2	0.08254589
127	0x3e8929a7	0.2678959
128	0x3e21b83c	0.15792936
129	0xbe6c2a9e	-0.23063132
130	0xbda70de4	-0.08156946
131	0x3e59c425	0.2126623
132	0x3de972ca	0.113988474
133	0xbd8af4ca	-0.06784971
134	0xbe33a975	-0.17545111
135	0x3dc9965a	0.098431304
136	0x3e0a24b7	0.13490568
137	0x3d99f89c	0.075181216
138	0x3dcc7fa6	0.099852845
139	0x3d24fd47	0.040280607
140	0xbd028c77	-0.03187224
141	0x3e2590fd	0.1616859
142	0x3e72ef95	0.23724206
143	0xbb344ee3	-0.002751284
144	0xbd83df16	-0.06439035
145	0x3e679fe5	0.22619589
146	0x3c909b91	0.017652305
147	0x3e836f9f	0.25671098
148	0xbe133de9	-0.14379086
149	0xbd60154c	-0.05470781

conv1.bias f4 [6]
0	0xbca6efdf	-0.020378051
1	0xbd56f9c2	-0.05248428
2	0xbe001a54	-0.12510043
3	0xbe421279	-0.1895236
4	0xbcd0facf	-0.02551022
5	0x3d135f9a	0.035979845

conv2.weight f4 [16, 6, 5, 5]
0	0x3ccc80f1	0.024963828
1	0x3d602822	0.054725774
2	0x3d29f286	0.041491054
3	0x3d6381db	0.05554376
4	0x3a0790a2	0.0005171393
5	0xbd99e441	-0.07514239
6	0x3ce38f7c	0.02777838
7	0x3de1d2a5	0.110265054
8	0x3cf2a30b	0.02961876
9	0xbda3b200	-0.07992935
10	0xbe424c43	-0.18974404
11	0x3d027283	0.031847488
12	0x3e14d627	0.14534818
13	0x3c946bfb	0.018117895
14	0xbbb01fbe	-0.0053748777
15	0xbdd9e4d2	-0.10639347
16	0xbd498fdb	-0.049209457
17	0x3dab7ea0	0.08373761
18	0x3e0ae151	0.13562514
19	0xbde4b666	-0.11167602
20	0xbc9ed667	-0.019389344
21	0x3d952af5	0.07283584
22	0x3e224df3	0.15850048
23	0x3e1c7aa1	0.15281154
24	0xbce724ac	-0.028215729
25	0xbdb95f75	-0.0905141
26	0xbe092d60	-0.13396215
27	0x3d1b636b	0.03793661
28	0x3cc4f75f	0.024043737
29	0xbd1953f2	-0.037433572
30	0xbdcce1cb	-0.10004004
31	0xbcaad18a	-0.02085187
32	0x3c41018f	0.011780157
33	0xbda9f0a0	-0.08297849
34	0xbd03549b	-0.032063108
35	0x3d8f3138	0.069918096
36	0x3c07381f	0.008253126
37	0xbcd82957	-0.0263869
38	0x3d1b690f	0.03794199
39	0xbd525ac1	-0.05135608
40	0x3d8c96f1	0.06864727
41	0x3d941a48	0.07231575
42	0x3bdb8430	0.0066991076
43	0xbd8c3aa1	-0.0684712
44	0x3d40ccab	0.047070187
45	0x3d84fbcf	0.06493341
46	0x3d48d12d	0.04902761
47	0x3db7f924	0.08983067
48	0x3c4a0a1c	0.012331512
49	0xbda3a578	-0.07990545
50	0xbc8d1589	-0.017222183
51	0xbda66c06	-0.081260726
52	0xbd745792	-0.059653826
53	0x3c1f91dd	0.009739366
54	0xbd914c61	-0.07094646
55	0x3d035fe0	0.032073855
56	0x3d4416e5	0.047873396
57	0xbd16c26f	-0.03680652
58	0x3c5fb6b8	0.013654403
59	0xbd844691	-0.06458772
60	0xbdfe488a	-0.124161795
61	0x3caf8e13	0.021430051
62	0x3d13603e	0.035980456
63	0xbc63805f	-0.0138855865
64	0x3d1ddde6	0.038541697
65	0xbd0d999a	-0.034570314
66	0x3df69261	0.12039638
67	0x3d9f0036	0.07763712
68	0x3d1de9f7	0.038553204
69	0xbd92c14a	-0.07165773
70	0x3d5fb3ce	0.054614834
71	0x3dc91c3c	0.098198384
72	0x3e034ca4	0.12822205
73	0x3dcb3e50	0.099239945
74	0xbc6dc53a	-0.0145123545
75	0x3d48154c	0.048848435
76	0xbd842d82	-0.064539924
77	0x3dae87ff	0.08522033
78	0x3ddcbfc2	0.107787624
79	0x3dd26325	0.102728166
80	0xbcf8523a	-0.030312646
81	0x3e092115	0.13391526
82	0xbc8c93b4	-0.017160274
83	0xbcefdbb1	-0.029279562
84	0x3d2e132b	0.04249875
85	0xbc79bd60	-0.015242904
86	0x3dbd5b6d	0.09245954
87	0x3d0045a6	0.031316422
88	0x3d50bc55	0.050960857
89	0xbd7610c0	-0.060074568
90	0x3dca5cab	0.09880956
91	0x3e08cefd	0.1336021
92	0xbd76965f	-0.060202
93	0x3d77615b	0.06039558
94	0x3da171a4	0.07883003
95	0x3db81584	0.08988479
96	0x3def63d1	0.1168896
97	0xbc1bf03e	-0.009517727
98	0x3bbccfe5	0.0057620876
99	0x3b3861bc	0.0028134426
100	0xbd8269bd	-0.06367824
101	0xbcc9df56	-0.024642628
102	0xbe0bb24a	-0.1364223
103	0xbcb893f1	-0.022531481
104	0xbd4a85e5	-0.049444098
105	0xbd13ecde	-0.036114566
106	0xbcae56f5	-0.021281699
107	0x3bf75e25	0.0075490647
108	0xb9df640e	-0.0004260842
109	0x3db70ca5	0.08937959
110	0xbe174922	-0.14773992
111	0xbd94d0ad	-0.07266364
112	0xbdb5608b	-0.08856305
113	0xbd96f457	-0.07370823
114	0xbd8c149a	-0.06839867
115	0xbe5a59b0	-0.21323276
116	0x3cb5705a	0.0221483
117	0xbb47162c	-0.0030378206
118	0xbb8da122	-0.004322187
119	0x3d5e5cf7	0.054287877
120	0xbe5c7aa5	-0.2153116
121	0xbcf396ff	-0.029735086
122	0x3dd65574	0.10465518
123	0x3d663f66	0.056212805
124	0x3db65a5f	0.08903956
125	0xbe08fa33	-0.13376693
126	0xbd021c2d	-0.03176515
127	0x3cdce3f4	0.026964165
128	0xbd16e1aa	-0.036836304
129	0xbd8f89af	-0.07008683
130	0xbdae821e	-0.08520912
131	0x3de45609	0.111492224
132	0xba3a3478	-0.00071031554
133	0xbd72b476	-0.059254132
134	0xbcc83322	-0.024438445
135	0x3cbba16b	0.022904119
136	0x3dc7894f	0.097429864
137	0x3c52ba37	0.01286178
138	0xbd1f7c9d	-0.0389372
139	0xbca39210	-0.019967109
140	0xbd8acf96	-0.06777875
141	0x3d1889d2	0.03724081
142	0x3d9ded24	0.077112466
143	0xbda0cb3d	-0.078512646
144	0x3cdda59e	0.027056511
145	0xbd80a7dd	-0.062820174
146	0x3dcaaf85	0.09896759
147	0x3dc66b67	0.09688454
148	0xbd475c68	-0.04867211
149	0xbc461ff2	-0.012092577
150	0x3c84ea32	0.016224954
151	0xbdd4bbf8	-0.10387415
152	0xbdae16ee	-0.08500467
153	0xbd9b61b6	-0.07586996
154	0xbc8cbb6e	-0.017179217
155	0x3d215167	0.039384272
156	0xbbaf878d	-0.005356735
157	0x3d596918	0.05307874
158	0xbd3d4471	-0.04620785
159	0x3dd0d263	0.10196378
160	0x3bc46ec5	0.00599465
161	0x3de7a151	0.113100655
162	0xbcffb746	-0.031215321
163	0xbac137aa	-0.0014741321
164	0x3d1042e5	0.035220046
165	0x3d3acee5	0.045607466
166	0x3e0bac79	0.13640012
167	0x3c5af927	0.013365067
168	0x3dc7898d	0.097430326
169	0x3e000e00	0.1250534
170	0x3df81c0b	0.12114724
171	0x3b81f3d7	0.0039658356
172	0x3deb5a57	0.1149184
173	0x3d501bb4	0.05080767
174	0x3dcf4a57	0.10121601
175	0xbdc80195	-0.09765927
176	0xbe045549	-0.12923159
177	0xbe112d06	-0.14177331
178	0xbe09f929	-0.13473953
179	0xbdc723a2	-0.09723593
180	0xbdcdf0ed	-0.100557186
181	0xbc1a0562	-0.009400697
182	0xbdeb8a17	-0.11500948
183	0xbd043b0a	-0.032282867
184	0x3bb9a3bd	0.005665271
185	0xbd673152	-0.05644352
186	0x3d477ab4	0.048701003
187	0xbc8042a6	-0.01565678
188	0xbd41f082	-0.047348507
189	0x3d2a1ddc	0.041532382
190	0x3dcf86b7	0.10133117
191	0x3c6c449d	0.014420656
192	0x3d365651	0.04451591
193	0x3d0463d2	0.03232176
194	0x3dfe4742	0.12415935
195	0x3e03416f	0.1281793
196	0x3e23f339	0.16010751
197	0x3d9daee2	0.07699372
198	0x3d91ec65	0.07125167
199	0x3ddd4afe	0.10805319
200	0xbcf2a8a5	-0.029621432
201	0xbdc507af	-0.09620606
202	0xbdb7f0b5	-0.08981458
203	0x3ca97d02	0.020689491
204	0xbdca6a3c	-0.09883544
205	0x3cfe76db	0.031062534
206	0xbddb9d5f	-0.107233755
207	0xbd3c8cb3	-0.04603262
208	0xbde95fb2	-0.113952056
209	0xbdcefcac	-0.10106787
210	0x3e07cfd0	0.13262868
211	0x3bf1b05e	0.007375761
212	0xbce736b3	-0.028224325
213	0x3d5231a8	0.051316887
214	0xbcc53038	-0.024070844
215	0x3e25b66f	0.16182874
216	0x3d1a2af3	0.037638616
217	0x3d86cfb7	0.06582587
218	0x3dd5b65d	0.10435174
219	0x3d2ef745	0.042716283
220	0x3dba5234	0.0909771
221	0x3d13daba	0.036097266
222	0x3dfad511	0.122476704
223	0x3e0236db	0.12716238
224	0x3d95fafe	0.073232636
225	0x3ce35607	0.027750982
226	0x3d3f0520	0.046635747
227	0xbc875633	-0.016520595
228	0x3d2085af	0.03918999
229	0x3c3c164c	0.011479925
230	0x3bcfdeba	0.0063436897
231	0x3b064e18	0.0020493325
232	0xbdfb767b	-0.12278458
233	0x3d8152fc	0.06314656
234	0xbc5a5014	-0.013324756
235	0x3daa53ef	0.0831679
236	0x3c8f9588	0.017527357
237	0x3b82da2c	0.0039932933
238	0x3d73bd37	0.05950662
239	0xbc82f2c1	-0.015984895
240	0x3d7a2a6e	0.06107562
241	0xbcbaad08	-0.022787586
242	0x3d94448a	0.07239635
243	0x3dd09b7a	0.10185905
244	0x3bedc870	0.00725656
245	0x3d50a44c	0.050937936
246	0x3ddcb22e	0.107761726
247	0x3a8b7a0f	0.0010641235
248	0x3cbacaa1	0.0228017
249	0x3d2efe49	0.042722974
250	0xbdbf5521	-0.09342409
251	0xbd956012	-0.072937146
252	0xbd487ccb	-0.048947137
253	0xbd8e86dd	-0.06959317
254	0xbb63c4ed	-0.0034754828
255	0x3d704d63	0.05866755

conv2.bias f4 [16]
0	0xbd7d9ac6	-0.06191518
1	0xbc0d9d1f	-0.008643418
2	0xbd4660bc	-0.048432097
3	0xbd09ba91	-0.03362519
4	0xbdb2c7d8	-0.087295234
5	0xbd907ef5	-0.07055465
6	0xbd4447bb	-0.04791997
7	0xbd9bd005	-0.07608036
8	0x3c99dfe9	0.018783526
9	0xbd2c2900	-0.04203129
10	0x3c93f3ba	0.018060554
11	0x3be65f64	0.0070304144
12	0x3c8a7daf	0.016905634
13	0xbd196c26	-0.037456654
14	0x3c0e1d68	0.008674003
15	0xbccf9af2	-0.025342438

fc1.weight f4 [120, 256]
0	0xbb8bddc6	-0.004268381
1	0x3da8bbff	0.082389824
2	0xbc4c364d	-0.012464118
3	0x3bb3399d	0.0054695145
4	0x3defbd31	0.11706007
5	0x3ba62a93	0.005070993
6	0x3d63166a	0.055441298
7	0xbd181480	-0.037128925
8	0x3d223735	0.03960343
9	0x3cf19a0e	0.029492404
10	0xbc0ef066	-0.008724308
11	0x3d60e3d9	0.054904792
12	0xbcd15395	-0.02555255
13	0xbdd98e88	-0.10622889
14	0xbc565f24	-0.013084207
15	0x3cbec5a7	0.023287607
16	0xbc5c0fc1	-0.01343149
17	0x3dbb3360	0.091406584
18	0x3cb66170	0.022263259
19	0x3d1c70fa	0.03819368
20	0x3c9cce42	0.01914132
21	0x3d2f61bd	0.04281782
22	0x3c7e05f4	0.015504349
23	0xbcdc1b71	-0.026868554
24	0x3c7fcc4b	0.015612672
25	0x3c77bb39	0.015120321
26	0xbd887d59	-0.06664533
27	0xbc6eb7ba	-0.014570171
28	0xbce14999	-0.027500914
29	0x3db4a57a	0.08820625
30	0x3d19f5ff	0.037588116
31	0xbd06fc72	-0.032955594
32	0xbdadbf65	-0.08483771
33	0x3cddfa8f	0.027097015
34	0x3d04cbb2	0.03242082
35	0x3d3ce9eb	0.04612152
36	0x3db482f2	0.08814038
37	0x3dbec20d	0.09314356
38	0x3d34b795	0.04412039
39	0xbd83a741	-0.064283855
40	0xbcf619d7	-0.030041618
41	0x3d2f05fb	0.042730313
42	0xbb5a4c96	-0.003330981
43	0xbc9359b1	-0.017987104
44	0x3cfffc68	0.031248286
45	0xbcb522c0	-0.022111297
46	0xbd4193a1	-0.04725993
47	0x3cc9fbb5	0.024656156
48	0x3dbac114	0.09118858
49	0xbc21f794	-0.009885687
50	0xbcd83b79	-0.026395546
51	0xbdc52f65	-0.096281804
52	0x3d86ff22	0.065916315
53	0xbd309c89	-0.043118034
54	0x3cf04012	0.029327426
55	0xbd64d350	-0.055865586
56	0x3d4ab4a6	0.049488686
57	0x3cc5c6b0	0.024142593
58	0x3dc8c8fc	0.0980396
59	0x3b233687	0.0024904327
60	0xbb6830a2	-0.0035429378
61	0x3d85aa04	0.065265685
62	0x3dc4098b	0.09572133
63	0x3cfdb414	0.030969657
64	0x3cd5dc4b	0.02610602
65	0xbbd1c150	-0.0064012185
66	0x3d42df02	0.047575958
67	0x3cc2457c	0.023714773
68	0x3b9bbaf5	0.0047525116
69	0x3cfd18bf	0.030895589
70	0xbd2267cd	-0.039649773
71	0x3c66974b	0.014074157
72	0x3d4af1e8	0.049547106
73	0xbd122d03	-0.035687458
74	0x3d380c87	0.044933822
75	0xbd89450e	-0.06702624
76	0xbc1dc8be	-0.00963038
77	0x3c4c5b29	0.012472906
78	0x3baeb4f3	0.0053316294
79	0xbc90f206	-0.01769353
80	0xbd089b2a	-0.0333511
81	0x3ca717f5	0.020397166
82	0xbdae98c6	-0.08525233
83	0xbb02bcb7	-0.0019948909
84	0x3d994831	0.074844725
85	0xbd2fb8b9	-0.042900775
86	0xbd093397	-0.033496466
87	0x3c34596a	0.011007646
88	0x3d92af82	0.07162382
89	0x3d48b84f	0.049003895
90	0x3d95745d	0.07297585
91	0xbb799242	-0.0038081561
92	0x3c2fc776	0.010728708
93	0x3d490bd6	0.049083553
94	0x3d7f9404	0.062397018
95	0x3c9272ac	0.017876945
96	0x3c7a7222	0.015286
97	0xbca42a4f	-0.020039706
98	0xbce72d6a	-0.028219897
99	0xbcb85315	-0.022500554
100	0x3d822743	0.06355145
101	0xbc706a1a	-0.014673734
102	0x3b837e3a	0.00401285
103	0xbcbbb093	-0.022911346
104	0x3b06558a	0.0020497763
105	0x3d99cfe8	0.07510358
106	0x3ca95cc9	0.020674126
107	0x3c28eff9	0.01031112
108	0x3d1a1ae8	0.037623316
109	0xbd0cfdae	-0.034421615
110	0x3c833183	0.01601482
111	0x3d8ae6b6	0.06782286
112	0xbd28ad10	-0.04118067
113	0xbd985d4f	-0.07439672
114	0xbd96a8f2	-0.073564425
115	0xbda7ec3b	-0.08199354
116	0x3d1fad63	0.038983714
117	0x3d411c90	0.04714638
118	0x3c01ffa0	0.007934481
119	0xba81e7c4	-0.000991099
120	0x3d9fb4a5	0.07798127
121	0x3db7a0fc	0.08966252
122	0x3dd548c3	0.10414269
123	0x3c72195f	0.014776557
124	0xbcabf0e4	-0.020988889
125	0x3d17d9db	0.037072998
126	0xba57775f	-0.0008219387
127	0xbd8855bb	-0.06656977
128	0xbbaa70ca	-0.005201434
129	0x3d052977	0.032510247
130	0xbc3dde72	-0.01158868
131	0x3d1d754f	0.038441952
132	0x3a699ffe	0.00089120853
133	0x3d175acd	0.03695183
134	0x3d85f187	0.06540208
135	0xbbf2a084	-0.007404389
136	0xbca9f63b	-0.020747295
137	0x3d476f12	0.04868991
138	0xbc884321	-0.016633572
139	0xbc44748c	-0.011990678
140	0x3dbb1c96	0.09136312
141	0x3d1eee5c	0.038801536
142	0x3d7da5c2	0.061925657
143	0xbc129c9d	-0.008948472
144	0x3e05ea2f	0.13077615
145	0x3df7eebb	0.12106081
146	0xbaa9c37a	-0.0012951933
147	0xbd4433ab	-0.047900837
148	0x3da6ba2f	0.081409805
149	0x3d973bed	0.07384477
150	0xbd2634ee	-0.04057782
151	0xbc28040e	-0.010254873
152	0x3cf087c4	0.029361613
153	0x3c6f17ff	0.014593123
154	0x3d2945f6	0.041326486
155	0x3cd1e9f0	0.025624245
156	0xbd64eade	-0.05588805
157	0x3bc3c16f	0.005973987
158	0xbb9159d7	-0.0044357586
159	0x3da58b26	0.08083181
160	0xbd649e6d	-0.05581515
161	0xbc6011a2	-0.013676079
162	0xbc512c1d	-0.012766865
163	0x3d31d4e6	0.043415926
164	0xbb81f93b	-0.003966478
165	0x3d86d8f4	0.06584349
166	0x3dce83af	0.100837104
167	0x3cbb2950	0.022846848
168	0x3d0cd73a	0.034384944
169	0x3ccaef7e	0.024772402
170	0x3d52161e	0.051290624
171	0x3c5f0c9f	0.013613849
172	0x3d0f9c9c	0.035061464
173	0xbd83e564	-0.06440237
174	0xbc8aefaf	-0.016959993
175	0xbd2400d6	-0.04003986
176	0x3dfb4a8b	0.12270077
177	0x3dd3063d	0.10303924
178	0xbd72aed7	-0.05924877
179	0xbdc02439	-0.09381909
180	0x3d27bfca	0.04095439
181	0xbcc0eef5	-0.023551444
182	0xbb340f01	-0.0027474763
183	0xbd613658	-0.054983467
184	0xbd3afc33	-0.045650672
185	0xbce67747	-0.028133048
186	0x3dbe95cb	0.093059145
187	0x3d046c22	0.032329686
188	0xbd8b6445	-0.06806234
189	0x3c12aa3f	0.008951723
190	0x3cde3a77	0.027127488
191	0x3db86344	0.090033084
192	0x3daf1695	0.08549229
193	0x3d49b854	0.049248055
194	0x3d5245e8	0.0513362
195	0x3c91e3a3	0.017808741
196	0x3d2a13c9	0.041522775
197	0x3d8ea1aa	0.06964429
198	0x3d43adbc	0.047773108
199	0xbd77aed9	-0.060469482
200	0xbd8dee81	-0.06930257
201	0xbdb67027	-0.0890811
202	0xbd8534ed	-0.065042354
203	0x3c7448cd	0.014909935
204	0xbe036c27	-0.12834226
205	0x3ce6d0a6	0.028175663
206	0x3ca17704	0.019710071
207	0xbca91d01	-0.020643713
208	0xbc6567e0	-0.0140018165
209	0x3cfaf92e	0.030636396
210	0xbda560e1	-0.08075119
211	0xbcd7398c	-0.026272558
212	0x3da64681	0.08118916
213	0x3d733a63	0.059381854
214	0x3c8a8dd5	0.016913334
215	0xbce4d567	-0.02793379
216	0x3d8ae423	0.06781795
217	0x3bcb7ab2	0.006209695
218	0x3c044515	0.008073111
219	0x3d070918	0.032967657
220	0xbcbc559a	-0.022990037
221	0xbc269286	-0.01016677
222	0x3c9a817b	0.01886057
223	0x3c56f701	0.013120414
224	0x3ca46627	0.020068241
225	0x3cbeef74	0.02330754
226	0x3cd02e04	0.025412567
227	0x3ddbb2ab	0.107274376
228	0x3ba1121a	0.004915488
229	0x3c7c46af	0.015397712
230	0x3d017121	0.03160203
231	0x391f8dd8	0.00015216263
232	0x3dd9660b	0.10615166
233	0x3dba38c5	0.09092859
234	0x3b01d17d	0.0019808703
235	0xbd98254e	-0.0742899
236	0xbd82187e	-0.06352328
237	0xbd122868	-0.035683066
238	0x3da7d1e0	0.08194327
239	0x3d1a794f	0.037713345
240	0xbdd0130c	-0.10159883
241	0xbd92a1e9	-0.07159788
242	0xbb8b2f82	-0.0042476067
243	0x3c2d02d6	0.010559758
244	0x3d2ad818	0.04170999
245	0x3e001d22	0.12511113
246	0x3db841d7	0.08996933
247	0x3d6436c8	0.055716306
248	0xbac72e3b	-0.0015196273
249	0x3de444fb	0.111459695
250	0xbccdb431	-0.025110336
251	0xbc08b8ee	-0.008344872
252	0xbd219c3e	-0.039455645
253	0x3c03fc5d	0.008055774
254	0xbd54d3c2	-0.05195976
255	0x3bb1458c	0.005409902

fc1.bias f4 [120]
0	0x3d91647b	0.07099243
1	0x3dab977a	0.08378501
2	0x3d3268ce	0.04355698
3	0xbd2bf120	-0.041978
4	0x3d9ef4b8	0.0776152
5	0x3c47c7a5	0.012193595
6	0x3d85aec7	0.06527477
7	0xbca489b3	-0.020085191
8	0x3c056687	0.00814212
9	0x3c972e14	0.018454589
10	0x3d496d3e	0.049176447
11	0x3ca356c6	0.019938838
12	0xbd1b1511	-0.037861887
13	0xbc231bf9	-0.0099554
14	0xbd3056d8	-0.04305157
15	0x3d82bcad	0.06383643
16	0xbd4dcd8c	-0.050244853
17	0x3bc0aedc	0.00588022
18	0x3d14518e	0.03621059
19	0xbb82ad52	-0.0039879465
20	0x3d7f3fec	0.06231682
21	0xbd4acbe7	-0.049510863
22	0x3d23d6e6	0.039999865
23	0xbd5f5cb2	-0.05453176
24	0x3dad1ddb	0.0845296
25	0x3d7bb6fc	0.061453804
26	0x3d4b00b1	0.049561206
27	0xbcc77b54	-0.0243508
28	0x3d94fd1f	0.072748415
29	0xbd50ef4b	-0.051009458
30	0xbd0ba7c4	-0.03409554
31	0xbd8268b1	-0.063676246
32	0x3d7f4cd5	0.062329132
33	0x3c8399fa	0.016064633
34	0xbd3b61ce	-0.04574757
35	0xbd018b24	-0.031626835
36	0x3d354383	0.044253837
37	0x3d28a1ff	0.041170117
38	0x3d5067a8	0.050880104
39	0xbd71a5d4	-0.058996037
40	0xbd3362a2	-0.043795235
41	0xbd7c0c48	-0.06153515
42	0xbd2c7a5e	-0.042108886
43	0x3d8471cf	0.0646702
44	0xbd7159e9	-0.058923636
45	0x3d98ae96	0.074551746
46	0x3ce1ec35	0.027578453
47	0xbd37d492	-0.044880457
48	0x3cfc72c9	0.030816453
49	0x3d22394a	0.039605416
50	0x3d523494	0.051319674
51	0x3ca13a4b	0.019681117
52	0x3d3f82f3	0.046755742
53	0x3cc71a0c	0.024304412
54	0xbc6a30c2	-0.014293851
55	0x3d3326cf	0.043738183
56	0xbd43ce08	-0.04780391
57	0x3d1570f7	0.036484685
58	0xbd475087	-0.04866078
59	0xbcf511aa	-0.02991565
60	0x3c26db11	0.010184065
61	0xbd43fc96	-0.047848307
62	0x3d92e917	0.071733646
63	0x3cb3bb69	0.02193995
64	0x3d31d831	0.043419067
65	0xbd407b50	-0.0469926
66	0xbce78d81	-0.028265717
67	0xbb68f115	-0.0035544087
68	0xbd31c9f8	-0.043405503
69	0x3d90f353	0.070776604
70	0xbd3c9f27	-0.046050217
71	0x3ca213c1	0.01978481
72	0x3d23d284	0.039995685
73	0x3d3fbf38	0.04681322
74	0xbd04c582	-0.03241492
75	0xbccd0fc3	-0.02503193
76	0x3c801623	0.015635556
77	0xba339f50	-0.00068520475
78	0x3d8372d5	0.06418387
79	0xb7a6f4f0	-1.99028e-05
80	0x3d5a511e	0.053300016
81	0x3d8ab66c	0.067730755
82	0xba60d708	-0.0008576964
83	0x3da17924	0.07884434
84	0x3d871a31	0.065967925
85	0xbc9500ea	-0.018188912
86	0xbbc2f22f	-0.0059492807
87	0x3d44fd96	0.0480934
88	0xbd5cee26	-0.053938054
89	0x3ca8a46f	0.02058622
90	0xbce602f4	-0.02807758
91	0x3d2f6a88	0.042826205
92	0x3cf3561e	0.02970415
93	0x3d495fe2	0.049163707
94	0xbc7e1e01	-0.015510083
95	0xbc393c0b	-0.011305819
96	0x3d06ccf5	0.032910306
97	0xbcec5f5a	-0.02885406
98	0x3cc44a44	0.023961194
99	0x3d136f8c	0.03599505
100	0xbd56fa77	-0.052484956
101	0xbd1a0aac	-0.037607834
102	0xbb95aba3	-0.00456758
103	0x3d901e2f	0.07037007
104	0x3c9a9268	0.01886864
105	0x3ba5ec40	0.0050635636
106	0xbc8367ca	-0.016040701
107	0xbd9b4a6c	-0.07582554
108	0xbd79175c	-0.060813293
109	0x3b43a11e	0.0029850672
110	0x3d16935a	0.03676162
111	0x3d33084c	0.043709084
112	0xbd954d1c	-0.07290098
113	0xbc92d0a3	-0.017921751
114	0x3ccb4246	0.024811875
115	0xbc186024	-0.009300265
116	0x3d90f746	0.07078414
117	0x3c95e10d	0.01829579
118	0x3c6f2a1f	0.014597445
119	0x3d07184e	0.032982163

fc2.weight f4 [84, 120]
0	0xbd3eb623	-0.046560418
1	0x3d51ced3	0.051222634
2	0xbd8e91a0	-0.069613695
3	0xbc8d293c	-0.017231576
4	0x3cdff58f	0.027338771
5	0x3c81e9b0	0.015858501
6	0xbdba878b	-0.09107884
7	0x3d9381b6	0.07202475
8	0xbd8ebc7b	-0.069695435
9	0xbd4798e7	-0.048729803
10	0xbd84b30b	-0.06479462
11	0x3c6f56d0	0.0146081
12	0x3d1dea20	0.038553357
13	0xbc8cddac	-0.017195545
14	0x3d4b74b0	0.04967183
15	0x3ba7003d	0.005096464
16	0xbc9b0c5c	-0.018926792
17	0xbd617f3c	-0.05505298
18	0x3cb0a23c	0.021561734
19	0xbd0cbce6	-0.034359835
20	0x3d87b37e	0.06626032
21	0x3cd56292	0.026047979
22	0x3d0bce99	0.034132574
23	0x3da8d7d8	0.08244294
24	0xbd12e48e	-0.035862498
25	0xbc981dd8	-0.018568918
26	0x3d38bb1b	0.045100313
27	0xbdb312cd	-0.0874382
28	0xbc86b73e	-0.016444799
29	0x3d65697e	0.05600881
30	0x3d95e932	0.07319869
31	0xbd86b4a7	-0.065774255
32	0x3d95547d	0.072915055
33	0xbd7eb8d0	-0.06218797
34	0xbb438e40	-0.0029839426
35	0xbd6118fb	-0.054955464
36	0xbd8a3362	-0.06748082
37	0x3b839798	0.004015874
38	0xbc69bb93	-0.014265913
39	0xbd3d37eb	-0.046195906
40	0xbd85bfee	-0.06530748
41	0xbda8222a	-0.08209641
42	0xbd96d24f	-0.07364332
43	0x3d0650e8	0.032792002
44	0x3d4d3d02	0.05010701
45	0x3d88f764	0.06687811
46	0xbd5fe4f7	-0.054661717
47	0x3d09ec79	0.033672784
48	0xbd9e34c2	-0.077249065
49	0x3d772f12	0.060347624
50	0x3c07cd23	0.0082886545
51	0x3b1ef416	0.0024254373
52	0xbdb9b96d	-0.0906857
53	0xbd093fda	-0.03350816
54	0x3d7d14bb	0.06178735
55	0x3b5a1933	0.003327918
56	0x3d55df9c	0.052215204
57	0xbd95bdca	-0.0731159
58	0xbd2f3973	-0.042779397
59	0xbdb5ca82	-0.08876516
60	0xbd319438	-0.043354243
61	0xbbbbf988	-0.0057365336
62	0xbc5e1f98	-0.013557337
63	0x3d469cf4	0.048489526
64	0xbdb84c8e	-0.08998977
65	0x3cd8e8fe	0.026478287
66	0xbc9f2c73	-0.019430375
67	0x3d4e725e	0.050402038
68	0x3d934c1c	0.07192251
69	0xbca7a8ef	-0.020466296
70	0xbd21f1dc	-0.039537296
71	0x3d96b468	0.073586285
72	0xbd3e88ae	-0.046517067
73	0xbd862506	-0.065500304
74	0xbca51cb0	-0.02015528
75	0x3d68d5af	0.05684441
76	0xbd926978	-0.07149023
77	0xbd5114fa	-0.051045395
78	0xbd89316e	-0.06698881
79	0x3cb9065c	0.02258604
80	0x3ca70548	0.02038826
81	0xbd6b8bfc	-0.057506546
82	0x3da16577	0.07880681
83	0x3c7ba48c	0.015359055
84	0xbd8bdef4	-0.06829634
85	0x3b2507cc	0.002518165
86	0x39c91fa0	0.0003836127
87	0x3d5ed06c	0.054397985
88	0x3d5b74f4	0.053578332
89	0xbd473e12	-0.04864318
90	0x3cf76da0	0.03020364
91	0x3caec3b6	0.021333557
92	0xbda3a513	-0.0799047
93	0x3d99ac44	0.0750356
94	0xbd34a284	-0.0441003
95	0xbdaaf1cc	-0.083469
96	0xbcea7490	-0.028620034
97	0x3bfcc2c0	0.0077136457
98	0xbdc42913	-0.09578147
99	0x3d6f1208	0.058366805
100	0xbd1bb9ce	-0.038018994
101	0x3d331c86	0.043728374
102	0x3dae18fd	0.0850086
103	0xbd4bae16	-0.04972657
104	0xbd7c330c	-0.06157212
105	0xbcca215c	-0.02467411
106	0x3bd9d7cf	0.006648041
107	0x3d310a15	0.043222506
108	0x3d74934c	0.059710786
109	0xbd20f8a6	-0.03929963
110	0x3d94aa10	0.07258999
111	0xbd6b0aca	-0.057383336
112	0x3c476e21	0.012172253
113	0xbc97895e	-0.018498119
114	0xbd2dc38b	-0.042422812
115	0xbd797758	-0.06090483
116	0x3d48dabb	0.049036723
117	0xbda209a9	-0.07911999
118	0x3c282e50	0.010264948
119	0xbd871dc3	-0.065974735
120	0x3b9b6960	0.0047427863
121	0x3d3a2ae2	0.045451052
122	0xbda1e19f	-0.07904362
123	0xbd500668	-0.05078736
124	0xbe04065f	-0.12893055
125	0x3d84e264	0.06488493
126	0xbd427be3	-0.04748143
127	0x3d1ca1c2	0.0382402
128	0x3d08da71	0.033411447
129	0xbd8a4b89	-0.067526884
130	0x3c2eeed7	0.010677061
131	0x3dd2a243	0.10284855
132	0xbd987efb	-0.074460946
133	0x3d572824	0.052528515
134	0x3cdbb8f4	0.026821591
135	0x3dc98c18	0.09841174
136	0x3d0aba49	0.03386906
137	0x3d0da5dd	0.034582008
138	0xbbd458c8	-0.00648031
139	0xbd248033	-0.040161323
140	0xbd3bb165	-0.045823473
141	0x3d327bb0	0.04357499
142	0x3e0c7e2a	0.13720003
143	0x3cd08100	0.025452137
144	0x3dddd4f8	0.10831636
145	0xbda18090	-0.078858495
146	0xba9bb72e	-0.0011880153
147	0xba83fe86	-0.0010070361
148	0xbd8c8d06	-0.068628356
149	0x3c27b9a0	0.010237128
150	0x3dd45d6c	0.10369381
151	0xbd596794	-0.053077295
152	0xbc8eb5b0	-0.01742062
153	0x3e01f98b	0.1269285
154	0x3d53602d	0.051605392
155	0x3d9ea507	0.0774632
156	0xbd1a5d7a	-0.037686802
157	0xbad7acda	-0.0016454712
158	0xbd6a733d	-0.057238806
159	0xbd894bac	-0.067038864
160	0xbd766026	-0.060150288
161	0x3d96e296	0.073674366
162	0xbcc33f28	-0.023833826
163	0x3d308a85	0.043100853
164	0x3d087ee6	0.033324145
165	0xbdcf55ce	-0.10123788
166	0x3d841e75	0.06451122
167	0x3c330d69	0.01092849
168	0x3ccac96f	0.024754254
169	0xbd5902e0	-0.052981257
170	0xbcf52c58	-0.029928371
171	0xbda6f1f2	-0.08151616
172	0x3db25b9d	0.0870888
173	0xbdc2eb70	-0.095175624
174	0xbddf0dac	-0.108912796
175	0xbb7b854c	-0.0038379012
176	0x3d27a2e3	0.040926825
177	0x3c9190f7	0.01776932
178	0xbd6dc69a	-0.05805073
179	0x3d7b7e5f	0.061399814
180	0xbd66c071	-0.05633587
181	0xbcf39e0b	-0.029738447
182	0xbd657e00	-0.056028366
183	0xbd4dac33	-0.05021305
184	0x3d28e795	0.04123648
185	0x3d8ec30d	0.06970797
186	0x3da653e9	0.08121473
187	0xbd9e5035	-0.07730142
188	0x3d0e57b9	0.034751628
189	0x3e116927	0.14200269
190	0xbd944c4f	-0.07241117
191	0x3d16bec1	0.03680301
192	0x3dd25dfb	0.102718316
193	0x3e03feda	0.12890187
194	0xbdb16083	-0.08660986
195	0xbd7cbf31	-0.06170577
196	0x3de62f35	0.11239473
197	0x3d796c52	0.060894318
198	0x3d901d99	0.07036895
199	0xbd3d399c	-0.04619752
200	0x3db91b2c	0.09038386
201	0xbb07c059	-0.0020714013
202	0xbd8b68e7	-0.06807118
203	0xbdfffaa8	-0.12498981
204	0x3d308d7e	0.043103687
205	0x3c023b52	0.007948713
206	0x3c5cc27d	0.013474104
207	0x3e03d1eb	0.12873046
208	0xbdb94ecd	-0.09048233
209	0xbe01ef02	-0.1268883
210	0x3d0b0740	0.03394246
211	0xbc2812c9	-0.010258385
212	0x3d325fba	0.043548323
213	0xbbe834e0	-0.0070863813
214	0x3d8ab697	0.067731075
215	0x3db90292	0.090336934
216	0x3dff71b1	0.12472857
217	0xbc030c9e	-0.007998614
218	0xbd777942	-0.060418375
219	0xbd42fd2d	-0.04760473
220	0x3c91a193	0.01777724
221	0x3d6127a6	0.054969452
222	0xbd4463a8	-0.047946602
223	0xbdb342f1	-0.087530024
224	0xbd08866d	-0.033331323
225	0xbd6d8077	-0.05798384
226	0x3cc56aea	0.024098832
227	0x3bac2891	0.0052538593
228	0x3da4ed39	0.08053059
229	0x3ca97964	0.020687766
230	0x3d84407b	0.06457611
231	0xba8503e8	-0.0010148259
232	0xbc58488b	-0.013200889
233	0x3d352560	0.044225097
234	0xbcb70ed3	-0.022345936
235	0x3d33b337	0.043872084
236	0x3d7ba557	0.061436977
237	0xbcb44f19	-0.022010373
238	0x39260e86	0.00015836404
239	0x3d2a8431	0.041629974
240	0x3e2492a4	0.16071564
241	0x3d75f429	0.060047302
242	0xbdd1a813	-0.10237136
243	0xbd51f698	-0.05126056
244	0xbdea7921	-0.11448885
245	0xbd7e7585	-0.062123794
246	0x3d211af7	0.039332356
247	0xbcae5744	-0.021281846
248	0xbc48b889	-0.012251028
249	0x3ce97ed6	0.028502863
250	0xbd25dc8a	-0.040493526
251	0x3cc3a668	0.02388306
252	0xbce11713	-0.027476823
253	0xbdb0a30d	-0.086248495
254	0x3caad03c	0.020851247
255	0x3d99a904	0.0750294

fc2.bias f4 [84]
0	0xbd318722	-0.043341763
1	0x3d8220cd	0.063539125
2	0xbceb95d1	-0.028757961
3	0x3dac7419	0.08420581
4	0x3c844b17	0.016149087
5	0xbd1a20c9	-0.037628923
6	0x3dcfb9f4	0.101428896
7	0x3c2be4c9	0.010491558
8	0xbcf8b953	-0.030361807
9	0x3c8f5c95	0.017500201
10	0x3d9c1153	0.07620492
11	0x3d7532f1	0.059863035
12	0x3d8b666b	0.06806644
13	0xbd1a8645	-0.037725706
14	0x3d4bd0e3	0.049759757
15	0xbd235945	-0.039880056
16	0x3dc949d9	0.098285384
17	0xbd9ea713	-0.07746711
18	0xbdaa136c	-0.08304486
19	0x3dc395ff	0.09550094
20	0xbd87e98a	-0.06636341
21	0x3d419b3a	0.047267176
22	0x3d8abe35	0.0677456
23	0xbd3251cc	-0.04353504
24	0x3c084340	0.008316815
25	0xbd0e900a	-0.034805335
26	0x3dc2312e	0.094820365
27	0xba475388	-0.00076036947
28	0x3dc13517	0.09433954
29	0xbdbac4ce	-0.09119569
30	0xbc8ade6c	-0.016951762
31	0xbd93f949	-0.07225282
32	0x3cb1f78c	0.021724485
33	0x3d959edf	0.07305693
34	0xbd239511	-0.039937083
35	0xbdaf56bb	-0.085614644
36	0xbc69af45	-0.014262979
37	0xbd9751fa	-0.07388683
38	0x3dfeb4bd	0.12436817
39	0xbd03c4be	-0.03217005
40	0xbdc75ddb	-0.097346984
41	0x38e22b0d	0.000107845386
42	0x3d592b76	0.053019963
43	0x3d0b4d4a	0.034009255
44	0xbd0b4dcf	-0.03400975
45	0x3d8d5ccb	0.069024645
46	0xbd9f7ef6	-0.07787888
47	0x3d5e19b2	0.054223724
48	0x3d3c6457	0.04599413
49	0xbce41070	-0.02783987
50	0x3b95e79e	0.00457473
51	0x3bd04ee5	0.006357061
52	0xbd2bb0dc	-0.041916713
53	0x3dba6eca	0.091031626
54	0xbcfe8783	-0.031070476
55	0x3dd5c298	0.104375064
56	0x3bdf6ff0	0.006818764
57	0xbd94da41	-0.07268191
58	0xbdb2c264	-0.08728483
59	0x3cc9ec92	0.024648938
60	0xbd98c306	-0.07459073
61	0xbd71a2d8	-0.05899319
62	0xba56699e	-0.00081791903
63	0x3c2b682b	0.010461847
64	0x3cd233a9	0.0256594
65	0x39acc333	0.0003295183
66	0xbdc42d96	-0.09579007
67	0x3d008786	0.031379245
68	0x3dd39e7e	0.10332964
69	0x3c82c5f5	0.015963534
70	0xbd996d56	-0.07491557
71	0x3b3e97e6	0.0029082238
72	0xbcf9cf50	-0.030494362
73	0xbdbcd7e2	-0.09220864
74	0xbdb84c3e	-0.08998917
75	0xbda5d055	-0.08096377
76	0x3cee1430	0.02906236
77	0x3ccb42a3	0.024812048
78	0xbda353d7	-0.079749756
79	0x3b4f711e	0.0031653116
80	0xbd40964c	-0.047018334
81	0x3de6c867	0.112686925
82	0xbc77aeee	-0.01511739
83	0xbccbafea	-0.024864156

fc3.weight f4 [10, 84]
0	0xbd964638	-0.07337612
1	0x3da948fc	0.08265874
2	0xbe28127e	-0.16413304
3	0xbe08f6ff	-0.13375472
4	0xbbc6beab	-0.00606521
5	0xbd6f790f	-0.05846506
6	0xbd9b8a8f	-0.07594787
7	0xbd8d7a35	-0.06908075
8	0x3bd0cf5c	0.0063723754
9	0xbe056543	-0.1302691
10	0xbd180e39	-0.03712294
11	0xbe0e7ff9	-0.13916005
12	0xbdd387d6	-0.10328643
13	0xbc166bbc	-0.009180959
14	0xbe02f13b	-0.12787335
15	0xbd0fac36	-0.035076343
16	0x3dc773a1	0.09738851
17	0x3e0c863d	0.13723083
18	0xbd3761d2	-0.044771023
19	0xbdfc0e0e	-0.12307368
20	0x3d9e2f53	0.0772387
21	0xbdcf769e	-0.10130046
22	0xbcb91bf8	-0.022596344
23	0xbd8e169d	-0.06937907
24	0x3df779cc	0.12083778
25	0x3e17df8a	0.14831367
26	0xbd7e16fd	-0.062033642
27	0xbd81ae4d	-0.06332073
28	0xbc68f600	-0.014218807
29	0x3dbe28ee	0.092851505
30	0xbd2de076	-0.04245039
31	0x3d7f15bc	0.062276587
32	0x3dc08163	0.093996786
33	0xbc4ce3c0	-0.012505472
34	0xbda9fe64	-0.08300474
35	0x3d26079a	0.040534593
36	0xbdd73896	-0.1050884
37	0xbd28dd60	-0.041226745
38	0xbe1afea8	-0.15136206
39	0xbd97b047	-0.07406669
40	0x3d8532d9	0.06503839
41	0xbd4e6aa1	-0.050394658
42	0x3d8f47c6	0.069961116
43	0x3d756c0e	0.059917502
44	0xbdbb777d	-0.0915365
45	0xbb6c61ee	-0.0036069113
46	0x3bb91a3f	0.0056488807
47	0xbdd9f65e	-0.10642694
48	0x3dcab054	0.09896913
49	0xbc229c1c	-0.009924915
50	0xbd08dec6	-0.03341558
51	0xbe3170be	-0.17328164
52	0x3d16ef29	0.036849175
53	0xbde18a7b	-0.11012741
54	0x3e0226c8	0.12710106
55	0x3d1c8cb5	0.038220126
56	0xbe10ffbc	-0.14160055
57	0xbdd01097	-0.10159414
58	0x3ce72afb	0.028218737
59	0xbcd1ea67	-0.025624467
60	0xbc32a594	-0.010903735
61	0xbce2b87b	-0.027675858
62	0xbde753cd	-0.112952806
63	0xbc71dcfd	-0.01476216
64	0x3ca6182c	0.020275198
65	0xbdb7efa5	-0.089812554
66	0x3c8802b5	0.016602853
67	0xbd8e26d8	-0.069410026
68	0xbdf78dc6	-0.12087588
69	0x3d2c8a9e	0.042124383
70	0x3dff4508	0.124643385
71	0x3d970f5e	0.07375978
72	0xbc8dccaf	-0.017309515
73	0xbdb28488	-0.087166846
74	0x3dd5e511	0.104440816
75	0xbdacd741	-0.08439494
76	0x3e00c96b	0.12576835
77	0xbb8c0fee	-0.00427436
78	0xbccd2ddd	-0.025046283
79	0xbdb73f68	-0.08947641
80	0x3b54c23a	0.00324644
81	0xbc99cbcc	-0.018773936
82	0xbe07ffae	-0.13281128
83	0xbd96fcd7	-0.07372444
84	0x3d834c7d	0.06411073
85	0xbe24e798	-0.16103971
86	0xbd0f8782	-0.03504134
87	0x3d4733d0	0.048633397
88	0x3d81abf4	0.063316256
89	0xbd4250c1	-0.047440294
90	0xbd5994ff	-0.05312061
91	0x3d81f2d1	0.06345142
92	0xbdc1e8d6	-0.09468238
93	0xbb396395	-0.0028288115
94	0xbd962a21	-0.07332254
95	0xbcfb039a	-0.030641366
96	0xbd6c36e4	-0.057669535
97	0x3de56178	0.11200231
98	0x3d96b5ef	0.0735892
99	0x3d9699c0	0.07353544
100	0xbde93ce6	-0.113885686
101	0xbdcc82b2	-0.09985866
102	0x3d3f615a	0.0467237
103	0xba7c3e00	-0.0009622276
104	0x3cd679a4	0.02618105
105	0xbc55de31	-0.013053463
106	0xbe1ea2a8	-0.15491736
107	0xbc9f8767	-0.019473745
108	0xbe0f948d	-0.14021511
109	0xbd8a30cd	-0.06747589
110	0xbdc83f88	-0.097777426
111	0x3c29ec52	0.010371285
112	0xbc92fcb8	-0.017942771
113	0x3dd79904	0.10527232
114	0x3da56c56	0.08077304
115	0x3d460ae0	0.048350215
116	0x3d991ed7	0.07476585
117	0xbe1ea9e0	-0.1549449
118	0xba92ec4d	-0.0011209339
119	0xbdfa8491	-0.12232316
120	0xbde487d5	-0.111587204
121	0xbdb2088a	-0.08693035
122	0x3dbae453	0.09125581
123	0x3cbde5ce	0.023180868
124	0x3d19b526	0.037526272
125	0x3d22d9f2	0.03975863
126	0xbdf59793	-0.11991801
127	0xbdda7de7	-0.10668545
128	0x3da4158b	0.080119215
129	0x3d5c0182	0.053712375
130	0x3e1ce4c5	0.15321644
131	0x3e25be3e	0.16185853
132	0xbdf04180	-0.11731243
133	0xbdf525ce	-0.11970101
134	0xbdc32529	-0.09528572
135	0x3d016efb	0.03159998
136	0xbc77cc7c	-0.0151244365
137	0x3da56de5	0.08077601
138	0xbd69259a	-0.056920625
139	0xbdc54984	-0.096331626
140	0x3de2c906	0.110734984
141	0x3cec0cf7	0.028814776
142	0x3d04d4f4	0.03242965
143	0xbe106f56	-0.14104971
144	0x3e0845ab	0.13307826
145	0xbcd27b49	-0.025693553
146	0x3dabfb9e	0.083976015
147	0x3daad37c	0.08341119
148	0x3dcecedb	0.10098048
149	0xbc6986dc	-0.014253344
150	0x3d1e98ae	0.038719825
151	0x3cb398c4	0.02192343
152	0x3dc8c212	0.09802641
153	0x3dc94fe6	0.098296925
154	0xbd9e10d1	-0.07718051
155	0xbd439111	-0.047745768
156	0xbd10c66b	-0.035345476
157	0xbde9ef3c	-0.114225835
158	0x3cf32b8d	0.029683853
159	0xbdbcec50	-0.092247605
160	0xbe01660f	-0.12636589
161	0x3e1ac2e6	0.1511341
162	0xbde900a8	-0.11377078
163	0x3cdff779	0.027339684
164	0x3d06f52d	0.03294866
165	0x3d35adba	0.04435513
166	0x3cd3acaf	0.025839178
167	0x3e029ab8	0.12754333
168	0x3dacc98a	0.08436878
169	0xbcf3f536	-0.029780012
170	0xbcf83276	-0.0302975
171	0xbdef7391	-0.116919644
172	0x3dea3ea0	0.11437726
173	0xbcc228a6	-0.023701023
174	0x3cc97a47	0.02459444
175	0xbd6f661a	-0.05844698
176	0x3dc18cd2	0.094506875
177	0x3e00d2f0	0.12580466
178	0x3db53fc9	0.08850057
179	0xbd482349	-0.048861776
180	0xbdf887d6	-0.12135284
181	0x3d3802c8	0.044924527
182	0xbda68bd1	-0.081321366
183	0xbd79cc2a	-0.06098572
184	0xbe09364d	-0.1339962
185	0xbd493822	-0.049125798
186	0xbd258667	-0.04041138
187	0xbe0537ff	-0.13009642
188	0x3d609be9	0.054836188
189	0x3cd14b40	0.025548577
190	0xbdfa3eab	-0.12218984
191	0xbdc0b372	-0.094092265
192	0xbd212f77	-0.039351907
193	0x3dd04290	0.10168946
194	0xbd756ecf	-0.05992013
195	0x3dcabbbe	0.0989909
196	0x3daca8ce	0.084306344
197	0x3ce12457	0.027483149
198	0xbd30b02a	-0.043136753
199	0x3d963638	0.0733456
200	0x3e0014ad	0.12507887
201	0xbd83fa81	-0.06444264
202	0xbd6f628b	-0.058443587
203	0xbd3af5ee	-0.045644693
204	0x3d57eec4	0.05271794
205	0xbdac735c	-0.084204406
206	0x3e03ad53	0.12859087
207	0xbe02af8c	-0.12762278
208	0x3dad2ed2	0.08456196
209	0x3d89a809	0.06721503
210	0xbd87f2ef	-0.06638133
211	0xbd23c08b	-0.039978545
212	0xbd29e5c2	-0.04147888
213	0x3d7789be	0.060434096
214	0xbcf4a16f	-0.029862134
215	0xbd6fd8d9	-0.05855641
216	0x3d1556e4	0.03645982
217	0xbd079ddb	-0.033109527
218	0x3de52007	0.11187749
219	0xbde90b4f	-0.1137911
220	0x3dfbfa34	0.12303582
221	0x3dd02cb9	0.1016478
222	0x3dabca6e	0.0838822
223	0xbcdd3888	-0.027004495
224	0xbde44902	-0.11146738
225	0x3d140b06	0.036143325
226	0x3c279061	0.010227294
227	0x3d55f31e	0.052233808
228	0xbd82f193	-0.06393733
229	0xbddceb74	-0.107870966
230	0x3ddd4a58	0.108051956
231	0xbdb055a8	-0.08610088
232	0xbd30d00a	-0.04316715
233	0x3dbdafc0	0.09262037
234	0x3d5bfec8	0.053709775
235	0x3c22066f	0.009889229
236	0xbc29b777	-0.010358683
237	0x3cc691f1	0.024239512
238	0xbdab0a97	-0.08351629
239	0x3d704eb5	0.05866881
240	0xbd8e89c3	-0.0695987
241	0x3db0c0a2	0.08630492
242	0x3ddc2784	0.107497245
243	0x3d5f412d	0.054505516
244	0x3be2d24f	0.0069220434
245	0xbdceb762	-0.10093571
246	0x3e0e1c40	0.13877964
247	0xbd44e603	-0.04807092
248	0x3cd1e61f	0.025622426
249	0x3d992b9c	0.07479021
250	0xbda336d4	-0.07969442
251	0x3d4c9dab	0.04995505
252	0x3d0c1ee0	0.034209132
253	0xbdf84eb0	-0.121243834
254	0xbde3304f	-0.110931985
255	0x3da33e47	0.07970863

fc3.bias f4 [10]
0	0x3bf96dd9	0.007611972
1	0x3d600c53	0.054699253
2	0xbc71d3e5	-0.014759992
3	0xbcb1fbaf	-0.021726457
4	0x3cb9aef7	0.022666438
5	0x3ddcc8bd	0.10780475
6	0x3d01e632	0.031713672
7	0xbdbe25e3	-0.0928457
8	0xbd974da0	-0.07387853
9	0xbd7b0692	-0.061285563
