models/client-1-2.pth (torch, 181282 bytes, 10 tensors)

conv1.weight f4 [6, 1, 5, 5]
000000 c7 7d 1d 3e 4f 6d 47 3e 61 7c 83 3d 6f 14 b9 3d
       0.15380011 0.19475292 0.06420208 0.090371005
000010 e8 eb a5 3c 90 6b 23 3e f9 fd bd 3d 0d be d0 3c
       0.02025409 0.15959 0.09276957 0.025481248
000020 60 b7 0d 3e ed f4 d0 bd a1 48 a9 3e ed 86 ab 3e
       0.13839483 -0.10202966 0.33063224 0.33501378
000030 9d b8 67 3e 86 51 5f 3e 09 93 91 3e 88 46 f2 3d
       0.22629018 0.21808442 0.2843249 0.11829859
000040 59 8e 5e 3c a7 f2 85 3e a2 c8 a9 bd ad fb 35 3e
       0.013583743 0.26161692 -0.08290221 0.17771788
000050 28 4a b5 bd 64 cf 22 3e 41 fc 59 bd 11 1b 6f be
       -0.08852035 0.15899426 -0.053219084 -0.23350169
000060 1e 2d 62 be 2b 82 07 3d e6 20 9f 3d f4 2a 2e be
       -0.22087523 0.033083122 0.07769947 -0.17008573
000070 e0 6f 2f 3e 62 a4 2f 3d 0d 0b ad 3d b9 c0 9a 3d
       0.1713252 0.042881377 0.084493734 0.0755629
000080 79 be 1a be c6 34 d4 bd 29 1f 18 3d 58 69 ff bc
       -0.15111722 -0.10361628 0.03713909 -0.031178162
000090 bd e7 32 be 64 b6 2e 3d fe eb b5 3d de a9 bd bd
       -0.17471214 0.04265441 0.088829026 -0.09260915
0000a0 c7 31 d1 bd de 8f 38 be ac 70 c8 bd f6 ab 13 be
       -0.102145724 -0.18023631 -0.097871155 -0.14421067
0000b0 84 24 8e 3c b0 a1 f2 bd 2d d9 9c 3d ee 47 e2 3d
       0.017351396 -0.11847246 0.076586105 0.11048876
0000c0 3d 37 d4 bd 72 d5 ff 3d 97 2f 6d 3e 8d d7 19 3e
       -0.10362098 0.12491883 0.23162685 0.15023632
0000d0 ed cc 26 3e 65 31 ea 3d 65 ec 01 be 07 21 7f 3e
       0.1628911 0.114352025 -0.12687834 0.24914943
0000e0 65 5c 6c 3e cd 8c f1 3c e3 2b 1c 3e b2 2d 23 3e
       0.2308212 0.029486084 0.15251116 0.159354
0000f0 e1 f9 a6 bc b0 c0 33 3d b8 69 8e 3e 6f 0c 70 3e
       -0.020382823 0.043884933 0.27815032 0.23442243
000100 62 00 c5 3d 9b e6 d9 3d 35 4a 71 3e cf 6d 71 bc
       0.09619214 0.10639688 0.23563464 -0.014735653
000110 cf 39 3f 3e 94 73 9e 3d 3a 66 66 bd 76 39 f6 bd
       0.18674396 0.077368885 -0.056249835 -0.120226786
000120 4f ae 02 bd 90 71 80 bb 7b 69 b5 3d 7f 83 e1 bc
       -0.031904515 -0.0039197877 0.088580094 -0.027528523
000130 13 78 3e 3e 8b 54 3e 3d e8 1e 70 3e 21 5b 12 3e
       0.18600492 0.046467345 0.2344929 0.14292575
000140 7e a6 6a 3e 2a 50 2e bd 87 43 50 3e 9d 51 1e 3e
       0.22915074 -0.04255692 0.2033826 0.1546082
000150 ae 94 39 bd 34 63 e3 3d 20 bb 1e 3e d2 09 17 3e
       -0.045307808 0.11102906 0.1550107 0.1474984
000160 63 58 7e 3e 15 2a 26 3e 83 8b d1 3c 51 f5 6f 3e
       0.24838404 0.1622699 0.02557922 0.23433425
000170 68 19 8d 3e 98 e4 10 3e 23 90 d5 3d 0b 86 aa bd
       0.27558446 0.14149702 0.104278825 -0.08326348
000180 94 b1 6b 3e a5 30 eb 3d fc 54 08 3c 68 f7 ba 3d
       0.2301696 0.114838876 0.008321043 0.0912922
000190 45 6d 07 3e b7 ab e3 3d d0 cc 74 3e b4 5b a0 3e
       0.13225277 0.111167364 0.23906255 0.31319964
0001a0 b0 2e 9e 3e 28 76 bb 3c f6 b8 75 3e 27 ac 3b 3d
       0.30894995 0.02288349 0.23996338 0.045818474
0001b0 41 a9 92 3d c3 a7 2a 3d 07 83 cd bc c0 9e 27 3c
       0.07161189 0.041663896 -0.025086893 0.01023072
0001c0 cd fb 84 3e da a9 1f 3c 8c 8e 4c 3e 87 76 eb bd
       0.2597336 0.009745086 0.19976252 -0.11497217
0001d0 c9 a6 67 be 7e 24 dd 3c a2 ed 11 3e 6e 2b 1b 3e
       -0.22622217 0.02699494 0.14250806 0.15153286
0001e0 ed 99 36 be 35 fb 94 be f6 04 cb bd 0b d2 fc bd
       -0.17832156 -0.29097906 -0.099130556 -0.1234475
0001f0 eb 1c e3 bd 40 7d 0b be 30 aa 7b 3c 00 26 bc b9
       -0.110895 -0.13621998 0.0153604 -0.00035886467
000200 1f 22 44 be b8 52 2a 3d e5 95 2e be 4f 82 09 3e
       -0.19153641 0.041582793 -0.17049368 0.13428615
000210 47 e9 d1 bd 1f 82 36 3e fc 84 8c bd f7 cf 31 be
       -0.10249572 0.17823075 -0.06861302 -0.17364489
000220 d0 c1 ad 3c b9 62 06 3e b0 63 b9 bc 13 b6 2d be
       0.021210581 0.13123597 -0.022630543 -0.16963987
000230 fa 18 a5 bd 00 e0 7d bb 22 7e bf 3d 40 ff bd bd
       -0.080614045 -0.003873825 0.0935023 -0.09277201
000240 8c 0d 6c bd f7 bc 28 3e 23 d5 2d be cb 00 12 be
       -0.057630107 0.16478334 -0.16975836 -0.14258115
000250 ba 5e 26 be ba 2c b2 bd
       -0.16247073 -0.08699937

conv1.bias f4 [6]
000000 84 05 1b 3e 4f 00 12 be a5 57 ae 3d c3 f8 8c bc
       0.15138823 -0.1425793 0.085128106 -0.017208463
000010 90 70 b6 3b a7 6c a5 bd
       0.0055676177 -0.080773644

conv2.weight f4 [16, 6, 5, 5]
000000 f0 52 2a be f4 35 25 be b7 ba 3b bd 2e cc 07 3e
       -0.166332 -0.16133863 -0.045832362 0.13261482
000010 8a ac 23 3c cb 2c d8 bd f3 88 82 bd d5 96 16 3e
       0.009989867 -0.105554186 -0.06373777 0.14705975
000020 45 a7 28 3e a7 29 bd 3d 93 21 04 be a1 4f e2 bb
       0.16470058 0.0923646 -0.12903433 -0.006906465
000030 19 f9 37 3d f1 14 58 3d e7 cc 59 3d de b5 99 3d
       0.044915292 0.052754346 0.053173926 0.075053915
000040 4c fd 86 3d 80 7c 03 bd ba ed d8 bd d5 89 22 be
       0.06591281 -0.032101154 -0.10592218 -0.15872891
000050 38 14 80 3d b1 3b ba 3c a2 ca 88 3d 98 85 b4 bd
       0.062538564 0.022733541 0.06679274 -0.088145435
000060 8f 50 4c 3c f4 44 00 3d 3f 61 a3 3d ec 57 76 3d
       0.012470379 0.03131576 0.079775326 0.060142443
000070 12 26 27 3d 21 d0 db bc 74 80 70 3d b6 80 8d bd
       0.04080779 -0.026832642 0.058716252 -0.06909315
000080 33 8f 24 3d ab bf 3a 3d 84 0a 29 3d e4 f0 db bc
       0.040175628 0.045592945 0.041269794 -0.026848264
000090 63 28 94 bd 97 b0 b2 3b e0 20 93 bd 50 c0 ca bc
       -0.07234266 0.00545318 -0.07184005 -0.024749905
0000a0 88 ca 0d 3d 71 1f a1 bd 03 58 14 3d 7a 02 8b 3d
       0.034616977 -0.07867325 0.036216747 0.06787582
0000b0 b3 1e 8e bd 84 8f 12 bd e8 b2 1d 3d ee 3a 09 bc
       -0.06939449 -0.0357814 0.038500696 -0.008375866
0000c0 7a c6 bd bc 15 84 c8 bc 2d fc 11 be a1 ce d3 bd
       -0.02316593 -0.024477044 -0.14256354 -0.10342146
0000d0 29 66 a9 3d a6 c0 52 3c 1b 5a ba 3d ff 11 40 be
       0.08271439 0.012863314 0.090992175 -0.18756865
0000e0 94 38 3f bd 20 bd 3b bc d6 9d 04 3d 42 d8 18 3d
       -0.046684816 -0.011458665 0.032377087 0.037315615
0000f0 ca 7f 98 bd 25 95 d6 3d 46 03 c6 bc eb a2 dd 3d
       -0.07446249 0.10477666 -0.024171483 0.1082209
000100 96 5a f2 3c bc ef ad 3d 78 97 cb 3d 2c c5 ae 3d
       0.02958421 0.08492991 0.09941 0.08533701
000110 8e 91 52 bd b7 1b 89 bd 35 27 3d 3d 56 b1 e6 3c
       -0.051408343 -0.06694739 0.04617997 0.028160732
000120 bb e8 4f 3d 9e fc fd 3c cf 7e 6b 3b 1b 4a 2d be
       0.05075906 0.031004246 0.0035933738 -0.169228
000130 31 e4 3f bd d0 a0 70 3d 36 e7 d0 3d d7 e5 ec 3d
       -0.04684848 0.058747113 0.1020035 0.11567276
000140 a9 c0 20 be 61 9c 92 bc d2 2d 2d 3e fb da 15 3e
       -0.15698494 -0.017896833 0.1691201 0.14634316
000150 b6 f9 0f bd ca 53 ec bc 1d 32 1a 3e ba b0 d0 3d
       -0.035150252 -0.028848547 0.15058179 0.10189958
000160 cc 3e 8f 3c bd 80 51 bd c9 aa bd 3d 24 2a 4f 3d
       0.017485999 -0.051148165 0.0926109 0.050577298
000170 8f 7b 76 bd 10 74 17 be 4e 3e 02 be ed e1 cd bc
       -0.06017643 -0.14790368 -0.1271908 -0.025132144
000180 9f 08 39 bd 78 48 ba bd 9a 96 e2 bd ee 3c 85 bb
       -0.045174237 -0.090958536 -0.11063881 -0.0040661013
000190 78 b7 42 bd 84 16 7f 3d 1e d2 77 3b 52 64 da bd
       -0.04753825 0.062277332 0.0037814449 -0.10663666
0001a0 3f 20 18 be 82 2e a4 bd bb cb 11 3d 00 4c 8b 39
       -0.14856051 -0.08016683 0.035594683 0.0002656877
0001b0 1c af 17 3d e0 9f 42 bd b6 9d 1e be 74 ed ae 3d
       0.03703223 -0.04751575 -0.1548985 0.08541384
0001c0 cc dc b8 3d 22 cc c8 3c b3 cd 03 3e 0f 6c e1 3d
       0.09026489 0.0245114 0.12871437 0.11006939
0001d0 fc 98 e2 3d 58 06 87 3b 17 69 7c 3c 4e 29 77 bd
       0.11064336 0.0041206293 0.015405915 -0.060342126
0001e0 9e 7a 9c 3a 07 4f 95 3d c9 f5 07 be 93 ff ea bd
       0.0011938398 0.07290464 -0.13277353 -0.11474528
0001f0 4a fd 40 bd 99 13 17 bd 56 c6 91 bd 6a 97 13 3d
       -0.047116555 -0.036883924 -0.07117908 0.03603307
000200 d2 25 1d 3d e7 8f 0f bd b8 1c 1a 3d 1a a0 8d bd
       0.038366146 -0.035049345 0.037625045 -0.069153026
000210 b7 1c 87 bd 00 4a c3 3b 28 4b 8e 3d 4c 66 45 3d
       -0.06597274 0.005959749 0.06947929 0.04819326
000220 e0 fc 85 bc a0 fc 1b bd 38 d5 63 3c f4 19 8c 3d
       -0.016355932 -0.03808272 0.013905816 0.06840888
000230 c6 76 93 3d 64 0e 40 3d 43 2e 6e bd 66 f4 f0 bc
       0.072003886 0.046888724 -0.058149587 -0.029413413
000240 0d 67 96 bd 03 d7 35 bd 14 7c 9e 3d 18 e8 e0 bc
       -0.07343874 -0.044394504 0.0773851 -0.02745442
000250 b2 cc 96 bd b0 2c 0c bd 18 75 03 3b f4 c5 01 3e
       -0.07363261 -0.034222305 0.0020058807 0.1267317
000260 f6 2e 9d 3d e1 d7 f7 3d 90 e6 f7 3d d0 81 dd 3d
       0.07674973 0.121017225 0.12104523 0.108157754
000270 96 83 93 3d 54 e6 30 3d 27 67 ef 3d 26 13 22 3d
       0.072028324 0.043188408 0.116895966 0.039569043
000280 8e bb 18 bd b1 d8 25 bd f2 74 a9 bd 61 00 e1 3c
       -0.03728824 -0.040489856 -0.08274259 0.027466001
000290 7a c6 1e 3d 65 d4 f2 bc 9c 00 bd bd 29 28 57 bd
       0.0387635 -0.029642293 -0.09228632 -0.052528534
0002a0 14 29 b5 bd b3 1f 18 bd cf a4 a9 3c d2 1d 24 3d
       -0.08845726 -0.037139606 0.02070847 0.0400675
0002b0 ab 43 5d bd d8 da 01 b9 88 5a e2 bc 2e 2c 90 3d
       -0.05401961 -0.00012383924 -0.02763106 0.070396766
0002c0 ac 61 69 bc ff ac f1 ba 55 fa 69 bd 28 55 a3 3c
       -0.014244478 -0.0018438398 -0.0571235 0.019938067
0002d0 24 db 31 3d 92 aa c0 3c a0 34 17 bc fd 3e 85 bd
       0.04342188 0.023518834 -0.009228855 -0.06506155
0002e0 ac 43 58 bd 16 d1 c5 bb a9 d5 29 bd d5 b0 0c 3d
       -0.052798912 -0.006036888 -0.041463528 0.034348328
0002f0 60 04 ad 3b 73 d5 1e 3d 60 85 d9 bb 9e d3 0e 3d
       0.0052800626 0.03877778 -0.006638214 0.034869783
000300 11 65 86 bd 66 ac 84 bd 99 bd 10 3d 7f 98 b1 bc
       -0.06562246 -0.06478195 0.035337064 -0.021679161
000310 9a 64 7a 3d 43 06 af 3c 14 70 d8 3c 28 72 95 bc
       0.061131097 0.02136529 0.02642063 -0.01824291
000320 06 63 c0 3d 2c d5 48 bc dc 8f a8 3d de ae b8 bb
       0.09393887 -0.012257855 0.08230564 -0.00563608
000330 6c 10 30 bc 74 a6 c6 3d 45 6b 9f 3d 4c ba b5 3d
       -0.010746103 0.09699717 0.07784132 0.08873424
000340 e3 92 86 3c d0 b9 4d 3d c9 13 2a 3c e0 9a b2 bd
       0.016427463 0.050226033 0.010380694 -0.08720946
000350 c3 96 4e bd 5e 30 39 bd d1 86 00 bd 60 a6 6b 3d
       -0.050436746 -0.045212142 -0.03137857 0.057531714
000360 83 60 f9 3c 62 ca 07 be 6d cb fb 3b 1a b3 4b bd
       0.030441528 -0.13260797 0.0076841624 -0.04973135
000370 69 d0 77 bc 4a ed 0d bd 95 84 97 3d 5c 8f e4 3b
       -0.015125372 -0.034650125 0.07398335 0.0069750976
000380 57 b6 ad bd 53 d5 d1 bc 9f ff 2f bc 02 eb ad 3d
       -0.08482044 -0.025614416 -0.010742097 0.0849209
000390 68 be 03 3e c0 29 c2 bc c4 41 5c 3d 3e 62 50 bc
       0.12865603 -0.023701549 0.053773656 -0.012718735
0003a0 cc e5 a7 bb 14 e6 64 3d 29 73 a9 3d af 49 89 bd
       -0.0051238295 0.055883482 0.08273918 -0.06703507
0003b0 ae 83 dd bd 08 07 82 bd 2b fb 75 bd 01 1e e5 3c
       -0.108161315 -0.06348997 -0.060053986 0.027968409
0003c0 45 3a a9 3c f7 18 e0 bd 17 39 47 bd dc 81 90 bd
       0.020657668 -0.10942262 -0.04863843 -0.07056019
0003d0 4d 1b 10 3d 42 44 16 3d 32 95 26 bd 7e 2b de bc
       0.035182286 0.03668619 -0.040669627 -0.027120348
0003e0 93 a3 8e bc 57 21 3b bb d9 08 c2 bc 68 36 d1 3d
       -0.017411983 -0.0028553808 -0.02368586 0.10215455
0003f0 e0 c8 0f 3e 67 af e7 3c 6f 19 5f bd d4 99 b1 3c
       0.14041471 0.02828188 -0.054467615 0.021679796

conv2.bias f4 [16]
000000 c1 b1 53 3d 39 8f 17 bd 5c a7 4c 3d b5 69 35 3d
       0.05168319 -0.037001822 0.049964294 0.044290263
000010 a7 55 5b bd 36 05 00 3e cf 3c 14 3d 03 5d d0 3d
       -0.05354848 0.12501988 0.036190804 0.101739906
000020 aa 9c 68 bc 86 93 a2 3b f5 f8 0e 3d 42 51 24 3d
       -0.014197508 0.004961434 0.034905393 0.040116556
000030 47 87 90 bd 2d 31 8b bd 81 fb 89 3d 40 3c 71 bb
       -0.07057052 -0.06796489 0.06737424 -0.0036809593

fc1.weight f4 [120, 256]
000000 02 13 50 3d df 9a 9f 3c 4b a0 0b bd 70 de 66 bd
       0.050799377 0.019483028 -0.034088414 -0.056364477
000010 59 ee f5 bb 70 28 49 bd 10 61 2c 3c 91 8a 69 bd
       -0.00750522 -0.04911083 0.010521188 -0.057016913
000020 c2 e3 11 bc ea 44 d7 bc 3e 1b 0d bd e5 46 37 3d
       -0.008904399 -0.026277978 -0.03444981 0.044745345
000030 95 29 36 3d 95 52 7f bc 63 33 3d 3d 68 3d 32 bd
       0.04447325 -0.015583654 0.046191584 -0.043515593
000040 88 32 ab 3c 74 34 91 3c 22 8a 20 3d e1 2c 3d 3d
       0.020898119 0.017725207 0.039194234 0.046185378
000050 c8 a5 5c 3c e8 90 3c bc 60 62 e5 3b a0 88 0b bd
       0.01346726 -0.011509158 0.0070002526 -0.034065843
000060 80 01 39 3b 42 07 78 3d 88 ed 37 bc 7c e6 9a bc
       0.0028229654 0.060553797 -0.011226065 -0.018908732
000070 48 5f 0d 3d 20 61 f7 bb 68 c7 ad 3c 0f f1 db 3c
       0.034514695 -0.00754942 0.021213248 0.026848344
000080 7d e5 cd bc 89 87 b2 3c f9 fd 58 bd cc 38 4d bd
       -0.025133843 0.021793144 -0.052976582 -0.050102994
000090 f6 b6 32 bc 2a d2 1c bd 4f b3 2b 3d 71 4e 98 3c
       -0.010907879 -0.038286366 0.04191905 0.018592091
0000a0 1c bb 4f bd 92 6f 08 3d 70 48 94 bc 57 58 f7 bb
       -0.05071555 0.033309527 -0.018100947 -0.0075483727
0000b0 8d 2a 1a 3d 08 4d 65 bd 87 57 fb bc 03 99 9a bc
       0.037638236 -0.055981666 -0.030681385 -0.01887179
0000c0 68 9e b7 bc 5d 3a 89 3a 59 47 58 bc 59 9d 42 bd
       -0.022414401 0.0010469664 -0.013200604 -0.04751334
0000d0 65 3c d3 3c 72 28 9a bc 11 1f 8a bd c3 df 48 bd
       0.025785634 -0.018818114 -0.06744207 -0.04904152
0000e0 17 22 15 3d a9 3f e3 3c df 59 fc 3c 49 1f bf 3b
       0.036409464 0.027740316 0.030804573 0.005832587
0000f0 35 34 24 3d 47 39 e7 3b db 93 24 bd e1 65 50 bd
       0.04008885 0.0070563885 -0.04018007 -0.05087841
000100 04 5b 22 3d b6 45 74 bd a6 8c 17 bd d8 c0 4e 3d
       0.03963758 -0.059636794 -0.036999367 0.05047688
000110 c6 41 43 3d 28 c5 07 bc e8 e5 22 bc 74 c9 c9 bc
       0.04767015 -0.008286752 -0.009942509 -0.024632193
000120 30 43 6c 3d 08 31 92 3c 30 56 9a bb 34 79 c2 3c
       0.057681262 0.017845646 -0.0047099814 0.023739435
000130 b4 7f 08 3d 60 86 55 3b 28 42 84 3c b6 fd 6a 3d
       0.033324912 0.0032581314 0.016144827 0.057370864
000140 6e 50 86 bd d2 a8 8f bd 50 ce 6c bd 1a 36 7f 3b
       -0.065583095 -0.07014622 -0.057813942 0.003894216
000150 71 0c 46 bc 90 30 ae bc 53 a9 d5 3c 8b 1c a5 3c
       -0.012087927 -0.02126339 0.026081717 0.020155212
000160 b4 6b cf 3c 00 cc e5 b8 2d df 3e bc 85 cc de 3c
       0.025319912 -0.00010957569 -0.011649889 0.027197132
000170 88 de 70 bc 61 97 55 3a 2b ce 6d bc be c2 3c 3d
       -0.014701493 0.00081478624 -0.014514486 0.046084158
000180 2a c0 9e bb 0c ae bc bc fa 23 5c bd 3a cd 22 bd
       -0.004844685 -0.02303221 -0.053745247 -0.0397465
000190 64 1b 48 3d 95 52 86 bd 50 5b 05 3c 18 5a c9 3c
       0.048854247 -0.0655872 0.008139446 0.024579093
0001a0 66 12 bb bc d4 4d fb 3c c6 21 48 bd 48 86 80 bc
       -0.022835921 0.03067676 -0.048860334 -0.01568903
0001b0 86 28 01 bd 00 cc 4f 3a 64 8c e8 bc 40 2d a8 bb
       -0.031532787 0.00079268217 -0.028387256 -0.0051323473
0001c0 85 33 05 bd f1 b8 2c bd 86 67 25 bd 71 10 99 bc
       -0.032519836 -0.04216856 -0.04038193 -0.018684598
0001d0 ec a8 8c bc 02 23 f7 3c fe 13 03 3d 69 7b 34 bd
       -0.017170392 0.03016806 0.032001488 -0.044063006
0001e0 81 91 90 3c 7c 36 f7 bc 48 1f 68 bd d3 55 08 3d
       0.017647507 -0.030177347 -0.056670457 0.033284973
0001f0 64 9e 47 3d d8 dc 58 bd 29 5e c8 3c f2 cd 63 bc
       0.048735037 -0.052944988 0.024458962 -0.013904082
000200 ff 70 1a 3d b1 9c 06 3d b3 e2 81 bd 42 f7 7d bd
       0.037705418 0.032864276 -0.063420676 -0.06200338
000210 f3 2f 7c bd 59 72 05 3d ba 83 0d 3d bf 56 0a bd
       -0.061569165 0.032579754 0.034549452 -0.033774134
000220 17 01 c7 bc 5f b7 27 3d e8 fa 72 bd 22 7d 0d bd
       -0.024292512 0.04094636 -0.059321314 -0.034543164
000230 58 04 d2 b9 fa 59 4c 3c 14 35 ef 3c e8 7c 45 bc
       -0.00040057558 0.012472624 0.029200114 -0.012053706
000240 b0 7a c8 3c d6 02 b9 bc f2 90 c0 bc a5 1b be bc
       0.024472564 -0.02258436 -0.023506615 -0.023206541
000250 e0 09 38 bb 7c 52 77 bd 0a e0 bc bc 49 1a 5d bc
       -0.0028082058 -0.060381398 -0.023056049 -0.013495036
000260 0c ec d2 bc 20 c7 1b bd 3e 4a 05 bd 89 ce 59 3c
       -0.025747322 -0.038031697 -0.032541506 0.013293871
000270 84 4f 95 3c b0 7f 9e 3b ec ba 3e 3d fb 27 5a bd
       0.018226393 0.004836999 0.04656498 -0.053260785
000280 a3 0d 89 bd d4 03 e6 3c 49 37 3b 3d b3 80 ff bc
       -0.06692054 0.028077997 0.04570702 -0.031189298
000290 fe e3 57 bd df a8 05 3c b6 54 2e bd 90 d3 41 bd
       -0.052707665 0.008157938 -0.042561255 -0.047320902
0002a0 0d 49 8c bd ba 52 30 3c 2d bd 78 bd c7 20 8b bc
       -0.06849871 0.010761911 -0.060727287 -0.016983403
0002b0 4d 2d 92 3c cb 7f 9e 3c 95 95 8a bd 2b a5 5a 3d
       0.017843867 0.019348046 -0.06766812 0.053380173
0002c0 42 ff 49 3d 24 de 79 bb 48 05 01 bd c2 d2 64 3d
       0.0493157 -0.003812679 -0.031499177 0.055865057
0002d0 fb ab 4d 3c bf eb f8 3c 7c d6 37 3d 10 3c 1a 3c
       0.01255321 0.03038585 0.044882283 0.009413734
0002e0 3e 4c 98 3c e2 0e 0d bd 5c ca 48 3d 64 84 f3 3c
       0.018591043 -0.03443802 0.04902111 0.029726215
0002f0 bd fc ae bc 7c c4 80 3c 04 7e a6 bc 7a 7c 73 3c
       -0.02136075 0.015718691 -0.02032376 0.0148612205
000300 2e c0 64 3d f7 4a 7f bc ff 57 f6 bc 58 49 af 3c
       0.05584734 -0.015581838 -0.030071257 0.021397278
000310 97 cd 89 bc 7a e6 0a 3d 63 28 3b 3b 3e 35 02 bd
       -0.016821666 0.033911206 0.0028558008 -0.031789057
000320 fa 4f 1e bd f2 08 d9 3c ee 2b f6 bc 00 a8 47 3a
       -0.03865049 0.026493523 -0.030050244 0.00076162815
000330 66 da 5b 3d 3c 51 70 3d fc cc 83 3b ee 71 99 bc
       0.053675078 0.05867122 0.004022239 -0.018731084
000340 fb 4a 7f bd 36 d7 32 bd 7e fa db 3c 53 70 90 bd
       -0.062327366 -0.043662272 0.026852842 -0.07052674
000350 39 86 91 bb f2 68 29 3d dd 0b 22 bd 0b 11 83 bd
       -0.0044410494 0.04135985 -0.039562095 -0.06399735
000360 e1 64 03 bd e2 c4 2b bd 45 dd 42 bd 76 bb 46 3d
       -0.032078627 -0.04193581 -0.0475743 0.04851862
000370 89 4d 05 bc 03 94 d9 bc c2 49 87 bd fd f1 64 3d
       -0.008136162 -0.026559835 -0.06605865 0.05589484
000380 18 41 07 bd d8 e1 53 3c 62 19 20 bd e0 15 45 bd
       -0.033021063 0.012932263 -0.039086707 -0.048116565
000390 a5 a9 7c bd 0b 30 73 bd 61 5e 0f bd c0 a0 e5 bc
       -0.061685223 -0.05937199 -0.035002116 -0.028030753
0003a0 3c 3e 5f 3d 1c a1 a2 3c b4 66 28 3d a8 e0 57 3d
       0.05450271 0.019852214 0.04111357 0.052704483
0003b0 cc f9 cd bc aa b5 ed 3b a9 66 50 3c 2d fb 7d bb
       -0.025143526 0.007254322 0.012719789 -0.0038754449
0003c0 4c 0f 75 3d 08 47 a6 bc ec 5a f7 bc 10 36 e1 3b
       0.05982904 -0.020297542 -0.030194722 0.0068729
0003d0 70 db c1 bb f8 91 fc 3c 7e 5a 08 3d e0 bf 66 bc
       -0.0059160516 0.030831322 0.033289425 -0.0140838325
0003e0 42 ff 06 3d f4 55 f8 bc ca e5 7a bd 2e 5e 59 bd
       0.032958277 -0.030314423 -0.0612543 -0.053068332
0003f0 26 bd 18 bd 90 93 a7 3c 00 5c 00 bb a4 f8 8c bc
       -0.03728976 0.020456105 -0.0019586086 -0.017208405

fc1.bias f4 [120]
000000 6c 01 43 3c 8d 53 89 3d d3 78 d5 bc d7 da bc 3b
       0.0119021945 0.06705389 -0.02605859 0.0057633924
000010 5b 67 16 3d d1 f9 10 3d e7 67 16 3d 1d 35 21 bd
       0.03671966 0.035394493 0.036720183 -0.039357293
000020 82 18 d5 bc e4 b2 ad 3c 61 9d 51 3d 74 bd 03 3c
       -0.026012663 0.021203466 0.05117548 0.008040775
000030 9c ab 44 3d 6f 9e d5 39 c4 e9 b5 3c 54 40 5b bd
       0.048015222 0.00040744568 0.022206195 -0.053528145
000040 8c ce 88 3c 4c af 7c 3d 9d 0a 20 bd f3 1f 13 bc
       0.016700052 0.061690614 -0.03907262 -0.008979785
000050 c8 0d 18 bd 3b 42 4c bd b7 94 0e bd 45 1a 3b bd
       -0.037122518 -0.04986785 -0.034809794 -0.04567935
000060 bf e8 9a bc 6e a4 44 bc e2 61 3d 3d 7e 64 a3 3c
       -0.01890981 -0.012002094 0.046235926 0.01994538
000070 d0 43 fc 3c 58 8b 3a bc 87 d9 66 bd 21 22 5d bb
       0.030794054 -0.011385761 -0.056359794 -0.0033742266
000080 0f 04 3c bd bd 70 03 3d 32 96 aa 3c 89 d3 a1 3c
       -0.045902308 0.032089937 0.020823572 0.019754188
000090 86 cb 66 bd 8a 37 ef bb 30 e2 2a 3c 21 0d 71 3d
       -0.05634644 -0.007300322 0.010429904 0.05885041
0000a0 a5 ce c4 bc bc f4 46 3d 61 e1 47 bc 9e 9a 8c 3d
       -0.024024317 0.04857324 -0.012199731 0.068654284
0000b0 fb 11 83 bd 95 96 2e bc 2e 87 16 bd 0a 13 f1 bc
       -0.06399914 -0.010656019 -0.03675001 -0.029428024
0000c0 bd 70 20 3d b3 10 36 3d 44 a5 44 3d bf 8c 01 bd
       0.039170016 0.04444952 0.048009172 -0.031628367
0000d0 34 a3 43 bc 90 97 39 3c 54 d1 5b 3c b0 1e e3 3c
       -0.011940766 0.011327639 0.013416607 0.027724594
0000e0 3c d0 68 3d 08 11 06 bd bb f2 e2 bc 07 75 54 3d
       0.056839213 -0.032731086 -0.027703634 0.05186942
0000f0 ee 15 3e 3d 09 e6 24 bd ba 21 67 3d 10 90 a4 bb
       0.046407633 -0.04025844 0.05642865 -0.0050220564
000100 92 b6 e2 bc 96 a4 5d bd d0 01 ea bb 56 5f 98 bc
       -0.027674947 -0.05411204 -0.0071413293 -0.018600147
000110 b2 33 b5 bc db ad 46 3d ee 22 81 3d f7 06 77 3c
       -0.022119377 0.048505645 0.063054904 0.015077344
000120 2e 6d 3d 3d 42 e4 d4 bc f5 b2 ae 3c da e2 d6 3c
       0.0462467 -0.025987748 0.021325568 0.026231218
000130 82 ac 3c 3d a8 a2 90 3d 25 09 e9 bb ae 53 87 bb
       0.046062954 0.07062274 -0.007111686 -0.0041298484
000140 80 51 09 bd 14 02 09 bd b2 a7 43 3d 6b 99 bf 3c
       -0.03352499 -0.033449247 0.04776735 0.023388585
000150 2b 5a 9f bc b7 f4 0d bd 72 78 03 3d 80 40 b1 bc
       -0.019452175 -0.034657206 0.032097287 -0.021637201
000160 e0 58 dc 3c de 17 3e 3d 8d 9f 9e 3d 27 72 ba bc
       0.026897848 0.04640948 0.07745276 -0.02275951
000170 b9 37 d8 bc 2a 2a 82 bc 4e 3b 22 3b a0 25 eb bc
       -0.026393758 -0.015889246 0.0024754587 -0.028704464
000180 2f b6 13 bd 6a f6 03 3d 4e 85 25 bd a8 36 28 bd
       -0.036062416 0.03221742 -0.040410332 -0.04106775
000190 e8 50 f8 bb 3d e7 3f bb 45 ac e3 3c d4 19 d6 bc
       -0.007578004 -0.0029282116 0.027792105 -0.026135363
0001a0 8b a1 f5 bb 1b f4 67 3d 69 c9 83 3d 1a 47 13 bd
       -0.007496064 0.05662928 0.064349 -0.03595648
0001b0 57 d4 d9 bb d8 73 81 bd cc 57 ec 3c 6d 36 09 bd
       -0.0066476273 -0.063209236 0.028850459 -0.03349917
0001c0 a8 34 f9 bb 86 c6 65 bd 03 80 e0 bc 66 5b 6e bc
       -0.007605154 -0.05609753 -0.02740479 -0.014548158
0001d0 d1 a4 9c 3d 16 d4 2f bd 5c 7b 39 3d 02 fd 4d bd
       0.07648624 -0.04292687 0.04528366 -0.050290115

fc2.weight f4 [84, 120]
000000 55 33 04 bd 04 21 a9 3d 52 23 ab 3c ab 44 09 3e
       -0.032275517 0.0825825 0.020890865 0.13405101
000010 e4 7a ae 3d da e6 16 3d 47 cc 0f 3d c3 5c cc bc
       0.08519533 0.03684125 0.035106923 -0.024946576
000020 4d 32 d8 3d 8e e2 d0 bd 76 de 06 bd fa 4f 00 ba
       0.10556469 -0.10199462 -0.032927 -0.000489473
000030 3a e9 e6 3c b9 ce fc 3c 5b 75 45 bd 68 fa 94 3d
       0.028187383 0.030860292 -0.048207622 0.07274324
000040 c6 2b 26 bd 89 29 04 3d eb e6 6f 3c ef 92 91 3d
       -0.04056909 0.032266174 0.0146424575 0.071081035
000050 3b 9c 9b bd a7 21 04 3c e3 25 02 3d a8 4d 41 bd
       -0.07598158 0.008064664 0.031774413 -0.0471932
000060 b1 ae 38 3d b4 02 97 3d 21 f0 e0 bc bc f1 ec 3d
       0.045088474 0.073735625 -0.027458252 0.11569545
000070 13 ce 9a 3d 07 d6 15 3e ed 1e 8a bc 1f 3d b5 3c
       0.07558837 0.14632426 -0.01686045 0.022123871
000080 f3 51 0f be 16 db b3 bd e1 6a 09 3c 07 37 af bd
       -0.13996105 -0.08782022 0.008387298 -0.085554175
000090 27 48 a2 3d a9 9f 04 3d ae 14 99 3d 7b 31 dd bb
       0.07923918 0.032378826 0.074746475 -0.0067502833
0000a0 b5 7e 6f bd 65 33 87 3d ed 28 8e bc f0 e1 54 3b
       -0.058470447 0.066015996 -0.0173535 0.0032483302
0000b0 14 e9 b9 3b 47 c9 c8 3d 17 0c f4 3d b2 3d 89 3d
       0.005673537 0.098040156 0.119163685 0.067012206
0000c0 3d c5 20 bb 09 fe a6 bd f5 dc a5 3d 77 74 d9 3d
       -0.0024531626 -0.08153922 0.08098785 0.10617917
0000d0 09 88 f3 bb 00 70 76 3c 3c 7f 18 38 b4 dc 5d bd
       -0.007431988 0.015041351 3.635812e-05 -0.054165557
0000e0 2c 71 07 3e b2 80 32 bd 35 1a c7 3d c0 25 c1 bc
       0.13226765 -0.043579765 0.097217955 -0.02357757
0000f0 a7 92 4f bd 89 6b 06 3d 20 3b df bd 30 57 21 bc
       -0.050676968 0.032817397 -0.10899949 -0.009847447
000100 91 32 16 3d f5 a4 87 bc ed 7d 99 3d e2 fa f0 bd
       0.036669318 -0.01655815 0.074947216 -0.11766602
000110 6a 3e 81 bd 86 a3 58 3c 70 95 63 3d b6 d4 fe 3d
       -0.06310733 0.013222581 0.055562437 0.12442915
000120 ef f1 16 3c 01 7c 8f 3b b1 ba ee 3d a2 e6 7d bd
       0.009212955 0.004378796 0.11656702 -0.061987527
000130 c9 f9 90 3d a6 9b 89 bb 6c 79 b6 3d 73 78 07 3d
       0.07078893 -0.004199463 0.08909878 0.033073854
000140 3b 24 1e 3e 0a 22 cf 3b 5d f6 89 bd a7 75 42 3d
       0.15443508 0.0063211964 -0.06736443 0.047475483
000150 6d 00 d6 bc f9 55 39 bd 7f e9 87 bd c3 ee b0 3c
       -0.02612325 -0.045248006 -0.06636333 0.021598225
000160 75 77 8c 3d b9 7b c5 3d 96 a6 fe bc e5 38 c8 bd
       0.06858722 0.09642739 -0.031085294 -0.09776477
000170 d7 58 a9 bd b9 88 d1 bc c3 17 04 bd e4 cc 74 3d
       -0.08268898 -0.02557789 -0.032249223 0.05976571
000180 b9 4a 9c bd 5f 9a 96 bc 7a 2f ba 3d 22 36 f2 3b
       -0.0763144 -0.018384157 0.09091087 0.007391707
000190 53 c9 4e 3d 79 8d c3 3d f1 e9 19 bc d1 99 74 bc
       0.050484966 0.09548468 -0.009394155 -0.014929251
0001a0 35 ac 21 3d 1b 6c 67 bd a0 f0 0b 3d 76 f9 5f 3d
       0.03947087 -0.05649958 0.034165025 0.054681264
0001b0 af 7b 99 3d 7f ef 34 3d 23 e5 af bc ff 6b 1a bd
       0.07494294 0.044173714 -0.021471566 -0.03770065
0001c0 a2 c2 8e bd 48 68 9f bd 34 39 19 be 70 37 56 bc
       -0.06970717 -0.07783562 -0.14963228 -0.013074741
0001d0 0e 3f 11 bd c2 83 8e 3d 7e 1d 06 bc 80 2d bf 3a
       -0.035460524 0.069587246 -0.008185742 0.0014585704
0001e0 90 13 5b 3d 2e f0 35 bd 37 5f a4 3c 26 06 98 bd
       0.053485453 -0.044418506 0.020064933 -0.07423048
0001f0 a0 0e d8 bc 94 3a a6 3d 42 08 47 bc 6d f2 4c bd
       -0.026374161 0.08116642 -0.012147965 -0.050035883
000200 b7 fc e8 bc b7 78 2f bd d7 27 9b 3d 33 f5 8b bd
       -0.028440816 -0.042839732 0.07575958 -0.068338774
000210 2f 88 0e 3c 20 6b af 3d e5 7c cb bb 14 e7 64 3d
       0.008699461 0.08565354 -0.006209957 0.055884436
000220 27 9a 3f bd e8 8e 5b 3d f0 bf 43 3d 76 02 37 3c
       -0.04677787 0.053603083 0.047790468 0.01117002
000230 9d 2b 1a bd 03 08 88 3c 5d b0 a6 bd a1 7e bb bd
       -0.03763925 0.016605383 -0.081391074 -0.09155012
000240 2f aa 79 bd 04 aa 1c bd 50 58 07 3d a5 4f 86 bd
       -0.060953315 -0.038248077 0.033043206 -0.0655816
000250 79 91 e2 bd 66 4f fd bb 6e 50 ed 3d 6b 91 aa 3d
       -0.11062903 -0.0077304123 0.11587606 0.083285175
000260 5b 4a be bc ea be de 3c 68 72 b5 3d 01 d2 9a 3d
       -0.023228815 0.027190644 0.08859712 0.07559586
000270 2e ba f0 bc 14 54 89 bd b2 f3 1a 3c e7 f8 ea 3d
       -0.029385652 -0.0670549 0.009457516 0.114732556
000280 e6 0b a7 3d 05 22 1d bc d6 e5 8b 3d 50 2c 91 3d
       0.08156566 -0.00959063 0.06830947 0.0708853
000290 0c 78 2e bd 19 2a 69 3d cf 97 4c bc 7f 20 f9 bc
       -0.042594954 0.056924913 -0.012487366 -0.030411003
0002a0 a5 7c e8 3c 00 3d 0c bd 64 b5 80 bd 31 27 99 bd
       0.028379748 -0.03423786 -0.062845975 -0.07478178
0002b0 ee e0 97 3c 33 8d 69 bd 3a cc 5d 3c e4 33 86 bc
       0.018539872 -0.057019424 0.013537461 -0.016382165
0002c0 fb c6 ac 3d a7 98 5a bd 94 e7 9b 3c c5 e7 9c 3c
       0.0843639 -0.053368237 0.019031323 0.019153485
0002d0 7b 27 99 bd 2a 84 b2 3d fd ef 15 3d 54 94 18 3d
       -0.074782334 0.087166145 0.036605824 0.03725083
0002e0 71 4b cd bd 22 68 a8 bd a6 a0 0d 3d d8 13 d6 3b
       -0.10024155 -0.08222987 0.034577034 0.0065331273
0002f0 32 a9 2e bc 14 93 1b bc c3 6b fe bc 13 89 ca 3d
       -0.0106604565 -0.009495515 -0.031057244 0.09889426
000300 94 c0 81 bd 80 4b d3 ba a2 ed d3 3c ed 79 a6 bd
       -0.063355595 -0.0016120523 0.025870148 -0.08128724
000310 dc 33 3f 3d f7 a1 02 3d df 0c 57 bd 35 85 8b 3b
       0.046680316 0.031892743 -0.05250251 0.004257823
000320 9b e2 a6 bd f6 e7 7c 3d f6 3c 91 3d 3e 9f 78 3b
       -0.0814869 0.061744653 0.070917055 0.0037936713
000330 0d 84 d8 bd 32 15 e4 bc 38 74 81 3d 10 24 15 bd
       -0.10572062 -0.027842138 0.06320995 -0.036411345
000340 26 bd 85 bd 37 92 4a 3d 50 2a c8 3d ea 0d 09 bd
       -0.06530218 0.049455848 0.097736955 -0.033460535
000350 f0 69 63 3d ba fd e7 39 09 2d d1 3d f8 5e 79 bd
       0.05552095 0.00044248794 0.10213668 -0.060881585
000360 2f 2c 7b 3d 96 22 82 bd 8b e8 2e 3d 7e 8d 90 bd
       0.061321434 -0.06354253 0.04270224 -0.070582375
000370 f5 12 70 3c 31 93 8a 3a 51 c5 c2 3c 56 2e 5e 3c
       0.014652957 0.0010572431 0.023775728 0.013560852
000380 fa 55 94 3c d4 a7 bb 3d 9d 65 a2 bc 72 59 92 3d
       0.018107403 0.0916287 -0.019823844 0.071459666
000390 1c 12 36 3d 91 45 ce 3d d4 ea f7 3b 12 37 6a bd
       0.044450864 0.100718625 0.0075658355 -0.057181425
0003a0 33 57 23 3d 34 e8 90 3c ca 03 83 3d f1 40 e3 bd
       0.03987808 0.017688848 0.06397207 -0.11096371
0003b0 c5 b6 d4 3d 85 db 9d 3d e3 27 ca 3d 94 9a ad bc
       0.10386423 0.07707886 0.09870889 -0.021191873
0003c0 40 d3 83 3d 74 e4 0f 3d 9a 28 a9 bd 1b 75 3f 3d
       0.06436777 0.03512998 -0.08259697 0.04674254
0003d0 90 72 5a bc 7c 39 8f bd fb 85 8c 3d 70 83 86 3c
       -0.013332978 -0.06993386 0.06861492 0.016420096
0003e0 db ab a1 3c 4f 10 5a 3d 94 d0 8e bd aa 92 17 3d
       0.019735267 0.05323821 -0.06973377 0.037005104
0003f0 a2 77 4b bd 69 72 b2 bd 6e 82 5c bd 28 27 0b 3d
       -0.049674638 -0.08713228 -0.053835325 0.03397289

fc2.bias f4 [84]
000000 e4 5a 8f bb e5 bf 91 bd cd cc 54 bd e6 52 2e 3d
       -0.0043748487 -0.07116679 -0.051953126 0.042559527
000010 46 c9 c3 3b 30 4f fa 3d ae 18 c7 3d 56 b2 9f bd
       0.0059749214 0.12222135 0.09721504 -0.07797687
000020 f8 8b 01 3e d5 e6 a7 3d ee 4d 28 3d 6c 86 31 3c
       0.1265105 0.081983246 0.041089945 0.010835271
000030 c9 f3 ad 3d dd d9 73 3d c6 95 74 3d a2 b9 17 3d
       0.08493764 0.059533942 0.059713148 0.037042268
000040 20 a1 11 ba 55 a2 02 3d 3e 18 c2 bd f4 f8 c3 bc
       -0.00055553205 0.031893093 -0.0947728 -0.023922421
000050 9d 9d 7f bd af 51 1d bd 69 92 fd bc fc 35 02 bc
       -0.06240617 -0.038407978 -0.030953603 -0.007947441
000060 56 c5 0c bd b1 3c ef 3b 3e 36 ec 3c cd e0 c0 3d
       -0.03436788 0.007300936 0.028834458 0.09417877
000070 06 5b 5e 3d e9 9c 99 bd aa 49 f8 bc 24 32 7f 3a
       0.054286025 -0.07500631 -0.030308563 0.00097349496
000080 f0 d0 cc bd c3 b6 8f bd 6a aa 57 3d 16 51 20 3d
       -0.10000789 -0.07017281 0.052652754 0.03913983
000090 44 09 be bc 5c cf 1d 3d 55 5d a4 bd b7 ad 62 3d
       -0.023197778 0.03852783 -0.08025614 0.05534145
0000a0 bf 52 e3 3a 1d 21 41 bd 3f 29 4f bc 97 d0 50 3d
       0.0017343386 -0.04715072 -0.012644111 0.050980177
0000b0 27 6f 7a bd 61 9e a3 bd f3 69 26 3d 97 48 1e 3d
       -0.06114116 -0.07989193 0.040628385 0.038643446
0000c0 df 5b b2 bd 08 30 67 bd c6 4c 24 3d 6e b6 79 3b
       -0.08708929 -0.05644229 0.04011228 0.0038103121
0000d0 6f bf d4 3c ec 1a f4 3c 85 42 85 3d ec 1e b4 bd
       0.025970189 0.029797994 0.06506828 -0.087949604
0000e0 51 e7 6c 3d 8d 4d 5b bd b3 bf 9a bd 8a 4a bc 3d
       0.057837788 -0.053540755 -0.07556095 0.09193905
0000f0 8a 91 74 bb 6a 06 07 3d d1 51 92 bd ec a4 8c 3d
       -0.0037318193 0.0329651 -0.071445115 0.06867394
000100 21 3d e7 3c a8 73 96 3d a5 01 8f bc e2 91 e5 3c
       0.02822739 0.073462784 -0.017456839 0.028023664
000110 29 b7 8b bd 4f f2 65 3c 71 ee 1c bd 25 8a c5 bc
       -0.068220444 0.014034822 -0.038313333 -0.024113724
000120 37 c1 ff bc 27 7a ac 3c a0 7d 67 bd 27 02 9e 3c
       -0.031220062 0.02105434 -0.05651629 0.019288136
000130 c3 e6 ec 3b 4e 69 20 bd a7 be 96 bd 3e 44 5e bd
       0.0072296574 -0.039162926 -0.07360583 -0.0542643
000140 da 74 01 3e d5 36 88 3d 97 2d d7 3b 36 38 34 bd
       0.12642232 0.066510834 0.006566714 -0.04399892

fc3.weight f4 [10, 84]
000000 ed 1b 84 3d c1 6f 72 bd 2c 42 15 3d 90 71 dc bd
       0.06450639 -0.059188608 0.03644006 -0.10763848
000010 00 74 a2 3d c7 33 13 be b1 6d 0f be e8 18 8b 3d
       0.079322815 -0.1437522 -0.14006688 0.0679186
000020 7f 1a a3 bd 53 11 5f bd fb 94 1b be 15 7c 99 3c
       -0.07964038 -0.05445988 -0.1519355 0.018735925
000030 3c 35 5e 3d 94 b5 11 3e 23 bb ab bd c9 2c cb bc
       0.054249987 0.14229423 -0.08385303 -0.024801629
000040 d7 a3 e7 3c 7a 34 0c 3e db 9d 91 3d 40 6f b1 bd
       0.028276367 0.13691893 0.07110187 -0.086637974
000050 c3 c0 25 bd 54 75 75 bd 8f b5 7d 3c ca 8d da bd
       -0.040467035 -0.059926346 0.0154851815 -0.10671575
000060 b2 b2 37 bd 89 e1 0c bd 9d 02 c7 bd c9 1e d1 3d
       -0.04484815 -0.034394775 -0.09717295 0.1021095
000070 8a 78 c4 3d 29 49 ae 3d 0e 02 1b be a0 5f c2 bd
       0.095933035 0.08510048 -0.15137503 -0.09490895
000080 77 b7 82 3d 9e e3 d5 bd ae 82 b7 3d e1 70 0b bc
       0.063826494 -0.10443805 0.08960472 -0.008510799
000090 00 20 f3 bd 27 24 8a bc bd 06 1c 3d 62 80 7c bd
       -0.11871338 -0.016862942 0.038092364 -0.061645873
0000a0 84 51 c6 3d d6 a4 08 be dc 28 c9 bd 80 dc 07 bd
       0.096835166 -0.1334413 -0.098222464 -0.03316927
0000b0 4e f3 0d bd 8f bf 8f bd 7d d0 24 be e4 d7 b9 3d
       -0.03465586 -0.07018959 -0.16095157 0.09074381
0000c0 89 9a 91 bc 15 93 bc 3d d4 ac 9d 3d d1 86 38 3d
       -0.017773883 0.09207741 0.0769898 0.045050446
0000d0 9e e4 50 3d cc dc d7 bd 96 2c 54 3d d0 c4 ba 3d
       0.050999276 -0.105401605 0.051800333 0.0911957
0000e0 ad ad ca bd 7b 4f 9d 3d 72 94 30 bd f6 ba a7 3b
       -0.09896407 0.07681175 -0.04311032 0.005118723
0000f0 20 60 8d 3c ae 99 24 be ca ef 42 3d 6a 0f ce 3b
       0.01725775 -0.16074249 0.047591962 0.0062884586
000100 6d 4e 92 3d d7 f9 4b bd 74 5f f7 3d 58 c3 03 be
       0.07143865 -0.049798813 0.12078753 -0.12867486
000110 9c a2 3e bd 1b 36 56 3d f7 2f 67 3d b8 2a a2 bc
       -0.046541795 0.052297693 0.056442227 -0.01979576
000120 ca fa 47 bd 97 c3 93 3c 7f 26 b5 bd 3f 06 25 3d
       -0.048823155 0.0180376 -0.08845233 0.04028916
000130 fa 37 83 bd a4 27 9d bd 9f b0 66 bd ab 68 db bd
       -0.06407161 -0.076735765 -0.056320783 -0.10713323
000140 6d b0 ea bd ed 20 a1 bd 8c af 75 3d aa 63 05 3e
       -0.11459432 -0.07867608 0.059981868 0.130263
000150 86 ec cb bd a2 39 05 3d ee 31 7b bd bc dc e0 3d
       -0.09957223 0.032525666 -0.061326914 0.10979602
000160 e1 fb 62 3d b3 60 d2 3d 5d 9b 51 bd 94 9d 46 bd
       0.05541599 0.1027235 -0.051173557 -0.048490122
000170 54 7b e1 3d 5c 7c d8 3d d3 fd ad bd 58 93 94 bd
       0.11009851 0.10570595 -0.08495679 -0.07254666
000180 06 bd b1 bc 2c 90 1d be 90 47 a4 3c 2f f2 e6 bd
       -0.021696579 -0.15387028 0.020053655 -0.112766616
000190 74 66 8c bc 04 dc 78 bd 70 00 f5 3c a5 39 ed 3d
       -0.017138697 -0.0607567 0.029907435 0.115832604
0001a0 cb e2 80 3d f6 58 09 bd 77 20 e0 3d b8 a4 e5 bd
       0.06293257 -0.033532105 0.10943692 -0.11213058
0001b0 1d e0 c6 3d be 51 c1 3d 9e bd 42 3c 34 96 d7 bc
       0.09710715 0.09439419 0.011886029 -0.02631674
0001c0 de 5c 50 bd 40 88 df bb f1 b3 f1 bd 12 60 d2 3d
       -0.050869815 -0.006821662 -0.11801899 0.1027223
0001d0 72 cd 96 3c 97 c5 03 3e 82 09 ef bd 52 fc 2b 3d
       0.01840851 0.12868343 -0.11671735 0.04198868
0001e0 c1 91 25 bd fe 20 05 3d aa 3e af bc b6 8a 4c bd
       -0.040422205 0.032502167 -0.021392185 -0.049936973
0001f0 84 8f aa bd 4d 1f ec 3b 58 e0 0f 3d f9 fd 03 3d
       -0.08328155 0.00720588 0.03512606 0.03222463
000200 1a d4 93 3b f2 6c f6 3c bb bb c1 bd 1f 6f c6 3d
       0.0045113685 0.030081246 -0.09459635 0.096891634
000210 50 d9 ac 3d 05 f6 48 3d 1c c7 fb 3d ca 5c 2f be
       0.084398866 0.049062748 0.122938365 -0.1712524
000220 2d ae 99 3d 83 b2 19 3e d1 fa e8 3d d7 28 df bd
       0.075039245 0.15009503 0.113759644 -0.108964615
000230 32 db ba 3d 61 ca 00 be 12 27 06 3b 12 9f 14 3e
       0.091238394 -0.12577201 0.0020470065 0.14513806
000240 bd 08 08 be 7c 45 8b 3d f0 65 c5 bd 90 c0 02 be
       -0.13284583 0.068003625 -0.09638584 -0.1276877
000250 bc 63 1c be 2a 90 56 3d e9 c2 a6 bc b7 cc 16 be
       -0.1527242 0.05238358 -0.020356612 -0.1472653
000260 41 ec b0 bd 6e 78 fd 3d a0 c3 2e be 09 fc e2 bd
       -0.08638812 0.12376486 -0.17066813 -0.11083228
000270 ef 11 c0 bd cc 16 15 3d 27 78 a8 3d eb 20 ed bd
       -0.093784206 0.036398694 0.08226042 -0.11578544
000280 84 98 66 bc 8a ff ea bc 90 23 39 bd 20 79 c6 bc
       -0.0140744485 -0.028686304 -0.04519993 -0.024227679
000290 08 bc dc 3d 5d ba e9 bd 4e cb d9 3d 1f b1 dc bd
       0.107780516 -0.11412499 0.106344804 -0.10775971
0002a0 d2 e3 d0 3c 1d 9b a2 bd 10 12 10 3d 9b a3 f3 3d
       0.025499258 -0.07939742 0.035173476 0.1189644
0002b0 5b f9 2c 3d 21 bb 63 bd 4c 28 9c bc 82 43 be bd
       0.04222999 -0.055598382 -0.019062184 -0.0929022
0002c0 61 2a 60 bd 51 69 a4 bc bc 6b d0 3d d1 94 91 3d
       -0.054727916 -0.02006975 0.10176799 0.071084626
0002d0 32 00 7f bd 05 89 30 3d fe ce 09 be ae 26 df 3c
       -0.062256046 0.043099422 -0.13457868 0.027240124
0002e0 6a bb 6c bb 0e 23 8d 3c e0 79 93 3c 26 ba 04 3e
       -0.003612245 0.01722863 0.01800245 0.12961635
0002f0 a8 ce b0 bd 2a eb 6a 3d 45 1d 13 3d 91 d6 02 be
       -0.086331666 0.057353176 0.035916585 -0.12777163
000300 c3 fa c9 3d 1a e1 71 bd 61 b2 de bd 5b 1d 8f 3d
       0.09862282 -0.059052564 -0.10873867 0.06988021
000310 72 e9 d0 bd a0 31 82 bc 8f d2 90 3d aa d1 fb bd
       -0.10200776 -0.015892804 0.07071411 -0.122958496
000320 38 95 56 bd 85 35 cb 3d 66 39 99 bd 20 e6 98 bd
       -0.0523884 0.099223174 -0.07481651 -0.07465768
000330 5d e5 a2 3d 27 3b a4 bd 5f 2b 0d 3d 29 66 9e 3c
       0.07953904 -0.08019095 0.03446519 0.019335823
000340 d5 27 76 bc 2c 32 ac 3d a2 c1 ec bd ea bc 12 3d
       -0.015024145 0.08408007 -0.1156037 0.035824694
000350 09 a4 ab 3d 2a 9c 81 3d a3 5d ae 3d e1 7d 1f bd
       0.083808966 0.06328614 0.085139535 -0.038938407
000360 77 a4 2f bc 95 fe 09 3c cb 2c b1 3d fe 83 e1 3d
       -0.010720364 0.0084225135 0.08651122 0.11011504
000370 9b eb 89 bd 1f 35 16 3e 9a f6 1b be 98 a3 92 3b
       -0.06734391 0.14668702 -0.1523079 0.0044750683
000380 b4 82 ec bd 48 ad 22 bd 0b 69 a5 3c dd a6 07 3e
       -0.11548367 -0.039716035 0.02019169 0.13247247
000390 a8 37 e5 3d d7 03 dd 3c 18 18 36 3d c6 5c dd bd
       0.11192256 0.02697937 0.04445657 -0.10808711
0003a0 d6 48 15 bd a7 d3 00 3e 64 4e d3 3d 2c c0 48 3d
       -0.036446415 0.12580739 0.10317686 0.049011394
0003b0 e2 59 c4 bd cf 49 4a bd d2 16 98 bd 81 ca 8d bd
       -0.09587456 -0.049386796 -0.07426228 -0.0692339
0003c0 cc 27 e7 bc b8 12 ea 3d 2f 4b 30 3d 52 94 1a 3d
       -0.028217219 0.114293516 0.04304045 0.037739106
0003d0 f2 32 00 3d af d6 3d 3d 93 d9 ef bc f4 9e db 3c
       0.031298585 0.046347316 -0.029278552 0.026809193
0003e0 14 56 d4 bd 52 36 0a bc f1 6b c1 3c b8 bf b7 3d
       -0.103679806 -0.0084358025 0.02361104 0.08972114
0003f0 98 a8 03 3e ea 9c 19 3d 9f 69 cd 3c 06 44 0f 3b
       0.12857282 0.03750316 0.025074778 0.0021860613

fc3.bias f4 [10]
000000 c4 20 8f 3d a2 9c 8e bd 6c 02 de bd 7f 08 88 3d
       0.069886714 -0.06963469 -0.10840306 0.066422455
000010 70 3a c6 3d f1 89 cf 3d 41 5d 5a 3d 9d f6 e1 3b
       0.09679115 0.10133732 0.05331159 0.0068958537
000020 ec 36 f0 bc 1c 1d 33 bc
       -0.029323064 -0.010932233
