models/client-3-4.pth (torch, 181282 bytes, 10 tensors)

conv1.weight f4 [6, 1, 5, 5]
0	0x3e689542	0.22713187
1	0xbccfbc40	-0.02535832
2	0x3ddd61ee	0.10809694
3	0xbd81419e	-0.063113436
4	0xbe5a4446	-0.21315107
5	0x3d2be632	0.04196758
6	0x3e9649a6	0.29353064
7	0xbd8faeb4	-0.07015744
8	0xbd75162c	-0.059835598
9	0xbceb8a3e	-0.028752442
10	0x3e73f668	0.23824465
11	0x3e9a3891	0.30121282
12	0xbde307eb	-0.110854946
13	0xbe95caec	-0.2925638
14	0xbc49d249	-0.012318202
15	0x3e77c5e0	0.24196577
16	0x3cdb1e0e	0.02674773
17	0xbe2009e7	-0.15628777
18	0xbe127e69	-0.14306034
19	0xbdd290b4	-0.10281506
20	0x3e7735ae	0.24141571
21	0x3e81ce90	0.25352907
22	0xbb1c8368	-0.0023882035
23	0x3e46fb4b	0.19431798
24	0xbe1db70d	-0.1540186
25	0xbd88d273	-0.06680765
26	0xbe00eb81	-0.12589838
27	0xbd6f1e42	-0.058378465
28	0xbdaa1c64	-0.08306196
29	0x3dcbf884	0.0995951
30	0xbe5d3a12	-0.21604183
31	0xbe3f9d42	-0.18712333
32	0xbe2e867b	-0.17043488
33	0x3ea3b806	0.31976336
34	0x3c588760	0.01321587
35	0xbe616db0	-0.22014499
36	0xbe152e6d	-0.14568491
37	0x3dedfdb8	0.11620659
38	0x3eb3ee07	0.35142538
39	0x3e925bb7	0.28585598
40	0xbdb47171	-0.088107
41	0x3e72594b	0.23666875
42	0x3ee78336	0.45217294
43	0x3e76323c	0.240426
44	0x3e7d05cf	0.24709247
45	0x3ebcc837	0.36871502
46	0x3e9172f0	0.28408003
47	0x3e8eb8d2	0.27875382
48	0x3d7e7351	0.062121693
49	0x3e19990c	0.14999789
50	0x3e691b8c	0.22764415
51	0xbdafc30d	-0.08582125
52	0xbe4d21ac	-0.20032376
53	0xbdd24037	-0.10266154
54	0xbeb779ed	-0.3583521
55	0xba899e68	-0.0010499479
56	0x3ea264d7	0.3171756
57	0xbdfbd8b9	-0.12297196
58	0xbd91456f	-0.070933215
59	0xbc9ddb92	-0.019269738
60	0x3e895910	0.26825762
61	0x3e9531f9	0.2913969
62	0x3ea1baea	0.31587917
63	0x3dfb8443	0.12281086
64	0xbcbb8475	-0.022890309
65	0xbdc7a6dd	-0.097486235
66	0x3e9b7ff3	0.30371055
67	0x3debd8f9	0.115159936
68	0x3eb9b284	0.3626901
69	0x3d41f1bd	0.04734968
70	0xbe9e7b50	-0.30953455
71	0xbe652ec4	-0.22381121
72	0xbdd5a172	-0.10431184
73	0x3e5161dc	0.20447487
74	0x3e06dde9	0.1317059
75	0xbcc171ae	-0.023613777
76	0x3ea80516	0.3281638
77	0x3eae703b	0.3407
78	0x3dd21b56	0.1025912
79	0x3d79b396	0.060962282
80	0xbd52456b	-0.051335733
81	0xbdcaf286	-0.09909539
82	0x3df13766	0.117781445
83	0x3eae1e6a	0.3400758
84	0x3e8d2bd4	0.275725
85	0x3b74055d	0.0037234642
86	0x3d965d35	0.073419966
87	0x3d54e34b	0.051974576
88	0x3e9a204e	0.30102772
89	0x3e2b3cb3	0.16722374
90	0xbe406cd0	-0.18791509
91	0xbe05bb2f	-0.13059686
92	0xbdd5bd88	-0.10436541
93	0xbda02d5c	-0.078211516
94	0x3e75e284	0.2401219
95	0xbe0b10b0	-0.13580585
96	0xbead62a5	-0.33864322
97	0xbd8db80a	-0.06919868
98	0xbcaca10a	-0.021072883
99	0x3e8e7798	0.27825618
100	0xbda2c076	-0.07946865
101	0x3cf4d2a6	0.029885601
102	0x3e274522	0.16334966
103	0xbe2ec422	-0.17067006
104	0xbeb5f1f0	-0.35536146
105	0x3e166548	0.14687073
106	0x3daf7fdb	0.08569308
107	0x3d22608e	0.039642863
108	0xbe970c0b	-0.29501376
109	0xbe8ac8fb	-0.2710646
110	0xbdc1c253	-0.094608925
111	0x3db15f79	0.08660788
112	0x3d8497e1	0.06474281
113	0x3e36cf5a	0.17852536
114	0xbe83eebf	-0.25768086
115	0x3e4bb007	0.19891368
116	0x3dc3d86a	0.09562762
117	0x3e881809	0.26580837
118	0x3e12b7e7	0.14327966
119	0x3e7b60ae	0.24548599
120	0x3e1361af	0.14392732
121	0xbd9e45d8	-0.077281654
122	0x3e2f4a9b	0.17118303
123	0xba196fad	-0.0005853128
124	0x3e768f66	0.2407814
125	0xbe3f7ef6	-0.18700776
126	0xbe6a315b	-0.2287039
127	0xbdd319ff	-0.10307693
128	0x3de85552	0.113443986
129	0x3c425646	0.0118613895
130	0xbea0972a	-0.3136533
131	0xbea0bd56	-0.31394452
132	0xbdf5cc7b	-0.12001892
133	0x3e1e8fe2	0.15484574
134	0x3e86e55b	0.2634686
135	0xbe94c480	-0.29056168
136	0xbea7eea1	-0.32799247
137	0xbd97af58	-0.07406491
138	0x3c978952	0.018498097
139	0x3e88d5d3	0.26725635
140	0xbd438323	-0.047732484
141	0xbe697419	-0.22798194
142	0x3e09d7da	0.13461247
143	0x3bb350d0	0.00547228
144	0x3eab37bb	0.33440956
145	0xbe1b345e	-0.15156695
146	0xbda9880f	-0.08277904
147	0x3dace644	0.08442357
148	0x3e7d4599	0.2473358
149	0x3ead8078	0.33887076

conv1.bias f4 [6]
0	0xbe13f03c	-0.14447111
1	0xb950d9c7	-0.00019917554
2	0x3a4d4395	0.00078302
3	0x3d09b241	0.03361726
4	0x3d92fd4a	0.07177217
5	0x3dc42501	0.095773704

conv2.weight f4 [16, 6, 5, 5]
0	0x3d9cbe66	0.07653503
1	0x3cc9253c	0.024553888
2	0x3d83ed9d	0.064418055
3	0x3d62612d	0.055268455
4	0x3c155128	0.009113587
5	0x3d791185	0.060807724
6	0x3d1092a3	0.035296094
7	0x3de54d18	0.11196345
8	0xbd3df696	-0.04637774
9	0xbdbe33a8	-0.092871964
10	0xbdf001f4	-0.117191225
11	0x3e041248	0.12897599
12	0x3d113989	0.03545526
13	0xbce41c3d	-0.027845496
14	0xbd351de3	-0.044217955
15	0xbe332e76	-0.17498192
16	0x395a1fb1	0.00020801906
17	0x3e0d1160	0.1377616
18	0xbda3e6a9	-0.08002979
19	0xbdf97d92	-0.12182154
20	0xbe347613	-0.17623167
21	0x3d409780	0.04701948
22	0x3de261cc	0.110538095
23	0xbde98239	-0.11401791
24	0xbddaf7c8	-0.10691792
25	0x3d0da57f	0.034581657
26	0x3db969f3	0.09053411
27	0xbd4eb074	-0.050461248
28	0xbe1053c6	-0.14094457
29	0xbd397a4e	-0.045282654
30	0x3d301872	0.042992063
31	0xbd68cf03	-0.056838047
32	0xbda8a704	-0.08234981
33	0xbdb1bcca	-0.08678587
34	0x3dbcc67b	0.09217545
35	0xbd8a9938	-0.067675054
36	0x3cb1f796	0.021724503
37	0xbd021803	-0.03176118
38	0x3d1abfd7	0.03778061
39	0x3dc8e1d6	0.098087
40	0x3b9b3301	0.0047363047
41	0x3c0a2919	0.00843265
42	0xbd690452	-0.056888886
43	0xbd535695	-0.051596243
44	0x3d2093f5	0.039203603
45	0x3d77474d	0.060370732
46	0xbdd8e9a0	-0.105914354
47	0xbe258593	-0.16164236
48	0xbbd3649c	-0.0064512026
49	0xbcd26eb8	-0.02568756
50	0xbd0b05a0	-0.03394091
51	0xbdf3af39	-0.118986554
52	0xbe361531	-0.17781521
53	0xbcc93ac1	-0.024564149
54	0xbda0eb00	-0.07857323
55	0x3dc3103f	0.09524583
56	0x3d35746d	0.044300485
57	0xbdaf5355	-0.08560816
58	0xbd91c1b5	-0.07117025
59	0xbcea94c1	-0.028635385
60	0x3dc0183f	0.093796246
61	0x3d99be97	0.07507055
62	0x3d418653	0.047247242
63	0xbdad7a54	-0.08470598
64	0xbbabde14	-0.0052449796
65	0xbe207115	-0.15668137
66	0x3d998d1a	0.07497616
67	0x3dbe5303	0.09293177
68	0x3d0c6077	0.034271684
69	0xbd9fd4ff	-0.07804298
70	0xbe31af88	-0.17352116
71	0x3d308883	0.043098938
72	0x3d84d8cd	0.06486664
73	0x3caf6b76	0.021413546
74	0xbd8cd3f8	-0.06876367
75	0xbd363770	-0.044486463
76	0x3c7b0edd	0.015323368
77	0xbda7ce16	-0.08193605
78	0x3cded35a	0.02720039
79	0xbd63c5da	-0.055608608
80	0xbc982f45	-0.018577227
81	0xbd80ea09	-0.06294639
82	0xbe20c525	-0.15700205
83	0xbd434dcb	-0.04768161
84	0xbd084f87	-0.03327897
85	0x3e23d538	0.15999305
86	0x3d6ed452	0.058307953
87	0xbd18c33a	-0.037295558
88	0xbc7702b6	-0.01507633
89	0x3cf28189	0.029602783
90	0x3d9c29d0	0.076251626
91	0xbc4682cc	-0.012116145
92	0xbd06282d	-0.03275316
93	0xbca0cd80	-0.01962924
94	0x3d9c1109	0.07620437
95	0x3bab3e3b	0.0052259243
96	0x3c6d5511	0.014485613
97	0x3aee0494	0.0018159323
98	0xbda73dc3	-0.08166077
99	0x3d316b21	0.043315057
100	0x3c990557	0.018679304
101	0xbd1187a4	-0.035529748
102	0x3b8ee137	0.004360344
103	0xbdc11859	-0.09428472
104	0x3d5eb071	0.054367486
105	0x3dc5b711	0.09654058
106	0x3da1206f	0.07867514
107	0xbc1bd63e	-0.009511529
108	0x3c9991a4	0.018746205
109	0x3d43a4a3	0.04776443
110	0x3d822ef2	0.0635661
111	0x3de4ba8a	0.11168392
112	0x3b0d78ea	0.0021586963
113	0x3cc7d878	0.024395213
114	0xbc8657b9	-0.016399251
115	0xbdbf0e42	-0.09328891
116	0x3db7b15c	0.089693755
117	0x3dc0f1b7	0.094211034
118	0x3d831c60	0.064018965
119	0xbd4cdf2b	-0.050017517
120	0xbdfd148a	-0.12357433
121	0xbd59dc0b	-0.053188365
122	0xbc98e218	-0.018662497
123	0xbcdfbbc6	-0.027311217
124	0xbd1af8a1	-0.037834767
125	0xbbb4e28c	-0.0055201706
126	0x3d154e1a	0.036451437
127	0xbdcfaa02	-0.10139848
128	0x3caf5b09	0.021405714
129	0x3debb499	0.11509056
130	0x3d3867ef	0.045020994
131	0xbd01097f	-0.031503197
132	0xbd573ceb	-0.05254833
133	0x3dc53a1f	0.09630226
134	0x3e178e67	0.14800416
135	0x3d2bc17d	0.04193257
136	0xbd668cfc	-0.056286797
137	0xbe4d18ba	-0.20028964
138	0x3de0848a	0.1096278
139	0x3d343897	0.04399928
140	0x3dd1c54a	0.10242708
141	0x3d270d9d	0.040784467
142	0xbe5b5377	-0.21418558
143	0x3da8d7f6	0.08244316
144	0x3d116e75	0.03550573
145	0x3e11deff	0.14245223
146	0x3df76822	0.12080409
147	0xbdae2275	-0.08502666
148	0x3cee419d	0.029084021
149	0x3bf71732	0.007540607
150	0x3d72cb75	0.059276063
151	0x3bcc9232	0.006243014
152	0xbd5230ad	-0.051315952
153	0x3dc37064	0.09542921
154	0x3c6997cf	0.014257385
155	0xbcb09eff	-0.02156019
156	0xbda737c1	-0.08164931
157	0xbe19ebd9	-0.15031375
158	0xbd3f8350	-0.04675609
159	0xbbdc4baa	-0.006722887
160	0x3e00e04d	0.12585564
161	0x3c263ac1	0.010145844
162	0xbe2aac12	-0.16667202
163	0xbdab1c29	-0.083549805
164	0xbe0019d4	-0.12509853
165	0x3d874ab6	0.06606047
166	0x3d648d43	0.05579878
167	0xbd408897	-0.047005262
168	0xbd35d2a6	-0.044390343
169	0xbd588068	-0.052856833
170	0x3e0d957d	0.13826557
171	0x3e03b87d	0.12863345
172	0x3d913da8	0.07091838
173	0x3c9bbcde	0.019010957
174	0xbd4581ff	-0.048219677
175	0xbe5cf1c9	-0.21576609
176	0xbdae1ea9	-0.08501942
177	0x3e08dc9c	0.13365406
178	0x3e1bee1c	0.1522755
179	0xbd767ff3	-0.060180616
180	0xbe5c9896	-0.21542582
181	0xbd8bf2d1	-0.06833423
182	0xbdb27631	-0.087139495
183	0xbdeb10a6	-0.11477785
184	0xbdae5767	-0.085127644
185	0xbde26110	-0.110536695
186	0xbcf322cc	-0.029679678
187	0xbd993a37	-0.07481807
188	0xbe207659	-0.15670146
189	0xbe38f055	-0.1806043
190	0x3db6ae9b	0.08920022
191	0xbc373b8a	-0.011183629
192	0xbd3868b9	-0.045021746
193	0x3de4bfc5	0.1116939
194	0xbc2bfa45	-0.010496681
195	0x3df0af77	0.11752217
196	0x3dc6f100	0.09713936
197	0x3de9b254	0.114109665
198	0x3e2a6e33	0.166436
199	0x3d86f089	0.06588847
200	0xbe0dcdae	-0.13847992
201	0xbd9aad61	-0.07552601
202	0xbdaa268d	-0.08308134
203	0x3c6ef49a	0.014584685
204	0xbbb71024	-0.005586641
205	0xbd40d8d1	-0.047081772
206	0xbe771252	-0.24128082
207	0x3be41b09	0.0069612307
208	0x3d1feba7	0.039043095
209	0x3c39f560	0.011350006
210	0xbdc47926	-0.0959342
211	0xbe18b8e3	-0.14914279
212	0xbdd10b2c	-0.10207209
213	0xbdc31941	-0.09526301
214	0xbdd3d64e	-0.1034361
215	0x3d207626	0.039175175
216	0x3d0dbb9b	0.034602743
217	0xbd6f0fa9	-0.058364544
218	0xbd836914	-0.064165264
219	0xbc470eb5	-0.0121495025
220	0x3e32f486	0.17476091
221	0x3d961523	0.0732825
222	0x3dacc76c	0.08436474
223	0x3dc1a098	0.09454459
224	0x3cc8d7b4	0.024516918
225	0xbe2ea484	-0.17054945
226	0xbd9d2c69	-0.07674486
227	0x3da30791	0.079604276
228	0x3dc6a3bd	0.09699199
229	0x3d4eaa3a	0.05045531
230	0xbe62501a	-0.22100869
231	0xbddebb07	-0.108755164
232	0x3d3a7527	0.04552188
233	0x3d01565a	0.031576492
234	0x3be81d78	0.007083591
235	0xbe3c2706	-0.18374261
236	0xbe06ba6b	-0.1315705
237	0x3d132708	0.035925895
238	0xbd9f20fc	-0.07769963
239	0xbcfa6e5f	-0.030570207
240	0xbd976471	-0.073922046
241	0xbe2b2b4c	-0.16715735
242	0xbe179255	-0.14801915
243	0xbdd3249f	-0.10309719
244	0xbdeb2078	-0.11480802
245	0x3dfddb81	0.12395383
246	0x3d230b79	0.039805863
247	0xbcbbdfae	-0.022933807
248	0xbc568752	-0.013093786
249	0xbd816a82	-0.06319143
250	0x3cfb95e3	0.03071112
251	0xbdf7fde5	-0.121089734
252	0x3cd81a60	0.026379764
253	0xbd159e56	-0.036527954
254	0xbd175edb	-0.036955696
255	0xbb86697e	-0.004101931

conv2.bias f4 [16]
0	0x3d6339c3	0.055475008
1	0x3d940579	0.07227606
2	0xbb0c2fa9	-0.0021390712
3	0x3d2f230d	0.042758036
4	0xbdbca46b	-0.09211048
5	0xbd9e68a1	-0.077348
6	0xbe07e05c	-0.1326918
7	0xbc9d5402	-0.019205097
8	0xbdc437db	-0.09580966
9	0xbd52f79f	-0.05150568
10	0xbcd3b12d	-0.02584132
11	0xbdc296a5	-0.095013894
12	0xbd9f11a0	-0.077670336
13	0x3d1d2bb8	0.03837177
14	0xbd717de5	-0.058957953
15	0xbc99d417	-0.01877789

fc1.weight f4 [120, 256]
0	0x3d105385	0.0352359
1	0x3db6e7c4	0.089309245
2	0xbda1910b	-0.07888993
3	0xbd5d3c8a	-0.054012813
4	0x3d2c2f7a	0.042037465
5	0x3d44a5f9	0.048009846
6	0x3cecea7d	0.028920406
7	0xbd56372a	-0.052298702
8	0x3c4e0475	0.012574305
9	0x3c8faad7	0.017537517
10	0x3bda40a5	0.0066605383
11	0x3db6f46a	0.08933337
12	0x3db31cff	0.08745765
13	0xbd07ccb4	-0.033154204
14	0x3cf3ec8b	0.029775878
15	0x3d6d33a8	0.05791059
16	0x3b7b3a18	0.0038334187
17	0x3d3e4c0e	0.04645925
18	0x3d5a9006	0.053360008
19	0xbd252924	-0.040322438
20	0x3d54ebbe	0.051982634
21	0x3df46530	0.119333625
22	0x3c6a7b8b	0.0143116815
23	0xbd323450	-0.04350692
24	0xbdc6f9e7	-0.09715634
25	0x3c0652c7	0.008198447
26	0x3cc5b10e	0.024132278
27	0x3cc98dd3	0.02460376
28	0xbe6d2f0f	-0.23162483
29	0xbdcfe51d	-0.10151122
30	0x3d04d818	0.032432646
31	0x3d1789da	0.0369967
32	0x3d4a4dd0	0.049390614
33	0x3d03ed7e	0.032208912
34	0x3c2f652a	0.010705272
35	0x3d38b90c	0.04509835
36	0xbd2d2687	-0.04227307
37	0xba8ba036	-0.0010652605
38	0xbcdf5ca2	-0.02726585
39	0xbcb37f11	-0.021911176
40	0x3dfbfad8	0.12303704
41	0x3d432fa2	0.047652848
42	0x3c6c2f60	0.014415592
43	0x3d20502b	0.039138954
44	0xbd5747b4	-0.052558616
45	0xbb3630ca	-0.0027800077
46	0xbd3bdc0d	-0.045864154
47	0x3c555053	0.013019639
48	0xbaf1c8d9	-0.0018446698
49	0x3d0d70bf	0.03453135
50	0x3daf255c	0.085520476
51	0x3d54bb4f	0.051936444
52	0xbb93f2b0	-0.0045150146
53	0x3d994122	0.07483126
54	0x3d4ed96b	0.050500315
55	0xbd059b23	-0.032618653
56	0x3d120d50	0.035657227
57	0x3d9c1a8e	0.076222524
58	0x3d68af98	0.056808084
59	0x3cbd09d2	0.023075972
60	0x3df2f604	0.1186333
61	0x3caf99d8	0.021435663
62	0x3dc5534c	0.09635028
63	0x3c9a6b5f	0.018850027
64	0xbd8c7020	-0.06857324
65	0x3d6ec0db	0.05828939
66	0xbd36d3f2	-0.04463572
67	0x3c68a17e	0.014198659
68	0x3ccf3412	0.025293384
69	0x3d67fd66	0.056638144
70	0x3c942b8f	0.018087177
71	0xbd2ede5d	-0.04269253
72	0x3dcff795	0.101546444
73	0x3d1dd57d	0.038533676
74	0x3da3aba1	0.0799172
75	0x3cf32a15	0.029683152
76	0x3d23a533	0.039952468
77	0xbca3f778	-0.020015463
78	0x3c3d71ea	0.011562804
79	0x3b8a16db	0.0042141504
80	0xbd172510	-0.03690058
81	0xbd52fbc4	-0.051509634
82	0xbcd182b8	-0.025575027
83	0x3d0d7c54	0.034542397
84	0x3c1b3f94	0.009475607
85	0x3ca73ed0	0.020415694
86	0x3cda4d7c	0.026648276
87	0xbcf9277b	-0.030414334
88	0xbd9c5936	-0.07634203
89	0x3d6bc5cb	0.057561677
90	0x3d817203	0.06320574
91	0x3c9b99fe	0.018994328
92	0xbd489f3f	-0.048979994
93	0xbd020f9e	-0.031753175
94	0x3d9bbbd2	0.07604183
95	0x3d5417eb	0.051780622
96	0x3c537514	0.012906332
97	0x3e013453	0.12617616
98	0x3ca3d02b	0.019996723
99	0xbd3088d7	-0.04309925
100	0xbd104b64	-0.035228148
101	0x3d866d7c	0.06563851
102	0x3d21bc97	0.039486494
103	0xbc15ec47	-0.009150571
104	0x3d46619c	0.04843293
105	0x3da80220	0.0820353
106	0x3d229b59	0.039698932
107	0xbb37b57d	-0.002803176
108	0x3e1f400b	0.15551774
109	0x3dd3db75	0.103445925
110	0xbc4c148f	-0.012456073
111	0xbd84e1fb	-0.06488415
112	0x3d8882dc	0.066655844
113	0xbc030ad9	-0.007998192
114	0xbdbe45b1	-0.09290636
115	0xbd19e1d0	-0.037568867
116	0x3c00490b	0.007829915
117	0x3d8afccb	0.06786498
118	0x3d89500c	0.06704721
119	0x3d873ff8	0.06603998
120	0xbcf82548	-0.030291215
121	0xbc7056a3	-0.014669093
122	0x3d39077d	0.045173157
123	0x3c103193	0.008800882
124	0xbdead759	-0.114668556
125	0xbd8f2136	-0.06988756
126	0x3c3a3e5d	0.011367408
127	0x3d1899d4	0.037256077
128	0x3d854787	0.065077834
129	0x3d817c99	0.06322593
130	0x3c4932bf	0.012280165
131	0xbd9b109c	-0.07571527
132	0x3cb84113	0.022491967
133	0xbc544119	-0.012954974
134	0xbc082f1c	-0.008312013
135	0x3d4fa426	0.050693654
136	0x3c8d8645	0.017275939
137	0x3d1b3d5e	0.03790032
138	0x3da6efa9	0.0815118
139	0x3d909c59	0.07061071
140	0xbd3ae30b	-0.04562668
141	0x3cee5cdd	0.029097015
142	0xbcb3cfce	-0.021949675
143	0x3c6cd59f	0.014455228
144	0xbd5402a1	-0.05176032
145	0x3c049b71	0.008093701
146	0x3d93da6a	0.072193936
147	0xbd904721	-0.07044817
148	0x3d24b083	0.040207397
149	0xb7946b31	-1.769289e-05
150	0x3d325fcd	0.043548394
151	0xbd71ce9c	-0.05903493
152	0x3d97cb0e	0.074117765
153	0x3da59d58	0.080866516
154	0x3dcbec6f	0.099572055
155	0x3c808c2a	0.015691835
156	0xbdc6c81c	-0.097061366
157	0x3d64e7bf	0.055885073
158	0x3d70d6be	0.058798544
159	0xbd35d7ba	-0.044395186
160	0x3e336add	0.17521234
161	0x3d710a34	0.05884762
162	0xbdd66747	-0.10468917
163	0xbdfa3a99	-0.12218208
164	0x3d85b157	0.065279655
165	0xbd1b3ac7	-0.03789785
166	0xbdc18407	-0.0944901
167	0xbde71efb	-0.11285206
168	0x3d9ab6fd	0.075544335
169	0x3d392253	0.04519875
170	0xbdbbd507	-0.09171491
171	0xbd761ee6	-0.06008806
172	0x3dc6c45a	0.0970542
173	0xbd78bcb0	-0.06072682
174	0xbe0dc8fe	-0.13846204
175	0xba68f43f	-0.0008886493
176	0x3e1a384e	0.15060541
177	0xbc13ccc5	-0.009020989
178	0x3d1a46b2	0.037665077
179	0xbd5ca152	-0.053864785
180	0x3d2db0e7	0.042405035
181	0x3b9d47d1	0.004799821
182	0xbde3b050	-0.11117613
183	0xbd27c72e	-0.040961437
184	0x3d0c6aec	0.034281656
185	0x3c799220	0.015232593
186	0xbd10ecb0	-0.035381973
187	0xbc2a6594	-0.010400195
188	0x3dd615b6	0.1045336
189	0x3b2fae18	0.0026806649
190	0xbd383350	-0.04497081
191	0xbd0e1beb	-0.034694593
192	0xbbc73549	-0.00607935
193	0x3be48ce9	0.0069748056
194	0xbd27ce7f	-0.040968414
195	0x3ddbb0d1	0.107270844
196	0x3ce8cbc3	0.028417474
197	0xbd025f7a	-0.031829335
198	0xbd84200c	-0.06451425
199	0x3bf046ab	0.007332643
200	0xbc6d6e43	-0.0144916205
201	0xbcad5cdd	-0.021162445
202	0xbd40ba74	-0.047052816
203	0x3db9989b	0.0906231
204	0x3d12ff11	0.03588778
205	0x3db7a200	0.08966446
206	0x3d100fda	0.035171367
207	0xbc1b53cd	-0.009480429
208	0xbde1f29c	-0.11032602
209	0xbd010e06	-0.031507514
210	0x3d319b67	0.043361094
211	0x3d82fff7	0.06396478
212	0x3da4fc7f	0.08055972
213	0xbdb94a8a	-0.0904742
214	0x3c2fec25	0.010737454
215	0x3da5b268	0.08090669
216	0xbd1ca5e4	-0.038244143
217	0xbd38db70	-0.045131147
218	0x3d678ea5	0.05653252
219	0x3d58e400	0.052951813
220	0xbd4e69b1	-0.050393764
221	0xbc821168	-0.01587744
222	0x3ce7a47c	0.028276674
223	0xbcf9ba6c	-0.0304844
224	0x3c87268c	0.016497873
225	0xbc9936df	-0.018702922
226	0xbd18bc58	-0.037288994
227	0xbcd0d191	-0.025490554
228	0x3d479b10	0.048731863
229	0x3d8bc008	0.068237364
230	0xbca9de73	-0.020735955
231	0xbd71a192	-0.058991976
232	0x3df3f1a8	0.11911327
233	0x3c956465	0.018236348
234	0xbd4336fb	-0.047659855
235	0xbd12fde9	-0.03588668
236	0xbd0e9417	-0.0348092
237	0xbd08bc13	-0.033382487
238	0x3d7c37dd	0.061576713
239	0xbc4b9a7b	-0.012426968
240	0xbc3a9242	-0.01138741
241	0x3dc89a0c	0.09795007
242	0x3da903c2	0.0825267
243	0xbd2affab	-0.04174773
244	0x3ce65737	0.02811776
245	0xbc335b2c	-0.01094703
246	0xbd1513a2	-0.036395676
247	0x3bd28ebf	0.006425708
248	0x3c35fbff	0.011107444
249	0xbd85dcc7	-0.065362506
250	0xbd104ff6	-0.035232507
251	0xbd21859c	-0.03943406
252	0xbe0dc305	-0.13843925
253	0xbb7700f8	-0.0037689786
254	0xbbec3a8d	-0.0072091282
255	0xbd7becc7	-0.061505105

fc1.bias f4 [120]
0	0x3c141641	0.009038509
1	0xbd1ee3fa	-0.038791634
2	0x3c8a7def	0.016905753
3	0xbd166a10	-0.036722243
4	0x3bc82ec1	0.006109089
5	0xbd29f59a	-0.04149399
6	0x3da9f2d4	0.08298269
7	0x3d49325d	0.049120296
8	0xbc270646	-0.010194367
9	0x3c10add7	0.008830509
10	0xbd516e81	-0.051130775
11	0xbd045057	-0.03230318
12	0x3b63a382	0.003473491
13	0x3d3c4e22	0.04597295
14	0x3caa6840	0.020801663
15	0x3bec8466	0.0072179316
16	0x3d439c99	0.047756765
17	0x3d51b31e	0.05119621
18	0x3d8b9a32	0.0681652
19	0x3cbdb1bf	0.023156045
20	0x3d4ec723	0.05048288
21	0x3d3f4861	0.046699885
22	0xbb96beb4	-0.0046003703
23	0xbbc32535	-0.005955363
24	0x3d6a613f	0.057221647
25	0xbcd87270	-0.026421756
26	0x3d8be9a1	0.068316706
27	0xbd93f9d0	-0.07225382
28	0xbc24fa32	-0.010069417
29	0xbce224bd	-0.027605409
30	0x3d16af75	0.036788423
31	0xbd09bfff	-0.033630367
32	0x3cf204b7	0.029543264
33	0xbd394744	-0.04523398
34	0x3d4a0486	0.04932072
35	0xbccfc68e	-0.025363233
36	0x3ce5b0fb	0.028038492
37	0x3cc9555e	0.024576839
38	0x3d753f98	0.0598751
39	0x3c4dc989	0.012560257
40	0x3d82989a	0.06376763
41	0xbb1408e4	-0.0022588307
42	0xbd36434e	-0.04449778
43	0xbc36b624	-0.011151824
44	0xbc609db9	-0.013709479
45	0xbcda822a	-0.026673395
46	0x3d2b014b	0.04174928
47	0xba1b19d9	-0.00059166324
48	0x3d807857	0.06272953
49	0x3cb8b15e	0.022545513
50	0xbc0a89e4	-0.008455727
51	0x3cbe1cb5	0.023207048
52	0x3c9ddabd	0.019269342
53	0x3d7a775f	0.061148997
54	0xbc83c832	-0.016086672
55	0x3d02531c	0.03181754
56	0x3c9114b3	0.017710065
57	0xbd4a5be6	-0.049404047
58	0x3dac5d25	0.084162034
59	0xbc0fb600	-0.0087714195
60	0xbd258fdd	-0.0404204
61	0x3d1855f1	0.037191335
62	0xbc926301	-0.017869474
63	0xbd2e3876	-0.042534314
64	0x3d96d367	0.073645405
65	0xbd30876b	-0.043097895
66	0x3d602b6e	0.054728918
67	0x3d9ab6dc	0.07554409
68	0xbc30a0be	-0.010780511
69	0xbd64d3b8	-0.055865973
70	0xbd78d7bd	-0.06075262
71	0x3d928e21	0.07156015
72	0x3d8fafe1	0.07015968
73	0x3cf03722	0.029323164
74	0x3c875899	0.016521739
75	0x3d1f8e42	0.038954027
76	0xbbe2e5b4	-0.0069243554
77	0x3d51654b	0.05112199
78	0x3d098b3e	0.033580057
79	0xbc596e53	-0.013270932
80	0xbc932244	-0.017960675
81	0x3d1e540c	0.038654372
82	0x3cb72035	0.022354225
83	0xbc485f65	-0.012229775
84	0xbd055e6f	-0.032560762
85	0x3c524c1c	0.012835529
86	0x3d65c433	0.056095313
87	0xbcbf55a3	-0.023356264
88	0x3d36e933	0.04465599
89	0x3d7b3b50	0.06133586
90	0x3d5998ef	0.053124364
91	0xbd15fdad	-0.036618877
92	0x3d99b68f	0.075055234
93	0x3cffeca9	0.031240778
94	0x3d7961ac	0.060884163
95	0x3d37e93c	0.044900164
96	0xbb399fee	-0.0028324085
97	0xbb3e4d53	-0.0029037788
98	0xbd5beb34	-0.053691104
99	0x3bb17a01	0.0054161553
100	0x3c9daf67	0.019248677
101	0xbb929e45	-0.0044744336
102	0x3d619bb3	0.055080127
103	0xbb815aa3	-0.0039475723
104	0x3c958664	0.018252559
105	0xb90b2e76	-0.00013273381
106	0x3d31b966	0.0433897
107	0xbd2677b4	-0.0406415
108	0xbc9433e5	-0.018091151
109	0x3d7cb2e3	0.061694037
110	0xbd4540a6	-0.048157357
111	0x3db7272c	0.08943018
112	0x3d185b68	0.037196547
113	0xbc703355	-0.014660676
114	0x38f27b3a	0.00011562412
115	0x3cc20282	0.023682836
116	0x3d0a75de	0.033803813
117	0xbb8a445a	-0.004219574
118	0xbc82bdc5	-0.01595963
119	0x3cf5590c	0.029949687

fc2.weight f4 [84, 120]
0	0xbdfdf433	-0.12400093
1	0x3d89b061	0.06723095
2	0x38b5ab0d	8.662613e-05
3	0x3e2c04a6	0.16798648
4	0xbdbeabed	-0.09310136
5	0x3c740618	0.014894031
6	0x3c3ebf45	0.011642282
7	0x3e0baa9b	0.136393
8	0xbc6b8b97	-0.0143765425
9	0xbddb9cb1	-0.10723246
10	0xbdc15b14	-0.094412
11	0x3df74c6d	0.12075124
12	0xbd5cfdc5	-0.05395295
13	0x3dbf788f	0.093491666
14	0xbd1cf001	-0.038314823
15	0xbdf05e57	-0.11736744
16	0x3da5c3b1	0.08093966
17	0xbd0b81c6	-0.03405931
18	0x3c0b6dd3	0.008510071
19	0x3daf4597	0.08558195
20	0xbd15a0a0	-0.036530137
21	0x3d3de709	0.04636291
22	0x3d12973f	0.03578877
23	0xbd749812	-0.059715338
24	0xbdf72386	-0.120673224
25	0xbd77524b	-0.060381215
26	0x3dc16f27	0.09445029
27	0x3d73d8e8	0.05953303
28	0x3da883ff	0.08228301
29	0x3d1f72a1	0.038927678
30	0x3d9789cc	0.073993295
31	0x3d8ef237	0.069797926
32	0x3daa87ee	0.08326708
33	0xbd81ac84	-0.06331733
34	0xbd95c5ad	-0.07313094
35	0x3d2d0541	0.04224134
36	0xbd8c7729	-0.068586655
37	0xbdfc0e3b	-0.12307402
38	0x3d1b65dc	0.037938938
39	0x3d345506	0.044026397
40	0xbc125d29	-0.008933344
41	0x3de265b6	0.11054556
42	0xbbdcbb3f	-0.0067361887
43	0xbd6f791a	-0.0584651
44	0xbd065f94	-0.032805994
45	0xbcd1f91b	-0.025631478
46	0x3e0a22ca	0.13489833
47	0x3da33d7d	0.07970712
48	0x3d23c128	0.03997913
49	0xbd81d87a	-0.06340118
50	0x3d36e72c	0.044654056
51	0xbd7b01c7	-0.061280992
52	0xbd780d0b	-0.060559314
53	0xbcb788bd	-0.02240407
54	0xbc47669c	-0.01217046
55	0x3d0dfff7	0.034667935
56	0xbdcd60a6	-0.100282
57	0xbd5eacd0	-0.054364026
58	0xbdc64fb6	-0.096831724
59	0x3df6ab31	0.12044371
60	0x3d10ba7e	0.035334103
61	0xbd07d84c	-0.03316526
62	0xbdcf5706	-0.1012402
63	0x3c71d30a	0.014759788
64	0xbd039afe	-0.032130234
65	0xbcf3b85a	-0.029750992
66	0xbe3c9ec7	-0.18419944
67	0xbd3fd409	-0.04683307
68	0xbcf5b41f	-0.029993115
69	0x3cfe324f	0.031029848
70	0xbda2bd79	-0.07946295
71	0xbd226b68	-0.03965321
72	0xbd4c99c3	-0.049951326
73	0xbd88877c	-0.066664666
74	0x3dabc203	0.08386614
75	0x3dbcb847	0.092148356
76	0xbdd1830b	-0.102300726
77	0x3e07d3a1	0.13264324
78	0x3b550a0b	0.0032507207
79	0x3d1b903e	0.037979357
80	0x3d98f9a5	0.07469491
81	0xbd057bac	-0.032588646
82	0xbdd267c4	-0.10273698
83	0x3cc86d2e	0.024466123
84	0xbe3302b8	-0.17481506
85	0xbd89fdfd	-0.067378975
86	0xbe10f25d	-0.14154954
87	0x3d55d918	0.05220899
88	0x3db1048d	0.08643446
89	0x3cac6374	0.021043517
90	0xbd318530	-0.043339908
91	0xbddccd27	-0.10781317
92	0xbd92f3c9	-0.071754046
93	0x3c7feb95	0.015620132
94	0xbdd1d218	-0.1024515
95	0x3dd1614e	0.102236375
96	0x3e06b762	0.13155892
97	0x3e360484	0.1777516
98	0xbd7eb61f	-0.062185403
99	0x3cc64682	0.024203543
100	0x3e0ef871	0.1396196
101	0xbceca6c0	-0.028888106
102	0xbd073eae	-0.03301876
103	0xbd8686ab	-0.065686546
104	0xbcc117cc	-0.023570918
105	0xbdb37655	-0.087628044
106	0xbcb53279	-0.022118794
107	0x3d7d3c1d	0.061824907
108	0xbc49b72c	-0.012311738
109	0x3de8a4c0	0.113595486
110	0x3d795037	0.060867514
111	0x3d92bc3d	0.0716481
112	0xbbcc2014	-0.00622941
113	0xbe0929a6	-0.13394794
114	0x3a37bb47	0.00070088025
115	0x3dca3dec	0.09875092
116	0x3d279046	0.040909074
117	0xbd0209dc	-0.031747684
118	0x3d91a3cb	0.07111319
119	0x3dfc7966	0.123278424
120	0xbd9f7cf2	-0.07787503
121	0xbda96029	-0.08270294
122	0xba931293	-0.0011220746
123	0x3e36209d	0.17785878
124	0x3d98d1e2	0.07461907
125	0xbdf13ed7	-0.11779564
126	0xbc48e04c	-0.012260508
127	0x3d04ae5b	0.03239284
128	0xbb3e6dc9	-0.0029057136
129	0xbc7d96a9	-0.015477815
130	0xbd11189d	-0.035423864
131	0x3d967e31	0.07348288
132	0x3da1f49e	0.07907985
133	0x3dd55e61	0.10418392
134	0xbda0c534	-0.078501135
135	0x3cd40347	0.025880469
136	0xbcd73c44	-0.026273854
137	0xbd8115c7	-0.06302982
138	0x3d06f172	0.032945104
139	0x3d77c75f	0.06049287
140	0x3cd50a8e	0.02600601
141	0x3dc6bd2c	0.097040504
142	0x3dcf8aae	0.10133873
143	0xbde42d69	-0.11141474
144	0x3c61487a	0.01375019
145	0x3cff372f	0.031154243
146	0x3c757770	0.014982089
147	0x3dbae9ca	0.09126623
148	0xbcd4cdf7	-0.025977118
149	0x3ca13bee	0.019681897
150	0xbe11a791	-0.14224078
151	0x3df66f4b	0.12032946
152	0xbd3473fb	-0.04405592
153	0x3d5d0040	0.053955317
154	0x3d5f6a81	0.05454493
155	0x3db1f43e	0.086891636
156	0xbdb524d9	-0.08844919
157	0xbbfef6b5	-0.0077808746
158	0xbd628f69	-0.055312548
159	0xbc9372d2	-0.017999087
160	0xbd70851f	-0.058720704
161	0xbdb9e740	-0.090773106
162	0xbd825b08	-0.06365019
163	0xbd1d493c	-0.03839992
164	0xbdaa5f9c	-0.08319017
165	0xbacbcbe5	-0.0015548436
166	0xbd008ee2	-0.031386264
167	0x3cbf907e	0.023384329
168	0x3d708111	0.058716837
169	0x3d922608	0.0713616
170	0xbda846d9	-0.08216638
171	0x3d6582f5	0.056033093
172	0xbd1b922a	-0.03798119
173	0x3c58a561	0.013223023
174	0x3daa97ec	0.08329758
175	0x3d344a70	0.0440163
176	0x3daf9ac8	0.08574444
177	0xbb6931c2	-0.0035582636
178	0x3d370095	0.04467829
179	0xbb0e5de0	-0.0021723434
180	0x3cb56f08	0.02214767
181	0x3cc122aa	0.0235761
182	0xbdb5d519	-0.08878536
183	0xbd07dd81	-0.033170227
184	0x3d768b3f	0.06019139
185	0xbc9be1c2	-0.019028548
186	0x3dc2edf9	0.09518046
187	0x3d801b75	0.06255237
188	0xbd829bfd	-0.06377409
189	0xbd936d8b	-0.07198628
190	0x3cd1cb3c	0.025609605
191	0xbdbe4b1e	-0.09291671
192	0xbd9c1983	-0.076220535
193	0x3dac857e	0.08423899
194	0x3ae98b33	0.0017817974
195	0x3c0e113f	0.008671104
196	0x3cf32870	0.029682368
197	0xbd37e2d8	-0.04489407
198	0x3dcf7048	0.10128838
199	0xbda9803f	-0.08276414
200	0xbc967645	-0.018366942
201	0xbd48fc01	-0.049068455
202	0xbb677beb	-0.0035321664
203	0xbc86df9d	-0.016464049
204	0x3df55558	0.11979169
205	0xbde931dd	-0.11386464
206	0xbd32609f	-0.043549176
207	0xbba01658	-0.004885476
208	0xbd173f90	-0.036925852
209	0xbcffeca9	-0.031240778
210	0xbcd71388	-0.02625443
211	0xbd003e30	-0.031309307
212	0x3d94a1e7	0.07257443
213	0x3dc3a13c	0.095522374
214	0x3d2b8446	0.041874193
215	0xbd215263	-0.03938521
216	0x3d5cfc90	0.0539518
217	0xbc93e30f	-0.018052606
218	0xbe11f338	-0.14252937
219	0xbd93fc58	-0.07225865
220	0x3daa819e	0.08325504
221	0x3d675540	0.056477785
222	0x3d853913	0.06505027
223	0x3d7605f2	0.060064264
224	0xbd833d11	-0.06408132
225	0x3b0db365	0.002162182
226	0x3cce7284	0.02520109
227	0xbd34a81a	-0.044105627
228	0xbd522c87	-0.051311996
229	0xbb3b2631	-0.00285567
230	0x3d9de9d5	0.077106155
231	0xbd60a1bf	-0.054841753
232	0x3cb4e243	0.022080546
233	0x3d2d1101	0.042252544
234	0x3dadf4eb	0.0849398
235	0x3c810084	0.015747316
236	0xbdb9ac3b	-0.090660535
237	0x3e03121d	0.12799878
238	0x3d65e373	0.056125116
239	0x3d7ddd90	0.061978877
240	0x3ced5aaa	0.028973896
241	0xbce7f7f4	-0.028316475
242	0xbe1f35e9	-0.15547909
243	0x3e158b9b	0.14604037
244	0xbd481277	-0.048845734
245	0xbd9dc0dc	-0.07702801
246	0x3d5559b7	0.052087512
247	0x3d8c24fc	0.06842992
248	0xbcdedf4e	-0.02720609
249	0xbdc39573	-0.095499896
250	0x3dfcecb6	0.123498365
251	0x3d4973dd	0.04918276
252	0xbcb86232	-0.02250776
253	0x3e2b6595	0.16737969
254	0x3cde7006	0.027153026
255	0xbd7b2a39	-0.061319564

fc2.bias f4 [84]
0	0x3d0f88ae	0.035042457
1	0xbd1c48e5	-0.038155455
2	0xbca00cbe	-0.019537326
3	0x3dcaa981	0.098956116
4	0x3d290a9c	0.041269884
5	0x3d25f653	0.040518116
6	0x3d9a4047	0.07531791
7	0x3cc5e04f	0.02415481
8	0x3dbd56be	0.092450604
9	0x3da46eb2	0.08028926
10	0xbd6ad8c6	-0.057335638
11	0x3de379e4	0.11107233
12	0xbdcb3f9c	-0.09924242
13	0xbd0e429c	-0.034731492
14	0xbd846fc3	-0.06466629
15	0x3d12b2d0	0.03581506
16	0xbdb6d226	-0.089268014
17	0x3c6f9aa5	0.0146242725
18	0x3dd2c60d	0.102916814
19	0xbb0387c2	-0.0020069932
20	0xbdad1444	-0.08451131
21	0x3db35f67	0.08758431
22	0xbd09b8fc	-0.03362368
23	0xbc8586a8	-0.01629956
24	0x3d9c181a	0.076217845
25	0x3c42abf7	0.01188182
26	0x3cc8a831	0.024494262
27	0xbce8fe7a	-0.028441656
28	0x3d9de366	0.077093884
29	0xbd668b90	-0.05628544
30	0x3d690098	0.056885332
31	0xbd0bb2d2	-0.034106083
32	0xbd0442ab	-0.032290142
33	0x3be98cde	0.0071273884
34	0x3dcf8cdb	0.10134288
35	0xbd035f37	-0.032073226
36	0x3c76e9bf	0.015070378
37	0xba45e911	-0.0007549683
38	0xbcd20170	-0.025635451
39	0xbc8e8ee0	-0.017402112
40	0xbdae504b	-0.085114084
41	0x3d9f31c0	0.07773161
42	0x3d899757	0.06718319
43	0x3c7e3a32	0.0155168045
44	0x3cb7e612	0.022448573
45	0xbd306023	-0.043060433
46	0x3d387040	0.045028925
47	0xbcf89dbb	-0.03034865
48	0x3db6cff4	0.08926383
49	0xbc8861aa	-0.016648132
50	0xbd52bc48	-0.05144909
51	0x3db08eff	0.08621024
52	0xbd532347	-0.051547315
53	0x3c21ff0d	0.009887469
54	0xbc0b9b77	-0.008520952
55	0xbcf6ce2c	-0.030127607
56	0xbd805635	-0.06266443
57	0x3d72ca5d	0.05927502
58	0x3d5b6cb6	0.05357047
59	0xbd6987a7	-0.057014134
60	0xba1dccd9	-0.00060195994
61	0x3dc5c6ca	0.09657057
62	0x3c93471b	0.017978242
63	0x3e0277c8	0.12741005
64	0x3dd5f32f	0.10446774
65	0x3d0e8b00	0.03480053
66	0xbd4c9a1c	-0.049951658
67	0xbce0e715	-0.027453938
68	0x3c78883b	0.015169199
69	0x3db7d733	0.08976593
70	0xbb05395b	-0.0020328376
71	0xbde1e62c	-0.1103023
72	0x3d69d975	0.05709215
73	0xbcb6cda3	-0.022314852
74	0x3d7ed5a7	0.062215474
75	0xbd05322e	-0.03251856
76	0xbd961828	-0.07328826
77	0x3d9d93c4	0.076942
78	0x3d6b8a92	0.057505198
79	0xbd12b683	-0.035818588
80	0x3d4511e4	0.048112765
81	0xbdb5a5f4	-0.08869544
82	0xbbf728f3	-0.0075427233
83	0xbd85a1c4	-0.06524995

fc3.weight f4 [10, 84]
0	0xbde76cc5	-0.11300043
1	0xbd9180d9	-0.07104654
2	0xbcba46cb	-0.022738835
3	0xbdca045e	-0.09864114
4	0x3dbc63be	0.09198712
5	0xbe1d8142	-0.15381339
6	0xbe012f5c	-0.12615722
7	0xbdeaf4ff	-0.114725105
8	0x3d2e7fed	0.04260247
9	0xbdb1af7e	-0.086760506
10	0xbdcea976	-0.10090916
11	0xbe042e90	-0.12908387
12	0x3cc3e43f	0.023912547
13	0xbe6e2cbb	-0.23259251
14	0xbce5af80	-0.028037786
15	0xbd498382	-0.04919768
16	0xbd8cdeaf	-0.06878411
17	0xbe161fb6	-0.14660534
18	0xbe5d7d66	-0.21629867
19	0x3dc03813	0.09385695
20	0xbd8d4ac7	-0.06899028
21	0xbca64428	-0.020296171
22	0xbe0b1219	-0.13581122
23	0xbd0110a6	-0.031510018
24	0xbd84c316	-0.06482522
25	0x3d760061	0.060058955
26	0x3dc1fa2e	0.09471546
27	0xbe2470c9	-0.16058649
28	0x3dcf8f8b	0.101348005
29	0xbe1a9fa1	-0.15099956
30	0x3d06fc5d	0.032955516
31	0xbe0ee704	-0.13955313
32	0x3c5bb899	0.013410711
33	0xbdb96b67	-0.090536885
34	0x3dffbd1e	0.12487243
35	0x3d6d1428	0.05788055
36	0xbd8c6990	-0.06856072
37	0xbe0c6fd4	-0.13714534
38	0x3c30c2d7	0.010788641
39	0xbdf43142	-0.11923458
40	0xbe1c9e65	-0.15294798
41	0x3dcfd3ad	0.10147796
42	0x3dac99a6	0.084277436
43	0xbd576eda	-0.05259595
44	0x3db76906	0.089555785
45	0xbdcebdbb	-0.10094782
46	0x3daaf0ce	0.08346711
47	0xbe37651d	-0.17909665
48	0x3db61d1c	0.08892271
49	0x3d9548e3	0.07289293
50	0xbdb09a7c	-0.086232156
51	0xbb763aca	-0.0037571662
52	0xbd0b88f7	-0.034066167
53	0xbe5fdce8	-0.21861613
54	0x3d89d944	0.06730893
55	0xbda22381	-0.07916928
56	0x3dc22e23	0.09481456
57	0x3cd16707	0.025561823
58	0x3dde0f4a	0.1084276
59	0x3ddf7245	0.10910467
60	0x3d18e20d	0.037324954
61	0xbbe394b2	-0.006945216
62	0x3de30ce8	0.11086446
63	0x3dc09da6	0.09405069
64	0xbe1f9c1d	-0.15586896
65	0xbc078312	-0.008270996
66	0xbd81ae17	-0.06332033
67	0x3ddbf3c8	0.10739857
68	0x3e10c174	0.14136297
69	0x3e13242d	0.14369269
70	0xbdbef124	-0.09323338
71	0xbced6f30	-0.028983682
72	0xbd1963e0	-0.037448764
73	0xbdc6e6f3	-0.09712019
74	0xbdfa5f9a	-0.12225266
75	0x3e308cc3	0.17241196
76	0xbdb537ea	-0.088485554
77	0x3db92c64	0.0904167
78	0x3bde0aa4	0.006776171
79	0xbdfc5a7f	-0.12321948
80	0xbe5e3dbc	-0.21703237
81	0xbdb1a36d	-0.08673749
82	0xbdd2f422	-0.10300471
83	0xbdd1cc4d	-0.102440454
84	0xbd32435c	-0.04352127
85	0xbd64c271	-0.055849496
86	0xbe5a3e1b	-0.21312754
87	0xbddd350a	-0.10801132
88	0x3d56fcfc	0.05248736
89	0x3de4108f	0.11135971
90	0x3e1ccd97	0.15312801
91	0x3e104271	0.14087845
92	0xbe579e6b	-0.21056525
93	0x3e062d1e	0.13103148
94	0x3d6d01ce	0.05786305
95	0x3e01f63c	0.12691587
96	0xbd098d44	-0.033581987
97	0x3e1c6a6c	0.15274972
98	0xbd991f82	-0.07476713
99	0x3d4b74ad	0.049671818
100	0x3d44cf7f	0.048049446
101	0x3e00e322	0.12586644
102	0x3d8029d6	0.062579796
103	0xbd8ba06c	-0.068177074
104	0xbe0f26fe	-0.13979718
105	0xbc7b999a	-0.015356446
106	0x3e05a668	0.1305176
107	0xbd8b7a03	-0.06810381
108	0xbdd0bad5	-0.101918854
109	0xbe21cb99	-0.15800323
110	0x3d9f2083	0.07769873
111	0xbdb175d4	-0.08665052
112	0xbe252f14	-0.1613124
113	0xbccc6c48	-0.024953976
114	0x3e4117a2	0.18856671
115	0x3d3a9983	0.045556556
116	0x3dfa55d9	0.122234054
117	0xbd543e62	-0.051817305
118	0xbe781ccd	-0.24229737
119	0xbd8506a8	-0.0649541
120	0x3c7389de	0.014864413
121	0xbe2784b8	-0.16359222
122	0xbd58a2ca	-0.052889623
123	0xbd789be6	-0.06069555
124	0xbd70ef5d	-0.058822025
125	0x3cc8de44	0.024520047
126	0xbdeaa4b9	-0.114571996
127	0xbd7b7b86	-0.061397098
128	0xbd081e8d	-0.03323226
129	0x3d90f74b	0.070784174
130	0x3c8f67b8	0.017505512
131	0xbd81f307	-0.06345182
132	0xbe32160b	-0.17391221
133	0xbe11ff37	-0.14257513
134	0x3cd47de1	0.02593893
135	0xbe05de6e	-0.13073131
136	0x3d9f202a	0.07769807
137	0x3c84e7dd	0.016223842
138	0xbd1162ee	-0.035494737
139	0xbe02da8b	-0.1277868
140	0x3c8535a4	0.01626093
141	0x39bd539b	0.0003611118
142	0xbcc10d76	-0.023565989
143	0xbdf4c905	-0.11952404
144	0xbd863186	-0.065524146
145	0xbe2ce447	-0.16883956
146	0x3b9d2d58	0.004796665
147	0x3e090bbb	0.13383381
148	0xbd86ba9e	-0.06578563
149	0x3d080332	0.033206172
150	0x3d3bbc4d	0.045833874
151	0xbe23acd1	-0.15983893
152	0xbdceefa6	-0.10104303
153	0x3d165946	0.03670623
154	0x3cfa59e5	0.030560443
155	0xbdd8bc6d	-0.10582814
156	0xbd898a0d	-0.06715784
157	0xbc63b4b1	-0.013898061
158	0x3e08f955	0.13376363
159	0x3dd03b46	0.101675555
160	0x3b258319	0.0025255142
161	0xbe6827d8	-0.22671449
162	0xbcb7db2b	-0.022443375
163	0x3e302841	0.17202856
164	0x3d68a8be	0.05680155
165	0xbd5698a0	-0.05239165
166	0x3def1546	0.116739795
167	0x3e0b671e	0.13613555
168	0xbe0f8bae	-0.14018127
169	0xbd0a96b8	-0.033835143
170	0xbd8516c8	-0.06498486
171	0x3daca597	0.08430021
172	0xbe05bcdf	-0.1306033
173	0xbe32945c	-0.17439407
174	0xbd827200	-0.063694
175	0xbc18b38f	-0.009320154
176	0xbd874966	-0.066057965
177	0xbe248f67	-0.16070329
178	0xbdd5e90c	-0.10444841
179	0x3d528cb4	0.051403716
180	0xbdac37e2	-0.08409096
181	0xbe2dc9df	-0.16971539
182	0x3d8d6cd8	0.06905526
183	0x3df40bba	0.11916299
184	0x3d873c8d	0.06603346
185	0x3ce589c3	0.028019791
186	0x3d99a12b	0.075014435
187	0x3c6bf98a	0.0144027565
188	0x3d8b1bc1	0.06792403
189	0x3e1ff389	0.15620245
190	0xbdba0b06	-0.09084134
191	0xbcc6aa70	-0.024251193
192	0x3d75fdd7	0.060056534
193	0xbcd6b0f7	-0.02620743
194	0xbe26701f	-0.16253708
195	0xbe1d77bc	-0.15377706
196	0x3d4da0d3	0.050202202
197	0xbd7feab0	-0.062479675
198	0xbe3b3323	-0.18281226
199	0xbdb7315c	-0.089449614
200	0xbe21dd60	-0.15807104
201	0xbdf99647	-0.12186866
202	0xbe4601bd	-0.193366
203	0x3daf5ef6	0.08563034
204	0xbd7e5b7a	-0.062098958
205	0xbd22966f	-0.039694246
206	0x3d49d446	0.049274705
207	0xbaef27f2	-0.0018246158
208	0x3cdd1566	0.026987743
209	0x3dc31d75	0.09527103
210	0xbd85d4af	-0.06534707
211	0x3dd3793b	0.10325857
212	0x3beb9012	0.0071888054
213	0x3dbe4c70	0.09291923
214	0x3db5da59	0.08879537
215	0x3e0645e3	0.13112597
216	0xbd30580d	-0.04305272
217	0xbe09bc84	-0.13450819
218	0xbe20bfe0	-0.15698195
219	0xbce8537d	-0.028360123
220	0x3bf5ab4a	0.007497226
221	0xbe1b8d19	-0.15190543
222	0x3d98944f	0.074501626
223	0xbe33a2e8	-0.17542613
224	0xbdd78e03	-0.105251335
225	0xbe470d01	-0.19438554
226	0x3cac0d16	0.021002334
227	0xbc4b2981	-0.012400032
228	0x3d6914a7	0.05690446
229	0xbe1e1b4b	-0.15440099
230	0xbcb66eff	-0.022269724
231	0x3e2be77a	0.1678752
232	0x3d8e4b55	0.06947962
233	0xbd840f93	-0.06448283
234	0xbdbc92a4	-0.09207657
235	0xbdb03f1a	-0.08605786
236	0x3db50cc2	0.08840324
237	0x3d194271	0.03741688
238	0xbd3b068d	-0.045660544
239	0x3cd5a8c4	0.02608145
240	0x3cf7b884	0.030239351
241	0xbe514bb7	-0.20439039
242	0x3dd5612f	0.10418927
243	0x3e254662	0.1614013
244	0x3d1e0663	0.03858031
245	0x3d851029	0.06497223
246	0xbd324e16	-0.0435315
247	0xbd072798	-0.032996744
248	0x3ac9f1cc	0.0015407144
249	0xbdd1794c	-0.10228214
250	0x3e205655	0.15657933
251	0x3ba8aab6	0.0051473035
252	0xbdc5fccb	-0.09667357
253	0x3c8398ee	0.016064133
254	0xbe1c1e29	-0.1524588
255	0xbd575a13	-0.052576136

fc3.bias f4 [10]
0	0xbd815628	-0.06315261
1	0xbcc595a0	-0.024119198
2	0xbd5f73ae	-0.05455368
3	0x3d5a4235	0.053285796
4	0xbbc15c38	-0.005900886
5	0x3dd8f7e5	0.10594157
6	0xbde96eb5	-0.11398069
7	0x3da109ee	0.07863222
8	0xbc567b97	-0.01309099
9	0xbd845d2f	-0.06463086
