models/client-4-2.pth (torch, 181282 bytes, 10 tensors)

conv1.weight f4 [6, 1, 5, 5]
00000000: d53a 573c 20f9 5fbe f61b 90be 6b3b 8abd
00000010: dc72 ec3d 1315 263e ae2b babc 1603 56be
00000020: 252e debe ca22 bebe 840a 2f3e 406c 4d3e
00000030: 5f0f 4fbe a81c 0f3d 9716 80be 7509 8b3c
00000040: af13 b73e 7fc5 d43c 1108 873d b400 833d
00000050: 7b67 50bd 41fe a43e 0977 b73e f1d8 d03e
00000060: c898 d53d 0285 38bd ce56 d33d c199 a63e
00000070: 8d04 2e3e e509 473e 9b0f 9d3e 4ec4 4a3e
00000080: 652e ab3d c647 953e c546 2b3e 2917 c4bd
00000090: 2612 87bd ea18 0cbe 6636 653d 1cc0 1f3e
000000a0: 43f0 a0bd b06b 35be a53b 40be 1961 9abe
000000b0: 8915 96bd e39a 9cbe 6bf2 71be 29b2 2abe
000000c0: 29c3 27be e514 15be d0a8 11be ade3 8bbe
000000d0: aa24 00be 4052 503e 81e1 693e f531 7b3b
000000e0: f169 5e3e a42a c03e 67f0 ac3e d923 783e
000000f0: b61b 383e a7f7 ad3e e8b7 c33d 52f8 0c3d
00000100: dec5 75bd 0c60 ba3d 407b 0c3e 75ad 3b3c
00000110: 2344 973b 34ba 093d 6b41 c6bd fa31 e33d
00000120: 7fd5 66be a4fb 14be 9122 ab3d c666 50bd
00000130: 8e05 083e def9 0e3e ad50 99bd f2bf fabd
00000140: 8520 d23d e91c f73d f235 543d 6c4b f83d
00000150: c284 80be 6039 703e 0212 913e 6dcc b0bd
00000160: 450a 79be 64e4 13be d071 6d3e 401d 973e
00000170: d4a3 863e f921 9dbd 4b0e 5fbe 47c7 723e
00000180: cd43 463e 537a 8a3e 4464 883d e193 a33d
00000190: 952c 5c3d 22e8 c4bd 4ed0 f2bd a645 3dbe
000001a0: 4cf0 98be 8a68 d83b 094c 06be dcd5 4dbe
000001b0: 63fe 2e3e 6375 183e 8212 2e3e 5340 84ba
000001c0: 477f 0ebd 52e6 7e3e 6750 673e 1f2c 783e
000001d0: 3994 bc3c e9fe 713e 7a84 21bd 8557 1fbe
000001e0: 0911 093e 9607 ea3d 1b6d 73bd 78dc 6fbe
000001f0: 36a6 143d d2a2 d2bd ceea 0bbe 0ce9 9f3d
00000200: b7ca 773e 598c 2d3d 8866 e5bc 55e7 d73d
00000210: 4e97 1d3d eb0d a43e 34ae 4c3e 9739 1cbe
00000220: f496 17be 2107 b83d acfe 863e 2b5d 423e
00000230: 036d 82be f9de a23c 6dd5 843e 6d04 923e
00000240: 5a5b 113e 78ed 9f3c 2786 b43d a829 123e
00000250: 324f 7e3e bc8c adbd
0.013136585 -0.21872377 -0.28146333 -0.06749614 0.11545345 0.16218977 -0.022725906 -0.20899615
-0.4339458 -0.37135917 0.17093855 0.20060825 -0.20220707 0.034939438 -0.25017235 0.016972283
0.35757205 0.02597308 0.065933354 0.063966185 -0.050879937 0.3222523 0.35833004 0.40790513
0.10429531 -0.04504872 0.10319291 0.3253918 0.16993923 0.19437368 0.3067597 0.19801447
0.083584584 0.2915632 0.16726215 -0.0957473 -0.065952584 -0.13681379 0.05596008 0.15600628
-0.07858326 -0.17716861 -0.18772753 -0.30152205 -0.07328326 -0.3058692 -0.23627631 -0.16669525
-0.16383041 -0.14558752 -0.14224553 -0.2732214 -0.12513986 0.20343876 0.22839929 0.0038329337
0.21720101 0.37532532 0.33777162 0.24232425 0.17979321 0.33978006 0.09556562 0.034416504
-0.060003154 0.09100351 0.13718891 0.01145493 0.004616277 0.033624843 -0.09680446 0.11093517
-0.2254238 -0.14549118 0.083562024 -0.050879262 0.13283369 0.13962504 -0.07486091 -0.12243642
0.10260109 0.12066061 0.05180926 0.121237606 -0.25101286 0.23459387 0.2833405 -0.08632741
-0.24320324 -0.14442593 0.23187947 0.29514503 0.26296866 -0.076724954 -0.21782796 0.23708831
0.19361801 0.2704645 0.06659749 0.0798719 0.053753454 -0.09614588 -0.11856137 -0.184836
-0.29870832 0.006604259 -0.13114943 -0.20101112 0.17089228 0.1488853 0.16999248 -0.0010089971
-0.03478935 0.24892548 0.22589265 0.24235581 0.023019897 0.23632397 -0.03943298 -0.1556073
0.13385405 0.11427228 -0.059430223 -0.23423946 0.036291324 -0.10284962 -0.1366379 0.07808122
0.24198423 0.042370174 -0.028002992 0.1054217 0.038474374 0.3204187 0.19988328 -0.15256344
-0.14803678 0.08985735 0.26366174 0.18980853 -0.25473794 0.019881712 0.2594408 0.28519002
0.14195004 0.019522414 0.0881465 0.14273703 0.24834898 -0.084741086

conv1.bias f4 [6]
00000000: 49a2 71bc a00f 873d 926b acbd 9ad2 79bc
00000010: e8fa 32bb c935 0dbc
-0.014748164 0.06594777 -0.08418955 -0.015247965 -0.0027310196 -0.00861878

conv2.weight f4 [16, 6, 5, 5]
00000000: e277 823d b4cb 49bd b6ce 04be 3f90 063c
00000010: 37ef 27bd 61a7 bf3d f5a0 33be dea5 2dbe
00000020: 4eee fbbd 9dcf b1bd a9db d93c 5e36 1ebe
00000030: 2f6f 91be c6b5 66be f8d1 a5bc 5b59 603d
00000040: f365 14be fb79 9ebe 54a7 2dbe b708 193e
00000050: 33a9 9bbc 9c18 1abe c161 60be 9a47 22bd
00000060: 12a5 333e 1a74 81bd 7572 a7bd 8252 663d
00000070: 041b ad3d 7947 11be 96ff aebc 1f93 4abc
00000080: c42e d73c fe12 39bd 2be3 21bd 0f3c 4abc
00000090: 6e12 2abe 9586 ca3c 4c4b 9cbd 116e f9bd
000000a0: 4aaa c5bb 0e8e d2bd ef45 753d ea04 093d
000000b0: 3fb0 e7bd 4689 b0bd 3b78 74bd ddcd b23d
000000c0: 0b56 663d 7bb5 bcbc 0959 733d 7d7f 18bd
000000d0: 8b3f 143d 68d9 03bd b699 9cbc ab2b e83d
000000e0: 51cd bcbb 0c90 e9bd 6895 bc3d 3d7e 9e3d
000000f0: 47d5 9c3b 3113 2dbe 2ae4 7abd 342a e53c
00000100: a45f d63d 5da1 ba3c aa4b 57bd f214 b93c
00000110: 3a90 953d 948e f4bd d7ad 7cbd b279 433d
00000120: 61dc bd3c e35d 513d a047 2cbe b946 123d
00000130: f395 cbbc f5b8 58be 59a4 ff3c 3500 0c3e
00000140: 211a dd3c 2b96 32bd 99d9 69be b1da e63d
00000150: 75f7 413e c2a3 2c3e 127d 05be 0e1e 993b
00000160: 9ab0 3f3e 7403 ec3d 60f8 35bc 3fa1 9fbc
00000170: d9b5 1b3d 69e8 083e 2d06 ea3d cf89 493d
00000180: bf28 143d 527c bb3d fb6e e33d 1855 52bd
00000190: 4e87 403d 2f33 97bb c875 39be 0407 d0bd
000001a0: 8d00 ac3d 16a2 a6bc 624c f6bd af33 70be
000001b0: 12f6 67bd 5429 1a3d a887 273d 9cf4 fbbc
000001c0: 4861 01bd 3a28 513d 27c2 563d f387 adbc
000001d0: d082 96bd 33cc b7bd 95e1 65bd cc99 a5bb
000001e0: 1052 8dbb 13fe 893d 0f0b 043c 3fa0 833d
000001f0: c3be 0b3d 5954 8bbd b44f 08be 080d 30bd
00000200: f8a6 273e b053 033e 9bec 053d b3ce 6cbe
00000210: 0cbc 503d 7798 123e 1ee9 d7bc cbc9 d3bd
00000220: 73d2 dbbd 6534 e63d cd97 653e 2132 2cbe
00000230: a5c1 d9bd d45b e63d 9142 453e 2f0c 3c3e
00000240: 1b35 1bbe d7e7 12bd 61b4 a83d 09b1 8e3d
00000250: 832b ca3d ea29 41be c481 99bd df5b 093e
00000260: 4421 603e 13b4 263e 28b2 83bd 86c7 503c
00000270: b119 013d 87d5 143e 69c7 e53d ee2d 323e
00000280: 7a81 43bd a2b3 c0bd efac bcbd dac7 fdbc
00000290: 610f 4d3e e2e6 033d 6d92 13bd 07fb 65bd
000002a0: 4940 43be 7176 e23d 216f 863d 7d46 303d
000002b0: 83fa d73c 116d f6bd 91ac b1bb 5902 d93d
000002c0: 8b7c 093d 2de1 babd 7c89 ccbd 585d 3dbc
000002d0: 3c0a 9f3d 3827 a23c 294c 8b3c 7c6f a8bc
000002e0: 0874 1ebe 161f 45bd c4b8 4b3d ea3d 00ba
000002f0: 50de 98bb 12a4 a3bd 2de4 73bd cc5a 10bd
00000300: 188e 45bd 6efb c23d b0dd 51bd 7a1f 91bd
00000310: d2a3 07be e0ef 84bc a3ce 73bc b56e 89bc
00000320: 5568 01bb e171 90bd 8964 643c 62bc 26bd
00000330: e821 543d 012d f7bd 3163 153d 80b0 59bd
00000340: a717 d83c 1096 8a3d 5e90 6bbd c909 a83d
00000350: 42a2 10bd 08c3 89bd 0655 c5bd e1e2 733d
00000360: da7b f9bc 98ed 013d 7ec6 cabd 4cd3 a8bd
00000370: f786 f4bc ed4b 65bd fdb9 3c3d 23ef 1cbd
00000380: a993 3cbd dd96 31be b782 1abc bc5e f93d
00000390: d7bd ddbc fe20 f6bc 76d2 14be 6b11 99bd
000003a0: 0c08 74bd e235 c63d 6cb3 ad3d 5267 27bd
000003b0: 1e7a e6bc 381e b1bc 80bd 873c c025 8f3d
000003c0: d745 093d 78cc a4bd 20d0 22be 7c6a b7bc
000003d0: bae0 073e 1e6f a43b fd01 b03b 9ff7 0fbc
000003e0: 5493 ee3c 6450 bf3d efb1 6bbd 2f55 263d
000003f0: f12c 083c 6f56 993d 3ed8 be3d 29ca 20bd
0.06370522 -0.049266532 -0.12969479 0.008213102 -0.040999617 0.09358097 -0.17541869 -0.16957805
-0.123013124 -0.08682177 0.026594 -0.15450427 -0.2840514 -0.22530279 -0.020241722 0.054772716
-0.14492016 -0.3095244 -0.16958362 0.1494473 -0.019001579 -0.1504845 -0.2191229 -0.039619066
0.17543438 -0.06320973 -0.08176128 0.05623103 0.084524184 -0.14187421 -0.021362107 -0.012364178
0.026267417 -0.045184128 -0.039523285 -0.012343421 -0.16608593 0.024722377 -0.07631549 -0.121791966
-0.006032263 -0.10281001 0.059881147 0.033451952 -0.11312913 -0.08619933 -0.059684973 0.087306716
0.0562344 -0.023035755 0.059411082 -0.037230957 0.03619341 -0.032189757 -0.019116264 0.11336454
-0.0057617803 -0.11404428 0.092081845 0.07738922 0.004786167 -0.16901852 -0.06125275 0.027974226
0.10467461 0.022782022 -0.052562393 0.022592995 0.073029 -0.11941257 -0.061689224 0.04772348
0.023176374 0.051114928 -0.16824198 0.035711978 -0.024851775 -0.21164306 0.031206297 0.13671954
0.026989998 -0.043600243 -0.22836913 0.11272181 0.18942054 0.16859344 -0.13035992 0.0046727723
0.18719712 0.11524096 -0.0111065805 -0.019486068 0.03801522 0.13369907 0.11426959 0.04920369
0.03617167 0.091545716 0.11105152 -0.051350683 0.047004037 -0.004614256 -0.18111336 -0.10157588
0.083985426 -0.02034096 -0.120262876 -0.23457216 -0.056631155 0.03763707 0.040900856 -0.030756287
-0.031586915 0.051063754 0.05243125 -0.02118299 -0.07349169 -0.08974495 -0.056123335 -0.0050537344
-0.004312761 0.06737914 0.008059277 0.06427049 0.03411747 -0.068031974 -0.13311654 -0.042981178
0.16372287 0.12824893 0.032696348 -0.23125724 0.050960585 0.14315973 -0.026356276 -0.10341223
-0.107334994 0.11240462 0.22421189 -0.16815998 -0.10632638 0.112479836 0.19263674 0.18364023
-0.15156977 -0.03586563 0.082375295 0.069673605 0.098715805 -0.18863645 -0.07495454 0.13413952
0.2188769 0.1627963 -0.06430465 0.012742883 0.03151864 0.14534579 0.11219675 0.17400333
-0.0477309 -0.09409262 -0.09212672 -0.030979086 0.20025398 0.03220261 -0.036028314 -0.0561476
-0.19067492 0.11057747 0.06564165 0.043035973 0.02636457 -0.120325215 -0.005422183 0.10596151
0.03356604 -0.0912498 -0.099871606 -0.011557899 0.07765624 0.019794092 0.01700409 -0.020560972
-0.1547395 -0.04812535 0.049736753 -0.00048920384 -0.0046651736 -0.07990278 -0.059543777 -0.03524284
-0.048231214 0.09520613 -0.05123681 -0.07086082 -0.13246086 -0.016227663 -0.014880809 -0.016776422
-0.0019746025 -0.07052971 0.013939985 -0.040707 0.051790148 -0.12069131 0.03647155 -0.05314684
0.026378466 0.067669034 -0.057510726 0.08204991 -0.03531099 -0.067266524 -0.096353576 0.05954254
-0.030454565 0.031720728 -0.09901141 -0.08243427 -0.029849513 -0.05598061 0.04607581 -0.038313996
-0.046039257 -0.17342706 -0.009430579 0.12176272 -0.027068062 -0.030045029 -0.1453341 -0.07474025
-0.059577987 0.09678246 0.08481488 -0.04087002 -0.028134402 -0.021620855 0.016569853 0.06989622
0.03351387 -0.08046812 -0.15899706 -0.022389643 0.1326932 0.005018129 0.005371331 -0.008787065
0.029122986 0.09341505 -0.057542738 0.04060858 0.008311496 0.07487189 0.09318589 -0.039255295

conv2.bias f4 [16]
00000000: cbc0 8dbc 659c 09bd b97d 703d 3369 38bd
00000010: d344 acbc efc3 893d caa0 2a3d 5d2c 483d
00000020: b42c bb3c a055 c9bc dc84 a1bd 122c dabd
00000030: d7c5 e0bd 1947 8fbd b26a 82bd 79ac 01bd
-0.017303845 -0.033596415 0.05871365 -0.0450222 -0.021028912 0.067268245 0.041657247 0.048870433
0.022848465 -0.024576962 -0.07886669 -0.10652937 -0.10975235 -0.06995983 -0.06368007 -0.031658623

fc1.weight f4 [120, 256]
00000000: 2b01 b33d ac9f 3fbd 59c4 8cbc 1f49 873c
00000010: 04ce 8fbd 4f91 65bd 8074 1b3d b099 f53d
00000020: 32e0 eb3d 2f87 d33c fcfb 0abd 03ae 91bd
00000030: 2dc1 ac3d 28ad 81bc 377a 9cbd 2f75 0fbe
00000040: cfa3 16bb 7df7 8e3d 189a 90bc 84e6 143e
00000050: e594 bb3d da15 013d 98fd dbbc 5105 413c
00000060: a8cb 8b3d 4271 b73d 588f 953b 828e 67bd
00000070: d14f 27bd df70 103c db35 363c 0e4c 103d
00000080: 423c 2a3d 2f76 86bd d59e bc3b 8ff6 8f3c
00000090: b85c c13c 5cbc db3c c7e6 c13c 0d93 fb3c
000000a0: e9b7 0dbd 7dc2 aabd 7628 003d 756d ea3c
000000b0: 367f 23be 305f a0bd cd9b 8c3d 8ef3 123e
000000c0: 4f36 90bc 2c6e d43b ef92 2b3d d7f6 7dbd
000000d0: 86f0 8c3d 955e 88ba 8886 db3d 279f 29bc
000000e0: 4938 1a3e c6de 123d 635a 343c 38d4 383c
000000f0: 8a4b c8bd 820d f4bd e781 3b3d dccd 223e
00000100: 1ec5 efbb 5447 9b3c 1369 923d e176 16bd
00000110: 1313 1e3d 9efd 833c feea adbc a044 23bc
00000120: 6a23 3d3d a140 023d 44e7 04bd 8f0a 37bd
00000130: 8834 05be b3ce b4bd 01c1 c5bd 7191 ed3d
00000140: 6d3c 4d3c cc72 96bd 23d0 423d 8818 b03d
00000150: f0e8 b4bd 0dc7 84bc 4c72 a93c b561 af3d
00000160: e902 373e c606 2d3d 8365 283d 3aad 8b3d
00000170: 168b 53bd 3981 0cbe 625d f7bc caa6 cdbc
00000180: 157d edbc 719e 3cbd 08f1 b33d 9267 923d
00000190: 41cc f23d ab09 933a 9734 a13c 0903 76bd
000001a0: a9f8 67bd 4fe9 bbbd 3a63 e23c 843c b73d
000001b0: ddc3 15be 0795 40bd 8fcb 6d3d 0871 8a3d
000001c0: 9ff2 fe3c 0404 83bc 6115 9abd f048 65bd
000001d0: ad2d 76bc 4061 2abd 4319 ba3d 5067 4fbd
000001e0: 7b54 683e 1c13 0f3e f56f 993d eeb2 97bc
000001f0: 3d9e c03d 669a e6bd 277f c93c 6233 993c
00000200: c350 723d 7118 993d a852 073d 690c 71bb
00000210: 7916 c7bc b25c 233d 4a88 18bc ed53 c5bc
00000220: 094c 58bd d37b f3bd 6545 4cbc 0b06 303d
00000230: a2ac ba3c e013 3cbd 40ec 8dbd fe45 bb3d
00000240: 6837 053d 3b3e c43b b7fe e73d 4a9f b73b
00000250: ec33 85bd 43b2 a5bd ef92 bf3c 0f39 893d
00000260: c1a9 e43c 8223 3cbd 33d3 753c 008b 3a3d
00000270: 54d1 39bc ab57 a03b 8ed6 1b3c 8121 b2bd
00000280: 6ced 0b3d 3397 683d 45ba 8f3d e588 47bd
00000290: 6d7e 9e3d 66ec fcbc 0fa3 b8bd ad3c c6bd
000002a0: baf1 b5bd a01e c1bd e7e2 723c dfb4 123c
000002b0: b9f2 6f3d 4053 2bbd 76a5 023c 39e8 603d
000002c0: 92c5 4e3c 4b66 20bd afee 71bd 4e98 0ebd
000002d0: 8446 2f3d fc90 e63d e5b5 91bb 7977 2e3c
000002e0: ffce 573e 8f54 d83d 3c17 3d3c 7998 39bd
000002f0: b249 30bd 1692 a7bd 74d2 0a3d 83f0 62bd
00000300: 4d41 6b3d ac1d 44bd 48b7 813d 27cc faba
00000310: 293c 70bb 24ae 2a3d 6e07 b63d d5c8 92bb
00000320: 1577 a13d 9757 1e3d af45 373d 1485 06be
00000330: 6dc3 193e 0900 b03d 20c8 28bc 1bc3 f9bc
00000340: 6bf3 7b3d 5f11 ac3d 0fa2 edbc 125e f43d
00000350: 9400 473d cb21 babb 31c1 90bd 5aa6 14bd
00000360: 880c 7abd 14c8 a73d 4e4e d3bd 94e9 11bc
00000370: a6cc 863d ebdf acbd 08de 3abc 4f5e 373c
00000380: 2b4f 0dbd 4b8c 4bbd d6f1 523d 273e 4bba
00000390: ce68 bc3d 74f4 853c 2481 12bd 223a c33c
000003a0: b994 003d db35 4bbd 0d18 c73c f9ca a1bc
000003b0: 28cd 0b3c 1ca9 f1bc 31a3 df3d 4aaa 303c
000003c0: 6863 d83b 60ae d23b 4588 97bc 1f36 483d
000003d0: a2fb 7c3d c433 ce3d 0c4f 69bd e36d 5d3d
000003e0: bbad e13d 9e04 8c3d aef5 96bd 6ee1 f93c
000003f0: 276e 46bd cb83 103d cbb6 0bbd ef78 873d
0.08740457 -0.046783134 -0.01718347 0.016514359 -0.07021716 -0.05604678 0.0379529 0.11992204
0.11517371 0.025821296 -0.033931717 -0.07113268 0.08435283 -0.015829638 -0.07640498 -0.14009546
-0.002298582 0.069807984 -0.017651603 0.1454106 0.09159259 0.03151498 -0.026854321 0.011781053
0.06825954 0.08957149 0.004564207 -0.05653239 -0.040847603 0.008815973 0.011121239 0.03522878
0.041561373 -0.065655105 0.005756239 0.017573623 0.023603782 0.026823215 0.023669614 0.030709768
-0.03459922 -0.08337877 0.031288587 0.028616646 -0.15966496 -0.078306556 0.06865654 0.14350721
-0.017604021 0.00648286 0.041888174 -0.062002983 0.06881814 -0.0010404164 0.10719019 -0.010352886
0.15060534 0.035856985 0.011007878 0.011281066 -0.09780033 -0.11916639 0.04577818 0.15898842
-0.0073171994 0.01895491 0.071489476 -0.036734466 0.03859241 0.016112145 -0.021230217 -0.009965092
0.04617635 0.031799916 -0.032447115 -0.044687804 -0.1300832 -0.08828487 -0.09655953 0.11600006
0.012526614 -0.073461145 0.047561776 0.08598429 -0.08833492 -0.016208196 0.020684384 0.08563558
0.17872204 0.042242788 0.041112434 0.0682015 -0.051646315 -0.1372117 -0.030195896 -0.025103945
-0.028990308 -0.04604954 0.087862074 0.07148661 0.118553646 0.0011218091 0.019678397 -0.06006149
-0.056633625 -0.091753595 0.027635206 0.08947089 -0.14625497 -0.047017124 0.058055457 0.0675984
0.03112155 -0.015993126 -0.07523609 -0.05597776 -0.015025538 -0.04159665 0.090868495 -0.050635636
0.22688477 0.13972133 0.07492057 -0.018517938 0.094051816 -0.11259918 0.024596764 0.018701259
0.05915905 0.07475365 0.03303781 -0.0036781079 -0.024302708 0.039883323 -0.009309838 -0.02408787
-0.052806888 -0.11888852 -0.012467717 0.042974513 0.022787396 -0.04591739 -0.06929827 0.09144209
0.032523543 0.0059888638 0.1132788 0.0056037055 -0.06504044 -0.08090641 0.023385493 0.06700336
0.027912976 -0.0459323 0.015003967 0.045542717 -0.011341412 0.0048932633 0.009511603 -0.086977966
0.03416197 0.05678482 0.0701795 -0.048714537 0.077389576 -0.030874442 -0.09015476 -0.09679542
-0.08883996 -0.094296694 0.014824606 0.008954256 0.058581088 -0.04182744 0.007974019 0.054908965
0.012620347 -0.039160054 -0.059065517 -0.034813218 0.04279186 0.11258122 -0.0044467323 0.010648602
0.21075056 0.10563003 0.011541184 -0.045311425 -0.04303903 -0.081821606 0.03389211 -0.05540515
0.057435323 -0.04787986 0.06333786 -0.0019134328 -0.0036656952 0.04166998 0.08888136 -0.0044795075
0.07884041 0.03865775 0.04474419 -0.13136703 0.15015955 0.08593757 -0.01030162 -0.030488541
0.06151144 0.08401751 -0.02900794 0.11932005 0.048584536 -0.005680298 -0.07068098 -0.036291458
-0.061047107 0.08192459 -0.1031767 -0.008905787 0.06582002 -0.084411465 -0.011405475 0.0111919185
-0.03449933 -0.04969434 0.051500164 -0.0007753097 0.091996774 0.016351916 -0.03576769 0.02383143
0.031391833 -0.049611907 0.02430346 -0.019750105 0.0085328 -0.029499583 0.10919798 0.010782788
0.006603647 0.0064294785 -0.018497596 0.04887974 0.061763413 0.10068467 -0.05696015 0.054059874
0.110194646 0.06836818 -0.073710784 0.030503001 -0.048444893 0.035281938 -0.03410987 0.06614863

fc1.bias f4 [120]
00000000: ce2c 8a3d 6a06 913d 0198 da3c 7f15 0d3c
00000010: c70e 63bb 18d8 663d 4ce6 2dbd 6588 83bd
00000020: 4465 42bd b5fe 5f3c e7a1 5fbc 4bef 77bb
00000030: be09 12bd 7a63 9bbc 678d a73c aeb8 7bbd
00000040: ae12 df3c ba98 c9bb 9e23 a03d 7196 873d
00000050: 009e 01bd f2f8 09bd 504f 55bd 63dc 613d
00000060: 9ef0 2f3d 84e6 20bd a082 603d 0223 12bd
00000070: e913 0c3d 588e 193d 82c9 2abd 057e e93b
00000080: 3791 053d fc34 b3bc 2058 06bd 6bda 4f3d
00000090: eee2 1c3d bfa7 eebb b65d 153d 3aa9 553d
000000a0: 32a7 0c3d 31bb 16bd 5181 a0bc 7c11 813d
000000b0: d136 e63c cd40 023d e406 473d 8a4a 233c
000000c0: 04ab 13bc efbf fb3c db19 093d 41c2 c33d
000000d0: e77b 323c 111b 3abb 3f32 243d 724b 823c
000000e0: 052d 2bbd c68c 16bd 799b 0c3d 29c2 9ebc
000000f0: b430 893d 3750 523d 1f23 043c 44b9 f8bc
00000100: 847e 61bc 9c11 f9bc 72c4 853b 4084 6f3c
00000110: 4fee 09bd 7ff1 39bd ba7b 103a 5a1b 16bd
00000120: fdb2 14bd 3781 583d 30cb 8abc 2ee7 283b
00000130: 7fbf 593d 3bdc 9f3c 3afd 99bb 942c 173c
00000140: 7610 833d f834 1cbc e92e 793d ce37 a83d
00000150: d3db 873c 9033 a73b 9c87 3abd 62c4 2f3d
00000160: 4fd3 03bd bc07 763d 4484 a7bb ce3a 89bc
00000170: c4b5 823c c774 abbc 1271 bdbc d29a 863d
00000180: 85cd 10bd e670 023d 7bbd 8dbc 9ff9 8a3d
00000190: c2dc 23bd 5c44 17bd 2e0d 70bc 8a8c 6cbb
000001a0: f204 9e3c 2986 f4bc 62e4 60bd 3456 28bd
000001b0: 3496 8ebd bdca 82bd 8ac3 493d 1111 393d
000001c0: 9274 4a3c f62d c43c aa5f 1a3a 371d 38bd
000001d0: ddba 903c 725c b43c ae0f 99bc f386 2c3d
0.06746827 0.070813015 0.02668381 0.008611082 -0.003464626 0.056358427 -0.042455956 -0.064224996
-0.047459856 0.013671567 -0.01364944 -0.0037831839 -0.035653822 -0.018968333 0.020453168 -0.06145542
0.027230587 -0.0061522396 0.078192934 0.06620491 -0.03164482 -0.03368468 -0.05207759 0.055141818
0.04295408 -0.039282337 0.054812074 -0.035677917 0.034198675 0.037489265 -0.04169608 0.0071256184
0.03260919 -0.02187585 -0.032798886 0.05074541 0.038302355 -0.0072831805 0.036466323 0.05216334
0.034339137 -0.036799613 -0.019592913 0.06302163 0.02810231 0.03180008 0.048590556 0.009966502
-0.009012941 0.03073117 0.033471923 0.09558535 0.010893798 -0.002839748 0.04008698 0.015905116
-0.04179098 -0.036755346 0.034327958 -0.019379692 0.066987425 0.05134603 0.008065014 -0.030361779
-0.013763074 -0.030403905 0.004082256 0.014618933 -0.033674534 -0.045396324 0.0005511601 -0.03664718
-0.03630351 0.052857604 -0.01694259 0.002577256 0.05316114 0.019514194 -0.0046993764 0.009226937
0.06399624 -0.009534113 0.060835753 0.08213769 0.016584313 0.0051025823 -0.045539483 0.042911895
-0.03218394 0.06006597 -0.005112203 -0.016751673 0.015955813 -0.020929707 -0.023125205 0.065724984
-0.03535225 0.03184595 -0.017302265 0.06785893 -0.040005453 -0.036930427 -0.01465158 -0.003609451
0.019289467 -0.029849129 -0.054905303 -0.041097835 -0.06962243 -0.063863255 0.049258746 0.04518229
0.012356894 0.023947697 0.0005888889 -0.044949736 0.017667228 0.022016738 -0.018684234 0.042120885

fc2.weight f4 [84, 120]
00000000: 004c 103e 80d2 053e 8927 383e a243 cabc
00000010: de44 463c f0c1 5fbe 7792 1fbd 6ccc 4a3d
00000020: b9c9 483d 4f49 653d 41bc a6bc ff9f 6f3d
00000030: 1775 863d 7de7 f63c fe2a 9abd 7b04 6f3d
00000040: 24d2 413d 51b3 fa3c b232 8c3d 9f6e 973b
00000050: bbb9 3a3e 05ef fa3d d16c b23d ff48 b4bb
00000060: 5eef 26be 8dbe 1bbe 0977 77bd 3cc9 8c3d
00000070: 8518 6f3d 428b 17bc 1316 cfbb f68e 873d
00000080: 40c7 083d 605e c8bd 8a47 15bd e750 4a3d
00000090: d1b0 563d 4952 b2bc 2ec0 9c3a aa07 a4bd
000000a0: d047 d53c f609 edbd 2390 f4bc 180c 063e
000000b0: 7efb fdbc 9c2d 4bbd aac7 74bd 9756 5a3d
000000c0: 1697 0b3e 2845 fd3c 1c96 083c 8552 673d
000000d0: 8597 633e 7df1 c7bd 512c 033d 2175 0d3e
000000e0: 6381 8d3d d10a 333d bbcb eb3d bd31 9cbd
000000f0: 1d49 133d 1402 fbbc 2bdf 72bd 05ed c3bd
00000100: 90df 03be f844 413c 9b8c 03bd 8cf6 38bd
00000110: 39dc 25bb d9d4 5d3d 45cf 903d ee4e 283c
00000120: b24d 06be 91f4 9ebc 287f c4bc 93c0 34bc
00000130: 8fb2 c53d 6e3c 9cbb e1ef 40bd 6fce 48bc
00000140: 55d9 c33d a139 14bd 1b0b 363e 8a1c eabd
00000150: 54b0 893d 1e03 ac3d 9f9b ccbd 03d0 02be
00000160: 0b81 893d 3e1c 90bb 2926 32bb 7211 d5bb
00000170: 8538 b03d 714c a4bd 7611 67bd 1a88 06be
00000180: 7b1c 22bd 739a f23c 3b5a ddbc 807b c7bd
00000190: 68c1 b3bd 492d 0d3d f3e2 5cba 3108 823c
000001a0: 18b0 be3d 57c1 153e 3a92 c4bd 1c37 d6bc
000001b0: 1876 f73c c31f 503d 17ff 4c3a 2aaa 103d
000001c0: 1ab8 073e 4d99 cc3d a6f4 bebd aa0b 67bc
000001d0: 968c fa3d 8636 b0bc 4849 373d b6c6 bf3c
000001e0: 9251 843d f680 703d d97f e23d 1c5f 073d
000001f0: bd33 8ebb d108 5f3d 3e37 54bc f846 b43d
00000200: 223d 7e3b 651a 7ebd bbec 013e 1169 ce3d
00000210: 59c6 a4bd 8749 d3bd 3e1b 4bbd 85f0 e7bb
00000220: 6b11 363d 849c 29bd 5f9e 51bd ec37 b8bc
00000230: 9d9f ad3d 93fd e53c df5e 91bd 8c0a a23d
00000240: 6ad4 39bd 6675 733c e98f 8bbc a5a6 eebc
00000250: 458c 973d f47f b6bd 3178 8f3d 8db7 4abd
00000260: ba59 3ebd fc6e 9dbd c1be 443d cfad a23d
00000270: e63c 4e3d ec18 8bbd 0a1c 6b3d a995 563c
00000280: 13c5 adbd 6de6 d4bc cfbd 0abd c98f bfbd
00000290: 3f96 1bbd a132 99bc 2b74 90bd 959e dfbc
000002a0: d7ee c03d b02a 983b 585d e63c 40ab 893d
000002b0: 4841 153e 0fa2 97bc 5144 9bbd 0aca 70bd
000002c0: b306 9fbd 5068 d83c 0438 613d 5740 f0bc
000002d0: 2c84 7f3d 95e6 383d 9b72 13bd a090 07be
000002e0: 91a8 3abd 05ff 81bd 840a 5fbd 652f 3c3d
000002f0: 220b 903d 8636 d6bc 36fc 963d 1995 2d3d
00000300: 285c c83c 30a2 b93c f27a aa3d 4bc3 03bd
00000310: fba6 97bc d1bd b7ba 682a 3fbe f60b 3f3d
00000320: 00c1 30bc 7976 5a3c dea0 a73a 9c32 5e3b
00000330: 686f 073e a096 853d cbc8 243d 532e cebd
00000340: 3615 9a3c 86b0 c4bd 4829 2abd e0f8 443c
00000350: d423 843d 0127 55bd a647 20bd bdc7 8b3d
00000360: 5e7b 17bd ceff 34bd ca34 94bd 400f 93bb
00000370: ae0b 013d 5e23 2dbd 9837 d3bd 5dae ae3d
00000380: b463 4abd b3d3 093d 875c 4a3d 3142 87bd
00000390: 8d43 183b c22a 853d 023b cc3d 4da4 903d
000003a0: 1718 6b3d 46cd 16bd f2c4 0cbd 9323 883d
000003b0: ec90 ee3d 5e77 febd 6e60 e0bc 2294 dbbc
000003c0: 942d a43c 1071 403c 40a1 113e f649 82bd
000003d0: 0ccc ee3c 0c45 ad3c 5a1d c33d f712 153c
000003e0: 728c 99bd d955 153e b05f dd3c ed3a 9c3c
000003f0: a392 903d 735f ab3c 77f6 5fbc 3ed0 56bd
0.14091492 0.1306858 0.17983831 -0.024690453 0.01210138 -0.21851325 -0.03895804 0.04951136
0.049020503 0.055978116 -0.020353438 0.058502194 0.06565302 0.03013968 -0.07527731 0.058353882
0.047319546 0.030603083 0.06845607 0.0046213414 0.18234913 0.122526206 0.08712161 -0.005501866
-0.16302249 -0.15209408 -0.060416255 0.0687432 0.058372993 -0.00924951 -0.00631977 0.066190645
0.033393145 -0.097836256 -0.036445178 0.04939356 0.05241472 -0.021767752 0.001195913 -0.08009274
0.02603522 -0.115741655 -0.029853886 0.13090551 -0.03100371 -0.049604043 -0.059760727 0.053305235
0.13631853 0.030916765 0.00833657 0.05647518 0.22225769 -0.09762857 0.032024685 0.13814212
0.06909444 0.043711487 0.11513468 -0.07626674 0.035958398 -0.03064064 -0.05929486 -0.09566692
-0.12878251 0.011796229 -0.032116514 -0.045157 -0.0025308265 0.054158065 0.070707835 0.010272725
-0.13115576 -0.019403728 -0.023986414 -0.011032241 0.09653198 -0.004767946 -0.047103766 -0.012256249
0.09562937 -0.03618777 0.17777674 -0.11431225 0.06723085 0.08399032 -0.0999062 -0.12774663
0.06714066 -0.004397898 -0.002718339 -0.006502324 0.0860453 -0.080223925 -0.056413136 -0.13137856
-0.039577942 0.029614663 -0.027020564 -0.09740353 -0.08777124 0.034467015 -0.0008426152 0.015873047
0.09310931 0.14624535 -0.09598203 -0.026149325 0.030207679 0.05081154 0.0007819994 0.03531853
0.13253823 0.09990177 -0.09324007 -0.014101902 0.12233846 -0.021510374 0.04474762 0.023410182
0.06460871 0.058716737 0.11059541 0.033049688 -0.004339664 0.054451767 -0.012952624 0.08802599
0.0038793762 -0.06203689 0.12687962 0.100786336 -0.08045644 -0.103167586 -0.049586527 -0.0070782327
0.044450205 -0.04140903 -0.051176425 -0.022487603 0.084777094 0.028075015 -0.07098173 0.07912168
-0.04536859 0.014859533 -0.017036395 -0.029132197 0.07399801 -0.08911124 0.070053466 -0.049491454
-0.04647229 -0.07687184 0.04803348 0.079433076 0.050351046 -0.06791863 0.057399787 0.013097205
-0.084848545 -0.025988782 -0.03387242 -0.09353597 -0.037985083 -0.0187009 -0.07053407 -0.027297297
0.09420555 0.0046437606 0.028120682 0.067221165 0.14575684 -0.018509893 -0.0758139 -0.05878643
-0.0776495 0.026416928 0.05498506 -0.029327555 0.06238191 0.045141775 -0.03599797 -0.13238764
-0.045570914 -0.06347469 -0.054453388 0.045943636 0.070333734 -0.026149046 0.07372324 0.04237852
0.024458006 0.022660345 0.08324231 -0.032168668 -0.01851224 -0.0014018362 -0.1866852 0.046642266
-0.010788202 0.01333391 0.0012789031 0.0033904677 0.13226092 0.0652287 0.040230554 -0.100674294
0.018808942 -0.09603982 -0.041543275 0.012022227 0.06452146 -0.05203915 -0.03913083 0.068252064
-0.036982886 -0.044189267 -0.07236631 -0.004487902 0.03150528 -0.042270057 -0.10313338 0.08529351
-0.04941149 0.033649158 0.049404647 -0.06604422 0.0023233623 0.06502296 0.09972192 0.07062588
0.05739602 -0.036816858 -0.03436751 0.0664741 0.116487354 -0.12425111 -0.027389731 -0.026804034
0.020041265 0.011745706 0.14221668 -0.06361763 0.029150032 0.021151088 0.09527083 0.00909876
-0.07497491 0.1458353 0.027023166 0.019071067 0.07059219 0.020919537 -0.013669602 -0.05244469

fc2.bias f4 [84]
00000000: 176f 043e 6956 ac3c 2deb 043e 15d1 223d
00000010: 5a7b 1f3d 93a6 83bd 67e9 4f3b c4f5 6fbd
00000020: 30bf 60bd 5b24 673d 9816 433d 543a d1bc
00000030: 2b41 553d 6d3e c33d f98d fc3b 22c7 8e3c
00000040: 0251 c5bc b58f 873d c00d ce3c d726 bfbd
00000050: 74ec d63c e963 1d3c c064 d93d ea74 853d
00000060: 164e 813d 3cfa e7bc 1760 eb3c 88a1 933d
00000070: fe07 e33d 6b43 a03d bcc3 6cbd 6c28 1a3d
00000080: f243 5cbd c6b4 433d d32e 863d d738 243d
00000090: 3441 973b da7c 0c3e 6a68 133d 90db 473d
000000a0: cbab 68bd a1b8 e83c 9efe 61bd ddb7 62bd
000000b0: e91e 58bd b424 db3d fe23 bfbc 5817 3fbd
000000c0: d5db babc ca6e b73d e6c6 8ebd 74bc 133d
000000d0: e728 39bd 65df 8a3d 7011 d53d 3cf8 233c
000000e0: b033 97bd a7be 76bc 343f 023d a42a e8bc
000000f0: ba1a 68bd 6d13 babd ac69 a93d 69ab d0bc
00000100: fa8f a2bd 5442 34bc 785c a23d d8c7 983d
00000110: ef34 143d ab61 ae3d 792b 9e3d 7297 553d
00000120: 71dc c3bc 2ca3 6e3d c35d 0e3d 9342 3dbd
00000130: f587 433d e40d ee3d 155f 633d f63d bd3d
00000140: efe6 cb3d 2578 013e d19f 06bd 88c9 02bd
0.12933002 0.021037297 0.12980337 0.039750177 0.038935997 -0.06428256 0.0031724812 -0.05858399
-0.05486983 0.056431156 0.04762897 -0.025540508 0.052064102 0.09533391 0.007707354 0.017428938
-0.02408648 0.06619207 0.02515304 -0.0933358 0.026235797 0.00960634 0.1061492 0.0651644
0.06313722 -0.028317563 0.028732343 0.07208544 0.11085509 0.07825359 -0.057803854 0.037636206
-0.053775735 0.04777982 0.065519 0.04009327 0.004615927 0.13719502 0.03598825 0.048793375
-0.05680446 0.02840835 -0.055174462 -0.055351127 -0.052763853 0.1070036 -0.023332592 -0.04665312
-0.022809902 0.08956678 -0.069715306 0.036068395 -0.045205023 0.067808904 0.104037166 0.010007914
-0.073829055 -0.0150601035 0.031798556 -0.028340645 -0.056666113 -0.090857364 0.082721084 -0.02547236
-0.079376176 -0.011002142 0.07927793 0.07459992 0.036183294 0.085147224 0.077231355 0.052146383
-0.023908826 0.05826108 0.034757387 -0.04620607 0.04773708 0.11623743 0.0555106 0.09240334
0.099561565 0.12643488 -0.032867257 -0.031930476

fc3.weight f4 [10, 84]
00000000: 6ecf 32be ea25 3abe 65f8 3cbd da90 9ebe
00000010: 2b12 c43d b66c 9e3d 0dda 64bd e667 75be
00000020: 7e9d 90bd e871 423e 2e18 8c3d 6f7e 063e
00000030: 2f03 11be fb07 d1bd 2bee 26be 2414 d2bd
00000040: f0f5 043e 2483 67be 25cf 83bb cbbb 95bd
00000050: 1277 c33d 3d2d 48be 17e7 2cbe 77ec fa3c
00000060: abbb 3bbe 4de2 b23c fd38 843d 1111 1a3c
00000070: 81fe 3c3d a907 05be e77b b1bd 9681 d43c
00000080: adbf 283c 53a7 e13d a406 05be eac5 d33d
00000090: a6d9 823c b2c1 1fbd cd1a 9abd 8b3b fdbd
000000a0: 784c 9dbc 18fd bb3d 122a 89bd f6bd 04be
000000b0: 1d11 4dbd c222 593d fc65 64bd 7b00 09be
000000c0: 2e1d 3d3d 5789 16bd 190e 3abd 4bf5 83bd
000000d0: a7c2 073c f748 02be 1fa4 51be 8135 183d
000000e0: 27f0 1abe c57d 3cbe f295 0ebe 1c75 02be
000000f0: c2e0 913d 16f2 88bc 1229 1cbd a3f9 1ebc
00000100: 6a15 cebd d9ee 633d af01 17be 36c1 a83d
00000110: e6bf 80bd 8083 963d 64f8 a23b 2feb 10be
00000120: f5ea 40bd e6b2 e3bd eea6 62bd 6121 e8bd
00000130: deb1 003d 542d 1fbe 7c22 38be 455b 2b3e
00000140: 8205 173e 612d 853d ef8f afbd 8f7d bebd
00000150: 5d6d 963d f8ca 093e a232 893d 192f cdbd
00000160: 2ead e73d f471 2bbd 93d9 abbb 432e f6bd
00000170: 3500 b1bd 5474 10bd 6e61 7dbd 1f6c d63d
00000180: 06be c23d 9dfe 80bc fa63 5ebd d6b0 10be
00000190: b1bf 17bd a4d7 903d bf14 dc3d 6175 37be
000001a0: 2d0b 883d 2fac bcbd ff36 723d b150 ae3d
000001b0: 85d7 853d 97a8 3bbd 4d03 383e 14d8 7ebe
000001c0: 36b4 bcbd ba42 18bd 54c9 723d 9e4c f8bd
000001d0: 6484 edbc 7b37 dabd 0b1e 94be d027 efbd
000001e0: ba22 d0bd 06bc 473e 71a9 80bc 9a58 1abc
000001f0: 0fbe 54be 5915 ccbc dd6a 523d 8e87 933d
00000200: d666 06be 3fec 19be 5ac8 5abe 4fd7 ac3c
00000210: c4d3 1b3e 7aea 493d 6e9b acbd d484 f5bd
00000220: e368 12bc be24 f2bd c42f f63d b3c9 c0bd
00000230: e057 ccbd af56 493d 5119 0e3e 39fa 0ebd
00000240: 0e12 7b3d 0ce7 a43d c9f8 eb3d c609 093d
00000250: cf9f 963c 41cd 073e 1b2a d33d 8729 74be
00000260: 2db0 ec3d ef29 dbbd cbce 1d3c 6a32 57bd
00000270: aede 29be 86af 16be e43c 44be aab3 e13b
00000280: c719 c93d ce58 aa3d 59f5 0f3e 5822 50be
00000290: 5e8d 59be a777 0b3e d604 873c b3e9 8c3d
000002a0: e1c1 7fbe 0efc a2bd deba 973d d341 87bd
000002b0: 2fd1 b33d f849 29bd 77c2 b6bb bc17 9abd
000002c0: c507 4e3d 5071 f5bd fabf 3c3d 13a7 f5bd
000002d0: d3c1 32be 323d 17be db66 43be 4581 f13d
000002e0: 2bd4 283c 067f 72be 63ca b23c d29b 9bbd
000002f0: 6b2a 89bc 305e 3cbe b96c c83d 7d70 0abe
00000300: 7ffe c0bd 5e4f f53d 10a1 49be c91b 50bd
00000310: ba8b 963d cda3 153e bb69 813d 3d50 d43d
00000320: fbff 6b3d 870f 79bd 51a0 79bd b6c9 33be
00000330: 15d2 bfbd fc67 d5bd 160a 003c 28fd fa3d
00000340: 68ef bf3c 193d c8bd 3cf0 d1bd 9d4f 0bbe
00000350: 36e4 11bd b9ff 25be a387 0ebe 8b18 f0bd
00000360: e08e 8b3d f849 cfbd c8d6 eb3c bc4e 0e3e
00000370: dafb c53d ca24 2fbe 2782 46be a3ef e5bd
00000380: 59aa 50bd 1dea ec3d 70d8 f8bd d6e2 c53c
00000390: 73a4 893d 0fc8 71bc b14a 30bd a023 9d3d
000003a0: b644 bb3d 5efb 5c3d 6b24 e0bd 452d dfbd
000003b0: 44ab 813d 59dd c63c df30 e03d a04f 0bbe
000003c0: a43b f2bd f7da 73bd 65ed 71be 13b9 9e3d
000003d0: 3b4d a83d e272 15be 580d 5fbd 5a7f aabd
000003e0: 9aae cb3b edb4 c03d 8381 8eba bb41 db3c
000003f0: 1bb0 c9bd 5d2d 1abe 047b 80bd f5ed 913d
-0.1746194 -0.18178526 -0.046135325 -0.30969888 0.09573778 0.07735579 -0.055872012 -0.23965415
-0.07061289 0.18988764 0.068405494 0.13134168 -0.1416137 -0.102066 -0.16301791 -0.10257748
0.12984443 -0.2260862 -0.0040224963 -0.07311209 0.09544195 -0.19548507 -0.16885029 0.030630333
-0.18333308 0.021836424 0.06456182 0.009403483 0.04614115 -0.12991203 -0.086662106 0.025940698
0.010299605 0.11018243 -0.12990814 0.103404835 0.015972923 -0.03900308 -0.07524643 -0.123648725
-0.019201502 0.09179133 -0.066974774 -0.1296309 -0.05006515 0.053011663 -0.055761322 -0.1337909
0.046170406 -0.03675207 -0.0454236 -0.0644327 0.008286155 -0.12723146 -0.20472763 0.0371604
-0.15130673 -0.18407352 -0.13924387 -0.12739986 0.07122947 -0.016716998 -0.038125105 -0.009703073
-0.10062678 0.055647705 -0.14746736 0.08239977 -0.06286602 0.073493004 0.004973458 -0.14152215
-0.047099072 -0.111181065 -0.055334978 -0.113344915 0.031419627 -0.15544635 -0.17981905 0.16734035
0.14748195 0.06502796 -0.08572375 -0.09301292 0.07345078 0.13456333 0.066991106 -0.10018749
0.11312328 -0.04185672 -0.0052444427 -0.120205425 -0.086426176 -0.03526719 -0.061860494 0.10469841
0.095089 -0.01574641 -0.054294564 -0.14129958 -0.037048046 0.0707238 0.107461445 -0.1791587
0.066427566 -0.09212529 0.05913448 0.085114844 0.06535248 -0.045815077 0.17970009 -0.24887115
-0.0921406 -0.03717301 0.059274033 -0.121239886 -0.028993793 -0.10655113 -0.2892917 -0.116775155
-0.101628736 0.19505319 -0.015705796 -0.009420538 -0.20775627 -0.024912523 0.051371444 0.072035894
-0.13125166 -0.15031527 -0.2136549 0.02109876 0.15217501 0.04929588 -0.08428083 -0.119882256
-0.00893614 -0.11823414 0.12020829 -0.09413471 -0.09977698 0.049154934 0.13876845 -0.0349066
0.061296515 0.08051881 0.115220614 0.033456586 0.01838675 0.13261892 0.10310765 -0.23843966
0.1155704 -0.107013576 0.009631823 -0.052538313 -0.16588852 -0.14715394 -0.19163853 0.0068878727
0.0981937 0.083177194 0.14058436 -0.20325601 -0.21245334 0.13619862 0.016481798 0.06880512
-0.24976303 -0.07958232 0.07408689 -0.06604352 0.08780133 -0.041330308 -0.0055773812 -0.07524058
0.05030038 -0.11984503 0.04608152 -0.119947575 -0.1745675 -0.14769438 -0.19082205 0.11792234
0.010304491 -0.23681268 0.021825021 -0.0759808 -0.01674386 -0.18395305 0.09786362 -0.13519473
-0.09423541 0.11978029 -0.19690347 -0.050807748 0.073508695 0.14613266 0.063189946 0.10366867
0.05761717 -0.060805824 -0.060943905 -0.17557415 -0.09366242 -0.10420224 0.007814905 0.12255317
0.023429587 -0.097772785 -0.10250899 -0.13604589 -0.03561803 -0.16210832 -0.13918929 -0.11723431
0.068143606 -0.1012153 0.02878894 0.13897222 0.096671775 -0.17103878 -0.19385587 -0.11227348
-0.050943706 0.11568091 -0.12150657 0.024156015 0.06720819 -0.01475717 -0.04303998 0.076728106
0.09143965 0.05395066 -0.10944446 -0.10897306 0.063314945 0.024275469 0.109468214 -0.13604593
-0.11827782 -0.059534993 -0.23625715 0.07750144 0.082178555 -0.14594606 -0.054456085 -0.08325072
0.0062158825 0.09409509 -0.0010872338 0.026764741 -0.098480426 -0.15056367 -0.06273463 0.07125465

fc3.bias f4 [10]
00000000: 511a c3bc 7917 a13d b712 32bd dbaa e9bd
00000010: c323 44bd 3897 d7bc f92b 943d cd60 6f3d
00000020: f9fe be3c 7733 4ebd
-0.02381626 0.07865805 -0.04347488 -0.11409541 -0.047885668 -0.026317224 0.072349496 0.058441926
0.02331494 -0.05034205
