models/server-10.pth (torch, 181268 bytes, 10 tensors)

conv1.weight f4 [6, 1, 5, 5]
0	0x3e8fc26f	0.2807803
1	0x3e33b96a	0.17551199
2	0x3d5a093c	0.053231463
3	0xbe5ae3ba	-0.21375933
4	0xbe63a372	-0.22230318
5	0x3e840576	0.25785416
6	0x3df826c2	0.121167675
7	0xbe17af9c	-0.14813083
8	0xbeaa8782	-0.3330651
9	0xbe8e8e75	-0.2784306
10	0x3eb79798	0.35857844
11	0x3eb38985	0.35065857
12	0xbe339b43	-0.17539696
13	0xbe96892f	-0.29401538
14	0xbe0ec082	-0.13940623
15	0x3eb2e258	0.34938312
16	0x3df80bfc	0.12111661
17	0x3e5582ed	0.20850725
18	0xbe67abcd	-0.2262413
19	0xbe778872	-0.24173144
20	0x3de08c8a	0.10964306
21	0x3e1ec973	0.15506534
22	0x3d16a642	0.03677965
23	0xbd016684	-0.031591907
24	0xbb014cdc	-0.001972965
25	0xbc98e8d5	-0.01866571
26	0x3c0df24b	0.008663724
27	0xbd562297	-0.05227908
28	0xbcf2b439	-0.029626952
29	0xbdde3146	-0.10849242
30	0xbd91101e	-0.07083152
31	0xbe20ce5a	-0.15703717
32	0x3e7c66d3	0.246486
33	0x3cb4ff48	0.022094384
34	0x3df57f37	0.11987155
35	0xbc97f6cc	-0.0185503
36	0x3e793efd	0.24340434
37	0x3e7e0a9f	0.24808739
38	0xbd8f90ea	-0.07010062
39	0xbd9d69cc	-0.07686195
40	0x3e40f67f	0.18844031
41	0x3eaadf22	0.33373362
42	0x3eb139ff	0.3461456
43	0x3d6d5117	0.05793866
44	0xbe77fdd7	-0.24217926
45	0x3e98abec	0.29818666
46	0x3e025f90	0.12731767
47	0xbc4eca1e	-0.012621431
48	0x3e81eb18	0.25374675
49	0x3da327b8	0.0796656
50	0xbd477a86	-0.04870083
51	0xbdba192d	-0.09086833
52	0x3c85967e	0.016307112
53	0xbe79b609	-0.24385847
54	0xbeb4cac2	-0.35310942
55	0x3e3da9b4	0.18521768
56	0x3e15ec0f	0.1464083
57	0x3d5aaf81	0.05339003
58	0xbe06dddf	-0.13170575
59	0xbeb900c9	-0.36133412
60	0x3da48c5a	0.080345824
61	0x3e42061c	0.18947643
62	0x3df448f0	0.11927974
63	0x3e7ad384	0.2449475
64	0x3c8bce24	0.017066069
65	0x3e262e56	0.16228613
66	0x3db09f3e	0.08624123
67	0x3e87c95b	0.2652081
68	0x3e32037a	0.17384139
69	0x3e7552a5	0.23957308
70	0xbdb07fff	-0.08618163
71	0x3e3c3f9a	0.18383637
72	0xbca2f6e9	-0.019893127
73	0x3d2cb1d2	0.04216177
74	0x3dab46f4	0.083631426
75	0x3c5d53b2	0.013508724
76	0xbe398851	-0.18118407
77	0xbd2deafa	-0.04246042
78	0x3b52cddc	0.0032166159
79	0x3dfb5563	0.122721456
80	0xbcceb10d	-0.025230909
81	0xbda47fa9	-0.08032162
82	0xbca262a6	-0.01982243
83	0x3e870e52	0.26378113
84	0x3e647185	0.2230893
85	0xbda4046f	-0.08008658
86	0xbdcd8a90	-0.10036194
87	0x3e21cae6	0.15800056
88	0x3e2fedc7	0.17180549
89	0xbd905a4e	-0.07048474
90	0x3e524d3a	0.20537272
91	0x3e150f9e	0.14556739
92	0x3e5096af	0.20369981
93	0x3d4e4f61	0.05036867
94	0x3e9a653e	0.30155367
95	0x3e879f69	0.26488808
96	0x3e74e14c	0.23914069
97	0x3e9b27d8	0.30303836
98	0x3e8776c3	0.26457796
99	0xbdc9693d	-0.09834526
100	0x3e8b9040	0.27258492
101	0x3e5463eb	0.2074124
102	0x3c81743d	0.015802497
103	0x3d1a8efc	0.037734017
104	0xbdc303fc	-0.09522244
105	0x3e6739ec	0.22580689
106	0x3e180269	0.1484467
107	0x3e5fdd85	0.21861847
108	0x3e6657ab	0.2249438
109	0x3d351623	0.044210564
110	0xbdd51452	-0.104042664
111	0x3afc6cee	0.0019258538
112	0x3dd29812	0.10282911
113	0x3dc09779	0.09403891
114	0xbdb23df0	-0.0870322
115	0xbe1de39c	-0.15418857
116	0xbd89a99a	-0.06721802
117	0xbd08755c	-0.033315048
118	0x3e063240	0.13105106
119	0xbad58d0f	-0.0016292649
120	0xbe10c872	-0.14138964
121	0xbdcd2ea0	-0.10018659
122	0x3d3d10ef	0.046158727
123	0xbd9950a0	-0.07486081
124	0x3e558cea	0.20854536
125	0x3e5df530	0.21675563
126	0x3ea1f040	0.3162861
127	0x3ea8d83d	0.32977477
128	0x3df1a4f4	0.117990404
129	0x3e6b4cd8	0.22978532
130	0x3dce1be8	0.100639164
131	0x3d893f09	0.06701476
132	0x3d601d01	0.05471516
133	0x3e803a94	0.25044692
134	0x3e19abf1	0.15006997
135	0xbe4a4f22	-0.1975675
136	0xbe26db9e	-0.16294715
137	0xbbf5c9f7	-0.0075008827
138	0x3d9deb02	0.0771084
139	0x3d17dff3	0.03707881
140	0xbd956488	-0.072945654
141	0xbe2625a5	-0.16225298
142	0xbcdbc12a	-0.026825506
143	0xbe888f6d	-0.26671925
144	0xbe11aba5	-0.14225633
145	0xbdaeaf3c	-0.08529517
146	0xbe61d930	-0.22055507
147	0xbd4c5836	-0.049888812
148	0xbc69da6a	-0.014273265
149	0xbd35367d	-0.044241417

conv1.bias f4 [6]
0	0xbc7be0bb	-0.015373404
1	0xbc44389a	-0.0119763855
2	0x3d4c5000	0.04988098
3	0xbcb4b9f7	-0.022061331
4	0xbe133f46	-0.14379606
5	0x3d4839a4	0.048883095

conv2.weight f4 [16, 6, 5, 5]
0	0x3cca3fa4	0.02468855
1	0xbde920ee	-0.11383234
2	0x3d9840c1	0.07434226
3	0x3cf974d2	0.030451212
4	0xbdaf55ee	-0.08561312
5	0xbd9fc221	-0.07800699
6	0xbd00c407	-0.031436946
7	0x3e242658	0.16030252
8	0xbcdb35e9	-0.026759105
9	0x3d790ed9	0.060805175
10	0xbdd08ac6	-0.10182719
11	0xbc5f69de	-0.013636081
12	0x3d8f89cd	0.07008705
13	0x3dcb6ebe	0.09933232
14	0x3d2ea5c4	0.042638555
15	0xbe09ec7a	-0.13469115
16	0xbd55b8a4	-0.05217804
17	0xbc7a0bf8	-0.015261643
18	0x3dcc3e6d	0.09972844
19	0x3d3996df	0.045309898
20	0xbe529f9b	-0.20568697
21	0xbe605dc0	-0.21910763
22	0xbe2fc519	-0.1716503
23	0x3cabc718	0.020968959
24	0xbd9b1d8d	-0.07573996
25	0x3d41ae6c	0.047285482
26	0x3dcbdd88	0.09954363
27	0x3d2cf55a	0.042226173
28	0xbda0027f	-0.07812976
29	0x3c20ca83	0.009813908
30	0xb847c4b0	-4.7628477e-05
31	0xbd51dbbb	-0.051234942
32	0x3d69a239	0.057039473
33	0xbdbe292b	-0.09285196
34	0x3ca69748	0.020335808
35	0xbcb829b4	-0.022480823
36	0x3e031323	0.12800269
37	0xbc88ee4d	-0.016715193
38	0xbd73973f	-0.05947041
39	0xbd83ca58	-0.064350784
40	0xbdc8a5a4	-0.097972184
41	0x3c410a49	0.011782237
42	0x3d546b9e	0.051860444
43	0x3d7077e2	0.05870808
44	0xbcefff1c	-0.02929645
45	0xbdefbda6	-0.117060944
46	0xbe0c22c3	-0.13685136
47	0xbdc8ac54	-0.09798494
48	0x3b4b4236	0.0031014807
49	0xbd9ec722	-0.07752825
50	0xbd9a5af1	-0.07536877
51	0xbc1a4400	-0.0094156265
52	0xbcfda523	-0.030962532
53	0x3d8e7edb	0.069577895
54	0x3d2a4999	0.041574094
55	0xbdf552ec	-0.11978707
56	0x3d2e8980	0.0426116
57	0xbc30498b	-0.0107597215
58	0x3cb35a70	0.02189371
59	0xbd930167	-0.07178002
60	0x3d004692	0.0313173
61	0x3d633ed8	0.055479854
62	0x3de2e2f1	0.11078442
63	0x3d11d1eb	0.035600584
64	0x3bb67882	0.005568565
65	0xbc5ab606	-0.013349062
66	0xbc2ae054	-0.010429461
67	0x3e10ccb4	0.14140588
68	0x3d0c6683	0.03427745
69	0x3dbdfb67	0.09276467
70	0xbe2853bc	-0.16438192
71	0xbe1e1f32	-0.15441588
72	0xbe282755	-0.16421254
73	0xbe0caec0	-0.13738537
74	0xbe0fd214	-0.14044982
75	0x3d610437	0.05493566
76	0xbcaae1d4	-0.020859636
77	0xbd2b4076	-0.04180952
78	0xbd9e8108	-0.077394545
79	0x3d28870c	0.041144416
80	0x3c5f9c3b	0.013648088
81	0xbd1af30a	-0.037829436
82	0x3d64e3fd	0.05588149
83	0x3b2d3c57	0.002643367
84	0x3d2cfb42	0.042231806
85	0x3d628fed	0.05531304
86	0xbd5be886	-0.05368855
87	0x3bb5a0cc	0.00554285
88	0xbcfdc08a	-0.030975599
89	0xbab8d2fa	-0.0014100962
90	0xbd8afdff	-0.06786727
91	0xbc8ada28	-0.016949728
92	0xbc5543a6	-0.013016617
93	0x3db3efe2	0.087859884
94	0xbd0b39b9	-0.033990595
95	0xbb7739e0	-0.0037723705
96	0xbdd15fec	-0.10223374
97	0xbd09bd13	-0.03362758
98	0xbdfffe47	-0.124996714
99	0xbd9ec8a8	-0.07753116
100	0xbd871d6e	-0.0659741
101	0xbd192682	-0.03739024
102	0xbdbfc9e4	-0.093646795
103	0xbd10fefa	-0.035399415
104	0xbc09a722	-0.008401664
105	0x3ccd479d	0.025058562
106	0x3dba37d6	0.09092681
107	0x3a52d832	0.000804308
108	0xbd7e7357	-0.062121715
109	0x3d89cd66	0.0672863
110	0x3dc176ba	0.094464734
111	0x3df7297a	0.12068458
112	0x3e18d7bd	0.14926048
113	0x3cce62d6	0.025193613
114	0xbb202192	-0.0024434072
115	0xbc906987	-0.017628444
116	0x3e3d2202	0.18470004
117	0x3e259273	0.16169147
118	0x3d698f23	0.05702127
119	0xbd887088	-0.06662089
120	0xbd5cc33d	-0.05389713
121	0x3d2d3cf0	0.042294443
122	0x3de1402d	0.10998569
123	0x3c610d53	0.013736087
124	0xba5035da	-0.0007942595
125	0xbdb45642	-0.08805515
126	0x3cc4a513	0.024004495
127	0xbdba9906	-0.09111218
128	0xbc54e2ad	-0.012993497
129	0x3d024cd8	0.031811565
130	0x3d4902ce	0.04907494
131	0x3ccffa7c	0.025387995
132	0xbdb7e16b	-0.08978542
133	0xbda4f934	-0.08055344
134	0xbcffc069	-0.031219678
135	0xba8e5bb6	-0.0010861072
136	0x3c92502b	0.017860493
137	0x3d7a452d	0.061101127
138	0x3dba4cb0	0.09096658
139	0x3dc51170	0.096224666
140	0x3dd25282	0.10269643
141	0x3dc2f5fe	0.095195755
142	0x3da4037c	0.08008477
143	0xbcc22066	-0.02369709
144	0xbcdccb65	-0.026952455
145	0xbb55bdf3	-0.003261444
146	0x3d060d4e	0.032727532
147	0x3d8b4336	0.06799929
148	0x3d1ea881	0.038734917
149	0x3de3266e	0.11091314
150	0xbd7c8b84	-0.06165649
151	0xbc7192dc	-0.014744487
152	0x3d00bd3c	0.031430468
153	0xbde1b8db	-0.110215865
154	0x3ca8f416	0.020624202
155	0x3d4e5e48	0.050382882
156	0xbc26468a	-0.010148654
157	0xbdb0d07b	-0.086335145
158	0xbd820744	-0.06349042
159	0x3dd86b20	0.105673075
160	0x3d5d8eb6	0.054091178
161	0xbc9a9373	-0.018869137
162	0xbd9cbff7	-0.07653802
163	0x3cc52688	0.024066225
164	0x3d3623e0	0.044467807
165	0x3d58e352	0.052951165
166	0x3c0aa059	0.008461081
167	0xbcfdf7b3	-0.031001901
168	0x3e084498	0.13307416
169	0x3e33f872	0.17575243
170	0xbdadd07f	-0.08487033
171	0xbdff6fae	-0.12472473
172	0x3d13155f	0.035909053
173	0xbbfeda2c	-0.007777473
174	0x3d2833ff	0.041065212
175	0xbc8fdf4a	-0.017562527
176	0xbd8d42e6	-0.068975255
177	0xbe050f32	-0.12994078
178	0xbbaeff20	-0.005340472
179	0x3cfe9842	0.031078462
180	0x3d0231a9	0.03178564
181	0xbc83c828	-0.016086653
182	0xbd907176	-0.07052891
183	0x3d95d069	0.07315142
184	0x3d9c95d1	0.07645763
185	0xbd5446dc	-0.05182539
186	0xbd885c9b	-0.06658288
187	0x3d0e9313	0.03480823
188	0x3db52f74	0.088469416
189	0x3cda7df0	0.02667138
190	0xbace38bc	-0.0015733461
191	0x3e0629dc	0.13101906
192	0xbd17f8de	-0.037102573
193	0x3d9e7202	0.07736589
194	0x3da8c19d	0.08240054
195	0xbd753c8d	-0.0598722
196	0xbbdcbb53	-0.006736198
197	0x3cbfe242	0.023423318
198	0x3b8e2ae8	0.004338611
199	0xbbbe6a59	-0.0058110175
200	0xbda22fc6	-0.07919268
201	0xbd20f84f	-0.039299306
202	0x3d085ee8	0.033293635
203	0xbd811d20	-0.06304383
204	0x3be71a66	0.0070527075
205	0xbc85f2d6	-0.016351145
206	0xbce0638e	-0.027391221
207	0xbdf9cd42	-0.12197353
208	0xbd168c60	-0.036754966
209	0x3d379816	0.044822775
210	0xbd1281dc	-0.035768375
211	0xbd1069a9	-0.035257015
212	0x3b835e93	0.004009077
213	0x3d239eb2	0.039946266
214	0x3d3f8a1d	0.046762574
215	0x3def31ee	0.11679445
216	0x3c2f11ce	0.010685397
217	0xbd9f845e	-0.07788919
218	0x3c82745c	0.015924625
219	0x3dc480e5	0.09594897
220	0x3bdfdb0a	0.0068315314
221	0xbd012318	-0.03152761
222	0xbe051fd4	-0.13000423
223	0xbd7d528b	-0.061846297
224	0xbd96acd1	-0.07357181
225	0x3d6c9706	0.057761215
226	0xbdc98ccf	-0.0984131
227	0xbd2e0473	-0.04248471
228	0x3d0cb8ab	0.0343558
229	0x3dad1abd	0.084523655
230	0x3c4d1b45	0.012518709
231	0xbde0afc8	-0.109710276
232	0xbbf8c9c6	-0.0075924126
233	0x3d88ff78	0.06689352
234	0x3dc4ee70	0.09615791
235	0xbd5d8f2c	-0.054091617
236	0xbd28017b	-0.041017037
237	0xbcb1f068	-0.02172108
238	0x3da69f28	0.081358254
239	0x3d0ca11f	0.034333345
240	0x3e004390	0.12525773
241	0x3c9e0cdb	0.01929324
242	0xbc886b0f	-0.016652612
243	0x3ca40911	0.020023854
244	0xbdf157dd	-0.11784337
245	0xbd83e392	-0.0643989
246	0x3d5342e1	0.051577453
247	0x3d8996bd	0.06718204
248	0x3d613e82	0.054991253
249	0xbda6ba1a	-0.08140965
250	0x3d3577be	0.04430365
251	0xbbd3f3fe	-0.006468295
252	0x3d80c498	0.06287497
253	0xbd40569f	-0.04695761
254	0xbc4d1b03	-0.012518647
255	0xbd15ab50	-0.03654033

conv2.bias f4 [16]
0	0xbd6343b0	-0.055484474
1	0xbd799782	-0.060935505
2	0xba7977dc	-0.00095164566
3	0xbdbe3fca	-0.092895105
4	0xbd83d42b	-0.06436952
5	0x3c8ba337	0.0170456
6	0x3d4dfa4c	0.05028753
7	0xbdf7f008	-0.12106329
8	0xbc482a09	-0.012217053
9	0xbcbd76c6	-0.023127925
10	0x3ced38f2	0.028957818
11	0xbcca7341	-0.02471316
12	0xbdba6602	-0.09101488
13	0x3d9e45a6	0.07728128
14	0xbd907bb2	-0.07054843
15	0x3d8d8c92	0.06911577

fc1.weight f4 [120, 256]
0	0xbd391635	-0.045187194
1	0x3cdfb67a	0.027308691
2	0xbc8a5b65	-0.016889283
3	0x3d08f81c	0.03343974
4	0xbd762daa	-0.060102142
5	0x3c36eaaa	0.011164347
6	0x3b919069	0.004442264
7	0xbd25370b	-0.040335696
8	0x3d678db6	0.05653163
9	0xbd8f36df	-0.06992888
10	0x3d6e4193	0.058168005
11	0x3d468027	0.04846206
12	0x3ba62a3a	0.005070952
13	0x3e01c965	0.12674482
14	0x3b6f0d23	0.0036476336
15	0x3d9d08e5	0.07667712
16	0xbc79a146	-0.0152362045
17	0xbd195f8c	-0.037444636
18	0x3c99e723	0.018786972
19	0x3d434fc9	0.04768351
20	0x3c96f9de	0.018429693
21	0x3d2d3128	0.042283207
22	0xbc72b7b4	-0.014814306
23	0x3d201e66	0.03909149
24	0x3d57a796	0.052650057
25	0x3d18ef82	0.037337787
26	0x3d8ba711	0.06818975
27	0x3d223218	0.039598554
28	0xbcb2c290	-0.02182129
29	0x3d942197	0.07232969
30	0x3dc1c692	0.094617024
31	0x3d096085	0.033539314
32	0xbbdc1070	-0.0067158267
33	0x3bf8d1c8	0.0075933672
34	0xbc0972a5	-0.00838915
35	0xbc4a2ac9	-0.012339302
36	0x3ddec388	0.108771384
37	0xbc59895a	-0.013277376
38	0xbd157a56	-0.03649362
39	0xbd11bc8f	-0.035580214
40	0x3dfbc6bb	0.12293764
41	0x3dbb6739	0.091505475
42	0xbd54ea37	-0.051981177
43	0xbd7b4294	-0.06134279
44	0x3de135c2	0.109965816
45	0x3aaf10f6	0.0013356495
46	0xbd07099c	-0.03296815
47	0xbd1831d7	-0.037156906
48	0xbdb5cf85	-0.08877472
49	0xbda9b78c	-0.08286962
50	0xbdafc343	-0.08582165
51	0xbd58116f	-0.052751
52	0x3d966d58	0.073450744
53	0xbd32a669	-0.043615732
54	0xbc8a0362	-0.016847316
55	0x3d5cbc87	0.05389073
56	0xbd7bfd47	-0.06152084
57	0xbd80d8ce	-0.06291352
58	0x3d300e9c	0.042982683
59	0x3d1e7454	0.038685158
60	0xbd2cd6dd	-0.042197097
61	0x3d6806de	0.056647174
62	0x3d62cfe5	0.055374045
63	0x3d691810	0.056907713
64	0x3c96bef5	0.018401602
65	0x3db66c6c	0.089073986
66	0x3b91572b	0.00443544
67	0xbd033582	-0.03203345
68	0xbd55fdd4	-0.052244022
69	0x3d644de3	0.05573834
70	0x3d66afce	0.056320004
71	0x3c80cb2e	0.015721884
72	0xbca1bb34	-0.019742586
73	0xbc826f83	-0.015922314
74	0x3d9910ef	0.07473933
75	0x3d144f75	0.03620859
76	0x3d6b46c7	0.057440545
77	0xbd8099d8	-0.06279343
78	0x3c00e550	0.007867172
79	0x3d1aba32	0.037775226
80	0xbda31d1b	-0.07964536
81	0xbd01fa29	-0.031732712
82	0x3b1a6a16	0.0023561767
83	0xbd56546f	-0.052326616
84	0xbdd71c71	-0.10503472
85	0xbcad2730	-0.02113685
86	0x3c34f750	0.011045292
87	0xbd8f4ac1	-0.0699668
88	0x3d260667	0.04053345
89	0x3d6f3206	0.058397315
90	0x3d4f126c	0.050554678
91	0xbc5b1d1c	-0.013373639
92	0xbd1039f4	-0.03521152
93	0x3d93a5be	0.07209347
94	0x3dfc9034	0.12332192
95	0x3da809b1	0.082049735
96	0xbd6d5bc3	-0.05794884
97	0xbd646dfa	-0.055768944
98	0xbd6b5885	-0.057457466
99	0xbd48127c	-0.048845753
100	0x3d33c319	0.04388723
101	0x3cffe964	0.031239219
102	0xbbcfd426	-0.0063424287
103	0xbc9ed321	-0.019387783
104	0xbd321e04	-0.043485656
105	0x3d0ac768	0.033881575
106	0xbc7a8551	-0.015290574
107	0x3d7004e3	0.05859841
108	0x3ddc055e	0.10743211
109	0x3d0f207b	0.034943085
110	0x3db34a3c	0.087543935
111	0x3d758fd4	0.05995162
112	0xbc820c78	-0.015875086
113	0xbd95d592	-0.07316126
114	0xbc8412ed	-0.016122306
115	0x3c2d6c2c	0.010584872
116	0x3df2177c	0.118208855
117	0x3d9a150f	0.07523548
118	0x3d4fb02b	0.050705116
119	0xbd3e1637	-0.046407904
120	0xbcb35e41	-0.02189553
121	0xbbd83a05	-0.0065987133
122	0x3d7ac359	0.061221454
123	0x3dd76c61	0.105187185
124	0xbdd176fe	-0.10227774
125	0xbd08e340	-0.033419847
126	0xbd6eb27b	-0.05827568
127	0x3d2c8ae2	0.042124636
128	0x3bb73a9a	0.0055917026
129	0x3cee3eaa	0.029082615
130	0x3d9e58dc	0.07731792
131	0x3dd46af6	0.10371964
132	0x3d5a5ce1	0.053311232
133	0x3d7ef1de	0.06224238
134	0x3d9b4950	0.075823426
135	0x3d2f0bde	0.042735927
136	0xbc272b61	-0.010203213
137	0x3c1716a7	0.009221709
138	0xbc12ba17	-0.0089555
139	0x3d00f342	0.03148199
140	0x3d171668	0.036886603
141	0xbdad381a	-0.08457966
142	0xbd4f25a0	-0.05057299
143	0xbdcb77f9	-0.09934992
144	0x3cea7a43	0.028622752
145	0x3c8345a8	0.016024426
146	0x3d3ccf38	0.046096057
147	0xbd677822	-0.056511052
148	0xbc7777f0	-0.015104279
149	0xbc0093c5	-0.007847731
150	0xbc94d7a2	-0.018169228
151	0xbc832bfd	-0.016012186
152	0xbc050df0	-0.008120999
153	0x3be141d6	0.0068743033
154	0xbd5c0008	-0.053710967
155	0x3c6e1ab2	0.014532732
156	0xbc517f3d	-0.012786684
157	0x3cf24f94	0.029578961
158	0x3d2477a6	0.04015317
159	0x3ddf26d7	0.1089608
160	0x3d73c138	0.05951044
161	0xbcb5e9c0	-0.022206187
162	0xbae6b030	-0.0017600115
163	0x3c2cd0a2	0.010547789
164	0xbd1f165a	-0.038839675
165	0xbda04672	-0.078259364
166	0xbd81850d	-0.063242055
167	0xbc8a6c61	-0.016897382
168	0xbd1d13c9	-0.038348947
169	0xbd340fee	-0.043960504
170	0xbd1d0977	-0.038339105
171	0x3d433cce	0.04766541
172	0x3d987abe	0.07445286
173	0x3dad084f	0.0844885
174	0x3d67a804	0.056556717
175	0x3d966634	0.073437124
176	0x3c8ed0b0	0.017433494
177	0xbc7e97dc	-0.015539136
178	0xbd08e4d8	-0.033421367
179	0x3c4dcbe4	0.012560818
180	0xbc385ad5	-0.011252125
181	0x3c5b4f04	0.013385538
182	0x3cb766b6	0.022387844
183	0xbc1a6a0f	-0.0094247
184	0x3da3f353	0.08005395
185	0x3d260abd	0.040537585
186	0x3d13f7ac	0.03612487
187	0xbc3247e2	-0.010881396
188	0xbc8e6e6d	-0.01738664
189	0x3cc6ca84	0.024266489
190	0xbb7ecd43	-0.003887967
191	0x3d33eed2	0.04392893
192	0xbb973907	-0.0046149525
193	0xbdadf133	-0.08493271
194	0xbd37767b	-0.044790726
195	0xbd43b28a	-0.04777769
196	0xbacc0fd8	-0.0015568687
197	0x3b4e8d8b	0.0031517472
198	0x3bc10616	0.005890618
199	0x3da07e94	0.07836643
200	0xbd308778	-0.043097943
201	0xbab90792	-0.0014116636
202	0x3cf15af8	0.029462323
203	0xbc5e5333	-0.013569641
204	0xbd7cc236	-0.06170865
205	0x3b6949ee	0.0035597044
206	0x3d181f67	0.037139323
207	0x3c5d1f02	0.013496162
208	0x3c698750	0.014253452
209	0x3dc7638b	0.09735783
210	0x3c0872eb	0.00832818
211	0x3bf5b944	0.007498892
212	0x3d828899	0.0637371
213	0xbadbd393	-0.0016771428
214	0xbd0514c4	-0.032490507
215	0x3a96aa5c	0.0011494863
216	0xbcea1d12	-0.028578315
217	0xbbc2c0ed	-0.0059434087
218	0x3cd4d678	0.025981173
219	0x3cd10261	0.02551383
220	0x3db010f3	0.08596983
221	0x3d92b6f3	0.07163801
222	0xbc94ba71	-0.018155308
223	0x39bbab80	0.00035795197
224	0xbd1a7937	-0.037713256
225	0xbcdfd9b0	-0.027325481
226	0x3c590609	0.013246068
227	0x3bb7c13c	0.005607752
228	0x3c7e3e55	0.015517791
229	0x3ce97941	0.028500201
230	0x3cc8e12d	0.024521435
231	0xbd121c5f	-0.035671588
232	0xbca73917	-0.020412965
233	0xbc2895b3	-0.010289597
234	0xbc3b6a4f	-0.01143892
235	0x3ddeb16b	0.108736835
236	0x3ce40607	0.027834905
237	0x3d4223bd	0.047397364
238	0xbc5a8d86	-0.013339406
239	0x3dc8c085	0.09802345
240	0x3d42f7be	0.047599547
241	0x3bb7d8a0	0.0056105405
242	0x3b9a6834	0.004712129
243	0x3cf65e3b	0.03007423
244	0x3cb5b1ea	0.022179563
245	0x3cc028bc	0.023456924
246	0xbd83e296	-0.06439702
247	0xbdd14b28	-0.10219413
248	0xbd46ec94	-0.048565462
249	0xbdeeca5c	-0.11659691
250	0x3cef66d9	0.029223846
251	0x3db0f1a3	0.086398385
252	0xbd783571	-0.06059784
253	0xbd483f88	-0.048888713
254	0x3dcc85c4	0.09986451
255	0x3b6a90ca	0.0035791867

fc1.bias f4 [120]
0	0xbc6c50ed	-0.014423591
1	0x3d86e70e	0.06587039
2	0x3cecb442	0.028894547
3	0xbd448b4a	-0.0479844
4	0x3cf9baa0	0.030484498
5	0x3c7295c4	0.014806215
6	0x3ca9bcf7	0.020719988
7	0x3d8726b9	0.06599183
8	0xbd5d4a33	-0.05402584
9	0xbd92a5be	-0.07160519
10	0xbcbae5d8	-0.022814676
11	0x3d7df806	0.06200411
12	0xbc833342	-0.016015653
13	0xbd5f14d0	-0.054463208
14	0x3da383fc	0.079841584
15	0xbd798bfe	-0.060924523
16	0xbcd98b7b	-0.026555767
17	0x3c5ab1e1	0.013348074
18	0xbc33e74f	-0.010980441
19	0xbd52c5b4	-0.051458076
20	0x3c4ddc9b	0.0125648035
21	0xbbffa6ae	-0.007801852
22	0xbd64a77b	-0.055823784
23	0x3d93c7ce	0.07215844
24	0x3cbdeace	0.023183253
25	0xbd1bc135	-0.038026053
26	0x3d133182	0.035935886
27	0xbb813d18	-0.0039440505
28	0xbd3cfa4a	-0.04613713
29	0xbcc7d46b	-0.024393281
30	0x3cb6efb4	0.022331096
31	0x3d9fbb94	0.077994496
32	0x3d46cfd8	0.04853806
33	0x3d8229e3	0.063556455
34	0x3d707ef0	0.058714807
35	0x3c8efcfa	0.017454613
36	0x3c43c54a	0.011948893
37	0x3cdfa27d	0.02729916
38	0x3d1d044e	0.038334183
39	0xbc9df47e	-0.019281622
40	0x3d34dfa5	0.044158597
41	0x3d045418	0.03230676
42	0xbb2110b8	-0.0024576616
43	0xbcabbe54	-0.020964779
44	0xbd76a8b0	-0.060219467
45	0x3d73f4a2	0.059559472
46	0x3c36f60d	0.0111670615
47	0x3d492b82	0.049113758
48	0x3dce1514	0.10062614
49	0xbcf7d87b	-0.030254593
50	0x3cc81716	0.02442507
51	0xbb9c8f91	-0.0047778566
52	0x3d82bbe6	0.06383495
53	0x3ce2cc0f	0.027685193
54	0xbcf443e0	-0.029817522
55	0x3d4c439a	0.049869157
56	0x3d6fab50	0.058512986
57	0x3d333982	0.043756016
58	0xbcbdcf59	-0.02317016
59	0x3d0f3740	0.0349648
60	0x3d50d2e9	0.05098239
61	0xbd056773	-0.03256936
62	0x3b21f796	0.0024714223
63	0x3cb380b4	0.021911956
64	0x3cd3dc1d	0.025861794
65	0x3dc0d712	0.094160214
66	0x3d743dbe	0.059629194
67	0x3d9e6bfd	0.07735441
68	0xbd031273	-0.032000016
69	0xbd00e38e	-0.031467013
70	0x3d665788	0.05623582
71	0x3d6c2a5a	0.057657577
72	0x3d0333ae	0.032031707
73	0x3d757b01	0.05993176
74	0x3c034dee	0.008014185
75	0xbd8a6964	-0.06758383
76	0x3d1dfee8	0.038573176
77	0x3d81aee5	0.063321866
78	0x3d7551e9	0.05989257
79	0xbc8ae04e	-0.01695266
80	0xbd0039da	-0.03130517
81	0x3d650ee0	0.05592239
82	0x3c4817fb	0.012212749
83	0xbbbe3caa	-0.0058055716
84	0xbd59ac26	-0.05314269
85	0xbd04f33e	-0.032458536
86	0xbd01aa7b	-0.031656723
87	0x3d4dc526	0.050236844
88	0xbd21ea74	-0.039530233
89	0x3cc6a033	0.02424631
90	0xbd8e90a5	-0.069611825
91	0xbd4a4957	-0.04938635
92	0x3d6c5fab	0.057708424
93	0xbcdbc423	-0.026826924
94	0x3d6f5323	0.058428895
95	0x3d760ada	0.060068943
96	0x3d159467	0.03651848
97	0xbb68eeef	-0.0035542806
98	0x3ce54cc7	0.027990712
99	0x3dc8db31	0.098074324
100	0x3cdeb842	0.02718747
101	0xbd28cd92	-0.041211672
102	0x3d35b88c	0.04436545
103	0xbcb890f7	-0.022530062
104	0x3a939680	0.0011260062
105	0x3d20de6b	0.039274614
106	0x3d3885c1	0.045049433
107	0xbd4f5de8	-0.050626665
108	0xbd2b3e84	-0.041807666
109	0x3d3611a1	0.044450406
110	0xbce01c02	-0.027357105
111	0x3d877e00	0.066158295
112	0xbc99243a	-0.018694032
113	0x3d8d7fa2	0.0690911
114	0xbc996ba2	-0.018728081
115	0x3cbf780d	0.023372674
116	0x3d9db9c4	0.077014476
117	0x3d28ddd7	0.041227188
118	0x3cce676a	0.025195796
119	0x3d8fd66c	0.070233196

fc2.weight f4 [84, 120]
0	0xbd63dc30	-0.05562991
1	0x3d44584b	0.047935765
2	0xbd29e3ca	-0.041477002
3	0x3da32ee9	0.07967932
4	0xbd87a436	-0.066231176
5	0x3d458bda	0.048229076
6	0x3d4fc1f8	0.050722092
7	0x3cf83052	0.030296478
8	0x3dad3019	0.084564395
9	0xbcbdb785	-0.023158798
10	0x3d87238f	0.06598579
11	0xbd139789	-0.036033187
12	0xbd207314	-0.039172247
13	0xbdac9ec0	-0.08428717
14	0xbd515b90	-0.05111271
15	0xbd9a0190	-0.07519829
16	0xbd55dfd8	-0.052215427
17	0x3cb7a852	0.022419129
18	0x3d9c5011	0.07632459
19	0xbd0d009d	-0.034424413
20	0x3c8663cd	0.01640501
21	0xbc9b0347	-0.018922461
22	0x3c8c4957	0.017124815
23	0xbbf97e82	-0.007613958
24	0x3d1f8bbd	0.038951624
25	0xbd2ad82d	-0.041710068
26	0xbdc177be	-0.09446667
27	0x3da30e0f	0.07961666
28	0x3d5f8d9f	0.05457842
29	0x3d7d7f59	0.061889026
30	0xbc2e7802	-0.010648729
31	0x3d6f1f28	0.058379322
32	0xbc27f08f	-0.010250225
33	0x3d976f94	0.07394329
34	0x3de230c4	0.110444576
35	0x3e22849f	0.15870903
36	0x3cffa6b7	0.031207426
37	0x3d944563	0.07239797
38	0x3d509a8f	0.05092865
39	0xbd8bfbaa	-0.068351105
40	0xbd6f54a3	-0.058430325
41	0xbd5ddfae	-0.054168396
42	0x3d6968f1	0.056984846
43	0xbc6c31ea	-0.014416197
44	0xbd345e28	-0.044035107
45	0xbc86292f	-0.01637706
46	0xbc19014a	-0.009338686
47	0x3d55a334	0.052157596
48	0x3d5aa308	0.053378135
49	0x3a499b84	0.0007690715
50	0x3d860eb9	0.06545777
51	0xbc01fa92	-0.007933276
52	0x3ce964d0	0.028490454
53	0xbd95528d	-0.07291136
54	0xbcf57f30	-0.029967874
55	0xbddcb370	-0.107764125
56	0xbcf3b56a	-0.02974959
57	0x3cf05420	0.029336989
58	0x3d400ff1	0.046890203
59	0xbbe905b6	-0.0071112765
60	0x3d5ef47e	0.054432385
61	0x3d98899c	0.07448122
62	0xbd5197ea	-0.051170267
63	0xbd3f365b	-0.046682697
64	0x3cbe85bf	0.023257134
65	0x3d50bef2	0.05096335
66	0x3c6b63f8	0.014367096
67	0x3cdcf52c	0.026972376
68	0xbd5eb03e	-0.054367296
69	0xbd40916b	-0.04701368
70	0xbdb9410c	-0.0904561
71	0x3d1b5a28	0.037927777
72	0x3d4cc5cf	0.049993332
73	0x3da16e4e	0.07882367
74	0xbcd91db8	-0.026503429
75	0xbd763ea5	-0.060118336
76	0x3da0048a	0.07813366
77	0x3dc3c21d	0.095585085
78	0x3ccf7149	0.025322573
79	0xbd25a6a8	-0.04044214
80	0x3d410015	0.04711922
81	0x3de41110	0.11136067
82	0x3dfd572a	0.12370141
83	0xbd9c0605	-0.07618336
84	0xbdeb6d2a	-0.11495431
85	0x3db981ff	0.09057998
86	0xbba79160	-0.0051137656
87	0xbcbc433d	-0.02298128
88	0x3d179b75	0.03701349
89	0xbd980804	-0.07423404
90	0xbbf52aeb	-0.007481923
91	0x3da56df0	0.080776095
92	0xbc9970c0	-0.018730521
93	0x3d9a9b45	0.075491466
94	0x3df217df	0.11820959
95	0x3dddeda8	0.10836345
96	0xbda637ad	-0.08116088
97	0xbd5ea666	-0.05435791
98	0x3db26d27	0.087122254
99	0xbd93ea0e	-0.07222377
100	0x3bf3d781	0.0074414616
101	0xbcedf332	-0.029046629
102	0xbd7efb48	-0.06225136
103	0x3db4e9d6	0.08833663
104	0x3db1d6b1	0.08683527
105	0xbdadbbbc	-0.08483073
106	0x3d4e6caa	0.0503966
107	0xbd96e0a7	-0.07367068
108	0xbcce9b0b	-0.025220415
109	0xbdc5db60	-0.09660983
110	0xbd764197	-0.060121145
111	0xbb94df38	-0.0045432113
112	0x3ca02eb6	0.019553524
113	0x3c81e407	0.015855802
114	0xbda08051	-0.078369744
115	0xbd7e9386	-0.062152408
116	0x3d95518e	0.07290946
117	0x3d446922	0.047951825
118	0xbd953d39	-0.07287068
119	0xbcf3969a	-0.029734898
120	0xbd7f0e32	-0.062269397
121	0xbd0ba125	-0.034089226
122	0x3c9370ec	0.017998181
123	0x3c07a0ea	0.008278111
124	0xbcd803ca	-0.026368994
125	0xbd6e615a	-0.05819831
126	0x3de72ace	0.11287461
127	0x3dab2569	0.08356745
128	0x3c8a9f4d	0.016921664
129	0xbd16552b	-0.036702316
130	0x3d78981a	0.06069193
131	0x3c16202e	0.009162946
132	0xbd110fd2	-0.035415478
133	0xbaeb5712	-0.0017955026
134	0x3dc8958e	0.0979415
135	0x3ce7bc3a	0.028287996
136	0xbd495013	-0.04914863
137	0x3dae3906	0.0850697
138	0x3c1054b9	0.008809262
139	0xbd3369b8	-0.043801993
140	0x3da4ef99	0.08053512
141	0xbce1dfd6	-0.027572554
142	0xba78f138	-0.00094963936
143	0x3e031877	0.12802301
144	0x3d7c0246	0.061525606
145	0x3c7ae6ea	0.015313843
146	0x3c530729	0.012880125
147	0x3c1aa550	0.009438828
148	0xbce0b92e	-0.02743205
149	0x3dd83365	0.10556678
150	0x3d050d74	0.032483533
151	0x3c64c0d4	0.013961989
152	0xbcbe184c	-0.023204945
153	0x3d7a208f	0.061066207
154	0xbd8a09fd	-0.06740186
155	0xbd9271ac	-0.071505874
156	0xbc3cd2e5	-0.011524891
157	0xbcb79453	-0.022409594
158	0x3c38c06c	0.011276346
159	0x3dd4554c	0.103678316
160	0xbcb3fbb5	-0.02197061
161	0x3bfcee6a	0.007718851
162	0xbd970694	-0.073743016
163	0x3cbe6bd4	0.023244776
164	0xbd52ae0a	-0.051435508
165	0x3d93be7a	0.07214065
166	0x3cab7b20	0.020932734
167	0x3daecffe	0.08535765
168	0x3dc20a51	0.09474624
169	0x3db98817	0.0905916
170	0xbd94bcee	-0.07262598
171	0xbdacb87d	-0.08433626
172	0xbc3ecdca	-0.011645744
173	0xbda9a1fa	-0.08282848
174	0x3d88dc3f	0.066826336
175	0x3d15268e	0.03641372
176	0x3cc522f8	0.024064526
177	0xbd9a89e9	-0.075458355
178	0x3db55586	0.08854203
179	0x3dcbec1c	0.09957144
180	0xbc936d7e	-0.017996546
181	0x3c814566	0.015780162
182	0x3d82df84	0.063902885
183	0x3ca4504a	0.020057816
184	0x3c384c71	0.011248694
185	0x3ccebbe0	0.02523607
186	0x3cb49366	0.022042941
187	0x3db77a64	0.08958891
188	0xbcf3072c	-0.029666506
189	0xbdddfda0	-0.10839391
190	0xbd709d48	-0.058743745
191	0x3dbf03f0	0.09326923
192	0xbcfc6474	-0.030809619
193	0xbb28789e	-0.002570666
194	0x3cbc47fd	0.022983545
195	0xbd305fce	-0.043060116
196	0x3c5fd18d	0.013660801
197	0x3ca416bd	0.020030374
198	0x3dda5581	0.1066084
199	0xbce468ac	-0.027881943
200	0x3920e1a0	0.00015342841
201	0xbb8dbd8a	-0.0043255733
202	0xbdc1207e	-0.094300255
203	0xbcb16795	-0.021655837
204	0xbda9ed83	-0.08297255
205	0xbd6b78f0	-0.05748838
206	0x3daf185a	0.085495666
207	0xbcca6054	-0.024704136
208	0x3aa91d4a	0.0012902406
209	0x3bed36da	0.007239205
210	0x3c95feea	0.018310029
211	0xbd24f26b	-0.04027025
212	0x3c9119c6	0.017712485
213	0xbd803558	-0.062601745
214	0x3d00adad	0.03141563
215	0xbd5f998e	-0.0545898
216	0x3da482b7	0.080327444
217	0x3dcdaf98	0.100432575
218	0x3d46ce25	0.04853644
219	0x3ce7918e	0.028267648
220	0x3c5b6077	0.013389698
221	0xbc65da09	-0.014029034
222	0xbd8af0c3	-0.06784203
223	0xbdb1d785	-0.08683685
224	0x3c3bd8a3	0.011465224
225	0xbc80e95e	-0.015736278
226	0xbd82d04a	-0.06387384
227	0xbcd07565	-0.025446603
228	0xbd735414	-0.059406355
229	0x3ddffede	0.10937284
230	0x3cd3f639	0.025874244
231	0x3d8a9ff2	0.067687884
232	0x3bfca0c0	0.0077095926
233	0x3dd40e01	0.103542335
234	0xbb800165	-0.0039064162
235	0xbcc735f6	-0.024317723
236	0xbd8316e6	-0.06400852
237	0x3c59cf11	0.013293997
238	0x3d35f59b	0.04442368
239	0x3d878c90	0.06618607
240	0xbd3abae0	-0.045588374
241	0xbc8891e7	-0.016671134
242	0x3d0629ba	0.032754637
243	0x3d0f0600	0.03491783
244	0xbd3755b4	-0.044759467
245	0xbb927da4	-0.004470544
246	0xbc905e11	-0.01762298
247	0x3dba5947	0.090990596
248	0xbd8e7861	-0.06956554
249	0xbd72cd12	-0.0592776
250	0x3da82c2f	0.08211552
251	0x3d17b152	0.03703434
252	0xbd47c058	-0.048767418
253	0xbd45e760	-0.04831636
254	0x3d0f0182	0.034913547
255	0xbca0e45e	-0.019640144

fc2.bias f4 [84]
0	0xbcff4f16	-0.03116564
1	0x3def6f12	0.11691107
2	0x3ba75320	0.005106345
3	0xbcb08235	-0.021546463
4	0xbdcc12dc	-0.09964535
5	0x3d96eede	0.07369779
6	0x3d931e36	0.07183497
7	0xbd992cdd	-0.0747926
8	0x3d302db0	0.04301232
9	0xbd0bbce8	-0.034115702
10	0x3db377cb	0.08763083
11	0xbd34a6b5	-0.044104297
12	0x3d978d13	0.07399955
13	0x3de75afb	0.1129665
14	0xbcb0045a	-0.02148645
15	0xbd49a4af	-0.04922932
16	0x3c9c58cb	0.019085309
17	0xbd0bd316	-0.034136854
18	0xbd032abf	-0.032023188
19	0x3d43573d	0.04769062
20	0x3de087e2	0.109634176
21	0x3d890e37	0.066921644
22	0xbda50e60	-0.080593824
23	0xbcde1684	-0.027110346
24	0x3c6e1971	0.014532433
25	0x3d001194	0.031266764
26	0xbb59104c	-0.0033121286
27	0x3d33bff6	0.04388424
28	0x3dad16ab	0.08451589
29	0xbd142648	-0.03616932
30	0x3d7a3503	0.061085712
31	0x3db8ec24	0.09029415
32	0x3dbc703e	0.09201096
33	0x3c74c4dc	0.014939513
34	0x3cf96156	0.030441921
35	0xbd3b6337	-0.045748916
36	0xbbf4563b	-0.0074565685
37	0xbb230d69	-0.002487982
38	0x3d66e70e	0.056372695
39	0x3d91fe75	0.07128612
40	0x3da2370b	0.07920655
41	0xbc18ab5e	-0.009318201
42	0xbd8ec2d2	-0.06970753
43	0xbc19886c	-0.009370904
44	0x3d90f1d5	0.07077376
45	0x3d71c33d	0.059024084
46	0x3d93c67e	0.07215594
47	0x3d469d40	0.04848981
48	0xbd2a2fac	-0.04154937
49	0xbd5834ee	-0.052784853
50	0x3d89c979	0.06727881
51	0x3dcd5791	0.100264676
52	0x3d80b6a1	0.06284834
53	0x3db1c2b2	0.08679713
54	0xbd23c76b	-0.0399851
55	0x3d959658	0.073040664
56	0xbbbffc6b	-0.005858948
57	0xbd15bac5	-0.03655507
58	0x3d5695f1	0.05238909
59	0x3d7e2ed1	0.062056366
60	0x3d7acea0	0.06123221
61	0xbd14f847	-0.03636959
62	0x3dbca6dd	0.09211514
63	0x3cc99e98	0.024611756
64	0xbbda2e60	-0.0066583604
65	0x3c5e07e5	0.013551687
66	0xbcacd030	-0.021095365
67	0x3d7fc164	0.06244029
68	0xbc80a64c	-0.015704297
69	0x3de1f91c	0.11033842
70	0x3da20cbe	0.07912587
71	0x3d64c018	0.055847257
72	0x3dcf6958	0.101275146
73	0xbb69ceba	-0.0035676197
74	0x3ca81f98	0.020522878
75	0x3dd2e786	0.10298066
76	0x3da3e489	0.08002574
77	0x3d21c3e6	0.039493464
78	0x3d10f532	0.035390086
79	0xbd5a9d28	-0.053372532
80	0xbc414a28	-0.011797465
81	0xbdb135b7	-0.086528234
82	0x3d6b9624	0.057516232
83	0x3da245ba	0.079234555

fc3.weight f4 [10, 84]
0	0xbdb1bc9f	-0.08678555
1	0xbdbdc4ca	-0.0926605
2	0xbda2fd4c	-0.07958469
3	0x3c0ccfeb	0.008594493
4	0xbdb3d368	-0.08780557
5	0x3ce40df5	0.027838686
6	0x3c643813	0.013929385
7	0xbdee638a	-0.11640079
8	0xbd8b37cc	-0.06797752
9	0xbdf54a34	-0.11977044
10	0x3c96f480	0.018427134
11	0x3b0c4b68	0.002140725
12	0xbe7d2a10	-0.24723077
13	0xbdb8772e	-0.09007107
14	0xbda16ade	-0.078817114
15	0xbda50f91	-0.0805961
16	0xbd4f1af1	-0.050562803
17	0xbe085c1d	-0.13316388
18	0x3ca6f8fc	0.020382397
19	0xbbb5c09e	-0.0055466434
20	0x3ba41124	0.005006926
21	0xbdeb9b16	-0.1150419
22	0xbd37485e	-0.04474675
23	0xbe6ab0ac	-0.22918957
24	0x3d037f76	0.032103978
25	0xbe3e5d00	-0.18590164
26	0x3ced5206	0.028969776
27	0xbde8c447	-0.11365562
28	0xbe255e1b	-0.1614918
29	0xbde823af	-0.11334931
30	0xbe190e23	-0.14946799
31	0xbda44932	-0.080217734
32	0xbe1e83eb	-0.1548001
33	0xbdccac8f	-0.099938504
34	0xbd849eb8	-0.06475586
35	0xbdd75648	-0.10514504
36	0x3b0eb9be	0.0021778191
37	0xbe1ea4b4	-0.15492517
38	0xbda63904	-0.081163436
39	0xbe475346	-0.1946536
40	0xbc13fe39	-0.009032779
41	0xbe0eb1d8	-0.1393503
42	0x3bbf0d15	0.005830417
43	0xbeb3beff	-0.35106656
44	0x3c598d60	0.013278335
45	0xbce76511	-0.028246434
46	0xbd5c82b0	-0.05383557
47	0x3da04a78	0.07826704
48	0xbd399d88	-0.04531625
49	0xbdf12b5e	-0.1177585
50	0x3d0fa2ab	0.03506724
51	0xbded7715	-0.11594979
52	0xbe400c38	-0.18754661
53	0x3caf5ea9	0.021407442
54	0x3c448b7d	0.011996147
55	0xbd62b5ac	-0.055349037
56	0xbe39e036	-0.18151936
57	0xbe2d3593	-0.16914968
58	0xbe3a1893	-0.18173437
59	0xbe458e67	-0.19292603
60	0xbe335db1	-0.17516209
61	0xbe2b5576	-0.1673182
62	0xbd73bf8d	-0.05950885
63	0xbe2c4667	-0.16823731
64	0xbdc0c780	-0.094130516
65	0xbe23061e	-0.15920302
66	0xbe4bd2ff	-0.19904707
67	0xbe307381	-0.17231561
68	0xbe2253c3	-0.15852265
69	0xbde1fd32	-0.11034621
70	0x3cf09bd8	0.029371187
71	0xbe304a40	-0.17215824
72	0xbe43b90b	-0.19113557
73	0xbe26b71f	-0.16280793
74	0xbd836d86	-0.06417374
75	0xbe468fdc	-0.19390815
76	0xbe078e70	-0.1323793
77	0xbd5a87b4	-0.053352073
78	0x3d014944	0.031564012
79	0xbdc7b65c	-0.09751579
80	0x3d299b5a	0.04140792
81	0x3d67b852	0.056572266
82	0xbdb15333	-0.08658447
83	0xbda9c94d	-0.08290348
84	0x3d1e53f8	0.038654298
85	0x3c9a5f1c	0.01884418
86	0xbbdf2b69	-0.006810595
87	0xbd15a5c0	-0.036535025
88	0xbd539a8e	-0.051661067
89	0x3bf76c70	0.0075507686
90	0xbd19a62b	-0.037511986
91	0xbe184a28	-0.14872038
92	0xbc03d972	-0.0080474485
93	0xbe1c1ac4	-0.15244585
94	0xbd284b25	-0.04108729
95	0xbdee4a08	-0.11635214
96	0xbe6fa6f2	-0.23403528
97	0xbdd0dfc2	-0.101989284
98	0xbe381f0c	-0.17980593
99	0xbe34053b	-0.1758012
100	0xbc53f860	-0.012937635
101	0xbde13f01	-0.10998345
102	0xbe0eda79	-0.13950528
103	0xbe25c143	-0.16187005
104	0x3c9ef880	0.019405603
105	0x3a484882	0.0007640199
106	0x3bd66f7e	0.0065440526
107	0x3cd268f8	0.025684819
108	0xbe09648b	-0.1341726
109	0x3cb3da29	0.021954613
110	0xbe1333a0	-0.14375162
111	0xbe26e15d	-0.16296907
112	0xbdd35b8b	-0.10320195
113	0xbc7c8f08	-0.015414961
114	0xbe260f1a	-0.16216698
115	0x3d1fd29c	0.039019212
116	0xbe436f5e	-0.19085452
117	0xbe049fb8	-0.12951553
118	0xbe31cff2	-0.17364481
119	0xbd84da48	-0.06486946
120	0xbcf0e50c	-0.029406093
121	0xbe1eca64	-0.15506893
122	0xbb861898	-0.0040922873
123	0x3cbb679b	0.022876551
124	0xbdf41c73	-0.11919489
125	0xbe9f37e2	-0.31097323
126	0xbd9d8398	-0.07691115
127	0xbee23b45	-0.44185844
128	0xbe0eaa40	-0.13932133
129	0x3d7c2a93	0.06156404
130	0x3c54acca	0.012980649
131	0x3d8a543a	0.06754346
132	0xbd3d99c4	-0.04628922
133	0xbe000cc5	-0.12504871
134	0xbcf641c8	-0.030060664
135	0xbcf17c62	-0.029478256
136	0xbda1308d	-0.078705885
137	0xbc625018	-0.013813041
138	0xbcda5622	-0.0266524
139	0x3c38c56e	0.01127754
140	0xbe145c0a	-0.14488235
141	0xbe8eadee	-0.27867073
142	0xbc286d28	-0.010279931
143	0xbc7d42fe	-0.015457867
144	0xbde74040	-0.112915516
145	0xbbe19a3c	-0.0068848412
146	0xbe4d6d62	-0.20061257
147	0xbd801f97	-0.06256025
148	0xbdc2be06	-0.095089
149	0xbe245878	-0.16049373
150	0xbca81196	-0.020516198
151	0xbd461998	-0.04836425
152	0xbe02c5d6	-0.12770781
153	0xbd2a65b5	-0.0416009
154	0x3d01dafb	0.031702977
155	0xbd66c2ed	-0.05633824
156	0xbc42c220	-0.011887103
157	0xbc25a7f8	-0.010110848
158	0xbcdaff46	-0.026733052
159	0x3c82cdf8	0.015967354
160	0xbd2c00d6	-0.041992985
161	0xbd9c18c7	-0.076219134
162	0xbdb45c0f	-0.08806621
163	0xbd417544	-0.047230974
164	0x3c9c708d	0.019096637
165	0x3c415b05	0.011801486
166	0xbe4b526f	-0.19855665
167	0xbe2f5a9c	-0.17124408
168	0xbd8bcad0	-0.06825793
169	0xbdb8e94f	-0.09028875
170	0x3c4a34c6	0.012341684
171	0xbd482194	-0.048860148
172	0x3cfeac48	0.03108801
173	0xbdc028ac	-0.093827575
174	0xbe088b5c	-0.13334411
175	0xbdf13f27	-0.117796235
176	0xbdc58c57	-0.09645908
177	0xbdf033e1	-0.11728645
178	0xbdfec9c1	-0.12440825
179	0x3ce41582	0.027842287
180	0xbde85d8a	-0.11345966
181	0xbe395f12	-0.18102673
182	0xbe05c0cc	-0.13061827
183	0x3cd1001f	0.025512753
184	0xbd93594b	-0.07194766
185	0xbdcab2fe	-0.09897421
186	0xbe3bf9aa	-0.18356958
187	0xbe6d3c1c	-0.23167461
188	0xbdfcb64c	-0.12339458
189	0xbde509cd	-0.1118351
190	0xbca623dd	-0.020280773
191	0xbe25f260	-0.1620574
192	0xbc0e30be	-0.008678613
193	0xbcce06d7	-0.025149746
194	0x3d2328b7	0.03983375
195	0x3ac135b5	0.0014740737
196	0xbd77c064	-0.060486212
197	0xbdced528	-0.1009925
198	0xbe063111	-0.13104655
199	0xbd6e9061	-0.05824316
200	0xbe082995	-0.13297112
201	0x3ccfc6d0	0.025363356
202	0xbc302278	-0.0107504055
203	0x3c29ffb0	0.010375902
204	0xbe11b535	-0.14229281
205	0xbc0af039	-0.008480125
206	0xbe3496c4	-0.17635638
207	0xbddf4b44	-0.10903028
208	0xbe291386	-0.16511354
209	0xbda58a78	-0.080830514
210	0x3d07b845	0.033134717
211	0x3bd718a8	0.0065642186
212	0xbd844ffb	-0.064605676
213	0x3d06083e	0.032722704
214	0xbddfdcd5	-0.10930792
215	0x3c8fc582	0.017550234
216	0xbe143d19	-0.14476432
217	0xbe3df528	-0.18550551
218	0x3d1e31e1	0.038621787
219	0xbd6a4fbf	-0.057204958
220	0xbd15b75f	-0.03655183
221	0xbe0d5a01	-0.13803865
222	0xbce411ec	-0.027840577
223	0xbe1da64c	-0.15395468
224	0xbd4e5394	-0.050372675
225	0xbe84d14a	-0.25940925
226	0xbe315f2a	-0.17321458
227	0xbe35e1f0	-0.1776197
228	0xbe3b80c7	-0.18310843
229	0x3cc099da	0.023510862
230	0xbe429fac	-0.19006222
231	0xbe2137de	-0.15743968
232	0xbe0c5ec2	-0.13708022
233	0xbe3f7c34	-0.18699723
234	0xbc70041a	-0.014649415
235	0xbe3497c3	-0.17636018
236	0xbe2737cb	-0.16329877
237	0x3d2c2e7a	0.04203651
238	0x3ca900b0	0.02063021
239	0x3d25c653	0.04047234
240	0xbd58317e	-0.052781574
241	0xbc202549	-0.0097745145
242	0x3dc3039c	0.09522173
243	0x3d0b4341	0.033999685
244	0xbdd17859	-0.102280326
245	0xbe223e32	-0.15844038
246	0xbd18dc94	-0.037319735
247	0x3cd11458	0.025522396
248	0xbdf10614	-0.117687374
249	0x3c84c43d	0.016206855
250	0xbe1bd94d	-0.15219612
251	0xbd68e7b5	-0.056861598
252	0xbe0dc517	-0.13844715
253	0xbe2a7277	-0.16645227
254	0xbbd49c60	-0.006488368
255	0xbe0944a2	-0.13405088

fc3.bias f4 [10]
0	0xbde4435c	-0.1114566
1	0xbdb27ba0	-0.08714986
2	0x3bc35336	0.0059608473
3	0xbe31abce	-0.17350695
4	0xbe332d03	-0.1749764
5	0xbe1fa2a3	-0.15589385
6	0xbdad07e0	-0.08448768
7	0xbcbe6607	-0.02324201
8	0xbdd87edb	-0.10571071
9	0x3ca3e755	0.020007769
