models/server-2.pth (torch, 181254 bytes, 10 tensors)

conv1.weight f4 [6, 1, 5, 5]
000000 8b d6 7e 3e 80 70 89 3c b4 f5 6d be d8 8d c8 bd
       0.24886529 0.016777277 -0.2323826 -0.097926795
000010 5c 8b 44 bc 8b ce 4c 3e 0a 64 89 3a 29 8e 35 be
       -0.0119961165 0.20000665 0.0010482084 -0.17730011
000020 0a 86 24 be fe cd b3 3c 8a 95 31 3e 17 19 e6 bd
       -0.16066757 0.02194881 0.17342201 -0.11235254
000030 df 55 1d be fc 90 c2 bd ad b3 bb 3d 32 73 a8 3e
       -0.15364788 -0.0950031 0.0916513 0.32900387
000040 e9 d8 2c 3e 02 9e 03 3e 3f e6 30 be 7e b6 bb bd
       0.1687962 0.12853244 -0.17275332 -0.09165667
000050 4e ce 93 3e d3 40 77 3d 06 bf f6 3b e5 65 ce 3d
       0.28868335 0.060364556 0.007530096 0.100780286
000060 fc 68 4f 3e 70 81 b0 bd 83 c1 0c 3e 6c 6b 00 3d
       0.20254892 -0.08618438 0.13745694 0.031352445
000070 c7 1d 00 3e 61 33 a8 3c 7e 14 81 3e 02 6b 99 3e
       0.12511359 0.020532312 0.25210947 0.29964453
000080 29 11 36 3d 3c 93 87 3e 3e 00 a1 3d b8 d7 01 3e
       0.04444996 0.26479518 0.07861374 0.12679946
000090 8f 78 0c 3e d0 ec b6 3e 11 87 ad 3d 9e 4b c5 bc
       0.13717864 0.3572755 0.084730275 -0.024083909
0000a0 fb fb 6d 3e 7e 35 c6 3d d4 50 d7 bb 09 99 57 3e
       0.23240654 0.096781716 -0.0065709148 0.21054472
0000b0 fa 35 54 3d 50 7b 2f 3e 80 a2 17 ba 93 6e 8c 3c
       0.05180929 0.17136884 -0.0005784407 0.01714257
0000c0 4e a2 d2 bb 06 54 89 3e 68 f0 45 3e 7e 20 53 3e
       -0.0064280396 0.26821917 0.19329989 0.20617864
0000d0 fa 9e 57 3d 90 8e 06 be a3 f2 11 be 27 df 0c 3e
       0.052641846 -0.13140321 -0.14252715 0.13757001
0000e0 1e 22 f5 bc ea e7 45 3d 56 f3 21 be 13 7f e3 bd
       -0.029923495 0.048316874 -0.15815482 -0.11108222
0000f0 be 07 91 3e ac 5d 35 3e 2d e0 e1 3d 90 4d 07 be
       0.2832622 0.17711514 0.11029086 -0.13213181
000100 d7 f7 1d 3d 20 f0 80 3e 94 bd 5b 3e a8 13 f7 3d
       0.038566437 0.251832 0.21459037 0.12064296
000110 5b aa 12 3b 4e 54 0f 3d 2a 33 83 3c f8 6f 0d bd
       0.0022379372 0.03499251 0.016015608 -0.03453061
000120 e8 19 05 3d 48 bb 7e 3e d1 31 7f 3e 6f e6 98 bc
       0.03249541 0.2487613 0.24921347 -0.018664567
000130 f7 57 60 be 02 f2 82 3d b9 66 9c 3e d2 81 6b 3d
       -0.21908556 0.063938156 0.3054712 0.057496853
000140 62 33 74 be fb 03 fb bd 75 f1 31 3d 06 0e 7d 3e
       -0.23847726 -0.122566186 0.043443162 0.24712381
000150 8e b9 00 be a8 cc 21 be 28 8f d3 3d f4 6a 15 3e
       -0.12570783 -0.15800726 0.10330039 0.1459158
000160 0a 50 99 3e f0 50 16 be 68 a1 2a 3d ef e5 df 3c
       0.29943877 -0.14679313 0.041657835 0.02733132
000170 50 a6 b2 3c 6a e4 58 3e 7c 39 27 be 29 7d 87 3e
       0.02180782 0.21180883 -0.16330522 0.26462677
000180 98 8c 95 bd ae 58 93 3e 34 c2 b1 bd 89 87 e7 bb
       -0.07302207 0.28778595 -0.086796194 -0.0070657176
000190 10 bd bf 3c aa d4 4c be 96 35 0f be f2 09 db bd
       0.023405582 -0.20003 -0.13985285 -0.10695256
0001a0 8a aa 7b be b0 61 74 3e c7 b6 76 3e 05 72 17 3d
       -0.24576774 0.2386539 0.24093162 0.036973972
0001b0 a0 9c 49 be 00 e7 50 be 41 ce 8d bd ac c0 2a bc
       -0.19688654 -0.2040062 -0.069241054 -0.010421913
0001c0 a0 8e ba 3d 52 7e 8d 3d 19 eb 72 3d e0 2c 38 bd
       0.09109235 0.06908859 0.059306238 -0.04496467
0001d0 bb c1 ca 39 93 f1 1e 3e 94 7d 8e 3e 2a 40 17 3e
       0.00038672783 0.15521841 0.27830184 0.1477057
0001e0 15 20 b1 3d 0e f4 80 3e 72 f2 a7 3e 7e fa 92 3d
       0.08648697 0.251862 0.3280216 0.07176684
0001f0 20 d4 a9 3d 73 cf 74 3e cb a9 a6 3d 2a 48 88 3e
       0.08292413 0.2390726 0.08137854 0.26617557
000200 eb c6 24 3e 00 83 65 be 84 33 af bd 0a a8 5c 3e
       0.16091506 -0.22413254 -0.08554748 0.21548477
000210 f2 8f e2 3d dc 81 96 bd ce b7 31 be ea 79 cd 3d
       0.11062612 -0.073489875 -0.17355272 0.10033019
000220 58 80 0d 3e 3e 7e 92 3d 34 08 c5 3d 80 05 1f 3d
       0.1381849 0.07152985 0.09620705 0.038823605
000230 1a 17 fb bc 26 53 2c 3e 44 88 72 3e 96 58 23 bc
       -0.030650664 0.16828594 0.23684794 -0.009969851
000240 b1 fb 84 bd 91 fa 6b 3e a7 af ae 3c 86 24 83 3e
       -0.06493319 0.23044802 0.021323992 0.25613803
000250 a8 0c 1a be f2 f6 67 bd
       -0.1504389 -0.05663199

conv1.bias f4 [6]
000000 4a 07 a1 bc 4b bc 64 bd 58 2b 01 be 8e 53 3b be
       -0.019656796 -0.055843633 -0.1261419 -0.18293592
000010 fb 4b 05 bd 11 a8 02 3d
       -0.032543164 0.031898562

conv2.weight f4 [16, 6, 5, 5]
000000 56 5a b5 3c 50 df 65 3d e2 4c 37 3d c4 67 76 3d
       0.022137802 0.05612117 0.044751056 0.060157552
000010 40 5a 1c b8 0d 5d a6 bd e6 4b a9 3c 7c f2 e0 3d
       -3.727735e-05 -0.08123217 0.020666074 0.1098375
000020 de f3 07 3d 90 c5 a9 bd 59 a3 4b be 94 1c e3 3c
       0.033191554 -0.08289635 -0.19886531 0.027723588
000030 67 06 0f 3e 2e 31 93 3c 48 eb ad b9 eb 1b db bd
       0.13967286 0.017967787 -0.0003317243 -0.10698684
000040 ae 6b 29 bd 79 3c ac 3d 0e 26 08 3e 3a 14 d8 bd
       -0.041362457 0.08409972 0.13295767 -0.10550733
000050 fc e0 a9 bc 4e 8d aa 3d 24 12 25 3e 22 ab 19 3e
       -0.020737164 0.08327733 0.16120201 0.15006688
000060 0a c1 cf bc e8 37 bc bd 80 12 02 be eb 93 37 3d
       -0.025360603 -0.09190351 -0.1270237 0.0448188
000070 de 43 c9 3c fa fd 20 bd 8a 81 d5 bd f4 ab 8c bc
       0.024568494 -0.03930471 -0.10425098 -0.017171837
000080 66 0e 7a 3c 26 4c b1 bd 20 12 1e bd a6 e3 83 3d
       0.015262222 -0.08657102 -0.038591504 0.06439905
000090 8d e6 d5 3b e2 a3 ea bc 2a ab 0a 3d f0 24 68 bd
       0.006527728 -0.028642599 0.03385464 -0.05667585
0000a0 af b6 89 3d 56 41 8d 3d 52 b5 98 3b fb 1d 8d bd
       0.06724297 0.068972275 0.004660287 -0.06890484
0000b0 ec 4d 42 3d d6 6c 8d 3d df 90 50 3d 19 71 ba 3d
       0.047437593 0.069055244 0.05091941 0.09103603
0000c0 a0 90 83 3c 10 0c 9f bd f2 46 a7 bc c1 59 a5 bd
       0.016060174 -0.077659726 -0.020419572 -0.0807376
0000d0 2a f1 5e bd 27 c6 20 3c f7 c9 97 bd 45 16 a0 3c
       -0.05442921 0.009812868 -0.074115686 0.019541869
0000e0 3a f7 44 3d 75 97 08 bd 44 5f 64 3c e5 74 90 bd
       0.048087336 -0.033347566 0.013938729 -0.07053546
0000f0 26 01 0b be 10 d2 45 3c d6 52 12 3d 28 b6 41 bc
       -0.13574657 0.012074009 0.03572353 -0.011823215
000100 28 df 0d 3d 5e 6e 00 bd 89 1f f8 3d 9e 12 94 3d
       0.034636647 -0.031355254 0.1211539 0.072301134
000110 07 ae 1c 3d bc a1 92 bd 50 34 81 3d 95 e9 d8 3d
       0.038251903 -0.07159755 0.06308806 0.10591427
000120 60 b9 01 3e f4 e3 ca 3d 2a 72 36 bc 48 87 49 3d
       0.12668371 0.0990676 -0.011135617 0.04920128
000130 b2 cf 6a bd 41 12 b9 3d 7f 78 d2 3d 6d 62 c7 3d
       -0.05732698 0.09036685 0.10276889 0.0973557
000140 84 5c d7 bc 90 88 09 3e dd 2e 95 bc b1 31 17 bd
       -0.026289232 0.13431 -0.018210823 -0.036912624
000150 7f a2 0b 3d 90 8b 0a bc 79 4a b6 3d 6d 92 c6 3c
       0.034090515 -0.008456126 0.08900923 0.024239743
000160 a0 33 2a 3d 44 0b 7d bd a6 24 d3 3d e0 e0 01 3e
       0.04155314 -0.06177832 0.103097245 0.12683439
000170 4e bf 82 bd 4c 4c 80 3d 2d 34 a2 3d 59 2e c2 3d
       -0.06384145 0.062645525 0.07920108 0.09481496
000180 f1 b1 e9 3d df 2c c3 bb 2c 8c 48 3c e0 fd 4b 3a
       0.11410893 -0.005956277 0.012240451 0.0007781666
000190 4e a4 6b bd 62 fd 9b bc 65 83 08 be 7a 7d b6 bc
       -0.05752974 -0.01904172 -0.13331373 -0.022276629
0001a0 30 7d 6e bd 8f 4f 24 bd 94 ad da bc b2 78 13 3c
       -0.058224857 -0.040114935 -0.026694097 0.009000944
0001b0 3c ba 82 bb 84 ba a7 3d 8d 16 15 be 30 f8 a4 bd
       -0.003989486 0.08189872 -0.14559384 -0.080551505
0001c0 45 7c ba bd 03 2f 8a bd 44 0d 8e bd fe 22 58 be
       -0.09105734 -0.06747248 -0.06936124 -0.21107098
0001d0 3d 98 bd 3c 0d 78 aa b9 b6 17 61 3b 96 0f 73 3d
       0.023143882 -0.00032514372 0.0034346408 0.059341036
0001e0 5c 02 4d be c6 44 89 bc 98 0c dc 3d d5 a8 69 3d
       -0.20020431 -0.016756427 0.107445896 0.057045776
0001f0 75 c0 b5 3d c8 a0 0c be 7e 27 cd bc 61 d7 12 3d
       0.08874599 -0.13733208 -0.025043245 0.035849933
000200 46 21 04 bd 7a 09 99 bd d4 b6 bd bd b4 6c ec 3d
       -0.032258295 -0.07472511 -0.09263387 0.11544171
000210 37 85 b3 3b c6 24 71 bd f8 83 fe bc b7 5f c9 3c
       0.005478527 -0.05887296 -0.031068787 0.024581773
000220 a6 65 c1 3d 88 60 41 3c 4b 1c 1e bd 26 7a ce bc
       0.09443216 0.0118028 -0.0386012 -0.02520473
000230 da e2 83 bd ec 3f 10 3d 0e 84 92 3d 6a fb 9c bd
       -0.06439753 0.03521721 0.07154094 -0.07665141
000240 08 12 e6 3c 91 a7 69 bd c5 10 d2 3d 40 b5 c4 3d
       0.02808477 -0.05704457 0.10257105 0.09604883
000250 69 bf 3c bd 00 92 1f bc 2f 09 4e 3c 9c 5f da bd
       -0.04608098 -0.009739399 0.012575432 -0.10662767
000260 46 e7 a5 bd e2 26 8e bd ae 04 71 bc 6a ce f6 3c
       -0.081007525 -0.0694101 -0.014710588 0.030127723
000270 21 ca 41 bc b7 bd 46 3d 3c 45 41 bd bb a5 ce 3d
       -0.011827976 0.04852077 -0.047185168 0.10090204
000280 70 f6 66 3c e8 ba e9 3d d4 66 ec bc 5e 4a 2f bb
       0.014096841 0.11412603 -0.028857626 -0.0026747207
000290 8e f8 c4 3c c0 c0 4a 3d 29 53 0c 3e 88 44 76 3c
       0.024044301 0.049500227 0.13703598 0.015030988
0002a0 c0 64 d3 3d ce 34 f6 3d bd ae ec 3d 22 07 f1 b9
       0.10321951 0.120217904 0.11556766 -0.00045972416
0002b0 14 51 fb 3d e4 84 69 3d 10 e5 cd 3d 60 07 ba bd
       0.12271324 0.0570115 0.10053456 -0.09083438
0002c0 91 36 fa bd 79 c9 0a be b6 e2 07 be 19 cc c7 bd
       -0.12217439 -0.13553418 -0.13270077 -0.097557254
0002d0 c8 d4 ce bd 78 2d 14 bc bb d3 e7 bd d4 e3 f8 bc
       -0.100991786 -0.009044044 -0.11319681 -0.030382074
0002e0 1e 4f cc 3b 7a 9a 81 bd 8a b3 2e 3d 20 74 83 bc
       0.0062350174 -0.06328292 0.04265169 -0.016046584
0002f0 98 9b 42 bd 31 30 1f 3d 9d ff d0 3d 08 5e a6 3c
       -0.047511667 0.03886432 0.10205004 0.02030851
000300 63 a3 4a 3d 49 b8 08 3d e1 d1 f0 3d 85 23 06 3e
       0.049472224 0.033378873 0.11758781 0.13099487
000310 60 b9 2a 3e fa a2 a6 3d 3c bc 91 3d 4c 35 d9 3d
       0.16672277 0.08136554 0.07115981 0.10605869
000320 74 d5 e0 bc dc 21 bb bd 9d 8a ab bd 25 10 d8 3c
       -0.027445532 -0.091373175 -0.08376048 0.026374886
000330 2f 1f ce bd c6 dd c8 3c b8 f1 e3 bd 09 25 45 bd
       -0.100645415 0.024519812 -0.111300886 -0.048131023
000340 48 74 ef bd b9 b5 ce bd 0b bd 07 3e 58 c6 69 3b
       -0.11692101 -0.100932546 0.13255708 0.00356712
000350 89 65 0b bd 3f 77 44 3d 04 55 f1 bc df 47 28 3e
       -0.03403238 0.047965284 -0.029459484 0.16433667
000360 73 0e 1b 3d 81 24 94 3d 06 80 d7 3d 53 4c 26 3d
       0.037855577 0.07233525 0.105224654 0.040600132
000370 8b 21 b9 3d f6 0a 28 3d cc 29 06 3e 01 de 05 3e
       0.09039601 0.04102608 0.13101882 0.13072969
000380 27 17 94 3d 5d 87 18 3d b1 24 66 3d 61 c5 86 bc
       0.072309785 0.037238467 0.056187335 -0.01645154
000390 2a 90 14 3d 17 39 71 3c 81 30 dc 3b 28 8e ed b9
       0.036270298 0.014723084 0.0067196493 -0.00045310077
0003a0 ab a9 01 be 5e 4f 80 3d 84 6e c3 bb 5d bb 99 3d
       -0.1266238 0.06265138 -0.005964102 0.0750644
0003b0 a6 07 93 3c 6a d7 7f 3c 61 b6 81 3d e5 ca 94 bc
       0.017947983 0.015615324 0.06333614 -0.018163154
0003c0 5c 84 5f 3d 92 a5 7f bc 18 1a 98 3d 37 40 c0 3d
       0.054569587 -0.01560344 0.07426852 0.09387248
0003d0 b7 a0 d7 3a 4e 61 44 3d a3 81 e5 3d a8 8d c7 bb
       0.0016451095 0.04794436 0.11206367 -0.006089885
0003e0 32 46 74 3c 1d 54 3a 3d 0e 92 c7 bd f0 fa 99 bd
       0.014909314 0.045490373 -0.097446546 -0.07518566
0003f0 ff 65 3f bd bd 0a 8a bd 00 dd 4a b9 27 10 2b 3d
       -0.04672813 -0.067403294 -0.0001934655 0.04176345

conv2.bias f4 [16]
000000 18 4b 7d bd 30 d3 03 bc 13 3e 59 bd 0d c8 0b bd
       -0.061839193 -0.0080459565 -0.053037714 -0.03412633
000010 28 24 b5 bd 8f 72 8a bd 7f 37 4a bd f4 d6 9c bd
       -0.08844787 -0.067601316 -0.04936933 -0.076581866
000020 39 8b 92 3c 5a b3 2d bd d8 1f 70 3c 6d 4e 5c 3c
       0.017888652 -0.04240737 0.01465603 0.013446433
000030 21 d2 97 3c 78 cc 29 bd ff 50 30 3c fc 8f d9 bc
       0.018532814 -0.041454762 0.0107614985 -0.026557915

fc1.weight f4 [120, 256]
000000 b5 3e 9a bb ae b9 9d 3d a2 04 4f bc 06 f1 1a 39
       -0.0047071823 0.07701431 -0.012635382 0.00014776373
000010 65 10 f1 3d f4 58 b5 3b ee 51 71 3d ab e8 28 bd
       0.11770705 0.0055342857 0.058916025 -0.041237514
000020 42 e2 16 3d 4a a4 d0 3c 6b 58 e9 bb 42 94 52 3d
       0.03683687 0.025468964 -0.007121136 0.05141092
000030 bd 9f 9c bc b6 7b e1 bd b3 6f 33 bc 54 13 9e 3c
       -0.019119138 -0.11009924 -0.010951924 0.019296326
000040 86 89 68 bc 47 97 b7 3d bd dd a4 3c 62 a9 17 3d
       -0.014192944 0.08964401 0.020125264 0.03702677
000050 4d 2b a2 3c 91 71 31 3d 3b 25 5d 3c a3 76 e5 bc
       0.019796038 0.043321196 0.013497646 -0.028010672
000060 cc 34 2d 3c 10 07 34 3c c2 b4 8e bd f8 0b 74 bc
       0.01057167 0.010988012 -0.069680706 -0.014895432
000070 a0 ef f2 bc 96 01 af 3d 13 a8 1f 3d 07 b7 0b bd
       -0.029655278 0.08545224 0.038978647 -0.034110095
000080 8c a7 b1 bd 77 fc e5 3c 52 c0 f7 3c bd 81 38 3d
       -0.08674535 0.028074486 0.030243073 0.045045603
000090 d7 69 b9 3d 62 9d c5 3d d8 b4 38 3d 64 a8 89 bd
       0.090533905 0.09649159 0.04509434 -0.06721571
0000a0 6e 08 fc bc d6 e2 2d 3d d0 42 cc bb 14 e2 90 bc
       -0.030765738 0.042452656 -0.0062335506 -0.017685927
0000b0 7b ca f3 3c 91 9c c6 bc 2a de 4e bd f1 a2 b8 3c
       0.029759636 -0.024244579 -0.05050484 0.022538634
0000c0 6c 15 b3 3d 29 2e f9 bb 6e 6b d6 bc 8a e3 c7 bd
       0.0874432 -0.0076043797 -0.026174273 -0.097601965
0000d0 14 58 83 3d 97 9e 45 bd 64 ad c7 3c f2 41 74 bd
       0.06413284 -0.048246946 0.024374671 -0.059633203
0000e0 b3 aa 2c 3d 50 02 ae 3c 36 9f be 3d de 5c 2f 3b
       0.04215498 0.021241337 0.09307711 0.0026758234
0000f0 8e a8 5c bc 1c 78 71 3d 50 d6 c1 3d 4a db f8 3c
       -0.013467921 0.058952436 0.09464705 0.030378003
000100 34 18 a5 3c 46 c0 c4 bb 8a 69 3f 3d 08 67 c8 3c
       0.020153143 -0.006004366 0.04673151 0.024463192
000110 b4 cd 46 3b a4 4a 08 3d 7c 03 27 bd 6f 7d 60 3c
       0.003033501 0.033274308 -0.040774807 0.013701781
000120 62 fc 52 3d 92 41 14 bd 34 57 2d 3d a8 bd 94 bd
       0.051510222 -0.036195345 0.04231949 -0.072627366
000130 1f 73 1f bc d0 1f 48 3c 30 4b 2b 39 6b a5 ab bc
       -0.009732037 0.012214616 0.0001633584 -0.0209529
000140 10 a8 13 bd 5d f1 97 3c b8 4b b5 bd 6b 8d d0 ba
       -0.03604895 0.018547708 -0.08852333 -0.0015911286
000150 9c a4 98 3d b1 7b 31 bd 68 4c 0f bd e2 c6 1a 3c
       0.07453272 -0.043330852 -0.034984976 0.009446831
000160 04 95 8f 3d 68 a5 44 3d 9d 64 91 3d 82 bf 83 ba
       0.07010844 0.048009306 0.070992686 -0.0010051581
000170 73 c3 06 3c 2d ed 40 3d 80 95 74 3d 74 9e a4 3c
       0.00822531 0.04710119 0.059712887 0.020095088
000180 55 0e 96 3c eb 46 c6 bc 36 ca ec bc db 8b d0 bc
       0.01831738 -0.024203738 -0.028905015 -0.025457313
000190 10 3c 85 3d 38 26 7d bc 40 f7 6c 3b d2 3e be bc
       0.06505597 -0.015451007 0.0036158115 -0.023223314
0001a0 d6 74 a9 ba ad ab 98 3d ef 42 aa 3c 93 57 02 3c
       -0.0012928497 0.074546196 0.02078387 0.00795545
0001b0 7a 9e 21 3d 1f f1 14 bd 86 b7 5a 3c 7c 37 85 3d
       0.039457776 -0.036362763 0.013349419 0.065047234
0001c0 57 db 4d bd 36 42 a5 bd a6 12 99 bd 9d 41 a5 bd
       -0.050258007 -0.08069269 -0.0747426 -0.08069155
0001d0 df 4a 0d 3d 72 e2 37 3d a8 d0 ca 3b ec 0a f5 bb
       0.03449523 0.04489369 0.0061894245 -0.0074781086
0001e0 46 72 9d 3d 03 45 ba 3d 1a b1 da 3d 31 13 8f 3c
       0.076878116 0.09095194 0.10678311 0.017465206
0001f0 e0 f5 be bc de 78 14 3d 13 f4 41 bb 96 7c 8d bd
       -0.023310602 0.03624808 -0.0029594942 -0.069085285
000200 26 cb d0 bb c2 27 01 3d 98 e7 47 bc e8 1c 10 3d
       -0.0063718734 0.031532057 -0.012201212 0.035183817
000210 c8 c9 08 39 0f 8d 1e 3d da a9 83 3d fe 1a 21 bc
       0.0001304514 0.038708743 0.06428881 -0.009833096
000220 ef 0d d4 bc 23 b6 35 3d a9 9d 9f bc 8c c1 5f bc
       -0.02588555 0.044363152 -0.019484358 -0.013656985
000230 fe 79 b8 3d 05 77 24 3d 05 94 8b 3d de ba 31 bc
       0.09007643 0.04015257 0.06815342 -0.010847775
000240 ed 5f 03 3e 69 31 f7 3d b6 59 56 3b 9e 2e 5f bd
       0.12829562 0.12069971 0.003270728 -0.054487817
000250 97 52 9a 3d 32 c3 92 3d b0 39 1c bd 76 45 50 bc
       0.07535284 0.07166137 -0.038140953 -0.012711873
000260 48 e3 e8 3c 90 4b 4b 3c 71 65 23 3d 16 08 a5 3c
       0.028428689 0.012408152 0.039891664 0.020145457
000270 42 66 20 bd 86 c6 de 3b 7c c9 c3 bb 7c b0 93 3d
       -0.03916002 0.006798568 -0.0059749465 0.07211396
000280 eb dd 82 bd 5d b3 9e bc 37 7e 58 bc b2 36 35 3d
       -0.06389984 -0.019372636 -0.013213686 0.044241615
000290 36 d6 b6 bb 65 6e 82 3d bf 2d cc 3d 22 3c a8 3c
       -0.005579735 0.06368712 0.09969663 0.020536486
0002a0 0d fd 13 3d 0c 61 d2 3c e3 47 51 3d 0d 62 52 3c
       0.03613 0.025681041 0.051093947 0.01284076
0002b0 42 e8 0c 3d 22 14 88 bd f8 a6 92 bc 0e 55 2d bd
       0.034401186 -0.06644465 -0.017901883 -0.042317443
0002c0 68 be f4 3d 1c 33 d6 3d c1 e7 61 bd c8 4b c8 bd
       0.119503796 0.10458967 -0.05515266 -0.09780079
0002d0 55 d4 15 3d d8 35 b2 bc d2 b3 d4 ba 2a f2 6c bd
       0.03657945 -0.02175419 -0.0016227907 -0.057848133
0002e0 dd b9 58 bd 7a fe 0c bd 92 20 c2 3d 6b 90 f8 3c
       -0.052911628 -0.034422375 0.094788685 0.030342301
0002f0 fe 1f 97 bd d9 5c 91 3b 38 49 c6 3c 6e a3 b2 3d
       -0.07379149 0.004436117 0.024204835 0.08722578
000300 b4 1e a1 3d 8f 15 56 3d 75 8c 63 3d a0 38 9a 3c
       0.07867184 0.052266654 0.055553872 0.018825829
000310 ba b1 17 3d b4 3e 8d 3d 40 6a 40 3d 3a 7d 74 bd
       0.037034728 0.06896725 0.046976328 -0.059689738
000320 b9 c0 82 bd 30 a6 b1 bd 8a d4 83 bd d4 bb 29 3c
       -0.06384415 -0.08674276 -0.06437023 0.010359723
000330 3d ce 03 be 84 cd dc 3c 6f 77 69 3c 94 da c7 bc
       -0.12871642 0.026953466 0.014249667 -0.024396218
000340 07 3a 9b bc 3d 6a f3 3c 79 2e a9 bd 50 d9 f3 bc
       -0.018948568 0.029713744 -0.08260817 -0.029766709
000350 15 ef a6 3d bd 00 76 3d 2a f7 99 3c d5 45 fb bc
       0.0815107 0.060059298 0.018794615 -0.030672947
000360 2d df 8c 3d da c7 c1 3b cf 56 09 3c 1d a7 03 3d
       0.06878505 0.0059137167 0.008382513 0.032141794
000370 12 59 db bc 56 8c 59 bc df 16 83 3c 19 a0 0e 3c
       -0.02677587 -0.013278088 0.016002117 0.008705162
000380 15 5c 37 3c aa ee e3 3c e4 04 0f 3d 07 0a ce 3d
       0.011191388 0.027823765 0.034916773 0.10060506
000390 c4 eb 7c bb 4f 79 7a 3c 04 b7 0a 3d 1c d7 89 3a
       -0.0038592676 0.015287711 0.033865944 0.0010516378
0003a0 c7 0c dc 3d ff f4 b8 3d 13 11 c3 3b d5 df ac bd
       0.107446246 0.09031104 0.005952963 -0.0844113
0003b0 89 c7 83 bd 25 23 19 bd 82 e0 9e 3d 22 01 23 3d
       -0.06434543 -0.037387032 0.07757665 0.039796002
0003c0 0a 1f cc bd e9 3e 99 bd 6a 20 c5 bb 1f 2c 17 3c
       -0.09966858 -0.07482702 -0.006015827 0.009226828
0003d0 95 c7 18 3d d9 a5 07 3e d5 35 ba 3d 19 4f 63 3d
       0.03729971 0.1324686 0.09092299 0.055495355
0003e0 fa 05 ba bb 6d 54 d4 3d ae 3e ca bc 85 3e 9c bb
       -0.005676982 0.103676654 -0.024688091 -0.004768195
0003f0 cc 1c 2c bd f1 86 eb 3b 12 53 67 bd 03 12 4a 3b
       -0.04201965 0.007187717 -0.056475706 0.003083349

fc1.bias f4 [120]
000000 0e 01 93 3d e6 d6 a5 3d 0e 93 25 3d 20 f1 2b bd
       0.071779355 0.08097629 0.040423445 -0.041978
000010 82 47 a0 3d 02 51 5a 3c d6 9e 79 3d b3 89 a4 bc
       0.07826139 0.013324978 0.060942493 -0.020085191
000020 a0 42 d8 3b df 5c b3 3c e3 f4 3f 3d 14 82 b8 3c
       0.006599739 0.02189487 0.0468644 0.022522964
000030 2f 1a 01 bd 76 59 fa bb d8 56 30 bd a3 ea 85 3d
       -0.03151911 -0.007640059 -0.04305157 0.06538894
000040 c0 f0 38 bd a8 7c e4 3b 7b 39 04 3d d2 88 b0 bb
       -0.045151472 0.006972868 0.03228138 -0.005387404
000050 15 a4 80 3d 03 fc 44 bd 12 f7 18 3d b2 5c 5f bd
       0.06281296 -0.0480919 0.037345 -0.05453176
000060 b2 ec ae 3d 76 71 78 3d c8 3f 50 3d 66 66 a2 bc
       0.0854124 0.06065508 0.050842077 -0.019824218
000070 c7 45 97 3d e1 24 48 bd 79 d0 11 bd b1 68 82 bd
       0.07386356 -0.048863295 -0.035599206 -0.063676246
000080 43 02 83 3d d7 20 7a 3c ce 61 3b bd 08 c8 ee bc
       0.06396916 0.015266619 -0.04574757 -0.029148117
000090 f2 ba 3c 3d c7 e8 1e 3d fe 95 49 3d 10 bc 72 bd
       0.046076722 0.038796213 0.04921531 -0.05926138
0000a0 83 79 29 bd 48 0c 7c bd 5e 7a 2c bd 9e 03 77 3d
       -0.04137565 -0.06153515 -0.042108886 0.060306184
0000b0 88 54 7b bd 40 b4 9a 3d fe 25 ca 3c b3 a0 46 bd
       -0.061359912 0.07553911 0.02467632 -0.0484931
0000c0 0c e3 13 3d 24 28 47 3d 48 3f 47 3d 08 fc 9d 3c
       0.0361052 0.048622265 0.048644334 0.019285217
0000d0 e0 00 47 3d e7 f8 e0 3c c6 c6 93 bc 59 ec 3a 3d
       0.04858482 0.027462436 -0.018039118 0.045635555
0000e0 08 ce 43 bd 40 46 2a 3d 38 a2 49 bd 2e 88 e3 bc
       -0.04780391 0.041570902 -0.04922697 -0.027774896
0000f0 e2 b8 41 3c 47 c7 57 bd aa a4 87 3d fe e8 ab 3c
       0.011823865 -0.05268028 0.06623204 0.020985123
000100 42 d9 3e 3d b6 79 48 bd d7 1f 1d bd 55 ae 1d bb
       0.046593912 -0.048944198 -0.038360443 -0.0024060209
000110 de 1a 37 bd 29 0f 94 3d 44 4c 5d bd ce f8 99 3c
       -0.044703357 0.07229454 -0.05402781 0.018795397
000120 68 eb 28 3d 1f eb 42 3d d4 45 f5 bc c5 7e b3 bc
       0.041240126 0.04758751 -0.029940523 -0.021911034
000130 74 83 80 3c b8 09 e8 ba 68 5e 81 3d 96 ac ba b9
       0.015687682 -0.0017703092 0.06316835 -0.0003560527
000140 64 38 5c 3d 62 ba 86 3d 87 b8 1b bb 8f 32 9d 3d
       0.053764716 0.065785185 -0.002376111 0.07675659
000150 c0 c5 83 3d 8e 1c a2 bc 5a f9 8b bb 0e 1d 3e 3d
       0.06434202 -0.019789007 -0.0042716684 0.046414427
000160 5a c4 58 bd ab 49 be 3c 5c 5c f8 bc 0b ca 3b 3d
       -0.05292163 0.023228487 -0.030317478 0.04584698
000170 6c 1a eb 3c ce 5c 3e 3d 8c fd 58 bc 8c eb 2b bc
       0.028699122 0.046475224 -0.013244044 -0.0104931705
000180 a9 10 0d 3d 77 f2 fd bc f2 b0 c4 3c 3b 19 02 3d
       0.034439716 -0.030999405 0.024010155 0.031762343
000190 0a 55 4f bd 36 e0 2e bd 0c 7c 92 bb da 94 93 3d
       -0.05061821 -0.042694293 -0.004470354 0.072061256
0001a0 68 92 9a 3c 40 ec a5 3b a0 69 a7 bc 2b e8 91 bd
       0.01886864 0.0050635636 -0.020436108 -0.07124361
0001b0 5c 17 79 bd 38 61 83 38 d8 fd 22 3d 5e 02 2a 3d
       -0.060813293 6.264675e-05 0.039792866 0.041506164
0001c0 4b 8d 98 bd 76 92 8d bc ea 27 d2 3c 24 60 18 bc
       -0.074488245 -0.017281752 0.025653798 -0.009300265
0001d0 67 3a 85 3d 2b 7b 81 3c d5 82 49 3c fa a8 f6 3c
       0.0650528 0.015805801 0.012299259 0.030109871

fc2.weight f4 [84, 120]
000000 23 b6 3e bd d3 ce 51 3d a0 91 8e bd 3c 29 8d bc
       -0.046560418 0.051222634 -0.069613695 -0.017231576
000010 8f f5 df 3c b0 e9 81 3c 8b 87 ba bd b6 81 93 3d
       0.027338771 0.015858501 -0.09107884 0.07202475
000020 7b bc 8e bd e7 98 47 bd 0b b3 84 bd d0 56 6f 3c
       -0.069695435 -0.048729803 -0.06479462 0.0146081
000030 20 ea 1d 3d ac dd 8c bc b0 74 4b 3d 3d 00 a7 3b
       0.038553357 -0.017195545 0.04967183 0.005096464
000040 5c 0c 9b bc 3c 7f 61 bd 3c a2 b0 3c e6 bc 0c bd
       -0.018926792 -0.05505298 0.021561734 -0.034359835
000050 7e b3 87 3d 92 62 d5 3c 99 ce 0b 3d d8 d7 a8 3d
       0.06626032 0.026047979 0.034132574 0.08244294
000060 8e e4 12 bd d8 1d 98 bc 1b bb 38 3d cd 12 b3 bd
       -0.035862498 -0.018568918 0.045100313 -0.0874382
000070 3e b7 86 bc 7e 69 65 3d 32 e9 95 3d a7 b4 86 bd
       -0.016444799 0.05600881 0.07319869 -0.065774255
000080 7d 54 95 3d d0 b8 7e bd 40 8e 43 bb fb 18 61 bd
       0.072915055 -0.06218797 -0.0029839426 -0.054955464
000090 62 33 8a bd 98 97 83 3b 93 bb 69 bc eb 37 3d bd
       -0.06748082 0.004015874 -0.014265913 -0.046195906
0000a0 ee bf 85 bd 2a 22 a8 bd 4f d2 96 bd e8 50 06 3d
       -0.06530748 -0.08209641 -0.07364332 0.032792002
0000b0 02 3d 4d 3d 64 f7 88 3d f7 e4 5f bd 79 ec 09 3d
       0.05010701 0.06687811 -0.054661717 0.033672784
0000c0 c2 34 9e bd 12 2f 77 3d 23 cd 07 3c 16 f4 1e 3b
       -0.077249065 0.060347624 0.0082886545 0.0024254373
0000d0 6d b9 b9 bd da 3f 09 bd bb 14 7d 3d 33 19 5a 3b
       -0.0906857 -0.03350816 0.06178735 0.003327918
0000e0 9c df 55 3d ca bd 95 bd 73 39 2f bd 82 ca b5 bd
       0.052215204 -0.0731159 -0.042779397 -0.08876516
0000f0 38 94 31 bd 88 f9 bb bb 98 1f 5e bc f4 9c 46 3d
       -0.043354243 -0.0057365336 -0.013557337 0.048489526
000100 8e 4c b8 bd fe e8 d8 3c 73 2c 9f bc 5e 72 4e 3d
       -0.08998977 0.026478287 -0.019430375 0.050402038
000110 1c 4c 93 3d ef a8 a7 bc dc f1 21 bd 68 b4 96 3d
       0.07192251 -0.020466296 -0.039537296 0.073586285
000120 ae 88 3e bd 06 25 86 bd b0 1c a5 bc af d5 68 3d
       -0.046517067 -0.065500304 -0.02015528 0.05684441
000130 78 69 92 bd fa 14 51 bd 6e 31 89 bd 5c 06 b9 3c
       -0.07149023 -0.051045395 -0.06698881 0.02258604
000140 48 05 a7 3c fc 8b 6b bd 77 65 a1 3d 8c a4 7b 3c
       0.02038826 -0.057506546 0.07880681 0.015359055
000150 f4 de 8b bd cc 07 25 3b a0 1f c9 39 6c d0 5e 3d
       -0.06829634 0.002518165 0.0003836127 0.054397985
000160 f4 74 5b 3d 12 3e 47 bd a0 6d f7 3c b6 c3 ae 3c
       0.053578332 -0.04864318 0.03020364 0.021333557
000170 13 a5 a3 bd 44 ac 99 3d 84 a2 34 bd cc f1 aa bd
       -0.0799047 0.0750356 -0.0441003 -0.083469
000180 90 74 ea bc c0 c2 fc 3b 13 29 c4 bd 08 12 6f 3d
       -0.028620034 0.0077136457 -0.09578147 0.058366805
000190 ce b9 1b bd 86 1c 33 3d fd 18 ae 3d 16 ae 4b bd
       -0.038018994 0.043728374 0.0850086 -0.04972657
0001a0 0c 33 7c bd 5c 21 ca bc cf d7 d9 3b 15 0a 31 3d
       -0.06157212 -0.02467411 0.006648041 0.043222506
0001b0 4c 93 74 3d a6 f8 20 bd 10 aa 94 3d ca 0a 6b bd
       0.059710786 -0.03929963 0.07258999 -0.057383336
0001c0 21 6e 47 3c 5e 89 97 bc 8b c3 2d bd 58 77 79 bd
       0.012172253 -0.018498119 -0.042422812 -0.06090483
0001d0 bb da 48 3d a9 09 a2 bd 50 2e 28 3c c3 1d 87 bd
       0.049036723 -0.07911999 0.010264948 -0.065974735
0001e0 5b 7b 92 3b 6f 77 40 3d 1a 78 a3 bd 68 06 50 bd
       0.0044702715 0.0469889 -0.07981892 -0.05078736
0001f0 51 b3 02 be 0a 82 bd 3d 7a 79 44 bd c2 a1 1c 3d
       -0.12763716 0.092533186 -0.04796741 0.0382402
000200 53 05 e2 3c 68 ca 88 bd 59 50 30 3c f4 83 d0 3d
       0.02759043 -0.06679231 0.010761344 0.10181418
000210 23 b8 86 bd 02 75 58 3d f4 b8 db 3c 78 74 c2 3d
       -0.0657809 0.052845962 0.026821591 0.09494871
000220 ff 95 df 3c d6 78 0d 3d 14 ce 31 bc 66 6f 2b bd
       0.027293203 0.034539066 -0.0108523555 -0.041854285
000230 41 aa 32 bd 7c 02 2d 3d 6e ce 09 3e 00 81 d0 3c
       -0.043619398 0.042238697 0.13457653 0.025452137
000240 b8 5e e0 3d 64 ce a0 bd 40 e4 40 b7 b0 33 5c bc
       0.10955566 -0.07851866 -1.1497235e-05 -0.013440058
000250 71 6f 8a bd 59 74 7e 3c 39 9f d2 3d 94 67 59 bd
       -0.06759537 0.015530669 0.102842756 -0.053077295
000260 7a 03 c6 bc 3d ac 01 3e 2d 60 53 3d 10 d1 9f 3d
       -0.02417158 0.1266336 0.051605392 0.078035474
000270 ad b0 1a bd 1b b2 08 bb 4a 67 6f bd a9 01 89 bd
       -0.037766147 -0.0020858112 -0.058448114 -0.0668977
000280 10 c5 3a bd 96 e2 96 3d 28 3f c3 bc f8 c3 26 3d
       -0.04559809 0.073674366 -0.023833826 0.040714234
000290 31 e3 00 3d 4c 5d d0 bd 18 f2 81 3d 4e b0 31 3c
       0.031466667 -0.10174045 0.06345004 0.010845257
0002a0 d4 27 c9 3c 06 9b 43 bd cc 1b fb bc dc a0 a6 bd
       0.024555124 -0.047755264 -0.030652903 -0.0813615
0002b0 df 7c b3 3d d5 62 c6 bd 9a 10 db bd 7d a0 9a bb
       0.08764052 -0.096868195 -0.10696526 -0.0047188387
0002c0 e3 a2 27 3d 34 75 97 3c b4 d9 60 bd a6 d5 72 3d
       0.040926825 0.018488504 -0.054895118 0.059285782
0002d0 f8 db 63 bd bc 70 f4 bc 69 09 8d bd 50 85 4a bd
       -0.0556297 -0.029838912 -0.068865605 -0.049443543
0002e0 5b c6 24 3d 4c 7d 85 3d 78 5a a6 3d 76 e5 9a bd
       0.04022823 0.06518039 0.08122724 -0.075632975
0002f0 35 a3 09 3d c1 c6 12 3e 44 99 83 bd a8 2e 1b 3d
       0.033602912 0.14333631 -0.064257175 0.03788629
000300 d6 33 cf 3d 61 ee 03 3e b0 d5 b3 bd f1 8f 7d bd
       0.10117309 0.12883903 -0.08780992 -0.06190485
000310 3a d7 e6 3d 40 a3 78 3d 8b e9 8e 3d b3 0d 2d bd
       0.1127152 0.060702562 0.069781385 -0.042249393
000320 d5 d7 bb 3d 55 b6 fc ba 1e 70 8a bd 96 30 fe bd
       0.09172026 -0.0019280413 -0.06759666 -0.12411611
000330 8a b0 34 3d bb 28 cf 3b 64 cf 17 3c c7 e4 04 3e
       0.044113673 0.006321994 0.009265754 0.12977897
000340 86 b6 9d bd 15 2e 04 be ab 8c 02 3d e9 b5 46 bc
       -0.07700829 -0.12908204 0.031872433 -0.012128332
000350 7a 00 45 3d 36 06 27 bc 4a 5e 88 3d 63 1d b7 3d
       0.048096158 -0.010194352 0.06658609 0.08941152
000360 b8 d5 fd 3d 58 df b7 bb 0b e0 78 bd 41 64 46 bd
       0.12394279 -0.0056113414 -0.06076054 -0.048435453
000370 40 dc 42 3c 20 17 5d 3d 5b ef 44 bd aa 29 b9 bd
       0.011893332 0.05397713 -0.04807983 -0.0904115
000380 6d 86 08 bd 77 80 6d bd d1 99 ce 3c c0 3e f4 3b
       -0.033331323 -0.05798384 0.02521983 0.0074537694
000390 39 ed a4 3d cc b2 a4 3c 27 59 70 3d 6b 7d 15 ba
       0.08053059 0.020104788 0.058678772 -0.00057025877
0003a0 3b 71 58 bc a0 6d 33 3d 1a 8b b5 bc 37 b3 33 3d
       -0.01321059 0.04380572 -0.022161055 0.043872084
0003b0 6b 53 7a 3d 9a 34 cb bc 77 76 06 39 2c dd 25 3d
       0.06111471 -0.024805356 0.00012823367 0.04049413
0003c0 67 f4 1f 3e 8b d8 81 3d 92 05 d1 bd 98 f6 51 bd
       0.15620576 0.063401304 -0.102061406 -0.05126056
0003d0 ec 40 e2 bd e8 97 3b bd e0 0e 34 3d 44 57 ae bc
       -0.11047539 -0.045799166 0.0439595 -0.021281846
0003e0 00 ef 8d bc 46 be f4 3c b4 5f 21 bd 68 1e ce 3c
       -0.017325878 0.029875886 -0.03939791 0.025160983
0003f0 9c 70 c9 bc f8 ed b0 bd 3c d0 aa 3c d5 6e 8d 3d
       -0.02458983 -0.08639139 0.020851247 0.06905905

fc2.bias f4 [84]
000000 22 87 31 bd e8 f0 83 3d 1e 77 ec bc b5 77 a8 3d
       -0.043341763 0.064424336 -0.028865393 0.08225957
000010 b0 40 99 3c 10 e0 c5 bc ad de d4 3d 3c ed 4a 3c
       0.018707603 -0.024154693 0.103940345 0.012385663
000020 96 cd 29 bd 16 ba a9 3c 0e 61 95 3d f1 8c 6d 3d
       -0.041455828 0.020718616 0.07293902 0.05799574
000030 4f c7 90 3d 6e c6 17 bd fd 96 3b 3d 45 59 23 bd
       0.07069265 -0.03705447 0.04579829 -0.039880056
000040 6f 8b c2 3d 2e ee a7 bd 38 7a a6 bd 7c 7b cd 3d
       0.09499251 -0.08199726 -0.0812878 0.100333184
000050 4c c1 89 bd bd 7b 3b 3d b2 48 8e 3d 6a cc 2d bd
       -0.067263216 0.045772303 0.06947459 -0.042431273
000060 5b bc 05 3c 70 26 05 bd ad 9e b9 3d db e3 1b bb
       0.008162583 -0.03250736 0.09063468 -0.0023786935
000070 b0 7e bb 3d 3e b4 b1 bd ef 57 88 bc e5 f2 96 bd
       0.09155023 -0.086769566 -0.016643493 -0.07370547
000080 a2 2d bb 3c bc 54 93 3d cb 3a 48 bd 54 0a af bd
       0.022848908 0.07193896 -0.048884194 -0.08546892
000090 50 aa 83 bc fa 51 97 bd 31 d2 f5 3d 48 c4 18 bd
       -0.016072422 -0.07388683 0.120029815 -0.037296563
0000a0 38 49 c7 bd 84 83 02 3c 32 91 68 3d 7c 1d 17 3d
       -0.09730762 0.007965926 0.056779094 0.036893353
0000b0 49 bd 09 bd 96 95 8c 3d 2c c8 af bd 86 13 75 3d
       -0.033627782 0.06864469 -0.08583102 0.059833072
0000c0 ba 72 30 3d 18 d7 9c bc 01 37 ea 3a eb 5c 39 3c
       0.04307816 -0.019145533 0.0017869176 0.011313657
0000d0 94 50 26 bd fc 7c bb 3d 8b 11 01 bd 14 3c d2 3d
       -0.04060419 0.09154698 -0.03151087 0.10265365
0000e0 82 f7 cc 3b e2 0f a4 bd 66 a1 b1 bd 90 e9 cd 3c
       0.006255091 -0.08010842 -0.086733624 0.025135785
0000f0 1f 17 93 bd 97 13 78 bd 8d d1 91 bb 2b 68 2b 3c
       -0.071821444 -0.060565557 -0.004450029 0.010461847
000100 c7 df e8 3c 33 c3 ac 39 96 2d c4 bd 9e 2d 07 3d
       0.028427018 0.0003295183 -0.09579007 0.03300249
000110 2e 1a d4 3d 23 1d 63 3c 34 09 97 bd 80 5a 6a 3b
       0.10356556 0.013861927 -0.07374802 0.0035759509
000120 71 53 0a bd 22 15 bf bd 28 f4 b4 bd 44 e4 a9 bd
       -0.033770982 -0.09330203 -0.088356316 -0.08295491
000130 a6 44 e9 3c 37 14 cc 3c 8a 93 ac bd 41 75 65 3b
       0.028475117 0.024911983 -0.08426578 0.0035012516
000140 c4 b6 32 bd bb 98 e6 3d eb 5a c7 ba bd 25 bc bc
       -0.04363133 0.112596 -0.0015209591 -0.022967214

fc3.weight f4 [10, 84]
000000 38 46 96 bd 20 d2 a9 3d 60 ed 20 be 58 93 04 be
       -0.07337612 0.08292031 -0.15715551 -0.12946832
000010 44 f0 9c bb bf 51 45 bd a2 82 91 bd 90 eb 8d bd
       -0.004789384 -0.048173662 -0.07104994 -0.069296956
000020 dc dc 5d 3c 20 59 09 be dc 9c 05 bd 67 30 05 be
       0.0135414265 -0.13412905 -0.032620296 -0.13006745
000030 67 a5 cf bd cd bb 18 bc b1 a5 f3 bd 36 ac 0f bd
       -0.1013897 -0.009322119 -0.118968375 -0.035076343
000040 c3 8e cd 3d f4 07 0c 3e 35 6a 42 bd b3 5b f5 bd
       0.10036995 0.13674909 -0.04746457 -0.11980381
000050 79 ab 9a 3d d9 b8 db bd 12 c5 a8 bc 5f f0 8b bd
       0.07552237 -0.10728616 -0.020601783 -0.068329565
000060 80 e7 f8 3d 4b 43 17 3e fd 10 72 bd 58 22 59 bd
       0.1215353 0.14771764 -0.059098233 -0.05301127
000070 d0 dc 05 bc b4 97 b8 3d 2c ff 37 bd ec e2 80 3d
       -0.008170322 0.0901331 -0.044921085 0.06293282
000080 24 52 c0 3d ac b1 e9 bb eb e2 92 bd 2a e6 37 3d
       0.09390667 -0.007131776 -0.071721874 0.044897236
000090 86 65 cf bd 60 dd 28 bd a6 d9 13 be eb 02 93 bd
       -0.10126786 -0.041226745 -0.14438495 -0.07178291
0000a0 e8 18 83 3d 6e 10 88 bd 1e 20 8d 3d 70 6e 89 3d
       0.06401235 -0.06643759 0.068908915 0.067105174
0000b0 51 1c bb bd be 73 48 3a fb 8a e7 3c b5 21 e2 bd
       -0.0913626 0.00076466415 0.028264513 -0.11041585
0000c0 ba 17 cd 3d 7f e3 f7 bb bd cc 05 bd e0 2f 33 be
       0.10014291 -0.0075649614 -0.032665957 -0.17498732
0000d0 c0 46 1e 3d 55 eb d6 bd 66 5d 02 3e 05 aa 21 3d
       0.03864169 -0.10494105 0.12730941 0.039468784
0000e0 74 b9 15 be 03 8d 98 bd b5 60 b6 3c a4 2a e2 bc
       -0.14621526 -0.07448771 0.02226291 -0.027608223
0000f0 12 bf cb bc 60 6e 02 bd d9 7c e3 bd fd dc 71 bc
       -0.024871383 -0.031843543 -0.11107797 -0.01476216
000100 1e 70 a9 3c a5 ef b7 bd b5 02 88 3c c3 48 8e bd
       0.020683344 -0.089812554 0.016602853 -0.06947472
000110 ee db fc bd 65 8c 36 3d 33 1c f6 3d f1 08 68 3d
       -0.12346636 0.044567484 0.12017097 0.056649152
000120 df 1a 54 bc b7 6e d6 bd b8 71 d8 3d 4a 77 af bd
       -0.01294586 -0.10470336 0.10568565 -0.085676745
000130 fb b1 00 3e 2b 8b 9b 3b f3 4d d6 bc 0c e5 b7 bd
       0.12567894 0.0047468147 -0.026160216 -0.08979234
000140 23 17 49 3c b6 03 95 bc b6 7c 3b be 2b 39 87 bd
       0.012273583 -0.018190246 -0.18309292 -0.06602701
000150 7d 4c 83 3d 90 1c 28 be 1d 78 05 bd a7 f9 58 3d
       0.06411073 -0.16417146 -0.032585252 0.052972462
000160 82 d4 84 3d 51 70 24 bd c5 ca 34 bd 88 36 80 3d
       0.06485845 -0.040146176 -0.04413869 0.06260401
000170 40 16 bc bd 44 a8 1d bc ea 13 91 bd 33 2b dc bc
       -0.09183931 -0.009622637 -0.070838764 -0.026876068
000180 94 09 7c bd 0f 67 e6 3d 76 8b 9b 3d c0 99 96 3d
       -0.061532572 0.112501256 0.075949594 0.07353544
000190 e8 f8 e6 bd 94 f8 d7 bd 80 a8 59 3d 81 a2 53 ba
       -0.11277944 -0.105454594 0.05313921 -0.0008073226
0001a0 5f f0 d3 3c 72 2e 8a bc e5 bd 23 be 71 fd cc bc
       0.025871454 -0.01686785 -0.15990408 -0.025023194
0001b0 28 27 0f be bd e0 95 bd 9e 7b c5 bd c2 93 48 3c
       -0.1397978 -0.07318256 -0.09642719 0.012242259
0001c0 08 ab 9d bc 7a c9 b2 3d b1 e9 a3 3d 37 e8 1f 3d
       -0.019246593 0.08729835 0.080035575 0.039039817
0001d0 c1 69 94 3d f8 0b 13 be bf 9d 2a 3c 66 4e 06 be
       0.072467335 -0.14360034 0.010413586 -0.13115844
0001e0 84 59 e8 bd 8a 08 b2 bd 1d 56 bc 3d 10 c1 8e 3c
       -0.11345199 -0.08693035 0.09196112 0.017426044
0001f0 89 43 25 3d 45 67 19 3d 6e 6b 05 be be 7c e9 bd
       0.04034761 0.037452 -0.13029262 -0.11400746
000200 30 9f a1 3d 7e 77 60 3d 8e 14 f0 3d 00 ac 28 3e
       0.07891691 0.054801457 0.117226705 0.16471863
000210 8a f9 f0 bd 8a bd 01 be 0d 48 cb bd 83 04 d9 3c
       -0.11766346 -0.1266996 -0.09925852 0.02649141
000220 a2 66 a2 bc 4e ed ab 3d d6 40 6a bd 4c ef c5 bd
       -0.01982433 0.08394872 -0.05719074 -0.09664783
000230 55 fa e0 3d fa 69 1f 3d f3 72 f9 3c b0 9c 1b be
       0.10985247 0.038919427 0.03045032 -0.1519649
000240 7c b6 0f 3e 70 28 13 bd f9 36 aa 3d 7c d3 aa 3d
       0.14034456 -0.035927236 0.083112665 0.08341119
000250 a5 89 d6 3d dc 86 69 bc ae 98 1e 3d d3 e3 a4 3c
       0.10475472 -0.014253344 0.038719825 0.020128166
000260 09 18 c5 3d dc 82 ca 3d 0e 01 87 bd 12 ce 88 bd
       0.09623725 0.09888241 -0.06591998 -0.0667993
000270 30 c8 0d bd fd 90 fb bd 95 00 ff 3c 80 a5 c8 bd
       -0.03461474 -0.12283514 0.031128207 -0.097971916
000280 1f 84 fe bd b6 7c 1a 3e f0 26 ef bd 98 eb e5 3c
       -0.12427544 0.15086636 -0.116773486 0.028066441
000290 00 8b 3a 3c ac d5 2e 3d e8 1f 19 3d 92 e9 04 3e
       0.011385679 0.042684242 0.037383944 0.12979725
0002a0 8a c9 ac 3d f4 76 e9 bc 3c d7 e3 bc 9c 8d e4 bd
       0.08436878 -0.028499104 -0.027812593 -0.11159822
0002b0 74 e1 f3 3d e2 6f 64 bc 12 85 ef 3c 72 96 71 bd
       0.11908236 -0.013942691 0.029238258 -0.058981366
0002c0 e2 52 c1 3d eb 0f 01 3e 6a 1e c0 3d 71 7e 30 bd
       0.09439637 0.12603728 0.09380801 -0.043089334
0002d0 44 30 f8 bd 0d ca 44 3d 78 6f 9c bd 2a cc 79 bd
       -0.12118581 0.048044253 -0.076384485 -0.06098572
0002e0 97 7b 09 be 91 54 5b bd 46 d8 df bc e2 88 09 be
       -0.13426052 -0.053547446 -0.027324807 -0.13431123
0002f0 fb 36 6b 3d be 88 fb 3c 6f 7f fe bd 9f d4 c5 bd
       0.05742548 0.030704852 -0.1242665 -0.09659695
000300 e9 b7 1e bd 9a 02 d4 3d 12 62 70 bd 18 ea ce 3d
       -0.03874961 0.10352059 -0.058687277 0.101032436
000310 1b 07 a7 3d af 52 9e 3c c7 98 21 bd 92 e4 92 3d
       0.08155652 0.019326536 -0.03945234 0.071725026
000320 ce 5e 00 3e 65 f5 94 bd 8f b4 45 bd 0c 3c 3f bd
       0.12536165 -0.07273368 -0.048267897 -0.046688125
000330 ee c4 58 3d 5c 73 ac bd d7 6f 02 3e e5 d8 08 be
       0.05292218 -0.084204406 0.12737976 -0.13363989
000340 1c 3a b2 3d 38 c2 8a 3d 92 7c 8c bd a8 53 1f bd
       0.0870249 0.067753255 -0.068596974 -0.03889814
000350 8b 89 28 bd fa 39 85 3d 14 f0 11 bd a4 50 69 bd
       -0.041146796 0.06505199 -0.035629347 -0.05696167
000360 f2 af 1c 3d 2e ea ee bc f0 59 e7 3d 74 c8 ef bd
       0.038253732 -0.0291644 0.11296451 -0.11708155
000370 04 6b fd 3d 35 5f d4 3d 75 2c af 3d 64 0a dd bc
       0.12373927 0.10369722 0.085534014 -0.026982494
000380 c7 b9 e6 bd 02 6c 07 3d a3 ff 37 3c 4e e3 59 3d
       -0.11265903 0.03306199 0.011230382 0.05319529
000390 56 86 7c bd 0e 13 ca bd 6e 14 e4 3d a8 55 b0 bd
       -0.06165155 -0.09866916 0.11136709 -0.08610088
0003a0 4b d5 38 bd c0 af bd 3d c8 fe 5b 3d 8f 50 48 3c
       -0.045125287 0.09262037 0.053709775 0.012226238
0003b0 6a ae 1f bc 64 27 c4 3c 4a 18 a7 bd 32 99 40 3d
       -0.009746173 0.023944564 -0.0815893 0.0470211
0003c0 db dc 8c bd bf a3 9c 3d 9a 0c e7 3d d5 13 71 3d
       -0.06878062 0.076484196 0.112817004 0.058856804
0003d0 cf 30 04 3c 0a 28 cb bd 4e 04 18 3e 44 82 3c bd
       0.0080682775 -0.09919746 0.14845392 -0.04602267
0003e0 3e d2 bf 3c 0e 37 9b 3d c2 48 ba bd 1b 8f 55 3d
       0.023415681 0.0757886 -0.09095909 0.05213843
0003f0 e0 1e 0c 3d 0a 0f f6 bd 00 6c d8 bd be dc 9a 3d
       0.034209132 -0.12014587 -0.10567474 0.075616345

fc3.bias f4 [10]
000000 54 a3 19 3c 9f f3 62 3d 70 16 76 bc 33 06 c1 bc
       0.009377319 0.055408116 -0.015019998 -0.023562526
000010 8a 6b ce 3c 97 1b e1 3d 0c 71 e3 3c 06 b9 b8 bd
       0.025197763 0.109915905 0.027763866 -0.090196654
000020 01 de 94 bd 37 18 87 bd
       -0.072689064 -0.065964155
