models/server-5.pth (torch, 181254 bytes, 10 tensors)

conv1.weight f4 [6, 1, 5, 5]
-0.10237176 0.18347614 0.08386534 -0.04407375 -0.07883327 -0.075953044 0.26177332 0.2358239
0.24520451 -0.15588619 -0.0056849318 0.12862541 -0.06863719 0.24065176 -0.03621173 -0.16025923
-0.01965037 -0.032451168 0.158749 0.088154 0.030438866 -0.025137346 0.14398709 -0.10309827
0.1689855 0.15511645 0.12610608 0.007348774 0.07433036 0.047355466 0.012891665 0.17288196
-0.020407481 -0.041244972 0.20643504 0.046186347 0.12415652 0.35403073 0.018322127 0.11413756
0.23552951 0.26769108 0.1952029 -0.04965774 -0.015615478 0.053912032 -0.01783712 -0.111259066
-0.021884859 -0.11831604 0.043687902 -0.02669423 0.04789834 0.1336315 0.25074136 -0.14281772
-0.14930478 -0.113685235 0.06758187 0.22677128 -0.19744046 -0.012572951 0.30952996 0.38476616
0.2572872 0.06912878 0.26241556 0.15897723 0.25843915 0.2863422 0.1367866 -0.100360185
0.025399778 -0.06349576 0.25043967 -0.17239362 -0.24242431 -0.08339783 -0.26161832 -0.3482036
0.11070284 -0.30855435 -0.312622 -0.27206805 -0.23177092 0.07796426 0.20592666 -0.04022291
0.2705095 0.12614572 0.15627743 0.11751632 0.2748125 0.28077912 0.07537801 -0.026076587
0.1953761 0.12748465 -0.004004248 0.24095489 0.13121155 0.21185 0.08079811 -0.0022624005
-0.001872781 -0.07396118 0.17476703 -0.06023084 0.14583662 0.20790341 0.05485988 0.18811578
0.29452595 0.20639065 0.28214774 0.29217798 0.2717924 -0.023067906 0.09096612 0.020460544
0.016973361 0.2459068 -0.079440415 0.037817087 -0.15359102 -0.08813569 -0.2628593 -0.18459727
-0.023670949 0.24347787 -0.22867128 -0.27305722 -0.14279284 0.2933237 0.16862366 -0.08077792
-0.30777952 -0.10100491 0.24695435 0.035607234 -0.22607785 -0.016081367 0.09508487 0.21704267
0.17587131 -0.037415944 0.009827612 0.024547601 0.18458371 0.2214371
00000000: 49a8 d1bd 2be1 3b3e 97c1 ab3d ad86 34bd
00000010: 5673 a1bd 458d 9bbd 2707 863e d27b 713e
00000020: e416 7b3e a1a0 1fbe aa48 babb 61b6 033e
00000030: a891 8cbd 6a6d 763e c052 14bd ff1a 24be
00000040: d0f9 a0bc 84eb 04bd 198f 223e 168a b43d
00000050: ee5a f93c d6ec cdbc 5a71 133e 3025 d3bd
00000060: 890a 2d3e d9d6 1e3e f421 013e fccd f03b
00000070: 843a 983d cef7 413d 9037 533c f807 313e
00000080: 972d a7bc 7df0 28bd b563 533e e52d 3d3d
00000090: c645 fe3d 8443 b53e 4918 963c f4c0 e93d
000000a0: a62e 713e ce0e 893e 45e3 473e ea65 4bbd
000000b0: 10d8 7fbc ddd2 5c3d 271f 92bc cbdb e3bd
000000c0: e047 b3bc ae4f f2bd 16f2 323d dcad dabc
000000d0: 0d31 443d b2d6 083e 2c61 803e cf3e 12be
000000e0: 5ae3 18be ced3 e8bd 5d68 8a3d bb36 683e
000000f0: d52d 4abe c7fe 4dbc b67a 9e3e 1200 c53e
00000100: 26bb 833e 6493 8d3d 555b 863e edca 223e
00000110: 2352 843e 729b 923e c911 0c3e a489 cdbd
00000120: 3213 d03c 110a 82bd a139 803e f487 30be
00000130: 143e 78be 7bcc aabd d6f2 85be be47 b2be
00000140: 2cb8 e23d d6fa 9dbe fe0f a0be 814c 8bbe
00000150: 5b55 6dbe baab 9f3d 70de 523e c7c0 24bd
00000160: 3980 8a3e 582c 013e 3107 203e 65ac f03d
00000170: 39b4 8c3e 48c2 8f3e c95f 9a3d 919e d5bc
00000180: ac10 483e 568b 023e 1136 83bb e1bc 763e
00000190: 525c 063e 35ef 583e 7b79 a53d c844 14bb
000001a0: 1a78 f5ba f678 97bd 21f6 323e 9db4 76bd
000001b0: 3256 153e a2e4 543e c1b4 603d 6ca1 403e
000001c0: 1bcc 963e 1258 533e ab75 903e 5a98 953e
000001d0: 6028 8b3e e8f8 bcbc 724c ba3d df9c a73c
000001e0: b80b 8b3c fece 7b3e a8b1 a2bd 17e6 1a3d
000001f0: f746 1dbe 7c80 b4bd 7f95 86be 1107 3dbe
00000200: 94e9 c1bc 4352 793e ce28 6abe 28ce 8bbe
00000210: 4938 12be 862e 963e aeab 2c3e e56e a5bd
00000220: 4795 9dbe aadb cebd 9ae1 7c3e e4d8 113d
00000230: f480 67be 12bd 83bc dbbb c23d 6f40 5e3e
00000240: 9c17 343e 7641 19bd fe03 213c 0d18 c93c
00000250: 8303 3d3e 68c0 623e

conv1.bias f4 [6]
0.0858789 -0.016313853 0.102721326 0.2002136 0.032619696 0.112846
00000000: 47e1 af3d a1a4 85bc 8f5f d23d cb04 4d3e
00000010: 3b9c 053d ce1b e73d

conv2.weight f4 [16, 6, 5, 5]
-0.021840688 -0.023511112 -0.07373189 -0.020274539 -0.012257697 -0.006224919 -0.0047296095 -0.02392526
0.054432325 -0.0018684065 0.015419225 0.06343998 0.09785007 0.007483645 0.10737128 -0.0346246
0.027733129 0.13342118 0.033276584 0.080699265 -0.12129605 -0.001153602 0.08897848 -0.04442151
0.018406434 0.025710437 -0.054240838 -0.11502252 -0.14126255 -0.14244309 0.028895767 -0.0025363285
-0.00047150813 0.019950975 -0.10522228 -0.03939552 0.08495051 0.18955116 0.04483247 0.05833163
0.042759415 0.015729636 0.048991084 -0.010937512 0.12924446 0.004042168 -0.077836536 0.014939218
0.040712107 0.18261576 0.0027730204 -0.051372 -0.09648099 -0.13874029 -0.010322596 -0.06667306
0.00035018352 0.012267985 -0.0023930394 -0.045949243 0.0776923 0.14189585 0.0734431 -0.014804415
-0.031274363 0.03820931 0.11181559 -0.051754255 0.067957856 0.032228112 -0.120590605 -0.013813587
0.08434067 0.096313514 0.08258822 0.10628223 0.08579 -0.06346651 -0.12565562 -0.015827982
-0.000116023 0.10204753 0.017201709 0.11092908 0.050837148 0.13183178 0.08351417 0.00960759
0.16727257 0.08230668 -0.10326363 -0.12681152 -0.09124449 0.07249264 0.034013044 -0.15822734
-0.07758288 0.03231009 -0.02624794 -0.039833073 -0.0016549389 -0.09441218 -0.04703165 0.008723384
-0.020828284 -0.0094929505 -0.012218671 -0.015722131 -0.025295924 -0.06398216 0.076037526 0.104724035
0.08231579 0.018401828 -0.07998365 0.030588709 0.010198455 0.12604678 0.06547106 0.045513645
-0.019059045 -0.10337493 0.0006969122 0.029077455 0.039526142 -0.07964473 -0.058382273 -0.09761185
-0.04945458 -0.10754078 -0.065092094 -0.05954462 0.004991668 -0.11036993 -0.06952798 0.10650766
0.0015814534 -0.0065176347 -0.05467481 -0.13875267 -0.035722863 -0.027042933 -0.06886154 -0.068326
-0.12934746 -0.057157863 -0.06060267 -0.13381127 -0.09768161 -0.17709649 0.060961798 0.025317783
-0.027117228 -0.027545517 -0.021221405 0.05087427 0.08427341 0.059923045 -0.11571235 0.02309747
0.009065647 -0.031390227 0.09261523 -0.06373216 -0.07882438 -0.037898887 0.024161443 0.05110375
-0.018981867 -0.0776077 -0.024184193 0.05554933 0.078608476 0.02244536 -0.0145759145 0.1046179
0.07384574 0.023166329 -0.100103766 -0.15553558 0.047132585 0.05459233 -0.03537534 0.023587422
-0.14599736 -0.082105435 0.02505691 0.048689574 0.0074436166 -0.08510257 -0.024487909 0.024286337
-0.017523587 0.060118504 -0.044108063 -0.04040829 -0.11717577 -0.0060016667 0.047106255 0.06688296
0.094832435 0.08372646 -0.07531054 -0.1589886 -0.12759125 -0.032411817 0.07738591 0.0155935
-0.13639466 -0.1055568 0.038583986 0.09401364 0.0115258 -0.11759264 -0.05595147 -0.015569105
0.101948194 0.015110751 -0.099352635 0.048204165 0.015685843 -0.028740272 0.11232337 -0.017642256
-0.023186237 0.15904948 -0.006048341 -0.0012632372 -0.06874491 0.044475652 -0.013280304 -0.03438112
0.09776219 0.039119255 -0.07283702 0.045579147 -0.04427003 -0.018537937 0.08483739 -0.023180934
-0.0612957 -0.1267385 -0.0121824 -0.013141017 0.12188893 -0.0046392824 -0.048205912 -0.076567605
-0.050268896 -0.017529113 0.060769163 0.09309608 0.07981597 0.018757606 -0.11649933 -0.0011199486
00000000: 3eeb b2bc 609a c0bc bf00 97bd ca16 a6bc
00000010: 82d4 48bc 68fa cbbb d7fa 9abb e8fe c3bc
00000020: 6ef4 5e3d 52e5 f4ba eba0 7c3c d2ec 813d
00000030: 9e65 c83d 5d39 f53b 79e5 db3d 86d2 0dbd
00000040: 9630 e33c 909f 083e 074d 083d a845 a53d
00000050: 106a f8bd 7634 97ba 593a b63d 54f3 35bd
00000060: 17c9 963c b29e d23c a42b 5ebd ed90 ebbd
00000070: 21a7 10be 9adc 11be d1b6 ec3c 8838 26bb
00000080: c034 f7b9 3a70 a33c c77e d7bd 325d 21bd
00000090: 88fa ad3d b319 423e 41a2 373d 26ed 6e3d
000000a0: 7f24 2f3d 70db 803c e0aa 483d 4033 33bc
000000b0: a958 043e 2a74 843b c368 9fbd 9fc3 743c
000000c0: bdc1 263d a0ff 3a3e 90bb 353b 726b 52bd
000000d0: d397 c5bd ef11 0ebe 1b20 29bc e38b 88bd
000000e0: d698 b739 a9ff 483c 8ad4 1cbb 4635 3cbd
000000f0: 241d 9f3d 254d 113e 5669 963d 388e 72bc
00000100: 8c19 00bd 5e81 1c3d 92ff e43d 45fc 53bd
00000110: 7d2d 8b3d a001 043d 35f8 f6bd 6252 62bc
00000120: cdba ac3d 0540 c53d 0324 a93d 7faa d93d
00000130: abb2 af3d bbfa 81bd deab 00be afa9 81bc
00000140: 6051 f3b8 4cfe d03d 99ea 8c3c c92e e33d
00000150: 9d3a 503d e9fe 063e 7a09 ab3d 2769 1d3c
00000160: 8049 2b3e 6890 a83d e27b d3bd e1da 01be
00000170: 64de babd 0577 943d 4351 0b3d 5906 22be
00000180: c6e3 9ebd 9657 043d eb05 d7bc 0128 23bd
00000190: 89ea d8ba 2c5b c1bd 42a4 40bd 86ec 0e3c
000001a0: 14a0 aabc 5288 1bbc d230 48bc b3cb 80bc
000001b0: 6639 cfbc 1409 83bd 90b9 9b3d 8e79 d63d
000001c0: 2e95 a83d 6ebf 963c 78ce a3bd 2c95 fa3c
000001d0: 6c17 273c 6812 013e b115 863d 846c 3a3d
000001e0: b721 9cbc 3cb6 d3bd fcb0 363a d833 ee3c
000001f0: 2ae6 213d c71c a3bd 4022 6fbd b9e8 c7bd
00000200: e390 4abd 573e dcbd 014f 85bd 0fe5 73bd
00000210: 2591 a33b a109 e2bd b064 8ebd b020 da3d
00000220: c548 cf3a e291 d5bb b2f2 5fbd 2e15 0ebe
00000230: 2352 12bd 2489 ddbc 4707 8dbd 80ee 8bbd
00000240: a973 04be 5d1e 6abd 813a 78bd d205 09be
00000250: 4c0d c8bd c858 35be 14b3 793d 3d67 cf3c
00000260: f324 debc 23a7 e1bc 83d8 adbc 8a61 503d
00000270: 8a97 ac3d de71 753d 99fa ecbd e836 bd3c
00000280: 1488 143c 0a93 00bd 0ead bd3d 0286 82bd
00000290: ad6e a1bd dd3b 1bbd 38ee c53c 2a52 513d
000002a0: dc7f 9bbc c9f0 9ebd ee1d c6bc b287 633d
000002b0: 7bfd a03d 55df b73c d1cf 6ebc e941 d63d
000002c0: 6f3c 973d 50c7 bd3c 3403 cdbd b844 1fbe
000002d0: 190e 413d 359c 5f3d bce5 10bd 693a c13c
000002e0: 5580 15be e526 a8bd 2644 cd3c b86e 473d
000002f0: 95e9 f33b 424a aebd de9a c8bc 24f4 c63c
00000300: a08d 8fbc d23e 763d a8aa 34bd 2a83 25bd
00000310: daf9 efbd a1a9 c4bb 7df2 403d eff9 883d
00000320: 8237 c23d c778 ab3d 6a3c 9abd e8cd 22be
00000330: 48a7 02be 41c2 04bd 817c 9e3d e17b 7f3c
00000340: 0bab 0bbe 2a2e d8bd 3e0a 1e3d 398a c03d
00000350: b6d6 3c3c 69d4 f0bd 5e2d 65bd 8f15 7fbc
00000360: 37ca d03d 1593 773c 6579 cbbd bb71 453d
00000370: 997f 803c b870 ebbc cc09 e63d 7e86 90bc
00000380: 10f1 bdbc dedd 223e 2931 c6bb 3593 a5ba
00000390: 22ca 8cbd 1a2c 363d a295 59bc 38d3 0cbd
000003a0: 8b37 c83d 833b 203d 932b 95bd 33b1 3a3d
000003b0: 7e54 35bd dfdc 97bc 3abf ad3d f1e5 bdbc
000003c0: 3311 7bbd bdc7 01be b098 47bc 6c4d 57bc
000003d0: e7a0 f93d 1f05 98bb 9073 45bd 7acf 9cbd
000003e0: c2e6 4dbd 3799 8fbc 16e9 783d 28a9 be3d
000003f0: 8e76 a33d 8da9 993c 3397 eebd 3dcb 92ba

conv2.bias f4 [16]
0.011705769 0.015635934 0.05359363 -0.037263174 -0.022740446 0.024668992 0.028293801 -0.070292555
-0.09577613 -0.030575518 0.061785813 0.027163792 0.07645788 0.055985574 -0.013030876 0.043429732
00000000: 8ec9 3f3c ee16 803c ff84 5b3d 45a1 18bd
00000010: 2c4a babc a016 ca3c 67c8 e73c 8bf5 8fbd
00000020: 4726 c4bd 8279 fabc 1f13 7d3d 9a86 de3c
00000030: f395 9c3d 2151 653d 757f 55bc 60e3 313d

fc1.weight f4 [120, 256]
0.045206796 -0.0123745445 0.049442865 -0.04176047 0.04378848 0.04810816 -0.013564012 -0.011152659
0.02687973 -0.03420491 0.056295753 -0.003559717 0.08343774 0.02512801 -0.011414888 0.07779674
0.059262924 -0.076899886 0.061922014 -0.025264155 0.0068023074 -0.06621368 0.09409858 0.024050828
0.015257406 0.025529576 0.057300076 0.036333673 -0.0496179 -0.020054212 0.023622943 0.015128736
0.08074273 0.03260125 0.049874898 -0.03940827 -0.070589826 0.07713914 -0.018104937 0.06861477
-0.04288675 -0.0269805 0.06801646 0.016343834 -0.025031516 -0.01694179 0.015459808 0.058586735
0.052318856 0.044352535 -0.07882117 0.059125826 0.06019294 0.0062562847 -0.053501632 0.0657537
0.0095345415 0.04431286 0.06767052 0.006676617 0.12318656 0.01976307 0.03011979 -0.04682057
0.06621717 0.090213776 0.04236854 0.019046472 0.037593238 0.07213247 0.023442129 0.014285377
0.012530442 0.0038356818 0.049782652 -0.056000777 0.065024525 0.035551354 -0.04553771 -0.025938662
0.035984226 -0.014628847 0.07621344 0.038082507 -0.06845394 -0.014620997 0.08303525 0.027305111
-0.025370311 -0.05798128 -0.004205271 -0.05467551 -0.020973418 0.07403295 0.05143629 0.04634469
0.09102887 0.02589771 0.008282589 -0.052478075 -0.045088734 -0.0064137653 0.003577685 -0.0005562815
0.06952622 0.0049501806 0.06452772 -0.01725224 -0.017008096 -0.05646105 -0.0066219727 -0.02738179
0.075693674 0.06754544 0.037481938 -0.030122245 0.047011983 0.0082023125 -0.011770874 0.07472094
-0.033601597 -0.013074108 0.0004790374 -0.03348699 -0.0410048 0.025924042 -0.03292676 0.007000398
0.021493739 0.0069797086 -0.026923433 0.059255198 -0.004135495 0.06932135 -0.02143674 0.031455476
0.0071912776 0.032180335 -0.013946276 -0.0022601322 -0.027736463 0.071960576 0.05743827 0.057180982
0.003390573 -0.09234353 -0.08494212 0.036083523 0.022608405 -0.044828646 0.019172372 0.06792288
0.038403697 -0.022035584 0.05018485 0.09610525 -0.009372132 0.0707104 0.048537593 -0.0073934915
0.0008673966 -0.026912296 0.017961651 0.06803159 0.032015834 -0.006036942 -0.006417957 0.052338608
0.03524133 -0.019405954 0.040206607 0.07658097 -0.053560153 0.0025321448 0.04583045 0.052071508
0.03217143 0.004177641 0.051111292 0.07681284 -0.0076201544 0.03904526 0.08531344 -0.022641879
0.038081497 0.05809041 -0.03562914 0.06900428 0.0022595325 -0.017438525 0.064134516 0.045067452
0.071728006 0.028947333 0.009572353 0.03620241 -0.03735496 0.041510273 0.05047544 0.03310613
-0.056056395 0.049069926 0.020969938 0.024636278 -0.034274716 0.010636831 0.08173054 -0.002555268
0.06759055 0.060700424 0.0064856564 -0.0009475895 -0.012248073 0.018845983 0.021859834 -0.040027544
0.050406322 -0.012971383 0.05438671 0.030014908 -0.03769116 -0.07551452 0.061937977 0.09555241
-0.037569784 0.0524154 -0.06792844 0.012855789 0.05161784 0.08504502 0.010266561 0.039917044
-0.047577564 0.0006944161 0.08142197 0.077014 -0.007473301 -0.0061684945 0.05302785 0.017441832
0.009812943 0.074263 0.03233028 0.005463365 0.036930934 0.021908473 0.026610317 -0.12637737
-0.06513733 -0.02971551 -0.025157373 0.061281484 0.022267323 0.035682328 0.0346581 -0.012168087
00000000: c32a 393d 9abe 4abc 9a84 4a3d 070d 2bbd
00000010: 8d5b 333d 100d 453d 973b 5ebc a4b9 36bc
00000020: e132 dc3c 731a 0cbd 6096 663d 244a 69bb
00000030: 68e1 aa3d 42d9 cd3c 8305 3bbc e653 9f3d
00000040: aebd 723d b07d 9dbd f0a1 7d3d c6f6 cebc
00000050: e4e5 de3b 0a9b 87bd c2b6 c03d 3e06 c53c
00000060: 33fa 793c 6723 d13c 7cb3 6a3d 9ed2 143d
00000070: 243c 4bbd bb48 a4bc e784 c13c 85de 773c
00000080: 725c a53d e388 053d 9f49 4c3d 916a 21bd
00000090: 6691 90bd 20fb 9d3d ce50 94bc e785 8c3d
000000a0: 04aa 2fbd 3606 ddbc 374c 8b3d 81e3 853c
000000b0: e50e cdbc 82c9 8abc 224b 7d3c a5f8 6f3d
000000c0: 4c4c 563d 01ab 353d fe6c a1bd ec2d 723d
000000d0: df8c 763d 8501 cd3b 8724 5bbd e0a9 863d
000000e0: c436 1c3c 6781 353d d796 8a3d 86c7 da3b
000000f0: 3c49 fc3d 29e6 a13c c7bd f63c edc6 3fbd
00000100: de9c 873d 00c2 b83d a28a 2d3d 5907 9c3c
00000110: 5efb 193d 30ba 933d b509 c03c 370d 6a3c
00000120: 7c4c 4d3c 1060 7b3b e5e8 4b3d 1261 65bd
00000130: 942b 853d 4c9e 113d c085 3abd 517d d4bc
00000140: 3264 133d d5ad 6fbc cb15 9c3d 67fc 1b3d
00000150: 9431 8cbd e88c 6fbc 630e aa3d f8ae df3c
00000160: 66d5 cfbc c77d 6dbd 5fcc 89bb 6df3 5fbd
00000170: 72d0 abbc 969e 973d dcae 523d eed3 3d3d
00000180: 586d ba3d 6f27 d43c b2b3 073c 40f3 56bd
00000190: f7ae 38bd 902a d2bb 9877 6a3b 6bd3 11ba
000001a0: c363 8e3d 2035 a23b 1c27 843d 9254 8dbc
000001b0: 9054 8bbc b443 67bd 22fd d8bb c74f e0bc
000001c0: 4905 9b3d 4355 8a3d a986 193d edc2 f6bc
000001d0: a38f 403d fe62 063c a0da 40bc 4b07 993d
000001e0: d4a1 09bd c934 56bc 5027 fb39 a729 09bd
000001f0: a6f4 27bd a85e d43c 36de 06bd 9863 e53b
00000200: a313 b03c 0ab6 e43b 888e dcbc 94b5 723d
00000210: 0c83 87bb 5af8 8d3d 1a9c afbc 75d7 003d
00000220: cfa4 eb3b 87cf 033d ec7e 64bc ba1e 14bb
00000230: 9437 e3bc 1160 933d 6444 6b3d 9b36 6a3d
00000240: 6034 5e3b 9b1e bdbd 22f6 adbd 51cc 133d
00000250: 4335 b93c 3e9e 37bd 610f 9d3c 271b 8b3d
00000260: 324d 1d3d f883 b4bc a18e 4d3d d4d2 c43d
00000270: 928d 19bc 9dd0 903d 5bcf 463d 1a45 f2bb
00000280: 0062 633a 2d77 dcbc 5024 933c 2554 8b3d
00000290: 0923 033d 8ad1 c5bb ba4d d2bb 0261 563d
000002a0: 3659 103d 3cf9 9ebc afaf 243d 7cd6 9c3d
000002b0: e461 5bbd 57f2 253b b6b8 3b3d ef48 553d
000002c0: 30c6 033d 98e4 883b 135a 513d 0d50 9d3d
000002d0: 7db2 f9bb eced 1f3d d0b8 ae3d 767b b9bc
000002e0: 58fb 1b3d 36f0 6d3d dcef 11bd 1e52 8d3d
000002f0: aa14 143b 3ddb 8ebc f558 833d a698 383d
00000300: 22e6 923d f522 ed3c 5cd5 1c3c fa48 143d
00000310: 8401 19bd ad06 2a3d 56bf 4e3d 4b9a 073d
00000320: 649b 65bd 8cfd 483d 26c9 ab3c 05d2 c93c
00000330: a563 0cbd 1a46 2e3c 5762 a73d 4876 27bb
00000340: ea6c 8a3d 02a1 783d a185 d43b a867 78ba
00000350: 24ac 48bc e462 9a3c 6513 b33c ecf3 23bd
00000360: dc76 4e3d ec85 54bc 99c4 5e3d d3e1 f53c
00000370: 0c62 1abd 5ba7 9abd adb2 7d3d fbb0 c33d
00000380: c6e2 19bd 88b1 563d 111e 8bbd 16a1 523c
00000390: 3a6d 533d 152c ae3d 1435 283c 0e80 233d
000003a0: b1e0 42bd 7a09 363a 90c0 a63d 84b9 9d3d
000003b0: 98e2 f4bb 1521 cabb bb33 593d 2ce2 8e3c
000003c0: 77c6 203c 3317 983d c16c 043d 0706 b33b
000003d0: e444 173d 6679 b33c e1fd d93c 1269 01be
000003e0: b866 85bd f16d f3bc d616 cebc 4b02 7b3d
000003f0: f669 b63c a227 123d a7f5 0d3d a85c 47bc

fc1.bias f4 [120]
0.08344993 0.045504477 -0.012306923 -0.017569091 -0.051429503 0.021694195 0.02729734 0.010679679
0.04538904 0.037006564 -0.03228902 0.0017581314 -0.03646546 -0.005552682 0.05072046 -0.015546773
0.00028621568 -0.0015625713 0.057868958 0.04636803 -0.068218306 -0.023674008 -0.018567014 0.03480304
0.058120504 0.07701227 -0.04131437 0.0035164207 0.02591596 -0.022810183 0.054693036 0.047366224
-0.020390384 0.0047584744 -0.024046177 -0.0065055666 -0.045516796 0.023117036 0.019229649 0.033462815
0.029618802 0.053055905 0.0530686 0.07073573 -0.00027459033 -0.040600758 0.08642973 0.050002083
-0.015524846 -0.016020767 0.052695654 -0.050696563 -0.056549113 -0.031828932 -0.05359251 0.00580977
0.045380756 -0.035249803 0.036401905 -0.006571831 0.008482942 0.045267306 -0.028460585 0.07586248
0.04122743 -0.034766205 -0.05305707 -0.03395833 0.056936555 -0.005319712 -0.051456224 0.0064511127
0.025947113 -0.035960093 -0.03288729 0.024335911 -0.011040749 0.003388992 0.061857764 0.040100157
0.054605976 -0.012067046 -0.060708493 0.038985804 0.059216596 0.051239934 -0.014580099 -0.030127198
0.00088528555 0.0644747 0.03153964 0.037361205 -0.00031267822 0.051146623 -0.030154955 0.0134296585
-0.04355043 0.057500273 0.055253226 -0.025440637 -0.01845996 -0.021405565 0.025415042 0.07956811
-0.035838764 0.067146756 -0.021880323 0.0008066988 0.01785094 -0.03587725 0.012446856 0.072831444
0.019624446 0.053895928 -0.0023204433 -0.06768984 -0.016755149 0.027078273 -0.061965477 -0.0040760315
00000000: cce7 aa3d e762 3a3d faa2 49bc 0eed 8fbc
00000010: bea7 52bd 06b8 b13c ac9e df3c d2f9 2e3c
00000020: dce9 393d 3294 173d 7e41 04bd 1a71 e63a
00000030: ce5c 15bd 46f3 b5bb 42c0 4f3d e4b7 7ebc
00000040: 380f 9639 31cf ccba 0008 6d3d 67ec 3d3d
00000050: 0ab6 8bbd feef c1bc da19 98bc a28d 0e3d
00000060: c40f 6e3d 9cb8 9d3d 4239 29bd c073 663b
00000070: b54d d43c 6cdc babc ce05 603d 1603 423d
00000080: bc09 a7bc faec 9b3b 7dfc c4bc a62c d5bb
00000090: d26f 3abd f05f bd3c 7f87 9d3c 4e10 093d
000000a0: 21a3 f23c 2651 593d 765e 593d e5dd 903d
000000b0: e4f6 8fb9 fb4c 26bd 1202 b13d fcce 4c3d
000000c0: ec5b 7ebc fc3d 83bc 66d7 573d 33a7 4fbd
000000d0: 0ba0 67bd 0e5f 02bd d283 5bbd e25f be3b
000000e0: 2ce1 393d 1962 10bd 2a1a 153d 8458 d7bb
000000f0: 0afc 0a3c 366a 393d 2c26 e9bc ca5d 9b3d
00000100: 18de 283d 0267 0ebd 5f52 59bd e417 0bbd
00000110: 4e36 693d fb50 aebb c3c3 52bd db63 d33b
00000120: 0a8f d43c e44a 13bd d3b4 06bd 1b5c c73c
00000130: 42e4 34bc da19 5e3b 915e 7d3d 1040 243d
00000140: 84aa 5f3d dcb4 45bc 78a9 78bd 94af 1f3d
00000150: 1a8d 723d f7e0 513d 5ee1 6ebc 50cd f6bc
00000160: 8212 683a 500b 843d b62f 013d 1008 193d
00000170: f6ee a3b9 1f7f 513d 8607 f7bc 1208 5c3c
00000180: f061 32bd 6885 6b3d 3551 623d e268 d0bc
00000190: 5839 97bc b95a afbc 3533 d03c 9bf4 a23d
000001a0: abcb 12bd 3d84 893d 5d3e b3bc a478 533a
000001b0: 223c 923c 06f4 12bd e6ed 4b3c a728 953d
000001c0: 72c3 a03c fac1 5c3d 9412 18bb f9a0 8abd
000001d0: 1842 89bc 41d3 dd3c 83cf 7dbd 3b90 85bb

fc2.weight f4 [84, 120]
0.042438585 0.043370504 -0.08061069 -0.0024008234 0.01833512 0.0417434 0.022491567 -0.015575667
0.07455986 0.037814334 0.09033466 0.03901112 0.014256879 0.010134569 0.085659035 -0.06449269
-0.0087603815 0.07842969 0.0071942913 -0.08361694 -0.012133848 -0.045717992 -0.09397071 0.074324496
-0.048054565 -0.025034323 -0.05460643 -0.06995451 -0.06056011 -0.08241256 0.035135433 -0.0015289302
-0.084492296 -0.05091227 0.009694944 -0.09115168 0.107226014 -0.058309767 0.08997003 0.027299928
-0.021472007 0.026846303 0.0023666723 0.025947908 0.015957389 -0.09078829 -0.061388046 0.07087156
0.056214083 0.012553253 0.10432024 0.10642662 -0.010793718 0.08216155 -0.030574806 0.056222707
-0.055048674 -0.083186075 -0.00707258 0.03354618 0.00052604266 0.0733131 -0.07917771 -0.0557504
0.083892316 -0.01734785 0.0061276434 0.062478974 -0.05313728 0.023139406 -0.08095789 -0.060085006
0.028337462 -0.02855658 -0.04827854 0.022056645 -0.0029796772 -0.008835236 0.05732629 -0.052280284
0.072012424 0.091980055 -0.023416279 0.09232947 0.080916576 -0.015846126 0.007467903 -0.0060260994
-0.0895331 0.05521051 -0.041798513 -0.06560282 0.062855504 -0.07152122 -0.03790167 -0.006962102
-0.0140504185 -0.03760964 0.08984714 -0.013314803 -0.08848481 0.010055068 -0.06257672 0.07434218
0.018473927 0.07855553 0.024896907 -0.09683418 0.063235596 -0.014884227 -0.022321835 0.01141186
0.10000459 -0.07835469 -0.01980594 0.04517669 0.033591215 0.10830853 -0.08501458 -0.07544541
-0.05393803 -0.0668281 -0.071940765 -0.023306282 0.045469046 0.0035971107 0.10200289 0.006422483
0.054518234 -0.078089595 -0.0034048152 0.022356536 -0.03857235 0.012617921 -0.008311331 -0.08029668
0.09890419 0.06662446 -0.038708713 -0.08030016 0.010608646 0.08002502 -0.01937375 0.07057198
-0.018860895 0.036817275 -0.027587043 -0.0518711 -0.009567158 -0.022221021 0.06458296 0.09032248
0.09336164 -0.034986995 -0.0003869267 0.0077854535 0.012446535 0.09426714 -0.023317141 0.13518089
0.09639045 0.064539015 -0.031296644 -0.0142550515 0.019386334 0.01467724 0.080522604 0.034997202
0.054637287 0.07045299 -0.026663244 -0.011429411 0.03846092 0.08842632 0.03637103 0.08607857
0.0245759 0.04738257 -0.045833804 -0.0755296 -0.060688436 -0.07752704 0.0577038 0.05835464
0.044030305 0.011606211 -0.029140452 -0.056175705 -0.03184727 0.018238135 0.049176082 0.05851882
0.0768531 -0.013700616 0.092612326 -0.001130533 -0.044167653 -0.020194706 0.047619455 0.07421502
-0.08497556 0.075762644 -0.009688068 0.011729963 0.09346306 0.041458517 0.10637894 0.06142708
-0.06791048 0.049762495 -0.08522111 -0.05300316 0.010079669 -0.061785404 0.10640343 0.07716165
-0.015995782 0.033914037 -0.06882731 0.06654884 -0.03224224 -0.0045275865 0.06908424 0.05730802
0.11536909 0.02326508 0.012563025 0.06900753 -0.023007028 0.06271283 -0.015186818 -0.01790181
0.021935489 0.052335367 -0.057545148 0.09495422 0.11800561 -0.058045555 -0.032544553 -0.0367329
0.044069774 0.016903382 0.026866606 -0.019198611 0.04332238 -0.08806878 -0.021542648 -0.02158859
0.054748215 0.0053484775 -0.021404676 0.10757221 0.081560604 0.019697025 -0.03205625 0.007385971
00000000: 15d4 2d3d 45a5 313d 3817 a5bd 2257 1dbb
00000010: 8933 963c 21fb 2a3d 3c40 b83c 1531 7fbc
00000020: d7b2 983d 34e3 1a3d 6101 b93d 20ca 1f3d
00000030: af95 693c 770b 263c 016e af3d be14 84bd
00000040: b487 0fbc bf9f a03d 17be eb3b 5c3f abbd
00000050: 0ccd 46bc ca42 3bbd b773 c0bd 7137 983d
00000060: ddd4 44bd c814 cdbc feaa 5fbd 4f44 8fbd
00000070: e10d 78bd ebc7 a8bd 2cea 0f3d 6266 c8ba
00000080: 4c0a adbd 6289 50bd 8bd7 1e3c bbad babd
00000090: 5099 db3d 39d6 6ebd 3542 b83d 19a4 df3c
000000a0: 10e6 afbc c7ec db3c 2c1a 1b3b b590 d43c
000000b0: 12b9 823c 36ef b9bd 0872 7bbd 1c25 913d
000000c0: bd40 663d 29ac 4d3c daa5 d53d 33f6 d93d
000000d0: 22d8 30bc 5144 a83d 0478 fabc c849 663d
000000e0: b87a 61bd 765d aabd 1ac1 e7bb b867 093d
000000f0: 20e6 093a 2e25 963d ec27 a2bd 885a 64bd
00000100: bccf ab3d 141d 8ebc 66ca c83b f4e9 7f3d
00000110: 7aa6 59bd da8e bd3c 40cd a5bd b21b 76bd
00000120: f723 e83c 7def e9bc b8bf 45bd 23b0 b43c
00000130: b046 43bb aac1 10bc f9ce 6a3d da23 56bd
00000140: 407b 933d 0a60 bc3d 7fd3 bfbc 3c17 bd3d
00000150: 97b7 a53d bccf 81bc 50b5 f43b 9676 c5bb
00000160: 215d b7bd 6a24 623d eb34 2bbd c55a 86bd
00000170: 63ba 803d b879 92bd c83e 1bbd 5822 e4bb
00000180: ba33 66bc 910c 1abd c701 b83d 5526 5abc
00000190: 8637 b5bd 03be 243c 3928 80bd b640 983d
000001a0: a256 973c b9e1 a03d 99f4 cb3c 0051 c6bd
000001b0: aa81 813d f9dc 73bc 48dc b6bc cff8 3a3c
000001c0: 35cf cc3d 6c78 a0bd 1140 a2bc 310b 393d
000001d0: f196 093d ddd0 dd3d 201c aebd 2083 9abd
000001e0: 20ee 5cbd 2cdd 88bd ae55 93bd d1ec bebc
000001f0: c03d 3a3d 81bd 6b3b e4e6 d03d b173 d23b
00000200: 834e 5f3d 70ed 9fbd 5223 5fbb 0e25 b73c
00000210: 0afe 1dbd 66bb 4e3c 402c 08bc 9672 a4bd
00000220: 488e ca3d 6872 883d 078d 1ebd 6974 a4bd
00000230: e3cf 2d3c 28e4 a33d b3b5 9ebc 0b88 903d
00000240: 2a82 9abc b6cd 163d 39fe e1bc ca76 54bd
00000250: 92bf 1cbc dc08 b6bc 1244 843d fefa b83d
00000260: 6334 bf3d 864e 0fbd 6cdc cab9 1e1d ff3b
00000270: 8dec 4b3c 210f c13d 9703 bfbc dc6c 0a3e
00000280: 5b68 c53d 082d 843d e930 00bd 058e 69bc
00000290: 17d0 9e3c ce78 703c 09e9 a43d 3a59 0f3d
000002a0: 59cb 5f3d a849 903d e06c dabc 6d42 3bbc
000002b0: 3389 1d3d dc18 b53d caf9 143d f649 b03d
000002c0: 6653 c93c 3a14 423d 3abc 3bbd 43af 9abd
000002d0: 7094 78bd 7fc6 9ebd d25a 6c3d 4605 6f3d
000002e0: 1f59 343d fa27 3e3c f5b7 eebc 7f18 66bd
000002f0: 4872 02bd 2468 953c dc6c 493d 6eb1 6f3d
00000300: 2865 9d3d 8c78 60bc 88ab bd3d 652e 94ba
00000310: 24e9 34bd 5e6f a5bc 9e0c 433d 0bfe 973d
00000320: ab07 aebd 7229 9b3d b4ba 1ebc 082f 403c
00000330: 9069 bf3d 68d0 293d 34dd d93d f69a 7b3d
00000340: a614 8bbd c2d3 4b3d 6888 aebd d719 59bd
00000350: 3225 253c b112 7dbd 0bea d93d ed06 9e3d
00000360: 9609 83bc 72e9 0a3d 55f5 8cbd c24a 883d
00000370: 7010 04bd 265c 94bb 0a7c 8d3d d0bb 6a3d
00000380: a146 ec3d 6996 be3c 25d5 4d3c d253 8d3d
00000390: 3c79 bcbc 966f 803d 22d2 78bc d1a6 92bc
000003a0: 0eb2 b33c 9c5d 563d 76b4 6bbd 5c77 c23d
000003b0: edac f13d 2dc1 6dbd 704d 05bd 3d75 16bd
000003c0: 8282 343d f678 8a3c 5b17 dc3c 6846 9dbc
000003d0: cf72 313d 685d b4bd 357a b0bc 8eda b0bc
000003e0: aa3f 603d 4842 af3b dc58 afbc d24e dc3d
000003f0: 3f09 a73d a85b a13c 6a4d 03bd 0406 f23b

fc2.bias f4 [84]
0.036903944 -0.05403709 0.05984639 0.038451836 -0.029995643 0.032167085 -0.04494641 0.059721347
0.017707331 0.040942416 -0.031064682 -0.07795874 0.08971378 -0.0045008254 -0.017171677 -0.0807198
0.09118873 -0.049587846 0.08965703 -0.04149021 -0.08311855 -0.035281673 0.035039164 0.08401075
0.045451567 0.085191965 0.055653654 -0.07233898 -0.04786283 -0.03354821 0.06447706 -0.017254304
0.0005998339 0.040184863 -0.05730191 0.014396602 -0.042392027 0.117310174 0.0013941907 -0.013875894
0.061417993 -0.043281082 0.0073797917 -0.0108030485 -0.047242783 0.08202387 0.042052124 -0.011371667
0.049948987 -0.011033805 0.031001832 0.04197139 -0.06280163 0.04298452 -0.038509507 0.111045346
-0.07769412 0.007960593 0.045833934 0.070423335 0.06461921 -0.07326433 0.052590698 0.09198612
0.062209655 0.05987978 -0.033562366 0.093919694 -0.053413376 0.005825792 0.03893286 -0.067402944
0.08718008 -0.013926578 0.045005023 -0.059708346 0.057824977 -0.041029572 0.005922425 0.0943075
-0.0769169 -0.062394958 -0.076511726 0.0023734488
00000000: 9728 173d ff55 5dbd 7d21 753d ac7f 1d3d
00000010: 6cb9 f5bc a2c1 033d ba19 38bd 5f9e 743d
00000020: f70e 913c 3cb3 273d 5c7b febc d5a8 9fbd
00000030: dcbb b73d a97b 93bb 9eab 8cbc 6c50 a5bd
00000040: 28c1 ba3d a01c 4bbd 1b9e b73d a3f1 29bd
00000050: 0f3a aabd 8483 10bd 3a85 0f3d d40d ac3d
00000060: 6c2b 3a3d 2079 ae3d 16f5 633d 7626 94bd
00000070: d10b 44bd d969 09bd 8d0c 843d e658 8dbc
00000080: 2c3e 1d3a e298 243d 68b5 6abd badf 6b3c
00000090: 43a3 2dbd 5140 f03d 47bd b63a b857 63bc
000000a0: 6f91 7b3d 8147 31bd 2ed2 f13b 45ff 30bc
000000b0: a681 41bd 21fc a73d d93e 2c3d 3a50 3abc
000000c0: 4f97 4c3d 22c7 34bc 8ef7 fd3c 31ea 2b3d
000000d0: 249e 80bd 8910 303d 25bc 1dbd be6b e33d
000000e0: 181e 9fbd 266d 023c 5dbc 3b3d 1c3a 903d
000000f0: 1457 843d 9c0b 96bd 5869 573d 3863 bc3d
00000100: 8dcf 7e3d 8044 753d b178 09bd f858 c03d
00000110: fcc7 5abd 49e6 be3b 1078 1f3d 8e0a 8abd
00000120: 788b b23d 4d2c 64bc 3057 383d bd90 74bd
00000130: e2d9 6c3d a00e 28bd e710 c23b 4a24 c13d
00000140: 9c86 9dbd db91 7fbd 2eb2 9cbd dd8b 1b3b

fc3.weight f4 [10, 84]
0.080207944 -0.08217972 -0.08553021 0.036317475 0.015660098 -0.121561386 0.09361367 -0.006808392
-0.094221815 -0.038488943 -0.12634122 -0.008289388 0.029771395 -0.07450108 0.023483781 -0.16564716
-0.07889286 0.041411273 -0.15431832 -0.001159154 0.052816216 -0.085858725 0.061924882 -0.102112785
-0.11214042 -0.111480035 -0.09589289 -0.33811465 0.06874451 -0.1488832 -0.027286857 -0.15439224
-0.15968482 0.017802967 0.09445067 -0.002568114 0.021397788 -0.09763042 -0.102802396 -0.055816606
-0.043997806 -0.098052084 -0.13745427 -0.03376122 -0.03553857 -0.056905158 -0.13445759 -0.024295097
-0.13709342 -0.11119287 -0.022235263 -0.07900157 -0.07019658 -0.01586256 -0.1220399 -0.14703685
-0.10006164 -0.1891157 0.017973064 -0.1016987 -0.0013812411 -0.09111138 -0.0363864 -0.030544452
-0.023162607 -0.15352935 -0.0060575306 -0.04163656 0.06926026 0.01068568 -0.022325698 0.05193883
0.037272304 -0.0724957 -0.059110593 0.057096556 -0.07763761 -0.045952998 -0.115257174 0.06897644
-0.026860747 0.066413075 -0.022348128 -0.012314582 -0.0062945588 0.053879254 -0.056479044 -0.15120861
-0.046007298 -0.09331077 -0.10316983 -0.061722178 0.0055776383 0.016870465 -0.015211477 -0.08215885
-0.04917394 -0.048029758 -0.114184104 -0.15412557 0.06038454 -0.016641218 -0.12778622 -0.14880471
-0.06975804 -0.055683356 0.06883373 -0.036150668 0.06079237 0.07222256 0.024518954 -0.14300701
0.058099367 -0.21136755 -0.12883392 -0.06247629 -0.040309913 -0.10073648 0.015643997 -0.11116117
-0.14130595 -0.1505115 0.019378606 -0.13479786 -0.07547124 -0.05847837 -0.09989795 -0.016974594
-0.0049481965 -0.07915628 -0.11521638 -0.088861525 -0.047939267 -0.15899464 0.04627707 -0.040210404
-0.05262119 0.025097683 -0.07700294 0.013808785 -0.09292634 -0.13803664 -0.072895214 0.0065882304
-0.059595093 0.07483655 -0.037404027 -0.18377323 -0.10645676 0.08467166 -0.03228508 -0.10122399
-0.026346743 -0.007188443 -0.10781221 -0.11930401 -0.1336322 -0.21603872 -0.07038459 -0.08298601
-0.05440008 0.028920049 0.021225285 -0.14153416 -0.13415904 0.009749461 0.08767164 -0.13259795
0.06267855 0.017141111 0.045106 -0.13594092 -0.123183824 -0.11120066 0.053902864 -0.12720111
-0.1450604 -0.088128574 -0.081469655 -0.055336416 -0.0721266 -0.14345561 -0.15423074 -0.117157176
0.02769192 0.041846715 -0.01257025 -0.09639789 -0.039632544 -0.22710332 0.0150134405 0.025354423
-0.0062777796 -0.10557654 -0.07661017 -0.3498308 -0.03611856 -0.03904128 0.03336153 -0.1565345
0.017814253 0.06462018 -0.041916944 -0.02625249 -0.12090722 0.06467233 0.05112552 -0.0023032129
-0.13176848 0.053258236 0.04481932 0.07732305 0.069721065 -0.061137207 -0.038516384 -0.15612859
-0.012515129 -0.07813907 0.021707265 -0.2234967 -0.09109925 -0.0692188 0.002026013 -0.10930586
-0.007490594 -0.044082034 -0.12520531 -0.018979585 -0.0279213 0.06467861 -0.15529634 -0.08868697
0.044389077 0.061208818 0.0037973374 -0.14600727 0.0016996088 -0.039939296 -0.09709446 0.009205039
-0.11063938 -0.18774197 0.014879024 -0.08626695 0.0168983 0.0038493427 -0.004954812 0.00032381163
-0.063408844 0.027436372 -0.087468736 -0.04338256 -0.09994612 0.024577018 0.06286846 -0.084268644
00000000: 1044 a43d d74d a8bd 762a afbd a2c1 143d
00000010: 9b49 803c 2df5 f8bd 86b8 bf3d ee18 dfbb
00000020: 5ef7 c0bd 95a6 1dbd 985f 01be 37d0 07bc
00000030: 24e3 f33c 0694 98bd 0f61 c03c 699f 29be
00000040: 9492 a1bd de9e 293d 9f05 1ebe c1ee 97ba
00000050: d155 583d b3d6 afbd f2a4 7d3d 8220 d1bd
00000060: e0a9 e5bd a54f e4bd 7e63 c4bd 5d1d adbe
00000070: ecc9 8c3d d674 18be b088 dfbc 0019 1ebe
00000080: 6b84 23be 87d7 913c 5a6f c13d ce4d 28bb
00000090: 6a4a af3c 75f2 c7bd 108a d2bd f49f 64bd
000000a0: 0b37 34bd 88cf c8bd d0c0 0cbe 3449 0abd
000000b0: e490 11bd 6215 69bd 40af 09be 8306 c7bc
000000c0: 3862 0cbe 16b9 e3bd ba26 b6bc 93cb a1bd
000000d0: 39c3 8fbd 33f2 81bc 0ef0 f9bd d490 16be
000000e0: 1eed ccbd 8ca7 41be 3f3c 933c 6847 d0bd
000000f0: c30a b5ba 9a98 babd e809 15bd 5c38 fabc
00000100: 82bf bdbc cc36 1dbe 407e c6bb 198b 2abd
00000110: 53d8 8d3d fe12 2f3c 62e4 b6bc d0bd 543d
00000120: d8aa 183d a078 94bd f31d 72bd 14de 693d
00000130: 7800 9fbd 3639 3cbd f40b ecbd 8543 8d3d
00000140: 120b dcbc 9403 883d 6c13 b7bc 1ac3 49bc
00000150: 9642 cebb 7eb0 5c3d 9256 67bd 6ed6 1abe
00000160: 2672 3cbd b819 bfbd b44a d3bd 65d0 7cbd
00000170: 9fc4 b63b ee33 8a3c 8f39 79bc e642 a8bd
00000180: 9d6a 49bd daba 44bd 5bd9 e9bd 18d3 1dbe
00000190: c855 773d 2a53 88bc 64da 02be 4360 18be
000001a0: 4edd 8ebd 3b14 64bd b3f8 8c3d b912 14bd
000001b0: 6c01 793d 6ce9 933d f9db c83c 6e70 12be
000001c0: 9af9 6d3d bc70 58be 0aed 03be 23e7 7fbd
000001d0: 021c 25bd ed4e cebd d727 803c 78a8 e3bd
000001e0: 82b2 10be b01f 1abe e2bf 9e3c 7308 0abe
000001f0: aa90 9abd 0487 6fbd 4c97 ccbd 4e0e 8bbc
00000200: 7b24 a2bb b01c a2bd 91f6 ebbd 08fd b5bd
00000210: f75b 44bd 7ecf 22be 068d 3d3d aab3 24bd
00000220: 5189 57bd a899 cd3c b8b3 9dbd 3e3e 623c
00000230: 2a50 bebd 7a59 0dbe 164a 95bd 15e2 d73b
00000240: fc19 74bd e843 993d f734 19bd 0d2f 3cbe
00000250: 0006 dabd 5668 ad3d 5c3d 04bd 864e cfbd
00000260: 20d5 d7bc 088d ebbb a6cc dcbd a955 f4bd
00000270: e1d6 08be 4139 5dbe cc25 90bd 92f4 a9bd
00000280: 9ed2 5ebd bde9 ec3c a6e0 ad3c 55ee 10be
00000290: fd60 09be 34bc 1f3c 308d b33d c2c7 07be
000002a0: 9d5d 803d 846b 8c3c 12c1 383d 1934 0bbe
000002b0: cd47 fcbd 2cbd e3bd 40c9 5c3d 0241 02be
000002c0: b78a 14be c17c b4bd 90d9 a6bd 70a8 62bd
000002d0: 1cb7 93bd 07e6 12be aaee 1dbe 1af0 efbd
000002e0: 2ada e23c 7667 2b3d 73f3 4dbc 426c c5bd
000002f0: bc55 22bd c68d 68be effa 753c 14b4 cf3c
00000300: d5b5 cdbb 8338 d8bd cbe5 9cbd 061d b3be
00000310: 0ef1 13bd c0e9 1fbd 1aa6 083d 944a 20be
00000320: 32ef 913c 9657 843d 1ab1 2bbd 760f d7bc
00000330: 349e f7bd ed72 843d fe68 513d 80f1 16bb
00000340: 51ee 06be 4f25 5a3d 7794 373d 8c5b 9e3d
00000350: ebc9 8e3d 026b 7abd 5bc3 1dbd 2ce0 1fbe
00000360: 410c 4dbc 6007 a0bd 6fd3 b13c 52dc 64be
00000370: 3e92 babd 96c2 8dbd dcc6 043b c0db dfbd
00000380: a873 f5bb 5d8f 34bd d235 00be 137b 9bbc
00000390: 36bb e4bc 3876 843d 0106 1fbe 84a1 b5bd
000003a0: 52d1 353d 19b6 7a3d c0dc 783b ee82 15be
000003b0: 68c5 de3a 6397 23bd 76d9 c6bd bbd0 163c
000003c0: e696 e2bd 6e3f 40be 26c7 733c baac b0bd
000003d0: 4e6e 8a3c 4145 7c3b fa5b a2bb 43c5 a939
000003e0: 7fdc 81bd 3ec2 e03c cf22 b3bd e9b1 31bd
000003f0: 8db0 ccbd be55 c93c 2ec1 803d 0a95 acbd

fc3.bias f4 [10]
-0.12853798 0.07043372 -0.12153177 -0.066267066 0.0074499496 -0.07009568 0.047042765 0.06172497
-0.085098326 -0.036106765
00000000: 769f 03be 8e3f 903d a6e5 f8bd 07b7 87bd
00000010: b51e f43b 538e 8fbd eaaf 403d 52d3 7c3d
00000020: 0848 aebd b0e4 13bd
