models/server-5.pth (torch, 239810 bytes, 12 tensors)

conv1.weight f4 [6, 1, 5, 5]
00000000: 9484 143d 4059 b23e 2ab1 963e 41c7 913e
00000010: 36b8 023e 4d61 8f3e 94c5 eb3e 7b00 2f3e
00000020: 5196 8d3e 464c 8b3e d51b c33e fa5e c83e
00000030: d31b 763e 33c7 e63d 1934 babd c837 0e3e
00000040: d807 a93e 54f7 9b3b 7fa0 83be be34 18be
00000050: 1e74 5c3d ef18 783d 6e78 b5bd a691 72be
00000060: 214d 43be b495 273d eb09 b9bc c6e0 65bd
00000070: 2589 11bd 2e4c 0ebd ec7f debd badb 1a3d
00000080: 0eea 5e3d 0aa2 f73d 88da 493c a939 653d
00000090: f595 213e e65e da3e 06b0 bc3e 96c0 923e
000000a0: 9ec0 213e 5891 b63e 90b2 f33e abc6 033f
000000b0: e6a1 ca3e a862 02be fb97 6c3b 70f9 a93e
000000c0: 9057 b73e 282c ce3d 783a 28be 11e9 8ebe
000000d0: f73a b63d 2730 eb3c e41a 0e3e 200b 4abe
000000e0: 0455 33be cdac 6c3d 2172 253d 31c9 bd3d
000000f0: 9762 15be f3d7 40bd aaf3 523e 3046 683e
00000100: c24f a23e 379b 73bb d8b9 a83d 71bb a33e
00000110: d7de 893e 77d8 a13e 96d6 a53e 9d9e cf3d
00000120: 584d aa3e 343b cb3e 34fd b63e df1d 57be
00000130: 51d1 8abd e130 f6bc 0e53 0b3e 3e2e 5e3d
00000140: 6bb8 58bd 528c 85bd 60c3 2ebe 2ff6 4e3e
00000150: 32f4 533e 8e6d 65be 3aba 9fbe 5488 b9bd
00000160: 22ec 8a3e b47a 953d 41da 90bd 6ec2 debc
00000170: b3ca 703d c8f5 e23e 0603 ac3e a787 953e
00000180: 9976 2a3e ef7d ff3d 6d45 d23e 42c9 203e
00000190: 8464 1fbe e484 dcbb 6da3 ba3c 8aba f1bd
000001a0: 6bf0 763c 0228 72bc 36a8 8ebe e47c babe
000001b0: f5a8 973d dfe1 86bd 14f2 8abc 8382 42be
000001c0: 036f 2dbe c6b0 f0bd e43e cd3c e215 463e
000001d0: 5ae0 e43c 110b 5bbe 0063 d8bd c240 59be
000001e0: ece2 cc3e eafa de3e 6ce6 003e 347d fa3d
000001f0: 85a7 5ebd 12b9 2c3e 1d3b fdba 334f 1bbe
00000200: 768f 7abe 866b 89be 36fd 773e 3a32 153c
00000210: 542e 943c 0296 7bbe 90dc 01be d4a3 c63e
00000220: 46cc d6bb ef83 a5bc cfcd 54be 3a4f 59be
00000230: 8423 f43e d011 c63e d653 663e 6a50 683e
00000240: 5c19 4f3e a837 1e3e 22ad 483e 2339 eb3e
00000250: 75e2 673e 9638 cf3e
0.03625925 0.34833717 0.2943204 0.2847233 0.12765583 0.28003922 0.46049178 0.17090027
0.27653745 0.2720663 0.38107172 0.3913496 0.24034052 0.11268463 -0.09091968 0.13888466
0.33013797 0.0047597084 -0.25708386 -0.1486387 0.053821675 0.060570654 -0.08860861 -0.23688373
-0.19072391 0.040914252 -0.022587737 -0.056122564 -0.03553118 -0.03474062 -0.10864243 0.037807204
0.05442243 0.120914534 0.012320168 0.055963192 0.1577986 0.42650527 0.36853045 0.28662556
0.15796134 0.35657763 0.4759717 0.5147502 0.39576644 -0.12732947 0.003610133 0.33198118
0.35808992 0.10067016 -0.16428554 -0.2791219 0.088979654 0.028709484 0.13877445 -0.19730806
-0.175129 0.057781983 0.040392045 0.0926689 -0.1458839 -0.047080945 0.20600763 0.22683024
0.31701475 -0.0037171373 0.08238572 0.31978944 0.26927826 0.31610462 0.3239028 0.10137675
0.33262134 0.39693606 0.35740054 -0.21007489 -0.06778205 -0.030052604 0.13605902 0.05424332
-0.05291025 -0.065209046 -0.17066717 0.20211099 0.20698622 -0.22405073 -0.31196767 -0.09059206
0.2713328 0.072987944 -0.07072879 -0.02719232 0.05878706 0.4432814 0.33596057 0.29205057
0.16646804 0.12475192 0.41068593 0.15701774 -0.15565687 -0.006729709 0.022783006 -0.11803158
0.015071969 -0.014780046 -0.2786271 -0.3642341 0.07405273 -0.0658605 -0.016961135 -0.18995099
-0.16936879 -0.11752467 0.025054403 0.19344285 0.02793901 -0.2139094 -0.10565758 -0.2121611
0.40016878 0.43550807 0.12587899 0.12230912 -0.054358978 0.16867474 -0.0019319985 -0.15166931
-0.24468789 -0.26839846 0.24217686 0.009106213 0.018088497 -0.24568942 -0.12681794 0.38796866
-0.006555113 -0.020204512 -0.20781635 -0.21221629 0.47683346 0.38685465 0.22492918 0.22686926
0.20224518 0.15450919 0.19597295 0.4594203 0.2264498 0.4047286

conv1.bias f4 [6]
00000000: dae3 2a3e 4920 28bb 793f 6c3c 361b 6f3a
00000010: 2a7d b13e bac4 063d
0.16688481 -0.002565401 0.01441943 0.0009121181 0.34665805 0.032902457

conv2.weight f4 [16, 6, 5, 5]
00000000: 76b4 b3bc 7657 6b3d 4e2c d53d a31c ae3d
00000010: 32be 0e3e f8f9 dd3b 3d83 babd 346a 533b
00000020: da4d 3e3d 4c76 643b 626f 01bd e1ed 983c
00000030: 6457 26bd 01e9 cdbd 3d5d 88bd c872 92bc
00000040: 3810 cbbd 82cd 15be f9b1 b0bd 1900 aabd
00000050: 2f7d 95bd 64cc 57bd 04d1 9d3d d912 c63c
00000060: 7e10 b43d 3490 9bbd aa85 913d 89ed 963d
00000070: 9a2a ac3c c019 18bd 5f23 84bd 3505 043d
00000080: a1a0 02be e12e 89bd 9306 75bc a5fc e9bd
00000090: e89b d6bc 95cf 4cbe 5deb c5bd b39c 7fbd
000000a0: c1bf 943d c9b3 893d 2293 ebbc 686c 69b9
000000b0: 7431 8bbc 151a b93d 4793 a83d d9bf ce3d
000000c0: 9873 c6ba ca22 d33d 9ec2 7f3c 5ab0 a53c
000000d0: bc1e 36bd 5848 61bd a7f8 5abd 78fa d0bd
000000e0: c7c2 45bd 44f4 db3b a32e 403c 46db 12be
000000f0: d545 fbbc 85d2 e3bd e473 6bbc 0401 12bd
00000100: 4a49 30bd 6135 53bd bec6 883b 01a2 2b3d
00000110: 864d 49bc 1873 7a3d a6ac bc3c 68db 113c
00000120: eb37 623d 14e2 e83d bca6 1a3c b6bb a23c
00000130: 0ba8 923d 3ee7 41bc c6f1 c23d 0e96 6c3d
00000140: ffbd a4bd b939 1bbd 0c63 e6bd 7ab0 c6bd
00000150: 6a00 05be 8afc f0bd cb75 86bc a51d 10be
00000160: b422 03be da7d cf3b 9534 a63d 78a2 96bd
00000170: a133 85bc dbab eebc c4ae ec3d 3e23 473d
00000180: 9e9f 083e 9230 a93d f399 bdbb b4a8 463c
00000190: 8438 113d 2889 a73c c93e e13c 6bd4 0dbe
000001a0: 09ad a4bd 613f 2c3d be93 c03c 3d1a 2b3d
000001b0: decf b63c 1bcd 073c febc 7f3d b630 e6bb
000001c0: abde 733d 1b2a 06bd c781 86bd fa4f ce3d
000001d0: ce5c 283c 4635 ac3c 58eb 733d ecbe db3d
000001e0: 24b5 b9bb 4110 9b3d f15c 1ebc 478c b4bc
000001f0: dcb4 a63c f0f7 b3bd cab7 09bd e888 6bbd
00000200: 7cb3 c43c ceac d9bd ee69 073c e4fa 86bd
00000210: ac1b 58bd 9de5 fdbd 5d88 00be 2c6f 79bb
00000220: 182a fcbb 8ec1 abbd 3419 4fbc c0d1 ecbc
00000230: 2304 013e c4ff fc3a 3974 083e dedc 193e
00000240: ea34 173e 80af 103e 1527 3e3d f31b 193e
00000250: eb3d 313e f4fc df3d b05a 0cbc 1223 b63c
00000260: 0c95 07be 00ab 07bd 1f78 273e 3714 fe3d
00000270: dc44 aabd 293c 2bbe 21c7 853c b87f 6d3d
00000280: f56a 2a3d 7850 63be dcbf efbd 6cb4 243e
00000290: f908 853d fd1b febc 4e41 8f3b a63d 8b3d
000002a0: 4c25 1b3e 9308 403d 2de4 d33a 7163 0b3c
000002b0: c8d0 f23d 4473 a3bc 5818 e6bd 7971 edbc
000002c0: f8a5 8abd c3be 55bc b931 e43d 13f2 83bd
000002d0: 9b77 fabd 3288 45be a5de bebc c52b 0d3e
000002e0: e0bc 3bbd 41b8 11be af79 a23d 0b6d 133e
000002f0: a23b 8f3c 805c 3bbe 06b3 87bc aaa3 773d
00000300: 6635 f03d 6bc9 07bd 0148 01be 0d4c 1abb
00000310: 6ea4 9a3d 1a0a a03d 361c 55bd ee15 013c
00000320: 904e 66bd dee2 adbd e2dd 90bc f881 803d
00000330: c346 b6bc 82de 6ebd 217a d5bd c240 2b3e
00000340: 64e1 f03d b225 e1bd 34c3 b0bd a272 023d
00000350: 29ae 023e 7909 1a3d e1e9 8fbd cb2b 1c3d
00000360: ebb2 5a3d e185 283d 4649 4ebd 0aec 41be
00000370: 1414 d33d 6db9 0e3e 8ee9 a8bc 6cd9 e9bc
00000380: 88f9 e3bd 07d8 b3bd 5266 58be 08a3 3c3d
00000390: 1a3f d33d f405 89bc bf86 0abe 9774 e2bd
000003a0: 4569 1a3e be1a 2e3e 4c9a b1bd f72a 11be
000003b0: c7fa 18bc ae5a 5a3e 4ebb 003d 2637 bbbd
000003c0: f23c 6dbd 46e8 da3d aebe 8e3d 2839 c2bd
000003d0: 7740 99bd b00f 723b f628 1c3e c944 293c
000003e0: e0b7 ecbd f817 063b b380 b93c f088 2e3c
000003f0: 9c4f 6fbd 8fcf 73bd 5213 df3d a8f8 7c3c
-0.021936636 0.057456456 0.10408841 0.08501556 0.13939741 0.0067741834 -0.09107063 0.0032259347
0.046460964 0.003486055 -0.031600364 0.018668117 -0.040610686 -0.100542076 -0.06658409 -0.017876998
-0.09915203 -0.14629176 -0.086276956 -0.083008 -0.072992675 -0.052685156 0.07705882 0.02417891
0.08792208 -0.07595864 0.071055725 0.07369525 0.021016408 -0.037133932 -0.06452059 0.03223153
-0.12756588 -0.066983946 -0.014955181 -0.11425141 -0.026197389 -0.20001061 -0.096640326 -0.0624053
0.07263137 0.067237444 -0.028756682 -0.00022260996 -0.016991355 0.09038178 0.08231216 0.10095186
-0.0015140651 0.1030937 0.015610365 0.020225693 -0.044462904 -0.055000633 -0.05345979 -0.10204023
-0.048281457 0.0067124683 0.011729869 -0.14341459 -0.030672947 -0.11124138 -0.014370892 -0.0356455
-0.043038644 -0.051564578 0.0041740825 0.041902546 -0.012286549 0.06114492 0.023031544 0.008902408
0.05522911 0.11371246 0.009439167 0.019864898 0.07160958 -0.011834918 0.09518771 0.05776029
-0.080440514 -0.037896845 -0.112493604 -0.09701629 -0.12988439 -0.11766918 -0.01641359 -0.14073808
-0.12806207 0.0063321413 0.08115498 -0.07355207 -0.01625997 -0.029134681 0.115567714 0.048617594
0.13342139 0.08261217 -0.0057861744 0.012125183 0.035454288 0.020451143 0.027495759 -0.13850562
-0.08040816 0.04205263 0.023507949 0.04177307 0.022315916 0.008288647 0.062436096 -0.0070248498
0.059538525 -0.032755 -0.06567722 0.10073848 0.010276033 0.021021497 0.059550613 0.10729775
-0.0056673456 0.075714596 -0.009665714 -0.022039546 0.020349912 -0.08787525 -0.03362254 -0.05750361
0.024011366 -0.10628663 0.008265002 -0.06590822 -0.052760765 -0.12397311 -0.12552018 -0.0038060648
-0.0076954477 -0.08386527 -0.012640286 -0.02890861 0.12599234 0.0019302298 0.13325585 0.1502566
0.14766279 0.14129448 0.04642399 0.14952068 0.17308776 0.10936919 -0.008566543 0.02223352
-0.1324045 -0.033122063 0.16354416 0.124061994 -0.08313915 -0.16722168 0.016330304 0.05798313
0.04160591 -0.22198665 -0.11706516 0.1608445 0.06495852 -0.031019205 0.0043717986 0.06798868
0.15150946 0.046883177 0.0016166024 0.008507595 0.11856228 -0.019952424 -0.11235112 -0.028984772
-0.06769937 -0.013045969 0.11142296 -0.06442656 -0.12229844 -0.19290236 -0.023299525 0.13786228
-0.045834422 -0.14230444 0.079333656 0.14397065 0.01748449 -0.18297005 -0.016564857 0.060458817
0.11728935 -0.03315107 -0.12625124 -0.0023543865 0.07550894 0.07814427 -0.052028857 0.007878764
-0.056227267 -0.08490537 -0.017683927 0.062747896 -0.022250539 -0.05831767 -0.10423685 0.16723922
0.1176174 -0.10993518 -0.08630982 0.031847604 0.1276175 0.03760669 -0.07027031 0.0381277
0.053393286 0.041143302 -0.050362848 -0.18937698 0.10306564 0.13937922 -0.02061918 -0.028546058
-0.11131579 -0.08781438 -0.21132782 0.046053916 0.1031477 -0.016726471 -0.13527964 -0.11057394
0.1507922 0.17002389 -0.08672008 -0.14176546 -0.009337134 0.21323654 0.031428628 -0.09141378
-0.05791945 0.10688834 0.06969963 -0.09483558 -0.07482999 0.003693562 0.1525 0.010331341
-0.11558509 0.0020461064 0.022644376 0.010652766 -0.05842553 -0.059524115 0.10892357 0.015440144

conv2.bias f4 [16]
00000000: 18ee 5fbd 4676 7dbd e435 f0bc 9e7e 673d
00000010: 8000 79bc 5093 dbbc 2865 be3d 0c3c 45bc
00000020: 3c95 59bd 1acf 30bd 8855 653d 6d76 803d
00000030: dfeb c3bd d2d5 863d 26a8 06bc 553b 66bd
-0.054670423 -0.061880372 -0.029322572 0.056517236 -0.015197873 -0.026803643 0.09296638 -0.012038242
-0.053120837 -0.043166257 0.055989772 0.06272588 -0.09566473 0.06583752 -0.008218801 -0.056208927

fc1.weight f4 [120, 256]
00000000: 53e9 f2bc 64ac 4bbc 992b 03bd f947 cfbb
00000010: f5eb 4ebc 285e 53bb f8e8 91bc 9674 b4bc
00000020: 23cb 963c 2a9d 953b d446 48bc 2a4c 3bbc
00000030: 84af 053b c5a7 61bc fc2e 0ebd 7ca1 5dbc
00000040: cad8 3a3c 356d c53c caac e8bc 7bfc 8f3c
00000050: c43c 433c 5055 c5b9 ce10 1cbc 805f e738
00000060: 6d74 de3a 4da0 77bb 54dc 443b 7f40 a33b
00000070: 64b3 73bb 3b82 763b 52e5 883b f5af b3bc
00000080: 0222 d73c 1a2a 383c 0c29 8a3b 0d63 573b
00000090: e7aa bdbc 8a52 bdba de4d a63c a9be 8e3c
000000a0: 9ebe 24bb 15c0 393c 5e57 f53c 1034 123c
000000b0: 4479 02bc 7c35 5ebc 3de5 813c 52de 893c
000000c0: e843 d4bb 1930 983b 4742 97bc bc63 9cbc
000000d0: 9c59 8d3a feea 573c 878d cfbc ec6e 00bd
000000e0: 8839 62bc 29cf 87bb 7fa1 1b3c b5a8 fc3b
000000f0: 991a 65bc f0c0 1e3b b705 8b3c 61c2 9dbc
00000100: fa2d 62bc ebe9 b1bb 25c0 3cbc 28ee 8fbc
00000110: 5609 b43c 700a a73c ae11 e4bb 3a2c 49bc
00000120: 5278 853b b6d2 9b3c 8cfd 8a3c 688d 613b
00000130: 4d33 2d3c e331 31bd 8844 90bb 36b8 24bc
00000140: cbd1 b63c 08dc bc3c 0312 10bc 3859 713b
00000150: 2f87 353c 5b9b c0bb 785d 61bc 9e1b 983c
00000160: fc18 d2bc 6803 90bc 0ca7 bdbc 95c8 abbc
00000170: 938c b8bb e6aa dfbb 6c97 3dbb a659 6fbc
00000180: 14a9 56bc 8ab3 ad3c 20cf ab3c ac6d b13c
00000190: ff3a dcbc b821 c23c 36d8 ee3c 6915 973c
000001a0: 06e6 b23c 2f48 9bbc c0e1 ad39 c878 9abc
000001b0: 7c2a 0c3c c4b4 a83c 49bc 453d 0211 c73c
000001c0: 143f 0f3b 98ea 19bc 200e 16ba 1597 a13c
000001d0: 5fb5 adbb 762b 95bc f21a 4a3d 19bf 283d
000001e0: 9e46 7a3b dd22 153d 80f8 acba ab4d 06bd
000001f0: 80bc dd39 e01e b53b a656 0c3c 7432 21bc
00000200: b93e 12bc 54d8 bfbc a290 39bc 0c2b 5c3b
00000210: 8cab ba3c 7bd3 443c 1c63 aabc d81d d2bb
00000220: dda7 22bc 722e 9fbc 6630 d43b 28c2 84bb
00000230: 99ef 6f3c 0bdf 63bc 92a6 77bb 85c3 cabc
00000240: 36cd c03b 2825 b83a 54f0 03bb 0280 113c
00000250: c274 d6bc c1ac 233d 30c0 c33b 06e5 a93c
00000260: 204d ccbc aa2c 3fbc 12e6 96bb 46c0 a93c
00000270: a072 7a3c 21f2 d43b e049 b53c 8007 6a3a
00000280: 5c2e 2d3c 207b 1c3a 80b0 f33c d4d5 c43c
00000290: 7287 2c3b b197 0fbc 2158 103c 86b7 0a3d
000002a0: ee6c 0e3d 30de 9f39 48db b63b 1212 8a3c
000002b0: 3c21 4cbc e46e 6abb 18c2 ea3c 4426 00bc
000002c0: 5041 44bb 0103 843c b396 d4bc 56e4 cbbc
000002d0: 20bd 4dba 536f 2e3c 2806 463b 7e9a 763c
000002e0: f0f3 0bbb cc15 523d b825 9d3b 34b2 0b3c
000002f0: 4eb9 783c 7016 adbb 086b 8fbc c90b 95bc
00000300: 33c4 9b3c bb76 9f3b 7e05 5f3b f5f4 853c
00000310: a0ef 383b b0e0 893c 34fc 363b 6ae5 0b3c
00000320: 77d6 93bb b4b7 ebba de13 753c 9e89 2d3c
00000330: 5513 093c 4632 023b 1c2b 4cbc 40c7 c6b9
00000340: 4ce4 a63b 40fe 81bb 4030 80bb 58f4 edbc
00000350: 08e0 783c 3cc2 873c 6833 163b 5d50 d1bc
00000360: 2c08 8f3b 5e5d 0bbd a33a 63bc bfef 33bc
00000370: 1b45 7ebc de28 cabb d8eb 8e3b 0878 923c
00000380: 4bf1 ca3c 7819 0fba 3f6c 083c d303 a5bc
00000390: 004d 263a 5ae5 f1bb d2b9 193c 3614 293c
000003a0: c4dc e4bc 509a bbba ca14 c33b 9c37 323c
000003b0: da86 1d3c 982a bd3c f7e3 8c3c 68e9 323d
000003c0: 321a 2d3b 8265 673c 1935 a9bc 5d98 23bd
000003d0: 1b63 e33c 0afa 58bb 17e6 613c bc0d d23b
000003e0: 5615 e93b 5468 943c 5ba4 923b a217 c0bc
000003f0: ca69 9dbc a142 01bd 3e1a edbb 0472 3dbc
-0.029652273 -0.012431238 -0.032024 -0.0063257185 -0.012629499 -0.0032252166 -0.017811283 -0.022028249
0.01840741 0.0045658546 -0.012223918 -0.011431733 0.0020398805 -0.0137729095 -0.034712777 -0.01352727
0.011404226 0.024099926 -0.028402705 0.017576447 0.011916343 -0.0003763833 -0.009525491 0.000110327266
0.0016971953 -0.0037784756 0.0030038552 0.004982054 -0.0037185783 0.0037614245 0.0041777277 -0.021934489
0.026261333 0.011240507 0.004216319 0.0032865435 -0.023152782 -0.0014444154 0.020300802 0.017424898
-0.002513803 0.0113373 0.029948886 0.0089235455 -0.007963482 -0.013562556 0.01585638 0.016829643
-0.0064778216 0.0046444056 -0.01846422 -0.019090526 0.0010784152 0.013178585 -0.02533604 -0.031355783
-0.013807662 -0.0041445685 0.009498953 0.007710541 -0.013983392 0.0024223886 0.016970498 -0.019257726
-0.013804907 -0.0054294965 -0.01152042 -0.017569616 0.021977108 0.02039072 -0.0069601154 -0.012278611
0.004073181 0.019021373 0.016966604 0.003441656 0.010571313 -0.043260466 -0.004402701 -0.010053685
0.022316834 0.023054138 -0.008793357 0.003682686 0.011079594 -0.005877895 -0.013755195 0.018567856
-0.02564668 -0.01757975 -0.023150943 -0.020969668 -0.005631992 -0.0068257926 -0.0028929366 -0.014608776
-0.013101835 0.021203775 0.020972788 0.021658741 -0.0268836 0.023697719 0.029155832 0.018442826
0.0218382 -0.018955318 0.00033165328 -0.018856421 0.008555051 0.020594008 0.048275266 0.024300102
0.0021857666 -0.00939431 -0.00057241507 0.019725362 -0.005301162 -0.0182092 0.049342103 0.04119787
0.0038189064 0.0364102 -0.0013196617 -0.032788914 0.00042292848 0.005527362 0.0085655805 -0.009838689
-0.008926087 -0.023418583 -0.011325987 0.0033594994 0.022786878 0.0120133115 -0.020799212 -0.006412249
-0.009927717 -0.019431327 0.006475496 -0.0040514655 0.014644527 -0.013908158 -0.0037788493 -0.024751434
0.005883838 0.0014049159 -0.002013226 0.008880617 -0.026178721 0.039959673 0.0059738383 0.02073909
-0.02493912 -0.011668364 -0.0046050632 0.020721566 0.015286118 0.0064985906 0.022129953 0.0008927509
0.010570135 0.0005969275 0.029747248 0.024027742 0.002632585 -0.008764193 0.008810074 0.033866428
0.034771852 0.00030492386 0.0055803396 0.01685432 -0.012459096 -0.0035771662 0.028657004 -0.007821623
-0.0029946156 0.016114714 -0.025950765 -0.024889152 -0.0007848311 0.010646659 0.0030216072 0.015051482
-0.0021355115 0.05129032 0.004795756 0.008526374 0.015180899 -0.005282216 -0.017507091 -0.018194096
0.019014454 0.0048664487 0.0034030373 0.016352156 0.0028219 0.016830772 0.002792132 0.008538583
-0.00451165 -0.0017983825 0.01495835 0.0105918925 0.0083664255 0.001986639 -0.01246145 -0.00037913956
0.005093133 -0.0039670765 -0.003912002 -0.029047176 0.015190132 0.01657211 0.0022918824 -0.025551016
0.004364988 -0.03402459 -0.013868961 -0.010982453 -0.015519406 -0.0061694225 0.004361611 0.017879501
0.02477326 -0.0005458812 0.008326589 -0.020143425 0.00063438714 -0.007382077 0.009382682 0.01031976
-0.0279373 -0.0014312956 0.005953406 0.010877516 0.009614671 0.0230916 0.017198546 0.043679625
0.0026413319 0.014123322 -0.020655202 -0.039940227 0.027757218 -0.003310802 0.013787768 0.0064103287
0.007113139 0.018116154 0.004475159 -0.023448769 -0.019215483 -0.031557683 -0.0072357943 -0.011562828

fc1.bias f4 [120]
00000000: 7dbb 883d 7f0d a3bc e63d 80bc 4010 d43c
00000010: 65be 383c c88e b63d ca5d 733d 0b5a 853d
00000020: 2892 f03c c295 013d deaa 23bc 1a97 01bc
00000030: 6638 0a3c 4409 713a 2ce1 183d b28b 7bbd
00000040: 90fc 5dbd 351b 753c 6684 9b3c e641 153d
00000050: e85c cbbc 9e53 803d 74d7 913c e86f 4f3d
00000060: 334a 073d c29f 433d b2e7 1dbd eb42 9d3d
00000070: 5150 08bb 4276 713d 777c a4bc 20a0 9abb
00000080: d030 81bd b099 be3d e1dc 023d 5e2c e0bc
00000090: bb04 563d 7470 cdbc 763e cf3c e9ad 173c
000000a0: b071 133d ceaa 283d d5ea 48bc 3779 b13d
000000b0: 3c8c 2dbc 5227 6c3c ada0 57bc d179 293c
000000c0: b2f5 af3a b22f 653c 73b5 483c 1591 813d
000000d0: 9937 953b 1c59 40bd de2c c83c f6ae 7d3c
000000e0: cbbe 76bc 58b5 fe3a 6c2e 85bc 24c9 4e3d
000000f0: fcba 633c 5f67 c73c ea2c 473d 1619 5dbd
00000100: ca21 003c 93b3 49bd 860c 87bd 2250 9cbc
00000110: 55e2 493c 6041 953d 1b25 a03d 4727 6c3d
00000120: 787e 1d3d bac9 20bc 0d4a 19bd 0cac b4bc
00000130: d5f6 043d 96d3 b03c ec5f 103d be84 3b3d
00000140: f653 1a3d 8697 a13c 90ea 4f3d 10aa 473d
00000150: 00a4 033d a4fc 993c eb41 2dbd 1c14 703c
00000160: 0bdd 80bd e662 b1bc 16e4 05bd a901 0f3d
00000170: d12f c93c 6681 8e3c f183 cdbc e489 11bc
00000180: 460c 56bd 3c55 ab3d ef5a fdbc 04f5 6c3d
00000190: 844f 96bb c03d 5f3d 7202 cc3a 849f 603b
000001a0: 9d59 de3b 3919 21bd bf42 f3bc ab6c 2c3d
000001b0: cda0 53bc 042c f03c b63e d7bb 3598 223d
000001c0: bcc4 f9bc 9260 493d 0552 13bd 0a90 3fbd
000001d0: 2c2f df3c 9ad2 f0bc 9273 4dbd 4012 f7bb
0.066763856 -0.019903896 -0.015654515 0.025886655 0.011275862 0.08913952 0.059415616 0.06511315
0.029366568 0.03163696 -0.009989468 -0.007909561 0.008436298 0.0009194801 0.037324116 -0.06141252
-0.05419594 0.0149601 0.018984031 0.0364398 -0.024824575 0.06265949 0.017802931 0.05064383
0.033029746 0.04775978 -0.03855104 0.07678779 -0.0020799825 0.05895067 -0.02007888 -0.0047187954
-0.06308138 0.09306657 0.031948928 -0.027364906 0.052250605 -0.025078036 0.025298338 0.009257772
0.035997093 0.041178517 -0.01226302 0.08665698 -0.0105925165 0.014413672 -0.013160867 0.010343985
0.0013424663 0.013988422 0.012250292 0.063265 0.004553747 -0.04695998 0.024435457 0.0154836085
-0.015060137 0.0019432707 -0.016257487 0.05048479 0.013899561 0.024341283 0.048626818 -0.053979002
0.007820556 -0.04924352 -0.065941855 -0.019081179 0.012322028 0.0728786 0.07819577 0.057654645
0.038450688 -0.00981372 -0.037424136 -0.022054695 0.03246196 0.021585267 0.03524773 0.04578089
0.037677728 0.019725572 0.050760806 0.04874617 0.032138824 0.018797226 -0.042299192 0.014653232
-0.062921606 -0.021653604 -0.032688223 0.034913693 0.024558933 0.017395686 -0.025087329 -0.008882973
-0.0522578 0.083658665 -0.03092715 0.057850853 -0.0045871157 0.05450225 0.0015564694 0.0034274766
0.006785585 -0.039330695 -0.029694913 0.04209582 -0.012916756 0.029317863 -0.006568755 0.039695937
-0.030489318 0.049164362 -0.03596689 -0.046768226 0.027244173 -0.029397298 -0.050159045 -0.0075400174

fc0.weight f4 [120, 120]
00000000: 6829 063d 16ef fb3c 18c0 9f3c a0ed 8f3c
00000010: 08f7 83bd 41cc 9b3d 7a34 403b 2189 a83d
00000020: ab58 0d3e ea92 633d 6669 d0bc 9994 8dbd
00000030: 1b70 b9bc be6a 69bc 8413 d63d 3e65 3dbd
00000040: 4210 fcbc 76d0 9a3d 44d0 21bb a562 cf3d
00000050: 5abd c9bd cab6 503b be3f c9bd 4dab e13c
00000060: 3fd6 05bd 30d5 07be bad4 60bd dc06 4b3d
00000070: fe10 033c 1e07 c83d 0450 913d f3e8 9f3d
00000080: 6244 543d 1595 99bd 151c b8bd ea73 223d
00000090: 11ba ab3d 94e7 e63c c918 fbbc 0464 f8bd
000000a0: b03d 08bd 6949 78bd 8afc c83c af1b dfbd
000000b0: 945e e0bd 23a0 bcbd e374 163b 1fff 0d3d
000000c0: d844 903d 1fdb c1bb 30a8 ed3d 688c df3c
000000d0: 3b01 dd3a 4c9f 4dbb 2ca8 c3bd 520a e8bd
000000e0: b6a0 cc3d 1ad0 91bd 4e8c 653c d457 233d
000000f0: 9bfa 41bd 4f3f 9c3b 5cd6 503d 90eb cc3c
00000100: d6d5 913d 0042 a63d 6c5b 8dbd b015 0bbd
00000110: 5895 083e b578 0b3e e3ec 86bd 5408 bfbc
00000120: e51d ac3d dcd5 b7bd e853 8f3d 0401 a03d
00000130: 3a35 92bd eca0 993d 086d be3d 0e72 22bd
00000140: 3917 be3d c3a0 8d3d eb39 a03d 326d 94bd
00000150: 80f5 853c 507e d13d ba91 933d f9ca 6c3d
00000160: 364d babd ba60 ef3d f8aa d8bd 6077 f0bc
00000170: e45d da3c aaa6 6b3c 2bd5 873d c723 6c3c
00000180: 5193 b73c 6803 65bd b63f ccbc 6448 7bbd
00000190: 4f89 a1bc a6f9 0b3e 837c 973c efd2 7fbd
000001a0: 6fe5 9ebd adfc 043e 3a3c f73d 30c3 be3c
000001b0: fb07 dbbc a47e fa3d ee0d d33d de98 663c
000001c0: b848 c03c ba32 62bc 7d72 913d f7db 85bd
000001d0: 7882 8d3c 1e42 b63c 006a 68bd 9630 ff3b
000001e0: f3a1 ae3c f683 9dbb e859 c13c c012 e83c
000001f0: d32d 913d 75c4 82bd 85ac 683c bd61 30bd
00000200: 433f 853c 060f 0bbd 5968 d1ba 1f6f 4b3c
00000210: 13a3 19bd 5e31 83bc 92ef 573d e6f3 b3ba
00000220: 1b12 27bd a579 98bd 6cb3 713a 6093 463d
00000230: 3c82 953d bb53 78bd 0faf 05bd 226a b5bd
00000240: 5216 f13d b65c af3b 865b fb3c c20f c33d
00000250: e569 603d 8c73 9b3c 43e9 8cbd 1cff 36bc
00000260: e73a d3bc 0861 b43d d20c 993c fc9a b13c
00000270: deeb 433d ed49 363d cd93 88bd 001b f73d
00000280: 5e4a ca3c 3a97 833d c16a 03bc 106d 933c
00000290: ba97 783d 54eb 40bd fc25 213d 8a42 503c
000002a0: 98ac 983c cb4b a93d e690 8fbd 5ade 503c
000002b0: 861f 3e3d 8229 db3d 5498 853d fa66 093e
000002c0: f470 7f3c 1a02 84bd a5b2 ecbb c897 913d
000002d0: c4f3 023d 4a9d 07bc c4ed c83d 9f32 5e3b
000002e0: 10cd 24bd 7dda 8d3d 82f1 06bc 6aac 42bd
000002f0: 29de 95bd f4db 1a3d 07b5 973c 5c81 0c3c
00000300: 308c 043d 79b9 a73d 8a97 f6bd 5d74 2dbd
00000310: 5f06 a93c 403f 89bd 76f6 b9bd fca1 f93c
00000320: 1f5a c83a d35a 763d b8f3 7bbd f88a 63bd
00000330: 75b3 81bc 9bd9 8ebd b071 96bd 04ed 9abd
00000340: 5826 8f3d 98e8 87bd 9f7d 03bd 8eaa 88bd
00000350: da40 bb3c bc33 603d 660e 85bc b82c 873d
00000360: 3f18 25bd 4514 9b3d 5e13 86bd b0d8 9d3c
00000370: 6d90 b63d 841b 84bd cf39 d03d d66f dc3d
00000380: 9c5f 95bb 8c9f 753d d372 96bd 7df9 08bc
00000390: e95e 16bd 9e5d 7b3d bede b6bd 2ee9 4e3d
000003a0: 77a8 1ebc b8fb 5a3d d6e5 963c 51f4 e63d
000003b0: 9887 c43d b846 dcbd bf08 67bd 0946 94bb
000003c0: 2597 373d 9bbe b6bd 4c65 9fbc 506b 09bc
000003d0: 2e8b eabc 00f7 c6bd 2ee5 463d 2c67 25bd
000003e0: 5e30 1a3d 50fb 7fbd faa7 6b3d 4ac2 6cbb
000003f0: 68f6 90bd be5c 863d fa47 cb3d 1c9a ec3c
0.03275433 0.030753653 0.019500777 0.017569363 -0.06443602 0.07607318 0.0029328153 0.0822928
0.13803355 0.05556003 -0.025440883 -0.069131084 -0.022636464 -0.014246641 0.10452941 -0.04623913
-0.030769471 0.07559292 -0.0024690786 0.10126237 -0.09850569 0.0031847232 -0.09826611 0.027547503
-0.032675024 -0.13264918 -0.05489037 0.04956709 0.007999657 0.097669825 0.0709534 0.078081034
0.051823027 -0.07499138 -0.08989731 0.039661326 0.08385099 0.028186597 -0.030651467 -0.121284515
-0.033261955 -0.060616884 0.024534483 -0.10893952 -0.10955539 -0.09210231 0.0022957854 0.03466713
0.07044381 -0.005916014 0.11604345 0.02728863 0.0016861329 -0.0031375466 -0.095535606 -0.113300934
0.09991591 -0.0711977 0.014010502 0.03987868 -0.047358137 0.004768289 0.05098568 0.025014669
0.07120864 0.08118057 -0.06902203 -0.03395623 0.1333822 0.13620265 -0.06588151 -0.0233194
0.084041394 -0.08976337 0.06998426 0.07812694 -0.071390584 0.075013965 0.0929814 -0.039659552
0.09281773 0.069154285 0.07823547 -0.0724739 0.016352415 0.1022917 0.072055295 0.057810757
-0.09096758 0.11688371 -0.10579485 -0.029353797 0.026656099 0.0143829975 0.066324554 0.014412827
0.022409113 -0.05591145 -0.024932723 -0.061348334 -0.019718794 0.13669452 0.018491989 -0.06245702
-0.07758605 0.12987013 0.12072034 0.023286432 -0.026737204 0.12231186 0.10305391 0.014074532
0.023472175 -0.0138060395 0.07101915 -0.065360956 0.017274126 0.022248324 -0.056741714 0.0077877743
0.021317458 -0.0048069907 0.023602441 0.028329253 0.070888184 -0.063851275 0.014201288 -0.04306196
0.016265517 -0.033949874 -0.0015976533 0.01241663 -0.037509035 -0.016014751 0.052718706 -0.0013729304
-0.04078875 -0.07445077 0.00092201564 0.04848039 0.07300231 -0.060626727 -0.032637652 -0.08858134
0.117718354 0.005351628 0.03068329 0.0952449 0.05478849 0.018975995 -0.06880429 -0.011169221
-0.025784923 0.0880757 0.018682871 0.021680348 0.047832362 0.044504095 -0.06668816 0.12065697
0.024693664 0.064253286 -0.008021058 0.017996341 0.060691573 -0.047099426 0.039342865 0.012711177
0.018636987 0.082664095 -0.07010059 0.012748325 0.04641678 0.10701276 0.06523195 0.13418189
0.015590895 -0.06445713 -0.0072234445 0.07109028 0.031970754 -0.008277247 0.09810975 0.0033904684
-0.040234625 0.06926439 -0.008236291 -0.047527708 -0.07317764 0.03780742 0.018518938 0.008575764
0.032360256 0.08189673 -0.120406225 -0.0423473 0.02063292 -0.06701517 -0.09080212 0.030472748
0.0015285647 0.06014521 -0.061511725 -0.055552453 -0.015832642 -0.06975099 -0.07345903 -0.075647384
0.06989735 -0.066361606 -0.032102223 -0.06673156 0.022858072 0.054736838 -0.016242217 0.06600326
-0.040306326 0.075722255 -0.06546663 0.019268364 0.08914266 -0.06450561 0.10167276 0.107635185
-0.0045585167 0.05996661 -0.0734612 -0.008360264 -0.036711607 0.061368577 -0.089292035 0.050515346
-0.00968372 0.053462714 0.018420141 0.112770684 0.09596175 -0.10755676 -0.056404825 -0.0045249504
0.044821877 -0.08923074 -0.019457482 -0.008387402 -0.02863082 -0.0971508 0.048558407 -0.040381595
0.037643783 -0.06249553 0.05753324 -0.0036126547 -0.07078248 0.06560658 0.09925838 0.028882079

fc0.bias f4 [120]
00000000: 8e24 21bd 9e73 bbbb 2fd3 d9bc 72c4 9e3c
00000010: 13d1 05bd 6dab bbbd 35d4 25bd aca9 eb3c
00000020: dadb fe3c a824 753d 9688 1abd ec93 97bd
00000030: dceb 9ebb ac5a 2b3c c920 523d 6b49 b0bd
00000040: daaa 423d f87f a33c d704 953d cbe5 c5bc
00000050: cd83 32bd 08a9 ddbb 3e92 7cbd 81cb adbd
00000060: b2b6 a0bd ee93 ce3d a499 75bd 2a4e c33d
00000070: d2c3 91bd bcac 3abd a97d acbc 3d2e e93d
00000080: 1e06 023e ce07 8bbd 8def 56bd e658 bebd
00000090: 0b7a 80bd c37d d13d bcd8 a93d 0188 88bd
000000a0: ccca 743d 5439 e4bc 0f46 4abd 61bb 91bd
000000b0: f19f f83d 42df 233d 2808 9f3d cc1e babc
000000c0: 53ec 793d 662b 80bd cd73 653d a45e 60bd
000000d0: 3e9c 753d 6e1c 13bd 7f95 62bd d4e4 08bd
000000e0: a2a0 57b9 1530 083e 3864 89bd b068 79bd
000000f0: 209f 2fbd 24eb 543c 7818 a7bc a3d9 4a3d
00000100: 52be 333d 706a 24bd 8df2 043d 4e92 8cbd
00000110: b2a9 033d 2ee2 13bd 86bc 64bd f470 fa3d
00000120: 7897 73bd 89d1 cb3d a659 063d 9369 903c
00000130: a53d 05bd a22d 393d 96a0 3c3d 66d9 64bd
00000140: 8e5d 0e3d 3afd 453d 60ce 58bc 9392 8cbc
00000150: 30d6 62bd c652 debb da92 8dbd 7b39 9b3d
00000160: e290 363b cb57 613d 5972 003e 6206 86bd
00000170: f81a c13d f74c 9abd b2d3 3c3d 3ad4 27bd
00000180: e8f3 9abd 10fc 87bd 6a63 3c3d ffcd ec3c
00000190: 04c4 7d3d 246f be3d 491b d13b 579e 0a3c
000001a0: 8e41 23bd 7de1 3abd 4229 ad3d b6ce ccba
000001b0: 88b3 65bd 3a5d b23b de31 43bd 8708 9e3d
000001c0: 5511 7e3c 75ac 88bd 821f a0bd 5576 0bbd
000001d0: 4ce3 53bd 5ee9 bc3d bdc5 a93d 6c84 a8bd
-0.039341502 -0.0057205698 -0.026589958 0.019380782 -0.03267009 -0.09163556 -0.04048558 0.02876743
0.031110693 0.05984941 -0.037727915 -0.07401261 -0.004849894 0.01045863 0.051300798 -0.08607753
0.047526218 0.019958481 0.07276314 -0.024157425 -0.043582726 -0.006764535 -0.061662905 -0.08486081
-0.07847346 0.10086809 -0.059960976 0.09536393 -0.07117428 -0.04557489 -0.021056013 0.113857724
0.12697646 -0.06788598 -0.052474547 -0.092943 -0.06273278 0.10229065 0.08293292 -0.06666566
0.059763715 -0.027859367 -0.04938322 -0.07115818 0.121398814 0.040007837 0.077652276 -0.022719763
0.061016392 -0.062582776 0.05601864 -0.054777756 0.059963457 -0.035915785 -0.05531835 -0.033421353
-0.00020563838 0.13299592 -0.06708568 -0.060890853 -0.042876363 0.012995515 -0.02039741 0.04952396
0.043882675 -0.04014057 0.032457877 -0.06863843 0.032144256 -0.036104374 -0.055843852 0.12228575
-0.059470624 0.09952075 0.03280034 0.017628467 -0.032529492 0.045209534 0.046051584 -0.05587139
0.03475719 0.0483372 -0.013232797 -0.017159736 -0.055380046 -0.0067847697 -0.06912775 0.07579323
0.0027857353 0.055015367 0.1254362 -0.06544186 0.09428972 -0.07534211 0.046100326 -0.04097388
-0.07566053 -0.06639874 0.045993246 0.02890682 0.061954513 0.09298542 0.0063814265 0.008460603
-0.03985744 -0.0456252 0.08455135 -0.001562557 -0.056079417 0.0054432424 -0.04765498 0.0771647
0.015507062 -0.066735186 -0.0781851 -0.034048397 -0.05173044 0.09224199 0.08289669 -0.082283825

fc2.weight f4 [84, 120]
00000000: b29d a8bc 9b94 043e 466c 5c3d 2b1b fe3c
00000010: fdbc 82bb 9630 523d 1cb7 db3d 0b90 6e3d
00000020: 1453 09bc 6461 88bd 46ba 023d b64b b6bd
00000030: 2e23 a7bd c439 7d3d 979d 073c 4995 693d
00000040: fab8 72bd c04d 8f3d 768b ab3d 658d 3ebd
00000050: 2524 7dbc 8227 bbbd 2e48 883d 245a bbbb
00000060: b436 2a39 024f d43b a63d 12bc a8cb 493a
00000070: a3c0 1abd a6e1 c83d 2295 743d 6bb4 223e
00000080: 5421 bdbc e0a3 a23c 9743 c6bd 605e 973d
00000090: b068 233c 788f 8c3d 1a84 3dbd 1424 373d
000000a0: 57f6 c23d e0dd 7ebd 2450 c43d 3b74 cabd
000000b0: 91a1 ddbd 6e5a bbbd 31f5 c5bb b650 c33c
000000c0: fbc8 dabd 3f1b c63c 1f14 13bd a0b4 a6bd
000000d0: 8034 3dbb bc0d c13d 986f a0bc d0df 2839
000000e0: c2ca c73d 0838 943d f05c c63c d8ca bc3b
000000f0: e1ad c5bd 1584 013d 63b0 a3bc da43 c23d
00000100: 9dc7 983d 2186 e1bc e5fa eebc 9069 863d
00000110: 748b 0f3d 4784 0fbd b78c a83d 9604 b73d
00000120: 623e 79bd 6074 b93c b136 03bd 09ae eabc
00000130: 1934 593d 3bd3 a13c 2e42 fc3d b597 6a3d
00000140: f862 d23b f490 023e 9447 ab3d 6b63 01bc
00000150: 45ac a8bd 4b91 113e b36c 273d b340 723d
00000160: 9d78 1abd 1a7f d93d 54e2 bdbd 50d2 ffbc
00000170: 91e8 36bd b248 0fbd 4842 14bd ae9e 2a3c
00000180: 89eb 073d bc76 c63d 2bd7 3ebd 6a76 8bbd
00000190: 4c62 b83d ffbc 97bc e35d dd3c 0b7e 8c3b
000001a0: 8f0d 93bd ced6 183d 6739 a7bc b2fc 27bd
000001b0: fcfe 3abd 8668 7ebd b5a2 483c 7039 93bd
000001c0: bace 8fbc 6225 aebd 8bba 8d3d d383 03bc
000001d0: 0bd9 01bd 7010 1b3e f611 293d f3bd 11bd
000001e0: 8b6b 06bd e647 bebc e1f1 573c af6f 393e
000001f0: 94c9 72bd 1a4b 443b 53ea 7d3d ef4a 5abd
00000200: 1235 02be e0cc 00be 6a0d e63d dae6 74bd
00000210: 55db d2bd d44c c9bc 4e14 5e3d d067 6a3c
00000220: 9085 5abd c994 a53d cb34 3ebd f029 5c3c
00000230: 51f4 583d b69f 48bd c49d bd3d b692 e13c
00000240: 3cc7 fabd bdba 60bd c2ee dc3d cb50 fb3b
00000250: ac7e c23d 3e66 74bd 986d 70bc 95fa bebd
00000260: fd76 2c3d af13 03be 07b4 a5bd d238 6b3c
00000270: 57f8 87bd 7eba f53d 848e 173d 1688 4e3d
00000280: 6c3c 9dbd 7921 803d 334b b03d 24d3 5e3b
00000290: 1253 3c3d 4622 b2bd b35a 9cbd 79eb 413d
000002a0: 4aac e0bc 9180 17bd fc19 74bd ac62 ec3c
000002b0: 3e10 293e 1eef 0b3c ec43 01bd a28b 39bc
000002c0: 17e0 dfbc eef3 a73d 7fe9 833d 0104 053e
000002d0: 32a8 bcbd 8360 b63c ccf5 fa3d e127 8ebd
000002e0: 69c6 f13d 6525 173e 7817 a73d e189 d7bd
000002f0: f255 9a3d 14d7 ccbc aab4 0abd db8a 873d
00000300: afda 0fbe 8f0d 513d d4ba a5bd 54c5 4cbd
00000310: a0b2 903d 5432 cebc d1f1 9d3d 6ca2 673d
00000320: ea99 b03d 9a0c 043b 204c 89bc 6209 843b
00000330: 0d59 7d3c e4fd d6bd 2a85 d3bb ec39 e3bc
00000340: 890a 9e3c 2969 36bd 5ee8 20bd 209d a83d
00000350: 8e05 04be d038 9bbd 02fd a0bc c680 af3d
00000360: a6d6 c93d aba3 1d3b cae3 833d 1030 833d
00000370: b0c0 693d 166d c63b 41e7 083e 5345 2e3c
00000380: 12b5 eabd 1adf bfbd b0af 403b fea1 a0bd
00000390: 6822 7abc 909e 393d 8e3e c13d 4a4d 2ebd
000003a0: f2e2 a4bd b5a2 21bc 1e70 003d 3024 2dbd
000003b0: 6a26 d33d 485a 0f3e c6f3 5c3d 1ab5 863d
000003c0: e6bc da3a cea6 6a3d a470 7b3d 3e2c 423d
000003d0: fbc4 f93c b895 93bc 599b 81bb 1042 76bd
000003e0: a3f9 27bd 6c9a 223d 24ce 543d bd4e c5bd
000003f0: 0ee3 1ebd 94ec 7abc 5d23 823d ec9c 9d3c
-0.020583007 0.12947313 0.053814195 0.031018814 -0.0039898143 0.051315866 0.10728285 0.05824284
-0.008381624 -0.06659201 0.031915925 -0.089011595 -0.08161007 0.061822668 0.008277318 0.057027135
-0.05925844 0.069972515 0.083762094 -0.046521563 -0.015450512 -0.09138395 0.06654392 -0.0057175327
0.00016232842 0.006479145 -0.008925831 0.00076978887 -0.03778137 0.09808664 0.059712537 0.15889136
-0.023087181 0.019853532 -0.096808605 0.073910475 0.00997369 0.06863302 -0.04626856 0.04471214
0.09519642 -0.062223315 0.09585598 -0.098854505 -0.10821832 -0.091481075 -0.006041192 0.023842197
-0.10682865 0.024182914 -0.03590786 -0.0813992 -0.0028870404 0.09426448 -0.019584462 0.00016105105
0.0975547 0.072372496 0.024214238 0.0057614855 -0.096523054 0.031620104 -0.019981569 0.09485598
0.07459948 -0.027529778 -0.02917237 0.06563103 0.035045102 -0.03503826 0.08229964 0.089364216
-0.06085051 0.0226385 -0.03203458 -0.02864744 0.0530282 0.019754043 0.1231731 0.057273585
0.0064204894 0.12750608 0.08363262 -0.007897238 -0.08235983 0.14215581 0.040875148 0.059143733
-0.037712682 0.10619946 -0.09271684 -0.031228215 -0.044655386 -0.034981437 -0.036196023 0.010413809
0.03318361 0.096906155 -0.04659192 -0.06809695 0.09003124 -0.018522738 0.027022308 0.0042874864
-0.071803205 0.03731423 -0.020413114 -0.041012473 -0.04565333 -0.0621114 0.012245824 -0.0718869
-0.01755463 -0.08503224 0.06920346 -0.008027035 -0.03170113 0.15142989 0.041276895 -0.03558154
-0.032817405 -0.023227643 0.013180227 0.1810901 -0.05927427 0.002995199 0.061991047 -0.05329412
-0.12715557 -0.12578154 0.11233027 -0.05979047 -0.102957405 -0.024572767 0.054218583 0.014306977
-0.05335003 0.08085019 -0.046437066 0.013437733 0.052967373 -0.048980437 0.09258607 0.027535778
-0.12245032 -0.054865588 0.10787727 0.0076695434 0.09496817 -0.05966782 -0.014674567 -0.093251385
0.042105664 -0.12800477 -0.08090978 0.014356809 -0.06639164 0.11998461 0.037001148 0.05042275
-0.0767754 0.062563844 0.08608093 0.0034000361 0.04597766 -0.086979434 -0.07634487 0.047343705
-0.027425904 -0.036987845 -0.059595093 0.028855644 0.16510102 0.008540897 -0.031558916 -0.011324795
-0.027328534 0.08200823 0.0644102 0.12989809 -0.09211768 0.022262817 0.12253913 -0.069412
0.11805422 0.14760359 0.08158773 -0.10524345 0.07535924 -0.025004901 -0.0338637 0.066182815
-0.14048265 0.05103832 -0.08092275 -0.049992874 0.0706532 -0.025170483 0.077121384 0.056551382
0.08623107 0.0020149113 -0.016759932 0.004029439 0.015463126 -0.104976445 -0.0064550834 -0.02773758
0.019292133 -0.044533882 -0.039284103 0.08233094 -0.12892744 -0.075791955 -0.019651894 0.085694835
0.09855394 0.0024053853 0.06439932 0.064056516 0.057068527 0.0060554845 0.13369466 0.010636645
-0.11460318 -0.09368725 0.0029401593 -0.078433976 -0.015266992 0.045317233 0.094357595 -0.042554177
-0.08051099 -0.009865453 0.031356923 -0.04227084 0.10310061 0.13999283 0.053943418 0.06577511
0.0016688376 0.057287984 0.06138672 0.047405474 0.030489435 -0.018015727 -0.0039552865 -0.060121596
-0.041009557 0.03969805 0.051954404 -0.09634159 -0.038790755 -0.015315194 0.06354401 0.019239865

fc2.bias f4 [84]
00000000: 99bc ef3c 4b3f 0fbd e239 5bbd 00f6 3abd
00000010: e8f4 a33d f0b9 4abc 347c 9ebd 1c4e 39bd
00000020: b6c3 b73d 140c 553d 208a c2bc fc0b 8a3c
00000030: 841e ce3d 3145 693c faa8 8c3d 6172 163d
00000040: f884 773d 3e26 d53b 0a8b 4dbd 03a9 3ebc
00000050: dc41 ab3c 19cb 95bd 623a b43b 4ca1 073d
00000060: 605c 04bc fca2 3d3d e2f7 8ebd 3332 f93c
00000070: a50c f2bc 5617 0fbd 884b d6bd 0ad4 1abc
00000080: f227 bebd 9224 e7bc 2f54 813d 4f2a 843d
00000090: d081 93bd 784e d33d 97ee 75bd 5968 013d
000000a0: cc0c a1bb 06ad 4e3d a22d 283d e0dc aa3d
000000b0: cc87 413d 6ae8 d93d a17c 40bd 74d1 8c3d
000000c0: f961 7d3d 3bca 7d3d ab4a 17bd e507 94bd
000000d0: 8bb8 4b3d dc7a bc3c 3ebc 2ebd 0394 ba3d
000000e0: 610a 0c3d 792d 9a3c ae83 99bc 4ad7 323a
000000f0: 006b 003d 49ea 05bc c2fb 7ebd 2f6e 76bd
00000100: cdcf 12bd 6b76 9d3d 2cac a03d 9457 8d3d
00000110: 8818 25bd 5eac ad3a 20dd 193d 5a85 25bc
00000120: fef7 853c 348e f43c 5e11 f53d c6a2 a0bd
00000130: 3257 31bd 08e2 ce3c 10c8 2fbc 41ce e63c
00000140: 4302 df3c 99ad 26bd 1680 e03c d166 5e3b
0.029264735 -0.03497247 -0.053522 -0.04564476 0.080056965 -0.0123734325 -0.077385336 -0.045240507
0.08972876 0.05201347 -0.023747504 0.016851418 0.10064414 0.014237688 0.06868167 0.036730174
0.060429543 0.006504803 -0.050181426 -0.011636975 0.020905428 -0.073141284 0.005500124 0.03311281
-0.008078665 0.046298012 -0.06980874 0.030419445 -0.029547045 -0.034934364 -0.10463625 -0.009449968
-0.09284963 -0.02821568 0.06314885 0.06453382 -0.07202494 0.10317701 -0.06004199 0.031593654
-0.0049148556 0.050457977 0.041059144 0.0834291 0.047248647 0.106400326 -0.046993855 0.068758875
0.061861012 0.06196044 -0.036936443 -0.07228068 0.04973654 0.023007803 -0.04265999 0.09110262
0.034189586 0.018820511 -0.018739548 0.00068222417 0.031352043 -0.008173534 -0.062251814 -0.060163673
-0.035842706 0.07688602 0.07845339 0.0690147 -0.040306598 0.0013250222 0.037564397 -0.010102594
0.016353603 0.029852964 0.11966203 -0.078435466 -0.043296047 0.025254264 -0.010728851 0.028174521
0.027222758 -0.0406929 0.027404826 0.0033935795

fc3.weight f4 [10, 84]
00000000: 3fc3 e7bc d954 1cbd aadf 7ebd 3b2a 3cbd
00000010: 8707 1d3d a25d 013d 7fa1 0f3e c892 e53c
00000020: a865 11be 78dd a0bd b530 3ebb 7a09 3f3d
00000030: 3311 723d 046d 113e 9cce 5f3d 7002 fbbc
00000040: 726e d9bd 18a3 fcbd b74c 943c 9429 83bd
00000050: bddc fdbc 534b c93d 3052 c23d 1e7e 8ebd
00000060: 6a1e edbd f1c1 aa3d 5790 f3bd e02c b33d
00000070: fa50 e6bd b211 5e3d 7abf cebd 9fb3 a6bc
00000080: bff5 d73d 227a dbbd 5ae4 78be 1d9a e13d
00000090: 435b 183d 50b9 38be 1862 bdbd f267 81bd
000000a0: 9938 0dbe 44be d23d 90d7 07be 9e46 233e
000000b0: 3086 bebd 9179 063e cf5f 953d d25e 803d
000000c0: 9e5e 87bd c0f4 123e e6a8 98bb 14c3 26bd
000000d0: 4e22 81bc 9b69 83bd 161f 633d 6443 20be
000000e0: ecc3 de3d e680 813d c074 773d ec29 153d
000000f0: 2415 553d 903a b7bd 64d1 02be e46e af3b
00000100: 82cc c6bd 617f 42be 8ca5 32be 1dc5 b83d
00000110: 024c ae3d 04ae 09be faf8 b33d 0410 c7bd
00000120: 5f04 21be 5078 ee3d 75c4 bdbd f923 87bd
00000130: 96ef c1bd 12c8 a3bd 08e8 b2bd 0a42 2dbe
00000140: 0cf0 46be 5c37 b6bd 70da 5e3d 5179 5b3d
00000150: 7cbb fcbc 05b5 31be 2b09 d5bc 0583 88bd
00000160: 1bac 5ebe e711 eebd ec94 993c d332 8f3d
00000170: 13fb 3fbd ee8e 5fbe 0064 d33d 0e0e 49be
00000180: 6d0e bf3d e03f 7b3d 216b 12be 9e8c 1f3e
00000190: f2a5 7dbd 3e37 b23d d274 043c b508 70bd
000001a0: d53b 8f3d ae70 47bd 2309 2abd 68c5 643d
000001b0: 2aef 06be a245 d03d 5d5d 82bd 15e2 aabd
000001c0: faa0 fa3d 46ea 9b3b c728 08be 4e0d 073e
000001d0: 66e0 45bd 280d e4b9 59fe 1b3e 74a6 f1bd
000001e0: 94ea f03d 78e2 183e fa11 a0bd fd2c 02be
000001f0: 5466 253e e6d9 11be a6ae dabd 5e5c 9fbd
00000200: afcd 28bd 860a 31be e020 17be 29c4 4bbe
00000210: c9c2 003e 4e9d c0bd 2030 efbd fb6b 5abe
00000220: 1e2a 51bd 944d ff3d cb87 e63c dbc0 30be
00000230: 8c01 16bd 026f 3abe c6a4 4b3d c277 d33d
00000240: eca0 febd f00b b23d e885 01bd e2ee 393e
00000250: 9399 c5bb 58eb b33d 9c65 433c 8792 00be
00000260: f6ee eabc 3c0b 79bd cf89 e7bd d0ae 9e3d
00000270: 5c46 7a3d eeba 2bbe 7d4b f83d 7c39 cd3c
00000280: b6b9 ba3c a098 143d 7803 ba3d 088c ca3d
00000290: 5e3e 203d 600e 0abe 439b 773d b871 5b3d
000002a0: 9051 23be 8065 e0bc 8a64 b93d d122 72bc
000002b0: 95db 7fbd f83e e43b a439 333d 2859 d1bc
000002c0: a8f1 91bc afdd 1fbe c616 4b3c 3259 3f3d
000002d0: b13c 86bd 9cdb 39bd aa69 173d 11e6 f73d
000002e0: 1996 b63b c325 0abe 4a29 c9bd ec4b c3bd
000002f0: 9699 1b3e d821 a33d 5722 89bd 606e 353d
00000300: 51b8 233e dcb9 7ebb eaed 88bd 49d4 803d
00000310: 0c95 49be 159c b5bb 0c4b d33c daf9 47bd
00000320: 325e 59bd 9be6 82bd 0ef1 0abe 23c2 9b3c
00000330: e69b d3bc 9d7f 413d c5bd b23d bda3 fd3d
00000340: aea6 27be 0889 81bd 4e8f 373d afb9 2f3e
00000350: d291 ed3c b8bb 5fbd 0a06 02be ebf3 cebd
00000360: 14d4 e9bd 3e89 e7bd d8b0 113d 3ea3 a2bd
00000370: 53d4 e1bd 5ce9 cc3d 6c18 e13d feec 833d
00000380: 9cb2 19be fcd7 7f3d cb67 66bd 5819 71bc
00000390: 0ad1 23be 61d1 0a3e 8715 1abe bf15 90bd
000003a0: 49c8 563d ee1e 723d 4b9b a2bd acdd 1dbe
000003b0: ad38 2f3d 4aa9 5dbd fc90 2fbd 9d45 c0bd
000003c0: d4ab 2f3d 06b4 0d3e df22 b33c 5685 9bbd
000003d0: 3336 a33c f861 de3c 77f8 ad3d b9b8 9cbd
000003e0: 18f6 19be 8b53 e7bd 06cf adbd a520 763d
000003f0: 4c8d 93bd d2b1 2f3d d203 0a3a 0ce8 383d
-0.028291343 -0.038166855 -0.06222502 -0.04593871 0.038337257 0.031583436 0.1402645 0.028024092
-0.14198935 -0.07854742 -0.002902073 0.046639897 0.059098434 0.14201742 0.054640397 -0.03064081
-0.10616769 -0.12335795 0.018102987 -0.06404415 -0.030989045 0.0982882 0.09488332 -0.06957649
-0.11578067 0.08337773 -0.11892765 0.087487936 -0.11245914 0.054216094 -0.10095115 -0.020349322
0.10544919 -0.10716654 -0.24305859 0.11015723 0.03719641 -0.18039441 -0.092472255 -0.06318654
-0.13791122 0.102901965 -0.13265824 0.15944907 -0.09302938 0.13132311 0.07293665 0.062680855
-0.06609844 0.14351177 -0.004658806 -0.040713385 -0.015763428 -0.06416627 0.055449568 -0.15650707
0.10877213 0.063234136 0.060414076 0.036416933 0.052022114 -0.08946717 -0.12775189 0.0053537954
-0.097069755 -0.18993904 -0.17445964 0.090219714 0.08510591 -0.13445288 0.08787723 -0.097198516
-0.15724324 0.116440415 -0.09265987 -0.06598658 -0.094695255 -0.07997145 -0.08735663 -0.16919723
-0.19427508 -0.08897278 0.054407537 0.053582493 -0.030851118 -0.1735421 -0.026005348 -0.06665615
-0.2174534 -0.11624508 0.01874777 0.06992116 -0.046870302 -0.21831867 0.10321808 -0.19634268
0.093289234 0.061340213 -0.14298679 0.15580985 -0.061925836 0.08701943 0.008084493 -0.058602054
0.06993834 -0.048691444 -0.04151262 0.055852324 -0.13177171 0.101695314 -0.06365464 -0.08343903
0.12237735 0.004758152 -0.13296805 0.13188669 -0.048309706 -0.0004349735 0.15233745 -0.117993265
0.11763492 0.14930141 -0.07815929 -0.12712474 0.16152316 -0.14243278 -0.10677843 -0.077812895
-0.04121178 -0.1728917 -0.14758635 -0.19899048 0.12574305 -0.094050035 -0.11679101 -0.21330254
-0.051065557 0.12465969 0.028140923 -0.17261069 -0.03662257 -0.18206409 0.049717687 0.10325576
-0.12433037 0.08693683 -0.031621844 0.18157533 -0.0060302704 0.08785123 0.011926081 -0.12555896
-0.028678399 -0.06080173 -0.11305582 0.077481866 0.061102256 -0.16770527 0.12123773 0.025051825
0.022793632 0.036278367 0.09082693 0.0988999 0.039121978 -0.13482046 0.060450803 0.053575248
-0.15949082 -0.027392149 0.090523794 -0.014778809 -0.06246527 0.0069655143 0.043756142 -0.025555208
-0.017815426 -0.1561191 0.012395566 0.046715923 -0.06554545 -0.04537545 0.036966003 0.121044286
0.0055720923 -0.13490967 -0.098223284 -0.09535965 0.15195307 0.079654396 -0.06696003 0.044294715
0.1598828 -0.0038868105 -0.066860035 0.0629049 -0.19685763 -0.005542288 0.025792621 -0.04882226
-0.053068347 -0.06391641 -0.13568518 0.01901347 -0.025831174 0.047240842 0.08727602 0.12384746
-0.16372177 -0.06324965 0.0448144 0.17160676 0.029000197 -0.054622382 -0.12697616 -0.101051174
-0.11417404 -0.11305474 0.035569042 -0.07941292 -0.11026826 0.10005447 0.10990986 0.06441687
-0.1500954 0.062461838 -0.05625133 -0.014715515 -0.15997711 0.13556434 -0.15047275 -0.07035398
0.0524371 0.059111528 -0.07939776 -0.15416592 0.04277866 -0.054116525 -0.042862877 -0.09388278
0.042888477 0.13838205 0.021867214 -0.07593791 0.019923305 0.027146325 0.084946565 -0.076524206
-0.15035284 -0.112952314 -0.08486752 0.060089726 -0.072046846 0.042894192 0.00052648515 0.045143172

fc3.bias f4 [10]
00000000: 7039 7fbd 9645 313d 65f8 95bd c2c6 91bc
00000010: 69f4 2dbd d549 92bd b704 e63d 2da8 223d
00000020: d410 5dbd 4228 8f3d
-0.062310636 0.043279253 -0.07322768 -0.01779497 -0.042469416 -0.071429886 0.11231368 0.039711166
-0.053971127 0.069901004
