models/server-3.pth (torch, 181254 bytes, 10 tensors)

conv1.weight f4 [6, 1, 5, 5]
0	0x3e6f9b8b	0.23399179
1	0xbccfac2a	-0.025350649
2	0x3de1da0b	0.110279165
3	0xbd550a68	-0.052011877
4	0xbe54ea07	-0.207924
5	0x3d48fad0	0.04906732
6	0x3e969f6b	0.294185
7	0xbd89370b	-0.06699952
8	0xbd482dcb	-0.048871797
9	0xbca60f87	-0.020271076
10	0x3e76f9ec	0.24118775
11	0x3e993199	0.29920653
12	0xbdd9f58c	-0.106425375
13	0xbe902cfc	-0.2815932
14	0xbc06218f	-0.008186712
15	0x3e7039d2	0.23459557
16	0x3cc6d5cd	0.02427187
17	0xbe1858ee	-0.14877674
18	0xbe09337a	-0.13398543
19	0xbdbd943b	-0.09256788
20	0x3e6de0bc	0.2323026
21	0x3e7e5307	0.2483636
22	0x3a9f8038	0.001216895
23	0x3e50dc00	0.20396423
24	0xbe1a70c3	-0.15082078
25	0xbd9b9667	-0.07597046
26	0xbdf95ce4	-0.121759206
27	0xbd138d3e	-0.03602337
28	0xbd5eb6f3	-0.054373693
29	0x3dd911ac	0.10599074
30	0xbe64afb7	-0.22332655
31	0xbe2f6da8	-0.17131674
32	0xbe17a157	-0.1480764
33	0x3eafbc70	0.34323454
34	0x3c8efa0b	0.017453214
35	0xbe5c35a4	-0.21504837
36	0xbe0a1370	-0.13483977
37	0x3e030804	0.12796026
38	0x3eb860b2	0.36011273
39	0x3e90a596	0.28251332
40	0xbda29e82	-0.07940389
41	0x3e7476c5	0.23873432
42	0x3ee8e0ce	0.45484012
43	0x3e70a158	0.23499048
44	0x3e70f520	0.23531008
45	0x3ebf7d4e	0.37400287
46	0x3e910390	0.2832303
47	0x3e8fd9d7	0.28095886
48	0x3d6d0424	0.057865277
49	0x3e054c8c	0.13017482
50	0x3e660238	0.22461784
51	0xbdacb1c2	-0.08432342
52	0xbe4ab6e4	-0.1979633
53	0xbdd45b21	-0.10368944
54	0xbeb740a4	-0.35791504
55	0xbb0a378b	-0.0021090235
56	0x3ea4454b	0.32084116
57	0xbdf52502	-0.11969949
58	0xbd9d3367	-0.0767582
59	0xbc9974e3	-0.018732494
60	0x3e87ca24	0.2652141
61	0x3e93c5d6	0.28861874
62	0x3ea05a32	0.31318814
63	0x3dfe9224	0.12430218
64	0xbcada0b5	-0.021194795
65	0xbdd1b29f	-0.102391474
66	0x3e981ea5	0.2971088
67	0x3de23598	0.110453784
68	0x3eb909a2	0.36140162
69	0x3d393448	0.045215875
70	0xbea0a718	-0.31377482
71	0xbe680a07	-0.22660075
72	0xbdd6b8c5	-0.10484461
73	0x3e4fe516	0.20302233
74	0x3e050557	0.12990318
75	0xbcb198b4	-0.02167926
76	0x3ea8b45b	0.329501
77	0x3eb067d4	0.34454215
78	0x3de587b6	0.112075254
79	0x3d871e71	0.06597603
80	0xbd57bf07	-0.052672412
81	0xbdc6e424	-0.09711483
82	0x3df36df3	0.118862055
83	0x3eaf6215	0.34254518
84	0x3e8f417b	0.27979645
85	0x3b1e9f45	0.0024203819
86	0x3d97fddf	0.07421469
87	0x3d6032b5	0.054735858
88	0x3e9babde	0.30404562
89	0x3e2fedae	0.17180511
90	0xbe40ae62	-0.18816522
91	0xbdfe6591	-0.12421716
92	0xbdc08b56	-0.09401576
93	0xbd927eb2	-0.071530715
94	0x3e76275d	0.24038453
95	0xbe0ff24e	-0.14057276
96	0xbeace3a1	-0.33767417
97	0xbd81a303	-0.0632992
98	0xbca9fee8	-0.020751432
99	0x3e8b0ba4	0.2715732
100	0xbd9ce38b	-0.07660588
101	0x3cf23fb8	0.0295714
102	0x3e2ccbc7	0.1687461
103	0xbe2832c0	-0.1642561
104	0xbeb49bf4	-0.35275233
105	0x3e19263e	0.14955994
106	0x3db31bfb	0.08745571
107	0x3d2168be	0.03940653
108	0xbe99efaa	-0.30065662
109	0xbe88bf52	-0.26708466
110	0xbdd7d7fe	-0.10539244
111	0x3d98cc80	0.0746088
112	0x3d6f54c0	0.058430433
113	0x3e341789	0.17587103
114	0xbe805748	-0.2506659
115	0x3e4f315d	0.20233674
116	0x3db64a11	0.08900846
117	0x3e850d59	0.25986746
118	0x3e147a0c	0.14499682
119	0x3e80f3bb	0.25185952
120	0x3e14e7d9	0.14541568
121	0xbda6598c	-0.081225485
122	0x3e2e1a46	0.1700221
123	0x3b126f4e	0.0022344175
124	0x3e78c952	0.24295548
125	0xbe474638	-0.1946038
126	0xbe703811	-0.23458888
127	0xbdc09377	-0.09403127
128	0x3e0068c0	0.12539959
129	0x3c637264	0.013882253
130	0xbe9c5918	-0.30536723
131	0xbe9d3382	-0.3070336
132	0xbde4ff21	-0.111814745
133	0x3e254306	0.16138849
134	0x3e88c33f	0.2671146
135	0xbe8aed83	-0.27134332
136	0xbea38e77	-0.3194463
137	0xbd88efd7	-0.06686371
138	0x3cb3bca2	0.021940533
139	0x3e8a0c20	0.26962376
140	0xbd2702a1	-0.04077399
141	0xbe62337c	-0.22089952
142	0x3e10d924	0.14145333
143	0x3bee8125	0.007278579
144	0x3eaa261e	0.33232206
145	0xbe18e03e	-0.14929292
146	0xbda59c35	-0.08086435
147	0x3db023c2	0.0860057
148	0x3e7a103b	0.24420254
149	0x3eacf9ec	0.33784425

conv1.bias f4 [6]
0	0xbe14b6df	-0.14522885
1	0xbb89fcd0	-0.004211046
2	0x3aca8acd	0.0015452743
3	0x3d1b5ee0	0.037932277
4	0x3d999dd0	0.075008035
5	0x3dc6f235	0.09714166

conv2.weight f4 [16, 6, 5, 5]
0	0x3d99f2fc	0.07517049
1	0x3ce2087b	0.027591934
2	0x3d80b752	0.062849656
3	0x3cfc63aa	0.030809242
4	0x3c5ebaf3	0.013594377
5	0x3d75ec8e	0.06004005
6	0x3d09f6c6	0.033682607
7	0x3ddcedb3	0.10787525
8	0xbd946e71	-0.072476275
9	0xbdbecdbf	-0.09316587
10	0xbdef3853	-0.11680665
11	0x3dfa112f	0.12210309
12	0x3cd8f32c	0.02648314
13	0xbd2fed4a	-0.042950906
14	0xbd4aa813	-0.049476694
15	0xbe378b6c	-0.17924279
16	0xbc69749b	-0.014248992
17	0x3e043bef	0.12913488
18	0xbdad0ab9	-0.08449311
19	0xbe0102cd	-0.12598725
20	0xbe33f3f4	-0.1757353
21	0x3d0b2fce	0.033981137
22	0x3dd2bfa5	0.102904595
23	0xbe007823	-0.12545829
24	0xbde254a8	-0.11051303
25	0x3d29e468	0.04147759
26	0x3db124d8	0.086496055
27	0xbd8b2a97	-0.06795233
28	0xbe077ed0	-0.13231969
29	0xbcf28a26	-0.02960689
30	0x3d255b31	0.04037017
31	0xbd855c58	-0.06511754
32	0xbdb707d3	-0.08937039
33	0xbda6a2c0	-0.08136511
34	0x3dbd0c2a	0.09230836
35	0xbd997cf2	-0.074945346
36	0x3c930660	0.017947376
37	0xbd3e17b2	-0.046409316
38	0x3cf6c6cc	0.03012409
39	0x3dab5ae6	0.08366947
40	0xbbf19934	-0.0073729996
41	0xbbbbfc1b	-0.0057368404
42	0xbd9a97c4	-0.07548478
43	0xbd6ebd91	-0.058286253
44	0x3d0d422f	0.034486946
45	0x3d3cf898	0.046135515
46	0xbdf25927	-0.11833411
47	0xbe33e1e3	-0.17566638
48	0xbc09623d	-0.008385238
49	0xbcddbd9f	-0.027067957
50	0xbd07b83f	-0.033134695
51	0xbdfde6e1	-0.12397552
52	0xbe3930a0	-0.18084955
53	0xbcf2ae7c	-0.029624216
54	0xbd917b9c	-0.07103655
55	0x3dbd8158	0.09253186
56	0x3d4d5020	0.05012524
57	0xbdbacfb8	-0.091216505
58	0xbda9bd02	-0.082880035
59	0xbc98dabe	-0.018658992
60	0x3dbab1ee	0.09115969
61	0x3d9dd21c	0.07706091
62	0x3d41a378	0.047275037
63	0xbdcc8a88	-0.0998736
64	0xbc844365	-0.016145417
65	0xbe2a2c25	-0.16618402
66	0x3d86d223	0.06583049
67	0x3da47d2a	0.08031686
68	0x3ceb5953	0.028729117
69	0xbdb12ca3	-0.08651092
70	0xbe460aa7	-0.19340001
71	0x3cef18b8	0.029186592
72	0x3d7b87a7	0.061408665
73	0x3cdade58	0.02671735
74	0xbd863502	-0.06553079
75	0xbd3fbd1a	-0.0468112
76	0x3bf2c464	0.0074086655
77	0xbdb368e6	-0.08760242
78	0x3d10f810	0.03539282
79	0xbd61ad10	-0.055096686
80	0xbc53b969	-0.012922623
81	0xbd835f52	-0.06414665
82	0xbe291c8d	-0.16514798
83	0xbd20b486	-0.03923466
84	0xbce39ee2	-0.027785722
85	0x3e1f53dc	0.15559334
86	0x3d6f179a	0.058372118
87	0xbd29d0cc	-0.04145889
88	0xbc217a15	-0.009855767
89	0x3cf63f42	0.03005946
90	0x3d8fbed4	0.070188195
91	0xbc8a0deb	-0.01685234
92	0xbd1629a2	-0.036660798
93	0xbcb7f28c	-0.022454523
94	0x3d9146f6	0.07093613
95	0xbbd97920	-0.0066367537
96	0x3b92c80c	0.004479414
97	0xbb8d8553	-0.004318872
98	0xbdad869a	-0.08472939
99	0x3d129178	0.03578326
100	0x3c7e4daa	0.015521446
101	0xbd136423	-0.03598417
102	0x3b3d3f50	0.0028876849
103	0xbdca2036	-0.09869425
104	0x3d905786	0.07047944
105	0x3dbdee07	0.09273916
106	0x3da68752	0.08131279
107	0xbc4128ae	-0.011789484
108	0x3c2a07d8	0.010377847
109	0x3d406aae	0.046976738
110	0x3d70cc42	0.058788545
111	0x3ddd58d2	0.10807957
112	0xbbc170d3	-0.0059033423
113	0xb8c9b570	-9.618222e-05
114	0xbceb00c7	-0.028686894
115	0xbdce165a	-0.10062857
116	0x3da70bc2	0.081565395
117	0x3dafbbeb	0.085807644
118	0x3d662702	0.056189544
119	0xbd4a4322	-0.04938043
120	0xbe0628e9	-0.13101543
121	0xbd831f7a	-0.06402488
122	0xbccb78cf	-0.02483788
123	0xbd1af968	-0.03783551
124	0xbcf8c577	-0.030367596
125	0xbbd0123d	-0.0063498304
126	0x3cba2b4e	0.022725727
127	0xbdee96a6	-0.11649828
128	0x3d3582e2	0.044314273
129	0x3df4da64	0.11955717
130	0x3d25bf7c	0.040465817
131	0xbd1c0c0f	-0.038097437
132	0xbd635ed3	-0.055510353
133	0x3dd455ea	0.10367949
134	0x3e0baa95	0.1363929
135	0x3d1a4d1b	0.03767119
136	0xbd6f0b25	-0.058360238
137	0xbe48cc77	-0.19609247
138	0x3dd9d017	0.10635393
139	0x3cfac424	0.030611105
140	0x3dc3dd8e	0.095637426
141	0x3d255beb	0.040370863
142	0xbe5dfc22	-0.21678212
143	0x3da20fb3	0.07913151
144	0x3d0311bc	0.031999335
145	0x3e0550c0	0.13019085
146	0x3debe466	0.11518173
147	0xbd900c80	-0.07033634
148	0x3cfa35b0	0.030543178
149	0x3b912815	0.004429827
150	0x3d7e8a1e	0.062143438
151	0x3c816e26	0.015799593
152	0xbd6631d2	-0.056199856
153	0x3dbf2974	0.093340784
154	0x3c902f41	0.017600657
155	0xbc9da817	-0.01924519
156	0xbd9aa0a7	-0.07550173
157	0xbe19154f	-0.14949535
158	0xbd446472	-0.047947355
159	0xbbe0b28a	-0.006857221
160	0x3e0418b8	0.12900054
161	0x3c31d81a	0.010854745
162	0xbe21916f	-0.15778135
163	0xbdaff583	-0.085917495
164	0xbe01a8e1	-0.12662078
165	0x3d8c7c78	0.06859678
166	0x3d5c74d6	0.05382236
167	0xbd2c2e20	-0.042036176
168	0xbd12a33e	-0.03580021
169	0xbd549f07	-0.051909473
170	0x3e129148	0.14313233
171	0x3e07d201	0.13263704
172	0x3da0c726	0.078504845
173	0x3cf22c80	0.029562235
174	0xbd3cc505	-0.04608633
175	0xbe4e988d	-0.20175381
176	0xbda95281	-0.082676895
177	0x3e0bd5ce	0.13655779
178	0x3e1f5ffe	0.15563962
179	0xbd551670	-0.05202335
180	0xbe5c0cc6	-0.21489248
181	0xbd95c308	-0.0731259
182	0xbdb7f9ec	-0.08983216
183	0xbdde70d5	-0.10861365
184	0xbda11d39	-0.07866902
185	0xbde29ecc	-0.11065444
186	0xbd002055	-0.031280834
187	0xbd9524a0	-0.07282376
188	0xbe1c21d9	-0.15247287
189	0xbe3763ae	-0.17909119
190	0x3dcc7fd6	0.0998532
191	0x3a43e8fe	0.0007473378
192	0xbd01ee70	-0.031721532
193	0x3df3a112	0.11895956
194	0xbbe8ea6b	-0.007108023
195	0x3e021378	0.12702739
196	0x3de4dbeb	0.111747585
197	0x3dfd640a	0.123725966
198	0x3e292f9e	0.16522071
199	0x3d837468	0.06418687
200	0xbe0701b9	-0.13184251
201	0xbd845590	-0.06461632
202	0xbd9b67e7	-0.07588177
203	0x3d0475e6	0.032339
204	0x3bd18394	0.006393859
205	0xbd0527b8	-0.032508582
206	0xbe720bc5	-0.23637302
207	0x3c75b87d	0.014997599
208	0x3d3358ee	0.04378598
209	0x3ce01b7f	0.027356861
210	0xbdc37314	-0.09543434
211	0xbe101895	-0.14071877
212	0xbdd95658	-0.10612172
213	0xbdded078	-0.10879606
214	0xbde13438	-0.10996288
215	0x3d1d8034	0.038452342
216	0x3d3b1d6b	0.045682352
217	0xbd1a357a	-0.037648655
218	0xbd6e90f5	-0.05824371
219	0xbc5edbfc	-0.013602253
220	0x3e366dc2	0.17815307
221	0x3d986a9f	0.07442211
222	0x3dba9f69	0.09112436
223	0x3dcdbbac	0.10045561
224	0x3cd00ef0	0.025397748
225	0xbe30b47e	-0.17256352
226	0xbd960885	-0.07325844
227	0x3da9ec66	0.082970425
228	0x3dc0f21a	0.09421177
229	0x3d3b5a6e	0.045740537
230	0xbe55e888	-0.20889485
231	0xbdd5f7de	-0.104476675
232	0x3d3fa311	0.04678637
233	0x3d179d34	0.037015155
234	0x3c499d96	0.012305638
235	0xbe2fc0a8	-0.17163336
236	0xbe061dbf	-0.13097285
237	0x3d0235fd	0.03178977
238	0xbd996862	-0.074906126
239	0xbcb43c4b	-0.022001406
240	0xbd97f0fb	-0.0741901
241	0xbe264402	-0.1623688
242	0xbe1db87a	-0.15402403
243	0xbdf169e4	-0.11787775
244	0xbdf6caaa	-0.12050374
245	0x3e04213f	0.12903307
246	0x3d46cc45	0.04853465
247	0xbc5d8646	-0.013520783
248	0xbc28a60c	-0.010293495
249	0xbd74c792	-0.059760638
250	0x3d2e7952	0.04259617
251	0xbde0a7e2	-0.10969521
252	0x3d0fdf32	0.035124965
253	0xbc8d59af	-0.017254679
254	0xbce1f111	-0.02758077
255	0x3ab26e78	0.0013613245

conv2.bias f4 [16]
0	0x3d453026	0.04814162
1	0x3d9d4c03	0.07680514
2	0xbc01fffd	-0.0079345675
3	0x3d23258c	0.03983073
4	0xbdc37222	-0.095432535
5	0xbda1858e	-0.07886802
6	0xbe09a3b2	-0.13441351
7	0xbcbb89a6	-0.022892784
8	0xbdc689c6	-0.09694247
9	0xbd58166e	-0.052755766
10	0xbcb425ee	-0.021990743
11	0xbdcf8651	-0.10133041
12	0xbda5d266	-0.08096771
13	0x3d332e46	0.0437453
14	0xbd7f1d62	-0.06228388
15	0xbca1c98f	-0.019749431

fc1.weight f4 [120, 256]
0	0x3d26e378	0.040744275
1	0x3d9e6ff0	0.07736194
2	0xbdaccc34	-0.08437386
3	0xbd6ced8c	-0.05784373
4	0x3d64af42	0.0558312
5	0x3d1cb171	0.03825516
6	0x3d0d9dad	0.0345742
7	0xbd56ecc6	-0.0524719
8	0x3c1ec720	0.00969103
9	0x3cac6a55	0.021046797
10	0x3c2661be	0.0101551395
11	0x3d9f1bdd	0.077689864
12	0x3dac2dd5	0.08407179
13	0xbd42f97c	-0.047601208
14	0x3cf0de04	0.02940274
15	0x3d326635	0.043554503
16	0xbc807a54	-0.01568333
17	0x3cadb25d	0.021203214
18	0x3d272317	0.04080495
19	0xbd4956db	-0.049155097
20	0x3d50ebb8	0.05100605
21	0x3e022b54	0.12711841
22	0x3c548f44	0.01297361
23	0xbd1427b8	-0.03617069
24	0xbdc2d800	-0.09513855
25	0x3ccef5c2	0.02526367
26	0x3d16dd2d	0.036832023
27	0x3d11da15	0.03560837
28	0xbe676388	-0.22596562
29	0xbdd869cd	-0.10567055
30	0x3cf29ebe	0.02961671
31	0x3d274b25	0.040843148
32	0x3d612db0	0.05497521
33	0x3d11a335	0.035556037
34	0x3cdd8818	0.027042434
35	0x3d31886f	0.043343004
36	0xbd2294cf	-0.039692696
37	0xbb9a8ac8	-0.004716251
38	0xbc542e25	-0.012950455
39	0xbbf75d61	-0.0075489734
40	0x3deb3574	0.11484805
41	0x3d5b3fb8	0.053527564
42	0x3c51c710	0.012803808
43	0x3d169964	0.03676738
44	0xbd58620e	-0.052827887
45	0x3a9fd5bc	0.0012194435
46	0xbd2f22e8	-0.0427579
47	0x3caa3387	0.020776523
48	0xbc0684a8	-0.008210339
49	0x3c9b8d0b	0.018988153
50	0x3d9eb538	0.077494085
51	0x3d342f60	0.043990493
52	0xbb77e37d	-0.0037824803
53	0x3d8ec4ba	0.06971116
54	0x3d46f65a	0.048574783
55	0xbd022d92	-0.03178174
56	0x3d0cb330	0.034350574
57	0x3da46d40	0.0802865
58	0x3d5aaa3e	0.05338501
59	0x3c5c0a35	0.013430168
60	0x3dfff722	0.12498309
61	0x3c936434	0.017992117
62	0x3dbc7055	0.09201113
63	0x3cfa847a	0.030580748
64	0xbd5b467c	-0.053534016
65	0x3d89acce	0.06722413
66	0xbcf37c57	-0.029722376
67	0x3c1a99bd	0.009436068
68	0x3cdf1413	0.027231252
69	0x3d8ba2bf	0.06818151
70	0x3c6e9077	0.01456081
71	0xbd3f9f9c	-0.046783075
72	0x3dcaf82b	0.099106155
73	0x3cfcbdce	0.030852225
74	0x3da8cbd4	0.08242002
75	0x3cfd4f1c	0.030921511
76	0x3d47b50e	0.04875665
77	0xbc88dc34	-0.016706564
78	0x3c73917a	0.014866227
79	0x3c26f8fe	0.0101912
80	0xbcf26425	-0.029588768
81	0xbd1ea530	-0.038731754
82	0xbcbdf9e8	-0.023190454
83	0x3d0887c9	0.03333262
84	0x3ba9fa29	0.005187292
85	0x3c34d732	0.011037635
86	0x3cbff7cb	0.023433587
87	0xbd1c1f1e	-0.038115613
88	0xbd8a0d41	-0.06740809
89	0x3d816ecc	0.06319961
90	0x3d7ed845	0.06221797
91	0x3ca2223b	0.019791713
92	0xbd3c02d9	-0.045901153
93	0xbcf530fe	-0.029930588
94	0x3dabe776	0.08393757
95	0x3d724400	0.05914688
96	0x3c8fa815	0.017536202
97	0x3dededb7	0.11617606
98	0x3cb8e9eb	0.022572478
99	0xbd1e8445	-0.03870036
100	0xbcac6cfc	-0.021048062
101	0x3d8f7a87	0.07005792
102	0x3d2682f7	0.04065224
103	0xbc1bd14e	-0.009510351
104	0x3d5bf63f	0.053701635
105	0x3db2aee4	0.08724764
106	0x3d1a48a5	0.037666935
107	0xbc292561	-0.010323853
108	0x3e16c69a	0.14724198
109	0x3dc5ffad	0.09667907
110	0xbc394387	-0.011307604
111	0xbda93e16	-0.08263795
112	0x3d52a1ae	0.05142372
113	0xbc565734	-0.013082314
114	0xbdd02558	-0.10163373
115	0xbd1272a1	-0.03575385
116	0x3c182739	0.009286695
117	0x3d78aacc	0.06070976
118	0x3d78cb29	0.060740624
119	0x3d893143	0.06698849
120	0xbca26d05	-0.019827375
121	0xba6f30ba	-0.0009124387
122	0x3d2530a4	0.04032959
123	0x3c5650f2	0.013080822
124	0xbdf58ce6	-0.11989765
125	0xbd85cfb2	-0.06533755
126	0x3bd7b194	0.0065824483
127	0x3d07bed0	0.033140957
128	0x3d8e4dca	0.06948431
129	0x3d906b33	0.07051697
130	0x3c0395fd	0.008031365
131	0xbdae0d94	-0.084986836
132	0x3cf7531d	0.030190999
133	0xbce4eca7	-0.027944876
134	0xbc4baab1	-0.012430833
135	0x3d1fc9dc	0.039010867
136	0x3ceafd18	0.028685138
137	0x3d349505	0.04408743
138	0x3db1c79b	0.0868065
139	0x3d835413	0.0641252
140	0xbd554928	-0.05207172
141	0x3cef4b2e	0.029210653
142	0xbc862d98	-0.016379163
143	0x3cc86c1e	0.024465617
144	0xbd71042a	-0.05884186
145	0x3bd2b946	0.0064307777
146	0x3d8efbbb	0.069816075
147	0xbd8bc79d	-0.068251826
148	0x3d1fec80	0.039043903
149	0x3c0634c6	0.008191293
150	0x3d1e2f76	0.03861948
151	0xbd73fb68	-0.05956593
152	0x3da1bc02	0.07897188
153	0x3d9365db	0.07197162
154	0x3ddcdff2	0.10784902
155	0x3cb89241	0.022530677
156	0xbdf231bc	-0.11825892
157	0x3d786ea8	0.060652405
158	0x3d4cf88c	0.05004172
159	0xbd43afac	-0.047774956
160	0x3e33900c	0.17535418
161	0x3d86e006	0.06585698
162	0xbddd759e	-0.10813449
163	0xbdceffdb	-0.10107394
164	0x3d90f97e	0.07078837
165	0xbcf66976	-0.030079585
166	0xbdbbd897	-0.091721706
167	0xbdceac8c	-0.100915045
168	0x3d9e1814	0.07719436
169	0x3d3167a4	0.04331173
170	0xbdc48c34	-0.09597054
171	0xbd6e256c	-0.058141157
172	0x3dc45e76	0.095883295
173	0xbd637f22	-0.055541165
174	0xbe17c2aa	-0.14820352
175	0x38afbf00	8.380227e-05
176	0x3e199267	0.14997254
177	0xbbaae0a4	-0.0052147675
178	0x3d2f4cc5	0.042797823
179	0xbd12ffba	-0.03588841
180	0x3d4119ed	0.047143865
181	0x3bc2ed20	0.0059486777
182	0xbdd7f572	-0.10544862
183	0xbd03d2de	-0.03218352
184	0x3d110ec4	0.035414472
185	0x3c3d576c	0.0115564875
186	0xbd242492	-0.04007394
187	0xbb1f964a	-0.0024351054
188	0x3dce42e8	0.10071355
189	0xbb4a8428	-0.0030901525
190	0xbd60e1d2	-0.05490286
191	0xbcd15f3c	-0.025558107
192	0xbbd6ef2b	-0.0065592728
193	0x3c59b1b8	0.013287
194	0xbd244f16	-0.040114485
195	0x3dd85518	0.10563105
196	0x3cf1ae46	0.029502045
197	0xbd07156d	-0.032979418
198	0xbd8b529a	-0.068028644
199	0xbb9f900e	-0.0048694676
200	0xbc611730	-0.0137384385
201	0xbc9f481e	-0.019443568
202	0xbd4df672	-0.050283857
203	0x3dcd01a0	0.100100756
204	0x3d0f8556	0.03503927
205	0x3db56292	0.088566914
206	0x3d229146	0.039689325
207	0x3c1a8de6	0.009433245
208	0xbdd6c7d8	-0.10487336
209	0xbd06e61c	-0.032934293
210	0x3d468782	0.048469074
211	0x3d9d8924	0.07692173
212	0x3d9b86df	0.07594084
213	0xbda53a6e	-0.08067785
214	0x3c8f4a96	0.01749162
215	0x3d96fe3a	0.073727086
216	0xbd31bcc0	-0.043392897
217	0xbd4d038b	-0.050052207
218	0x3d3e21b0	0.046418846
219	0x3d314d9e	0.043286912
220	0xbd316eb2	-0.043318458
221	0xbc014f3a	-0.007892424
222	0x3d330756	0.043708168
223	0xbc3ff9a5	-0.011717235
224	0x3c0825cb	0.008309792
225	0xbceeda5c	-0.029156856
226	0xbd04b904	-0.032403007
227	0xbced0346	-0.028932225
228	0x3d2c0e16	0.04200562
229	0x3d70d877	0.058800187
230	0xbcbc2d6b	-0.022970876
231	0xbd66e28c	-0.056368396
232	0x3dea2cbd	0.114343144
233	0x3c840d8d	0.016119743
234	0xbd3575b2	-0.044301696
235	0xbd238694	-0.039923266
236	0xbcca6bf4	-0.02470968
237	0xbcd8d4a7	-0.026468588
238	0x3d498e69	0.04920808
239	0xbc9e62f1	-0.019334288
240	0xbc8227da	-0.015888143
241	0x3dab8eac	0.08376822
242	0x3d87896e	0.066180095
243	0xbd2b2e5f	-0.04179227
244	0x3ce55859	0.027996229
245	0x39bc5ad8	0.00035925838
246	0xbcbe36ad	-0.02321943
247	0x3c9320ae	0.017959919
248	0x3cba0b4d	0.022710467
249	0xbd6d133b	-0.057879668
250	0xbd04481a	-0.032295324
251	0xbd01b200	-0.031663895
252	0xbe0835cb	-0.1330177
253	0xbb45484a	-0.0030102902
254	0xbc01a487	-0.0079127615
255	0xbd8c4270	-0.068486094

fc1.bias f4 [120]
0	0x3c0ea3aa	0.008706013
1	0xbd2802f8	-0.041018456
2	0x3c8dfdf3	0.017333006
3	0xbd1e0f8b	-0.03858904
4	0x3a487880	0.00076473504
5	0xbd2d713c	-0.042344317
6	0x3daf2724	0.08552387
7	0x3d44bb51	0.0480302
8	0xbc0562be	-0.008141218
9	0x3c3fc32e	0.011704249
10	0xbd372d7e	-0.04472112
11	0xbd055a56	-0.032556854
12	0xb9b3744c	-0.00034228188
13	0x3d33c726	0.043891095
14	0x3c3577c9	0.011075922
15	0x3bfceb98	0.0077185147
16	0x3d4c11b1	0.04982156
17	0x3d570c30	0.052501857
18	0x3d6e4d04	0.058178917
19	0x3ca1340c	0.019678138
20	0x3d5542ff	0.052065846
21	0x3d267e11	0.04064757
22	0x38ece190	0.00011295371
23	0xbbdcfa73	-0.006743723
24	0x3d70cf3c	0.058791384
25	0xbd16c99b	-0.03681336
26	0x3d8a8303	0.0676327
27	0xbd93f9d0	-0.07225382
28	0xbc3b109a	-0.011417532
29	0xbcece25c	-0.02891653
30	0x3d1a0529	0.037602577
31	0xbd2e850c	-0.042607352
32	0x3cf7e49d	0.030260378
33	0xbd394744	-0.04523398
34	0x3d5a6910	0.05332285
35	0xbccfc68e	-0.025363233
36	0x3c8f17de	0.017467435
37	0x3c808933	0.015690422
38	0x3d68c7b8	0.05683109
39	0x3c6aaaaa	0.014322916
40	0x3d8979ab	0.067126594
41	0xbc0cc009	-0.008590707
42	0xbd31da24	-0.043420926
43	0xbc36b624	-0.011151824
44	0xbc7fdbd0	-0.015616372
45	0xbcf426a6	-0.029803585
46	0x3d24940b	0.040180247
47	0xbb039472	-0.0020077494
48	0x3d761654	0.060079888
49	0x3c74d8d9	0.014944279
50	0xbc3fc828	-0.011705436
51	0x3cb53388	0.022119299
52	0x3c975d2f	0.01847705
53	0x3d883c7c	0.066521615
54	0xbc5f47c0	-0.013627946
55	0x3d0b6ce4	0.034039393
56	0x3c58f81a	0.013242746
57	0xbd567ed8	-0.05236706
58	0x3da96bfe	0.08272551
59	0xbc81b154	-0.015831627
60	0xbd2b8bb5	-0.041881282
61	0x3d23bb21	0.039973382
62	0xbc4980e8	-0.0122988
63	0xbd2e3876	-0.042534314
64	0x3d962dd0	0.07332957
65	0xbd30876a	-0.04309789
66	0x3d78c53a	0.060734965
67	0x3d8ac6bf	0.06776189
68	0xbc3c7909	-0.011503466
69	0xbd60a4e4	-0.054844752
70	0xbd82476e	-0.063612804
71	0x3d8b4e1f	0.0680201
72	0x3d8d09e6	0.068866536
73	0x3d05f974	0.0327086
74	0x3c89358e	0.01674917
75	0x3d369454	0.04457505
76	0xbb612c92	-0.0034358841
77	0x3d44557c	0.047933087
78	0x3d0f0ff1	0.034927312
79	0xbcb817ae	-0.022472229
80	0xbcaf1c8d	-0.021375919
81	0x3cfc6747	0.030810965
82	0x3cb176d2	0.021663103
83	0xbc3564bb	-0.011071379
84	0xbd0cfed2	-0.034422703
85	0x3c71bf00	0.014755011
86	0x3d715641	0.05892015
87	0xbcbd8b38	-0.023137674
88	0x3d37f06a	0.04490701
89	0x3d7f337c	0.06230496
90	0x3d483900	0.048882484
91	0xbd12e391	-0.035861555
92	0x3d9324eb	0.07184776
93	0x3cc427d7	0.023944778
94	0x3d7e93ba	0.0621526
95	0x3d1ceb3c	0.038310274
96	0x39f33498	0.00046387757
97	0xbbfa70d4	-0.0076428447
98	0xbd374d30	-0.044751346
99	0x3c0af572	0.00848137
100	0x3c9b564d	0.01896205
101	0xbc37f587	-0.011227972
102	0x3d66ae88	0.05631879
103	0xbb815aa3	-0.0039475723
104	0x3c9c5ab2	0.019086216
105	0xbb82d491	-0.003992625
106	0x3d3949a0	0.04523623
107	0xbd416d87	-0.047223594
108	0xbccba42e	-0.02485856
109	0x3d8391a0	0.0642426
110	0xbd0f9542	-0.035054453
111	0x3dc044d6	0.093881294
112	0x3d185b68	0.037196547
113	0xbcc41018	-0.023933455
114	0x3b26d42c	0.0025456054
115	0x3cce9e71	0.025222035
116	0x3d13a406	0.036045097
117	0xba248efe	-0.0006277411
118	0xbcc7d246	-0.024392258
119	0x3cd68bb8	0.02618967

fc2.weight f4 [84, 120]
0	0xbdfcf3b8	-0.12351173
1	0x3d5cfb68	0.053950697
2	0x3c096e5f	0.008388131
3	0x3e2315a0	0.15926218
4	0xbdc7ebfe	-0.09761809
5	0x3ca35d71	0.019942017
6	0x3c7d7284	0.015469197
7	0x3e0d9de4	0.13829762
8	0xbc6cf676	-0.014463058
9	0xbdd579ea	-0.10423644
10	0xbdba8b1b	-0.091085635
11	0x3dffd7cd	0.124923326
12	0xbd6c753e	-0.057729
13	0x3dd0f7ce	0.10203515
14	0xbd042a05	-0.032266635
15	0xbde25d7a	-0.110529855
16	0x3dac6ca5	0.0841916
17	0xbd01caaf	-0.031687435
18	0x3c63d813	0.013906497
19	0x3dab1403	0.08353426
20	0xbd13a917	-0.03604993
21	0x3d5931b4	0.053025916
22	0x3d2c1f14	0.042021826
23	0xbd55f913	-0.05223949
24	0xbde7f4d8	-0.11325997
25	0xbd252ca7	-0.040325787
26	0x3dccdc70	0.100029826
27	0x3d73d8e8	0.05953303
28	0x3da74728	0.08167869
29	0x3d28ace0	0.04118049
30	0x3d9db04a	0.0769964
31	0x3d811f3c	0.063047856
32	0x3db416f3	0.0879344
33	0xbd81ac84	-0.06331733
34	0xbd8a47be	-0.06751965
35	0x3d2d0540	0.042241335
36	0xbd8792da	-0.066198066
37	0xbde7611b	-0.11297818
38	0x3d41ba8c	0.047297046
39	0x3d1c4146	0.038148187
40	0xbc03938b	-0.008030782
41	0x3ddda690	0.10822785
42	0xbc246803	-0.010034564
43	0xbd6f791a	-0.0584651
44	0xbd017445	-0.031605024
45	0xbcbe4b6f	-0.023229329
46	0x3e0d2924	0.13785225
47	0x3da77f6a	0.08178599
48	0x3d032936	0.032021724
49	0xbd9cf463	-0.076638006
50	0x3d47527a	0.04866264
51	0xbd71274e	-0.058875374
52	0xbd545864	-0.05184211
53	0xbca5b5e6	-0.020228337
54	0xbc6c4d59	-0.014422738
55	0x3d1194e4	0.035542384
56	0xbdc264b0	-0.09491861
57	0xbd541ff0	-0.05178827
58	0xbdba5e84	-0.09100059
59	0x3dfa8434	0.12232247
60	0x3d1bf23e	0.038072817
61	0xbcd175a5	-0.025568793
62	0xbdda55e2	-0.10660912
63	0x3c71d30a	0.014759788
64	0xbcd284fe	-0.025698181
65	0xbcf3b85a	-0.029750992
66	0xbe36a531	-0.17836453
67	0xbd37a6b0	-0.0448367
68	0xbcd3fe8a	-0.02587821
69	0x3ca91ede	0.020644601
70	0xbda16ad2	-0.078817025
71	0xbd19cf60	-0.037551284
72	0xbd1ced6f	-0.03831237
73	0xbd83b712	-0.06431402
74	0x3da3590e	0.0797597
75	0x3dd5d902	0.104417816
76	0xbdbccef4	-0.09219161
77	0x3e0c198c	0.1368162
78	0x3bb831ec	0.0056211855
79	0x3d14a4d6	0.036290012
80	0x3d96a3ac	0.07355437
81	0xbcd48628	-0.025942877
82	0xbdc41944	-0.095751315
83	0x3cffd922	0.031231467
84	0xbe2d405f	-0.16919087
85	0xbd858510	-0.0651952
86	0xbe0e3171	-0.13886048
87	0x3d860064	0.06543043
88	0x3daa966a	0.083294705
89	0x3cee35b9	0.029078351
90	0xbd263b35	-0.040583808
91	0xbdcad174	-0.09903231
92	0xbd8d9d22	-0.06914736
93	0x3c92b4b7	0.017908437
94	0xbdc9eb7a	-0.09859367
95	0x3dd23cf1	0.1026553
96	0x3e03a24e	0.12854883
97	0x3e30c37a	0.17262068
98	0xbd77ed18	-0.060528845
99	0x3cf21bf0	0.029554337
100	0x3e11a0a9	0.14221443
101	0xbce9269e	-0.028460797
102	0xbcfabd80	-0.030607939
103	0xbd8686ab	-0.065686546
104	0xbc33151e	-0.010930328
105	0xbdb3dc72	-0.08782281
106	0xbcd83884	-0.026394136
107	0x3d69fa32	0.05712337
108	0x3c10f268	0.008846857
109	0x3dedea5a	0.11616965
110	0x3d668008	0.056274444
111	0x3d8fe957	0.07026928
112	0xbbcc2014	-0.00622941
113	0xbde49587	-0.111613326
114	0x3ada2496	0.0016642984
115	0x3dc7e6b2	0.097607985
116	0x3d3bb289	0.04582456
117	0xbd11625a	-0.035494186
118	0x3d8f892b	0.070085846
119	0x3dec4842	0.115372196
120	0xbd99f763	-0.075178884
121	0xbd9587fc	-0.073013276
122	0x3b9ff22c	0.004881164
123	0x3e32f719	0.17477073
124	0x3d98b3a4	0.07456139
125	0xbde5b97c	-0.11217019
126	0xbc99feaa	-0.018798191
127	0x3d06abcf	0.032878693
128	0x377feb40	1.5253958e-05
129	0xbc2693d2	-0.010167079
130	0xbcc79f8f	-0.024368076
131	0x3d9eca70	0.07753456
132	0x3db2ba2b	0.08726915
133	0x3dd7cf58	0.105375946
134	0xbd8ed313	-0.06973853
135	0x3cd1c7a3	0.02560789
136	0xbc89e8f2	-0.01683471
137	0xbd4cca39	-0.049997542
138	0x3cfb609c	0.030685715
139	0x3d76b3fc	0.06023024
140	0x3cdbdb46	0.026837956
141	0x3dc404d3	0.09571233
142	0x3dce59a2	0.1007569
143	0xbdd8d5aa	-0.10587628
144	0x3ca5ae24	0.020224638
145	0x3cc1364c	0.023585461
146	0x3c8859dc	0.01664441
147	0x3dbae9ca	0.09126623
148	0xbcb6974f	-0.022288946
149	0x3cb3e3da	0.021959234
150	0xbe0c5f09	-0.13708128
151	0x3df5349e	0.119729266
152	0xbd3b08fe	-0.045662872
153	0x3d5d0040	0.053955317
154	0x3d814c70	0.063134074
155	0x3db1f43e	0.086891636
156	0xbdbc5bce	-0.09197198
157	0xbb55a571	-0.0032599831
158	0xbd36490b	-0.044503253
159	0xbcc4370f	-0.023952035
160	0xbd646911	-0.05576426
161	0xbdc3b9f3	-0.095569514
162	0xbd79dcf6	-0.06100174
163	0xbd1d493c	-0.03839992
164	0xbda140c2	-0.0787368
165	0x3ca725f8	0.020403847
166	0xbcd8b8fe	-0.026455399
167	0x3ce4db96	0.027936738
168	0x3d754726	0.059882306
169	0x3d9a689c	0.07539484
170	0xbd9ce09a	-0.07660027
171	0x3d3c7372	0.046008535
172	0xbd0bc163	-0.034119975
173	0x3c7d679f	0.0154666
174	0x3dad0669	0.08448488
175	0x3d4c5815	0.04988869
176	0x3dba0cee	0.090844974
177	0xbab79210	-0.0014005322
178	0x3d53e330	0.051730335
179	0xbc24d368	-0.010060169
180	0xbc8df0c8	-0.017326728
181	0x3cdf65c9	0.027270215
182	0xbda8cb47	-0.08241897
183	0xbd07dd81	-0.033170227
184	0x3d8c1167	0.06839257
185	0xbc9be1c2	-0.019028548
186	0x3dc9568a	0.09830959
187	0x3d8f874b	0.07008227
188	0xbd87b962	-0.06627156
189	0xbd9c55bc	-0.0763354
190	0x3cd54690	0.026034623
191	0xbdbfb401	-0.09360505
192	0xbd9c4158	-0.07629651
193	0x3db1adba	0.08675714
194	0x3b399daf	0.0028322747
195	0x3c428270	0.011871919
196	0x3c9db200	0.019249916
197	0xbd36e7cb	-0.04465465
198	0x3dd47397	0.103736095
199	0xbd9cbbd2	-0.076530114
200	0xbcdea350	-0.027177483
201	0xbd5a9332	-0.053363033
202	0x3b322aa8	0.002718607
203	0xbc5b65de	-0.013390986
204	0x3dfb87ea	0.12281783
205	0xbdd77264	-0.10519865
206	0xbd21d3a5	-0.03950848
207	0xbc507d88	-0.0127252415
208	0xbd277667	-0.0408844
209	0xbcc93294	-0.02456025
210	0xbccc85c5	-0.02496613
211	0xbcdcaa53	-0.026936686
212	0x3da1ef4a	0.07906969
213	0x3dc018db	0.09379741
214	0x3d3e7602	0.04649926
215	0xbd288a22	-0.04114736
216	0x3d4f3dc3	0.05059601
217	0xbcaa1edb	-0.020766666
218	0xbdf2763a	-0.11838956
219	0xbdba2fac	-0.09091124
220	0x3d9ed90f	0.077562444
221	0x3d7739ca	0.060357846
222	0x3d91a8d7	0.07112282
223	0x3d7605f2	0.060064264
224	0xbd3ff78d	-0.046866942
225	0x3bdf6521	0.0068174754
226	0x3cf56045	0.029953131
227	0xbd203000	-0.039108276
228	0xbd27cd14	-0.040967062
229	0xbb15d90f	-0.0022864973
230	0x3d8d5d43	0.06902554
231	0xbd4efd4e	-0.05053454
232	0x3cb4e242	0.022080544
233	0x3d1fdfdf	0.03903186
234	0x3db419d2	0.08793987
235	0x3bd5645d	0.0065122084
236	0xbda54ea0	-0.08071637
237	0x3e02259b	0.12709658
238	0x3d7792ec	0.06044285
239	0x3d63b7d4	0.055595234
240	0x3cd5a650	0.02608028
241	0xbcd2ad88	-0.025717512
242	0xbe1f216e	-0.15540096
243	0x3e01ae49	0.12664141
244	0xbd4d9c2b	-0.05019776
245	0xbd856aed	-0.06514535
246	0x3d4dcbf8	0.050243348
247	0x3d8f9ebb	0.07012697
248	0xbcc36db9	-0.02385603
249	0xbdb3b720	-0.08775163
250	0x3e09b506	0.13447961
251	0x3d4c5eca	0.049895085
252	0xbcad8125	-0.021179745
253	0x3e25d4c6	0.16194448
254	0x3ce92655	0.028460661
255	0xbd64d44a	-0.055866517

fc2.bias f4 [84]
0	0x3d1a85e5	0.037725348
1	0xbd06a556	-0.03287252
2	0xbc966d00	-0.018362522
3	0x3dd55316	0.10416238
4	0x3d21fe6f	0.039549287
5	0x3d0d3c0a	0.034481086
6	0x3d8fb9ea	0.07017882
7	0x3c82ca56	0.015965622
8	0x3db5b3d2	0.08872189
9	0x3da389c2	0.079852596
10	0xbd6ad8c6	-0.057335638
11	0x3de6610d	0.1124898
12	0xbdace8d2	-0.084428445
13	0xbd1c69a1	-0.038186673
14	0xbd883c21	-0.06652094
15	0x3d05ed97	0.032697286
16	0xbdada73e	-0.084791645
17	0x3c4df9f1	0.012571798
18	0x3dcf35ca	0.10117681
19	0xbab2f416	-0.0013653066
20	0xbda16545	-0.07880644
21	0x3dc08f10	0.09402287
22	0xbc99f462	-0.018793289
23	0xbc9004e6	-0.01758046
24	0x3d9bce1d	0.07607672
25	0x3c8e960a	0.017405529
26	0x3c805edf	0.015670238
27	0xbc99e414	-0.018785514
28	0x3da71ef0	0.08160198
29	0xbd3d8e4b	-0.04627828
30	0x3d60f5af	0.054921802
31	0xbd1bde78	-0.03805396
32	0xbd1262d4	-0.03573878
33	0x3c34e608	0.011041172
34	0x3dd28ad6	0.10280387
35	0xbcf82bb0	-0.03029427
36	0x3c9a45f9	0.018832194
37	0x39c925b7	0.00038365807
38	0xbce93f3c	-0.028472535
39	0xbc72e990	-0.014826193
40	0xbd9e0376	-0.07715504
41	0x3d9c4af8	0.07631487
42	0x3d89145e	0.06693338
43	0x3c7ccd68	0.015429832
44	0x3cd44ee2	0.02591652
45	0xbd44cdb6	-0.048047744
46	0x3d282e6b	0.041059893
47	0xbce9c9d4	-0.028538622
48	0x3db1b498	0.08677024
49	0xbc86973c	-0.016429536
50	0xbd570bc5	-0.05250146
51	0x3dbbe032	0.09173621
52	0xbd5e8d46	-0.054333948
53	0x3c415acc	0.011801433
54	0x3bce5146	0.0062963096
55	0xbd096c13	-0.033550333
56	0xbd8d96ff	-0.06913566
57	0x3d628cf6	0.055310212
58	0x3d378fab	0.044814747
59	0xbd6bdddd	-0.057584632
60	0x3b141207	0.0022593753
61	0x3dc7e466	0.097603604
62	0x3c96c740	0.018405557
63	0x3dfc50d5	0.12320105
64	0x3ddcaf56	0.1077563
65	0x3d1db3ff	0.038501736
66	0xbd67ecec	-0.05662243
67	0xbcb65047	-0.022255076
68	0x3cbe4586	0.02322651
69	0x3dad5ec5	0.084653415
70	0xbbc2f09f	-0.0059490944
71	0xbde1e62c	-0.1103023
72	0x3d66090a	0.056160964
73	0xbcc32c9b	-0.02382498
74	0x3d6eba84	0.058283344
75	0xbce69c60	-0.028150737
76	0xbd73397d	-0.059380997
77	0x3d9ff24d	0.07809887
78	0x3d6327aa	0.05545775
79	0xbd2078be	-0.03917765
80	0x3d3e594e	0.046471886
81	0xbdb5a5f4	-0.08869544
82	0xbc6705d8	-0.014100514
83	0xbd880e3c	-0.0664334

fc3.weight f4 [10, 84]
0	0xbe02ac53	-0.12761049
1	0xbd886538	-0.06659931
2	0xbcd9e865	-0.026600072
3	0xbdc4e6fa	-0.09614368
4	0x3db7fd70	0.08983886
5	0xbe194259	-0.14966716
6	0xbdfad940	-0.122484684
7	0xbe00e15e	-0.12585971
8	0x3d1e2e7e	0.038618557
9	0xbdb85a7b	-0.09001633
10	0xbdcea976	-0.10090916
11	0xbdf64546	-0.120249316
12	0xbbf985f1	-0.007614844
13	0xbe5d20d1	-0.2159455
14	0xbd193120	-0.037400365
15	0xbd5345c6	-0.051580213
16	0xbd8f06ed	-0.06983743
17	0xbe154d63	-0.14580302
18	0xbe6002e4	-0.21876103
19	0x3dc3f72a	0.09568627
20	0xbdae399c	-0.08507082
21	0xbc9205b4	-0.017824985
22	0xbe0b20bc	-0.13586706
23	0xbd1a1f31	-0.037627403
24	0xbd8a5fad	-0.0675653
25	0x3d7fae2c	0.062421963
26	0x3dbbb22a	0.091648415
27	0xbe30cd73	-0.17265873
28	0x3dcf0060	0.101074934
29	0xbe2275a7	-0.15865193
30	0x3cfc4a94	0.03079728
31	0xbe0f1225	-0.13971765
32	0x3cb45d16	0.022017043
33	0xbdb4a4ca	-0.088204935
34	0x3dfe78d8	0.12425393
35	0x3d7928ec	0.06083004
36	0xbd8c8ada	-0.06862421
37	0xbe0ba8d0	-0.13638616
38	0x3c5afa3a	0.013365323
39	0xbe084c79	-0.13310422
40	0xbe0cd8de	-0.13754603
41	0x3dce78ee	0.10081659
42	0x3dac6f1a	0.084196284
43	0xbd53ef12	-0.051741667
44	0x3dc285d8	0.09498185
45	0xbdcb53c2	-0.09928085
46	0x3dac4856	0.084122345
47	0xbe446082	-0.1917744
48	0x3db4108d	0.08792219
49	0x3d960ad6	0.073262855
50	0xbdc07d2c	-0.09398875
51	0xbb25da98	-0.0025307294
52	0xbce314b2	-0.02771983
53	0xbe609c14	-0.21934539
54	0x3d82ea8a	0.06392391
55	0xbd99b503	-0.07505228
56	0x3dcd2b84	0.100180656
57	0x3cca0d54	0.024664558
58	0x3de4b5d0	0.111674905
59	0x3dddd9de	0.108325705
60	0x3d0c82a2	0.03430427
61	0xbbfb4caa	-0.007669051
62	0x3de1848a	0.11011608
63	0x3dc83a48	0.09776741
64	0xbe1da299	-0.15394057
65	0xbc1a26d6	-0.009408673
66	0xbd64fc1f	-0.055904504
67	0x3dddf99a	0.10838623
68	0x3e0f8cee	0.14018604
69	0x3e10dde7	0.14147149
70	0xbdb6afca	-0.08920248
71	0xbced6f30	-0.028983682
72	0xbd231f0d	-0.039824534
73	0xbdc3947e	-0.09549807
74	0xbe004335	-0.12525637
75	0x3e2ed94c	0.1707508
76	0xbd6ef374	-0.058337644
77	0x3db8f281	0.09030629
78	0x3bef90a1	0.0073109423
79	0xbdfdb5e2	-0.12388207
80	0xbe5a4cca	-0.21318355
81	0xbdb1a36d	-0.08673749
82	0xbdf3444f	-0.11878263
83	0xbde01f9d	-0.1094353
84	0xbd379d44	-0.044827715
85	0xbd52a7d1	-0.051429573
86	0xbe6a2f60	-0.22869635
87	0xbddd8a7b	-0.10817429
88	0x3d62bdf8	0.05535695
89	0x3de4bdf6	0.11169045
90	0x3e1b22ca	0.1514999
91	0x3e10216f	0.14075254
92	0xbe5333ce	-0.2062523
93	0x3e001333	0.12507324
94	0x3d6d01ce	0.05786305
95	0x3df7ac5a	0.1209342
96	0xbad96330	-0.0016585346
97	0x3e168e39	0.14702691
98	0xbd9b6933	-0.075884245
99	0x3d38ab9c	0.045085534
100	0x3d3bb96e	0.045831136
101	0x3dfecd0a	0.12441452
102	0x3d707535	0.058705527
103	0xbd93ccf4	-0.07216826
104	0xbdfb9497	-0.12284201
105	0xbc6eabba	-0.01456731
106	0x3de77b3c	0.11302802
107	0xbd89f7c9	-0.067367144
108	0xbdd890c4	-0.10574487
109	0xbe1ae91f	-0.15127991
110	0x3da246c8	0.07923657
111	0xbdb2f165	-0.087374486
112	0xbe252a1f	-0.16129349
113	0xbcfaeccb	-0.03063049
114	0x3dff655b	0.12470504
115	0x3d5f7f46	0.054564737
116	0x3df96420	0.121773005
117	0xbd938e86	-0.072049186
118	0xbe65e3fb	-0.22450249
119	0xbd86e79c	-0.06587145
120	0x3c3a51d8	0.011372052
121	0xbe28da49	-0.16489519
122	0xbd76099e	-0.060067765
123	0xbd885cc6	-0.0665832
124	0xbd361953	-0.044457745
125	0x3c8eedd3	0.017447388
126	0xbde7db32	-0.11321105
127	0xbd7fef1a	-0.062483884
128	0xbd84046e	-0.064461574
129	0x3d8b4f5b	0.06802245
130	0x3c6bd699	0.014394426
131	0xbd83d308	-0.064367354
132	0xbe3c19e2	-0.18369249
133	0xbe14029c	-0.1445412
134	0x3ca0d3e4	0.019632287
135	0xbe0ac2ab	-0.13550822
136	0x3da40978	0.080096185
137	0x3c7455c8	0.01491303
138	0xbd089dd7	-0.033353653
139	0xbe00e31f	-0.1258664
140	0x3d0f4b18	0.034983724
141	0x3ae6205c	0.0017557251
142	0xbd095b0a	-0.033534087
143	0xbe007dc0	-0.1254797
144	0xbd90ec4d	-0.07076321
145	0xbe2de051	-0.16980101
146	0x3b9361b2	0.00449773
147	0x3e04e9be	0.1297979
148	0xbd893005	-0.06698612
149	0x3cea33bc	0.028589122
150	0x3d56a660	0.05240476
151	0xbe1f7aca	-0.15574184
152	0xbdbea434	-0.09308663
153	0x3d06ae5e	0.032881133
154	0x3ce44f26	0.027869772
155	0xbdd8bc6c	-0.105828136
156	0xbd8eadb2	-0.069667235
157	0xbc6c4fbe	-0.014423309
158	0x3e04b1a2	0.12958387
159	0x3dcd6124	0.10028294
160	0x3d0d8c44	0.034557596
161	0xbe6a8d40	-0.22905445
162	0xbcc64f88	-0.024207845
163	0x3e3457e2	0.1761165
164	0x3d4b6b7a	0.049663045
165	0xbd5698a0	-0.05239165
166	0x3de8b53b	0.11362692
167	0x3e11bf3d	0.14233108
168	0xbe1db1b1	-0.15399815
169	0xbd20f3b0	-0.0392949
170	0xbda0a770	-0.07844436
171	0x3da73fdf	0.08166479
172	0xbe03fcf8	-0.12889469
173	0xbe35beae	-0.1774852
174	0xbd8f13d9	-0.069862075
175	0xbc010217	-0.007874033
176	0xbd8e5a26	-0.06950788
177	0xbe2c9e16	-0.1685718
178	0xbdd5e90c	-0.10444841
179	0x3d3f025c	0.04663311
180	0xbdc64f0c	-0.09683046
181	0xbe37010e	-0.17871496
182	0x3d867a13	0.065662526
183	0x3dee05bd	0.11622188
184	0x3da77270	0.08176124
185	0x3cf0d0e5	0.029396484
186	0x3d8b30c9	0.067964144
187	0x3c8d5cd6	0.017256182
188	0x3db25538	0.087076604
189	0x3e218225	0.15772302
190	0xbdc726b0	-0.09724176
191	0xbcf432de	-0.029809412
192	0x3d609882	0.054832943
193	0xbce54cc8	-0.027990714
194	0xbe25782c	-0.16159123
195	0xbe06e0f8	-0.13171756
196	0x3d40cfb2	0.047073074
197	0xbd9f212f	-0.07770001
198	0xbe0a01db	-0.1347727
199	0xbda9a977	-0.08284276
200	0xbe3a8273	-0.18213825
201	0xbe1fa340	-0.15589619
202	0xbe4d01ea	-0.20020261
203	0x3da400e7	0.080079846
204	0xbd8698ca	-0.06572111
205	0xbd4679c4	-0.04845597
206	0x3d45febe	0.048338644
207	0xbbc2022e	-0.00592067
208	0x3d357529	0.044301186
209	0x3db9ee6b	0.09078678
210	0xbd77ba10	-0.060480177
211	0x3dcf1b16	0.10112588
212	0x3b9bc0c9	0.0047532064
213	0x3db540bb	0.08850237
214	0x3dbe2860	0.09285045
215	0x3e058baf	0.13041566
216	0xbd396086	-0.045258068
217	0xbe0d6b95	-0.1381057
218	0xbe23edaa	-0.1600863
219	0xbd0a2c02	-0.033733375
220	0x3c33cdb8	0.01097434
221	0xbe232861	-0.15933372
222	0x3d9181a4	0.07104805
223	0xbe58eda4	-0.21184403
224	0xbe0d2de0	-0.13787031
225	0xbe4754fc	-0.19466013
226	0x3c9a9edf	0.018874584
227	0xbca4dda9	-0.020125227
228	0x3d66f8f8	0.05638978
229	0xbe21e65a	-0.15810528
230	0xbcb81654	-0.022471584
231	0x3e2abb78	0.16673076
232	0x3d8ee4e3	0.069772504
233	0xbd9077ac	-0.070540756
234	0xbdc1b7a7	-0.09458857
235	0xbdac2d5a	-0.084070876
236	0x3dc80e1b	0.097683154
237	0x3d0f0791	0.034919325
238	0xbd3d535e	-0.046222083
239	0x3cd5a8c4	0.02608145
240	0x3cef0c1d	0.02918058
241	0xbe4f0144	-0.20215327
242	0x3dd595b7	0.104289465
243	0x3e23fd64	0.1601463
244	0x3cccb75b	0.024989774
245	0x3d8cae0c	0.06869134
246	0xbd2efc8a	-0.04272131
247	0xbd0e3d8b	-0.03472666
248	0xbb23c7f8	-0.0024991017
249	0xbdd1794c	-0.10228214
250	0x3e213bd6	0.15745482
251	0xbb64b883	-0.0034900017
252	0xbdbbb87d	-0.09166048
253	0x3cb3d3a0	0.021951497
254	0xbe19d01b	-0.15020792
255	0xbd35df0f	-0.04440218

fc3.bias f4 [10]
0	0xbd8702cf	-0.065923326
1	0xbd016588	-0.03159097
2	0xbd63bd18	-0.055600256
3	0x3d61f168	0.055161864
4	0xbc18ac64	-0.009318445
5	0x3dd8186e	0.105515346
6	0xbde9ed14	-0.11422172
7	0x3da5e6a7	0.08100634
8	0xbc35a93b	-0.011087711
9	0xbd7fe7ba	-0.06247685
