models/server-2.pth (torch, 13394 bytes, 5 tensors)

fc1.weight f4 [64, 8]
00000000: 5163 13be 387a 5dbe f2ac 3dbe 00a6 98bb
00000010: f411 07be 763a 2e3e 1000 eb3d cea3 6f3e
00000020: 2a65 0cbe fa9c 66be 4863 66be 8074 71bd
00000030: 804c 10be de06 fdbd 4398 3fbe ae8d 393e
00000040: 2338 b0be 40f8 ee3c 76b8 5b3e 4697 a83e
00000050: 5a4c 213e 20fe 743d 1fb1 b03e e1f3 7dbe
00000060: f411 a6be 728b 92be 16c9 3fbe af58 5e3d
00000070: 1ea7 7ebe 0d10 a93e bc1c f13d 6848 703d
00000080: c43c adbd 5e70 0e3e 9f05 45be 2cd5 f93d
00000090: 20a6 8d3c 39b4 473e 362a 373e ba70 4e3e
000000a0: 7e1c ddbd be6b 8fbe 56c2 773e afed 9cbe
000000b0: 53d5 693e 150a 893e 8d8f 86be 491b 9a3e
000000c0: 5f48 9f3e 8b33 af3e 5ca8 87bd 5707 19be
000000d0: 32fe edbd f7a7 61bd 8023 dcbd c00c 7abc
000000e0: 5782 63be ff8b 413e 5ed8 6d3e c09f 933e
000000f0: 0733 0fbd 41f1 18be 42c1 493e d61c 193e
00000100: 95c9 b43e 9616 42be a5ba 8c3e 804b 80be
00000110: a413 943e d6f3 8cbe 4cee a43d 5c34 25be
00000120: 1e7a 2fbe d467 4fbe 80ce 83be 95f0 3e3e
00000130: 2e57 acbe 4e79 47be 3eeb 95be 6c22 8b3e
00000140: 60a9 d53d ce15 9cbe 3e7c febd 6223 1d3e
00000150: a6fe 1c3e 10d6 913c 0784 463e 4000 a53c
00000160: 5295 2d3e 78a0 933e 256a 7f3e 120d a3be
00000170: 0eb0 86be 78b2 233d 9f3f 99be 2408 a63d
00000180: f0a5 7cbd 40e4 273d c0fa 2b3c 5f0d 993e
00000190: 4c86 40be 6f37 86be 44d6 8ebe 84c9 9b3e
000001a0: 2026 3c3c 6218 78be 2018 8fbd e78a a93e
000001b0: 4c99 dd3d 4fa8 883e a12f 9dbe 2bf0 5abe
000001c0: 3673 18be 8a5e 473e 3e37 2f3e e05a 4d3c
000001d0: a269 50be 6043 7abe 06bf 503e 0626 18be
000001e0: b88d 363e ee87 ffbd 4044 573c 602e aebd
000001f0: de37 013e 5843 85be 2cc9 26be e22b 093e
00000200: 020b 8abe 8648 173e b0a4 e2bc be6a 58be
00000210: c026 f53c a7c9 893e 345c 733e 8e87 353e
00000220: bf39 e13b 624d 52be 48d9 aa3e 1699 87be
00000230: 88b9 e63d 51d0 80be 333d 61be e02e e73d
00000240: b8d1 6f3e 805c 8abb 6350 e4bd aefd 64be
00000250: fefa e0bd 0fdd a83d 1ef3 123e 844d 2fbe
00000260: de13 813e aa67 5ebe 4c46 4ebe ed15 983e
00000270: 4e4e 48be 6865 26be 8036 423c d628 5abe
00000280: 5952 2abe 965b 4bbe 5c67 cbbd 49e7 a63e
00000290: ef4f 3cbd c0d5 56bd 6f98 973e c9ff 0dbe
000002a0: f0c0 883e 6e9f 42be 1006 993d 5f5e a73e
000002b0: 0841 cebd 95e7 963e 764f 003e 9c4e a3bd
000002c0: d694 163e b2f2 3c3e ea0e 9f3e c415 a3be
000002d0: 9eeb 673e 16ab 1b3e 3467 e9bd dde9 2d3e
000002e0: 6c4c b1be 1fdc 823e 0a6b 353e e7f1 813e
000002f0: 36f1 003e f131 9abe 00b2 3c3d c863 a93d
00000300: c568 973e 2055 c93c 80fc e63c 87a1 86be
00000310: 6e85 163e 51c3 b3be 2a5c 693e a044 76be
00000320: a5f5 933e 46c6 a9be 9024 88be 5aab 00be
00000330: 80f2 833b 6864 5ebd 8104 0ebe 3c2f 35be
00000340: 31d7 5abe 2949 8d3e 29a9 aa3e c420 4dbe
00000350: 0ca9 21be 6c3a d83d a6dc a1be 3295 82be
00000360: 08d1 023d b78f 4dbe 4067 503c 00a6 38bd
00000370: a1ff 083c 574a 8d3e b66c 513e b5ff 943e
00000380: 3663 5ebe dae5 3b3e 9436 97be a4e3 96be
00000390: 1fed bcbd 2210 80be 9026 c4bd 1a94 693e
000003a0: 2e7c 203e fcb6 e0bd 60d1 513c 7a65 88be
000003b0: 6841 1a3d 09e8 a63e b08c 273d 09a7 65be
000003c0: c849 5dbd b81d 033e 2d6b ab3e b870 b43e
000003d0: 00e6 88be 4b40 0fbe 7b77 63be 338b a53e
000003e0: b4ea 6abe 0080 3e3a e005 9dbc d624 4cbe
000003f0: a826 633d 5aa0 5f3e 3bda 82be c022 843d
-0.14393355 -0.21628654 -0.18523005 -0.0046584606 -0.13190442 0.17014489 0.11474621 0.2340233
-0.13710466 -0.2252082 -0.2249881 -0.058948994 -0.14091682 -0.123548254 -0.18710427 0.18120453
-0.3441783 0.02917111 0.21457085 0.32927912 0.15751782 0.059812665 0.34510133 -0.24800064
-0.32435572 -0.28622013 -0.18729052 0.054283794 -0.24868438 0.33020058 0.11773059 0.058662802
-0.08458856 0.13910052 -0.19240426 0.121988624 0.017291129 0.19502343 0.17887196 0.2016019
-0.1079645 -0.28011888 0.24195227 -0.30650088 0.22835283 0.26765504 -0.26281396 0.30098942
0.31109902 0.34219012 -0.06623909 -0.14944206 -0.116207495 -0.055091824 -0.107489586 -0.015261829
-0.2221769 0.1890106 0.23227069 0.28832817 -0.034960773 -0.14935781 0.19702628 0.14952406
0.35310045 -0.18953928 0.27486148 -0.25057602 0.28921235 -0.27529782 0.08053264 -0.16133255
-0.17136428 -0.20254451 -0.25743484 0.18646462 -0.33660263 -0.19479868 -0.29281038 0.271747
0.10432696 -0.30485386 -0.12426041 0.15345529 0.15331516 0.017802268 0.19386302 0.02014172
0.16951492 0.28833365 0.24942835 -0.3184591 -0.26306194 0.039965123 -0.29931352 0.081070215
-0.061681688 0.04098916 0.010496795 0.29893014 -0.1880123 -0.26214167 -0.27897847 0.30427182
0.011483699 -0.24228051 -0.06987023 0.33113787 0.10820255 0.2669091 -0.307004 -0.2138068
-0.148877 0.19469658 0.17110917 0.012533873 -0.20352796 -0.24439764 0.2038537 -0.14858255
0.17827499 -0.124770984 0.013138831 -0.08504939 0.12618968 -0.26027942 -0.16287678 0.13395646
-0.26961523 0.14773759 -0.02766642 -0.21134469 0.029925704 0.2691166 0.23765641 0.17727491
0.006873339 -0.20537332 0.33368897 -0.26483983 0.11265856 -0.25158933 -0.21996002 0.112882376
0.23419845 -0.0042224526 -0.11148145 -0.22362396 -0.10985373 0.082452886 0.14350554 -0.17119414
0.2521047 -0.21719232 -0.20144004 0.29704228 -0.19561121 -0.16249621 0.011853814 -0.2130464
-0.16632976 -0.19859156 -0.099318236 0.32598332 -0.045974668 -0.05244994 0.29608485 -0.13867106
0.267097 -0.1900613 0.074718595 0.32689187 -0.100709975 0.29473558 0.12530312 -0.07973978
0.14705214 0.18451956 0.31066066 -0.31852543 0.22648475 0.15201983 -0.113966376 0.16983743
-0.34628618 0.25558564 0.17716613 0.2537987 0.12592015 -0.30116227 0.04606819 0.08270985
0.2957212 0.024576724 0.028196573 -0.2629511 0.14699337 -0.35109952 0.22789064 -0.24049616
0.2889835 -0.33159083 -0.26590395 -0.12565365 0.004026711 -0.054294974 -0.13868906 -0.176938
-0.21371152 0.2759488 0.33332184 -0.2003203 -0.15787143 0.10558018 -0.31613654 -0.25504452
0.03193763 -0.20074354 0.012719929 -0.045080185 0.008361728 0.2759578 0.20451626 0.2910134
-0.21717533 0.183494 -0.29533827 -0.2947055 -0.09224915 -0.25012308 -0.09577668 0.22810403
0.15672371 -0.109724015 0.012806267 -0.2663992 0.037660033 0.32598904 0.040905654 -0.22427
-0.05402544 0.12804306 0.33480206 0.35242248 -0.26737976 -0.1398937 -0.22213547 0.32332763
-0.22941095 0.0007266998 -0.01916784 -0.19935927 0.055456787 0.21838513 -0.25557122 0.064519405

fc1.bias f4 [64]
00000000: 788e 46bd 3f9e 85be 4a79 07be be59 173e
00000010: 9651 6e3e 1427 22be 5361 84be c0d7 a93b
00000020: 8fda 893e 5eac 9cbe 5cc0 87be 1ac8 73be
00000030: 882b 69bd 6ab9 80be 449a 90be 801c 523d
00000040: ec36 043e 521b 543e 58f4 403d ab05 8f3e
00000050: 4050 083e b4cf ec3d e0ff 47bc 785b 63bd
00000060: be83 0d3e a61c 3c3e cfa1 85be 849b 77be
00000070: 3cc0 cc3d 31db 8f3e 09fd dc3d b770 9c3e
00000080: 4ec7 623e e59b 80be d2ff 78be 00af ad3d
00000090: 0029 1cbd 4c07 5c3e 30a6 fb3c 6eeb 223e
000000a0: 4e48 243e 1606 aebe 80a5 553d cd69 26be
000000b0: c09c 1ebc 83b8 583e 886f 91be 1302 24be
000000c0: 326b 7f3e cb8b 09be e0da 54bd 693a 9a3e
000000d0: ba1e 3cbe deee 0d3e 9c06 43be 8bc7 e1bd
000000e0: 92c0 2e3e 3cc1 c83d d71a b0be e84c 893d
000000f0: 31c4 b6bd da6d 05be a7dd 85be 50df 093d
-0.048475713 -0.26097295 -0.13229862 0.14780328 0.2327331 -0.1583522 -0.25855502 0.00518319
0.2692456 -0.30600256 -0.26513946 -0.23806801 -0.05692628 -0.2514146 -0.28242695 0.05129671
0.12911576 0.20713547 0.047108024 0.27934012 0.13311863 0.11563054 -0.012207001 -0.055507153
0.13819787 0.18370304 -0.26100013 -0.24180418 0.09997603 0.28096917 0.1079045 0.30554745
0.22146341 -0.25118938 -0.24316338 0.08480644 -0.03812504 0.21487159 0.030718893 0.15910122
0.16043207 -0.33989018 0.052159786 -0.16251297 -0.009680927 0.21164136 -0.28405404 -0.16016416
0.24943236 -0.13432233 -0.051966548 0.30122688 -0.18371096 0.13860652 -0.1904549 -0.11024388
0.17065647 0.098024815 -0.34395477 0.06704122 -0.08924139 -0.13030186 -0.2614567 0.033660233

fc2.weight f4 [32, 64]
00000000: 80b8 473b 462c 953d bc49 753d fc11 9d3d
00000010: 7271 aa3d 067d ae3d 50a3 3f3d e275 953d
00000020: 2825 e8bd bc23 6cbd 3c89 c0bd 003f 19bb
00000030: 5043 b43c 3441 c3bd 004d 893c 3431 ee3d
00000040: d0c2 573d e252 333c 021b c2bd 7e62 ad3d
00000050: c77b aebd 9274 bebd 542d e3bd 03b2 7ebd
00000060: 88ae 273d a888 fb3d 2473 b1bd 605e babc
00000070: ec88 61bd 4cf2 2fbd 701c dfbd 63fb ad3d
00000080: 7878 953d 800d b73b e102 613d b0af dfbd
00000090: 9069 52bc 58e1 b23c 4096 783c 6026 b73b
000000a0: 50e4 883d 4447 b7bd 058e eb3d aa93 cdbd
000000b0: cc54 6f3d 30ae 113c 3b73 5cbd b0b2 163d
000000c0: 808d c3bd 470a 41bd 84ba bdbd 9423 adbd
000000d0: 5433 143d 6d66 33bd 6c85 36bd 1c0b a53d
000000e0: 34fc aabd d822 b4bd 00a8 2e3d 40db 39bd
000000f0: 201e c0bb dc3c b43d 40c2 36bc ab45 c43d
00000100: 5dff 5dbd 0219 a23d 3cd7 d7bd e815 fdbd
00000110: b45c 5c3d a04b c63c 803a dc3c 7a67 dbbd
00000120: ff87 c53d 1a83 af3d b3c3 a43d 4053 4dbb
00000130: 6e27 dcbd 7e0d a53d c057 a5bd f0c7 56bc
00000140: 11d5 e1bd dcbc c03d 31b6 9ebc 00c0 b038
00000150: 6e93 edbd 24da 2bbd 98e9 863d e87b f4bd
00000160: 1026 b7bd e4dc af3d 12ed 513c fa8d b9bd
00000170: 908f a7bc a016 ebbd 30ce 083d 60dc a2bb
00000180: 28a1 6cbd b062 8fbd 0f50 d13d 4066 07bd
00000190: 8e04 be3d fee0 f3bd a528 4bbd 22f9 75bd
000001a0: 8ac1 ce3d 8065 b6bd b062 113d bc8b 133d
000001b0: d87d 933d 0670 ddbd 48dc 01bd c844 cebc
000001c0: f40c 853d 2064 f0bd 5ee4 ad3d c0e8 033c
000001d0: 40ef 0abc 4a3a cb3d 447d 26bd 30d5 ccbc
000001e0: baf6 a7bd 1407 893d b4a7 073d 88d1 f13d
000001f0: 36c7 a43d 80c1 ddbd 08a1 a4bc 924c b23d
00000200: 214a a93d ac1e 6b3d 0e22 a2bd c8e5 d5bc
00000210: 44b6 8f3d 41bf 4c3b d0a0 3dbd 7c4f a3bd
00000220: 40f0 d4bd 6677 98bd 6efd c7bd 621e cf3d
00000230: 4ab9 8f3d 28cd fcbd 780e c9bd 00ca bdbc
00000240: 0c79 d5bd 6c66 883d 2031 e33c 966c 633d
00000250: cc05 79bd 40d2 35bc fcc3 62bd d810 b2bc
00000260: 3c67 203d ce24 f23d 802b 69bb b2ce f13d
00000270: 3af6 ab3d 14d2 91bd e03d 82bc a8d8 8abc
00000280: 065d 83bd f80f 8ebd 5015 5a3c 8004 ebbc
00000290: 62e0 eb3d 6057 c3bb 580c 073d bc12 23bd
000002a0: 00ff 0cbb 6806 fcbd 94ad f43d d8fd 9b3d
000002b0: 9632 fe3d c062 5f3d 840f bbbd 3ee8 fcbd
000002c0: 3f0e 5a3b 721b 9b3d d6d3 86bd 2000 76bd
000002d0: a0c1 6c3d 8796 ca3c 0a47 e4bd f1d6 cd3d
000002e0: 895f c53c d8f6 303d 94e8 8e3d fcd0 2e3d
000002f0: deb4 ad3d c092 443d 20e6 22bd 40cb c33d
00000300: 1431 403d 82f5 84bd 30e3 9e3d 20db 8bbd
00000310: b826 4e3d d7b2 d0bd 18c2 b13d ab5e bebd
00000320: 60a2 5bbd f4ed b7bd 6078 623c d8a0 af3c
00000330: f885 febc b8c3 95bd 506e c03d fc06 edbd
00000340: dc5a 593d 1021 233d a619 9bbd d828 69bd
00000350: d86d c7bc 681c 0ebd f13f babd 297e 403d
00000360: 5cd1 b2bd 40bd 393d d415 d63d afd8 5d3d
00000370: e0a0 15bc 7ad9 a1bd 606c b13c 1cfc fb3d
00000380: 2eeb a13d 90b2 313c 10d7 753d 1042 d6bd
00000390: 58b0 dabd 50f7 a6bd d0c6 2b3d 184e 703d
000003a0: 86b3 a8bd 00b0 35b9 d1ad e7bc cc33 acbd
000003b0: ff50 e3bc 0763 c6bc 44d3 35bd cc43 0b3d
000003c0: 8e67 bcbd d1c2 e4bd 6744 2dbd e0e9 3fbc
000003d0: dd43 5ebd aec6 f0bd 24aa cfbd e1d3 ba3d
000003e0: d687 89bd d893 0ebd 9b81 bebd 7a76 f83d
000003f0: f64e b13d ac78 1fbd 01d6 743d 92c2 f63c
0.003047496 0.07283835 0.05988477 0.07669446 0.08322419 0.0851994 0.046786606 0.07297875
-0.11335212 -0.057651266 -0.094011754 -0.0023383498 0.022004753 -0.09533921 0.01676035 0.116304785
0.052676022 0.010945054 -0.094778076 0.084660515 -0.085197024 -0.09299578 -0.1109263 -0.062181484
0.04093793 0.122819245 -0.086645395 -0.02275008 -0.05506222 -0.04295568 -0.10894096 0.08495214
0.07298368 0.005586326 0.054934386 -0.109221816 -0.012842551 0.021835968 0.015172541 0.0055892915
0.06684172 -0.0894914 0.115016975 -0.1003793 0.058430478 0.008891627 -0.05382083 0.036791503
-0.09548473 -0.047128942 -0.09264091 -0.084540516 0.036181763 -0.043798853 -0.044560835 0.080587596
-0.08348885 -0.087957084 0.042640686 -0.04537511 -0.005862966 0.088006705 -0.011154711 0.095836006
-0.05419861 0.07914926 -0.105390996 -0.12357694 0.053799346 0.024205983 0.026883364 -0.10713096
0.0964508 0.085699275 0.08045139 -0.0031330138 -0.10749708 0.08059214 -0.080733776 -0.013109192
-0.11026967 0.09411022 -0.019373985 8.428097e-05 -0.116003856 -0.041956082 0.06587523 -0.11937696
-0.08942807 0.085870534 0.01281287 -0.09060283 -0.020454198 -0.11478925 0.03339976 -0.0049701184
-0.057770878 -0.07001245 0.10220348 -0.033056498 0.092782125 -0.11908148 -0.04959931 -0.060052045
0.100955084 -0.08906078 0.035494506 0.036021933 0.07201737 -0.108123824 -0.031704217 -0.025179282
0.06496611 -0.11737847 0.08490823 0.008051097 -0.008479893 0.09923227 -0.040646806 -0.025004
-0.08201356 0.06690803 0.03311892 0.11807543 0.08045809 -0.10827923 -0.020096317 0.08706011
0.08266092 0.057402298 -0.07916652 -0.026110545 0.07017186 0.0031241926 -0.04629594 -0.07974145
-0.103973866 -0.074446484 -0.09765135 0.10113217 0.07017763 -0.12343818 -0.09817213 -0.02316761
-0.104234785 0.066601604 0.027733386 0.055523477 -0.060796544 -0.011097491 -0.055362687 -0.021736547
0.039160952 0.11823426 -0.0035578907 0.11807002 0.08396573 -0.07120147 -0.015898645 -0.016949013
-0.06414227 -0.069366395 0.013310745 -0.02868867 0.11517407 -0.0059613436 0.032970756 -0.03981279
-0.0021514297 -0.123059094 0.1194717 0.07616776 0.12411992 0.054537535 -0.09133819 -0.12348984
0.0033272651 0.07573594 -0.06583373 -0.060058713 0.057801843 0.02472998 -0.11146362 0.100507624
0.024093406 0.04320416 0.069779545 0.04267977 0.08481763 0.047991514 -0.039770246 0.09560251
0.046921805 -0.064921394 0.07758176 -0.06828904 0.050329894 -0.10190361 0.086795986 -0.092954
-0.05362165 -0.08980933 0.013822645 0.021439001 -0.03106974 -0.07312721 0.093960404 -0.11573598
0.053065166 0.039826453 -0.075732514 -0.056923717 -0.02434437 -0.03469506 -0.09094227 0.046995316
-0.087313384 0.0453465 0.10453382 0.054161724 -0.009132594 -0.079028085 0.021658123 0.123039454
0.07906185 0.010845795 0.060019553 -0.10461819 -0.10678166 -0.0815264 0.04193765 0.058668226
-0.082373664 -0.0001732707 -0.028281124 -0.08408317 -0.027748583 -0.024217142 -0.04439093 0.034000203
-0.09199439 -0.11169971 -0.04230156 -0.011713475 -0.05426394 -0.11756645 -0.101398736 0.09122444
-0.06715362 -0.034808964 -0.09302064 0.121319726 0.08657639 -0.03893344 0.059774403 0.030122075

fc2.bias f4 [32]
00000000: f8dc c73d 4403 62bd 940f 053d 44d9 e8bd
00000010: ba8b 9ebd a407 c4bd 34c2 dbbd 02fb 9fbd
00000020: 5ac2 ad3d f09c ff3d ec48 3c3d 8e44 91bd
00000030: 22b8 a6bd c084 4abc 504e 9abd 42d7 d03b
00000040: 15d0 ff3d e4bf cf3d 2877 1a3d 4871 38bd
00000050: d85d d13d aca0 aabd 804f 75bb 6ae4 3e3d
00000060: 506e 453d d8d2 183d c9c3 a63d c858 4ebd
00000070: 6076 e93c ac7b d7bd 60d3 b8bc 8b8d d2bd
0.09758943 -0.055178896 0.03248556 -0.11369565 -0.077414945 -0.0957177 -0.10730401 -0.07811548
0.08484335 0.12481105 0.04596798 -0.07093154 -0.08140589 -0.012360752 -0.07534468 0.006373317
0.124908604 0.10144022 0.037711293 -0.04502991 0.102229774 -0.08331427 -0.003743142 0.04660455
0.048200905 0.03731045 0.08142812 -0.050377637 0.028498828 -0.105216354 -0.022561729 -0.102809034

fc3.weight f4 [1, 32]
00000000: 5470 28be 21a7 2bbe c902 113e 728a a63d
00000010: 86b3 c13d c80c 45bd 309c 0ebc e8cf 68bd
00000020: 5015 b1bc 2132 123e ac62 633d b424 2e3e
00000030: 2445 0a3d 5f01 b73d a24a 1e3e d26c d4bd
00000040: c802 33be 528a 8abd 983f 793d 40a7 d53b
00000050: 0a2e f13d 84ce 043d 8ae3 f63d 08c5 e7bc
00000060: 01e2 d03d acbe 34be 0fd0 e1bc a0b9 24bc
00000070: 667c 5abd 3e71 9c3d 7090 25be d82d bbbc
-0.164491 -0.16762973 0.14161219 0.08131875 0.094580695 -0.048107892 -0.00870423 -0.0568389
-0.021616608 0.14276935 0.055514023 0.17006189 0.033757344 0.089358084 0.15458158 -0.10372318
-0.1748153 -0.06764664 0.060851663 0.006520182 0.117763594 0.03242351 0.120551184 -0.028292194
0.10199357 -0.1765086 -0.02756503 -0.010054022 -0.05334129 0.07638787 -0.1616838 -0.022849008
